tankresults/TestA4/SuperTank/checkpoint.pt (torch, 451554 bytes, 50 tensors)

network_body.observation_encoder.processors.0.normalizer.running_mean f4 [6]
00000000: 2aa7 13c0 b4b9 3d3e f60d 8abf 8a98 193f
00000010: 6346 613e 906f 9dbf
-2.307078 0.18527871 -1.078551 0.5999838 0.21999507 -1.2299671

network_body.observation_encoder.processors.0.normalizer.running_variance f4 [6]
00000000: b85b 7649 11ee cf45 d387 4549 ff13 ae3f
00000010: bf31 863f 78f9 2040
1.0090835e+06 6653.7583 809085.2 1.3599852 1.0483931 2.5152264

network_body.processors.0.normalizer.running_mean f4 [6]
00000000: 2aa7 13c0 b4b9 3d3e f60d 8abf 8a98 193f
00000010: 6346 613e 906f 9dbf
-2.307078 0.18527871 -1.078551 0.5999838 0.21999507 -1.2299671

network_body.processors.0.normalizer.running_variance f4 [6]
00000000: b85b 7649 11ee cf45 d387 4549 ff13 ae3f
00000010: bf31 863f 78f9 2040
1.0090835e+06 6653.7583 809085.2 1.3599852 1.0483931 2.5152264

network_body._body_endoder.seq_layers.0.weight f4 [128, 6]
00000000: f7a7 4fbe a7dd 9a3e fa7c ee3e 9abf a23e
00000010: 1a90 893e 2144 72be d06f 67bd bd7f aebd
00000020: 056f 42bf fda9 a03c 397b 5b3e 66f6 573e
00000030: d6d7 88be 0b87 57be e214 c0bc 5ed0 9ebd
00000040: dacf bc3e c05c 28bf a4a5 6bbe 0280 79bb
00000050: f7d7 c53e 744d b43e 9128 ecbe 92b6 0e3e
00000060: 2d81 a23e 14a6 813e 1357 9c3e 02a3 f5bd
00000070: a405 9fbe 7f24 6e3c 788d 6a3f 4f28 8e3e
00000080: 8776 80bf 8e30 993c 7e3d 45be f08e 1d3e
00000090: 89a1 1a3f 5cbc 283d 887a 9d3e d732 b93d
000000a0: 87bd c73e c000 523d 190d d1be cd55 083e
000000b0: bb3b 2bbf 4c93 143f 72e5 aa3d c919 433d
000000c0: cc19 e43e e864 063e 899f e8be be1d aabe
000000d0: 4712 6cbf 3f24 39be 7be4 b63c dcd7 2abf
000000e0: 6abc 163e c182 8fbe b35c b13e edc4 01be
000000f0: ac4a 08bf a93c a8bd 1325 b23e 1d73 aebe
00000100: 42eb 3a3f dda6 2b3e 20b0 8b3d 89a4 75bc
00000110: 74e4 dd3e 0220 073d b81d 1ebf 63e0 5cbf
00000120: 3435 1cbf d6b6 bcbd 8369 edbe f7af 873e
00000130: 4ae6 a43e fae7 7fbe 3660 0cbf ba4c 4abd
00000140: 0cc9 113f 710e 53bf 287d 163f 0a8a fbbe
00000150: 18c0 053f 0b75 fcbd 8adc 0dbf 4bea 383e
00000160: 075e b0bd 7506 573c ff22 573e 971f f4bc
00000170: ed45 21bf 9217 0b3d ff8e b13d dc51 acbb
00000180: b34c a63e 6d44 823e 4900 2abf 2963 9f3f
00000190: 9aa6 ec3e 61b8 9abe 9e23 1dbf d072 893f
000001a0: 7a3d f63d 6238 fbbd 45a4 123f 98d3 23be
000001b0: adef 3c3d 7a8a 48bf 226f b0bd e6d3 5d3e
000001c0: 7560 d63c a3f6 2fbe a90b 2b3e 3a10 0c3e
000001d0: 8ad4 17be e540 473f 6964 52bf 78d3 a83e
000001e0: 5ff7 92bd 2d58 c4be f9b6 b33e 23f2 b53b
000001f0: a2c1 f53e eee5 6cbe c1af 5f3d 39fa 8b3d
00000200: eeb2 1dbe 2f2f babd 7c7a cc3e fe5b e03e
00000210: 45bd 213f 092f c53b d993 26bf 6de6 dabe
00000220: 2e55 94be 8136 a8be f3fb cc3d 294f 1c3f
00000230: a3de fd3e 299b 37bf 59a0 95be 7037 2f3d
00000240: f944 2ebe a355 1a3d 9bf2 963e 501e 3c3e
00000250: 779e dcbe a5cd 253f 6c14 7bbd 6585 5c3e
00000260: fac4 be3e f44e 15bf 1d08 b63e 50e6 e83e
00000270: 24bb 95bd 184d a23e 71fe 12bf da4c d1be
00000280: aa42 febe 6b09 6e3e 35e0 77bf 5256 09be
00000290: 9b29 813d de7f dcbe f742 f1bc 3e96 97be
000002a0: a5ca 7fbe b4fc b23e 8dc9 3e3d b8ff 513f
000002b0: ddea 81be 67da 533e d6d2 67bf 72bf 0ebe
000002c0: e0e2 53bf 0c48 55be 7c81 3c3e 1243 42be
000002d0: 96af 3dbf 7b1f fdbe beea 883e 56f4 1a3e
000002e0: ca0a 303f 2d2f dfbe 918d 783f 1a4b 193e
000002f0: ce34 3f3e afcb 11bf 9993 3ebe 0992 5b3e
00000300: 6b85 263e b2b7 5dbf 4b93 b9bd 243e 7fbd
00000310: addd 6f3f 88d7 903e 98ea 193d 44a8 b63d
00000320: fd3f d63e 0f77 00bf c643 653e 73a0 dd3d
00000330: eb5e 343e 1a8d aa3d efbd 78be dc0e 02bf
00000340: 4c58 7fbe b695 17bf 0219 ae3e c0d6 1fbe
00000350: 20e2 ec3e 5556 cd3e 0254 44be 2052 893e
00000360: ef94 29bf 2d4d 93bd f752 c03e 7263 c0be
00000370: 9d7c 26be 9423 1abe ba86 9dbe 4177 38be
00000380: 6a28 8abd 36a0 183e 1a89 d73d afc7 3bbf
00000390: 4577 2b3f 16d4 003f 375f 8bbf c4b5 a53c
000003a0: 97ea e4bd d57a 453e f82e b7be 4028 6bbe
000003b0: 0862 f73d 19b6 773c 9a23 2e3e 0b93 12bd
000003c0: 1361 e43c b711 4cbf c01f 85be 0eea 883e
000003d0: 237e 0abe 6fc2 74be 4c31 c93e e761 8cbd
000003e0: 2812 71be c897 73be 2e40 783d 540b 803e
000003f0: c1ed 09be 7b29 58bf 91c1 183e cbc4 7dbe
-0.20278917 0.30247232 0.46579725 0.31786805 0.26867753 -0.23658802 -0.056503117 -0.08520458
-0.7595065 0.019612307 0.21433724 0.21090087 -0.2672717 -0.21047609 -0.023447458 -0.07754587
0.36877328 -0.65766525 -0.23012406 -0.0038070683 0.3864133 0.35215342 -0.461247 0.13936833
0.31739178 0.2532202 0.30535182 -0.11993982 -0.3105899 0.0145350685 0.91622114 0.27765128
-1.0036172 0.01869991 -0.19261739 0.15386558 0.60402733 0.04119526 0.30757546 0.090429
0.39011785 0.051270247 -0.40830305 0.1331398 -0.66888016 0.5803726 0.083445445 0.047632013
0.4455093 0.1312443 -0.45434216 -0.33225816 -0.9221539 -0.18080233 0.022325745 -0.66735625
0.14720312 -0.28029445 0.34641036 -0.12672777 -0.5323894 -0.08214695 0.3479391 -0.340722
0.73015225 0.16762872 0.068207026 -0.0149928415 0.43338358 0.03298951 -0.617641 -0.86279887
-0.6101868 -0.09214561 -0.46369562 0.26501438 0.32206947 -0.24990836 -0.54834306 -0.04938958
0.569474 -0.8244391 0.58784723 -0.49128753 0.52246237 -0.12327012 -0.5541464 0.18058126
-0.08611684 0.013124098 0.21009444 -0.02980022 -0.62997323 0.033958025 0.086698525 -0.005258782
0.32480392 0.2544283 -0.66406685 1.2452136 0.46220857 -0.30218795 -0.6138247 1.0738163
0.120234445 -0.122666135 0.57281905 -0.15998685 0.04612701 -0.783363 -0.08614947 0.21662864
0.026169041 -0.17183928 0.16703667 0.13678065 -0.14827171 0.77833396 -0.82184464 0.32973838
-0.071760885 -0.38348523 0.35100535 0.0055525466 0.47999293 -0.23134586 0.05461097 0.068348356
-0.15400288 -0.09091031 0.39937198 0.43820184 0.6317943 0.00601757 -0.6506935 -0.42753926
-0.28971237 -0.32854083 0.10008993 0.6105829 0.4958392 -0.7172113 -0.29223898 0.04277748
-0.17018498 0.037679326 0.29481968 0.18370938 -0.4308965 0.64766914 -0.061298773 0.21535261
0.37259656 -0.583236 0.35553065 0.45488214 -0.07311085 0.31699443 -0.57419497 -0.40878946
-0.49660236 0.2324578 -0.9682649 -0.13411835 0.06306764 -0.43066305 -0.029450877 -0.29606813
-0.24979647 0.34958422 0.046578933 0.8203082 -0.253745 0.20688783 -0.90556085 -0.13940218
-0.8276806 -0.20828265 0.1840877 -0.18970898 -0.7409605 -0.4943808 0.26741594 0.1513227
0.6876646 -0.4359068 0.97091013 0.14970055 0.18672487 -0.5695142 -0.18610992 0.21442427
0.16261832 -0.8660842 -0.09061297 -0.06231512 0.93697625 0.28289437 0.03757724 0.08918813
0.41845694 -0.5018167 0.22389135 0.10821619 0.17614333 0.08327694 -0.24291204 -0.50803924
-0.24936026 -0.59212816 0.34003454 -0.15609264 0.4626627 0.4010493 -0.19172671 0.2682047
-0.6624288 -0.071924545 0.37563297 -0.3757587 -0.16258474 -0.15052634 -0.3076685 -0.18014242
-0.067459896 0.14904866 0.10524197 -0.7335157 0.66978866 0.5032362 -1.0888432 0.020228274
-0.11177557 0.19285138 -0.35778022 -0.22964573 0.12079245 0.015119099 0.17005768 -0.035784762
0.02787832 -0.7971453 -0.26000786 0.2674107 -0.1352468 -0.23902296 0.39295423 -0.06854611
-0.23542082 -0.23788369 0.06060808 0.25008643 -0.13469602 -0.84438294 0.1491759 -0.24782102

network_body._body_endoder.seq_layers.0.bias f4 [128]
00000000: 1d68 8b3b 5625 273d 1fea 6dbc 7b63 f2bc
00000010: 8855 42bd 7159 103d fb43 ab3c ab35 443d
00000020: 5e6c 243d ffe7 8b3d 3006 263d 8483 f93c
00000030: 0611 023d 7ad1 e33c 2650 303c 50ee 3a3d
00000040: 6b21 143d d8e3 883c e4ad c43d 7ca1 3cbc
00000050: 8918 0a3d 49ca 0abd 02ef 2c3d 9f3d adbc
00000060: a4c9 e2bc 6aaa 21bd c431 413b 6ce9 d43c
00000070: f022 efbc 2956 9dbd d5db 093d f33e febc
00000080: dbc2 303e c481 e1bc 4dae 383c 6f3d 06bc
00000090: bfdf 173d dbc8 933c 2789 fb3c e373 2b3d
000000a0: 29dd 823d cd60 473d c10f b93d 0806 793d
000000b0: a1cc 2f3d 432a 1abd 74b9 69bc 2b22 d4bc
000000c0: 92f7 ee3d 9629 ad3d 0bb8 3c3d 57e0 f6bc
000000d0: bd6d fd3b 71e0 9ebb 5232 c63b 5da9 4dbc
000000e0: 7069 8abc 5cdd f13b 631d 2bbc ea45 2d3d
000000f0: 1f65 bebc 819d 1e3d 1539 023a f880 503c
00000100: 5295 063d c5d0 21bc 2013 393c 918a 6f3b
00000110: 6d6f 093c 83aa cfbc 2c14 63bd a873 0ebd
00000120: 9f6c 42bd 73ce 2abd 7c05 08bd 57d1 553d
00000130: 0d00 e1bc ac5c 7abb 1c3e 90bc 466b ffbc
00000140: 68ce c6bc 6f7b 41bd b803 c63c f729 02bc
00000150: 430e c0ba 0eae b8bc 019e b9bc 1395 d43b
00000160: 11a3 983c 9711 26bd bb33 5a3c 8431 e53c
00000170: bfac 1f3d 4bb2 9e3c 338e 80bb 590b 443b
00000180: ec3f 95bc b0f3 6e3d 7743 e23c 7dda 163c
00000190: 9834 1cbd e53e c43b 43bf 8dbc 6969 d2bc
000001a0: 6e94 213d c5ec f9ba 078a 3b3c 0804 933d
000001b0: e981 a33c e08c bfba 6ccf 7fbc 65ca 45bd
000001c0: 8302 a43d 478b 3fbb b758 3dbd 1b51 5a3d
000001d0: e4b7 9dbd fc81 023c 6970 93bc e194 1a3c
000001e0: 4df4 04bd 669e 143d 2bcf 033d 5aa6 463d
000001f0: 1b8f aa3d 3453 e73b e118 433d baba 99bc
0.0042543546 0.04080709 -0.014521151 -0.029588452 -0.04744485 0.035241548 0.020906439 0.047902744
0.04014241 0.06831359 0.040533245 0.03045822 0.031754516 0.027809847 0.010761296 0.04563743
0.036164682 0.016710207 0.096034795 -0.01151311 0.033714805 -0.03388432 0.042220123 -0.021147547
-0.02768404 -0.03946916 0.0029479126 0.02599021 -0.029191464 -0.07682449 0.033656914 -0.031035876
0.17261831 -0.027527697 0.011272025 -0.008193358 0.037078615 0.018040111 0.030705048 0.041858565
0.06389839 0.0486763 0.09036208 0.060796767 0.04291976 -0.03763796 -0.014265407 -0.025895199
0.11668314 0.084551975 0.046073955 -0.03013627 0.007734029 -0.004848533 0.006048479 -0.012552586
-0.01689598 0.0073811244 -0.010444018 0.042303003 -0.023241578 0.038724426 0.00049676123 0.012726061
0.032857247 -0.009876435 0.011296064 0.0036551098 0.008388382 -0.025349861 -0.05543916 -0.034778267
-0.04746687 -0.04170079 -0.033208355 0.052201595 -0.027465845 -0.003820221 -0.017607741 -0.031179082
-0.024268344 -0.047236856 0.024171695 -0.0079445755 -0.0014652688 -0.022543933 -0.02265835 0.0064874976
0.018632444 -0.04054412 0.013317998 0.027977712 0.038983103 0.019372126 -0.0039232015 0.002991399
-0.018218957 0.058337867 0.02762006 0.009207365 -0.038136095 0.005988943 -0.017303115 -0.02568503
0.039448194 -0.0019067755 0.0114464825 0.07178503 0.019959407 -0.0014614128 -0.015613418 -0.04828872
0.080082916 -0.0029227303 -0.046227183 0.053300004 -0.0770109 0.007965561 -0.017997937 0.00943491
-0.032459546 0.036283873 0.032179993 0.04849849 0.083280765 0.007059479 0.04763115 -0.018765796

network_body._body_endoder.seq_layers.2.weight f4 [128, 128]
00000000: 8dad 5cbd 31dc 3b3d 092a a2bd fd85 e0bd
00000010: 07c6 c6bc 3320 8d3d da48 92bd 6c05 393d
00000020: e1aa a53d 6a80 06bd 6d17 a9bb f317 943c
00000030: b8e7 b9bd bb0a f13d f1cb 913d 267d 18be
00000040: 93d2 0ebe 71eb 36be 2ed8 1e3e f55c 283d
00000050: 1e53 16bd 8c8f 2ebd 75a1 143e e7f3 f33c
00000060: 1be5 073d 19be 47be a094 093d e677 813e
00000070: a226 963c 058d 373d 9b2e 653c 33f5 01be
00000080: 7523 7e3e 5b99 363e e643 003d 761a e9bd
00000090: e490 263d 832a 97bd 1e24 923c cf6e 4d3e
000000a0: 7b7d 8abd c575 803b ae2f 383e edaf 543e
000000b0: bb8a 9d3c 9538 233e f974 df3c 0404 10be
000000c0: 82c8 1f3d 0235 ca3d b0f0 eabd 3db2 0bbd
000000d0: c09c 0dbe f656 c5ba 542c fbbc a989 ab3c
000000e0: fafb aa3c 4822 b6bd ae07 8a3d cf9c d83d
000000f0: 6279 ccbd b65a 8e3d 9e58 373c 53df b8bc
00000100: abc1 cdbc b42c 8ebc 3794 44bd b1d4 92be
00000110: 4edf 983e 0ff9 9cbd 8d37 17bb f2f9 6e3b
00000120: 7e13 203d 793c 843b 3e65 24be c861 ad3d
00000130: 6b06 dabd f235 0e3e e900 863c 41a8 7bbc
00000140: be98 45be 7306 353e 0323 8b3c 9322 4a3d
00000150: c0f2 b73c 9a2f 37be a265 883c 8b65 143e
00000160: 76fb 8c3c 7860 453d 48d3 323d f962 c1bd
00000170: d8bf b63c bfe0 44be de0e c4bc 1611 0abe
00000180: eed5 4cbe bb1e 903a d6c6 a23c ffae 8d3a
00000190: b6bf 783d f8a6 25be 4250 e33d bd79 f9bc
000001a0: e433 463e e42e 32be 7cba 78bd bd2e 7d3b
000001b0: 8c21 6fbd 8924 9fbd 8f79 a2bd 2a0c dabd
000001c0: a988 8bbc 65e9 323c 95fc 05bd cd6e ce3d
000001d0: cd08 833d 5d34 6fbd 2774 81bd b5d4 7cbd
000001e0: 07c2 d63c b892 80bd f7d9 da3c cf1b f23d
000001f0: dcc5 1a3e 0a47 6a3d 6c90 1b3e 55c3 a4bd
00000200: 5093 ecb9 9f9d d6bd 183f 20bd 423b a6bc
00000210: c253 2dbc 9bd6 873b c2fd 40bd 2739 843d
00000220: 17bf 4f3d 5a91 1fbc c417 6bbc 3856 023e
00000230: a0de 2c3e cb23 053e 4767 d0bc 93bb 523e
00000240: 7ebd 023e c554 d03b aeff 223e 7db1 74bd
00000250: 7799 5cbd 2caa 9fbd dd2a c73d 1c8c c23d
00000260: 1bd3 153d c1d2 fa3c 6c2a 07be fc88 9c3d
00000270: 52d2 e2bd 4481 e3bd 32f7 8e3d 3ec7 08be
00000280: 457b cb3d a831 edbc 3b67 493d c6c4 203e
00000290: 0ebc 1abe e97b 52bb 35b3 763c 0792 ac3d
000002a0: 25db 483e 1cdf 29bc 254f 4ebd b959 603d
000002b0: fc62 42bd f620 d43d d915 293d 3776 71bd
000002c0: 5122 873c 709a 0a3e e6aa 71bc 1fe4 80bd
000002d0: 16da b4bd 21c0 953c a381 a13c 9c0f 4a3d
000002e0: 41e0 1d3d 0ce5 693b 3c79 2ebd 2b8a de3d
000002f0: 4114 28bd 293f 933d 8515 463e db6e 6a3c
00000300: 5171 d3bd f40b e43b f355 bcbd 7693 de3d
00000310: 269d a33d 1606 b3bd e891 613e b02a 2d3e
00000320: 4597 05be 486b 443d c339 ccbd 63e6 2bbd
00000330: e7e9 e23d e3ba 23be 8919 2dbc fed5 5abc
00000340: d862 893d 4022 2d3d 75fb ef3d c537 e0ba
00000350: 2320 a1bd 17eb 13be 127d d3bd 2569 c93d
00000360: 3bc4 ddbc a9ac 013e 990e 16bc 80c7 f93c
00000370: 7b8d 953d 5799 a3bc e254 173d 9d00 cabd
00000380: 09af 8cbe fcf7 01bd b225 dc3d 8605 373d
00000390: 99f7 0e3d 0a63 1cbd b419 77bd 76ac a43b
000003a0: 4810 a4bd bcd0 e3bd 56db 9fbd c9a7 0fbd
000003b0: 7cc9 473d ab4c 05bd 5dd1 d93c 5aa8 c3bd
000003c0: 098b 473c 31d2 923d 9e89 e7bc cdb0 653b
000003d0: 4bb0 07be be7b afbd 7163 0cbe 8652 f03c
000003e0: 7c89 d33d 1900 2ebd f25e cd3c e7eb aa3d
000003f0: f5ac c4bd b31b 0bbe 9669 d73c 1ddd 57bc
-0.05387645 0.045864288 -0.07918174 -0.10963056 -0.024264349 0.06890907 -0.071428016 0.045171186
0.08089233 -0.03283731 -0.0051602633 0.018077826 -0.090774 0.11769625 0.07118977 -0.1489149
-0.13947515 -0.17863251 0.15512154 0.041104276 -0.03670036 -0.042617366 0.14514716 0.029779388
0.033177476 -0.1950611 0.033589005 0.25286788 0.018328968 0.04481222 0.013988162 -0.12691192
0.24818213 0.17831938 0.031314753 -0.11382 0.040665522 -0.07381155 0.017839488 0.20061801
-0.06762215 0.003920289 0.17986938 0.20770235 0.01923119 0.15939553 0.027277457 -0.14064032
0.03900958 0.09873392 -0.11471689 -0.03410553 -0.13829327 -0.0015055824 -0.030660786 0.020939665
0.020872105 -0.088932574 0.06739746 0.10576784 -0.099840894 0.069508955 0.011190562 -0.022567427
-0.025116762 -0.0173553 -0.04799291 -0.28677896 0.29857868 -0.07664692 -0.0023073882 0.0036464897
0.03908109 0.004035529 -0.16054246 0.08465916 -0.106457554 0.13887766 0.016357856 -0.015359939
-0.19296548 0.17678241 0.016984468 0.04934938 0.02245462 -0.17889252 0.016650025 0.1449186
0.01720975 0.048187703 0.043658525 -0.09442706 0.022308275 -0.19226359 -0.02393287 -0.1348308
-0.20003483 0.0010995487 0.019870203 0.0010809599 0.060729705 -0.16176975 0.11099292 -0.030453557
0.19355732 -0.174007 -0.06072472 0.0038632595 -0.058381602 -0.077706404 -0.07933342 -0.10646851
-0.017032938 0.010919903 -0.032711584 0.10079727 0.06398163 -0.058399547 -0.063209824 -0.06172629
0.026215566 -0.062779844 0.026715262 0.1182171 0.1511454 0.057196654 0.15191811 -0.08045069
-0.00045123184 -0.104792826 -0.03912267 -0.020291928 -0.010579051 0.004145456 -0.047117002 0.064562134
0.050719347 -0.009739244 -0.014348928 0.12728202 0.168818 0.13001935 -0.025439871 0.20579366
0.12767598 0.0063577616 0.15917847 -0.05973958 -0.053857293 -0.077961296 0.097249724 0.0949938
0.03657828 0.030618073 -0.13199776 0.07643315 -0.11075272 -0.1110864 0.069807425 -0.13357255
0.09935621 -0.028954342 0.049170714 0.15700063 -0.151108 -0.0032117313 0.015057375 0.0842629
0.19614847 -0.010368135 -0.050368447 0.054773066 -0.04745768 0.10357849 0.0412806 -0.05895063
0.016495856 0.13535476 -0.014750218 -0.06293511 -0.08830659 0.01828009 0.019715136 0.049331293
0.038543943 0.00356895 -0.042596087 0.10866197 -0.04103494 0.07189781 0.19344147 0.014308657
-0.10324348 0.0069594327 -0.09196081 0.1086797 0.07988958 -0.08741395 0.22028315 0.16910815
-0.13045986 0.047953874 -0.09971955 -0.04196776 0.110797696 -0.1598926 -0.01056517 -0.013356684
0.06708306 0.04226899 0.117178835 -0.0017106464 -0.07867458 -0.14445148 -0.1032659 0.09834508
-0.027071109 0.12663521 -0.009158754 0.030490637 0.07302376 -0.01997058 0.036946185 -0.09863398
-0.2747729 -0.031730637 0.10749377 0.044683002 0.034904096 -0.03818039 -0.060327247 0.0050254418
-0.08010918 -0.11123797 -0.07805507 -0.03507212 0.048776135 -0.03254382 0.02658909 -0.09553595
0.012179145 0.07168997 -0.028263863 0.0035048008 -0.13250844 -0.08568524 -0.13709809 0.029336225
0.103289574 -0.042480562 0.025069688 0.08345776 -0.096033014 -0.13584785 0.026295464 -0.013175276

network_body._body_endoder.seq_layers.2.bias f4 [128]
00000000: 8708 9c3d 3843 9c3d abef d83c 09bc 31bc
00000010: 0d9e 9b3c 5984 fd3c d70a 603d aa46 ddbb
00000020: fc37 b13d 9414 5b3c 1808 a13c cf46 16bd
00000030: 2cea 173d 3a71 5c3c 33a1 02bc 890a b6bc
00000040: 3b44 5b3d 556d 9cbc c44b 06bd ca6d 42bc
00000050: 7e9e e93c 264e 363d 36ea 85bb 5be0 4e3c
00000060: cc72 af39 215d a73b 5431 2f3d 2c6c 8d3c
00000070: 11b1 073d 7d6c e93c 6bbc 9e3c 11d0 ab3d
00000080: aee4 d8b9 d780 a83c a1c0 b43d 29e6 c6bc
00000090: 2828 433d 2d86 39bc cccc cc3a 424d 783c
000000a0: 46b1 51bc 4a34 dd3a 5168 913c a6c8 14bd
000000b0: 2bb8 383d b986 433d efd1 693c 02cc 123d
000000c0: 91cb 213d f955 d6bc 480a 543d fd5b 2e3d
000000d0: ae6e 153c 99c4 f5bc 9b07 90bc a5f4 9f3d
000000e0: 6933 483d 33b3 c43d a00c 3bbb 79c6 b0bb
000000f0: 019f 26bc 835a 50bd cb47 423d 8334 ef3c
00000100: a2b7 0ebd 8f31 aa3d 850f 253d 59ca 99bb
00000110: be38 92bd 0d84 143d a96b 7abb 9dc5 633d
00000120: 317f 15bd c80a 113d ce4f b43c 99f2 d43c
00000130: 45bb 743d 2246 c03c 69f0 b4bc c72d b23c
00000140: d6ce e1bc b850 b93c a273 a3bc f358 1a3c
00000150: 9f79 a5bc 47bf a53d 9319 103d fdf7 9a3c
00000160: a7c0 adbb 6df0 353d 43b1 8b3d 5507 3e3d
00000170: 8234 0fbb c6c1 38bd e763 8fbb 8f3e 1dbd
00000180: 3f4e 4e3b 78c1 f13b 0b5c 1e3d e9a8 9abc
00000190: 1a87 363d 5229 923c 9c2b 873c 481f 1e3d
000001a0: 470d 593c 1234 2cbb e78f 58bc 4a4a 83bc
000001b0: e0f6 3b3d 8085 85bb 9730 833d 32cc 653d
000001c0: 1bed 503c 56c1 bb3c bc4f 7a3c 68b8 833b
000001d0: 1776 63bc 4f45 183d e3c2 ba3c c4b0 373d
000001e0: 92a5 d03b 75f8 5f3c 1868 e1bb e0fc b5bc
000001f0: fba2 3f3d 2ade 8dbc 653d 4f3d 9f70 ec3c
0.07618814 0.076300085 0.02648147 -0.010848054 0.018996263 0.030946897 0.054697838 -0.0067528086
0.08653256 0.013371605 0.01965718 -0.036688622 0.037088558 0.01345473 -0.007973003 -0.02222182
0.053531867 -0.019095102 -0.0327871 -0.011866996 0.028517958 0.044508122 -0.004086758 0.012626733
0.0003346413 0.0051075374 0.042771652 0.017263494 0.033127848 0.028494114 0.019376954 0.08389295
-0.0004136911 0.020569248 0.088258035 -0.02427967 0.047645718 -0.011323494 0.0015624999 0.015155138
-0.012798613 0.0016876545 0.017749937 -0.036324166 0.04509751 0.047735903 0.0142712435 0.03583909
0.039500777 -0.026164042 0.051767617 0.042568196 0.009120626 -0.030000972 -0.017581752 0.07810334
0.048877154 0.09604492 -0.002854146 -0.0053947535 -0.010169745 -0.05086757 0.04743175 0.029199844
-0.034843095 0.08310234 0.040298004 -0.004693311 -0.07139729 0.036258746 -0.0038211143 0.05560838
-0.036498252 0.035410672 0.02201071 0.025994586 0.059748907 0.023470942 -0.022087293 0.021750344
-0.027564447 0.022621498 -0.019952599 0.009420621 -0.020199595 0.08093124 0.03518064 0.018917078
-0.005302507 0.04441874 0.06820919 0.04639371 -0.0021851365 -0.04510667 -0.004375923 -0.03838974
0.0031479744 0.0073777996 0.038661998 -0.01887937 0.044562437 0.017841969 0.016500287 0.03860405
0.0132477945 -0.0026276154 -0.013217903 -0.016026635 0.045889735 -0.0040747523 0.06405752 0.05610294
0.012751843 0.022919338 0.015277799 0.0040197857 -0.013883135 0.037175473 0.022798007 0.04484631
0.006367394 0.013670077 -0.006878864 -0.022215307 0.04678629 -0.01731785 0.05059566 0.028862296

action_model._continuous_distribution.log_sigma f4 [1, 3]
00000000: 721d 80bc 6cec 46bd 6068 0b3c
-0.01563904 -0.048565313 0.008508772

action_model._continuous_distribution.mu.weight f4 [3, 128]
00000000: 2a31 90ba 2d1d 3a3c 4613 c13a fee1 913c
00000010: 7f2d bfbc 34fb ec3c 5266 ae3c 83e7 263d
00000020: 5bae 3a3c e540 c63c 4e52 afbb e7a7 9cbc
00000030: b49e d7bb ed12 4c3c 9f8d 86bb b7a3 2d3a
00000040: d085 223c 8ae1 a3bc 9c8e 823c 6ee7 e83c
00000050: d469 abbc 98f3 e73c bccd 29bd 1094 1abc
00000060: bbf6 faba b5a7 babc 3c2b ff3b bf8b d23c
00000070: 1a9f d53c 7e77 ff3b 14fb ed3b 0177 97bb
00000080: 7e02 423c 38ac c1bc 1ebd 133c 0979 a33b
00000090: 65ec 45ba 8641 dc3b a019 b83c bb37 03bb
000000a0: a2e1 a63c 5aa0 083d 955f 34bc 2c0a 0fbd
000000b0: 7d29 723c 3dc0 e33b 37fe cc3c bc86 3b3c
000000c0: 9acc cabc bddc 823c c2c5 dbbc a08a eabc
000000d0: 3bf5 51bc a715 3dbc 8ca3 473c 2c39 46bc
000000e0: e55d 90bc 3a11 113c 7512 9bbb eea1 ab3c
000000f0: babf a63b 4c7e e4bb c6a9 563d cfe3 a3bc
00000100: 19e5 4abc 5946 223c fc9c dcbb 3a24 ef3b
00000110: 614d 383b c0ca ea3c 5c5c 81bb a353 a83c
00000120: e20e dfbc 0662 1dbc 6acf cbbc c96a 26bc
00000130: b8ed 9e3c 0b9b 3e3c 77cd 89bc 4d22 28bd
00000140: d18c e2bb c755 da3c 7da1 2fbc 09fa d0ba
00000150: d864 ad3c 32ff d4bb be6b 373d d4a2 f9bb
00000160: 144d 2d3d 9799 a53c e63f c23b 7b66 95bb
00000170: 5208 87bc 397d 0bbc c0ad e83c 8b98 10bb
00000180: 571a 213c a83b 17bc 26aa 56b8 08c2 e9bb
00000190: 5217 abb9 c6ab 8ebb 7756 e2bc a35c aa3c
000001a0: e969 15bd 7534 c83c ac7d 163d 4c6a 293c
000001b0: 2feb fb3b f075 adbc 37c8 42ba c414 3ebc
000001c0: 2b5b 4f3b 3217 85bd b42e 80bc 424b 473b
000001d0: b56e 613c 19d3 eabb fe2a 56bb 97f7 713c
000001e0: 5448 e33c 4bdd 3a3c 931b ca3b 1274 d53c
000001f0: 1889 94bb f43e 4cbd c8e8 653c 7084 54bc
00000200: 5cb4 32b9 e3cb 87b8 dc7d e4bc 39b4 9a3c
00000210: 4f42 b5bc b9e1 5d3a fcc3 703b 28c7 bd3c
00000220: 9909 2ebc b670 4cbc 4b13 ce3c f935 db3d
00000230: 0038 ad3c f95a ab3c 58d3 21bc a70a 763c
00000240: 5a51 bb3b 6f89 813c 7302 d23d 9378 863c
00000250: 5b48 04bd d804 6abc 5217 b53c e3e0 3c3b
00000260: b354 43ba 3cd5 dfbc 4ea4 903d c970 6a3d
00000270: 9cee ce38 df95 923a e178 013c a367 143b
00000280: 2049 2f3c 8bbd c2bc 0b8b 3abb a991 203d
00000290: 8258 e5bc e8eb d23b 0e7a 273d dd05 dbbc
000002a0: 83ce 7e3c 9c43 273d b392 413b 866a 743d
000002b0: cfdf f8bc 2fc0 03bd dfc7 1dbc f48b a1bc
000002c0: 5a1f 48bd c08d 903c c080 b4bb f1ef 553c
000002d0: ae04 a8bc 9f3c fabb dc5b a13c 8abe c4bc
000002e0: 1971 cb3b 63c3 15bc 919f ce3b de2e dcbb
000002f0: b832 143d d43b 383d 2cee ff3c 296f 66bc
00000300: 2df6 033d 9576 5ebb ddbe 9fbb 79e8 63bb
00000310: 8732 e33c 0146 993c 4fdd 733c 0f8d 42bd
00000320: 6ee9 01bb d76f 783d af20 41bd d686 4cbc
00000330: 450e 23bd c7a3 5dbd 23db b13d fdd0 07bd
00000340: 451b 783d 49f7 95bc 8ebc 033d 2938 edbb
00000350: 74af 303d d62d febc 4a67 ccbb a468 813b
00000360: 2a90 8f3c ef34 65bc e239 7eba 7bb7 663c
00000370: f2ab c93c 5ccf cd3d 1eb6 353d d74a 2f3d
00000380: b670 253c 51c1 9c3c f3a1 e7bc 46ff e93c
00000390: e20a 38bd 5928 54bd 7ca5 12bb c58e 12bd
000003a0: 435f f2bb 49a0 cc3b caa2 8c3d 466c 2f3b
000003b0: 1934 39bc bc79 263d 268f 15bd a811 c1bd
000003c0: 58f6 ff3a 14d7 823d 1eb1 d8bb b138 04bc
000003d0: 76ca 313d 78df 21bd 47be 04b8 ece7 0bbd
000003e0: 44e2 b33a c57c cd3c fb65 18bc 8cd8 e53c
000003f0: 2688 ccbc e691 ae3d fa24 c7bc 632b 8fbc
-0.001100098 0.011359495 0.0014730475 0.017807957 -0.023337124 0.028928377 0.021289025 0.04074813
0.011394109 0.024200866 -0.0053503877 -0.01912303 -0.006580198 0.012455684 -0.004106238 0.00066238217
0.009919599 -0.020005006 0.015937142 0.028430667 -0.020924486 0.028314397 -0.04145597 -0.009434715
-0.0019147018 -0.022785047 0.0077871364 0.025701402 0.026076842 0.007796227 0.007262597 -0.0046223407
0.0118414145 -0.02364169 0.009017257 0.0049887937 -0.0007550179 0.006721678 0.022473156 -0.0020022232
0.020371262 0.03335605 -0.011009117 -0.03492181 0.014780399 0.006950407 0.025023563 0.011445697
-0.024755765 0.015974397 -0.026827697 -0.028630555 -0.012814815 -0.011540807 0.012184989 -0.012098592
-0.017622897 0.008854205 -0.004732425 0.020951238 0.0050887736 -0.0069730636 0.052408002 -0.020006089
-0.012383723 0.0099044675 -0.006732581 0.0072980197 0.0028122293 0.028661132 -0.0039477777 0.020547694
-0.027228776 -0.00960589 -0.024879176 -0.0101572955 0.019400463 0.011633645 -0.016821606 -0.041048337
-0.0069137593 0.02665223 -0.010719654 -0.0015943657 0.02116625 -0.006500148 0.044780485 -0.0076182876
0.042309836 0.020214839 0.0059280274 -0.0045593358 -0.01648346 -0.008513742 0.028403163 -0.002206358
0.00983294 -0.009230532 -5.118004e-05 -0.007133726 -0.00032633037 -0.004353973 -0.02762912 0.020796126
-0.036477957 0.024439076 0.036740944 0.010340285 0.007687948 -0.021174401 -0.0007430347 -0.011601631
0.0031640034 -0.06498565 -0.01564727 0.0030409847 0.013759305 -0.007166278 -0.0032679434 0.014768503
0.02774445 0.011405299 0.006167838 0.026056323 -0.0045329444 -0.049864724 0.01403255 -0.012971029
-0.00017042592 -6.4752785e-05 -0.027892046 0.018884765 -0.022126345 0.0008464116 0.003673791 0.023166254
-0.010622405 -0.012478044 0.025155684 0.10703654 0.021144867 0.020917403 -0.009877048 0.015017188
0.005716485 0.015812604 0.102543734 0.016414916 -0.032295566 -0.014283381 0.022105847 0.0028820566
-0.0007451281 -0.027323358 0.07062589 0.057236467 9.86729e-05 0.0011183581 0.007902355 0.002264478
0.010698587 -0.023772022 -0.0028464224 0.039201412 -0.027996305 0.0064368136 0.040887885 -0.026736194
0.015552166 0.04083596 0.0029536902 0.0596719 -0.030380158 -0.032165702 -0.0096301725 -0.019720055
-0.048858024 0.017645717 -0.0055085123 0.013057695 -0.020510044 -0.007636621 0.019697122 -0.024016637
0.0062085507 -0.009140822 0.006305643 -0.006719454 0.03618118 0.04497893 0.031241499 -0.014064589
0.032217193 -0.0033945192 -0.0048750476 -0.0034776016 0.027734054 0.018710138 0.014884307 -0.047497805
-0.0019822973 0.060653534 -0.04715031 -0.012483319 -0.03980853 -0.05411127 0.08684375 -0.03315829
0.06057288 -0.018306391 0.03216224 -0.007239361 0.043136075 -0.031027716 -0.006237899 0.0039492417
0.017524797 -0.013989671 -0.0009697956 0.014081831 0.024618123 0.10049316 0.044363134 0.042795982
0.010097673 0.01913515 -0.028275466 0.028564107 -0.044932254 -0.05179629 -0.0022376468 -0.035780687
-0.00739661 0.0062446934 0.06866987 0.0026767417 -0.011303925 0.04064344 -0.03651347 -0.09427196
0.0019528372 0.06388679 -0.006612911 -0.008070157 0.043405972 -0.039519757 -3.1648462e-05 -0.034156725
0.0013724049 0.025083909 -0.009301658 0.02805736 -0.024967264 0.08523922 -0.024309624 -0.017476743

action_model._continuous_distribution.mu.bias f4 [3]
00000000: e8fb 903b 7e8c 40bd 5d0a f83b
0.004424561 -0.047008984 0.007569595

action_model._discrete_distribution.branches.0.weight f4 [2, 128]
00000000: be56 713d b40c 533d 1d55 f43b 474f bcbd
00000010: b64c da3b 2836 603c e8fd cb3d 8458 afbc
00000020: 87ed 783d 5817 19bb d873 393d cb20 a0bd
00000030: d806 973d 7065 5a3c 6b21 423b 0e88 9d3b
00000040: f597 723d dc65 8cbc 45f4 72bd 9ffa 273c
00000050: 31fc bfbc 60a0 7e3c a63a 883c e411 a93b
00000060: 4f6f b33c ca45 5fbd 7a19 f23b ccb1 b4bb
00000070: d5df 0f3d 4b07 833c 1f0f cd3c 7e60 8a3d
00000080: 75a2 f63b 8d3b 18bc dc50 523d c744 c13c
00000090: 86b2 d43c 95f7 533b 6d01 3b3d 1e29 56bc
000000a0: 68f5 adba 8c9b 7d3c 0413 0c3d 65a5 97bd
000000b0: 7872 1f3b 37cf da3c 8c25 49bc 87c5 093d
000000c0: 1070 d73c 4348 1fbc e613 7d3d 034d 043d
000000d0: d90e 863b 5a67 07bd 077b 80bc 53bc 983d
000000e0: 43b7 203d f8ae 843d 6d1d 8a3c 6860 71bc
000000f0: 74f7 9f3c 5218 90bd c1a2 f73b ff64 ec3c
00000100: dcc3 47bb bdae bd3d 9fd7 2e3d 41de 39bc
00000110: dc21 17bd 7b0e 0c3d ae66 9e3b b7dc ae3c
00000120: c944 efbc 698d 27bc 889a 17bd 4eef 723c
00000130: 4ab5 5fbb 8421 2ebd fd5c 86bd b1bf 15bd
00000140: c885 97bd 13ee af3c 216a 41bc 0640 023a
00000150: 44be 043b 4869 b03d 5bab 03bc 762f a63c
00000160: e4a7 a7bb d920 663c c7fa 303d 657c 343d
00000170: 7929 f63c d0b3 97bd 67cb 70bb fc6b 19bd
00000180: 2878 b13c 16c2 a23c e074 c13b fc96 d43b
00000190: 332f 9cbc 54b0 10bd 8b28 2e3d 21dd 6f3c
000001a0: 7f15 0cbb 2de7 68bc 2b48 3cbc 6c72 d2bb
000001b0: b7c8 9d3c f4f8 3ebc 2775 413d c5f7 febc
000001c0: 11a9 053c 0289 213a c963 00bc b15d ba3b
000001d0: 6e85 623c 7082 8fbb d58a 933b 01f6 9e3b
000001e0: 9473 8d3c 2f0b df3c 5c16 4abc c41c 8aba
000001f0: 555c ae3c 50fd 0ebd 96e8 cc3c 2de3 d43c
00000200: 0b4c acbd e341 3abd a17a 75bb 83c5 863d
00000210: f9e9 7739 5b70 94bb 835a a7bd cb58 9a3c
00000220: bcbd 91bd aa6a 90bb 3823 84bd 56bd 893d
00000230: ddf2 79bd acf7 20bc 29dc 293c acb7 27bc
00000240: 8c9d 59bd 6762 1c3b bd9e 6f3d 7aa4 8eba
00000250: 3486 693c 2e4c 1dbc e092 a3bc 9a45 83bc
00000260: af36 f0bc bb77 1c3d 92e2 babb d593 8c3a
00000270: 6035 02bd 9850 a2bc 97d5 d6bc e7e9 92bd
00000280: 9514 75bc c856 e83b 67cc 01bd 09eb 17bb
00000290: afb2 07bd 0d27 66ba bcb6 10bd bc90 07bb
000002a0: ff3b a9bc 41a1 afbc 9632 afbc a86c 553d
000002b0: 95bc 49bc 020c 12bc 7ece 453b 4c86 16bd
000002c0: a79d 2ebc d78b a13b cae7 59bd be2d 0cbc
000002d0: 92e1 0a3c 62c7 793c 3f0f e03b c491 9fbd
000002e0: 2c0d bebc 9958 99bd c062 88bc 6bcf 063c
000002f0: e359 a7bc 402b 693d 36d1 cf3b 6b8e 26bc
00000300: 362d 22bb 2cdb a4bd 31f2 2fbd 16a5 083c
00000310: 380b 063d c3b8 eabc 2814 6b3b 41d0 13bd
00000320: 0665 413d 4fc8 163b 5397 e93c 0e84 13bd
00000330: 0f77 2fbb 919b ff3c f8e9 8f3d cc21 073d
00000340: 73aa 8f3d f83f 5cbc b3dd 2c3b 3be9 f6bb
00000350: b1ee 1bbc d804 b9bd 0ce1 873b 399a afb9
00000360: 36f8 f5bb 04ec efbc eaca 4cbd 24a8 1dbd
00000370: f46c 89bc 3d7a 643d 99d2 da3b 350a 1e3d
00000380: a48d aabc eed5 9abc d138 b1bc 10e4 fbbc
00000390: 2083 a5ba 2162 1f3d 9008 b5bc 424b b0bc
000003a0: b4a6 01bb 4773 5f3c 6c6e c03c 7243 b33b
000003b0: 64ef 9ebc 556c c13c 62bc ddbc e647 d33c
000003c0: 5314 0cbc f147 273b 7eb7 b8bb 96ad de3b
000003d0: 9640 42bc 08ff 16bc 3d3b 55bc 124b 95bc
000003e0: 20d2 9dbc bd29 09bd 9ee4 623c b6dd deba
000003f0: 6783 13bd 7529 123d 4b4d f8bc a71c b5bc
0.058920614 0.051525787 0.0074564354 -0.091948085 0.0066619767 0.013684787 0.09960538 -0.021404512
0.0607734 -0.0023359861 0.045276493 -0.07818755 0.07374352 0.013329849 0.002962197 0.0048074787
0.05922695 -0.017138414 -0.059314985 0.010252624 -0.023435684 0.015541166 0.016629528 0.0051596034
0.021903662 -0.054509915 0.007388291 -0.005514359 0.035125572 0.015994688 0.025031624 0.06756686
0.0075266906 -0.009291542 0.051346645 0.023592366 0.025964033 0.0032343615 0.045655657 -0.013071327
-0.0013271989 0.01547898 0.034197822 -0.074045934 0.0024329703 0.026710136 -0.012277018 0.033635642
0.026298553 -0.009721818 0.061786555 0.032300007 0.0040911254 -0.033057548 -0.015683664 0.07457795
0.039237272 0.06478685 0.016859734 -0.014732458 0.019527175 -0.07035889 0.0075572436 0.028856752
-0.0030481732 0.09261844 0.0426861 -0.011344493 -0.036897525 0.034193497 0.0048340177 0.02134548
-0.029207604 -0.010226586 -0.037012607 0.0148275625 -0.0034135156 -0.04251243 -0.06560705 -0.036559764
-0.073985636 0.021475827 -0.011805088 0.00049686467 0.0020255009 0.08613831 -0.00803646 0.020286303
-0.0051164497 0.014045917 0.04320791 0.044063944 0.030049073 -0.074073434 -0.003674233 -0.037456498
0.02166374 0.019867938 0.005903825 0.0064877253 -0.019065475 -0.03532441 0.042519134 0.014640124
-0.0021375117 -0.014215273 -0.011491816 -0.0064223316 0.019260747 -0.011656035 0.047230866 -0.031124005
0.008157984 0.00061620784 -0.007836291 0.0056874384 0.013825757 -0.004379563 0.004502634 0.0048511033
0.017267026 0.027227012 -0.012334432 -0.0010537137 0.021284262 -0.034909546 0.02501325 0.025987232
-0.084129415 -0.04547299 -0.0037457126 0.06580641 0.00023642917 -0.0045299954 -0.081715606 0.018841168
-0.07116267 -0.0044072466 -0.0645203 0.06725566 -0.061022628 -0.009824675 0.010367432 -0.010236662
-0.053128764 0.0023862363 0.058500994 -0.0010882758 0.014253188 -0.009600682 -0.019967496 -0.0160244
-0.02932295 0.03820012 -0.005703279 0.001072521 -0.031789184 -0.01981382 -0.026224894 -0.071735196
-0.01495852 0.0070904233 -0.031689074 -0.0023180863 -0.03312939 -0.0008779623 -0.03533052 -0.0020685634
-0.020658491 -0.021439197 -0.021386426 0.052105576 -0.012313028 -0.008913996 0.0030182893 -0.03674917
-0.010657704 0.0049300003 -0.053199567 -0.008555828 0.008476632 0.0152452905 0.006837755 -0.077914745
-0.02319964 -0.07487602 -0.01664865 0.008228163 -0.020428604 0.056926012 0.0063420786 -0.010165791
-0.0024746186 -0.08049616 -0.04295558 0.008340141 0.032725543 -0.028652554 0.0035870168 -0.03608728
0.047215484 0.0023007577 0.02851454 -0.03601461 -0.0026773845 0.03120211 0.07027048 0.032991216
0.070149325 -0.013442986 0.002637726 -0.0075351275 -0.009517358 -0.09034127 0.0041467007 -0.00033493506
-0.0075063957 -0.029287346 -0.0499982 -0.03849043 -0.016775586 0.055780638 0.006677937 0.038583953
-0.020819493 -0.018900838 -0.021633537 -0.030748397 -0.0012627579 0.038911942 -0.02209881 -0.02152026
-0.00197832 0.013638324 0.023490153 0.0054706866 -0.01940126 0.023611227 -0.027067367 0.02579112
-0.008549768 0.0025525058 -0.0056371083 0.0067955954 -0.011856219 -0.009216078 -0.013014612 -0.018224273
-0.019265234 -0.03348707 0.013848452 -0.0017003331 -0.036013987 0.035684068 -0.030310294 -0.022108389

action_model._discrete_distribution.branches.0.bias f4 [2]
00000000: dae4 2f3e d8e4 2fbe
0.17177144 -0.1717714

exp_avg f4 [128, 6]
00000000: 85b0 0339 9020 9f37 291a 25b7 e461 4eb5
00000010: e005 8fb4 52fd 9935 41c9 2e38 c15e 0337
00000020: 85f6 12b7 ac3c 1834 3b00 5333 022e 63b4
00000030: 6c95 9539 3efa 3538 51e8 dc38 68fc 18b6
00000040: eb09 54b5 f84b 6436 11a1 0939 849c 3438
00000050: 87b3 fcb8 4a39 89b5 4d31 beb4 8cc6 cc35
00000060: ad12 d237 85fe 1db6 df1b fd36 3736 7d34
00000070: f579 af33 22ee bcb4 e5ff 6bb8 d594 dcb7
00000080: fa08 4eb9 edb5 2e35 4526 7234 b05b 82b5
00000090: 6578 6938 874f 27b7 eee6 f537 cc80 ed34
000000a0: f796 2434 ae35 31b5 e14a fbb6 f1d7 f933
000000b0: 39ef 0eb8 6274 ef34 46f1 2534 90aa 32b5
000000c0: f449 b5b8 2886 fab6 3e34 67b9 68ed d935
000000d0: 2306 1735 8e9a 22b6 9e08 94b8 494d 5637
000000e0: e96a bc36 4951 64b5 7a39 9eb4 365b aa35
000000f0: 4eb7 9638 72a1 7437 1024 8538 e5be 35b5
00000100: 55e6 7bb4 6f9b 8735 c6ed f6b6 c8b0 d337
00000110: 3454 9fb8 e7bf 20b5 bacc 5eb4 00e2 6f35
00000120: 27a1 a8b8 425b b537 5170 db38 c595 13b3
00000130: 518d 4cb2 873c 5c33 7d87 9638 ce6f 6637
00000140: 1f55 5538 438e 8eb5 2795 c5b4 71bb d435
00000150: 2fb7 b437 e282 4fb7 42a5 9038 e5f3 8733
00000160: 956f bc32 b3e0 cab3 2e6b c338 2d8d efb6
00000170: e663 06b8 c32d e933 f297 2133 22fc 2db4
00000180: db95 01b9 377a 10b8 378f 8db9 2606 1136
00000190: ec00 4935 676a 58b6 ea83 d1b8 6e1d 69b5
000001a0: 127e 94b8 0ead 4635 c9ae 8934 5f3d 94b5
000001b0: 18ae 36b9 c0ca 2b38 881e 5538 482e 19b6
000001c0: 2d4f 54b5 9c96 6436 4435 14b8 205a c6b7
000001d0: 3add 93b8 aa3f f734 fd57 2b34 3b7b 38b5
000001e0: afc4 8438 a1e6 bc37 a363 beb8 f183 91b5
000001f0: 4caf c9b4 2526 d935 f45d 9d37 0962 0cb7
00000200: 1fd7 8e37 a32a 8634 76f4 b933 a036 c8b4
00000210: 9f07 ebb7 2db9 7436 db3d 83b8 7804 ae34
00000220: 7330 f133 4dd7 01b5 ea11 6938 b106 0137
00000230: a797 4737 c9d6 0434 a11d 3833 7d3b 46b4
00000240: a6c3 29b7 ade9 8db7 6bcd 77b8 d025 88b4
00000250: 74b3 bcb3 692b cb34 1680 ffb7 a94f 15b8
00000260: 54cd b738 b322 6535 94ca 9e34 64f7 aab5
00000270: 5a50 d3b8 ea11 1db7 fc94 bab8 bf4a 6435
00000280: ed34 9e34 4c56 aab5 3087 1839 a3b0 1238
00000290: afc7 1239 b208 a4b5 045a e3b4 9dc8 f435
000002a0: eece e8b8 34da 0eb8 9b9e c0b7 0542 7435
000002b0: 6745 a934 0d40 b6b5 f650 9db6 7ac7 97b5
000002c0: 0200 a938 3314 3734 8abf 7d33 209a 88b4
000002d0: 75e3 bb39 69d2 a838 193b 9938 1186 42b6
000002e0: 23ce 86b5 3224 9136 61b8 d9b6 4a1b 8c36
000002f0: 0bd3 dab7 04c6 8135 cedd b334 52a8 c1b5
00000300: 417a 7a38 25a9 3538 5ef8 1bb8 b07e 26b6
00000310: 29c3 66b5 cb74 7836 bd5b 5738 6adb bab7
00000320: bc37 4637 de22 5034 3c3d 9033 734c 9bb4
00000330: 4164 c4b8 7a2a 0cb7 750a bfb8 3b61 cd34
00000340: 2754 0e34 d63d 19b5 1289 fa38 be81 34b6
00000350: 3097 27b9 6ef6 8db5 c1c2 c4b4 ebd8 d335
00000360: 79ad 25b9 9be6 0838 4d10 cc37 10c3 af35
00000370: 3c9b f334 7f24 03b6 2aa9 6238 2ac9 af37
00000380: a0d7 5938 b447 14b4 4f84 4db3 5446 5d34
00000390: 17c1 81b7 379e 30b4 2b82 03b9 f538 8b35
000003a0: 7ff6 c034 29c2 cfb5 8164 5d39 edd1 9738
000003b0: 1c1a a7b7 33c3 d3b5 68c0 12b5 fc00 1e36
000003c0: 39a2 2638 b769 b737 259a 03b8 9263 7ab5
000003d0: 1c85 adb4 1fd3 ba35 83d4 3638 6ecd 7036
000003e0: ef14 aab7 7737 c334 1549 0734 8ea8 11b5
000003f0: 0647 ae38 d054 3038 7a80 2b38 4689 03b6
0.00012558892 1.896944e-05 -9.840857e-06 -7.688343e-07 -2.66401e-07 1.1473114e-06 4.1672265e-05 7.83027e-06
-8.759675e-06 1.4178175e-07 4.9127475e-08 -2.115776e-07 0.00028530823 4.338682e-05 0.0001053369 -2.2796685e-06
-7.8990587e-07 3.4018867e-06 0.0001312534 4.306111e-05 -0.00012049736 -1.0223969e-06 -3.542613e-07 1.5256969e-06
2.5042647e-05 -2.3542973e-06 7.543232e-06 2.3582184e-07 8.1712564e-08 -3.5190993e-07 -5.6266686e-05 -2.6295349e-05
-0.00019649035 6.508479e-07 2.2551929e-07 -9.712439e-07 5.5663655e-05 -9.972492e-06 2.9313811e-05 4.4238402e-07
1.5328611e-07 -6.601575e-07 -7.4891e-06 1.16342456e-07 -3.407823e-05 4.46019e-07 1.5454597e-07 -6.655837e-07
-8.6445274e-05 -7.4661984e-06 -0.00022049338 1.6236854e-06 5.6260814e-07 -2.4229844e-06 -7.058795e-05 1.2773388e-05
5.6152826e-06 -8.5054904e-07 -2.9471613e-07 1.2692533e-06 7.1867005e-05 1.4581123e-05 6.3486514e-05 -6.770554e-07
-2.3459991e-07 1.0103521e-06 -7.359052e-06 2.523548e-05 -7.597395e-05 -5.98839e-07 -2.074984e-07 8.936331e-07
-8.040881e-05 2.1619377e-05 0.00010463654 -3.436232e-08 -1.19064945e-08 5.127779e-08 7.177794e-05 1.37351e-05
5.0862433e-05 -1.0621228e-06 -3.6802632e-07 1.5849783e-06 2.1542974e-05 -1.2368635e-05 6.897237e-05 6.3307915e-08
2.1936822e-08 -9.4472306e-08 9.318288e-05 -7.13919e-06 -3.2041127e-05 1.0858232e-07 3.7623927e-08 -1.6203606e-07
-0.00012358224 -3.4446097e-05 -0.0002700032 2.1610263e-06 7.4879677e-07 -3.2248442e-06 -9.9904675e-05 -8.684209e-07
-7.0806724e-05 7.4012576e-07 2.5645411e-07 -1.1044721e-06 -0.00017421728 4.0958403e-05 5.081159e-05 -2.2825716e-06
-7.909137e-07 3.4062314e-06 -3.5335557e-05 -2.3645407e-05 -7.050713e-05 4.6053657e-07 1.5957626e-07 -6.8724665e-07
6.330886e-05 2.2518741e-05 -9.078465e-05 -1.0841742e-06 -3.7566713e-07 1.6178861e-06 1.8759609e-05 -8.367476e-06
1.7027893e-05 2.4990467e-07 8.659201e-08 -3.7292648e-07 -2.8017732e-05 3.646662e-06 -6.258088e-05 3.2413277e-07
1.123125e-07 -4.836955e-07 5.5568213e-05 7.690557e-06 1.1896634e-05 1.2371596e-07 4.2867786e-08 -1.8461829e-07
-1.0118738e-05 -1.6917324e-05 -5.90807e-05 -2.5359486e-07 -8.7870745e-08 3.7843282e-07 -3.0458013e-05 -3.5598558e-05
8.764365e-05 8.535964e-07 2.9577188e-07 -1.2737987e-06 -0.00010076231 -9.3621e-06 -8.896922e-05 8.504539e-07
2.9468302e-07 -1.2691103e-06 0.00014546211 3.497362e-05 0.00013998033 -1.2221483e-06 -4.234754e-07 1.8237803e-06
-0.00011101166 -3.4058656e-05 -2.296204e-05 9.0993154e-07 3.15292e-07 -1.3578698e-06 -4.6883897e-06 -1.1308432e-06
8.0585494e-05 1.7050552e-07 5.9080357e-08 -2.5444115e-07 0.00035836888 8.050056e-05 7.306616e-05 -2.898629e-06
-1.0043772e-06 4.3255504e-06 -6.4885685e-06 4.175502e-06 -2.60859e-05 9.668879e-07 3.3502732e-07 -1.4428608e-06
5.9718503e-05 4.331129e-05 -3.718619e-05 -2.480967e-06 -8.596567e-07 3.7022862e-06 5.1345432e-05 -2.22751e-05
1.1814696e-05 1.9384194e-07 6.716661e-08 -2.8926624e-07 -9.364682e-05 -8.35454e-06 -9.1095375e-05 3.825497e-07
1.3255395e-07 -5.7086925e-07 0.0001194646 -2.689761e-06 -0.00015982683 -1.0577039e-06 -3.6649547e-07 1.5783856e-06
-0.0001580025 3.2639695e-05 2.4326286e-05 1.3095287e-06 4.5375225e-07 -1.9541765e-06 5.4040145e-05 2.09553e-05
5.1937648e-05 -1.380966e-07 -4.7850616e-08 2.0607814e-07 -1.5467913e-05 -1.6448836e-07 -0.00012541625 1.0372884e-06
3.5942136e-07 -1.547921e-06 0.00021113643 7.239343e-05 -1.992011e-05 -1.5777536e-06 -5.4669226e-07 2.3544408e-06
3.9728566e-05 2.1864527e-05 -3.1376392e-05 -9.327715e-07 -3.232061e-07 1.3919524e-06 4.35901e-05 3.5882363e-06
-2.0275327e-05 3.6361936e-07 1.2599442e-07 -5.426199e-07 8.310196e-05 4.2040658e-05 4.088923e-05 -1.9600425e-06

exp_avg_sq f4 [128, 6]
00000000: 537f 7b34 e085 4e33 71ab 0834 24bb 342d
00000010: ad97 ad2b c03b c92d a21c b534 b14b 1d33
00000020: 2cc3 9d34 d7dd 8b2d 9357 062c bdbb 1b2e
00000030: f110 c634 dfff 6532 b50f 3a34 1901 722d
00000040: 1b72 e82b 9fba 062e 1185 6834 e332 5932
00000050: e991 ee33 c130 1d2d 5dfb 962b b705 af2d
00000060: 6589 df32 131f b132 c5a7 e132 4571 132c
00000070: 6e9e 8d2a 302b a42c 3a66 0034 2cc9 8533
00000080: f2e5 7d34 6ff3 542d 348a cc2b cc1b ed2d
00000090: 88ce b533 0f00 ad33 ec78 6133 a35d 152d
000000a0: 5b77 8f2b 664f a62d 0f86 3a33 35e1 d632
000000b0: 47b7 4d33 1a6a 9d2c 7432 172b 9c45 2f2d
000000c0: 53ce 8a33 4468 0333 7ffe 0034 2cbc d22c
000000d0: 6069 4a2b 24a4 6a2d bac9 7033 fb6c 4431
000000e0: 7159 3a33 8666 972c a86b 112b 5293 282d
000000f0: 8a2f 8f33 1319 7831 d319 2233 953e 4a2c
00000100: 8041 c22a e72f e12c e78d 9f33 f209 d732
00000110: ff02 6c33 e94f a82c 10aa 212b d567 3b2d
00000120: 0cd3 1335 9eab ef32 3de3 8534 9964 c42d
00000130: c1a2 3c2c 0cac 5a2e aaee da34 41cf e532
00000140: 44b7 5b34 2bf5 b02d dff7 292c 2b08 452e
00000150: 4a3b f333 2e58 2c33 a269 3c34 2f03 152d
00000160: 6d20 8f2b abea a52d 86b8 2e34 a80e 9a32
00000170: 8cc8 4534 dae9 302d 08ed a92b a5fb c42d
00000180: 288b 6a34 0f4f a933 689f 9e34 3f5e 772d
00000190: f998 ed2b 0fb7 092e 702c f234 773b a833
000001a0: f742 5434 daf3 9c2d c0c0 162c dfc1 2e2e
000001b0: 3db8 2535 f381 9732 a801 ff34 81ad 252e
000001c0: 4822 9f2c ff78 b82e b568 0633 c9e8 0133
000001d0: 2984 0633 e806 262c 1d78 9f2a 7edc b82c
000001e0: a47b f433 6a4e 3831 1195 7333 a068 bc2c
000001f0: 85f7 342b 39c8 512d e436 a833 4c68 ee32
00000200: ec2b bc33 4875 a22c 860a 1c2b 38e3 342d
00000210: 8407 4c33 617c 2f33 afa4 5933 4222 a92c
00000220: 0e74 222b 2352 3c2d 05c5 0833 50ac 8732
00000230: 07d2 9332 005b cf2b 3f2a 472a c5e0 662c
00000240: 4308 bf33 2eec f731 a400 1b33 136e 7c2c
00000250: 9a75 f22a 7188 0c2d deca 0034 e460 8b32
00000260: 5907 a633 a3c0 cd2c 28a0 452b de17 652d
00000270: 0cab a834 cdeb c233 e28e 8e34 0c02 882d
00000280: daa2 022c eb6f 172e d06a 2634 c66c 6e32
00000290: b9a1 df33 6752 122d e08a 8c2b c4eb a22d
000002a0: 4b58 a034 e930 d832 479f 2a34 5ec9 482d
000002b0: 1bdb c02b 6f90 df2d b209 a234 1a9e 9d32
000002c0: 71d0 4134 9121 6b2d 07d8 e12b 07e7 022e
000002d0: 1f38 8135 c5fd 0c33 464c 1135 a25b 362e
000002e0: ad27 af2c 830b cb2e 9b59 de32 ed6b 7133
000002f0: 745d 0333 8422 ac2c 0156 252b 8da9 3f2d
00000300: 4488 3c34 4a1e 2a32 1fb4 5334 a165 bc2d
00000310: a4f4 342c e5c4 512e 7915 1b34 dcab 5032
00000320: b664 0e34 7c57 0c2d 66cc 862b 2443 9c2d
00000330: 9661 9c33 ae2d 3833 d9a2 a533 d55a 9d2c
00000340: cc23 172b 9634 2f2d 501e 4b34 08ee 3d33
00000350: 68f3 6534 9cea 462d 3e0f bf2b 5b7b dd2d
00000360: c5dc 0635 4b2f 4533 8b42 8434 b362 bf2d
00000370: 7fd3 372c ba18 552e 1a7a 3534 3ef1 1532
00000380: f70d e633 252e 092d 0dc3 832b 08be 982d
00000390: 6e91 cc33 0ddc 9233 b639 f233 79ce 062d
000003a0: 597b 812b 7219 962d 6104 c934 fe9d 9532
000003b0: 1416 8b34 4a9e ac2d dccc 252c 4a33 402e
000003c0: c91a 6134 858b e631 3a4d 6c34 51e8 662d
000003d0: 83c9 dd2b 138d 002e db1f bd32 298e 6a32
000003e0: 9127 9232 fedd d92b 0b43 512a 1695 722c
000003f0: ca98 5234 25e6 c031 207a e833 7023 5a2d
2.3422517e-07 4.808487e-08 1.2728357e-07 1.0273369e-11 1.2334488e-12 2.2877589e-11 3.373471e-07 3.6623252e-08
2.9385535e-07 1.5900987e-11 1.9091159e-12 3.5409665e-11 3.68927e-07 1.3387733e-08 1.7328314e-07 1.3756351e-11
1.6516262e-12 3.0633825e-11 2.1655093e-07 1.2642633e-08 1.11092795e-07 8.935242e-12 1.0727908e-12 1.9897735e-11
2.6023097e-08 2.0619643e-08 2.626974e-08 2.0952834e-12 2.5156564e-13 4.665955e-12 1.1958119e-07 6.229888e-08
2.3646115e-07 1.2104858e-11 1.4533431e-12 2.6956125e-11 8.466037e-08 8.055951e-08 5.2496873e-08 8.490461e-12
1.0193889e-12 1.8907275e-11 4.3428425e-08 2.5015291e-08 4.789697e-08 4.473988e-12 5.3715994e-13 9.963055e-12
6.463656e-08 3.0595643e-08 1.2013514e-07 5.9894503e-12 7.1911054e-13 1.33378066e-11 5.6062824e-08 2.8583702e-09
4.3387846e-08 4.3030605e-12 5.166375e-13 9.582406e-12 6.667604e-08 3.6103003e-09 3.774205e-08 2.8740667e-12
3.4506772e-13 6.400203e-12 7.429826e-08 2.5033817e-08 5.4950757e-08 4.783719e-12 5.74347e-13 1.0652775e-11
5.506888e-07 2.7901304e-08 2.4938518e-07 2.2327295e-11 2.6806753e-12 4.972027e-11 4.0779315e-07 2.6753357e-08
2.0462636e-07 2.011776e-11 2.415394e-12 4.479987e-11 1.1326354e-07 4.012707e-08 1.7547293e-07 8.470376e-12
1.0169761e-12 1.8862542e-11 1.6272142e-07 1.7934624e-08 1.8420013e-07 1.0056367e-11 1.2073962e-12 2.2394373e-11
2.1843573e-07 7.8840564e-08 2.9545777e-07 1.4061251e-11 1.6882321e-12 3.1312782e-11 4.5108345e-07 7.833926e-08
1.97684e-07 1.7843439e-11 2.142328e-12 3.973521e-11 6.173539e-07 1.7637808e-08 4.7498656e-07 3.767076e-11
4.5228578e-12 8.3888445e-11 3.1294537e-08 3.024687e-08 3.1319505e-08 2.3593853e-12 2.832742e-13 5.254074e-12
1.13846255e-07 2.6820097e-09 5.671342e-08 5.354897e-12 6.429235e-13 1.1924733e-11 7.833094e-08 2.7754275e-08
8.7624215e-08 4.6173378e-12 5.543694e-13 1.0282268e-11 4.7504287e-08 4.0858485e-08 5.067403e-08 4.8070723e-12
5.771502e-13 1.0704801e-11 3.1844156e-08 1.5794427e-08 1.7208562e-08 1.4733492e-12 1.7689408e-13 3.2809738e-12
8.8956334e-08 7.2154966e-09 3.6089332e-08 3.5872457e-12 4.3069438e-13 7.988375e-12 1.1994732e-07 1.622579e-08
7.731314e-08 5.8478374e-12 7.021072e-13 1.30224425e-11 3.1416891e-07 9.076721e-08 2.6553522e-07 1.5462319e-11
1.8564512e-12 3.4432828e-11 1.5498813e-07 1.38781555e-08 1.0413664e-07 8.317436e-12 9.986144e-13 1.8521969e-11
2.9866564e-07 2.5167951e-08 1.5890429e-07 1.1413396e-11 1.3703235e-12 2.5416306e-11 3.0181906e-07 1.8349102e-08
1.8050356e-07 1.3365657e-11 1.6047171e-12 2.976377e-11 9.627582e-07 3.2827092e-08 5.41277e-07 4.1463395e-11
4.978204e-12 9.233416e-11 2.588495e-08 5.6210343e-08 3.058581e-08 4.892366e-12 5.873913e-13 1.0894741e-11
1.7558438e-07 9.902189e-09 1.9716434e-07 2.1418258e-11 2.5715341e-12 4.7695976e-11 1.4443312e-07 1.214627e-08
1.3261419e-07 7.977504e-12 9.578005e-13 1.7764963e-11 7.282067e-08 4.2882384e-08 7.713033e-08 4.4722928e-12
5.3695655e-13 9.959275e-12 1.8916876e-07 4.422148e-08 2.1415838e-07 1.1307091e-11 1.3575597e-12 2.5179572e-11
5.024015e-07 4.591065e-08 2.4635332e-07 2.1758017e-11 2.6123268e-12 4.8452554e-11 1.6901359e-07 8.727794e-09
1.071275e-07 7.7977945e-12 9.362247e-13 1.736479e-11 9.525944e-08 6.838682e-08 1.1279501e-07 7.662864e-12
9.200237e-13 1.7064326e-11 3.7442354e-07 1.741773e-08 2.5906832e-07 1.962443e-11 2.356163e-12 4.37013e-11
2.0964502e-07 6.7097425e-09 2.2007308e-07 1.3125571e-11 1.5758925e-12 2.922913e-11 2.2016982e-08 1.3652916e-08
1.701463e-08 1.5480393e-12 1.8586189e-13 3.4473028e-12 1.9613358e-07 5.6141e-09 1.0825556e-07 1.2399734e-11

exp_avg f4 [128]
00000000: 923c f8b7 831b b736 8e02 b8b8 0a0d 25b8
00000010: 5e48 1837 0024 d237 1fd5 8e37 0502 9037
00000020: 950f 8338 6b4f 09b8 619a dab7 f658 c1b7
00000030: 0382 b1b5 0377 2bb8 c885 2336 983b 8c36
00000040: 276f ae38 0df7 ee37 f73e b8b8 cfb1 9437
00000050: 4206 2fb8 4060 2137 a64e 5137 a8c7 9f36
00000060: ddc1 23b7 08cd 0938 3c4b 0938 a14c 45b8
00000070: 6ae5 1238 b937 dc36 e8f8 e9b8 5f17 1c38
00000080: 8642 c8b8 1c5a fa36 8f07 7737 33c0 2ab8
00000090: 8067 5338 7f59 b2b6 b074 2738 0bb5 7eb8
000000a0: 7295 16b8 09ce 6a37 0636 9eb8 3110 7eb7
000000b0: 30ad 1ab8 b9e5 9737 901c c536 a5d4 c637
000000c0: e485 e5b8 1499 dbb7 3f77 7636 5025 b137
000000d0: c2b5 3436 410c 9337 f365 d438 d9d3 19b8
000000e0: 015f 1438 cc4b b1b7 cef5 dd37 e5d8 86b5
000000f0: 11c3 4037 0b41 b1b8 5f3a a937 95ec d435
00000100: 5b41 d6b7 5b8b bc37 e590 d237 644e e036
00000110: 9f5d 64b7 80ca 9236 3199 0eb7 c323 a9b8
00000120: 5749 89b7 c216 d1b7 e2c9 b037 5b46 a3b5
00000130: c5dd b3b6 5465 b937 9d83 83b6 fe57 f2b7
00000140: 3b4a 00b8 1a3c 3bb7 89b2 5837 66af 2037
00000150: 7680 ab35 830a b337 2060 f436 c4c1 f237
00000160: 4122 9db7 bd37 d0b7 c546 05b6 9ca5 e3b7
00000170: fba7 54b7 baf2 fa35 df8d 94b8 949f 6c38
00000180: 4b26 9637 a5bd f8b6 d200 9437 17e5 31b7
00000190: 3d8f 1137 7a8a 5437 3eb9 3a37 68b4 96b7
000001a0: 5379 d137 0f10 4c38 836c b2b5 6118 91b8
000001b0: 71d3 22b8 a53e 8437 090b 0c37 abc7 17b6
000001c0: d4b3 9137 622d c6b7 a1e7 9a35 0960 34b8
000001d0: 6db2 5437 df17 4136 cdc9 4b36 bb3d 4e37
000001e0: 98fe 40b6 9c5a afb7 7d1a 7a37 97d7 62b8
000001f0: 8e44 5fb8 0181 7437 e287 d4b7 8dec 0437
-2.9592109e-05 5.457028e-06 -8.7742796e-05 -3.935121e-05 9.076755e-06 2.5050715e-05 1.7026961e-05 1.7167078e-05
6.249469e-05 -3.273731e-05 -2.6059513e-05 -2.3048819e-05 -1.3225366e-06 -4.0880415e-05 2.4366764e-06 4.1792628e-06
8.31767e-05 2.8486853e-05 -8.785532e-05 1.7725773e-05 -4.172908e-05 9.618758e-06 1.24756825e-05 4.7618123e-06
-9.760694e-06 3.2854296e-05 3.2733413e-05 -4.7039826e-05 3.502277e-05 6.562998e-06 -0.00011156668 3.7215064e-05
-9.549134e-05 7.4610707e-06 1.4724107e-05 -4.0710158e-05 5.0402712e-05 -5.315232e-06 3.9924576e-05 -6.072693e-05
-3.590197e-05 1.3995458e-05 -7.54409e-05 -1.514335e-05 -3.6877755e-05 1.8107576e-05 5.8743826e-06 2.370246e-05
-0.0001094451 -2.6178117e-05 3.6726267e-06 2.111742e-05 2.6927887e-06 1.7529472e-05 0.00010127937 -3.667534e-05
3.537443e-05 -2.113534e-05 2.6459715e-05 -1.0046903e-06 1.1489509e-05 -8.452133e-05 2.0173551e-05 1.5864085e-06
-2.5541221e-05 2.2476239e-05 2.5101423e-05 6.684846e-06 -1.3611657e-05 4.374713e-06 -8.499527e-06 -8.065209e-05
-1.6365824e-05 -2.4925339e-05 2.1074844e-05 -1.2164923e-06 -5.360433e-06 2.2100903e-05 -3.919426e-06 -2.8889623e-05
-3.058671e-05 -1.1160062e-05 1.2916172e-05 9.577581e-06 1.277788e-06 2.1343358e-05 7.282957e-06 2.8938877e-05
-1.873181e-05 -2.4821487e-05 -1.9859738e-06 -2.7137627e-05 -1.2675296e-05 1.8697094e-06 -7.0836155e-05 5.6415403e-05
1.7899225e-05 -7.4130535e-06 1.7643357e-05 -1.0603361e-05 8.676024e-06 1.2668426e-05 1.1129594e-05 -1.7965402e-05
2.4971238e-05 4.8652346e-05 -1.3293615e-06 -6.91868e-05 -3.882073e-05 1.5764797e-05 8.34722e-06 -2.2616975e-06
1.7369086e-05 -2.3624572e-05 1.1541307e-06 -4.3004784e-05 1.2677728e-05 2.8773136e-06 3.036682e-06 1.229293e-05
-2.8758423e-06 -2.0903819e-05 1.49073285e-05 -5.4083383e-05 -5.323119e-05 1.4573569e-05 -2.5335645e-05 7.922889e-06
