results/TestCurriculum/SuperTank/SuperTank-43840.onnx (onnx, 541849 bytes, 11 tensors)

network_body.observation_encoder.processors.0.normalizer.running_mean f4 [6]
000000 28 18 a6 3a 7e 96 26 3e 3a 73 4f bd a6 3f 92 3e
       0.0012671994 0.16268346 -0.050646998 0.28564185
000010 a6 cb 4c 3e 20 14 a2 3e
       0.1999956 0.3165598

network_body._body_endoder.seq_layers.0.weight f4 [256, 6]
000000 55 25 13 3f 25 20 7e bf 38 25 87 3e cf 2e f8 3d
       0.5747884 -0.992678 0.26395583 0.12118303
000010 e9 0f de be 79 01 2e 3e ae 6d 04 be 2d fe 29 3e
       -0.43371513 0.1699275 -0.12932464 0.16600867
000020 9d 09 30 bd a8 20 10 3d 35 00 19 bf ad 10 7f bc
       -0.042977918 0.035187393 -0.5976594 -0.015567941
000030 35 86 06 be bc 8b a8 3d 9a 3d 85 bd f2 35 a4 be
       -0.13137133 0.08229777 -0.0650589 -0.32072407
000040 02 8e bb be c4 1d d9 bd dc 4f 32 3e ef f9 3b bf
       -0.3663178 -0.106013805 0.17413276 -0.73428243
000050 35 85 ad 3d 65 94 29 bf 13 0b fe 3e 9d 3b 82 3e
       0.08472673 -0.6624206 0.49617824 0.25436106
000060 29 c0 84 bf 27 9a 97 3b 11 5c 3e bf da 97 d4 bc
       -1.0371143 0.0046265307 -0.7435923 -0.025951315
000070 fd 38 fc 3d fd 21 d3 3e 3a d4 c0 be 80 5b 0b 3e
       0.12315557 0.41236869 -0.37661916 0.13609123
000080 79 7b b3 3e 50 76 ac be d1 2b 63 bd 99 01 11 bd
       0.3505514 -0.33684015 -0.05546171 -0.035401914
000090 4c 67 d5 3e c7 cc 60 3e 32 b8 25 bf 24 52 33 3e
       0.41680372 0.21953116 -0.64734185 0.17511803
0000a0 d4 f8 fb bd c3 66 34 3e 02 f4 77 3e 11 ba c1 3e
       -0.123033196 0.17617325 0.24214175 0.3783727
0000b0 1b ee a2 3e f1 fe ac be f0 9c af 3d 9b 20 12 bf
       0.31822285 -0.33788255 0.08574855 -0.57081
0000c0 d8 5f 35 bf fe ba 28 3e 69 3f 1c 3e f9 79 04 bf
       -0.7084937 0.16477582 0.15258564 -0.51748616
0000d0 d5 3c 33 3c 95 16 51 be 5c 5f 2e 3f 90 3d 42 3e
       0.010939796 -0.2041877 0.68114257 0.18968797
0000e0 c6 82 3c 3e 5f 08 42 be 94 8f f9 3e e1 a6 80 3e
       0.18409261 -0.18948506 0.48742354 0.25127319
0000f0 17 75 15 be 1d 92 02 be 9f 7c 9b 3e 54 35 12 3e
       -0.14595447 -0.1275105 0.30368516 0.14278156
000100 fb 8b 01 bf c2 9b db be 4e 08 09 bf 6e 7a 1e 3e
       -0.5060422 -0.4289227 -0.53528297 0.1547639
000110 7c 56 9d 3d 40 68 ea 3e 63 a2 1d bf 7c 5e 82 3e
       0.07682511 0.4578266 -0.6157591 0.2546271
000120 06 6d 1a 3e 7f dd 82 3e e9 7d 19 bf fd 26 35 3f
       0.15080652 0.25559613 -0.5995775 0.70762616
000130 bc b9 b5 be 7b e2 bb bd 01 b6 05 3f 95 30 08 be
       -0.35493267 -0.09174057 0.5223084 -0.13299783
000140 0c dc 8d 3f d0 7b 87 be 9f 86 73 3e f4 50 2a 3e
       1.1082778 -0.2646165 0.23781823 0.16632444
000150 73 bc e2 3e a6 cd 59 3e 7b 3e e5 3e a1 42 27 be
       0.442844 0.21269855 0.4477423 -0.1633401
000160 61 2b d6 3e d5 11 22 be cf 23 67 3f bc 96 04 bf
       0.4182997 -0.15827115 0.90289015 -0.517925
000170 e5 b0 17 3e 64 a2 cb bd 81 38 d1 be af 0c c3 be
       0.14813574 -0.09943083 -0.40863422 -0.38095614
000180 d5 8d 85 3e 6e 08 4d 3e 5f d0 0b 3f a0 b5 85 be
       0.26084772 0.20022747 0.54614824 -0.2611513
000190 04 da 9f be 74 7f 0c 3f 16 86 9f 3e 2b f5 00 3e
       -0.3122102 0.5488198 0.31156987 0.12593524
0001a0 d1 60 94 be bc e8 59 3d 51 cd 2c bd 70 f0 7a b9
       -0.28980115 0.05320047 -0.042187992 -0.00023931428
0001b0 50 43 e7 3d f3 bc e2 be 78 1a 68 be a2 0a 3d 3b
       0.11292136 -0.44284782 -0.22666347 0.002884545
0001c0 9e ae 01 3e 57 c6 58 bf 4e ad 80 3e df af 44 3f
       0.12664267 -0.8467764 0.2513222 0.7683086
0001d0 bd 14 de 3e ee 9c e4 3e 4c 82 9d 3e 3a ab 33 3e
       0.43375197 0.44650978 0.3076347 0.17545786
0001e0 7d 07 aa 3d d4 1a 0a bf 4d 1d 05 3e cb 27 46 be
       0.083022095 -0.53947186 0.12999459 -0.19351117
0001f0 91 a8 72 3c 5e 18 ee be 03 45 7e be ca 1f 80 bd
       0.014810697 -0.46502966 -0.24831013 -0.06256063
000200 6c ee 2d bf 72 41 35 3f 09 5e f7 3d 51 5b e4 3d
       -0.6794193 0.70802987 0.12078483 0.1115023
000210 28 7d 1e bf 8f fa 94 bd e1 e3 a7 3e 27 ce 42 bf
       -0.61909723 -0.07274353 0.32791045 -0.76095814
000220 44 86 25 bf 3e a0 9c 3e 83 d3 4b be 4f 43 74 3e
       -0.64658 0.30591005 -0.19904904 0.23853801
000230 56 35 13 be cb 64 a8 3c af 3c d8 bc c1 4b b9 3e
       -0.14375815 0.020555874 -0.026396124 0.36190608
000240 10 8a b7 3e a3 c6 13 3e 2f 82 15 be f8 e2 37 3f
       0.3584752 0.14431243 -0.14600442 0.718307
000250 97 fa fe 3e 96 26 7a bf c8 da ad 3e 9c d4 8c bc
       0.4980056 -0.9771513 0.3395598 -0.017191224
000260 1b 22 43 3e a2 12 2a 3e f3 97 b5 3f 49 cd 34 3f
       0.19055979 0.1660867 1.4186996 0.7062574
000270 2a af 39 3e 13 8f f2 bd 83 89 60 be da 87 8e 3d
       0.18133226 -0.118436955 -0.21927457 0.069595054
000280 c8 68 a0 be c3 da 79 3e 53 37 11 3f 67 5f 02 bf
       -0.31329942 0.24399857 0.56725043 -0.5092682
000290 c6 c4 56 3e 38 3a 52 3e fc 9b 46 3e e8 ec 46 bf
       0.209735 0.20530021 0.19395441 -0.7770524
0002a0 25 f4 c2 be 68 09 a7 3e 83 a9 82 3d 10 c2 8b 3e
       -0.38076892 0.32624364 0.06379988 0.27296495
0002b0 74 1b b6 bb 5e 9f 39 bf 7b 9e b1 be cc da 3f be
       -0.005557472 -0.725088 -0.34691224 -0.18735808
0002c0 ad dd 9d 3e db c7 42 3d c6 67 c9 bd d6 1c 5f bf
       0.30833188 0.04755388 -0.09834246 -0.87153375
0002d0 5e ac 13 3f 75 d9 7c 3e 7d e0 80 bd 7e 80 83 3e
       0.57684886 0.24692328 -0.06292818 0.2568397
0002e0 03 49 8e be c7 c9 eb bc 3d d1 c0 3d 4f db af 3d
       -0.2779008 -0.028782738 0.09414909 0.08586752
0002f0 04 81 66 3e bc 72 b9 3e 45 53 af be e6 82 b1 be
       0.22510153 0.36220348 -0.34243217 -0.3467018
000300 06 54 3c bf 77 aa 0f bf 6a 5f 72 be be 41 2f be
       -0.7356571 -0.56119484 -0.2366921 -0.17114922
000310 63 3a c2 3e 04 96 c5 be 2c e8 9b be 33 61 89 3e
       0.3793517 -0.38591015 -0.3045057 0.2683197
000320 d2 77 13 3e 5d 56 e3 be 2e 3e 48 be 86 2a 82 3e
       0.14401177 -0.44401827 -0.1955497 0.25423068
000330 c4 a9 e3 bd 36 be a0 be 68 86 59 bf 7a ce d7 be
       -0.111163646 -0.3139512 -0.8497071 -0.42149717
000340 76 c2 95 bd 21 5f 39 3f c4 e1 3b 3e 7c 4c cf 3e
       -0.07312481 0.7241078 0.18347842 0.4048804
000350 85 3e 2e bf 0f d7 34 3e 83 13 6f bf 47 89 cd be
       -0.6806415 0.17660163 -0.9338915 -0.40143797
000360 3d 7f db bd 51 fd 86 bc d0 76 1c 3f f3 59 0c 3d
       -0.10717628 -0.016478213 0.61118793 0.03426547
000370 a8 83 8d be 93 42 d8 be 0b 8c 6d 3e cc 17 7d bf
       -0.27639508 -0.42238292 0.23197953 -0.98864436
000380 1c da d3 be 05 aa e7 3e 41 87 2f be 06 d0 90 be
       -0.41377342 0.45246902 -0.17141439 -0.2828371
000390 da 9c dc 3c ca 31 9a 3e a7 75 17 bd 0c 53 a6 3c
       0.026930261 0.3011611 -0.036977436 0.020303272
0003a0 f5 02 8c 3e 4b 45 20 3d 41 3e 11 3f c6 78 aa be
       0.27346006 0.039128583 0.56735617 -0.33295268
0003b0 05 68 b2 be 0f 30 e2 3e cf 05 b7 3d 84 ad 03 bf
       -0.34844986 0.4417729 0.08936655 -0.5143664
0003c0 51 01 6c 3e 03 f0 cf be 6f 4f 75 3c 74 ac 16 bf
       0.23047377 -0.40612802 0.014972552 -0.5885689
0003d0 d4 ec f9 bd 33 c7 35 be 64 74 14 be 9b e3 d8 3e
       -0.122033745 -0.1775177 -0.14497524 0.4236115
0003e0 27 ff 9a 3e 8b 39 b2 be 92 e7 ff be 5b 96 5e be
       0.3027279 -0.34809527 -0.49981362 -0.21737044
0003f0 ec 7d c4 3d 6d d9 a7 bd f8 29 25 3f 3f 85 91 3e
       0.0959433 -0.081957676 0.64517164 0.2842197

network_body._body_endoder.seq_layers.0.bias f4 [256]
000000 36 c5 2d 3b f2 a6 dc 3a ba 9e 2b b9 23 fa 98 3b
       0.0026515252 0.0016834422 -0.00016366961 0.0046684905
000010 81 d7 94 b9 63 f4 9c 3a 6a be 90 ba b9 50 6c 39
       -0.00028389323 0.0011974688 -0.0011043076 0.00022536785
000020 86 5f 30 bb fa a7 89 3a ed df 26 bb aa 8c 44 3a
       -0.0026912405 0.0010502331 -0.002546306 0.0007497767
000030 df 2b 2f 39 66 10 a5 3a 82 ab 6e 3b 9b d6 03 ba
       0.00016705644 0.0012593388 0.0036418145 -0.0005029232
000040 3c 1f 88 3b 54 5d fa 3b eb c1 be bb ac 9c 0a bb
       0.004154114 0.00764052 -0.0058214567 -0.0021150513
000050 51 f4 06 bb ea 49 b5 ba 23 66 31 bb 7c fb 24 bb
       -0.0020592401 -0.0013831232 -0.0027068935 -0.002517431
000060 a2 f7 c1 ba 91 bf 60 3b 4c 4b e1 b9 00 e3 8c bb
       -0.0014798532 0.003429387 -0.00042971445 -0.0042995214
000070 0c 53 ac ba f1 d4 dd ba f5 64 6e b9 47 89 03 bb
       -0.0013147308 -0.0016924423 -0.00022735058 -0.0020070837
000080 51 d1 99 ba 62 17 cf 39 84 f3 5b ba d1 0c 04 bc
       -0.0011735355 0.00039499538 -0.00083904737 -0.008059696
000090 f3 f9 c5 ba 7c 42 d1 39 73 eb 59 3a 45 ac 39 39
       -0.0015104398 0.0003991312 0.0008312978 0.0001770715
0000a0 fe e2 4f 3b 5e 1f 97 3b 65 50 1e 3a 5a 7c a5 ba
       0.0031720991 0.0046118936 0.00060392014 -0.0012625561
0000b0 00 53 a5 b9 e9 a8 23 ba 4a a2 15 ba bd 36 02 bb
       -0.00031533092 -0.0006243126 -0.0005708082 -0.0019869052
0000c0 b3 bc ca 39 d9 a3 1c bb 90 fe c5 bb d1 32 f5 3a
       0.00038669034 -0.0023901372 -0.006042309 0.0018707161
0000d0 1b e6 c1 39 1f 4a 81 ba a4 87 39 39 c8 bc c9 ba
       0.0003698327 -0.0009864009 0.00017693505 -0.0015391344
0000e0 3d d2 62 39 0f ac d9 b9 76 cc 86 ba 68 ee ed 39
       0.0002163136 -0.0004151766 -0.0010284323 0.0004538179
0000f0 31 ab 15 bb 45 b2 84 bb 1d 61 42 bb 3f 9f 81 bb
       -0.0022837634 -0.0040495717 -0.0029659935 -0.003955751
000100 c9 53 86 ba ae 7f 19 bb ce 52 e2 b8 f1 c7 73 3a
       -0.0010248359 -0.002342205 -0.00010791943 0.0009299508
000110 c0 ac 5d ba ea e8 6f 3a 52 c3 12 bb 2b 06 3b 39
       -0.0008456223 0.00091518334 -0.0022394252 0.00017836007
000120 07 b2 51 3b d6 7e 10 3a ab 9a 18 bb 65 d6 85 ba
       0.0031996982 0.0005512064 -0.0023285549 -0.0010210989
000130 9e bd 39 bb 05 72 76 bb 94 d0 8d 3a 34 38 1d 3a
       -0.002834178 -0.0037604582 0.0010819607 0.00059974496
000140 3a 97 b0 bb 27 2f d2 ba 7a 9c 95 3b 19 2c ff ba
       -0.0053891214 -0.0016035781 0.0045657726 -0.0019468098
000150 d8 35 02 bb 78 79 0e bb e1 d0 d8 b9 ea 23 d9 38
       -0.001986852 -0.0021739881 -0.00041354357 0.00010354056
000160 4a 7d 51 bb 8c ac 19 bb 00 6a 74 3a d3 a4 bd b8
       -0.0031965547 -0.0023448793 0.00093236566 -9.042923e-05
000170 8d 01 b5 3a c7 5a ca 39 31 2b bc 3a 09 11 ee 39
       0.0013809666 0.00038596077 0.0014356134 0.0004540759
000180 ad d3 3d bb 33 02 76 bb 22 9c b9 39 16 74 49 ba
       -0.002896528 -0.0037537932 0.00035402278 -0.00076848397
000190 0c 18 02 3a 55 5f 39 3b ee d2 d1 ba 30 c5 1d bb
       0.00049626897 0.0028285582 -0.0016008297 -0.0024073832
0001a0 7e f8 73 ba b2 fd 85 bb 93 cf d9 ba aa 46 22 bb
       -0.00093067426 -0.0040890807 -0.0016617648 -0.0024761357
0001b0 89 88 9f bb 68 bd 82 ba 2c 1b 80 b9 ab a9 46 bb
       -0.004868571 -0.000997466 -0.00024434307 -0.0030313532
0001c0 06 5d 1f 3a 65 5f c5 ba bd 22 87 bb b7 7e 1b bb
       0.000607923 -0.0015058337 -0.004124014 -0.002372665
0001d0 cf 60 69 bb a6 e4 6b 3b a7 6b 24 3b 26 d6 1c 3b
       -0.003561068 0.003599444 0.002508858 0.0023931353
0001e0 0f 6a 12 bb bc 77 0f 3b cd fc f4 b9 b2 74 c1 bb
       -0.0022341048 0.0021891436 -0.00046727658 -0.0059038037
0001f0 7b 5d b8 3a e0 4a 21 bb 26 5c 93 ba 2a 3f 0f bb
       0.0014065945 -0.002461128 -0.0011242672 -0.0021857717
000200 d1 b4 0c bb db de 82 39 d1 f4 a5 ba 92 2b 96 3a
       -0.002147008 0.00024961572 -0.0012661462 0.0011457077
000210 07 41 58 b9 e8 e5 94 ba 09 5e bc bb fd d6 e8 ba
       -0.0002062359 -0.0011360021 -0.0057485146 -0.0017764267
000220 8c b8 70 3b df 6e df 3a d3 07 a1 ba bf 4d 92 3a
       0.0036731092 0.0017046592 -0.0012285657 0.0011162086
000230 5c 6d d3 b9 0b 3d c2 ba 0c a9 d4 bb 19 cf 3c bc
       -0.00040326535 -0.0014819218 -0.0064898785 -0.011523985
000240 6f c0 66 3a 5b 8e ce ba 7f 49 25 3b f4 31 0d bb
       0.00088024786 -0.0015758978 0.002522081 -0.0021544667
000250 fe e1 01 3a 70 b5 90 39 d7 37 b4 ba 47 7a a9 b9
       0.0004954635 0.00027601002 -0.0013749552 -0.00032325296
000260 52 da ce 3a b0 2f f2 3a 57 cb fe ba 82 8c a2 3a
       0.0015781617 0.0018477347 -0.0019439262 0.0012401494
000270 4c 8f 06 3b 39 1d 01 3a 09 44 38 3a 21 c2 37 ba
       0.002053219 0.0004925314 0.0007029181 -0.00070098235
000280 23 4a 57 ba ec a5 95 b9 72 6e 22 bb d7 78 6f bb
       -0.00082126464 -0.00028543116 -0.0024785069 -0.0036540532
000290 7e 0f 49 bb cd 79 62 b9 04 25 1d 3b ca f1 a5 ba
       -0.00306794 -0.00021598414 0.0023978362 -0.001266056
0002a0 c8 f0 32 3b 9d e0 c5 3b 68 32 e2 ba 4b f7 ce ba
       0.0027304161 0.006038739 -0.0017257454 -0.0015790252
0002b0 a4 1f d1 ba 38 e5 d5 ba d3 74 8b ba 27 0d db b9
       -0.0015954864 -0.0016318923 -0.0010639675 -0.00041780734
0002c0 c7 b9 e1 39 a7 cb 9f 3b 4c 6f ae b7 10 20 92 b9
       0.0004305376 0.004876572 -2.0794243e-05 -0.00027871178
0002d0 0c d8 49 3b c0 9f 3e 3b de 55 96 bb 32 5a 74 39
       0.003079894 0.0029086918 -0.004587873 0.00023303254
0002e0 97 09 71 ba 20 4d 43 b9 55 37 3a bb 1c 8b 31 bb
       -0.00091948494 -0.0001862538 -0.0028414328 -0.0027090972
0002f0 3b d3 03 bb 90 fc a8 b9 79 d7 c2 ba da c4 18 3a
       -0.0020114917 -0.0003223163 -0.0014865241 0.0005827673
000300 61 47 a4 3b ad 81 d2 ba be f7 85 3a 20 31 d1 3a
       0.005013392 -0.0016060375 0.0010220928 0.0015960075
000310 70 5e 9a 3a 2f 21 b7 3a c0 55 8a ba 46 e9 59 ba
       0.0011777412 0.0013971681 -0.001055412 -0.00083126535
000320 95 64 4e 3b 6f e5 2c bb b5 a4 2f 3b 80 71 e3 3a
       0.0031493057 -0.002638187 0.0026801054 0.0017352551
000330 2d 85 39 bb 49 0b f9 3a 43 4e 0d ba fc e1 92 ba
       -0.0028308139 0.0019000556 -0.0005390385 -0.0011206265
000340 c5 44 2b ba d6 05 aa ba 33 74 9d ba 11 3a 3b bb
       -0.000653338 -0.001297171 -0.001201278 -0.0028568546
000350 49 7c 4a b9 b4 a1 00 ba b7 c7 2c 3a f8 e8 2d 3a
       -0.00019310521 -0.0004906908 0.0006591039 0.00066341413
000360 1c 50 89 3a 0d 60 02 3b 1a d6 13 ba c0 6d 18 bb
       0.0010476145 0.0019893677 -0.00056395086 -0.0023258775
000370 2c 8d 18 bb 14 aa 1e 3b 82 fc 73 3a 41 9d 0e bb
       -0.0023277504 0.0024210261 0.0009307341 -0.002176121
000380 95 f1 16 b8 02 c8 d5 3a f6 c2 75 bb bc 42 b9 3a
       -3.5987778e-05 0.0016310217 -0.003750024 0.0014134268
000390 43 d0 29 bb 7e 92 bc ba 8d c1 14 ba bf fe 6f ba
       -0.0025911487 -0.001438692 -0.0005674593 -0.00091550866
0003a0 c7 b7 1b bb 50 78 35 3b 37 85 0c bb f2 2e 36 bb
       -0.0023760663 0.002769012 -0.0021441707 -0.0027798978
0003b0 59 94 f0 3a af 97 a5 ba b8 28 71 39 61 2c 3d 3b
       0.0018354758 -0.0012633706 0.0002299872 0.0028865563
0003c0 d7 82 f8 ba cd 00 5c b9 5d c2 ef ba b8 43 af b9
       -0.0018959892 -0.00020981133 -0.0018292178 -0.00033429055
0003d0 3a ea 8c 3a 03 5b 58 ba df da f9 ba 7f 46 7d 3b
       0.0010750957 -0.0008253308 -0.0019062421 0.0038646755
0003e0 b6 01 ec b8 c4 12 4b 3a 40 9e 96 ba e4 8d e8 bb
       -0.000112536756 0.0007746632 -0.0011491254 -0.007096993
0003f0 e4 46 26 bb c6 48 49 bb a5 51 04 bb d1 7c 46 bb
       -0.0025371844 -0.0030713542 -0.0020190265 -0.0030286799

network_body._body_endoder.seq_layers.2.weight f4 [256, 256]
000000 92 51 cc 39 be 5b 3a 3d 45 d9 56 bd 67 cb b7 bd
       0.00038970687 0.04549765 -0.052453298 -0.08974343
000010 75 8a 1f bc 33 4e ac 3d 63 3a a6 bc 2f 85 6d 3e
       -0.009737601 0.08413353 -0.020291513 0.23195337
000020 e0 9f 51 3d 1c ca 07 3d e9 95 0a bd d0 c7 53 bc
       0.05117786 0.03315173 -0.03383437 -0.012926057
000030 05 bb 29 3d 25 06 2c 3d 80 1f 6e bd bf 58 4c bd
       0.04143812 0.041998047 -0.05813551 -0.049889322
000040 96 61 59 bd bd 28 cc bc 02 76 89 3c 3a 20 e7 ba
       -0.05307158 -0.02492177 0.016779903 -0.0017633506
000050 47 d9 87 bd a7 a5 bb bd 43 82 27 3e 5a 29 3c 3d
       -0.06633239 -0.09162455 0.16358285 0.045937873
000060 f9 a0 41 3d 17 b2 07 3e 08 8a 19 bc 4f a7 9b bd
       0.047272656 0.1325153 -0.009371288 -0.07600271
000070 e1 d9 09 3d 8d 78 b7 bd e6 4f e1 3d 2d e8 88 bb
       0.03365505 -0.0895854 0.110015675 -0.004178068
000080 0d 68 38 bd 02 51 53 3d c2 9c 17 bd db 16 1f 3d
       -0.045021106 0.051590927 -0.03701473 0.038840156
000090 39 c2 09 be 13 e1 00 3d 5c 76 40 3d 11 5f 03 bd
       -0.13452996 0.031464648 0.046987876 -0.032073084
0000a0 8d 1d 80 bd 00 bb b9 38 e0 8a e2 bd b1 c3 21 bd
       -0.06255636 8.856319e-05 -0.110616446 -0.039493266
0000b0 ac f1 4b 3d 2d 44 80 bc b1 7b 0e be 12 cc ba bc
       0.049791023 -0.015657509 -0.13914372 -0.022802386
0000c0 32 55 8a 3c bf 5c 8f bd 3c 98 81 bd b7 41 c3 bd
       0.016886327 -0.07000112 -0.063278645 -0.095340185
0000d0 cf 5b 08 bc 3c 9e 4b 3d cf 70 98 3a a1 c6 40 3c
       -0.00832267 0.04971145 0.0011630299 0.011766107
0000e0 a1 49 54 bb 59 43 2b 3e 39 72 d1 3d b8 48 8e bc
       -0.003239252 0.1672491 0.10226864 -0.01736866
0000f0 3f 2b 3b 3d d2 28 a2 bb fa 17 c6 bd 31 ca 8a bc
       0.04569554 -0.004948714 -0.09672542 -0.016942116
000100 3a 51 fe 3b 9f 15 aa bc 50 02 b4 3c 7e 12 9f bc
       0.007761148 -0.020762263 0.021973759 -0.019417997
000110 ff f5 b9 bd 4b 81 8b 3b 2a 8e a0 3c 5a 95 83 bd
       -0.09080123 0.0042573563 0.01959904 -0.06424971
000120 35 2d ce 3c 96 58 4b 3d 88 04 f5 bb 26 5d e1 bd
       0.02516804 0.04964503 -0.007477347 -0.11004095
000130 d7 bc 2f 3d c6 63 09 3c 87 e2 96 3d 40 71 3e bd
       0.0429047 0.008385604 0.073674254 -0.046494722
000140 88 19 8e bb f3 ae fc 3d b4 f2 89 bd 14 47 e6 bc
       -0.0043365397 0.123380564 -0.06735745 -0.028110065
000150 89 84 0e 3e 48 10 25 3d bc 12 f1 bd 32 c6 3d bd
       0.13917746 0.04029873 -0.117711514 -0.046331592
000160 4a e5 56 bd 2f 6f 43 bd b9 80 a6 bc 0d 64 69 bc
       -0.05246476 -0.047713455 -0.020325052 -0.014245045
000170 b2 d2 18 bd 50 a3 c0 bd c6 e5 28 3d 47 60 aa bd
       -0.03731031 -0.094061494 0.041234754 -0.08319145
000180 12 61 4d 3d 37 fc 65 bd a1 a4 ed bd b3 63 fa 3d
       0.0501414 -0.056148734 -0.11603666 0.12226047
000190 e9 c4 a4 3c 99 42 91 bc 3a 0c 9d 3b 81 3f d9 3c
       0.020113425 -0.017731952 0.0047927173 0.026519539
0001a0 bf 3d dc 3c bb 04 a9 bd 5f 1b 73 bd 2e d5 4c bd
       0.026884912 -0.082528554 -0.059352275 -0.05000799
0001b0 49 11 a0 3b 0f 37 12 be 7a d8 fa bd 5f 79 08 bd
       0.004884873 -0.14278816 -0.12248321 -0.033318873
0001c0 3c 71 af bb cf 82 b0 3d 80 2e 89 3d 40 0d ae 3c
       -0.0053540748 0.086187 0.06698322 0.021246552
0001d0 9b c0 62 3d 1b eb c5 3d 39 54 06 3d 4c ff 05 bc
       0.055359464 0.096639834 0.032795165 -0.008178543
0001e0 60 b4 44 bd 94 ec 17 3e 8a 8b 2d 3c 60 83 21 bc
       -0.04802358 0.14836341 0.010592351 -0.009857982
0001f0 22 8a 96 ba b3 a1 ab 3b 41 26 20 be ae db b1 3d
       -0.0011485259 0.005237782 -0.15639593 0.08684479
000200 36 a4 ee 38 cb fd a3 3d 61 59 01 3d 32 c9 7a bd
       0.00011379311 0.080073915 0.03157938 -0.06122703
000210 b2 09 bd 3c 63 e7 c6 3c 50 18 12 bd b6 23 1e be
       0.023075912 0.024280256 -0.035667717 -0.1544331
000220 36 3e 08 3b 51 50 da 3b 04 62 3f 3e 8f 3e b2 3d
       0.0020789034 0.0066624065 0.18689734 0.08703338
000230 43 09 51 3d 6b c3 b6 3c 76 a5 c2 3d 59 4e de 3c
       0.051034223 0.02230998 0.095042154 0.027136968
000240 c4 4a e6 bd 7b 1c 3f 3c b9 c9 7f 3c 1a b3 34 bd
       -0.11244729 0.011664505 0.015612059 -0.044116117
000250 a4 d4 88 bd 97 58 84 3d 05 11 5c 3c ef e8 2b bd
       -0.06681183 0.0646221 0.013431792 -0.04197019
000260 3c 91 1a 3d 65 6f 93 3d 89 7f 4c bb da 24 9a bd
       0.037736163 0.07198981 -0.0031203947 -0.0752656
000270 a4 2d 19 bb ff 00 5f bd cf d6 8b bd 4d 5c 25 3c
       -0.0023373151 -0.05444431 -0.06828081 0.010092807
000280 38 2c ae 3d 25 61 ac 3b f9 1b 8d 3d 13 8a 8b bd
       0.08504528 0.005260604 0.06890101 -0.06813445
000290 20 80 e7 bb c0 15 4f 3c 61 62 a4 bc cc 0c cc bc
       -0.0070648342 0.012639463 -0.020066442 -0.024908446
0002a0 8c 6b f8 3c 61 a1 a1 bd 40 7c d0 bb b4 c0 0b 3d
       0.03032472 -0.07892109 -0.006362468 0.034119323
0002b0 3b b4 0e 3e 61 67 11 bd b1 57 b9 3c d5 e1 09 3d
       0.1393594 -0.03549898 0.022624822 0.033662636
0002c0 37 b2 fc 3d a2 e7 10 be fc df 95 3d 75 58 94 bd
       0.12338679 -0.14150861 0.07318112 -0.07243434
0002d0 6b e5 a7 3d b0 86 30 3d fe 8f b0 bd 79 ea 25 bb
       0.08198055 0.043097198 -0.08621214 -0.0025316759
0002e0 01 d2 8b bd be b9 38 3c 13 6a ca bc 93 ea ce bc
       -0.068271644 0.011274753 -0.024708783 -0.025258338
0002f0 c8 5e 8b 3b ca f0 88 3d 54 08 95 3d f0 81 67 bc
       0.004253242 0.06686552 0.07276979 -0.014130101
000300 75 e0 cd bd 6d 93 39 3d df 49 f7 bd e0 5b 9c 3d
       -0.100525774 0.04530661 -0.12074637 0.07634711
000310 bd 4b 44 bc 0c 82 a9 bc c8 39 d6 bd 22 ab 87 bb
       -0.011980948 -0.020691894 -0.1046024 -0.0041402737
000320 33 a5 fc bd 99 01 93 bd 4e 4b 91 bd 66 4e aa 3b
       -0.12336197 -0.07178039 -0.07094441 0.005197334
000330 de b1 ed 3b e1 bf 03 3d 89 e3 1f 3d e1 51 e7 bd
       0.0072538694 0.03216541 0.039035354 -0.11294914
000340 e7 93 62 3d 01 2b ca bc 5e e3 a9 3d 32 99 1e 3d
       0.055316832 -0.024678709 0.0829532 0.038720317
000350 87 42 cf 3d 0c 2a 4d bd 3b 02 3a bc c2 64 3a 3d
       0.10120111 -0.050088927 -0.011353071 0.045506246
000360 35 5e 5b 3b fa 8f 33 3d c0 70 a6 bd 26 79 25 bc
       0.00334729 0.04383848 -0.08126974 -0.010099685
000370 4f f1 9c 3d f7 42 d3 bd 83 85 a8 3d 58 29 1b bd
       0.076632135 -0.10315507 0.0822859 -0.037881225
000380 e8 36 a1 bb 48 a9 7a bd 49 53 4d 3c d8 42 95 bd
       -0.0049198754 -0.061196595 0.012532064 -0.0728814
000390 8b 9d 06 bd 3c ba 96 bd b4 35 b6 3c 7c e7 21 bd
       -0.03286509 -0.0735974 0.022242405 -0.0395274
0003a0 72 6a a8 bc 8a 71 20 3b 3b 4c 95 3d 31 57 e1 bc
       -0.02055857 0.0024481737 0.072899304 -0.027507396
0003b0 46 c7 f7 3c c5 af 5b bc 3a 02 39 3c fa ac 50 bd
       0.030246388 -0.013408606 0.011292035 -0.050946213
0003c0 22 5f 9e 3d 2d aa 86 bd 2c bb c6 ba 7c dd a1 3d
       0.07732989 -0.06575427 -0.0015161983 0.07903573
0003d0 5a 8e dd 3c 1d a5 2c 3d 29 e4 a7 bb f0 45 76 bd
       0.027045418 0.04214965 -0.0051236344 -0.06012529
0003e0 ee 3c 9b bd 85 bf 42 3c 25 01 ac 3d 84 fa 00 bc
       -0.07579981 0.011886482 0.08398656 -0.007872228
0003f0 fd 0a 51 3d f9 70 f0 3c 65 89 31 3d 1b b2 59 3d
       0.05103587 0.029350745 0.04334392 0.05314837

network_body._body_endoder.seq_layers.2.bias f4 [256]
000000 50 cc bc 39 ff e1 e7 39 56 b9 a6 ba 36 6d a6 ba
       0.0003601038 0.00044228134 -0.0012720029 -0.0012697342
000010 9a a2 84 3a 5c b6 ed 38 64 d1 98 3a 49 e3 03 bb
       0.001011926 0.00011335008 0.0011659083 -0.0020124486
000020 25 3c e7 ba 0e ed 33 3b d5 a4 2f bb c0 67 95 3a
       -0.0017641826 0.0027454528 -0.0026801128 0.0011398718
000030 38 45 11 3b ec de ce 39 4f fe 62 ba 6f da 9f 3a
       0.0022166502 0.00039457472 -0.0008659111 0.0012195836
000040 b6 4b 56 3b 4f a3 8b ba 42 f9 37 bb f6 f1 24 ba
       0.0032698936 -0.0010653528 -0.0028072153 -0.00062921585
000050 dc db ac ba 72 33 fb ba 52 d5 65 39 c3 1f 6b 3a
       -0.0013188082 -0.0019165112 0.0002191861 0.00089692714
000060 48 26 3f bb a3 66 f6 b7 b7 39 64 3a ab ec 93 bb
       -0.0029167105 -2.937328e-05 0.000870611 -0.004514297
000070 47 c8 90 ba 13 08 62 ba 72 14 d3 b8 97 9f d5 3a
       -0.0011046015 -0.0008622419 -0.00010065072 0.0016298172
000080 ff 15 18 3b 46 c3 19 bb 4a 11 c5 ba 2c 22 21 bb
       0.002320647 -0.002346234 -0.001503506 -0.0024587018
000090 43 f9 ed ba e7 2e 1a 3b 43 83 ac 3a 67 14 c0 3a
       -0.0018155951 0.002352649 0.0013161678 0.0014654518
0000a0 21 c5 c5 3a 09 6b 39 bb 6b fa 41 ba 26 ac 5d 38
       0.0015088656 -0.0028292558 -0.0007399681 5.285083e-05
0000b0 f3 a3 66 bb b1 3c 54 bb 4a 92 15 3a 24 dc 25 ba
       -0.0035192936 -0.0032384808 0.00057056977 -0.0006327054
0000c0 94 29 af ba 46 c7 0d 3b 09 de 24 bb ea 62 f2 ba
       -0.0013363832 0.0021633669 -0.0025156757 -0.0018492613
0000d0 c4 15 ef b9 33 30 cb 39 eb ed 0a ba 57 22 c8 ba
       -0.0004560185 0.00038755088 -0.0005299735 -0.0015269023
0000e0 cb 9f 94 ba e6 81 2d bb 3f 05 06 bb a0 cd 0f 3b
       -0.0011339126 -0.002647513 -0.0020449904 0.002194263
0000f0 97 fe 7e ba d3 0a cb ba 6c e2 79 b9 f4 e7 f0 3a
       -0.0009727268 -0.0015490897 -0.00023830839 0.0018379674
000100 20 16 05 bb 35 3f b8 ba d5 c4 ac 3b 43 5d 5f ba
       -0.0020307377 -0.0014056923 0.0052724876 -0.0008520672
000110 f1 5c 99 ba 68 99 78 bb e5 ba 98 3a 17 0a 1e bb
       -0.0011700672 -0.0037933234 0.0011652379 -0.00241149
000120 f3 a6 eb ba 9e 12 90 b9 5e 72 a4 ba 8f 60 ec ba
       -0.0017978832 -0.0002747969 -0.0012546291 -0.0018034148
000130 bc 78 af ba e4 eb 21 3a af 4a 56 ba 54 de 93 3a
       -0.0013387422 0.0006176813 -0.0008174581 0.0011281469
000140 87 ae 4b 3a d4 93 a4 b9 fe d5 d4 3a 24 e1 c3 39
       0.0007769842 -0.00031390658 0.0016238091 0.0003736104
000150 a2 06 d5 ba 59 31 e4 ba f4 29 39 39 ba d1 f1 39
       -0.0016252587 -0.0017409726 0.00017658604 0.0004612336
000160 6f 91 6f 3a 5e d8 ba 3a f3 5b 4a ba 83 6a 89 3a
       0.0009138798 0.0014255156 -0.000771939 0.0010484013
000170 f2 f4 6f 3a 0b 6e e3 ba 46 50 1c bb 87 1b f4 ba
       0.0009153626 -0.0017351521 -0.0023851558 -0.0018623926
000180 d6 11 08 3b f8 ca 9f 3b 0a 0f 5a 3a 4c 73 8a b9
       0.0020762584 0.0048764907 0.0008318281 -0.00026407314
000190 bc f2 9f ba be 49 8a ba ae ea c3 ba ae 08 48 3a
       -0.0012203078 -0.0010550541 -0.0014947259 0.0007630688
0001a0 64 4c d5 39 65 8b ec 3a 44 c2 3c bb 7d 27 10 ba
       0.0004068344 0.0018046914 -0.0028802315 -0.0005499048
0001b0 65 84 00 3b 20 74 df 3a 06 f6 b9 ba 66 af db b9
       0.0019610163 0.0017048158 -0.00141877 -0.00041901617
0001c0 8a b6 83 3a 6a bb 80 ba 91 e0 8d b9 94 1e 5d 3a
       0.0010048908 -0.0009821479 -0.0002706093 0.00084350375
0001d0 a6 c2 05 bb ee c0 70 3a c0 df b2 ba 27 4e b4 3a
       -0.002041021 0.0009184022 -0.0013647005 0.0013756201
0001e0 6d dd d8 ba 2b df a8 ba b5 4f dd ba 09 42 31 ba
       -0.0016545482 -0.0012883892 -0.0016884716 -0.0006761854
0001f0 bd 96 d1 ba c3 94 fc 3a 19 f2 9e ba 82 06 95 b9
       -0.0015990358 0.0019270409 -0.0012126594 -0.00028424343
000200 8f 76 15 bb da 77 e7 ba 56 7c 09 ba 2d 96 e4 b8
       -0.0022806262 -0.001765962 -0.0005244663 -0.000108998596
000210 4b 2c e9 b9 7c 16 10 bb 26 12 2d 3b 7f 8c e5 ba
       -0.00044474224 -0.0021986058 0.0026408522 -0.0017513185
000220 f1 91 25 bb ef 4d d7 3a da c7 0a ba 2e 2d d2 39
       -0.002526399 0.0016426424 -0.00052940624 0.00040087983
000230 3f 32 80 3a 52 9f 95 39 54 a6 29 bb 90 1b 91 3a
       0.00097806 0.00028538198 -0.0025886493 0.0011070836
000240 b6 04 0a bb b7 28 18 3a 29 c4 19 ba d2 75 ab 3a
       -0.0021059937 0.0005804407 -0.0005865717 0.0013081378
000250 92 ac c6 ba 55 0f 44 ba df dc 2b ba 2e 45 ee 39
       -0.0015157631 -0.00074790913 -0.00065560447 0.0004544644
000260 74 3a cc ba 62 d1 bf b9 64 b3 20 bb 4b 77 7b 3a
       -0.0015581385 -0.0003658636 -0.0024520988 0.0009592666
000270 93 ba cc ba 25 f9 4c ba 48 84 b4 ba f9 01 fb 39
       -0.0015619568 -0.0007819108 -0.0013772333 0.0004787592
000280 ad 53 16 bb 62 b8 98 bb e5 bb 32 3a f1 b3 d2 3a
       -0.0022938058 -0.004660652 0.00068181596 0.0016075355
000290 69 91 49 b9 3c 52 fd 3a ef 60 8f ba 37 3a 86 ba
       -0.00019223023 0.0019326876 -0.0010938923 -0.0010240738
0002a0 5b 9e 1e b8 de 95 b5 bb c1 e3 4a 3b 6a 9b 68 ba
       -3.7817616e-05 -0.005541547 0.0030958506 -0.0008873256
0002b0 e3 e0 e4 b9 9d 5a 07 3b e4 1c 9b ba c5 8c a7 ba
       -0.00043655102 0.0020653375 -0.0011834172 -0.0012783041
0002c0 c4 8e d1 39 64 71 c9 ba 41 c9 2d bb fd 74 d3 ba
       0.00039969955 -0.0015368876 -0.0026517662 -0.0016132888
0002d0 a4 de a4 ba 92 52 32 3b ba 22 bd ba f7 0b d6 ba
       -0.0012578559 0.002720986 -0.0014429905 -0.001633047
0002e0 bf 0c c1 ba 5a 23 08 bb a5 30 04 3b 3c e2 68 ba
       -0.001472853 -0.0020773024 0.0020170596 -0.0008883809
0002f0 c6 c7 1f bb ed b3 31 bb 74 b3 51 39 e9 24 9e ba
       -0.002438055 -0.00271153 0.00019998645 -0.0012065443
000300 f2 6f ea ba bf 18 c5 ba 9d d0 b5 3a f0 bd c0 3a
       -0.0017886146 -0.0015037282 0.0013871376 0.0014705043
000310 86 29 d5 ba c3 1f 4b ba e3 d6 63 bb cb a9 90 b7
       -0.0016262985 -0.00077485683 -0.0034765534 -1.7245204e-05
000320 4e cf 90 ba be 3e 93 3a 78 91 ed 3a f5 d5 79 b9
       -0.001104811 0.0011233909 0.0018125018 -0.00023826196
000330 db 65 83 ba 90 38 d0 ba fd de be b9 f5 5c ec 39
       -0.0010024862 -0.0015885998 -0.00036405763 0.00045082686
000340 42 bb 0f bb 3c 0b 13 bb 9f 24 89 b9 c1 cd d5 3a
       -0.0021931683 -0.0022437116 -0.0002615796 0.001631193
000350 2b c9 03 ba 49 a4 94 ba df 2d 21 bb bd b5 80 b8
       -0.000502723 -0.0011340465 -0.0024593992 -6.137367e-05
000360 64 4c d1 3a 17 2b 92 39 d7 29 3a ba 3b 78 ac b9
       0.0015968201 0.00027879394 -0.00071015715 -0.00032895975
000370 04 fe ef 3a ef 03 33 bb 41 9a 4f ba e9 a8 4e bb
       0.0018309955 -0.0027315577 -0.0007919409 -0.0031533784
000380 97 70 7d bb 34 7a 06 bb 88 6e 5f 3b 84 64 13 3b
       -0.0038671845 -0.0020519616 0.0034092981 0.0022490332
000390 15 a4 31 bb 2f 3e 82 3a 66 7f a7 39 9a 23 8b 3a
       -0.0027105857 0.0009936745 0.0003194764 0.0010615468
0003a0 d9 ec 22 bb cc bc bf ba cc d7 b3 ba c7 d3 0e ba
       -0.002486041 -0.0014628409 -0.0013720929 -0.00054484274
0003b0 8f f4 b4 ba 96 e7 fa 3a 9e 3b e2 3a 29 ca a3 ba
       -0.0013805794 0.0019142504 0.0017260199 -0.0012496162
0003c0 69 14 3c 3b ce 82 a3 3a f9 81 b3 3a 25 3e 0e b9
       0.002869869 0.0012474896 0.0013695351 -0.00013565326
0003d0 1a 41 ca ba f8 14 e0 ba e2 0d 11 39 48 ad 23 3b
       -0.0015430779 -0.0017096093 0.0001383345 0.002497511
0003e0 d0 1b 07 bb 7e ad 65 ba a3 ea 8c ba 42 b1 2a bb
       -0.0020615943 -0.0008761509 -0.001075108 -0.0026045595
0003f0 06 2b d3 b9 34 1e f7 3a d1 75 13 3a 16 69 8b ba
       -0.0004027711 0.0018853606 0.0005625161 -0.0010636176

network_body._body_endoder.seq_layers.4.weight f4 [256, 256]
000000 2e bc 93 bd e9 94 05 bd dd e6 17 bd 18 48 dc bb
       -0.07213627 -0.032612715 -0.037085403 -0.0067224614
000010 97 b8 26 3d 2a 05 18 3d 5e 89 31 bd 38 90 20 bd
       0.040703382 0.0371143 -0.043343894 -0.039200038
000020 63 66 cd bc 41 00 c1 3c ba d5 13 bd 03 1b fb bd
       -0.025073236 0.023559691 -0.036092497 -0.122610115
000030 83 0c 58 bc aa 0d 82 3d a1 c6 0e 3c f8 c6 93 3d
       -0.013186577 0.063502625 0.008714349 0.07215685
000040 a5 65 76 bd 8a 67 e8 3c 51 00 23 bd 86 09 3e bd
       -0.06015553 0.028369684 -0.039795224 -0.0463958
000050 1c 00 dd 3d 43 95 96 3d be 6e 09 3d 27 75 93 bd
       0.107910365 0.07352688 0.033552878 -0.072000794
000060 48 3e 96 3d 20 59 88 bd 25 16 a1 bc 8f e9 84 3c
       0.07336098 -0.06657624 -0.01966388 0.01622465
000070 2f 77 3f bc bc d9 f5 bd 81 af 11 be ac 56 b1 3c
       -0.01168613 -0.1200442 -0.14227106 0.021647774
000080 e4 c4 47 3d 23 32 0c be f1 37 88 3d 3e 59 11 3e
       0.048771754 -0.13691 0.06651295 0.141942
000090 5d db ba bb 4a 42 a6 bc b8 21 93 3c cb f9 0c bd
       -0.0057024197 -0.020295281 0.017960414 -0.03441791
0000a0 f9 cf a8 3d eb b2 ac 3b a2 c5 42 bc 62 3e 22 3d
       0.08242793 0.005270352 -0.01188794 0.039610274
0000b0 70 78 22 3c 97 a6 0f bc c3 ab 90 bd ab d9 9c 3d
       0.00991641 -0.008767745 -0.07064011 0.07658704
0000c0 63 21 21 bd 39 e6 f7 bd 10 ba 49 3d 84 4f f4 bc
       -0.03933848 -0.12104458 0.04924971 -0.029823072
0000d0 6f bf 7a 3d f2 4e 4c 3d fc 67 97 bd d8 9a 8c bb
       0.06121772 0.049879976 -0.0739288 -0.0042909198
0000e0 09 0c 51 bd a1 2a 0a 3d 7a 7a 00 3d 77 a9 6e bd
       -0.05103687 0.03373206 0.031366803 -0.058267083
0000f0 e0 b6 4a 3d 11 0a 8c bd 44 1e 99 3c c8 67 f4 3c
       0.04949081 -0.068378575 0.01869119 0.029834643
000100 6a 7e 5c 3c 35 5e 01 bc 14 27 21 be c2 c9 cd bc
       0.013457874 -0.007895996 -0.15737563 -0.02512062
000110 0c 75 d4 bc de 7f 1b bb 7c 3d b7 3d fe 7e cd 3d
       -0.025934719 -0.0023727338 0.08947274 0.100339875
000120 ef d8 e4 3d 13 ce b9 bd 95 3b 0f 3d b3 e3 70 bd
       0.11174189 -0.09072509 0.03496893 -0.0588109
000130 e2 d5 e3 3d e4 1a 4f 3d 6d 02 ce bd d3 ee 47 bd
       0.11124779 0.050562754 -0.100590564 -0.048811745
000140 ed 8d b4 3d c9 33 db ba ab 38 e4 bd 40 7c 13 3d
       0.08816133 -0.0016723807 -0.11143621 0.036007166
000150 71 e2 b7 bc 7e 47 22 3d 90 0e 10 3d fd bf 35 3d
       -0.022446843 0.03961896 0.035170138 0.044372547
000160 e8 a8 7d bc c6 bc 94 3d 19 96 6f 3d e7 0b 09 3e
       -0.015482165 0.07262568 0.058492754 0.13383447
000170 c1 75 3d 3d 2e 4c 9f 3d ad ec cb bd e3 9b f3 3d
       0.046254877 0.07778202 -0.09957252 0.118949674
000180 d9 23 40 bd 5c f2 03 be 0b 69 82 3b 4d 4c 81 bc
       -0.046909187 -0.12885422 0.0039798073 -0.015783453
000190 ea e3 9d bc 21 3f ef 3d 03 94 17 3e f1 34 0d 3e
       -0.019273717 0.11681963 0.14802556 0.13789727
0001a0 0a 59 bf 3c eb f3 e4 3d 14 1d 3b 3d 32 ac 47 bd
       0.023357887 0.11179336 0.045682028 -0.048748203
0001b0 e6 de 53 bc 0b 81 30 bc f0 cd 2b bd 47 65 36 bd
       -0.012931561 -0.010772954 -0.041944444 -0.04453018
0001c0 94 47 7c 3d 4b 1f c8 3d cd 7f 1a 3e 1d 5c 1d 3d
       0.0615917 0.09771594 0.15087815 0.038417924
0001d0 a0 00 a9 3b d5 1d 8c 3b 27 6f e2 3a 54 66 4b 3d
       0.005157545 0.004276017 0.0017275558 0.049658135
0001e0 22 11 aa bd 28 c6 29 3c 10 25 87 3d dd c0 9a bd
       -0.08304049 0.010362186 0.06598866 -0.07556317
0001f0 de 1d ee bc 77 b0 e8 3c 01 78 7f 3d 53 26 97 bd
       -0.029066976 0.028404457 0.062370304 -0.07380357
000200 c0 68 aa 3c 45 28 2b 3c 41 91 15 3d 30 d0 16 be
       0.020801902 0.010446613 0.036515478 -0.14727855
000210 be 5b 56 3d ef 96 d0 3d 3d d4 f3 bd 61 37 36 3c
       0.052333586 0.10185038 -0.119057156 0.011121602
000220 7d 46 99 3d 7e 0e 05 bd 27 aa 0c 3c 39 32 0f bd
       0.07484148 -0.032484524 0.008585489 -0.034960005
000230 ed c1 2c bd f7 46 cb bc 07 ba f7 bb 0e fa 5e bb
       -0.04217713 -0.024814112 -0.007560018 -0.0034023556
000240 39 d6 5a bc 3f 02 34 3c 68 0c 59 bd be 75 9f 39
       -0.013356739 0.010986864 -0.052990347 0.00030414568
000250 bb 51 e6 3c ce 65 05 bd 26 a2 9b 3d c1 c8 eb bc
       0.028115144 -0.03256779 0.07599287 -0.02878225
000260 81 59 2e bc df d6 be 3d 69 ea 1f bd b7 09 18 be
       -0.010641457 0.09318327 -0.03904191 -0.14847456
000270 6c 63 98 bd 97 21 df 3d 19 0e 3c 3d 79 63 e2 bd
       -0.07440838 0.10895079 0.045911882 -0.11054129
000280 31 a4 cb bd ed e9 1d bd 1c 6f 03 bb fc 80 c3 bd
       -0.099434264 -0.038553167 -0.002005524 -0.09546086
000290 52 92 e5 3c 8e d9 8c 3d 1b 2c 1e 3d c1 c7 18 bd
       0.028023873 0.06877433 0.03861628 -0.037299875
0002a0 08 60 04 bd d4 89 0a 3d 8d 50 b1 3d 2a 85 99 3d
       -0.032318145 0.03382285 0.08657942 0.07496102
0002b0 57 39 27 3c 53 3c a1 bc cc dd a3 bc 55 10 ff 3c
       0.010206542 -0.019682085 -0.020003222 0.031135717
0002c0 1b f4 c0 bc 37 b3 4b bd 18 1e 0a bd 77 a0 9f bd
       -0.023553899 -0.04973146 -0.033720106 -0.07794278
0002d0 21 ae 7f bd ff d7 4f bd 04 b3 d7 bd fb 9d ad 3d
       -0.06242192 -0.0507431 -0.105321914 0.08477398
0002e0 ea b8 7d 3d 84 84 19 bd 83 79 1d 3c f1 4d ff 3c
       0.061943926 -0.037479892 0.00961149 0.031165095
0002f0 00 38 15 bc 29 c7 46 3d 0e 33 24 be 30 de d7 bc
       -0.00910759 0.048529778 -0.16035101 -0.026351064
000300 20 13 b4 3c c9 78 73 3d 09 c1 70 bd 03 d7 94 3d
       0.021981776 0.05944136 -0.058777843 0.07267573
000310 7a d5 51 bc 06 9d b4 3c 14 85 5b 3c 6f 90 74 bd
       -0.012807244 0.02204753 0.0133984275 -0.059708055
000320 5c 2f d2 bc 2c b2 9b bd 00 9e 93 3c cc 70 0e be
       -0.025657348 -0.07602343 0.018019676 -0.13910216
000330 a6 70 e8 bd 85 4a 1e bd ef 13 fe 3d 4e 37 a6 bb
       -0.11349611 -0.038645286 0.12406146 -0.005072511
000340 ba 2a a9 bc 3e cc f8 bc 17 0b d6 bc 62 6f ca 3d
       -0.020650256 -0.030370828 -0.026128335 0.09884526
000350 44 bd e6 bc aa d8 ca bc 15 ba 13 3d 94 1c 2e bc
       -0.02816642 -0.024761517 0.036066134 -0.010626931
000360 26 56 b5 3d 0d a2 ed bc 48 61 ab bd 70 f9 18 bd
       0.08854322 -0.029007936 -0.08368164 -0.037347257
000370 c9 ee 37 bd d5 9b 89 3d 0f 7a cd bd 65 c5 c3 bd
       -0.044905458 0.06719176 -0.100330465 -0.095591344
000380 8d e8 ea 3d 2b a5 b8 3d 1b 51 24 bd 1d 12 76 3d
       0.11470137 0.09015878 -0.04011641 0.060075868
000390 7e ba 71 3c 4b 39 a3 bc b6 07 59 3d d2 63 49 bc
       0.014753936 -0.01992478 0.05298587 -0.012291865
0003a0 26 9a 4b bd 2d 89 b1 3c 74 ac 63 b9 b7 b3 f0 bc
       -0.049707554 0.021671856 -0.00021712651 -0.02938257
0003b0 af 2f 56 bd 52 4a ea bc 55 d9 7c 3a c5 2f 04 3d
       -0.05229157 -0.028599892 0.0009645422 0.03227212
0003c0 31 6c e1 3d 36 e8 1b be a6 10 13 bd 43 d8 11 3d
       0.11006964 -0.152253 -0.03590455 0.035606634
0003d0 b2 15 ab 39 23 0e 88 3d ff f8 b0 bd 07 fc 16 3c
       0.00032631826 0.06643321 -0.08641242 0.009215361
0003e0 cf 0d e8 bd 58 30 92 3d 23 fd fa bc 68 85 c4 3d
       -0.11330759 0.07138127 -0.030638283 0.09595758
0003f0 c3 f0 db bc 24 65 86 bd 08 64 55 bd 6c 8f b8 3b
       -0.026848203 -0.0656226 -0.05209735 0.0056323316

network_body._body_endoder.seq_layers.4.bias f4 [256]
000000 56 5e dd ba 6e cd f8 b9 d1 b2 f0 39 cd aa 45 ba
       -0.0016889076 -0.00047455303 0.00045909596 -0.0007540405
000010 4b 86 0c 3b 0d c1 a8 ba 32 5b 01 b8 5f e8 4b b9
       0.002144235 -0.0012874916 -3.084093e-05 -0.00019446154
000020 da c8 ad 3a dc 3a 41 3a a5 fa bf ba a3 ad bb 3a
       0.0013258711 0.00073711365 -0.0014646841 0.0014318716
000030 01 5d 06 ba 66 f7 d4 ba d5 61 53 b8 5d 89 d7 ba
       -0.0005125553 -0.0016248047 -5.0397433e-05 -0.0016444136
000040 e5 1c 6f 3a df 61 6f ba d4 50 a3 b9 bd 25 68 39
       0.0009121432 -0.00091317104 -0.00031150004 0.00022139303
000050 53 3e a2 b9 3f b3 fc ba 00 23 b1 ba 02 c0 b0 39
       -0.00030945483 -0.0019279494 -0.0013514459 0.00033712393
000060 b3 25 3e bb 91 bc 1a b9 c5 bd 0f 3a a6 de dc 39
       -0.002901417 -0.00014756831 0.0005483295 0.00042127556
000070 e2 33 e5 ba 32 c1 8f ba 4d fd c8 ba 01 8c 14 b9
       -0.0017486776 -0.0010967611 -0.0015334279 -0.00014166535
000080 7b 75 b9 3a b0 e9 b6 ba b1 bb b6 b9 33 68 60 3a
       0.0014149392 -0.0013955142 -0.00034853586 0.0008560449
000090 3d ce 1a bb 25 83 2f ba 01 d5 c3 ba d4 69 92 ba
       -0.0023621463 -0.0006695262 -0.00149408 -0.0011170455
0000a0 15 0c 76 39 4c af e3 3a ab d4 9e ba a3 ae 0b bb
       0.00023464889 0.0017370968 -0.0012117823 -0.0021313808
0000b0 d9 4f 9d ba 9e f2 e2 ba 5c 69 9c ba f7 e9 aa ba
       -0.0012001946 -0.0017314737 -0.0011933255 -0.0013039698
0000c0 cb 0b 41 ba b9 17 5c ba 71 f1 ea 38 93 71 90 3a
       -0.0007364123 -0.0008395869 0.000112029615 0.0011020176
0000d0 56 4a e1 b9 02 24 d7 ba 3f af 0f bb c2 ce 5c 37
       -0.0004297073 -0.0016413929 -0.0021924523 1.3161161e-05
0000e0 73 d6 0c bb 9b fe 9e ba 9f 7a 21 3a 31 6a af 3a
       -0.0021490126 -0.0012130322 0.00061599346 0.0013383088
0000f0 22 ce f5 b9 48 62 95 ba b7 4c 03 3b fb 9c 1e 3b
       -0.00046883622 -0.0011397088 0.002003474 0.0024202454
000100 86 54 8b b9 73 01 18 ba 93 02 9c ba 95 05 0a bb
       -0.0002657512 -0.0005798556 -0.0011902623 -0.0021060456
000110 57 6e a0 3a 0a c1 47 3b 60 37 cf ba 76 f2 9e ba
       0.0012239915 0.003048005 -0.001580935 -0.0012126702
000120 7f f3 63 38 ab 72 a1 39 f8 f2 16 3a 0d f7 c5 ba
       5.434779e-05 0.00030793747 0.0005758251 -0.0015103534
000130 6e 53 86 3a ca b9 01 3b 73 08 ae 38 34 af dd ba
       0.0010248253 0.0019794577 8.29854e-05 -0.0016913177
000140 b9 20 06 bb 7d 73 82 3a bf 5d bc 37 67 04 bf 3a
       -0.0020466282 0.0009952631 2.2455e-05 0.0014573456
000150 29 8c 32 3a a6 a9 70 3a 6f 4f c9 ba 35 62 e6 b9
       0.00068110466 0.0009180553 -0.0015358756 -0.00043942188
000160 97 ed 67 39 2e 6f 0e bb 1d a3 8f 39 e1 7d a4 38
       0.00022118386 -0.0021733749 0.00027396614 7.843576e-05
000170 93 56 71 ba b2 60 12 3b 79 13 e8 3a 76 77 00 bb
       -0.0009206321 0.0022335467 0.0017705999 -0.0019602454
000180 e3 9b 0c 3b 58 8a 4f ba 60 75 ea ba 3f 0f b1 3a
       0.002145522 -0.0007917038 -0.0017887764 0.0013508572
000190 33 d8 21 ba 5a 84 b3 b9 13 1a 5c b9 8d 35 3d ba
       -0.0006173879 -0.0003424015 -0.00020990548 -0.00072177575
0001a0 39 8d 91 ba 0c 7a 22 3a e2 ab 80 3a a2 04 bd ba
       -0.001110471 0.0006197996 0.000981685 -0.0014420936
0001b0 84 63 bd bb ba 8c 19 3b 73 09 01 bb aa a4 59 ba
       -0.0057796855 0.0023429827 -0.001968947 -0.000830243
0001c0 14 45 aa b9 e9 dc a0 3a 24 cc d3 3a c7 db ed 3a
       -0.00032476394 0.0012272868 0.0016158861 0.0018147164
0001d0 88 9b 34 3b 17 29 92 39 0b e3 d4 39 11 a4 15 bb
       0.0027558524 0.00027877904 0.0004060495 -0.0022833387
0001e0 a7 e7 a5 b9 4b be f1 b9 61 48 31 3b a0 ed 02 bb
       -0.00031643847 -0.0004610888 0.0027051198 -0.0019978061
0001f0 6f 4d c0 ba 51 54 a7 ba 35 e3 77 ba e9 49 91 ba
       -0.0014671515 -0.0012766217 -0.0009456159 -0.0011084649
000200 e3 1d 06 bb 24 c7 14 39 1a 69 d9 ba 27 ec fe 39
       -0.0020464591 0.00014188566 -0.0016587109 0.00048622602
000210 b6 2b f3 ba f4 1b cb 39 8e a2 2d ba 76 d3 49 3a
       -0.0018552456 0.00038740004 -0.0006623649 0.00076990516
000220 ac d4 16 3b a2 f9 dd b9 52 dc b1 ba 95 ca d1 ba
       0.0023014946 -0.00042338396 -0.0013569689 -0.0016005809
000230 4a 7b e2 39 8b 05 de b9 e0 18 10 3a 74 00 dd 3a
       0.00043197937 -0.0004234727 0.0005496871 0.0016861097
000240 bf 30 dd 3a df c0 69 3a 66 5e e1 ba d4 ba b8 3a
       0.0016875489 0.00089169847 -0.0017194271 0.0014093765
000250 1c 8c 10 ba 99 66 9a ba 9a 54 8e b8 dc 1f 49 ba
       -0.0005514042 -0.0011779844 -6.786846e-05 -0.0007672289
000260 4b 13 42 bb ae e4 ae b9 6a cf e0 ba 9e 28 94 ba
       -0.002961355 -0.00033358246 -0.0017151658 -0.0011303609
000270 6c 2e fa ba ea fb e9 ba 00 23 a2 3a f5 3f 04 ba
       -0.0019087321 -0.0017851565 0.001237005 -0.0005044931
000280 63 ca 96 ba 08 84 05 3b 32 c6 e6 39 4e b2 f7 ba
       -0.0011504408 0.0020372886 0.00044016686 -0.0018897743
000290 99 a8 60 bb bd 0d 96 ba 18 24 ff 3a e9 9b 15 bb
       -0.003428018 -0.0011448186 0.0019465713 -0.0022828525
0002a0 89 83 8a 38 22 a1 ce 39 96 22 b1 39 ec 0d ab ba
       6.604853e-05 0.00039411435 0.0003378584 -0.0013050414
0002b0 03 c2 61 ba 0e d7 0c 39 e2 8f ea b9 2f 61 4d ba
       -0.0008611979 0.00013431555 -0.0004473916 -0.0007834611
0002c0 31 9c 00 bb 07 f4 28 ba 86 ff 05 39 16 62 a1 b8
       -0.0019624347 -0.00064450543 0.00012779058 -7.695348e-05
0002d0 84 13 a0 39 cb 31 a8 ba 17 24 12 b9 c1 c8 a2 ba
       0.00030532118 -0.0012832222 -0.0001393709 -0.0012419448
0002e0 8c e0 05 bb ea 47 7e ba ad 17 e8 ba b9 61 0e b8
       -0.002042803 -0.0009700047 -0.0017707251 -3.394645e-05
0002f0 60 7e 6e b9 39 2c 03 ba 68 52 86 3a 00 3d b5 ba
       -0.00022744527 -0.0005003843 0.0010247948 -0.0013827384
000300 0e 4e ea ba 38 bf 5c ba 9e 87 12 ba 0d 40 c8 ba
       -0.0017876045 -0.0008420828 -0.00055896665 -0.0015277878
000310 62 6f 9f ba 43 c8 5e 3a fc 87 5a 3a b5 77 be ba
       -0.0012163932 0.0008498469 0.0008336303 -0.0014531525
000320 66 49 02 3b 44 a5 56 ba c0 d5 f8 ba 3b 26 22 bb
       0.0019880175 -0.00081880786 -0.0018984601 -0.0024742025
000330 1d b6 8b 3a 0e b2 65 ba 23 85 9f 3a f2 a2 01 bb
       0.0010659132 -0.0008762189 0.0012170415 -0.001978096
000340 1a a1 d2 ba 54 54 e4 ba 7b 7a e2 3a 79 e7 62 3a
       -0.001606974 -0.0017420151 0.0017278934 0.0008655708
000350 32 1e 45 3a 52 b8 19 ba 4a 64 a9 ba 72 6d 2b 3b
       0.0007519453 -0.00058639527 -0.0012923565 0.0026157764
000360 ea 90 a8 3a 01 55 81 ba 73 5e 1e bb ce 3e 90 ba
       0.001286057 -0.0009867252 -0.0024165183 -0.0011005045
000370 78 51 42 b9 c2 2e dc 38 93 c6 dd 3a 2f a5 c9 b8
       -0.00018531631 0.00010499127 0.0016920142 -9.615195e-05
000380 ad ac b8 3a c0 bd dd ba 44 c2 2f 3a 6c 05 ea ba
       0.0014089547 -0.0016917512 0.0006704668 -0.0017854399
000390 19 b3 ae b9 39 0b 7c 39 5c e3 1b ba c6 b3 a9 3a
       -0.00033321304 0.00024036774 -0.000594666 0.0012947253
0003a0 48 fb 63 3a f0 38 ee ba 5c fa e0 b9 f1 f1 ac 3a
       0.00086968066 -0.0018174928 -0.00042911142 0.0013194663
0003b0 d9 33 aa 3a ef 2c 11 ba 9a eb de ba 73 c3 d0 ba
       0.0012985423 -0.00055380067 -0.0017007471 -0.0015927389
0003c0 e3 fe fd ba 91 56 07 ba 37 7b b3 39 39 5f ff 39
       -0.001937833 -0.00051627407 0.00034233343 0.00048708337
0003d0 45 ac 4f b9 2c 49 eb 3a ce e2 d1 ba 45 32 8e ba
       -0.00019805234 0.0017950884 -0.0016013028 -0.0010848722
0003e0 1b 1c be ba 42 f6 0d bb 37 50 14 38 a4 5f 1f 3a
       -0.0014504226 -0.0021661674 3.5360656e-05 0.000607962
0003f0 52 6c 25 3a b5 de b4 3a 02 dc bc 39 70 e8 99 39
       0.00063103915 0.0013799282 0.00036022073 0.00029355614

action_model._continuous_distribution.log_sigma f4 [1, 2]
000000 f3 55 c5 bb 00 aa b9 bb
       -0.006022209 -0.0056660175
