results/TestCurriculum/SuperTank/SuperTank-17400.onnx (onnx, 539919 bytes, 9 tensors)

network_body.observation_encoder.processors.0.normalizer.running_mean f4 [6]
0	0xc009987d	-2.1499321
1	0x3e26adf0	0.1627729
2	0xbf8a3c26	-1.0799606
3	0x3f199757	0.5999655
4	0x3e61445f	0.21998738
5	0xbf9d6e54	-1.2299294

network_body._body_endoder.seq_layers.0.weight f4 [256, 6]
0	0x3de279db	0.11058398
1	0xbf48b2f1	-0.7839804
2	0x3e9949d1	0.2993913
3	0x3ee7b537	0.45255443
4	0xbc8b78d3	-0.017025387
5	0x3eae755b	0.3407391
6	0x3d3df060	0.046371818
7	0x3e891144	0.26770985
8	0xbf50fab4	-0.8163254
9	0xbf355b0f	-0.7084207
10	0x3e70232f	0.23450921
11	0x3dbf2b10	0.093343854
12	0xbdcad85d	-0.09904549
13	0xbe9e427d	-0.30910102
14	0xbf232b23	-0.63737696
15	0x3e3d0dde	0.18462321
16	0xbe221c28	-0.15831053
17	0x3f8d5bae	1.1043603
18	0xbda81a80	-0.082081795
19	0x3e69b086	0.22821245
20	0xbd892937	-0.06697314
21	0xbe79da2b	-0.2439963
22	0xbe6c810b	-0.23096101
23	0x3d8acd4d	0.06777439
24	0xbdcd244d	-0.100166894
25	0xbe97d4d6	-0.29654568
26	0x3ecfb25b	0.40565762
27	0x3caafabd	0.020871514
28	0xbf07a3f9	-0.5298458
29	0x3e3739dc	0.17893165
30	0xbc7ee1ce	-0.015556766
31	0x3f036b8c	0.5133598
32	0x3f1bd7af	0.6087598
33	0x3f111b1d	0.56681997
34	0x3f61f04d	0.88257295
35	0x3ea1ce3e	0.31602663
36	0xbeaa42b3	-0.33254012
37	0xbf05fa9b	-0.5233552
38	0x3e287752	0.16451767
39	0x3e8c5d74	0.2741505
40	0xbe726ffe	-0.23675534
41	0xbf3df6a1	-0.7420445
42	0xbe8d5726	-0.2760555
43	0x3e730932	0.23733976
44	0x3f0b9a33	0.54532164
45	0xbe4dc676	-0.20095238
46	0x3d9b3335	0.07578126
47	0xbf3f2c11	-0.74676615
48	0xbebe4c46	-0.37167567
49	0xbf18e5ae	-0.59725463
50	0xbe05c140	-0.13062
51	0x3e4be3bb	0.19911091
52	0xbece8361	-0.4033461
53	0xbe9d3a96	-0.3070876
54	0xbda62f6f	-0.08114516
55	0x3f042f07	0.5163426
56	0x3f2e9db4	0.68209386
57	0x3d5e4a82	0.054270275
58	0xbdba46c3	-0.09095528
59	0x3ea4912b	0.32142004
60	0x3dd806cf	0.10548174
61	0x3f13b857	0.57703155
62	0x3eb86b06	0.36019152
63	0xbf8abb78	-1.0838461
64	0xbeadc465	-0.339389
65	0xbe5526e5	-0.20815618
66	0x3eadb7b9	0.33929232
67	0x3d5cc0b9	0.053894732
68	0xbd00dfaf	-0.03146332
69	0x3f22c3e5	0.6358016
70	0xbe8fa381	-0.2805443
71	0x3e11cb1b	0.14237635
72	0xbf39224a	-0.72317946
73	0x3c2d24c8	0.010567851
74	0x3e908272	0.28224522
75	0x3e9cca21	0.30622962
76	0x3ec2ec9a	0.38071138
77	0x3de7c3cb	0.113166414
78	0xbe19b143	-0.15009026
79	0x3e290e0c	0.16509265
80	0x3f1fcf50	0.6242571
81	0x3ecc4f06	0.3990404
82	0xbefa2905	-0.4885942
83	0xbd7bc64b	-0.061468404
84	0x3dfc790b	0.123277746
85	0x3edc18b4	0.42987597
86	0x3f341982	0.7035142
87	0x3eb0f8e6	0.34564894
88	0xbc0a09c2	-0.008425178
89	0x3efcdebf	0.49388692
90	0xbe9d32d4	-0.3070284
91	0x3e99511e	0.299447
92	0x3e3bf986	0.18356904
93	0xbbd71d9c	-0.006564809
94	0x3e827bca	0.2548507
95	0x3e1fd964	0.15610272
96	0xbf0eec8e	-0.55829704
97	0x3f90b927	1.1306504
98	0xbef8a308	-0.48561883
99	0xbf43cd4b	-0.7648513
100	0xbf0c21fa	-0.54739344
101	0xbe90fbde	-0.2831716
102	0x3cdf6022	0.02726752
103	0xbe1c7c4d	-0.15281792
104	0x3e74b7fe	0.23898312
105	0x3dd87007	0.105682425
106	0x3e49d030	0.19708323
107	0x3edba21d	0.4289712
108	0x3eb44263	0.352069
109	0xbe4f9d66	-0.20274886
110	0xbeb63c21	-0.3559275
111	0xbe533d49	-0.20628847
112	0x3e34b0dc	0.17645591
113	0xbefd0da3	-0.49424466
114	0xbec5f037	-0.38659832
115	0xbe8ad81b	-0.27118
116	0x3d7e1125	0.06202807
117	0x3f7b51da	0.9817177
118	0xbf190315	-0.5977033
119	0x3df639a9	0.120227166
120	0x3e3a74cb	0.18208615
121	0x3e6030fd	0.21893688
122	0x3e2f8559	0.17140712
123	0xbf04a4a7	-0.5181374
124	0xbd8e10af	-0.06936776
125	0x3d87858d	0.0661727
126	0xbda304dc	-0.07959911
127	0xbec555aa	-0.3854192
128	0xbf5568a5	-0.833628
129	0x3ec59c3c	0.3859576
130	0x3f41a3a2	0.7564031
131	0x3e3a97da	0.1822199
132	0xbe3528f2	-0.176914
133	0xbec26d6e	-0.37974113
134	0xbd8941ae	-0.067019805
135	0x3e931dc9	0.28733662
136	0x3f761ab4	0.96134496
137	0x3e8a8d6c	0.2706102
138	0xbdea6d1b	-0.114465915
139	0x3f81a1e5	1.0127531
140	0xbe87484b	-0.26422343
141	0xbe088944	-0.13333613
142	0xbef958c0	-0.48700523
143	0xbda76367	-0.08173256
144	0x3e4d8503	0.20070271
145	0xbf67a638	-0.90488005
146	0xbf1afba0	-0.605402
147	0xbe6dec72	-0.23234728
148	0xbf0b863d	-0.54501706
149	0x3e496b44	0.19669825
150	0x3e088281	0.13331033
151	0x3f448d4f	0.7677812
152	0xbf99ce0b	-1.2016004
153	0x3ee07d77	0.43845722
154	0x3d0e1dbd	0.03469633
155	0x3bdf2415	0.0068097212
156	0x3dc90b99	0.09816665
157	0x3cf5e8e1	0.030018272
158	0xbba64f3e	-0.0050753644
159	0xbdfbd9dc	-0.12297413
160	0x3f772e0f	0.96554655
161	0xbe1e27bd	-0.15444846
162	0x3e70def7	0.23522554
163	0xbe8d023d	-0.2754077
164	0x3efb6cd0	0.49106455
165	0x3efc2a9a	0.49251252
166	0xbef7f478	-0.48428702
167	0xbe45614e	-0.192754
168	0x3e8a9e8c	0.27074087
169	0xbf4797d2	-0.77966034
170	0x3ed389dd	0.4131612
171	0x3e3e969e	0.18612143
172	0xbf6d78a2	-0.92762196
173	0x3dde6844	0.10859731
174	0xbf71b9dd	-0.9442423
175	0x3f8e17b4	1.1100984
176	0x3e1898f4	0.14902097
177	0xbf21422b	-0.6299159
178	0xbe91023b	-0.28322014
179	0x3ed2b07a	0.41150266
180	0xbe547f53	-0.20751695
181	0xbf18449c	-0.5947969
182	0x3f757591	0.9588252
183	0xbec67c58	-0.38766742
184	0xbce3754e	-0.027765896
185	0xbe489b24	-0.19590431
186	0x3e8edebf	0.27904317
187	0x3f8335ca	1.025079
188	0x3e3d5ffb	0.18493645
189	0x3f3712bc	0.7151296
190	0x3c5707d3	0.013124424
191	0x3e2a7091	0.16644503
192	0xbf0c2f58	-0.5475974
193	0xbee5fd2e	-0.44919723
194	0xbf433e04	-0.76266503
195	0xbe495663	-0.1966186
196	0xbeb3ef66	-0.35143584
197	0xbe8aeaa7	-0.2713215
198	0x3f8f8196	1.1211421
199	0x3ef3cc2c	0.47616708
200	0x3f16073d	0.58604795
201	0x3be109e9	0.0068676365
202	0x3ebe5e0c	0.37181127
203	0x3dd7095a	0.104998305
204	0xbe86885f	-0.26275918
205	0x3e8229d4	0.25422537
206	0xbe6b76c5	-0.22994526
207	0xbebd91ff	-0.3702545
208	0xbf12c7b2	-0.5733596
209	0x3d9703b0	0.0737375
210	0x3d23ba17	0.03997239
211	0xbee17d4f	-0.44040915
212	0xbc3e3672	-0.01160966
213	0xbf55f721	-0.83580214
214	0xbf5ad27e	-0.85477436
215	0x3e645342	0.22297385
216	0x3dd53008	0.10409552
217	0x3e5356cd	0.2063858
218	0xbe92fbcd	-0.28707734
219	0xbe3f8f0d	-0.18706913
220	0x3ed99fe9	0.42504814
221	0x3dd1e97d	0.102496125
222	0xbe1b8b06	-0.15189752
223	0x3d8721c4	0.06598237
224	0x3edcb494	0.4310652
225	0xbc6346a6	-0.013871824
226	0x3ec05bc2	0.37570006
227	0xbd8c7e15	-0.06859986
228	0x3dcd532e	0.10025631
229	0xbf44953a	-0.767902
230	0xbea8fa9d	-0.33003703
231	0xbe23c9a0	-0.15994883
232	0x3ed249fb	0.41072068
233	0x3edbf21f	0.4295816
234	0x3f8b4f9d	1.0883671
235	0xbe4a9c4f	-0.1978619
236	0x3ebb2516	0.36551732
237	0x3d8ffc52	0.07030548
238	0x3d86bf38	0.06579441
239	0x3d14ba50	0.036310494
240	0xbc0b95ec	-0.008519631
241	0x3da148c1	0.07875205
242	0xbe47d4dc	-0.19514793
243	0x3eddc81d	0.43316737
244	0x3ec91db3	0.3928047
245	0xba7d6757	-0.0009666583
246	0xbeb93980	-0.36176682
247	0x3db51b9a	0.08843155
248	0xbd96f944	-0.073717624
249	0x3fb58cda	1.418361
250	0x3d5714b8	0.052509993
251	0x3eee1c95	0.4650618
252	0x3dfc44b1	0.12317789
253	0x3e3979be	0.18112847
254	0x3dd705ee	0.10499178
255	0x3f16994f	0.5882768

network_body._body_endoder.seq_layers.0.bias f4 [256]
0	0x00000000	0.0
1	0x00000000	0.0
2	0x00000000	0.0
3	0x00000000	0.0
4	0x00000000	0.0
5	0x00000000	0.0
6	0x00000000	0.0
7	0x00000000	0.0
8	0x00000000	0.0
9	0x00000000	0.0
10	0x00000000	0.0
11	0x00000000	0.0
12	0x00000000	0.0
13	0x00000000	0.0
14	0x00000000	0.0
15	0x00000000	0.0
16	0x00000000	0.0
17	0x00000000	0.0
18	0x00000000	0.0
19	0x00000000	0.0
20	0x00000000	0.0
21	0x00000000	0.0
22	0x00000000	0.0
23	0x00000000	0.0
24	0x00000000	0.0
25	0x00000000	0.0
26	0x00000000	0.0
27	0x00000000	0.0
28	0x00000000	0.0
29	0x00000000	0.0
30	0x00000000	0.0
31	0x00000000	0.0
32	0x00000000	0.0
33	0x00000000	0.0
34	0x00000000	0.0
35	0x00000000	0.0
36	0x00000000	0.0
37	0x00000000	0.0
38	0x00000000	0.0
39	0x00000000	0.0
40	0x00000000	0.0
41	0x00000000	0.0
42	0x00000000	0.0
43	0x00000000	0.0
44	0x00000000	0.0
45	0x00000000	0.0
46	0x00000000	0.0
47	0x00000000	0.0
48	0x00000000	0.0
49	0x00000000	0.0
50	0x00000000	0.0
51	0x00000000	0.0
52	0x00000000	0.0
53	0x00000000	0.0
54	0x00000000	0.0
55	0x00000000	0.0
56	0x00000000	0.0
57	0x00000000	0.0
58	0x00000000	0.0
59	0x00000000	0.0
60	0x00000000	0.0
61	0x00000000	0.0
62	0x00000000	0.0
63	0x00000000	0.0
64	0x00000000	0.0
65	0x00000000	0.0
66	0x00000000	0.0
67	0x00000000	0.0
68	0x00000000	0.0
69	0x00000000	0.0
70	0x00000000	0.0
71	0x00000000	0.0
72	0x00000000	0.0
73	0x00000000	0.0
74	0x00000000	0.0
75	0x00000000	0.0
76	0x00000000	0.0
77	0x00000000	0.0
78	0x00000000	0.0
79	0x00000000	0.0
80	0x00000000	0.0
81	0x00000000	0.0
82	0x00000000	0.0
83	0x00000000	0.0
84	0x00000000	0.0
85	0x00000000	0.0
86	0x00000000	0.0
87	0x00000000	0.0
88	0x00000000	0.0
89	0x00000000	0.0
90	0x00000000	0.0
91	0x00000000	0.0
92	0x00000000	0.0
93	0x00000000	0.0
94	0x00000000	0.0
95	0x00000000	0.0
96	0x00000000	0.0
97	0x00000000	0.0
98	0x00000000	0.0
99	0x00000000	0.0
100	0x00000000	0.0
101	0x00000000	0.0
102	0x00000000	0.0
103	0x00000000	0.0
104	0x00000000	0.0
105	0x00000000	0.0
106	0x00000000	0.0
107	0x00000000	0.0
108	0x00000000	0.0
109	0x00000000	0.0
110	0x00000000	0.0
111	0x00000000	0.0
112	0x00000000	0.0
113	0x00000000	0.0
114	0x00000000	0.0
115	0x00000000	0.0
116	0x00000000	0.0
117	0x00000000	0.0
118	0x00000000	0.0
119	0x00000000	0.0
120	0x00000000	0.0
121	0x00000000	0.0
122	0x00000000	0.0
123	0x00000000	0.0
124	0x00000000	0.0
125	0x00000000	0.0
126	0x00000000	0.0
127	0x00000000	0.0
128	0x00000000	0.0
129	0x00000000	0.0
130	0x00000000	0.0
131	0x00000000	0.0
132	0x00000000	0.0
133	0x00000000	0.0
134	0x00000000	0.0
135	0x00000000	0.0
136	0x00000000	0.0
137	0x00000000	0.0
138	0x00000000	0.0
139	0x00000000	0.0
140	0x00000000	0.0
141	0x00000000	0.0
142	0x00000000	0.0
143	0x00000000	0.0
144	0x00000000	0.0
145	0x00000000	0.0
146	0x00000000	0.0
147	0x00000000	0.0
148	0x00000000	0.0
149	0x00000000	0.0
150	0x00000000	0.0
151	0x00000000	0.0
152	0x00000000	0.0
153	0x00000000	0.0
154	0x00000000	0.0
155	0x00000000	0.0
156	0x00000000	0.0
157	0x00000000	0.0
158	0x00000000	0.0
159	0x00000000	0.0
160	0x00000000	0.0
161	0x00000000	0.0
162	0x00000000	0.0
163	0x00000000	0.0
164	0x00000000	0.0
165	0x00000000	0.0
166	0x00000000	0.0
167	0x00000000	0.0
168	0x00000000	0.0
169	0x00000000	0.0
170	0x00000000	0.0
171	0x00000000	0.0
172	0x00000000	0.0
173	0x00000000	0.0
174	0x00000000	0.0
175	0x00000000	0.0
176	0x00000000	0.0
177	0x00000000	0.0
178	0x00000000	0.0
179	0x00000000	0.0
180	0x00000000	0.0
181	0x00000000	0.0
182	0x00000000	0.0
183	0x00000000	0.0
184	0x00000000	0.0
185	0x00000000	0.0
186	0x00000000	0.0
187	0x00000000	0.0
188	0x00000000	0.0
189	0x00000000	0.0
190	0x00000000	0.0
191	0x00000000	0.0
192	0x00000000	0.0
193	0x00000000	0.0
194	0x00000000	0.0
195	0x00000000	0.0
196	0x00000000	0.0
197	0x00000000	0.0
198	0x00000000	0.0
199	0x00000000	0.0
200	0x00000000	0.0
201	0x00000000	0.0
202	0x00000000	0.0
203	0x00000000	0.0
204	0x00000000	0.0
205	0x00000000	0.0
206	0x00000000	0.0
207	0x00000000	0.0
208	0x00000000	0.0
209	0x00000000	0.0
210	0x00000000	0.0
211	0x00000000	0.0
212	0x00000000	0.0
213	0x00000000	0.0
214	0x00000000	0.0
215	0x00000000	0.0
216	0x00000000	0.0
217	0x00000000	0.0
218	0x00000000	0.0
219	0x00000000	0.0
220	0x00000000	0.0
221	0x00000000	0.0
222	0x00000000	0.0
223	0x00000000	0.0
224	0x00000000	0.0
225	0x00000000	0.0
226	0x00000000	0.0
227	0x00000000	0.0
228	0x00000000	0.0
229	0x00000000	0.0
230	0x00000000	0.0
231	0x00000000	0.0
232	0x00000000	0.0
233	0x00000000	0.0
234	0x00000000	0.0
235	0x00000000	0.0
236	0x00000000	0.0
237	0x00000000	0.0
238	0x00000000	0.0
239	0x00000000	0.0
240	0x00000000	0.0
241	0x00000000	0.0
242	0x00000000	0.0
243	0x00000000	0.0
244	0x00000000	0.0
245	0x00000000	0.0
246	0x00000000	0.0
247	0x00000000	0.0
248	0x00000000	0.0
249	0x00000000	0.0
250	0x00000000	0.0
251	0x00000000	0.0
252	0x00000000	0.0
253	0x00000000	0.0
254	0x00000000	0.0
255	0x00000000	0.0

network_body._body_endoder.seq_layers.2.weight f4 [256, 256]
0	0xbdcd87ff	-0.10035705
1	0x3cd873e4	0.026422448
2	0x3bf96472	0.007610851
3	0xbdf3f605	-0.11912159
4	0x3db00822	0.08595301
5	0xbd3ad2e0	-0.045611262
6	0xbd0c8a89	-0.034311805
7	0x3d0cf4b1	0.034413043
8	0x3e1c12de	0.15241572
9	0xbdb430e4	-0.08798388
10	0xbd5b1e34	-0.0534956
11	0x3de91a90	0.113820195
12	0x3d1f747b	0.038929444
13	0xbd52f343	-0.051501524
14	0xbd7f3055	-0.062301952
15	0xbd303eac	-0.04302852
16	0xbb260271	-0.0025331045
17	0xbcd6d0b2	-0.02622256
18	0x3c8f4479	0.017488705
19	0xbdfc7df7	-0.123287134
20	0xbd942195	-0.07232968
21	0xbcd309cc	-0.025761507
22	0x3d1799b9	0.037011836
23	0xbe4c1422	-0.19929555
24	0x3dc971a8	0.09836131
25	0x3dbd237d	0.092352845
26	0xbd8d4381	-0.06897641
27	0x3d52f881	0.051506523
28	0x3da85f4d	0.08221302
29	0x3cdc6611	0.026904138
30	0xbd09759b	-0.033559423
31	0xbda2cd19	-0.079492755
32	0x3b2b52fa	0.0026141987
33	0x3d1b1015	0.037857134
34	0x3cbb3eca	0.022857089
35	0x3dba5bc3	0.090995334
36	0xba99ff58	-0.0011749072
37	0xbd200ec1	-0.03907657
38	0x3d17a627	0.03702369
39	0x3daed1d5	0.08536116
40	0x3d23ead5	0.040018875
41	0xbcbaa150	-0.022781998
42	0x3d5353ca	0.05159358
43	0xbd1fe21d	-0.039033998
44	0x3d683bab	0.05669753
45	0x3b0f700d	0.0021886856
46	0xb9ebe849	-0.0004499576
47	0xbd285d1d	-0.041104425
48	0xbc8e55e1	-0.017374935
49	0x3cf30481	0.029665234
50	0x3d0be493	0.034153532
51	0xbd3b008e	-0.045654826
52	0x3c9474e8	0.018122151
53	0xbdfb7d8b	-0.12279805
54	0x3d937b44	0.072012454
55	0xbdaa8286	-0.083256766
56	0x3d8a6fdd	0.067596175
57	0x3bff0c68	0.0077834614
58	0xbd82302b	-0.063568436
59	0x3a1672b0	0.00057391357
60	0xbd4b755c	-0.04967247
61	0x3c88ab1f	0.01668316
62	0xbdb8d753	-0.09025445
63	0xbcecbada	-0.028897692
64	0x3c516d9c	0.012782481
65	0xbd414bd7	-0.047191467
66	0x3c8eff15	0.017455617
67	0x3dc2f720	0.095197916
68	0xbd89294e	-0.06697331
69	0xbd1fd152	-0.039017983
70	0x3d2a4e3a	0.04157851
71	0xbc045af0	-0.008078322
72	0x3cb869ba	0.022511352
73	0xbd1669ab	-0.036721867
74	0x3da80cb6	0.082055494
75	0xbd5439a2	-0.051812775
76	0x3c621335	0.013798525
77	0xbd505aa2	-0.050867684
78	0xbca965f2	-0.020678494
79	0xbc1193d6	-0.0088853445
80	0x3da29022	0.079376474
81	0x3ddf0194	0.10888973
82	0xbd8a6df7	-0.067592554
83	0x3d9ad19c	0.07559511
84	0x3c4a587d	0.012350199
85	0xbcda4df3	-0.026648497
86	0x3d05dd29	0.032681618
87	0xbd071179	-0.032975648
88	0xbda23139	-0.07919545
89	0xbd1631c1	-0.036668543
90	0x3ccd248a	0.025041837
91	0xbd871fdd	-0.06597874
92	0x3d268e96	0.040663324
93	0xbd980ea3	-0.07424667
94	0xbd0e8dad	-0.03480308
95	0xbd3596b7	-0.044333186
96	0xbcec33fd	-0.028833384
97	0x3e496201	0.19666292
98	0xbdf03e8c	-0.1173068
99	0xbdeaf97e	-0.11473368
100	0x3d444dfc	0.047925934
101	0xbd93bd28	-0.07213813
102	0xbbdba0c4	-0.0067025144
103	0x3c30f1c3	0.010799828
104	0xbdf883d2	-0.12134518
105	0xbd6e262f	-0.058141883
106	0xbda0429d	-0.078252055
107	0x3cb434f3	0.021997904
108	0x3d98d24f	0.07461988
109	0x3d594841	0.053047422
110	0x3d0eec00	0.034893036
111	0x3e1e8b1a	0.1548275
112	0x3cffdf8e	0.031234529
113	0xbd6f19fa	-0.058374383
114	0xbc513f81	-0.012771488
115	0xbd5a6d70	-0.053327024
116	0xbd90a2d4	-0.07062307
117	0x3e0a3516	0.13496813
118	0x3da10cd8	0.07863778
119	0xbd3913ff	-0.045185085
120	0x3d5c4990	0.053781092
121	0xbce6dc85	-0.028181324
122	0x39e7a756	0.00044184428
123	0xbd558017	-0.05212411
124	0x3c969adb	0.018384388
125	0xbd564c0d	-0.05231862
126	0xbce570d7	-0.028007908
127	0xbc5be066	-0.0134202
128	0x3d877b74	0.06615344
129	0x3cad733f	0.021173118
130	0xbd28f214	-0.04124649
131	0x3dc9c438	0.09851879
132	0x3bba9f6a	0.005695273
133	0x3cc93f8a	0.02456643
134	0xbc8513a9	-0.016244726
135	0xbc398ccf	-0.011325075
136	0xbcfe0782	-0.03100944
137	0x3bb2b149	0.005453263
138	0xbdb6089d	-0.088883616
139	0xbd0fa7cf	-0.035072144
140	0x3ccefe69	0.025267797
141	0xbdf1a43a	-0.11798902
142	0xba0ebe02	-0.00054451835
143	0xbd9de1e1	-0.077090986
144	0xbcdc8948	-0.02692093
145	0x3c5d5ea1	0.013511331
146	0x3d601c29	0.054714356
147	0x3c7e3aee	0.01551698
148	0x3c3e9e6d	0.011634451
149	0xbd54c5d1	-0.051946465
150	0x3dccc727	0.09998923
151	0xbd9d92bd	-0.07694004
152	0x3e1afbe8	0.15135157
153	0xbd57aacb	-0.052653115
154	0x3d216a8e	0.03940826
155	0xbca79bc4	-0.020460017
156	0xbdedaaf6	-0.11604874
157	0x3cd44e08	0.025916114
158	0xbd807138	-0.06271595
159	0xbcf22146	-0.029556882
160	0x3bde5f81	0.0067862873
161	0xbcc50955	-0.024052301
162	0xbd67f6d6	-0.056631885
163	0x3d2b97c0	0.041892767
164	0x3ccaeb55	0.024770418
165	0x3d8c7f89	0.06860263
166	0xbd76a29d	-0.060213674
167	0x3d635d77	0.055509057
168	0x3da23531	0.07920302
169	0xbc3e4c51	-0.011614875
170	0xbd7df709	-0.06200317
171	0x3dc57cf9	0.09642977
172	0xbd80dd9e	-0.0629227
173	0xbd3b8145	-0.045777578
174	0x3dc4b0be	0.096040234
175	0xbc8b9571	-0.017039033
176	0x3cd3716c	0.02581092
177	0x3da30d5c	0.079615325
178	0xbd12d080	-0.035843372
179	0xbcadd857	-0.021221323
180	0xbc628715	-0.013826151
181	0x3b8cde7b	0.0042989827
182	0xbaf9e065	-0.0019064067
183	0xbd8bb6a3	-0.068219446
184	0xbde28b43	-0.11061718
185	0x3d8b4989	0.06801135
186	0x3cb0d0e3	0.02158398
187	0xbd8fae7f	-0.07015704
188	0x3b02cc72	0.0019958285
189	0xbbc453e4	-0.005991446
190	0xbcba7f8c	-0.022765897
191	0x3d26e36d	0.040744234
192	0x3d9e1b89	0.07720096
193	0xbcbba8da	-0.022907663
194	0xbda4cc81	-0.080468185
195	0xbd826e28	-0.06368667
196	0x3cc22b02	0.023702148
197	0xbd0c1379	-0.034198258
198	0x3d71383c	0.05889152
199	0x3c473785	0.012159233
200	0x3c09f7de	0.008420913
201	0x3d8962aa	0.06708272
202	0x3cfdf17b	0.030998936
203	0xbcb38e4c	-0.021918438
204	0xbd948617	-0.07252138
205	0x3d9fe7a6	0.07807855
206	0xbc41fb12	-0.011839645
207	0x3d49cee5	0.049269576
208	0x3cf1023e	0.029420014
209	0xbc8bfe9b	-0.017089179
210	0x3d825d09	0.06365401
211	0xbb735a96	-0.003713285
212	0x3c1c6409	0.009545335
213	0x3df6f34d	0.12058125
214	0xbc1a4f7b	-0.009418364
215	0xbba37d86	-0.004989329
216	0x3d45f361	0.048327807
217	0xbac34c97	-0.0014900145
218	0x3dac83bc	0.08423564
219	0xbbc63d6b	-0.006049802
220	0x3dac4657	0.08411854
221	0xbc8ad499	-0.016947078
222	0x3dbc4cda	0.09194346
223	0xbc81af15	-0.015830556
224	0x3d749c82	0.05971957
225	0x3d851aa6	0.064992234
226	0x3b3dd99b	0.0028968814
227	0x3ce8203d	0.028335685
228	0xbd3c219d	-0.045930494
229	0x3d2d4d4a	0.042310037
230	0x3c86185c	0.016369037
231	0x3e0860d5	0.13318188
232	0x3e13f179	0.14447583
233	0x3d102e3d	0.035200346
234	0xbd61b988	-0.055108577
235	0x3e024c58	0.12724435
236	0x3cf9f416	0.030511897
237	0x3bbf6d22	0.005841867
238	0xbc352f7f	-0.011058687
239	0xbdc4ccae	-0.09609352
240	0xbc864b50	-0.016393334
241	0xbc3eb1ce	-0.011639072
242	0x3d0fa03f	0.035064932
243	0xbd54ab6f	-0.051921304
244	0xbde0ec6c	-0.10982594
245	0x3cbd2596	0.023089211
246	0xbde41a82	-0.111378685
247	0xbc1716f0	-0.009221777
248	0x3cac4f2d	0.021033848
249	0xbcea7448	-0.0286199
250	0xbd77b086	-0.06047108
251	0xbc1d0057	-0.009582601
252	0x3d9fb95e	0.07799028
253	0xbd9d12ad	-0.07669578
254	0xbcbe6f01	-0.02324629
255	0xbe0a5138	-0.13507545

network_body._body_endoder.seq_layers.4.weight f4 [256, 256]
0	0x3ccf785c	0.025325947
1	0x3d87fc3f	0.06639909
2	0xbdb28329	-0.08716423
3	0xbd30cc39	-0.043163512
4	0x3dcfcf1e	0.10146926
5	0x3d1d597a	0.03841541
6	0x3aa972d1	0.0012927895
7	0x3d3437da	0.043998577
8	0x3e0f26ee	0.13979694
9	0x3b3f640a	0.0029203915
10	0x3d85b345	0.065283336
11	0x3ce28faf	0.027656404
12	0x3ddc4e88	0.10757166
13	0x3dbfd956	0.093676254
14	0x3bc74d39	0.0060822037
15	0xbd2915be	-0.0412805
16	0xbd482cae	-0.048870735
17	0xbd16c5e8	-0.03680983
18	0x3d476506	0.048680328
19	0x3de3b1e1	0.11117912
20	0x3cb61958	0.022228882
21	0xbbee49ab	-0.0072719655
22	0x3a7bb2a5	0.000960151
23	0xbd64ee1f	-0.055891152
24	0x3bddfa50	0.0067742243
25	0xbda6fee3	-0.081540845
26	0x3c8afd81	0.016966583
27	0x3d651ea9	0.055937443
28	0xbb00ae21	-0.001963504
29	0xbcd8d954	-0.026470818
30	0xbc194068	-0.009353735
31	0x3c8090f7	0.015694125
32	0xbd61c7b4	-0.055122092
33	0xbda441b8	-0.08020347
34	0x3e0a9d4c	0.13536566
35	0xbbc049e4	-0.0058681834
36	0x3d66feaa	0.05639521
37	0xbd814244	-0.06311467
38	0xbdae3749	-0.085066386
39	0x3dcca57c	0.09992501
40	0x3d100d2a	0.035168804
41	0x3d879698	0.0662052
42	0xbdce8a35	-0.10084955
43	0x3e0eb062	0.13934472
44	0x3c26eb17	0.010187886
45	0xbcb8ff75	-0.022582749
46	0x3b847762	0.004042552
47	0xbc0fe28d	-0.008782041
48	0xbbbc74bb	-0.00575122
49	0xbaf58499	-0.0018731534
50	0xbcb85c9b	-0.022505095
51	0xbcc3cd7d	-0.023901695
52	0x3e322730	0.17397761
53	0xbd912b62	-0.07088353
54	0x3d7cd33b	0.061724883
55	0xbd88d6d6	-0.06681602
56	0xbc422103	-0.011848691
57	0xbcac4510	-0.021029025
58	0x3df8dbab	0.12151273
59	0xbe124e5c	-0.14287704
60	0xbe033794	-0.1281417
61	0x3cd19332	0.025582884
62	0xbd75f2d5	-0.060046036
63	0xbdac892e	-0.084246024
64	0xbd226683	-0.039648544
65	0x3caffec5	0.021483788
66	0xbc0b6001	-0.008506776
67	0x3cb16412	0.021654163
68	0xbb9ccbc3	-0.0047850325
69	0xbdca8ec6	-0.09890513
70	0x3d4f1840	0.050560236
71	0x3d7313b9	0.05934498
72	0x3cad083f	0.021122096
73	0x3b06eaf2	0.0020586816
74	0xbd82bb6b	-0.063834034
75	0x3b76a8db	0.0037637267
76	0xbd0cab9e	-0.034343354
77	0x3c4555f0	0.012044415
78	0x3d1ebe66	0.038755797
79	0x3d9cab53	0.07649865
80	0x3d6555ce	0.055990033
81	0x3d689665	0.056784052
82	0xbd78fecc	-0.06078987
83	0x3cca8074	0.024719454
84	0x3de9da50	0.11418593
85	0x3dafaa55	0.0857741
86	0xbd490206	-0.049074195
87	0xbd3f2a9c	-0.046671495
88	0x3d9e9cfc	0.07744786
89	0x3d3e3734	0.046439365
90	0x3c2fe1c4	0.010734979
91	0x3c1cefa7	0.009578622
92	0x3d88fcd3	0.066888474
93	0xbcc2718c	-0.023735784
94	0x3e037c77	0.12840448
95	0x3ca8afeb	0.020591697
96	0x3daadabe	0.08342503
97	0x3d48f03d	0.049057234
98	0xbd85c762	-0.0653217
99	0xbe019d75	-0.12657721
100	0x3c63b181	0.013897301
101	0x3d2b5858	0.041832298
102	0xbdb75284	-0.089512855
103	0x3dbe9661	0.09306026
104	0xbbfa941d	-0.007647051
105	0x3cc9137c	0.024545424
106	0x3da11b1a	0.07866497
107	0x3d6a368f	0.057180937
108	0x3d2cfdda	0.04223428
109	0xbdfb96d7	-0.1228463
110	0x3b81d1af	0.003961764
111	0x3d806406	0.06269078
112	0x3d83f56b	0.06443294
113	0x3d164d92	0.03669507
114	0xbcde0c5f	-0.027105508
115	0x3aeb13a8	0.0017934935
116	0xbc884360	-0.01663369
117	0xbd2cc9c7	-0.042184617
118	0xbd257886	-0.040398143
119	0x3d7bcb76	0.061473332
120	0x3b70b505	0.003672899
121	0x3cda85ac	0.026675068
122	0xbd913fa8	-0.070922196
123	0x3d82d79b	0.0638878
124	0x3ce9d150	0.02854219
125	0xbdbc0248	-0.091801226
126	0x3dac11d3	0.08401837
127	0xbd71c87d	-0.05902909
128	0xbd173262	-0.036913283
129	0x3cd54132	0.026032064
130	0x3d686e18	0.05674562
131	0xbdd3c2de	-0.10339902
132	0xbd1c47cf	-0.03815442
133	0x3d7da3ba	0.06192372
134	0x3dc7daba	0.09758516
135	0xbd5b05b9	-0.053472254
136	0xbd10e6a0	-0.03537619
137	0x3c084253	0.008316594
138	0xbdad8685	-0.08472923
139	0xbc9995af	-0.018748133
140	0x3d5220b3	0.051300716
141	0xbdf07936	-0.11741869
142	0xbd0eb58a	-0.034841098
143	0x3da6fca3	0.081536554
144	0x3d6df0ff	0.05809116
145	0xbdc4af3b	-0.09603735
146	0xbd266399	-0.040622327
147	0x3d2cb77c	0.04216717
148	0x3d5a088e	0.053230815
149	0x3c86bf1c	0.01644855
150	0x3cfa8098	0.030578896
151	0xbcd82522	-0.026384894
152	0x3d77cc1d	0.060497392
153	0x3cff4e49	0.031165259
154	0x3d81d200	0.063388824
155	0x3da2aab5	0.07942716
156	0x3c0948b3	0.008379149
157	0xbd8c8fa8	-0.06863338
158	0x3d1e6e14	0.038679197
159	0xbc97c4bb	-0.018526426
160	0xbd97c83b	-0.07411238
161	0xbdbe746e	-0.09299551
162	0xbe49927e	-0.19684789
163	0xbd509127	-0.050919678
164	0x3cc44a0d	0.023961091
165	0xbdfc6080	-0.123230934
166	0xbbb4d8e1	-0.005519018
167	0x3cb9d45b	0.022684267
168	0xbd61b906	-0.055108093
169	0x3cfe57d0	0.031047732
170	0x3c815ce5	0.015791366
171	0xbdba5d20	-0.090997934
172	0x3d01dfbc	0.03170751
173	0xbd6e5326	-0.058184765
174	0x3dffd3c5	0.12491564
175	0x3db5f59e	0.088847384
176	0xbdbd4a62	-0.09242703
177	0x3cff380c	0.031154655
178	0x3cb5c720	0.022189677
179	0x3c90dd81	0.017683746
180	0xbe06d8a6	-0.13168582
181	0x3dbe7926	0.09300451
182	0x3dc8e62c	0.09809527
183	0x3d1b58c8	0.037926465
184	0x3d3bdc55	0.045864422
185	0xbc8bd782	-0.017070536
186	0x3da50d4c	0.08059177
187	0xbc332e73	-0.010936367
188	0xbc25e4b4	-0.010125328
189	0xbd219447	-0.03944805
190	0x3d4054ce	0.046955876
191	0xbd30b5a2	-0.04314197
192	0xbd6ab327	-0.05729976
193	0x3c11d6df	0.008901327
194	0x3c8ba17b	0.017044773
195	0x3d820d54	0.063501984
196	0xbdb33409	-0.08750159
197	0xbc60753a	-0.013699824
198	0xbd7a0f60	-0.06104982
199	0x3d9e4ca3	0.07729461
200	0x3da595e8	0.08085233
201	0x3c71dc00	0.014761925
202	0x3cac7ab7	0.021054609
203	0x3de664dc	0.11249706
204	0xbd5854a7	-0.052815106
205	0x3d0b8708	0.034064323
206	0xbdd8a381	-0.10578061
207	0xbdb875a3	-0.090068124
208	0x3de37fab	0.11108335
209	0x3d5db22d	0.054125
210	0xbce25a96	-0.027631085
211	0xbd1a1bdf	-0.037624236
212	0xbd8cdbae	-0.06877838
213	0xbd148b33	-0.036265563
214	0xbd9a73f7	-0.0754165
215	0xbc04e54e	-0.008111311
216	0x3d6356cb	0.055502694
217	0x3d2c519f	0.042070027
218	0xbca834a0	-0.020532906
219	0x3c99bc92	0.018766675
220	0xbc5297b6	-0.0128535535
221	0x3dbb5189	0.09146411
222	0x3e0b6627	0.13613187
223	0xbd70d830	-0.058799922
224	0xbd8e2e54	-0.0694243
225	0xbe0482e1	-0.12940551
226	0xbadeac7c	-0.001698866
227	0x3dc30fd7	0.095245056
228	0x3bb654a2	0.0055642882
229	0x3e05708b	0.13031213
230	0x3d80b031	0.06283606
231	0xbd88c38b	-0.06677922
232	0x3cb01e7a	0.021498907
233	0x3b0e3e9a	0.0021704794
234	0x3d8896bb	0.066693746
235	0x3cc0eb7a	0.023549784
236	0x3d90154a	0.070353106
237	0xbcaed9aa	-0.021344025
238	0x3d8a4e1f	0.06753182
239	0x3d023369	0.03178731
240	0x3d61f088	0.05516103
241	0xbd399979	-0.04531238
242	0xbceab833	-0.028652286
243	0x3c6a9a00	0.014318943
244	0x3c6764f0	0.0141231865
245	0x3d2c2045	0.042022962
246	0xbda0bd16	-0.07848565
247	0x3d4a94ed	0.049458433
248	0x3c10382c	0.008802455
249	0x3cb141b3	0.021637773
250	0x3db5f47c	0.08884522
251	0xbd95182b	-0.0728
252	0x3d72fcd3	0.059323143
253	0xbc4ec8ab	-0.012621085
254	0xbd88ded8	-0.06683129
255	0x3da3fa03	0.0800667

action_model._continuous_distribution.log_sigma f4 [1, 2]
0	0x00000000	0.0
1	0x00000000	0.0

action_model._continuous_distribution.mu.weight f4 [2, 256]
0	0x3cffd0f2	0.031227563
1	0xbc44aa5d	-0.012003508
2	0xbc760bb2	-0.015017437
3	0x3c4cc6be	0.012498556
4	0x3b14927e	0.0022670324
5	0x3b967b81	0.0045923595
6	0x3c05e34c	0.008171868
7	0x3a843329	0.0010086048
8	0xbbf15d3b	-0.0073658503
9	0x3bcf085b	0.0063181347
10	0x3b7a71a8	0.0038214717
11	0xbb2483a2	-0.0025102873
12	0xbca578e4	-0.020199247
13	0xbc20c673	-0.009812939
14	0x3be4ba22	0.0069801966
15	0x3bb1209f	0.0054055
16	0x3c0094ef	0.007848009
17	0x3c5dcbca	0.013537357
18	0xbb24341e	-0.0025055478
19	0xbd0504e3	-0.032475363
20	0x3b277a76	0.002555517
21	0x3b9958b7	0.004679765
22	0xbbee95e0	-0.00728105
23	0xbbcd7e00	-0.006271124
24	0xba45b840	-0.0007542409
25	0xb84d3b37	-4.8930957e-05
26	0x3d100895	0.035164434
27	0x3c96ca7c	0.018407099
28	0xbce3d613	-0.02781204
29	0xbc1eb7b1	-0.00968735
30	0xbc2ca26f	-0.010536774
31	0xba418aba	-0.00073830376
32	0x3ba30fa1	0.0049762283
33	0xbc4ac534	-0.012376118
34	0xbc399821	-0.011327774
35	0xbc5d10c3	-0.013492766
36	0xbb7667fd	-0.0037598603
37	0xbbfb69b5	-0.0076725134
38	0x3cb27a57	0.021786852
39	0x3c530a95	0.012880941
40	0x3acaf895	0.001548546
41	0x3b9a2ad8	0.0047048144
42	0x3ccdfa02	0.025143627
43	0x3d419a1c	0.04726611
44	0x3c363f37	0.01112347
45	0x3a8759a6	0.00103264
46	0x3bbd2df7	0.0057733017
47	0x3c0722d4	0.00824805
48	0x3cbdec3f	0.02318394
49	0xbad0787d	-0.0015905049
50	0x3c743c6b	0.014906983
51	0x3bb7e5eb	0.005612125
52	0x3b15dc03	0.0022866733
53	0xbcb4c176	-0.022064906
54	0x3c7db0bb	0.01548403
55	0x3b8df7e0	0.0043325275
56	0xbb588043	-0.0033035434
57	0x3c9b702b	0.018974384
58	0xb933572f	-0.00017103249
59	0xb959d4a0	-0.00020773942
60	0x3b8b834c	0.004257595
61	0xbc62fbcf	-0.013853981
62	0xbc1eede1	-0.009700269
63	0xbc03c862	-0.00804338
64	0x3b11f5d7	0.0022271776
65	0x3a076c57	0.0005165985
66	0xbce56732	-0.028003309
67	0x3c355be5	0.011069273
68	0x3c20e653	0.009820539
69	0x3c0192a4	0.007908497
70	0xbbbbedc0	-0.005735129
71	0xbc15249b	-0.009102966
72	0x3c559982	0.013037087
73	0xb98dc5c6	-0.00027040968
74	0x3ca6e34c	0.020372055
75	0xbc0d57d7	-0.0086269
76	0xbb82d482	-0.003992618
77	0x3b952b86	0.0045523075
78	0xbba1dbf5	-0.004939551
79	0x3c4d13eb	0.012516956
80	0xbb1eded0	-0.0024241693
81	0x3cf4932f	0.029855339
82	0xbccf97e0	-0.025340974
83	0xbc1081c5	-0.008820002
84	0xbc0e3a3f	-0.008680879
85	0xbb8862b2	-0.004162156
86	0xbc0e43b0	-0.00868313
87	0xba442ba7	-0.00074833113
88	0xbc54fc5a	-0.012999618
89	0x3c48e19b	0.01226082
90	0xbb93c8ce	-0.004510022
91	0x3cc65da2	0.02421457
92	0x3c8f276f	0.017474858
93	0x3cf9a943	0.030476218
94	0x3c450174	0.012024272
95	0x3ba8ca01	0.005151034
96	0xbc6d5e5d	-0.01448783
97	0x3ac079f9	0.0014684788
98	0xbc3dba50	-0.011580065
99	0xbb1706ff	-0.0023044941
100	0x3c4e6dda	0.012599433
101	0x3c186e8f	0.009303703
102	0xbb5a0255	-0.003326555
103	0x3c7511c2	0.014957847
104	0x3c02fe07	0.007995135
105	0x3c251fe5	0.010078405
106	0x3c3b4131	0.011429117
107	0x3a9a74ee	0.0011784115
108	0x3a6b1372	0.0008967436
109	0x3a57a085	0.00082255184
110	0xbc452bb1	-0.012034343
111	0xbc68faf0	-0.014219984
112	0xbc3e1e31	-0.011603878
113	0xbc8394b5	-0.01606212
114	0xbc9376e1	-0.018001022
115	0x3c2d46c1	0.010575951
116	0xbbb0273b	-0.0053757704
117	0xbc198426	-0.009369886
118	0xbc0461bf	-0.008079945
119	0x3c532057	0.012886128
120	0x3c4ccf7a	0.012500638
121	0x3a7a5bfa	0.0009550449
122	0x3c8cf9b4	0.017208911
123	0x3b16ece9	0.0023029393
124	0x3b60303b	0.0034208435
125	0x3ad1125a	0.0015950904
126	0xbc23b9c1	-0.009993018
127	0x3c818298	0.015809342
128	0x3bd3f9cd	0.0064689876
129	0x394d287b	0.00019565404
130	0xbb8ee0b8	-0.0043602847
131	0x3c3ae5a9	0.011407294
132	0x3bb6c8c2	0.0055781314
133	0x3b8d7a7b	0.0043175793
134	0x36516e90	3.1207783e-06
135	0x3b0fc6cb	0.0021938558
136	0xbcb9d447	-0.02268423
137	0xbb0117c3	-0.0019698
138	0x3ca8215e	0.020523723
139	0xbb8f0c58	-0.004365485
140	0xb9e33c9b	-0.0004334197
141	0xbc4eb7a7	-0.012617028
142	0x3c22232f	0.009896084
143	0xbc5efc78	-0.013609998
144	0xbc7928e0	-0.015207499
145	0xbc2a2ed7	-0.010387144
146	0x3c3074b2	0.01077001
147	0x39867938	0.00025648787
148	0x38c53bd7	9.404838e-05
149	0x3b311e3b	0.0027026075
150	0x3bd4a098	0.006488871
151	0xbce65495	-0.028116504
152	0xbb9afc1d	-0.0047297613
153	0x3c2f705e	0.010707943
154	0x3bc8881b	0.0061197407
155	0x3b5906af	0.0033115556
156	0x3bc2724a	0.0059340345
157	0x3c9de100	0.019272327
158	0x3c4620c3	0.012092772
159	0xbaa215fa	-0.0012366169
160	0xbc35969d	-0.011083272
161	0x3b783b7d	0.0037877255
162	0xbbc7204c	-0.006076848
163	0xbcc94f95	-0.02457408
164	0x3c90df02	0.017684463
165	0xbc721b9a	-0.014777089
166	0xbc616b9b	-0.013758565
167	0xbc220ab9	-0.009890252
168	0x3bc879bf	0.006118029
169	0x3b9322fa	0.0044902535
170	0xbc753a9b	-0.014967586
171	0xbaeee6f2	-0.0018226786
172	0xbb9bdef6	-0.0047568036
173	0xbbeeec2b	-0.007291337
174	0x3bcf420f	0.0063250135
175	0x3beaf92b	0.0071708164
176	0x3b74ad3d	0.0037334703
177	0xbc812cab	-0.01576837
178	0x3a754e90	0.0009357715
179	0x3c3f208b	0.011665474
180	0xbc54558b	-0.012959848
181	0x3b6e83e0	0.0036394522
182	0x3c0cca67	0.008593178
183	0xb9707822	-0.00022932937
184	0xbb28771f	-0.0025705767
185	0x3a323a0a	0.00067988096
186	0x3c5af8da	0.013364995
187	0xbc0f7d1b	-0.008757855
188	0xbc5b2655	-0.013375838
189	0xbbe01e0a	-0.0068395184
190	0xbc0ecdd7	-0.008716068
191	0xbc2c1f6b	-0.0105055375
192	0xbc857cd1	-0.016294869
193	0xbc3a78cb	-0.011381338
194	0x3c990cdb	0.018682888
195	0x3c30c4fa	0.01078915
196	0xbb89fa57	-0.004210751
197	0x3bb63acc	0.0055612084
198	0x3cf49e57	0.029860659
199	0x3ca48f2d	0.020087803
200	0x3cad8120	0.021179736
201	0xbc0ea594	-0.008706469
202	0xbbcf18ff	-0.0063201184
203	0xbbb7ce68	-0.0056093223
204	0xbb9bfd71	-0.004760437
205	0x3cc34753	0.023837721
206	0xbb8f6bed	-0.0043768794
207	0xba82a865	-0.0009968398
208	0x3b8ce4a7	0.0042997184
209	0x3bac4c9f	0.0052581574
210	0x3c68fd85	0.0142206
211	0x3b7c3b1d	0.0038487383
212	0x3abc2fca	0.0014357504
213	0x3bc3ec69	0.00597911
214	0x3b8a11a7	0.00421353
215	0xbbeb4f27	-0.0071810666
216	0xbb60b3b0	-0.003428679
217	0xbc53b785	-0.012922172
218	0xbbefe23b	-0.00732067
219	0x3b0068f0	0.0019593798
220	0xbc4f8078	-0.012664907
221	0x3ca4a956	0.020100277
222	0x3bea7ffa	0.0071563693
223	0x3c2cd992	0.01054992
224	0xbb1cc75f	-0.0023922545
225	0x3b5cd06a	0.003369356
226	0xbc09a855	-0.00840195
227	0x3c7399a3	0.014868173
228	0x3b96432a	0.0045856433
229	0x3ac21a85	0.0014808929
230	0xbc120873	-0.008913147
231	0xbc040585	-0.008057957
232	0x3a393412	0.0007064949
233	0xbbe2f6fa	-0.0069264146
234	0x3c0f870b	0.008760224
235	0xbc83d079	-0.016090618
236	0xbaf5a843	-0.0018742163
237	0xbbfe9dbf	-0.0077702696
238	0xbad2f703	-0.0016095344
239	0xbcd8d09d	-0.026466662
240	0x3aeeccaf	0.001821896
241	0x3c48282b	0.012216608
242	0xbba68220	-0.00508143
243	0xbcb0dc15	-0.021589318
244	0xbce97dc8	-0.02850236
245	0x3a691c1b	0.00088924327
246	0xbb06d5ae	-0.002057414
247	0xbc3ec408	-0.011643417
248	0xbb48b9ab	-0.0030628245
249	0x3c86a38a	0.016435403
250	0x3bfa03d0	0.007629849
251	0x3bf74ec0	0.0075472295
252	0xbc5f9432	-0.013646172
253	0x3bb7bf1f	0.0056075
254	0x3c17e74f	0.009271457
255	0x3ba04072	0.004890495

action_model._continuous_distribution.mu.bias f4 [2]
0	0x00000000	0.0
1	0x00000000	0.0

onnx::Div_56 f4 [6]
0	0x3c93410d	0.017975355
1	0x3c0c4373	0.008561003
2	0x3c36cf26	0.0111577865
3	0x3c10d837	0.008840612
4	0x3bfe589f	0.0077620293
5	0x3c44e283	0.012016895
