results/TestCurriculum/SuperTank/SuperTank-205822.onnx (onnx, 541849 bytes, 11 tensors)

network_body.observation_encoder.processors.0.normalizer.running_mean f4 [6]
-47.559372 -13095.515 -11.967208 -0.20365727 0.19999664 -0.07893228
00000000: cc3c 3ec2 0f9e 4cc6 af79 3fc1 888b 50be
00000010: ebcb 4c3e 3fa7 a1bd

network_body._body_endoder.seq_layers.0.weight f4 [256, 6]
-0.20457475 0.263235 -0.45029038 -0.31853378 -0.41587272 0.6420307 0.2138994 0.6187919
-0.31041673 0.2869161 -0.36799896 0.4002267 0.3044698 -0.1284809 0.4246585 0.5022937
0.054102715 -0.22034283 0.072265945 -0.49700668 -0.123525955 0.081824295 -0.4858329 -0.57925373
-1.198762 0.0056975926 0.060094483 -0.56088907 0.3361199 0.044865288 -0.5963412 0.08394199
-0.27227002 -0.2062547 0.41995862 -0.5875297 -0.67865264 -0.8245931 0.6845613 -0.39707306
0.3580498 -0.33758914 0.090963036 0.578846 -0.18009433 -0.11861029 0.07279985 -0.011746359
0.5258763 0.28395432 0.5511517 0.20484586 -0.3988767 1.0307838 -0.7853181 0.009998353
0.13910063 0.5316266 0.1313456 0.107849896 -0.13115767 0.15995026 0.1191552 0.25227284
-0.03890127 -0.039154127 0.5041128 -0.6200094 -0.45745218 0.33455512 0.17069772 -0.40066835
0.1278005 -0.304096 -0.21779811 0.03807816 0.07339459 -1.1509584 0.26692167 -0.3116532
-1.0325099 0.06862269 0.23964545 -0.2964693 -0.1938162 0.3306962 0.3236723 0.31376228
0.7636634 -0.17615463 -0.17387925 -0.34468558 0.0037503275 0.23244062 0.30047247 -0.38579467
0.27032658 -0.45150766 -0.28962812 0.3275222 0.40651423 -0.0043074344 0.18509352 -0.027681353
-0.22499102 0.04767248 0.14796595 -0.64607304 0.5467305 -0.4532534 -0.06989057 0.9065007
-0.2591481 -0.4276148 0.06899618 0.079834394 0.7719542 0.3182619 0.21306269 0.048014406
-1.0083205 -0.018589307 -0.15604772 0.2120169 0.33136943 0.11757644 0.12320473 -0.1106579
-0.274039 -0.48701346 0.2597364 0.5737804 -0.02326656 -0.37293896 0.5621413 -0.41638634
0.2695797 0.781211 -0.1870546 0.21341963 -0.058655467 -0.5509235 1.3434912 -0.0060118455
-0.31460768 0.020100456 0.3372964 0.29506797 -0.4207251 -0.29302078 0.40716508 0.08094962
-0.36862442 0.16941918 0.5423439 0.014962758 0.5375417 -0.3792326 -0.019213581 -0.37136585
-0.3416918 -0.21451925 0.40440097 -0.10398334 -0.1987807 0.35599282 -0.500319 -1.1803192
-0.24160737 0.33818546 0.8889986 0.087090336 0.017736241 -0.25356624 0.67925835 0.21391913
0.11481705 0.43994197 -0.5377487 -0.34682512 0.2030594 -0.8253817 -0.2819519 0.2684369
0.2608236 0.16289479 0.12983584 -0.06746368 0.2854943 0.71773535 -0.35419342 0.36235788
0.08627284 0.32924512 -0.19250318 0.44468978 0.026044333 -0.06269648 0.06871281 0.582608
-0.42236272 -0.34903046 0.05057144 0.39499077 -0.27450737 -0.06818928 0.64490294 0.53777707
0.0344493 -0.052521456 0.04152604 0.015544571 -0.5942013 0.2329427 -0.29548094 -1.3468277
0.48575723 -0.0016492744 -0.12348682 -0.3199578 -0.40002787 -0.2993631 -0.7964757 0.35813722
-0.27385718 0.5697468 -0.014903052 -0.7053492 0.07106764 -0.4089417 -0.18169908 -0.118058145
0.5052537 -0.4561332 -0.31092194 0.08796303 0.2594285 0.07724055 0.22199473 -0.6069979
-0.01159354 -0.761429 0.34185165 -0.086137265 -0.35779876 -0.38681766 -0.8786242 0.21458802
-0.5313832 -0.03823536 0.006128598 -0.6055861 -0.5440921 0.18656807 0.81946045 -0.13868298
00000000: 0b7c 51be bdc6 863e 768c e6be dc16 a3be
00000010: 45ed d4be 205c 243f 7208 5b3e 2569 1e3f
00000020: f1ee 9ebe abe6 923e 5c6a bcbe 84ea cc3e
00000030: 77e3 9b3e 7f90 03be d76c d93e 5296 003f
00000040: cf9a 5d3d 8da1 61be 2b00 943d a977 febe
00000050: 2dfb fcbd 7f93 a73d 17bf f8be f949 14bf
00000060: 0971 99bf dfb2 ba3b a225 763d 6d96 0fbf
00000070: e817 ac3e aac4 373d d1a9 18bf c7e9 ab3d
00000080: fa66 8bbe 6f34 53be d104 d73e 5968 16bf
00000090: 2ebc 2dbf 8918 53bf 693f 2f3f 294d cbbe
000000a0: 4e52 b73e 7cd8 acbe d44a ba3d 402f 143f
000000b0: a66a 38be f4e9 f2bd 1618 953d cd73 40bc
000000c0: d49f 063f 7662 913e 4718 0d3f 1dc3 513e
000000d0: 9139 ccbe b9f0 833f 9b0a 49bf 22d0 233c
000000e0: 6570 0e3e ae18 083f 767f 063e 68e0 dc3d
000000f0: 324e 06be 00ca 233e a407 f43d e829 813e
00000100: f056 1fbd 1460 20bd 890d 013f f0b8 1ebf
00000110: 2c37 eabe cf4a ab3e 62cb 2e3e 6724 cdbe
00000120: 22de 023e 79b2 9bbe 7806 5fbe d8f7 1b3d
00000130: e74f 963d 9b52 93bf f5a9 883e 0291 9fbe
00000140: 4929 84bf 0e8a 8c3d 9e65 753e d3ca 97be
00000150: c177 46be 0351 a93e 60b8 a53e 73a5 a03e
00000160: 727f 433f e161 34be 670d 32be a17a b0be
00000170: 0ec8 753b ea04 6e3e 87d7 993e e186 c5be
00000180: 3f68 8a3e 032c e7be 234a 94be fdb0 a73e
00000190: a222 d03e 6125 8dbb 2889 3d3e 01c4 e2bc
000001a0: 0c64 66be 3844 433d 6384 173e 0b65 25bf
000001b0: 88f6 0b3f d410 e8be ca22 8fbd 6e10 683f
000001c0: 0faf 84be 54f0 dabe df4d 8d3d 3780 a33d
000001d0: ca9e 453f 39f3 a23e 1b2d 5a3e c1aa 443d
000001e0: a510 81bf 9a48 98bc f9ca 1fbe f51a 593e
000001f0: 41a9 a93e ebcb f03d c352 fc3d 9ca0 e2bd
00000200: d74e 8cbe d459 f9be 2bfc 843e 46e3 123f
00000210: 8399 bebc dbf1 bebe 7ee8 0f3f 9730 d5be
00000220: 5a06 8a3e 72fd 473f 3e8b 3fbe ad8a 5a3e
00000230: b740 70bd 5309 0dbf 85f7 ab3f 04ff c4bb
00000240: 4214 a1be b6a9 a43c 1db2 ac3e 2613 973e
00000250: 4869 d7be d206 96be f177 d03e eac8 a53d
00000260: 57bc bcbe 397c 2d3e 0dd7 0a3f 5b26 753c
00000270: 559c 093f c62a c2be cd65 9dbc aa23 bebe
00000280: 3af2 aebe efaa 5bbe a50d cf3e 38f5 d4bd
00000290: 2b8d 4bbe b144 b63e e814 00bf b314 97bf
000002a0: ec67 77be a526 ad3e 6a95 633f 6b5c b23d
000002b0: 984b 913c 6fd3 81be e0e3 2d3f 9e0d 5b3e
000002c0: 3425 eb3d 1340 e13e e6a9 09bf 1093 b1be
000002d0: ceee 4f3e 374c 53bf 005c 90be 9070 893e
000002e0: ac8a 853e e4cd 263e b0f3 043e 662a 8abd
000002f0: 4f2c 923e 81bd 373f d758 b5be f986 b93e
00000300: d1af b03d d192 a83e 8e1f 45be 61ae e33e
00000310: ed5a d53c 0367 80bd 4db9 8c3d cc25 153f
00000320: ed3f d8be 1fb4 b2be 0024 4f3d 3b3c ca3e
00000330: 3b8c 8cbe d2a6 8bbd 5c18 253f c2ab 093f
00000340: b61a 0d3d bd20 57bd 3517 2a3d a8ae 7e3c
00000350: 941d 18bf 8888 6e3e 4749 97be da64 acbf
00000360: 2cb5 f83e 772c d8ba a8e6 fcbd 82d1 a3be
00000370: 74d0 ccbe 1f46 99be d5e5 4bbf c35d b73e
00000380: 0237 8cbe edda 113f ee2b 74bc c491 34bf
00000390: e98b 913d ce60 d1be 530f 3abe 78c8 f1bd
000003a0: 4e58 013f 4a8a e9be 2931 9fbe f625 b43d
000003b0: d0d3 843e 4b30 9e3d 9652 633e 3764 1bbf
000003c0: d5f2 3dbc 03ed 42bf 2e07 af3e bc68 b0bd
000003d0: 6631 b7be f70c c6be 84ed 60bf f6bc 5b3e
000003e0: bb08 08bf ae9c 1cbd 68d2 c83b b107 1bbf
000003f0: 9f49 0bbf b30b 3f3e 29c8 513f e902 0ebe

network_body._body_endoder.seq_layers.0.bias f4 [256]
-0.005660918 0.000594715 -0.0076629925 -0.009943632 -6.4127154e-05 0.0017150164 -0.00223997 -9.014108e-05
0.0022821145 0.0030999547 -0.000555231 -0.002546079 0.00032807075 0.0038087978 -0.007929999 0.0016672888
1.2863972e-05 0.0030242312 -0.010650718 -0.0034677244 0.007396258 -0.005612902 0.0014463422 -0.0051306537
-0.0054812524 0.0046750284 0.0041396404 -0.006950269 -0.00069138786 -0.0075148437 0.0024665145 -0.0039103213
-0.0047538355 -0.010254139 -0.0066581 -0.0006663602 -0.00054781686 -0.004122735 -0.0014065782 0.0004891797
-0.0040536625 0.007866899 0.007501583 -0.0012792919 -0.0077881133 -0.0014408729 -0.009755333 -0.0016917735
-0.007721899 -0.0005178138 -0.002554849 -0.004642761 -0.003461655 -0.001594559 0.0022646019 0.0034978457
-0.0028779812 0.000193684 0.0022054478 -0.0046127047 -0.0068455064 0.0037057556 -0.0005536366 0.000692102
-0.0049102837 0.0026040822 -0.0016625107 -0.0048973216 -0.008798507 -0.008551794 0.0028620828 0.0044308244
-0.0031783145 0.004262359 0.00011998443 -0.0003449476 0.0013991471 8.994434e-06 -0.0077019413 0.00462044
-0.011210253 -0.005003047 -0.0062230164 0.0020789506 0.0028637224 -0.0023054732 -0.003565458 0.0057660188
0.0030806784 -0.00094376697 0.0032521633 -0.0021951878 0.0017510222 0.002958224 -0.005469861 -0.009757462
-0.009754011 -0.0069836513 -0.0017870732 0.0005110525 -0.0005439329 0.0017775461 0.00024899913 -0.004919646
-0.003459837 -0.0060958373 -0.0026008268 0.002684633 0.006548175 -0.00602659 0.00017022122 -0.0045602857
-0.0014122251 0.0035540506 -0.010538175 -0.0039242827 0.0002214476 -0.0015394842 0.0023794416 -0.0031250124
0.003168301 -0.0008159481 0.0012851409 -0.0013501326 0.0014006054 -0.012394944 -0.0036742543 0.0018284944
0.0071459925 0.0012057462 0.0036756098 0.0059457645 0.0033831773 -0.007837913 0.0024213581 -0.0013640247
-0.007574902 0.0028968034 -0.0093857795 -0.0034888347 0.0034133452 -0.004941315 -0.0033505235 -0.005790159
0.003492853 -0.014396905 0.004627757 0.0021825894 8.062457e-05 -0.009115785 -0.0012031446 0.0037195545
-0.002107314 0.0044081113 -0.0007921868 0.006827997 0.0011376432 -0.0036192392 -0.0038151357 -0.0077403765
-0.014736715 0.004371543 -0.0047403225 0.0020794906 -0.002110043 0.0007117807 0.0014171907 0.0014679293
-0.0054761497 0.004666157 0.0035441322 0.0016108932 0.0024720533 0.0027349724 -0.0065120463 0.00016858461
-0.0020974309 -1.8272425e-05 -0.004674075 -0.006837789 -0.003305312 0.0046385364 1.7252625e-05 -0.0056980457
0.004664592 -0.0021288027 -0.00028665282 0.0026633572 0.00015572988 -0.00087766536 0.0084684035 -0.00066400017
-0.0029006675 -0.01025719 -0.0060951333 -0.00980325 -0.00079440913 0.0010133096 -0.003035914 0.0044590766
-0.0034489906 -0.0009465393 0.0017748917 -0.0030224882 -0.009936985 -0.0026830714 0.0030454004 -0.0053746607
-0.008556567 0.0020944492 -0.0020425988 0.0038953754 -0.0039054211 0.00414955 0.001604406 -0.006458626
-0.004295931 0.00010215178 -0.0069188275 -0.01459412 0.003511234 -0.008673007 -0.0026954256 -0.010737872
-0.0057491595 -0.0019325223 -0.0035437664 -0.0029683071 -0.0075005475 0.001878225 -0.0015261897 -0.001299204
0.0042288536 -0.007965135 0.0010047035 -0.009570949 -0.0009435311 -0.0030841716 0.001587928 -0.0058519766
-0.014805909 0.0027094877 -0.012990519 0.0073844935 -0.0010040117 0.0027795688 -0.0044902954 -0.003992806
-0.0018421959 -0.0137375165 0.00019654383 0.0012737814 0.0008266056 -0.0060372073 0.0034957344 0.0042114793
00000000: 397f b9bb a6e6 1b3a d719 fbbb 9eea 22bc
00000010: 017c 86b8 67ca e03a 76cc 12bb 200a bdb8
00000020: 878f 153b 9c28 4b3b ec8c 11ba 1edc 26bb
00000030: e900 ac39 069d 793b d4ec 01bc ee88 da3a
00000040: 57d2 5737 2e32 463b 5980 2ebc c342 63bb
00000050: 4f5c f23b 6fec b7bb 3193 bd3a 0b1f a8bb
00000060: 149c b3bb fb30 993b d2a5 873b 15bf e3bb
00000070: 413e 35ba 143f f6bb 3fa5 213b 2722 80bb
00000080: 10c6 9bbb fa00 28bc 312c dabb adae 2eba
00000090: 5e9b 0fba 0218 87bb ef5c b8ba 4b3c 003a
000000a0: 96d4 84bb 2ae4 003c d7cf f53b eaad a7ba
000000b0: 6e33 ffbb acdb bcba d5d4 1fbc 80be ddba
000000c0: fc07 fdbb e5bd 07ba 416f 27bb 4d22 98bb
000000d0: efdc 62bb 8600 d1ba b769 143b 1d3c 653b
000000e0: 839c 3cbb a717 4b39 4689 103b 2c26 97bb
000000f0: 4550 e0bb 43dc 723b ec21 11ba 2e6e 353a
00000100: 72e6 a0bb 40a9 2a3b 9ae8 d9ba b679 a0bb
00000110: 9d27 10bc d31c 0cbc c891 3b3b 7330 913b
00000120: 454b 50bb 42ab 8b3b 26a0 fb38 15da b4b9
00000130: 9663 b73a cde6 1637 9160 fcbb 0f67 973b
00000140: 36ab 37bc 9af0 a3bb 72ea cbbb 013f 083b
00000150: 4aad 3b3b 6c17 17bb 76aa 69bb dff0 bc3b
00000160: 35e5 493b 2167 77ba 3f22 553b 24dd 0fbb
00000170: 8e82 e53a c3de 413b 853c b3bb c3dd 1fbc
00000180: 4acf 1fbc 1dd7 e4bb 3a3c eaba 27f8 053a
00000190: b896 0eba 8dfc e83a 198c 8239 fb34 a1bb
000001a0: 6fbe 62bb 97bf c7bb a272 2abb abf0 2f3b
000001b0: 1392 d63b b37a c5bb 697d 3239 736e 95bb
000001c0: 691a b9ba 13eb 683b 4fa8 2cbc 4597 80bb
000001d0: 6334 6839 85c8 c9ba 68f0 1b3b 02cd 4cbb
000001e0: 45a3 4f3b 5ae5 55ba 2c72 a83a eff6 b0ba
000001f0: 8594 b73a 2a14 4bbc c2cb 70bb 17aa ef3a
00000200: ee28 ea3b 210a 9e3a 80e2 703b b0d4 c23b
00000210: 4cb8 5d3b 976a 00bc a6af 1e3b 13c9 b2ba
00000220: e236 f8bb 4cd8 3d3b d0c6 19bc efa4 64bb
00000230: 6eb2 5f3b c1ea a1bb 7594 5bbb 60bb bdbb
00000240: 59e8 643b ffe0 6bbc 70a4 973b c609 0f3b
00000250: fd14 a938 605a 15bc d5b2 9dba c5c3 733b
00000260: dd1a 0abb eb71 903b c2aa 4fba 64bd df3b
00000270: f91c 953a c230 6dbb 5b07 7abb fca2 fdbb
00000280: 4372 71bc 293f 8f3b b554 9bbb 1048 083b
00000290: a648 0abb cb96 3a3a 07c1 b93a 8967 c03a
000002a0: 4671 b3bb 90e6 983b ac44 683b 9b24 d33a
000002b0: 2c02 223b 393d 333b 0163 d5bb 16c6 3039
000002c0: 0d75 09bb bc47 99b7 fc28 99bb 880f e0bb
000002d0: ef9d 58bb ddfe 973b bbb9 9037 acb6 babb
000002e0: 6fd9 983b 6283 0bbb e449 96b9 b88b 2e3b
000002f0: 6c4b 2339 2013 66ba 0fbf 0a3c 4c10 2eba
00000300: 2019 3ebb c60d 28bc afb9 c7bb d09d 20bc
00000310: e53f 50ba 07d1 843a 2ff6 46bb 721d 923b
00000320: 7608 62bb 2d21 78ba 7ca3 e83a f014 46bb
00000330: bcce 22bc 78d6 2fbb 5795 473b ec1d b0bb
00000340: d830 0cbc 0743 093b 1fdd 05bb 8e49 7f3b
00000350: 18f2 7fbb f3f8 873b ef4a d23a e2a2 d3bb
00000360: e2c4 8cbb 523a d638 55b7 e2bb 2d1c 6fbc
00000370: bb1c 663b 3a19 0ebc bda5 30bb e6ed 2fbc
00000380: 7263 bcbb b04c fdba 893e 68bb ee87 42bb
00000390: 27c7 f5bb c62e f63a 6e0a c8ba 0d4a aaba
000003a0: 3292 8a3b 3380 02bc 41b0 833a 78cf 1cbc
000003b0: 4d57 77ba d01f 4abb 0622 d03a f0c1 bfbb
000003c0: 7c94 72bc a991 313b 30d6 54bc 9ff9 f13b
000003d0: 0b99 83ba 6d29 363b 5423 93bb 16d6 82bb
000003e0: d675 f1ba 5213 61bc 5517 4e39 03f5 a63a
000003f0: 90b0 583a c4d3 c5bb b118 653b 7300 8a3b

network_body._body_endoder.seq_layers.2.weight f4 [256, 256]
-0.101492904 -0.092359886 -0.08938717 -0.064843215 -0.039261203 -0.05984472 0.0022719896 0.05284849
-0.05455167 0.01743378 -0.067838624 0.09438615 -0.050136242 -0.035203934 -0.118303776 -0.021959342
0.018676074 -0.00299858 0.020860136 0.09441059 0.095158145 0.07669899 -0.06704043 0.010702581
-0.06417701 0.100897424 -0.006972765 -0.01900978 -0.040170748 -0.11448374 0.08760379 0.04440662
0.1330795 0.005230614 -0.065560065 0.019689448 0.0046152184 0.0007850417 0.059172306 0.022889283
0.033702638 -0.053323176 0.063755475 0.10090577 -0.14747088 -0.0058118724 -0.024436235 -0.0483696
-0.030559888 -0.022157617 0.011192717 -0.036322664 -0.0024014446 0.0036791596 0.076417856 0.047817238
0.066153795 0.05207208 0.0087672705 0.0009875761 -0.06973576 0.0037969314 0.08070648 -0.006323607
0.053904437 -0.07704784 -0.10529535 0.04458538 -0.09713444 0.047661424 0.009343129 0.02071436
-0.07672937 -0.002170385 0.03715904 -0.022932215 0.028427817 -0.043815147 -0.09712523 0.15660977
-0.004098128 0.0572145 0.028204728 0.011650347 -0.028412728 -0.10121997 -0.0758144 -0.009823569
-0.05623548 0.13012128 0.03149161 0.16992442 -0.011399779 0.086807944 0.005999689 -0.03113241
-0.065287285 0.026154038 -0.00918934 -0.07841562 -0.035991054 -0.081820734 -0.020960895 0.002947514
-0.12678802 0.058917195 0.004370804 0.11695867 0.03221832 0.07868384 -0.05599197 -0.03312896
0.048036966 -0.02951877 0.023919042 -0.025368074 -0.019360915 -0.080371305 0.061347168 0.04962953
-0.07095847 0.014647589 0.011939562 0.01827989 -0.07923148 0.055867985 -0.016253732 -0.026529538
-0.038073223 -0.07184299 0.00026042986 -0.03625075 0.11273592 -0.06912783 -0.07204859 0.08136867
-0.009423339 0.016709885 0.009256981 0.029257579 0.01601293 0.030483196 -0.038911555 0.04764086
-0.029198729 0.111456275 0.034355577 0.04319823 0.068363786 0.024225257 0.009630272 -0.073556215
0.0016200299 8.9800005e-06 0.087190844 -0.01420308 -0.0064662234 -0.010631033 -0.121423535 -0.07496922
-0.063661814 0.019186657 -0.010923169 -0.007852347 0.015633086 0.003045496 0.11238578 0.104710974
0.059638225 0.055618323 -0.04818438 -0.0048658806 -0.018630238 -0.0014509435 -0.07200982 -0.056135774
-0.056277305 0.12982512 -0.08780395 0.036106326 0.054152813 -0.013020365 -0.0424105 0.005758006
0.053065576 0.04708146 -0.05693283 -0.09153785 -0.07303782 -0.003248474 -0.08343669 -0.018215796
0.0018513533 0.01371673 -0.0020725762 -0.107235916 0.03001676 0.13465407 -0.07463999 0.013861389
0.0060233274 0.0021023278 -0.013618364 -0.0068322737 -0.052483905 -0.016144563 -0.16308701 -0.03289185
-0.14381973 -0.0872197 0.04452467 -0.07209336 0.0809242 0.03967649 0.0692706 0.06280863
-0.0053965016 0.055715363 0.1335295 -0.064906575 0.017802741 0.052435763 0.011681905 -0.070174746
0.00018575485 -0.085353695 0.05982486 0.02376715 -0.057247207 0.016971305 0.05891337 0.054173976
0.01898597 -0.074317425 0.0149717955 -0.021784738 0.015280866 0.022557553 -0.08000322 -0.026761997
-0.13077493 0.0162268 0.09208725 -0.12929404 0.10180816 0.05257465 -0.09659153 -0.06757977
0.123279914 -0.0111189885 0.030062642 -0.016180983 -0.008682314 0.06834836 0.07334016 -0.018713256
00000000: 83db cfbd 2e27 bdbd 9f10 b7bd 85cc 84bd
00000010: 5bd0 20bd bd1f 75bd a9e5 143b a977 583d
00000020: 9271 5fbd 49d1 8e3c faee 8abd 874d c13d
00000030: a95b 4dbd 0032 10bd 4049 f2bd 14e4 b3bc
00000040: 91fe 983c d383 44bb e0e2 aa3c 575a c13d
00000050: 46e2 c23d 5c14 9d3d 7e4c 89bd e159 2f3c
00000060: 3c6f 83bd 4fa3 ce3d cb7b e4bb 66ba 9bbc
00000070: 158a 24bd 7376 eabd 9e69 b33d b7e3 353d
00000080: fe45 083e 9265 ab3b 5b44 86bd c44b a13c
00000090: 423b 973b 42cb 4d3a a95e 723d 4e82 bb3c
000000a0: c70b 0a3d 6769 5abd 3b92 823d afa7 ce3d
000000b0: 9b02 17be 8571 bebb 802e c8bc 341f 46bd
000000c0: bb58 fabc e483 b5bc a861 373c 13c7 14bd
000000d0: 8e61 1dbb 0e1e 713b f780 9c3d 02dc 433d
000000e0: a47b 873d 8949 553d 99a4 0f3c 8e71 813a
000000f0: 9fd1 8ebd f0d5 783b 7049 a53d 4336 cfbb
00000100: e6ca 5c3d 42cb 9dbd 17a5 d7bd 299f 363d
00000110: 6cee c6bd a038 433d ec13 193c 29b1 a93c
00000120: 4a24 9dbd 053d 0ebb 1434 183d 57dc bbbc
00000130: 74e1 e83c 8377 33bd 98e9 c6bd 505e 203e
00000140: 9749 86bb c059 6a3d 9a0d e73c 19e1 3e3c
00000150: cfc1 e8bc 6a4c cfbd 9544 9bbd 09f3 20bc
00000160: 2d57 66bd 833e 053e 59fd 003d ab00 2e3e
00000170: 23c6 3abc 5dc8 b13d 0a99 c43b 6509 ffbc
00000180: 57b5 85bd fe40 d63c e38e 16bc 5e98 a0bd
00000190: 5b6b 13bd a191 a7bd 2fb6 abbc 142b 413b
000001a0: b8d4 01be 2853 713d f638 8f3b 0788 ef3d
000001b0: 5bf7 033d fe24 a13d d657 65bd 3bb2 07bd
000001c0: 69c2 443d 59d1 f1bc def1 c33c b5d0 cfbc
000001d0: c89a 9ebc b699 a4bd 2b47 7b3d 5648 4b3d
000001e0: ad52 91bd 71fc 6f3c 279e 433c b5bf 953c
000001f0: 1d44 a2bd d4d5 643d 8c26 85bc 7954 d9bc
00000200: abf2 1bbd 6b22 93bd 4e8a 8839 ab7b 14bd
00000210: 17e2 e63d e492 8dbd 368e 93bd 9ea4 a63d
00000220: 5964 1abc 2be3 883c 98aa 173c 97ad ef3c
00000230: 8c2d 833c e5b7 f93c b961 1fbd 1023 433d
00000240: 2c32 efbc 3043 e43d 6fb8 0c3d a1f0 303d
00000250: 5002 8c3d 0c74 c63c 4ac8 1d3c a4a4 96bd
00000260: 2f57 d43a cfa8 1637 1d91 b23d 09b4 68bc
00000270: 9de2 d3bb c92d 2ebc e7ac f8bd 7689 99bd
00000280: 2061 82bd 562d 9d3c 17f7 32bc 21a7 00bc
00000290: f510 803c f296 473b 842a e63d b572 d63d
000002a0: 3647 743d 0ad0 633d fc5c 45bd f771 9fbb
000002b0: 719e 98bc 962d beba e279 93bd a0ee 65bd
000002c0: 0883 66bd e0f0 043e 8fd2 b3bd 3ae4 133d
000002d0: 57cf 5d3d 5e53 55bc a2b6 2dbd a8ad bc3b
000002e0: 4a5b 593d 7dd8 403d 6632 69bd 3278 bbbd
000002f0: da94 95bd 5ae4 54bb dbe0 aabd 4b39 95bc
00000300: 1ca9 f23a 23bc 603c 0fd4 07bb 819e dbbd
00000310: b5e5 f53c c2e2 093e dadc 98bd e11a 633c
00000320: 555f c53b 35c7 093b 8f1f 5fbc 44e1 dfbb
00000330: 5df9 56bd 9a41 84bc 4800 27be 9bb9 06bd
00000340: 7b45 13be 3ea0 b2bd 805f 363d afa5 93bd
00000350: 96bb a53d d183 223d bfdd 8d3d d0a1 803d
00000360: 23d5 b0bb cb35 643d f5bb 083e bded 84bd
00000370: 0ed7 913c e2c6 563d 7665 3f3c c7b7 8fbd
00000380: 30c7 4239 ebcd aebd ea0a 753d 53b3 c23c
00000390: 0c7c 6abd 6807 8b3c 254f 713d 88e5 5d3d
000003a0: 7788 9b3c bc33 98bd 434c 753c e875 b2bc
000003b0: 995c 7a3c 9eca b83c bad8 a3bd fa3b dbbc
000003c0: dde9 05be 11ee 843c 3d98 bc3d a865 04be
000003d0: cc80 d03d 8458 573d c8d1 c5bd 4367 8abd
000003e0: 2e7a fc3d 6b2c 36bc ee45 f63c fb8d 84bc
000003f0: 4440 0ebc 3afa 8b3d 5e33 963d 8b4c 99bc

network_body._body_endoder.seq_layers.2.bias f4 [256]
-0.0007804936 9.9868914e-05 -0.0018896587 0.0035280562 0.0026223285 -0.009935069 0.00089386373 -0.003664064
-0.010250429 -0.0046075047 0.007372014 0.0042131697 -0.004677639 0.0025586537 -0.0057317303 0.0016360382
-0.0036461253 -0.0047823084 -0.0029581042 -0.0026158183 0.0035181798 0.003050728 -0.0038983664 0.008046309
0.006763878 -0.0022641646 -0.0032672682 0.0015102559 -0.0061481353 -0.0061808918 0.002983836 -0.0025712862
-0.0027684625 -0.0066253524 -0.0006159932 -0.004759746 0.0038501197 0.012784958 -0.00293404 -0.006741976
-6.194918e-05 0.006676077 0.0029983488 -0.005066542 0.0005788276 -0.009222402 -0.014865583 -0.0025732624
-0.004572422 0.005798758 -0.0065030563 0.0041867755 0.0006613987 0.0003480583 0.0004637211 -0.005150233
-0.005093135 -0.017865023 0.0029991448 0.0060674734 -0.011220061 5.8495734e-05 -0.0027732002 0.0018109375
0.0033667947 -0.0033472518 0.0017262085 0.0024096826 -0.004202551 -0.002360844 -0.0032723106 0.0018605078
0.0045867693 0.001478298 -0.008222568 -0.002926526 -0.0018739143 -0.0016328136 -0.003794679 -0.0068677654
0.0035032714 -0.0046344763 -0.0033698243 0.004331883 0.0054930015 0.0031395466 -0.0059911455 -0.0019788481
0.0013628084 -0.004399896 -0.00013105222 0.0013041943 -0.001944434 0.0036692955 -0.005652066 -0.00010518589
0.0024683017 -0.0048146346 0.002119983 0.001435729 0.0034873278 -5.9272646e-05 0.0021714172 -0.0022887276
-0.006010783 -0.0049154167 6.4912833e-06 0.003851912 0.0059736967 -0.00064300664 0.0045196316 0.0024992283
0.002168416 -0.0044493903 0.008272035 0.0022503673 0.0008849054 -3.322031e-05 -0.012067253 0.0017025498
-0.0066920063 -0.0015522083 -0.0016747812 -0.002271378 -0.005709325 -0.002042429 -0.0015806239 0.0026523843
0.006490811 -0.0002512156 -0.005985415 0.0014170631 -0.00069194334 -0.0012476892 -0.0032822785 -0.0022772606
-0.0028963173 -0.0055553433 0.0030843152 0.0051571284 0.003948168 -0.0065291626 -0.0027942797 -0.0020097506
-0.0010720975 -0.0028641464 -0.004530752 -0.0061690356 -0.0017928533 -0.0003416461 0.0044637984 0.002496967
-0.0046942 -0.0048346235 -0.00617498 0.0018580246 -0.006683537 0.0020782214 -0.0012495522 0.0014809335
-0.0051260157 0.0032300146 0.00069770485 -0.005519793 0.005034359 0.009392274 -0.0018708311 -0.000831238
-0.004417253 -0.012865322 -0.0012882422 -0.0038136756 -0.002669835 -0.004668472 0.0009748503 0.0027348492
-0.0021102245 0.0037353477 0.0076380256 -0.0056120707 -0.0011525578 0.0012973183 -0.0050993697 -0.0027672763
0.0027294552 -0.0072334255 0.0053992285 -0.008133685 -0.008640265 -0.0050700125 0.0020602092 -0.0022560807
-0.0030431475 -0.0017102625 -0.0074872863 0.0038752868 0.009715889 -0.0015036358 -0.003924844 -0.00044529288
0.0014538469 -0.002702593 -0.0023279472 -0.00053178536 -0.0030251332 -0.0047708275 -0.0038761091 -0.005636219
-0.0047162944 0.0055610547 -0.009639277 0.000819613 0.0026879997 -0.0003936077 -0.0017829491 -0.006027641
-0.005750946 0.004740583 0.0017541058 -0.002108904 -0.0030008093 0.0047081267 -0.004150039 0.001232566
-0.008408033 -0.0020249782 -0.00013269433 -0.0052512866 0.004246804 0.0010328615 -0.0029872404 -0.0022416222
0.0070202863 0.0030291453 -0.0023307223 0.0108548 0.00097155693 0.0049849274 0.0007359361 0.0071586347
-0.0006287639 0.0008789343 0.0057866937 9.69103e-05 -0.0014423801 0.0010356321 -0.008098331 -0.004195959
0.004841374 -0.005491913 0.0019291512 -0.0019953065 -0.0021822506 0.0009965891 -0.003324685 -0.0059509734
00000000: 0a9a 4cba b770 d138 6dae f7ba f636 673b
00000010: 5fdb 2b3b b3c6 22bc 2e52 6a3a cb20 70bb
00000020: 6af1 27bc 8dfa 96bb f090 f13b a10e 8a3b
00000030: e146 99bb 16af 273b 3dd1 bbbb 5570 d63a
00000040: d5f3 6ebb e9b4 9cbb c1dc 41bb 266e 2bbb
00000050: 4391 663b b9ee 473b bc7b 7fbb abd4 033c
00000060: 85a3 dd3b 6162 14bb aa1f 56bb c7f3 c53a
00000070: 4c76 c9bb 1489 cabb 768c 433b 0683 28bb
00000080: 186f 35bb 7c19 d9bb 9b7a 21ba a5f7 9bbb
00000090: 4a52 7c3b 0078 513c 0649 40bb cbeb dcbb
000000a0: b6ea 81b8 fec2 da3b f27f 443b 3c05 a6bb
000000b0: 76bc 173a 8f19 17bc c68e 73bc 2ea4 28bb
000000c0: 41d4 95bb 8203 be3b 9717 d5bb 3831 893b
000000d0: b761 2d3a 987b b639 981f f339 49c3 a8bb
000000e0: 50e4 a6bb ab59 92bc 4d8d 443b a8d1 c63b
000000f0: 59d4 37bc 5159 7538 94be 35bb fb5c ed3a
00000100: 71a5 5c3b 915d 5bbb f241 e23a c4eb 1d3b
00000110: 8eb5 89bb 64b8 1abb 4374 56bb 48dc f33a
00000120: 9c4c 963b 73c3 c13a f3b7 06bc f5ca 3fbb
00000130: 219e f5ba 2204 d6ba 26b0 78bb fe0a e1bb
00000140: 2497 653b cedc 97bb 45d8 5cbb 78f2 8d3b
00000150: a3fe b33b dac0 4d3b 5f51 c4bb 90af 01bb
00000160: 43a0 b23a 012d 90bb 106b 09b9 80f1 aa3a
00000170: 61dc feba 9078 703b f734 b9bb 3f97 dcb8
00000180: 3bc3 213b 15c4 9dbb 6aef 0a3b 122f bc3a
00000190: a78b 643b 859b 78b8 564e 0e3b 7afe 15bb
000001a0: 1af6 c4bb 8111 a1bb b3cf d936 5c70 7c3b
000001b0: 00bf c33b 728f 28ba 6b19 943b 18ca 233b
000001c0: fc1b 0e3b 31cc 91bb 6e87 073c e67a 133b
000001d0: fff8 673a 0956 0bb8 bab5 45bc 1728 df3a
000001e0: 9e48 dbbb 7873 cbba 5584 dbba 66db 14bb
000001f0: 4a15 bbbb 46da 05bb f02c cfba a0d3 2d3b
00000200: deb0 d43b 96b5 83b9 4d21 c4bb bfbc b93a
00000210: 8863 35ba 8189 a3ba 7f1b 57bb 183e 15bb
00000220: 24d0 3dbb 9909 b6bb 3922 4a3b 21fd a83b
00000230: a25f 813b 96f2 d5bb 3c20 37bb 05b6 03bb
00000240: 9f85 8cba 67b4 3bbb b476 94bb 9f25 cabb
00000250: 2dfe eaba f71e b3b9 0e45 923b 28a4 233b
00000260: ced1 99bb c36b 9ebb 7d57 cabb f688 f33a
00000270: 9201 dbbb c532 083b 04c8 a3ba e21b c23a
00000280: 23f8 a7bb a7ae 533b 2ee6 363a 61df b4bb
00000290: 44f7 a43b 0de2 193c ad36 f5ba 70e7 59ba
000002a0: 9bbe 90bb 12c9 52bc 3cda a8ba dcee 79bb
000002b0: 66f8 2ebb fbf9 98bb 198d 7f3a 283b 333b
000002c0: b14b 0abb bccc 743b 6748 fa3b 76e5 b7bb
000002d0: 6c11 97ba c70a aa3a 9d18 a7bb 315b 35bb
000002e0: a9e0 323b 5f06 edbb 03ec b03b 2643 05bc
000002f0: e68f 0dbc 5922 a6bb 9304 073b c1da 13bb
00000300: 8b6f 47bb e32a e0ba e957 f5bb 86f8 7d3b
00000310: 642f 1f3c a515 c5ba fa9b 80bb 3376 e9b9
00000320: 028f be3a fd1d 31bb 7990 18bb 8367 0bba
00000330: 5041 46bb 9a54 9cbb 5206 7ebb 08b0 b8bb
00000340: 258b 9abb 8239 b63b 0fee 1dbc 4cdb 563a
00000350: 2729 303b 225d ceb9 d8b1 e9ba 8483 c5bb
00000360: 6e72 bcbb e456 9b3b 06ea e53a 8a35 0abb
00000370: 3aa9 44bb a146 9a3b 0dfd 87bb 0d8e a13a
00000380: d9c1 09bc 7fb5 04bb dd23 0bb9 fc12 acbb
00000390: c628 8b3b 1561 873a 94c5 43bb 2ee8 12bb
000003a0: 6e0a e63b a084 463b 08bf 18bb 55d8 313c
000003b0: 15b0 7e3a 9a58 a33b d6eb 403a fb92 ea3b
000003c0: a2d3 24ba 4868 663a 4e9e bd3b 523c cb38
000003d0: 3f0e bdba 0cbe 873a ddae 04bc 417e 89bb
000003e0: 63a4 9e3b 81f5 b3bb 93db fc3a b0c3 02bb
000003f0: 1704 0fbb fb9f 823a f5e2 59bb 6200 c3bb

network_body._body_endoder.seq_layers.4.weight f4 [256, 256]
0.070846006 0.057454485 0.04600385 0.045304164 -0.008160184 0.050685346 -0.10664399 -0.08828607
-0.046620376 0.04001608 0.006685733 -0.058699716 -0.004441147 -0.035783943 -0.018688733 -0.032207876
0.055621997 0.03260242 0.0006462186 -0.03075111 0.13036868 -0.1298846 -0.08254088 0.0483017
-0.052958123 -0.042138405 0.00030891885 0.0018824335 -0.04555466 0.00044562342 0.11487975 0.0066567897
-0.032136388 -0.17998506 0.005950029 -0.0069497013 -0.12126745 -0.06761366 0.015973708 -0.058416177
0.031099536 -0.08159334 0.031312294 0.033696115 0.027085355 -0.049650684 0.03703219 -0.010728482
-0.013179329 0.019579966 0.025168274 0.0814151 0.006055985 -0.043530155 -0.100478396 0.013445748
0.031554103 -0.04484258 -0.045711394 0.02742117 0.056645792 -0.023886144 0.027711656 -0.04883703
0.05265013 -0.0018379383 0.10644831 -0.09597493 0.087907024 -0.05329852 -0.05318084 -0.09426519
-0.012870558 0.05908961 -0.044726737 -0.08017969 0.15063979 -0.0034892338 -0.032916356 -0.043010373
0.0065545714 -0.04381488 0.002931698 0.08526615 -0.030169148 0.007910123 0.050764382 0.032053765
0.098492436 -0.01548455 0.04731284 0.009076491 -0.13623443 -0.0011828939 -0.1037555 -0.017806511
0.022939112 0.07299718 0.18082778 0.07912415 -0.03693253 -0.033538226 -0.053615507 0.07615021
0.008383105 0.0014447443 -0.111151084 -0.057961926 0.026517339 -0.14500473 0.017290603 0.04323294
-0.07329942 0.00057342806 0.028355947 0.007513322 0.024047507 0.067853875 0.025864791 0.049861908
-0.06540418 0.050934337 0.06214777 -0.011870269 0.02534115 -0.055461016 0.01134149 -0.009849405
-0.095764905 -0.11532479 -0.101757035 0.031714775 -0.07013541 0.06617286 0.02959646 0.02182187
0.0033317148 -0.047799677 0.035451613 -0.03747154 0.026611969 -0.022280432 -0.0076249973 0.07677327
0.04201187 -0.118010014 -0.14510939 -0.07666623 -0.09152317 0.065398544 0.005532975 0.053409982
-0.01408003 -0.091470085 0.07848622 -0.041874677 -0.017221896 -0.16356602 -0.124369524 -0.086581506
-0.051285706 0.087822974 0.06476588 0.019161051 -0.025253817 0.039775904 -0.047014866 0.004122501
0.11699692 -0.08026468 0.02051904 0.089008294 0.03478953 0.053763036 -0.007734284 -0.029972414
-0.056771174 -0.056947052 0.045413 -0.09006033 -0.067111574 0.013686771 0.07990163 0.09645254
0.033722755 0.02009121 -0.034787923 -0.09344275 0.01596783 -0.10059928 -0.087033734 0.13892764
-0.0274005 0.04145537 -0.028688308 -0.050493278 -0.051394608 -0.024333427 0.09011831 0.081511065
0.015174094 -0.014397409 0.029464243 -0.12088669 -0.02326758 0.050222907 -0.029783035 -0.0269069
-0.0120558 -0.032848403 0.10849222 0.055984564 0.0042837793 0.022459198 -0.0004099093 -0.026743133
-0.079030134 0.015024485 0.0032245119 -0.06919671 0.05766239 -0.098565646 -0.061283115 -0.014891843
0.013237784 -0.018384889 -0.11272847 -0.02320433 0.088295944 -0.04408695 0.014304192 0.09102395
0.08058099 0.05470642 -0.05875996 0.017196199 0.073994584 0.09516945 -0.018879358 -0.00090849254
0.004904275 0.019785479 -0.008660783 -0.09429525 -0.06895727 -0.0415131 0.014397948 -0.0038811872
0.027381608 0.015706051 -0.035658795 0.092371844 0.08401403 -0.03174431 0.004843182 0.00053643633
00000000: b617 913d 6555 6b3d 886e 3c3d dc90 393d
00000010: 4bb2 05bc 709b 4f3d 2a68 dabd 54cf b4bd
00000020: 02f5 3ebd e7e7 233d fe13 db3b 1d6f 70bd
00000030: 0b87 91bb 2f92 12bd 1d19 99bc 68ec 03bd
00000040: e4d3 633d 1d8a 053d ff66 293a c0e9 fbbc
00000050: 5e7f 053e 7800 05be 310b a9bd 01d8 453d
00000060: 9eea 58bd 5299 2cbd 63f6 a139 fdbb f63a
00000070: 8697 3abd 90a2 e939 1346 eb3d 3321 da3b
00000080: 72a1 03bd 014e 38be 76f8 c23b 52ba e3bb
00000090: 125b f8bd 0879 8abd 4bdb 823c cd45 6fbd
000000a0: 74c4 fe3c 691a a7bd 5241 003d f004 0a3d
000000b0: 1be2 dd3c 845e 4bbd 11af 173d 84c6 2fbc
000000c0: 1dee 57bc 2a66 a03c b22d ce3c f6bc a63d
000000d0: 4971 c63b ad4c 32bd 9ec7 cdbd 8e4b 5c3c
000000e0: e03e 013d daac 37bd df3b 3bbd 5da2 e03c
000000f0: 6b05 683d e0ac c3bc 8e03 e33c 5609 48bd
00000100: aaa7 573d fae6 f0ba 9201 da3d 818e c4bd
00000110: 9908 b43d 8d4f 5abd 27d4 59bd 1c0e c1bd
00000120: 08df 52bc f207 723d 6233 37bd 4035 a4bd
00000130: 5141 1a3e a1ab 64bb 4dd3 06bd a52b 30bd
00000140: bbc7 d63b 3b77 33bd bb21 403b 05a0 ae3d
00000150: 4a25 f7bc 7699 013c 50ee 4f3d cf4a 033d
00000160: 67b6 c93d e9b2 7dbc 1ccb 413d 90b5 143c
00000170: 0a81 0bbe 550b 9bba c37d d4bd f6de 91bc
00000180: ceea bb3c 8c7f 953d eb2a 393e d80b a23d
00000190: 9146 17bd 615f 09bd ef9b 5bbd a4f4 9b3d
000001a0: 4a59 093c 935d bd3a 2ea3 e3bd 7c69 6dbd
000001b0: e43a d93c 1f7c 14be 06a5 8d3c 0615 313d
000001c0: 021e 96bd 1b52 163a bb4a e83c 5032 f63b
000001d0: 47ff c43c f9f6 8a3d 66e2 d33c 003c 4c3d
000001e0: a0f2 85bd 86a0 503d a98e 7e3d 847b 42bc
000001f0: 3e98 cf3c 172b 63bd a8d1 393c 665f 21bc
00000200: 6420 c4bd 672f ecbd fe65 d0bd 5ae7 013d
00000210: 27a3 8fbd a385 873d 4674 f23c c7c3 b23c
00000220: e658 5a3b 98c9 43bd b635 113d c27b 19bd
00000230: 5801 da3c 7485 b6bc 1ddb f9bb 4e3b 9d3d
00000240: a314 2c3d 3caf f1bd 8e97 14be 2f03 9dbd
00000250: 8070 bbbd acef 853d f54d b53b 6dc4 5a3d
00000260: edaf 66bc ab54 bbbd 62bd a03d c884 2bbd
00000270: ef14 8dbc da7d 27be 73b5 febd a551 b1bd
00000280: f610 52bd 88dc b33d f9a3 843d a3f7 9c3c
00000290: 18e1 cebc 0fec 223d a992 40bd 0b16 873b
000002a0: 159c ef3d cf61 a4bd 8c17 a83c fb49 b63d
000002b0: 777f 0e3d a136 5c3d e06f fdbb b588 f5bc
000002c0: e488 68bd 5041 69bd fb02 3a3d 8d71 b8bd
000002d0: cb71 89bd 7a3e 603c 77a3 a33d e988 c53d
000002e0: df20 0a3d 5296 a43c c87d 0ebd ea5e bfbd
000002f0: f7ce 823c ff06 cebd be3e b2bd 0c43 0e3e
00000300: 0377 e0bc 1bcd 293d be03 ebbc 0ad2 4ebd
00000310: 2783 52bd e556 c7bc f38f b83d 46ef a63d
00000320: c39c 783c 1ce3 6bbc ff5e f13c 7193 f7bd
00000330: a79b bebc 89b6 4d3d 8dfb f3bc dc6b dcbc
00000340: b185 45bc 0c8c 06bd 2b31 de3d 1250 653d
00000350: f25e 8c3b 5afc b73c 18e9 d6b9 6a14 dbbc
00000360: 8dda a1bd 4229 763c 5552 533b 01b7 8dbd
00000370: 662f 6c3d c9dc c9bd 0104 7bbd ebfc 73bc
00000380: 4ae3 583c e89b 96bc 2fde e6bd 0217 bebc
00000390: 81d4 b43d 8594 34bd 215c 6a3c c46a ba3d
000003a0: a507 a53d d713 603d 49ae 70bd 0bdf 8c3c
000003b0: 798a 973d 33e8 c23d e2a8 9abc e727 6eba
000003c0: 0ab4 a03b 2815 a23c f5e5 0dbc de1d c1bd
000003d0: 7839 8dbd a409 2abd 5fe5 6b3c 845b 7ebb
000003e0: 654f e03c faa9 803c f50e 12bd 732d bd3d
000003f0: 8c0f ac3d 5206 02bd 8eb3 9e3b a29f 0c3a

network_body._body_endoder.seq_layers.4.bias f4 [256]
0.004534074 -0.0034811543 0.0028913675 -0.0027199502 0.0044010263 0.004184121 -0.004377344 0.00038370132
0.00059425726 0.0027866797 -0.0004293276 0.0038143792 -0.0023577355 -0.0045277043 0.0062303967 -6.5278575e-05
-0.004580217 -0.002867524 -0.0047833873 -0.0036401616 0.0030953186 0.0019861294 -0.003447088 0.00124389
-0.003275282 0.0017523279 -0.00051437557 -0.004876082 -0.004601171 0.002143293 -0.003269013 -0.0016316642
-0.004703014 0.0031699203 0.004809029 0.0010637651 -0.004200469 0.0013995948 -0.0035978397 -0.002821605
-0.00217731 0.004846738 0.0012108444 0.002554973 -0.0019346136 -0.00065115606 0.0014833509 0.004433113
-0.004890523 -0.0035420747 -0.0028578553 0.0041222875 -0.0005410194 -0.0012631492 0.0023964306 0.0022811615
-0.001878242 0.0021750822 -0.005269482 -0.007851745 -0.0054015024 -0.0043892725 -0.0027068772 0.006564822
-0.00066215685 0.00032446146 -0.0011189325 -0.0007549818 -0.001682956 0.0033359665 -0.0032856865 -0.0036202958
-0.0005060088 -0.0040729246 -0.002881401 0.0008086708 -0.005505917 -0.002558619 0.0036823144 0.00054983457
0.0004303759 0.000935787 0.002143465 0.0023272198 -0.00094233215 -0.0015027105 -0.0060604475 0.004694222
0.0026338913 -0.0054885056 0.00020479264 0.003327772 0.003297061 0.0007309742 0.0054354165 0.0057774642
-0.0036428368 -0.0038764013 0.0017233733 0.0040236 -0.0030618631 0.0020417073 -0.005336433 -0.0053083533
-0.0044484646 -0.004984476 0.0037360578 0.0023763797 0.0051336274 0.0036479875 0.0041188383 -0.00045768963
-0.0052474295 -0.005464406 -0.0012441835 -0.0051869173 -0.00568679 0.0026789368 -0.0025294505 0.0074745035
-0.002552262 0.00049746915 0.0010847384 0.00058293197 0.0011328062 -0.002929087 -0.004448934 0.00017149943
0.0013531373 -0.0043244245 0.001186879 0.00085402967 0.0030050005 0.010717975 0.0019612024 -0.0038453166
-0.0019669223 0.00049405923 -7.197229e-05 0.0032530217 -0.0060616364 0.00083610555 -0.008565706 -0.0009850045
0.004898115 -0.0040789437 0.0018774075 0.0028637426 0.0014894895 -0.0002898787 -0.0011288809 0.000387348
-0.0011067655 -0.003995018 -0.003684947 0.002147966 0.003265977 -0.0039486727 -0.0043805614 0.0010956306
-0.0005459532 0.0034397328 -0.0055869995 -0.00014580057 -0.0035714323 -0.0045329942 0.0013261399 0.0018042017
0.0031240804 0.0049336078 0.00083060865 0.0015509599 0.0044274675 -0.001252832 -0.0036021778 -0.0016479951
-0.0007987892 -0.0016872619 0.003404944 -0.0028420484 -0.001896286 0.0008277503 -0.0034444528 0.0036689022
-0.0035632364 -0.0035384616 0.003577711 0.0038812032 -0.0008336533 -0.0026087412 -0.0043534474 -0.0031069962
-0.0051552663 -0.0031811788 0.0012137422 0.0027355289 -0.0034072218 -0.0033515664 0.0029361234 0.0027298003
-0.0046314867 -0.0049213246 -0.0025707064 0.0065984908 -0.0067436122 -0.0015508676 0.0010214882 -0.0041554053
-0.004977751 -0.0053569465 0.0012589309 0.00413948 -0.003049845 -0.002323911 0.007088469 -0.005738209
0.005465404 0.004122484 -0.0055967844 -0.003977764 -0.0004278907 -0.0059795156 0.00019236555 0.0039342786
-0.0029112636 0.006062648 0.0011875946 0.0032146901 -0.005155056 -0.002739726 0.0045364075 -0.0014358464
-0.004823418 0.003468934 -0.0017909834 0.0035351284 0.0008453296 -0.0024910374 0.00045692775 -0.0057738475
0.00290372 7.761798e-05 -0.0054266653 0.0009692644 0.0023350096 0.003102214 -0.0023630792 0.001009113
-0.0037062345 0.0015294583 -0.0018802129 0.003583125 0.002436002 -0.0049752756 -0.001168794 -0.004399422
00000000: 9292 943b 1424 64bb 197d 3d3b 3141 32bb
00000010: 7c36 903b f31a 893b d36f 8fbb 852b c939
00000020: eec7 1b3a baa0 363b 6017 e1b9 aafa 793b
00000030: 3d84 1abb 235d 94bb 5b28 cc3b 2be6 88b8
00000040: a515 96bb 12ed 3bbb f6bd 9cbb c78f 6ebb
00000050: d4da 4a3b b929 023b 8ae8 61bb 060a a33a
00000060: 1da6 56bb 5eae e53a 29d7 06ba 8ac7 9fbb
00000070: 6bc5 96bb 7d76 0c3b f03c 56bb 91dd d5ba
00000080: be1b 9abb 70be 4f3b 0f95 9d3b 096e 8b3a
00000090: 16a4 89bb 9c72 b73a bcc9 6bbb adea 38bb
000000a0: 33b1 0ebb 63d1 9e3b 32b5 9e3a 5571 273b
000000b0: dc92 fdba 58b2 2aba ff6c c23a a643 913b
000000c0: ae40 a0bb 2722 68bb db4a 3bbb 4114 873b
000000d0: 33d3 0dba 4190 a5ba 6f0d 1d3b 8a7f 153b
000000e0: 582f f6ba d38b 0e3b 9eab acbb 9ba4 00bc
000000f0: 16ff b0bb e3d3 8fbb dd65 31bb b81d d73b
00000100: 9894 2dba 7b1c aa39 25a9 92ba f9e9 45ba
00000110: a296 dcba 3ba0 5a3b ac54 57bb 7c42 6dbb
00000120: ada5 04ba 2b76 85bb e3d5 3cbb fbfc 533a
00000130: fb6a b4bb 81ae 27bb fc52 713b c622 103a
00000140: 13a4 e139 9a4f 753a 6079 0c3b 4584 183b
00000150: d706 77ba 99f6 c4ba b896 c6bb fdd1 993b
00000160: 5d9d 2c3b ecd8 b3bb 9bbd 5639 c016 5a3b
00000170: 8113 583b d99e 3f3a 941b b23b e250 bd3b
00000180: a9bc 6ebb 390b 7ebb d0e2 e13a 67d8 833b
00000190: 8aa9 48bb 2ace 053b 3fdd aebb b2f1 adbb
000001a0: 6dc4 91bb d154 a3bb a6d8 743b 09bd 1b3b
000001b0: fd37 a83b 1313 6f3b 52f7 863b 10f6 efb9
000001c0: a1f2 abbb c30e b3bb df13 a3ba 04f7 a9bb
000001d0: 4158 babb 1a91 2f3b 23c5 25bb aeec f43b
000001e0: da43 27bb 9768 023a c82d 8e3a e7cf 183a
000001f0: ab7a 943a edf5 3fbb 5dc8 91bb 87d4 3339
00000200: c15b b13a e7b3 8dbb 0d91 9b3a f6e0 5f3a
00000210: 8bef 443b 729a 2f3c 8487 003b b501 7cbb
00000220: 7be7 00bb c183 013a d4ef 96b8 a630 553b
00000230: b1a0 c6bb 182e 5b3a 2d57 0cbc 441b 81ba
00000240: 5e80 a03b a9a8 85bb 5813 f63a a1ad 3b3b
00000250: f93a c33a dcfa 97b9 f5f6 93ba f814 cb39
00000260: e310 91ba a4e8 82bb 277f 71bb e4c4 0c3b
00000270: 000a 563b de63 81bb d08a 8fbb 439b 8f3a
00000280: 4d1e 0fba 246d 613b 2613 b7bb 0be2 18b9
00000290: b10e 6abb 8389 94bb dfd1 ad3a f77a ec3a
000002a0: 5fbd 4c3b 1aaa a13b 34bd 593a 9449 cb3a
000002b0: 4a14 913b 1136 a4ba 8412 6cbb 8a01 d8ba
000002c0: d665 51ba 1d27 ddba 7b25 5f3b a941 3abb
000002d0: cd8c f8ba 62fd 583a 54bc 61bb f771 703b
000002e0: 3085 69bb 89e5 67bb 0878 6a3b c95b 7e3b
000002f0: 8789 5aba 6af7 2abb 5da7 8ebb bf9e 4bbb
00000300: 82ed a8bb 537b 50bb 6e16 9f3a 8f46 333b
00000310: b24b 5fbb f4a5 5bbb fa6b 403b 73e6 323b
00000320: bac3 97bb 1043 a1bb 4c79 28bb 2738 d83b
00000330: 85f9 dcbb 7b46 cbba 75e3 853a 112a 88bb
00000340: 671c a3bb 5389 afbb b602 a53a 7aa4 873b
00000350: e9df 47bb c24c 18bb 6346 e83b 9607 bcbb
00000360: 2217 b33b e715 873b 3b65 b7bb e757 82bb
00000370: 8556 e0b9 d0ef c3bb bcb5 4939 1feb 803b
00000380: e6ca 3ebb 2da9 c63b 10a9 9b3a 8dad 523b
00000390: beeb a8bb fa8c 33bb 25a6 943b 0333 bcba
000003a0: c30d 9ebb 0e57 633b 6ebf eaba 9dad 673b
000003b0: 1c99 5d3a ac40 23bb ce8f ef39 8b32 bdbb
000003c0: 564c 3e3b d6c6 a238 2bd2 b1bb 3c16 7e3a
000003d0: f606 193b 844e 4b3b e4dd 1abb 3744 843a
000003e0: 4ce4 72bb 1b78 c83a 7a71 f6ba ddd2 6a3b
000003f0: 55a5 1f3b a307 a3bb 3832 99ba 0729 90bb

action_model._continuous_distribution.log_sigma f4 [1, 2]
0.0035672062 -0.0031854147
00000000: cac7 693b 64c2 50bb

action_model._continuous_distribution.mu.weight f4 [2, 256]
0.015785417 -0.0007810316 0.008689925 -0.0056035724 0.026210647 0.010410676 -0.007898308 0.0025024987
0.01698983 -0.005703168 -0.009456492 0.01294515 -0.0009546911 -0.0026456846 0.0049813464 -0.0009890829
-0.0061893724 -0.002614433 -0.0066720243 -0.01309639 0.0012423767 0.024748813 0.0097293435 0.003222508
-0.0076516788 -0.007870127 0.0027904355 -0.011509124 -0.015722461 0.010135827 0.0078090923 -0.00012555515
-0.013677607 -0.0062916763 0.005131219 -0.001311921 -0.025655013 -0.012807716 -0.006032964 0.005569854
-0.013695243 0.008124416 0.0027973647 0.0059092715 0.003876933 -0.0027853854 -0.0032853207 -0.00047108484
-0.007310157 -0.003741978 -0.00020047098 0.009200345 0.0024160978 0.006979493 0.0023764872 0.0047392445
-0.0064154863 0.006000785 -5.545341e-05 -0.0011509152 -0.005854831 -0.01685511 0.0005325411 0.0010080091
-0.023586337 0.030501135 -0.011758924 -0.006398212 -0.0003414569 0.012941505 -0.02027658 0.00060986175
0.009983043 -0.015188401 0.0069840164 -0.0050194017 -0.0064788735 -0.00098602 0.016968833 -5.1500883e-05
-0.00059662183 -0.024751538 -0.020932157 -0.003612475 -0.003125764 -0.0046738377 -0.011047223 0.008337086
0.015278633 -0.0047146576 0.023344152 0.006669582 0.01821865 -0.012775887 0.011238265 0.0016766654
-0.02151922 -0.008019428 -0.004420771 0.026421653 0.005981908 -0.0030874878 -0.014406902 -0.013654673
0.0007958584 -0.010116595 0.0133041 0.006019976 0.0058441632 -0.0119917365 -0.01418925 0.0041068033
-0.006407522 0.0011012288 -0.0371175 -0.006884421 -0.006465607 0.011787978 0.0017978149 0.0033505543
-0.026829688 0.020314557 0.009759304 0.0033160136 0.009075145 -0.005244515 -0.01622146 0.010958729
-0.0062321774 -0.016324423 0.014365493 0.010233543 0.014296917 0.00035718337 0.018555809 -0.021120818
-0.029909262 -0.0012635568 -0.008394784 0.0022000684 0.0003628317 -7.8166224e-05 -0.0073835873 0.009152241
0.020454112 -0.035031956 -0.0010729444 0.002758095 -0.0006195809 0.0152820395 0.016200079 0.00024786778
0.023494257 -0.014622646 -0.011577071 0.015414405 0.01871966 -0.018378234 0.006387955 -0.0041141156
-0.017135346 0.017947827 -0.003387772 0.0063722464 -0.0019048413 -0.007923065 0.013293617 -0.004917337
0.0063707875 0.0009406623 0.009704333 -0.0068519963 0.0033066506 -0.015107132 0.0005334931 -0.014363043
0.0034445873 0.008957367 0.008801895 0.00934203 -0.014644728 0.004442461 -0.012220603 0.0105188275
-0.011992992 -0.0020771748 0.004459997 0.006647149 0.016816461 -6.134026e-05 -0.0117488485 -0.007237365
2.0123438e-05 -0.008424603 0.0006155234 0.0063600778 -0.018954616 -0.025812903 0.0095930295 0.016688352
-0.0022590093 -0.013455931 -0.014740668 0.011046524 -0.0050383257 -0.013425256 0.0077901455 -0.018880267
-0.006906269 -0.009040568 0.017473953 -0.0029223203 0.0022300913 -0.008600064 0.0027278515 -0.011806781
0.013556551 0.0005993984 -0.02744224 -0.000403928 0.008288972 -0.0072963657 -0.009791553 0.004457635
0.0010960306 0.016221909 0.011158465 0.011417793 0.0012580628 -0.0047928835 0.008779612 0.0027406076
-0.009270901 0.011009184 -0.009470741 0.035449956 0.033030815 -0.015679203 0.008611519 -0.005421195
0.016860941 -0.01563284 -0.007884113 0.00906242 -0.0046969047 0.027882326 -0.025292313 0.0043162205
0.0024769967 0.010175505 0.009148283 0.0183851 0.01748234 -0.012031666 0.003280859 -0.006381904
00000000: 6b50 813c 25be 4cba 3060 0e3c 2c9e b7bb
00000010: b6b7 d63c 8a91 2a3c e867 01bc f600 243b
00000020: 422e 8b3c a4e1 babb 67ef 1abc e517 543c
00000030: 3c44 7aba 3963 2dbb 903a a33b 1da4 81ba
00000040: 38d0 cabb e856 2bbb ffa0 dabb 3e92 56bc
00000050: 3fd7 a23a 06be ca3c d367 1f3c b630 533b
00000060: efba fabb b5f1 00bc bddf 363b c490 3cbc
00000070: 64cc 80bc bd10 263c 6ae3 ff3b 74a7 03b9
00000080: 0b18 60bc 682a cebb c923 a83b c4f4 abba
00000090: 762a d2bc 74d7 51bc 2cb0 c5bb 5283 b63b
000000a0: 0362 60bc 451c 053c fe53 373b 90a2 c13b
000000b0: 2414 7e3b 038b 36bb 894e 57bb f0fb f6b9
000000c0: 0b8a efbb f93b 75bb 8535 52b9 0bbd 163c
000000d0: 6557 1e3b 3bb4 e43b d7be 1b3b aa4b 9b3b
000000e0: 0039 d2bb 3ca2 c43b a596 68b8 4eda 96ba
000000f0: e2d9 bfbb ba13 8abc 3a9a 0b3a 2c1f 843a
00000100: 2238 c1bc 84dd f93c 81a8 40bc 18a8 d1bb
00000110: 9205 b3b9 9b08 543c 121b a6bc 21df 1f3a
00000120: eb8f 233c c5d8 78bc 2dda e43b cb79 a4bb
00000130: bb4c d4bb 573d 81ba 3902 8b3c a702 58b8
00000140: 9d66 1cba bdc3 cabc ea79 abbc 46bf 6cbb
00000150: 9ed9 4cbb fe26 99bb 69ff 34bc 4698 083c
00000160: 3b53 7a3c 6a7d 9abb 3c3c bf3c 828c da3b
00000170: 473f 953c f451 51bc b320 383c 8ec3 db3a
00000180: 1349 b0bc eb63 03bc 1ddc 90bb 3972 d83c
00000190: e203 c43b 7357 4abb ed0a 6cbc d9b7 5fbc
000001a0: 27a1 503a 13c0 25bc 71f9 593c 3843 c53b
000001b0: 6580 bf3b fd78 44bc 077a 68bc 5d92 863b
000001c0: 31f6 d1bb 1b57 903a 8508 18bd b696 e1bb
000001d0: 71dd d3bb 5d22 413c a8a4 eb3a f994 5b3b
000001e0: efc9 dbbc b76a a63c 7de5 1f3c 7a51 593b
000001f0: ebaf 143c 2eda abbb dee2 84bc 3e8c 333c
00000200: 4b37 ccbb ccba 85bc 3f5d 6b3c 97aa 273c
00000210: 9e3d 6a3c 5744 bb39 5a02 983c 9105 adbc
00000220: 4504 f5bc ee9d a5ba 478a 09bc 062f 103b
00000230: 723a be39 2ced a3b8 05f2 f1bb 48f3 153c
00000240: 628f a73c ab7d 0fbd 0aa2 8cba 28c1 343b
00000250: 5f6b 22ba 8561 7a3c 07b6 843c 40f4 8139
00000260: 0777 c03c d393 6fbc c1ad 3dbc b38c 7c3c
00000270: f959 993c f38d 96bc 0d52 d13b b4cf 86bb
00000280: 6d5f 8cbc 5207 933c 6205 5ebb 47ce d03b
00000290: deab f9ba becf 01bc 79cd 593c 9d21 a1bb
000002a0: 0ac2 d03b c796 763a ecfe 1e3c b686 e0bb
000002b0: 64b4 583b e783 77bc 1eda 0b3a f852 6bbc
000002c0: 96be 613b ecc1 123c d335 103c 500f 193c
000002d0: 71f0 6fbc 1092 913b ed38 48bc 2957 2c3c
000002e0: 417e 44bc 3621 08bb 2b25 923b 54d0 d93b
000002f0: adc2 893c cda3 80b8 3e7e 40bc 6b27 edbb
00000300: c1ce a837 5907 0abc 135b 213a 3368 d03b
00000310: b646 9bbc 9575 d3bc 152c 1d3c 03b6 883c
00000320: e30b 14bb 4476 5cbc d882 71bc 7bfc 343c
00000330: 8a18 a5bb 9bf5 5bbc 7a44 ff3b caaa 9abc
00000340: fc4d e2bb e41e 14bc 8925 8f3c 6684 3fbb
00000350: b926 123b 48e7 0cbc c1c5 323b 3b71 41bc
00000360: 4c1c 5e3c f220 1d3a 8cce e0bc 4cc6 d3b9
00000370: 78ce 073c 5a16 efbb c06c 20bc 5a11 923b
00000380: afa8 8f3a cfe3 843c ffd1 363c b211 3b3c
00000390: 95e5 a43a 9f0d 9dbb 5dd8 0f3c c49b 333b
000003a0: fae4 17bc dd5f 343c 2b2b 1bbc f933 113d
000003b0: 524b 073d ac71 80bc 5417 0d3c 48a4 b1bb
000003c0: f51f 8a3c 7110 80bc 5e2c 01bc 8b7a 143c
000003d0: 7ee8 99bb 7a69 e43c d331 cfbc 156f 8d3b
000003e0: 1c55 223b 29b7 263c aee2 153c 599c 963c
000003f0: 2037 8f3c 7720 45bc ae03 573b 4a1f d1bb

action_model._continuous_distribution.mu.bias f4 [2]
0.002677752 0.0025984782
00000000: 397d 2f3b 3b4b 2a3b

onnx::Div_56 f4 [6]
594.1454 49208.742 147.5495 3.455429 0.0022478579 3.4842446
00000000: 4e89 1444 be38 4047 ac8c 1343 c025 5d40
00000010: cc50 133b ddfd 5e40
