turretresults/turret_train_1/TurretShoot.onnx (onnx, 7427 bytes, 7 tensors)

network_body._body_endoder.seq_layers.0.weight f4 [20, 11]
-0.14924525 0.12702344 -0.08800665 -1.4921784 -0.31857935 0.29552504 0.30214152 0.22441073
-0.032515727 -0.0014261721 0.35233098 -0.545536 -0.16095796 0.2967734 1.1099684 0.17481695
-0.08334567 0.47930172 0.52720314 -0.10171377 -0.3745061 -0.058699198 0.1979239 -0.5678646
-0.27613804 -0.037602175 0.19539724 0.4811405 -0.010704858 0.030703682 0.2739994 -0.16504695
0.25000107 -0.28187165 0.26301637 -0.3540786 -0.19723244 0.36679047 0.05389534 0.11128368
0.022774678 -0.05361744 -0.017737158 0.36147767 0.4345306 -0.019944651 -0.6992838 -1.1172858
0.12903339 -0.05726462 -0.22641794 0.6792634 -0.44386405 0.06852619 0.094954975 -0.039478518
-0.8151328 0.12203115 -0.8181812 0.43188256 0.36100566 0.036606513 0.5488995 0.18376486
0.17157833 0.10429559 0.33088505 0.112774916 -0.5608469 0.4092714 -0.028012969 -0.6151096
-0.059300646 -0.25236243 -0.012020262 0.21792498 0.36052427 0.31282943 0.040213622 0.09691459
0.081962995 0.0075130463 -0.32721528 -0.3396721 0.098415956 0.4893207 -0.04993353 -0.09175671
0.31478533 0.47694638 0.075809926 -0.58221656 -0.12306248 -0.20890555 -0.17701024 -0.3036561
-0.15888092 -0.1605496 -0.1996132 0.37592262 0.37578684 -0.3331305 0.66531104 0.2211588
-0.36586317 -0.24198416 0.53920746 0.39527756 0.086923026 0.347352 0.2892056 0.2511538
-0.38346702 1.5457797 0.38674533 0.3937068 0.2478629 0.30408573 0.028679712 -0.16737968
0.17242274 0.16277929 0.073979646 0.3240876 0.8628121 0.45866817 0.018360937 0.08528981
-0.2690083 -0.046845265 0.34551394 0.07466167 -0.1470151 0.15059602 -0.4910168 -0.10300585
-0.4557574 -0.026803795 -0.3802589 0.13408685 0.9412133 0.2682276 0.28826895 0.3131832
-0.28695303 -0.40252927 -1.7378725 -0.13029125 0.48234692 0.23041058 0.5356371 -0.09385279
-0.2101467 0.5674559 0.49859402 -0.6612206 0.036418248 -1.33264 -0.0042221737 0.0027350832
-0.1104587 -0.1718565 0.36709544 0.75087404 0.46931008 -0.11520409 -0.29835394 -0.118829705
2.1740036 -0.2200275 0.46985388 -0.12885043 0.51371485 0.29044336 -0.06364729 0.0609978
-0.37844115 -0.037285138 -0.08593426 1.0403391 0.9949397 0.30032188 0.2704084 -0.12050476
0.2139069 0.055462327 -0.2791262 -0.042056985 -0.05592895 -0.0495035 1.0160762 0.054612145
0.2770672 0.5175092 -1.0556854 -0.0001373376 0.19409862 0.1859658 -0.2551534 0.00023446494
0.09338918 1.8060364 -0.3336072 0.26697236 0.7468241 -0.4571283 -0.2864023 0.22722048
0.63963246 -0.3326435 -0.07369877 0.118321404 -1.5896262 -0.67043674 -0.48339286 0.3594684
-0.17695612 -0.1214898 -0.019933922 0.069011785
00000000: bfd3 18be 6f12 023e d53c b4bd b4ff bebf
00000010: d51c a3be 0f4f 973e 4bb2 9a3e edcb 653e
00000020: 362f 05bd 65ee baba ba64 b43e 3fa8 0bbf
00000030: 2ad2 24be aff2 973e 7213 8e3f 3703 333e
00000040: 22b1 aabd 0967 f53e c9f6 063f 4f4f d0bd
00000050: 43bf bfbe 926e 70bd 90ac 4a3e 935f 11bf
00000060: f761 8dbe bd04 1abd 3716 483e 0c58 f63e
00000070: 6e63 2fbc 4a86 fb3c a649 8c3e 1102 29be
00000080: 2400 803e 7b51 90be 15aa 863e ca49 b5be
00000090: 4df7 49be f6cb bb3e 5cc1 5c3d b3e8 e33d
000000a0: f691 ba3c f69d 5bbd 844d 91bc 9a13 b93e
000000b0: cb7a de3e f762 a3bc 4304 33bf 3903 8fbf
000000c0: 5421 043e 4e8e 6abd 1bda 67be 35e4 2d3f
000000d0: 2642 e3be 7657 8c3d c177 c23d 3ab4 21bd
000000e0: 8bac 50bf 78eb f93d 5374 51bf b61f dd3e
000000f0: bcd5 b83e b6f0 153d ad84 0c3f db2c 3c3e
00000100: 3bb2 2f3e ed98 d53d c469 a93e 89f6 e63d
00000110: aa93 0fbf 058c d13e 747b e5bc d377 1dbf
00000120: 3ce5 72bd a635 81be a2f0 44bc ba27 5f3e
00000130: a396 b83e 2e2b a03e 0ab7 243d 287b c63d
00000140: 37dc a73d 0030 f63b c388 a7be 80e9 adbe
00000150: 4e8e c93d 3e88 fa3e 1a87 4cbd f1ea bbbd
00000160: 8b2b a13e 5132 f43e 3c42 9b3d 250c 15bf
00000170: 2e08 fcbd 56eb 55be 2c42 35be d078 9bbe
00000180: aeb1 22be 1d67 24be 6767 4cbe ee78 c03e
00000190: 2267 c03e 1590 aabe d351 2a3f 7477 623e
000001a0: 6b52 bbbe b2ca 77be 8009 0a3f d261 ca3e
000001b0: b304 b23d 1fd8 b13e c212 943e 3b97 803e
000001c0: ca55 c4be 1cdc c53f 7c03 c63e f093 c93e
000001d0: c6cf 7d3e 20b1 9b3e b7f1 ea3c 9465 2bbe
000001e0: 968f 303e 9daf 263e a482 973d cfee a53e
000001f0: 41e1 5c3f 8ed6 ea3e ad69 963c 6dac ae3d
00000200: 75bb 89be d2e0 3fbd 34e7 b03e 38e8 983d
00000210: 208b 16be d835 1a3e 8e66 fbbe bbf4 d2bd
00000220: 0959 e9be a293 dbbc 4bb1 c2be 104e 093e
00000230: 5bf3 703f 2155 893e fd97 933e 8c59 a03e
00000240: 82eb 92be 5118 cebe 9b72 debf 126b 05be
00000250: 2df6 f63e c0f0 6b3e 831f 093f e435 c0bd
00000260: b230 57be ca44 113f b747 ff3e c145 29bf
00000270: 4d2b 153d f393 aabf 295a 8abb 153f 333b
00000280: 2c38 e2bd 26fb 2fbe eff3 bb3e 4839 403f
00000290: 6949 f03e 1ff0 ebbd d9c1 98be fd5c f3bd
000002a0: e022 0b40 e44e 61be b090 f03e 5ef1 03be
000002b0: d182 033f feb4 943e 8359 82bd d4d8 793d
000002c0: 0ac3 c1be 4db8 18bd 4dfe afbd d529 853f
000002d0: 5eb4 7e3f cac3 993e f872 8a3e 33cb f6bd
000002e0: 690a 5b3e 772c 633d a1e9 8ebe f243 2cbd
000002f0: c115 65bd 2fc4 4abd c90e 823f fcb0 5f3d
00000300: c1db 8d3e 7c7b 043f b320 87bf 4802 10b9
00000310: cac1 463e d26d 3e3e 77a3 82be b4da 7539
00000320: d442 bf3d 332c e73f 90ce aabe 9ab0 883e
00000330: dd2f 3f3f b80c eabe 52a3 92be 7cac 683e
00000340: f4be 233f 4050 aabe 61ef 96bd 7e52 f23d
00000350: df78 cbbf bea1 2bbf 457f f7be 3e0c b83e
00000360: fc33 35be a5cf f8bd 774c a3bc 0d56 8d3d

network_body._body_endoder.seq_layers.0.bias f4 [20]
0.11951972 0.078506425 0.055034176 0.1590952 0.114120916 0.06447827 -0.16075665 -0.06742959
-0.07350066 -0.07813151 0.14990264 0.105403915 -0.06499159 0.10458936 0.05881346 0.06358608
0.10447093 0.14226417 0.094932236 0.029252036
00000000: c1c6 f43d fac7 a03d 846b 613d dae9 223e
00000010: 3ab8 e93d 2f0d 843d 649d 24be 8618 8abd
00000020: 8487 96bd 6a03 a0bd 1480 193e 02de d73d
00000030: 501a 85bd f232 d63d 62e6 703d 6b39 823d
00000040: dbf4 d53d b3ad 113e d56b c23d f7a1 ef3c

action_model._continuous_distribution.log_sigma f4 [1, 2]
-0.29765213 -0.009293297
00000000: dc65 98be ea42 18bc

action_model._continuous_distribution.mu.weight f4 [2, 20]
0.094532825 -0.023251522 0.0012389469 0.010070241 -0.0390258 0.038389415 0.009375485 0.0013680847
-0.009181199 0.008425442 -0.10964724 -0.027037578 -0.018338384 0.10883226 -0.046125885 -0.21828762
-0.017106151 -0.06166519 -0.04234757 0.13658378 -0.060589492 0.018805647 0.083529145 -0.07329024
0.011020846 0.010828122 0.032903913 0.008224391 0.022243677 0.0049298857 -0.015032539 -0.022337886
0.108714305 0.07866989 -0.035974793 0.012647609 -0.01929898 -0.061617795 0.01193766 0.107849374
00000000: 6d9a c13d fa79 bebc 2964 a23a a7fd 243c
00000010: 84d9 1fbd 383e 1d3d a29b 193c 4e51 b33a
00000020: bd6c 16bc dd0a 0a3c bb8e e0bd e97d ddbc
00000030: 613a 96bc 73e3 de3d 7fee 3cbd ca86 5fbe
00000040: 3322 8cbc a394 7cbd a574 2dbd 9edc 0b3e
00000050: b02c 78bd 4d0e 9a3c 5411 ab3d 3119 96bd
00000060: c790 343c 6f68 313c 41c6 063d 99bf 063c
00000070: 5f38 b63c e18a a13b 0a4b 76bc f1fd b6bc
00000080: 9ba5 de3d ae1d a13d 4e5a 13bd eb37 4f3c
00000090: e518 9ebc f162 7cbd 2d96 433c 22e0 dc3d

action_model._continuous_distribution.mu.bias f4 [2]
-0.005439288 -0.02846236
00000000: 0e3c b2bb e529 e9bc

action_model._discrete_distribution.branches.0.weight f4 [2, 20]
0.18341187 0.16522886 -0.17685401 0.23192827 -0.15226376 0.21373479 -0.170447 -0.15672936
-0.12447884 -0.1596945 -0.17204912 -0.12221076 -0.1782843 -0.15216866 -0.13721289 -0.15208803
0.14417322 0.19137311 0.14949086 0.14486507 -0.18111458 -0.15149947 0.14094076 -0.206572
0.18983488 -0.13724236 0.19651203 0.13275649 0.14921182 0.17438479 0.18156447 0.14336647
0.14516686 0.16284782 0.15209943 0.17667189 -0.18443489 -0.18398948 -0.1525033 -0.14875917
00000000: 52d0 3b3e c131 293e 3819 35be 9b7e 6d3e
00000010: 08eb 1bbe 4bdd 5a3e a989 2ebe a97d 20be
00000020: c3ee febd f486 23be a52d 30be a349 fabd
00000030: 2990 36be 1ad2 1bbe 8981 0cbe f7bc 1bbe
00000040: 25a2 133e 50f7 433e 2214 193e 8257 143e
00000050: 1a76 39be ad22 1bbe c652 103e 9c87 53be
00000060: 1364 423e 4389 0cbe 733a 493e 51f1 073e
00000070: fcca 183e ed91 323e 09ec 393e a9ce 123e
00000080: 9fa6 143e 94c1 263e f4bf 1b3e 7ae9 343e
00000090: 80dc 3cbe bd67 3cbe d329 1cbe 5354 18be

action_model._discrete_distribution.branches.0.bias f4 [2]
0.14282173 -0.14282167
00000000: dc3f 123e d83f 12be
