results/TestCurriculum2.2/SuperTank/SuperTank-500045.pt (torch, 451632 bytes, 50 tensors)

network_body.observation_encoder.processors.0.normalizer.running_mean f4 [6]
-2.3259792 0.18776374 -1.0705303 0.5999838 0.21999507 -1.2299671
00000000: d8dc 14c0 2345 403e 2307 89bf 8a98 193f
00000010: 6346 613e 906f 9dbf

network_body.observation_encoder.processors.0.normalizer.running_variance f4 [6]
89428.59 2002.9706 96728.234 1.3599861 1.0483932 2.5128593
00000000: 4caa ae47 0f5f fa44 1eec bc47 0614 ae3f
00000010: c031 863f b0d2 2040

network_body.processors.0.normalizer.running_mean f4 [6]
-2.3259792 0.18776374 -1.0705303 0.5999838 0.21999507 -1.2299671
00000000: d8dc 14c0 2345 403e 2307 89bf 8a98 193f
00000010: 6346 613e 906f 9dbf

network_body.processors.0.normalizer.running_variance f4 [6]
89428.59 2002.9706 96728.234 1.3599861 1.0483932 2.5128593
00000000: 4caa ae47 0f5f fa44 1eec bc47 0614 ae3f
00000010: c031 863f b0d2 2040

network_body._body_endoder.seq_layers.0.weight f4 [128, 6]
-0.25132748 0.55507594 -0.70342314 0.25866702 0.2288042 -0.57796574 -0.6798864 0.11697378
0.8130597 0.19213773 0.84268624 -0.58209705 -0.13595685 -0.1899711 -0.09023078 -0.28358957
0.0972418 -0.69149363 0.10562955 -0.1345567 -0.8516636 -0.47397304 0.5512879 -0.008158904
-0.19113152 -0.24619739 0.9194527 0.112222694 0.32327488 0.5292046 0.36421338 0.248074
-1.0008311 0.23971832 0.3186059 -1.0474869 0.2991956 0.06707505 0.18513638 -0.8220399
0.24507616 -0.03944881 0.07356059 -0.18614553 -0.23636578 0.024978213 0.06909346 0.34391335
0.314935 0.26286915 -0.00090767344 -0.7453659 0.9624533 -0.043126035 -0.8566492 -0.5865502
-0.4803576 0.2401955 -0.053247444 -0.6191932 0.15918805 -0.14477406 -0.25131607 0.2755906
-0.3320276 0.059389815 -0.013353388 0.09513834 -0.023396837 0.82499945 -0.2359241 0.008501572
-0.46137068 0.7781871 -0.75392634 0.22201808 0.07254137 -0.028972676 -0.199161 -0.7185151
0.1973296 -0.2438899 1.7773887 0.4903684 0.03702655 -0.8834985 -0.22332081 -0.648688
0.9153285 0.16627102 -0.13259743 -0.85593593 -0.0028187856 0.48690432 0.54436874 -0.10549971
0.11395156 0.1968396 -0.56423795 0.07161171 0.023420386 -0.4170366 0.063656844 -0.71328425
0.48082832 0.16128482 0.9254971 -0.32950008 -0.85651296 -0.4946217 0.22165605 0.24439883
-0.79714715 -0.848724 0.23205134 -0.037626985 -0.22784479 -0.06873259 -0.46464002 0.4822367
0.99399656 0.40692833 0.4757884 -0.1981869 0.28839505 -0.45684657 -0.114717335 -0.19939427
0.83635116 0.11309426 0.07272934 0.21601458 0.48386136 0.27693698 -0.92046416 -0.195112
-0.55336654 0.1393495 -0.11299588 0.53090954 0.363471 -0.40022856 -0.025493583 -0.6004118
-0.2088663 0.6477837 -0.16042344 1.277129 -0.17964868 0.32553175 0.16393256 0.16108397
-0.35736468 -0.51196855 0.49759656 0.2992177 0.61975086 0.3801123 0.15258914 -0.12077025
0.6454008 -0.13030457 -0.048748866 0.3618049 -0.28173715 0.6582478 0.14316936 0.59267426
0.65099996 0.39500025 0.38466546 0.15155356 0.78530574 -0.27726656 0.8417064 0.48531702
0.5935322 -0.20073953 0.39914358 1.0119504 -0.72303236 -0.26098856 0.6893144 -0.2582279
0.52631193 0.8321569 -0.21842298 0.8120664 -0.35909674 -0.24126345 -0.03812994 0.13493536
-0.5575621 0.44560564 0.52583945 0.30940363 0.32694563 0.26618242 0.46098098 -0.49690828
-0.21612208 -0.04205987 0.858089 -0.14850841 -0.2712161 0.5617288 0.21672086 -0.71041316
-0.23320925 -0.15700364 -0.14163871 -0.59555143 -1.0149126 -0.74867284 -0.311514 -0.096997455
-0.68001425 0.15802099 0.18533893 0.10872041 -0.5097403 0.27317125 0.8456721 0.279323
-1.2782841 -0.0740228 -0.30091715 0.3117918 -0.11430161 -0.25185058 0.22099082 -0.40123257
-0.22299814 0.44139248 -0.076080546 0.84430355 0.15260747 0.3982194 -0.19579318 0.013646438
-0.2103371 0.4791351 -1.0170002 0.21210404 -0.19777781 0.22709225 0.4688601 -0.22614273
-0.11273361 0.47743908 -0.30376372 0.08154398 0.9801396 -0.31039342 0.086033106 0.096294485
00000000: ffad 80be 7519 0e3f 8a13 34bf 0170 843e
00000010: a64b 6a3e 90f5 13bf 090d 2ebf f38f ef3d
00000020: ae24 503f c1bf 443e 49ba 573f 5004 15bf
00000030: 4638 0bbe c987 42be eaca b8bd a732 91be
00000040: b526 c73d ba05 31bf 4e54 d83d 3bc9 09be
00000050: a006 5abf 98ac f2be 3421 0d3f ecac 05bc
00000060: fbb7 43be 2b1b 7cbe 4161 6b3f 03d5 e53d
00000070: 4984 a53e f479 073f 2d7a ba3e 1c07 7e3e
00000080: 3c1b 80bf b878 753e 5020 a33e 0d14 86bf
00000090: 2a30 993e a55e 893d 6494 3d3e 3571 52bf
000000a0: 3ff5 7a3e 1395 21bd efa6 963d ef9c 3ebe
000000b0: df09 72be 1c9f cc3c df80 8d3d 6915 b03e
000000c0: 293f a13e c996 863e eff0 6dba 4dd0 3ebf
000000d0: 5763 763f eda4 30bd 5d4d 5bbf 2728 16bf
000000e0: 6ef1 f5be cff5 753e fe19 5abd 7283 1ebf
000000f0: 3102 233e a73f 14be 80ac 80be 361a 8d3e
00000100: 86ff a9be bc42 733d 2bc8 5abc e4d7 c23d
00000110: b9aa bfbc 2a33 533f 1696 71be 2d4a 0b3c
00000120: c738 ecbe 4537 473f 5101 41bf b558 633e
00000130: 9290 943d 1b58 edbc dcf0 4bbe 9bf0 37bf
00000140: c510 4a3e 46be 79be 7981 e33f 9111 fb3e
00000150: 27a9 173d f52c 62bf 36ae 64be 6b10 26bf
00000160: f852 6a3f f342 2a3e 9fc7 07be 9e1e 5bbf
00000170: 60bb 38bb 864b f93e c05b 0b3f 3b10 d8bd
00000180: 6f5f e93d 5290 493e e671 10bf 29a9 923d
00000190: 1cdc bf3c d285 d5be 855e 823d cc99 36bf
000001a0: 212f f63e d927 253e 61ed 6c3f 3cb4 a8be
000001b0: 6f44 5bbf 0e3f fdbe cef9 623e b043 7a3e
000001c0: d611 4cbf fa45 59bf de9e 6d3e c11e 1abd
000001d0: 2550 69be acc3 8cbd 4ce5 edbe bbe7 f63e
000001e0: 8f76 7e3f e958 d03e 8a9a f33e 82f1 4abe
000001f0: 84a8 933e cbe7 e9be ecf0 eabd 032e 4cbe
00000200: 1c1b 563f f79d e73d 1ff3 943d ed32 5d3e
00000210: adbc f73e afca 8d3e 8aa3 6bbf 71cb 47be
00000220: 6ea9 0dbf a3b1 0e3e 626a e7bd b0e9 073f
00000230: df18 ba3e c2ea ccbe ebd7 d0bc 96b4 19bf
00000240: 0ce1 55be 27d5 253f 0b46 24be f778 a33f
00000250: d3f5 37be 19ac a63e f0dd 273e 32f3 243e
00000260: 81f8 b6be 5f10 03bf fac4 fe3e 1033 993e
00000270: fea7 1e3f 149e c23e 5440 1c3e 6556 f7bd
00000280: fd38 253f 906e 05be e4ac 47bd 7e3e b93e
00000290: da3f 90be ee82 283f fd9a 123e 80b9 173f
000002a0: efa7 263f 793d ca3e dff2 c43e db30 1b3e
000002b0: cc09 493f e2f5 8dbe 127a 573f 797b f83e
000002c0: baf1 173f aa8e 4dbe 8c5c cc3e 9787 813f
000002d0: a618 39bf 4ba0 85be e976 303f 7336 84be
000002e0: 61bc 063f 3c08 553f 46aa 5fbe 95e3 4f3f
000002f0: 87db b7be c40d 77be 242e 1cbd 7f2c 0a3e
00000300: 64bc 0ebf 6c26 e43e 6a9d 063f 276a 9e3e
00000310: 6b65 a73e 1049 883e b305 ec3e c36a febe
00000320: 1b4f 5dbe f846 2cbd b9ab 5b3f 9712 18be
00000330: d6dc 8abe 75cd 0f3f 13ec 5d3e a3dd 35bf
00000340: 68ce 6ebe 90c5 20be bd09 11be 0f76 18bf
00000350: a8e8 81bf 06a9 3fbf c37e 9fbe 9aa6 c6bd
00000360: 6a15 2ebf 41d0 213e 7dc9 3d3e cea8 de3d
00000370: 577e 02bf 1add 8b3e f77d 583f 6d03 8f3e
00000380: d09e a3bf 4499 97bd d011 9abe 2da3 9f3e
00000390: f616 eabd 8ff2 80be 6b4b 623e 5b6e cdbe
000003a0: a059 64be 32fe e13e 1ed0 9bbd 4724 583f
000003b0: 2245 1c3e 6ae3 cb3e 027e 48be 4f95 5f3c
000003c0: 9c62 57be 3251 f53e 102d 82bf cd31 593e
000003d0: 4486 4abe df8a 683e 6e0e f03e f691 67be
000003e0: e1e0 e6bd e572 f43e eb86 9bbe 8800 a73d
000003f0: 6eea 7a3f e3eb 9ebe 2032 b03d 0b36 c53d

network_body._body_endoder.seq_layers.0.bias f4 [128]
0.056199156 0.10030405 0.091349535 -0.055284705 0.098013945 0.006719633 0.012439857 0.0510728
0.002565332 0.12342203 0.005927701 0.039265595 0.07581439 0.03266068 0.07882327 0.07762686
0.063847445 0.093476206 0.00787642 -0.113600954 -0.013623567 0.025684645 0.011232286 -0.098751895
0.039925564 0.008331956 -0.12890221 0.074039586 -0.0067011854 -0.1543618 0.13459219 0.0626312
0.058251984 -0.07080648 -0.00926583 0.020374753 -0.048947226 0.0461416 0.0006178511 0.038574845
0.049279716 0.015074449 -0.010361243 -0.06661794 0.06337748 -0.086105675 0.06816958 0.030690543
0.07544579 0.032643005 0.037226725 0.046999536 -0.10935321 0.09565235 -0.012629807 0.022607125
0.015572353 0.06651585 -0.011589971 0.043599553 0.109911054 0.08325987 0.06671808 0.05045593
0.112706795 0.07491943 0.075277306 0.046617836 -0.02575937 -0.04055386 0.16786286 0.061108235
0.07068328 0.13516435 0.038364194 0.078200564 0.05113018 0.06503213 0.08209776 0.04816886
0.09609469 0.018686533 0.08790179 0.052326273 0.11831093 0.065785214 0.08427777 0.03134172
-0.086884536 -0.012538792 0.045402788 0.094965205 0.083124965 -0.00034265354 0.026235098 -0.11198802
0.028421985 0.12879427 0.08968025 -0.02594369 0.033619862 0.011457185 0.076549225 0.005543391
0.06389023 0.043291885 0.13006093 0.037463628 -0.05782176 0.13420492 -0.046084307 -0.1235497
-0.059285708 0.14979221 -0.08872687 0.074573204 0.028406497 0.04967295 0.061357845 -0.16051373
0.045380574 0.1257969 -0.11195732 -0.02492077 0.14437893 -0.015539742 0.1262988 0.11765563
00000000: 1631 663d 366c cd3d 7715 bb3d 3772 62bd
00000010: 89bb c83d 5e30 dc3b 8bd0 4b3c b631 513d
00000020: 211f 283b b0c4 fc3d 293d c23b f6d4 203d
00000030: 9344 9b3d 35c7 053d 186e a13d d5fa 9e3d
00000040: 73c2 823d 7470 bf3d 1a0c 013c 9ea7 e8bd
00000050: 6235 5fbc 9b68 d23c 9f07 383c 6f3e cabd
00000060: fd88 233d c282 083c f1fe 03be 11a2 973d
00000070: 9e95 dbbb 0511 1ebe 89d2 093e c944 803d
00000080: a299 6e3d fd02 91bd b5cf 17bc f4e8 a63c
00000090: e37c 48bd f9fe 3c3d 49f7 213a a800 1e3d
000000a0: 87d9 493d d2fa 763c 34c2 29bc fd6e 88bd
000000b0: 0dcc 813d 2c58 b0bd 7e9c 8b3d bc6a fb3c
000000c0: 5383 9a3d acb4 053d 0d7b 183d 9682 403d
000000d0: 93f4 dfbd 61e5 c33d 40ed 4ebc 9432 b93c
000000e0: 2f23 7f3c 7639 883d dde3 3dbc 7295 323d
000000f0: 0c19 e13d 2784 aa3d 7da3 883d e1aa 4e3d
00000100: d2d2 e63d 5c6f 993d fd2a 9a3d 58f2 3e3d
00000110: 5005 d3bc ce1b 26bd 3ee4 2b3e a14c 7a3d
00000120: 65c2 903d 8668 0a3e c623 1d3d 9e27 a03d
00000130: e16d 513d 912f 853d df22 a83d b64c 453d
00000140: 4bcd c43d 8014 993c db05 b43d 1354 563d
00000150: 004d f23d 66ba 863d d399 ac3d 2d60 003d
00000160: 85f0 b1bd 816f 4dbc 46f8 393d 1e7d c23d
00000170: 6c3d aa3d 2ea6 b3b9 fdea d63c fa59 e5bd
00000180: 39d5 e83c a5e2 033e 47aa b73d dd87 d4bc
00000190: fbb4 093d ebb6 3b3c d7c5 9c3d 56a5 b53b
000001a0: e2d8 823d d552 313d b12e 053e 7673 193d
000001b0: 83d6 6cbd 046d 093e e6c2 3cbd a007 fdbd
000001c0: 92d5 72bd 2163 193e 6fb6 b5bd d6b9 983d
000001d0: beb4 e83c dd75 4b3d 5d52 7b3d b65d 24be
000001e0: fbe0 393d e7d0 003e e149 e5bd a526 ccbc
000001f0: 12d8 133e 679a 7ebc 7954 013e 6ff5 f03d

network_body._body_endoder.seq_layers.2.weight f4 [128, 128]
0.0482903 0.0020831267 -0.09088464 0.006586631 0.014761066 0.12379292 -0.1821308 -0.02554082
-0.02311421 0.1060582 -0.12417776 0.1178442 -0.03671915 0.011248464 0.0882693 0.03097988
0.0020355931 0.1062408 0.0233109 -0.09780796 -0.2576808 0.012776646 0.14962396 0.09273704
-0.03736316 -0.049033687 -0.10679837 -0.06614737 0.030895257 -0.10000348 -0.030207686 0.07936563
-0.010962821 0.00057657965 -0.03292137 -0.068807796 0.007584919 0.13738483 -0.09827077 -0.09281913
-0.0274693 -0.0606316 -0.06178846 0.077240705 -0.009075927 0.060692042 0.051519398 0.041152738
0.0018934677 0.054932617 0.05072931 0.024308464 -0.065900624 0.0005173636 -0.065750346 -0.016431436
0.113735765 0.12438418 0.03835814 0.084950075 -0.048881873 -0.022742914 -0.11223583 -0.08471084
-0.07118478 -0.16014813 0.04939029 -0.16080177 -0.048572052 -0.06783128 0.0029477149 -0.06419807
-0.12825954 -0.09306358 -0.17609149 -0.056693655 -0.06748676 0.027659714 0.084940866 0.07356465
-0.10558766 -0.10286271 0.026752552 -0.07775394 -0.0009488528 -0.22710189 0.099061586 0.03729641
-0.16925937 -0.037982907 -0.03339602 -0.0779821 -0.101897165 0.05763022 0.17900465 -0.09236643
-0.18833585 0.010017811 -0.04924916 -0.015501298 0.04439105 -0.15762621 -0.026806114 0.11862992
0.089863196 -0.013509763 0.05113963 -0.07778931 -0.015403652 0.048059307 0.07042216 0.051743444
0.004304427 -0.13395315 -0.054600947 -0.049081508 0.015161966 0.22650854 0.049908884 -0.1455495
-0.06314224 -0.116446316 -0.022053244 0.05647513 0.08710832 -0.022912674 0.0997199 -0.06531828
-0.23075226 -0.11869203 -0.01997215 -0.21663697 0.061274644 -0.111766174 -0.013102332 -0.03283882
0.19346856 0.08818139 -0.019021178 -0.0082662795 -0.18472065 -0.021191284 0.035905983 -0.10522317
-0.08364025 -0.10362153 0.028524984 -0.037567355 0.1522564 -0.1353873 -0.10409968 -0.09566776
-0.0044836802 -0.007504847 0.13002153 -0.14293727 -0.053238153 0.08137476 0.0044856323 -0.1328946
-0.06211342 -0.15750203 0.20007452 -0.12724279 0.073888995 -0.11635996 -0.04039135 0.10356866
-0.12075345 -0.095425345 0.047506336 -0.05723349 -0.2314423 0.10321439 -0.29587126 0.024498582
0.05799078 -0.024162935 -0.047585435 0.118253276 0.066030234 -0.19170442 -0.276652 -0.21822295
-0.05085689 0.042088423 -0.19433276 0.07346005 -0.06373806 -0.09994733 0.06600806 0.025608776
-0.19401458 -0.13223183 -0.15708311 0.040273543 0.17411056 -0.0108273355 0.0095752 -0.031534385
0.080764465 -0.18642618 -0.14938425 -0.12674293 -0.2253049 -0.0020114635 -0.034021314 0.0033575764
-0.1849487 0.01614674 -0.21306944 -0.027518056 0.09640344 -0.03058942 -0.010500175 -0.16761205
0.04658356 -0.10355929 -0.18993461 -0.12804122 -0.116328895 -0.07022339 -0.19064473 0.069018215
-0.2401892 0.04259972 -0.18644078 -0.0934092 0.08304622 0.033512507 0.02271903 -0.10752738
-0.098417684 0.042199142 -0.09234673 0.019926185 0.08123225 -0.06951497 -0.0624062 0.2545694
0.1334291 -0.10449469 -0.113024354 -0.0067423526 -0.019127611 -0.042266976 -0.021144144 0.15695529
-0.035718717 -0.1563339 -0.006521423 -0.08700351 0.061179277 -0.16111405 0.035152163 0.09551984
00000000: 0dcc 453d 1185 083b ba21 babd aad4 d73b
00000010: 66d8 713c 2487 fd3d 7f80 3abe fb3a d1bc
00000020: 035a bdbc 0b35 d93d e950 febd 4d58 f13d
00000030: d266 16bd 7a4b 383c 89c6 b43d 84c9 fd3c
00000040: 9667 053b c794 d93d 80f6 be3c 8a4f c8bd
00000050: bdee 83be 2355 513c 0637 193e ebec bd3d
00000060: 1d0a 19bd 8cd7 48bd 1bb9 dabd 4678 87bd
00000070: 0d18 fd3c a0ce ccbd 1c76 f7bc 738a a23d
00000080: 679d 33bc 9b25 173a 8fd8 06bd 1aeb 8cbd
00000090: ea8a f83b 9cae 0c3e 2f42 c9bd f517 bebd
000000a0: 4c07 e1bc d758 78bd e515 7dbd 6030 9e3d
000000b0: 32b3 14bc 3898 783d 0106 533d c68f 283d
000000c0: 3c2e f83a 0601 613d 89c9 4f3d 8b22 c73c
000000d0: e8f6 86bd af9f 073a 1ea8 86bd 389b 86bc
000000e0: 4cee e83d 22bd fe3d 6d1d 1d3d 4efa ad3d
000000f0: 5c38 48bd 594f babc e6db e5bd e07c adbd
00000100: 53c9 91bd dffd 23be 794d 4a3d 38a9 24be
00000110: 7df3 46bd 20eb 8abd 732e 413b 477a 83bd
00000120: 7856 03be 1e98 bebd 5451 34be 9b37 68bd
00000130: 8036 8abd a096 e23c 7af5 ad3d 10a9 963d
00000140: 583e d8bd afa9 d2bd 2b28 db3c 753d 9fbd
00000150: 6fbc 78ba 668d 68be cde0 ca3d 1fc4 183d
00000160: 5452 2dbe f793 1bbd 44ca 08bd 14b5 9fbd
00000170: 76af d0bd aa0d 6c3d ff4c 373e 9c2a bdbd
00000180: 1ddb 40be bf21 243c 7db9 49bd 28f9 7dbc
00000190: 64d3 353d c468 21be 7f98 dbbc 3ef4 f23d
000001a0: 320a b83d 0e58 5dbc ca77 513d 0050 9fbd
000001b0: 995f 7cbc d6d9 443d 7e39 903d eff0 533d
000001c0: 270c 8d3b 042b 09be 3ea5 5fbd b109 49bd
000001d0: e569 783c dbf1 673e 426d 4c3d ee0a 15be
000001e0: b850 81bd 687b eebd 01a9 b4bc 7752 673d
000001f0: d965 b23d 5cb3 bbbc f239 cc3d 97c5 85bd
00000200: 524a 6cbe cf14 f3bd a29c a3bc 15d6 5dbe
00000210: 1ffb 7a3d aae5 e4bd 2aab 56bc 0082 06bd
00000220: 9f1c 463e 7298 b43d 4dd2 9bbc 4a6f 07bc
00000230: 6927 3dbe 5899 adbc 2712 133d 3f7f d7bd
00000240: 944b abbd 8637 d4bd 3aad e93c 3ae0 19bd
00000250: 1ae9 1b3e f8a2 0abe 3732 d5bd 75ed c3bd
00000260: d6eb 92bb 38eb f5bb 5d24 053e 265e 12be
00000270: 4010 5abd cfa7 a63d 36fc 923b 8615 08be
00000280: a46a 7ebd 3648 21be 56e0 4c3e ef4b 02be
00000290: 1d53 973d 214e eebd 6671 25bd ce1b d43d
000002a0: 964d f7bd 5d6e c3bd 0196 423d aa6d 6abd
000002b0: 36ff 6cbe 1162 d33d 707c 97be 40b1 c83c
000002c0: bd87 6d3d 59f1 c5bc f2e8 42bd c62e f23d
000002d0: dc3a 873d 2a4e 44be 55a5 8dbe d675 5fbe
000002e0: 504f 50bd e964 2c3d 2bff 46be 3972 963d
000002f0: 1a89 82bd 30b1 ccbd 3c2f 873d 7fc9 d13c
00000300: c2ab 46be c867 07be 65da 20be dff5 243d
00000310: 0a4a 323e 2365 31bc 4de1 1c3c 332a 01bd
00000320: d767 a53d 81e6 3ebe 2ff8 18be e6c8 01be
00000330: 54b6 66be c2d2 03bb ef59 0bbd c90a 5c3b
00000340: 3163 3dbe 2b46 843c e02e 5abe 8c6d e1bc
00000350: 2b6f c53d aa96 fabc ed08 2cbc 7ea2 2bbe
00000360: 67ce 3e3d e516 d4bd 387e 42be 3d1d 03be
00000370: d83d eebd 48d1 8fbd 5f38 43be 6c59 8d3d
00000380: 28f4 75be 0b7d 2e3d 55ea 3ebe 534d bfbd
00000390: 2314 aa3d 6944 093d 421d ba3c 5137 dcbd
000003a0: 368f c9bd 02d9 2c3d 4820 bdbd 3d3c a33c
000003b0: 185d a63d dd5d 8ebd a59d 7fbd ec56 823e
000003c0: a3a1 083e 5001 d6bd 5079 e7bd f4ee dcbb
000003d0: 82b1 9cbc 2320 2dbd 7c36 adbc e3b8 203e
000003e0: ca4d 12bd fe15 20be a9b1 d5bb e52e b2bd
000003f0: 1f97 7a3d 15fb 24be b7fb 0f3d e89f c33d

network_body._body_endoder.seq_layers.2.bias f4 [128]
-0.040924773 -0.06774988 -0.024933113 0.07740091 -0.09267519 -0.010772462 0.050986283 0.027877338
-0.0912027 0.004157825 -0.025552653 -0.13409595 -0.031771798 0.014652886 -0.038556386 -0.0023194137
-0.107489385 0.06025486 0.08634461 0.066462964 -0.051240366 0.038739547 0.04534494 -0.1426154
0.008665809 -0.008925497 0.063903786 -0.09547171 0.049477704 0.046227433 0.09583557 0.060867365
0.009602619 -0.088115655 0.07372075 -0.04288518 0.09666992 0.004300577 -0.02595115 -0.05350067
0.042240653 -0.06785338 -0.11166859 0.053724203 -0.023552777 0.096182406 0.040582404 0.07221659
0.09939217 0.002678547 0.047105867 0.0026038715 -0.10139101 -0.053809285 0.03669944 0.08865116
-0.015697595 -0.04424874 0.06370588 0.029592836 0.08734282 -0.11229685 0.015934004 0.01637186
0.01663439 0.040339757 -0.01587244 -0.1549567 -0.0033778402 -0.010878756 -0.12517497 -0.016959013
0.037934314 -0.011490765 -0.16463551 -0.06499806 -0.06401132 0.0040020323 -0.07000036 0.0016255751
-0.00084237056 -0.025192304 0.0693396 -0.1780182 0.12637104 -0.032223824 0.14465429 0.023174565
0.0062568393 0.057722036 -0.055234544 -0.05878612 -0.12512308 0.07296748 -0.0031311 0.030635199
0.023545492 0.07680813 -0.105856106 -0.038081888 0.03716518 0.008274485 -0.10050801 -0.09337728
-0.050514374 -0.005127553 -0.12904981 0.023398295 0.044057492 -0.13755035 -0.12679404 0.008982326
-0.055806387 0.0910333 0.01022016 -0.13002111 -0.16289331 -0.009255218 0.013801163 -0.19693676
0.045432847 0.070283376 0.07071685 -0.006424376 0.009908797 0.0063491114 0.0023412798 0.046879396
00000000: bca0 27bd 73c0 8abd 8740 ccbc 5e84 9e3d
00000010: 7dcc bdbd fb7e 30bc fed6 503d 045f e43c
00000020: 7bc8 babd 5d3e 883b cc53 d1bc 7350 09be
00000030: 2523 02bd a912 703c 4ded 1dbd 4e01 18bb
00000040: 6523 dcbd cdcd 763d 71d5 b03d bc1d 883d
00000050: 6be1 51bd 5cad 1e3d 9ebb 393d c509 12be
00000060: 0afb 0d3c 3f3c 12bc fddf 823d ac86 c3bd
00000070: 22a9 4a3d fa58 3d3d 7045 c43d 0f50 793d
00000080: 4e54 1d3c fb75 b4bd e8fa 963d 5fa8 2fbd
00000090: e1fa c53d dbeb 8c3b 8297 d4bc 8523 5bbd
000000a0: 8904 2d3d b7f6 8abd 80b2 e4bd e90d 5c3d
000000b0: c1f1 c0bc 48fb c43d bc39 263d 4be6 933d
000000c0: 1f8e cb3d 908a 2f3b 15f2 403d b7a5 2a3b
000000d0: 17a6 cfbd 2067 5cbd 2752 163d bd8e b53d
000000e0: 3e98 80bc 2b3e 35bd 3a78 823d ad6c f23c
000000f0: cbe0 b23d e4fb e5bd 0788 823c 471e 863c
00000100: d844 883c 4d3b 253d eb06 82bc f8ac 1ebe
00000110: c15e 5dbb cf3c 32bc de2d 00be a1ed 8abc
00000120: 0361 1b3d c343 3cbc 3696 28be b41d 85bd
00000130: 5e18 83bd 7b23 833b 595c 8fbd 4011 d53a
00000140: 88d2 5cba 1760 cebc ec01 8e3d 674a 36be
00000150: 6967 013e 21fd 03bd 4120 143e 96d8 bd3c
00000160: 2c06 cd3b f16d 6c3d 9e3d 62bd b7c9 70bd
00000170: 4420 00be f96f 953d 2433 4dbb abf6 fa3c
00000180: 7ae2 c03c 954d 9d3d 16cb d8bd c1fb 1bbd
00000190: 843a 183d b591 073c 25d7 cdbd 963c bfbd
000001a0: 29e8 4ebd 0805 a8bb a225 04be c8ad bf3c
000001b0: a175 343d 00da 0cbe 4cd6 01be 9b2a 133c
000001c0: 3d95 64bd ab6f ba3d 7572 273c 4124 05be
000001d0: 81cd 26be 33a3 17bc 461e 623c caa9 49be
000001e0: cb17 3a3d bbf0 8f3d ffd3 903d 9283 d2bb
000001f0: 8258 223c 350c d03b 2870 193b 9c04 403d

action_model._continuous_distribution.log_sigma f4 [1, 2]
-0.23542581 -0.21297975
00000000: 7713 71be 5d17 5abe

action_model._continuous_distribution.mu.weight f4 [2, 128]
-2.2044409e-05 -0.05362402 0.007945451 -0.0042694868 0.104369715 -0.0037628158 0.12895682 0.027787725
-0.050814964 0.0043785195 -0.017259348 -0.0005609676 0.036832474 0.116148256 -0.16453695 0.028547142
-0.056505535 -0.005837764 -0.009314958 0.18887727 -0.11534881 -0.018774914 0.008177145 0.019161765
0.0021135376 0.035166353 -0.0048763747 0.00758549 0.0028049632 0.009623505 -0.015027358 -0.040537935
0.001392661 -0.032403488 -0.0040650605 -0.030316291 -0.022814007 0.17654838 -0.0041257595 0.018932369
0.099029064 0.08877713 -0.114369705 -4.5855864e-05 0.0027370842 -0.034839354 0.13337845 -0.004210729
-0.02516277 0.01276002 -2.559376e-05 0.15719415 0.08468461 0.0010328252 -0.011353164 -0.010337269
-0.10570016 0.0057519693 -0.0031447413 -0.0017375547 -0.012350317 0.052593883 -0.037087217 0.0054970714
0.09235672 0.118324146 -0.029855935 -0.0811326 -0.03933485 0.012081642 -0.102282785 -0.0016220211
-0.08535825 0.027323592 -0.025179015 -0.11422829 0.0017364508 0.0040498497 -0.04397355 0.09219189
0.007624238 -0.009373543 0.014889619 -0.022657342 -0.02509867 0.0025287431 0.019518547 -0.097924896
-0.06288404 -0.013814082 0.14788684 0.00462973 -0.059110142 -0.02546054 0.009466626 0.013985537
-0.013689974 0.009593934 0.015974414 -0.015132163 -0.020400409 0.0019948774 -0.042822354 0.05986288
0.035266537 -0.039370053 0.07459991 0.010469816 -0.0011985108 0.04280514 0.059213568 -0.0034511818
0.013986021 0.012717661 -0.0020386619 -0.047927376 0.022981828 -0.004957777 0.004555851 -0.0022974005
-0.0064034187 -0.0017235114 -0.01890039 -0.009538659 0.16216151 -0.004793139 -0.00068808335 -0.038261402
-0.012269212 -0.098415874 -0.034676924 0.0363964 -0.02927862 -0.01678729 0.01697459 -0.001765969
-0.043660402 -0.004722286 -0.073590234 -0.022614632 -0.02798749 0.046854965 -0.04078511 -0.025327751
-0.04882468 0.008869813 0.06469951 0.101603694 -0.06153604 0.015857847 0.018253533 -0.0608745
0.0002875249 -0.025664879 0.010648208 -0.055394385 0.016589733 -0.013107672 0.052296884 0.032703165
-0.024339449 -0.025988545 0.0123657985 -0.010635021 0.058153678 0.0230493 0.0009110107 -0.03353115
-0.020696385 -0.0020817802 -0.07313472 0.012481365 -0.0017972977 0.05518682 0.058008365 0.027203979
0.04066634 -0.007697255 0.008170768 0.003171513 -0.064595014 -0.003081411 -0.0070792274 0.04787276
-0.037020173 0.0003589542 -0.0034344024 0.0024588243 0.026069766 -0.0795825 0.024599053 0.0026186435
0.0055559375 0.028964704 0.013890582 -0.060001794 0.036297474 -0.02627768 -0.055328384 -0.00072867813
0.047928292 0.011275503 -0.04900519 -0.051749285 -0.02464453 -0.029363127 -0.020161172 -0.008459502
-0.00045249355 -0.012815503 0.028433789 -0.078598075 0.04016833 -0.014504262 0.14407769 0.00605842
-0.005696224 0.029666932 -0.04040473 -0.014820134 -0.01954288 0.007591363 -0.025401728 -0.013132938
0.012852637 0.013578215 -0.02251024 0.008910733 0.015557952 -0.0018722321 -0.041379478 -0.077124886
-0.064579144 -0.03751901 -0.06857783 0.0057448605 0.0067010857 -0.055229995 -0.08190006 0.0076217586
-0.041732684 0.053372625 -0.015227232 -0.04972815 -0.068521194 -0.020581648 -0.007338497 -0.092498064
0.009709459 0.028223712 0.0020102186 -0.021461265 0.025519123 -0.0010072012 0.0075074537 0.045939066
00000000: 02ec b8b7 dca4 5bbd a32d 023c 0de7 8bbb
00000010: cabf d53d 9399 76bb 420d 043e 15a3 e33c
00000020: 5a23 50bd af79 8f3b 7a63 8dbc e60d 13ba
00000030: a6dd 163d 23df ed3d 607c 28be b2db e93c
00000040: 5972 67bd b74a bfbb c49d 18bc 0b69 413e
00000050: ff3b ecbd d9cd 99bc 6ff9 053c 22f9 9c3c
00000060: 4783 0a3b 980a 103d ffc9 9fbb b48f f83b
00000070: 79d3 373b e8ab 1d3c 4f35 76bc 1b0b 26bd
00000080: f389 b63a 85b9 04bd 3334 85bb df59 f8bc
00000090: 71e4 babc 19c9 343e 6131 87bb 0e18 9b3c
000000a0: c0cf ca3d c9d0 b53d aa3a eabd 5c55 40b8
000000b0: a760 333b b6b3 0ebd 5c94 083e 28fa 89bb
000000c0: 2722 cebc 670f 513c 2eb2 d6b7 81f7 203e
000000d0: 206f ad3d dd5f 873a 9f02 3abc a65d 29bc
000000e0: 5379 d8bd 047b bc3b 0118 4ebb a9be e3ba
000000f0: fc58 4abc af6c 573d c4e8 17bd c720 b43b
00000100: 8525 bd3d ee53 f23d 6f94 f4bc d928 a6bd
00000110: 941d 21bd 14f2 453c a379 d1bd ff99 d4ba
00000120: 4ed0 aebd bad5 df3c 3944 cebc 86f0 e9bd
00000130: 9f99 e33a 9ab4 843b 9c1d 34bd 1acf bc3d
00000140: bed4 f93b 7d93 19bc 97f3 733c e49b b9bc
00000150: ba9b cdbc 45b9 253b 5ce5 9f3c d98c c8bd
00000160: 59c9 80bd 7654 62bc a66f 173e fdb4 973b
00000170: 7a1d 72bd 9f92 d0bc e819 1b3c 9823 653c
00000180: ea4b 60bc e02f 1d3c c6dc 823c e4ec 77bc
00000190: c21e a7bc 7dbc 023b 7e66 2fbd c732 753d
000001a0: a573 103d 7e42 21bd d6c7 983d 9789 2b3c
000001b0: 5917 9dba 7154 2f3d ed89 723d 392d 62bb
000001c0: a025 653c bd5d 503c 129b 05bb 7f4f 44bd
000001d0: 6344 bc3c d974 a2bb 4049 953b fc8f 16bb
000001e0: c5d3 d1bb 72e7 e1ba fed4 9abc 0948 1cbc
000001f0: ab0d 263e c40f 9dbb 7e60 34ba fdb7 1cbd
00000200: ce04 49bc 438e c9bd 6409 0ebd 6414 153d
00000210: b7d9 efbc 8085 89bc 4c0e 8b3c 1678 e7ba
00000220: 40d5 32bd 68bd 9abb 7ab6 96bd 5242 b9bc
00000230: 0546 e5bc feea 3f3d 4a0e 27bd 257c cfbc
00000240: 63fc 47bd b152 113c 2d81 843d 9915 d03d
00000250: 370d 7cbd 51e8 813c 6f88 953c 8a57 79bd
00000260: f0be 9639 273f d2bc d275 2e3c 39e5 62bd
00000270: 31e7 873c 90c1 56bc 4235 563d c1f3 053d
00000280: 8663 c7bc eee5 d4bc eb99 4a3c 833e 2ebc
00000290: 8d32 6e3d e3d1 bc3c e5d0 6e3a f657 09bd
000002a0: 778b a9bc 7a6e 08bb a8c7 95bd a47e 4c3c
000002b0: 4e93 ebba 930b 623d 2e9a 6d3d e1da de3c
000002c0: c091 263d 4139 fcbb afde 053c 29d9 4f3b
000002d0: 644a 84bd 7ff1 49bb ddf8 e7bb 3a16 443d
000002e0: 77a2 17bd 0432 bc39 b613 61bb 3a24 213b
000002f0: 4390 d53c 26fc a2bd f483 c93c 8c9d 2b3b
00000300: 950e b63b 6347 ed3c 5395 633c 71c4 75bd
00000310: a9ac 143d 4a44 d7bc 04a0 62bd c304 3fba
00000320: 7550 443d e3bc 383c abb9 48bd 0ff7 53bd
00000330: 53e3 c9bc f18a f0bc 0b29 a5bc b999 0abc
00000340: a83c edb9 1ef8 51bc faed e83c 07f8 a0bd
00000350: 8c87 243d 49a3 6dbc 1a89 133e b685 c63b
00000360: 64a7 babb 1108 f33c 6e7f 25bd 26d0 72bc
00000370: 6418 a0bc f8c0 f83b 4917 d0bc 892b 57bc
00000380: de93 523c 2977 5e3c 6567 b8bc 53fe 113c
00000390: c8e6 7e3c af65 f5ba 877d 29bd a7f3 9dbd
000003a0: 1242 84bd 89ad 19bd 8972 8cbd 623f bc3b
000003b0: c894 db3b d938 62bd 38bb a7bd f2bf f93b
000003c0: e4ef 2abd 419d 5a3d a47b 79bc bfaf 4bbd
000003d0: d754 8cbd d89a a8bc c677 f0bb a06f bdbd
000003e0: 6c14 1f3c 6a35 e73c dfbd 033b 89cf afbc
000003f0: 7b0d d13c 1004 84ba 1601 f63b 9a2a 3c3d

action_model._continuous_distribution.mu.bias f4 [2]
-0.029719617 0.12334958
00000000: 8e76 f3bc b49e fc3d

action_model._discrete_distribution.branches.0.weight f4 [2, 128]
0.044971813 0.025330294 0.16593707 -0.029557532 -0.05191404 0.06781794 0.00069820276 -0.051387455
-0.021346139 0.021940535 0.120920226 -0.019515501 -0.074055545 -0.04543766 -0.022306863 0.0070251445
0.011985506 0.15386777 -0.09985428 -0.01986425 -0.0060010985 0.04108155 0.022523027 -0.07072725
-0.017579045 0.06469179 -0.008509903 0.0025807987 0.008970629 0.16581911 0.0059423493 0.012587253
0.1329995 -0.029897537 0.07536304 -0.0051457784 0.02703867 -0.074582644 0.030914541 -0.117299385
0.020807598 -0.06660629 -0.015438607 -0.0067043174 0.005439129 -0.050977852 -0.027934132 0.037040018
0.05353037 0.082785785 0.14673433 0.016522404 -0.06816762 -0.0047541233 0.10803252 0.008583284
0.0122518195 -0.05891879 0.14877105 0.034397192 -0.06289141 -0.028788598 -0.019967454 0.001335867
0.016402839 -0.039744627 -0.049957234 -0.025590014 -0.112674706 0.17112955 -0.013577184 -0.022712925
-0.10102149 -0.11591922 -0.08925325 -0.032375567 -0.043218657 0.027318316 -0.02014512 -0.008988536
0.07937668 0.07957795 0.069268785 -0.012170787 -0.009929665 0.092848554 -0.07245322 -0.017623093
0.01660134 0.007375345 -0.05886714 -0.009404335 -0.04964434 0.0924086 0.08436304 0.12382691
0.025822382 -0.0012622591 -0.08779768 0.02756915 0.04199033 0.037139032 -0.041653194 -0.022456799
0.078729905 0.12377702 -0.09580672 0.0041937437 0.13894093 -0.06865719 -0.05154499 0.024915785
0.027629513 -0.07016581 0.15127446 -0.03109148 -0.04091961 -0.004627466 0.047156055 -0.040041603
-0.0698913 0.028300295 0.108041234 0.012965324 -0.021833038 -0.029755116 0.015990576 -0.024658836
-0.06353698 -0.027034437 -0.14060077 0.027046131 0.07283968 -0.06922731 0.0026225985 0.055548716
0.027130095 -0.012995677 -0.107586235 0.013399809 0.08028179 0.050364476 0.02156776 -0.015267681
-0.019749206 -0.16262716 0.10479681 -0.0025301138 0.012768726 -0.048051734 -0.021764355 0.0684358
-0.004081104 -0.0869264 0.01578521 -0.025386814 -0.020823596 -0.1698703 0.015023897 -0.008832693
-0.14048603 0.03472957 -0.07468356 -0.005926648 -0.03372218 0.049670134 -0.02745054 0.09220665
0.0012312548 0.08179826 -0.009368367 0.0026734262 -0.0012320166 0.04229394 0.043066327 -0.07165566
-0.0455676 -0.081798226 -0.16182418 -0.015507169 0.06828019 0.029500667 -0.110823244 -0.0020870885
-0.00819342 0.05688052 -0.14399116 -0.03502817 0.06095583 0.0303039 0.0012101016 -0.0068428917
-0.006587028 0.03265962 0.069962464 0.026634658 0.09876531 -0.16301988 0.02429322 -0.017107604
0.105461694 0.11755264 0.0968068 0.04416179 0.0152578605 -0.031772774 -0.0046292795 0.014166673
-0.06257798 -0.089073814 -0.078042954 -0.00082840206 0.0030494619 -0.08084323 0.08651146 -0.0046068113
0.00079888216 -0.015641216 0.037855014 0.017399156 0.04803104 -0.086945325 -0.10382078 -0.12079506
-0.00880298 0.008442406 0.0799267 -0.038791645 -0.03179921 -0.015548752 0.03647063 0.020553138
-0.06987109 -0.09817147 0.10148387 -0.0237549 -0.13499509 0.0833311 0.063838266 -0.010484662
-0.02760059 0.063962206 -0.14255075 0.025953885 0.049779803 -0.0020778782 -0.023035413 0.04735003
0.07832675 -0.016496077 -0.09249723 0.0053973054 0.013037544 0.04129926 -0.009709739 0.02448972
00000000: 5d34 383d 7a81 cf3c 68eb 293e a322 f2bc
00000010: d1a3 54bd 22e4 8a3d 9807 373a a77b 52bd
00000020: 19de aebc a3bc b33c 06a5 f73d f9de 9fbc
00000030: 6faa 97bd d71c 3abd e2bc b6bc 2f33 e63b
00000040: db5e 443c 838f 1d3e 6780 ccbd 5aba a2bc
00000050: dda4 c4bb 2145 283d 3682 b83c 73d9 90bd
00000060: ee01 90bc 217d 843d 1f6d 0bbc 9e22 293b
00000070: 8cf9 123c 7ccc 293e 0ab8 c23b c43a 4e3c
00000080: 0531 083e aeeb f4bc f057 9a3d eb9d a8bb
00000090: 3380 dd3c c9be 98bd 7e40 fd3c a93a f0bd
000000a0: b274 aa3c e168 88bd 36f2 7cbc e4af dbbb
000000b0: b93a b23b 27ce 50bd 1fd6 e4bc 46b7 173d
000000c0: a942 5b3d 988b a93d 8641 163e fe59 873c
000000d0: 779b 8bbd 7ac8 9bbb 2740 dd3d e7a0 0c3c
000000e0: dbbb 483c d454 71bd 7057 183e 12e4 0c3d
000000f0: 36cd 80bd 11d6 ebbc c992 a3bc 4218 af3a
00000100: 3f5f 863c 43cb 22bd f59f 4cbd 26a2 d1bc
00000110: ffc1 e6bd 963c 2f3e d672 5ebc 7510 babc
00000120: 5be4 cebd 0e67 edbd 68ca b6bd 3e9c 04bd
00000130: 0c06 31bd a9ca df3c 6107 a5bc a744 13bc
00000140: 3e90 a23d c4f9 a23d cbdc 8d3d fb67 47bc
00000150: 09b0 22bc 6227 be3d 5b62 94bd 4e5e 90bc
00000160: 89ff 873c e1ac f13b ac1e 71bd a414 1abc
00000170: dd57 4bbd b840 bd3d 88c6 ac3d f798 fd3d
00000180: 7689 d33c 6372 a5ba 45cf b3bd b3d8 e13c
00000190: 0dfe 2b3d 191f 183d 8a9c 2abd 52f7 b7bc
000001a0: 253d a13d ce7e fd3d 5036 c4bd ac6b 893b
000001b0: 8846 0e3e 249c 8cbd d720 53bd 301c cc3c
000001c0: 4a57 e23c 18b3 8fbd b1e7 1a3e 8fb3 febc
000001d0: 529b 27bd 00a2 97bb b526 413d aa02 24bd
000001e0: 2b23 8fbd 05d6 e73c b944 dd3d 836c 543c
000001f0: 33db b2bc 00c1 f3bc abfe 823c 5401 cabc
00000200: ad1f 82bd 5377 ddbc a6f9 0fbe d98f dd3c
00000210: f82c 953d 0cc7 8dbd e7df 2b3b 0d87 633d
00000220: ef3f de3c d2eb 54bc 2c56 dcbd df8a 5b3c
00000230: c76a a43d fb4a 4e3d dfae b03c 4c25 7abc
00000240: 16c9 a1bc bc87 26be b69f d63d 44d0 25bb
00000250: eb33 513c e5d1 44bd 294b b2bc 1228 8c3d
00000260: c8ba 85bb 7806 b2bd fc4f 813c 02f8 cfbc
00000270: 3f96 aabc 7bf2 2dbe cb26 763c 00b7 10bc
00000280: 92db 0fbe 9840 0e3d b2f3 98bd 5434 c2bb
00000290: 4520 0abd e972 4b3d f4df e0bc d7d6 bc3d
000002a0: 0e62 a13a d985 a73d c77d 19bc a634 2f3b
000002b0: 9e7b a1ba 693c 2d3d 5166 303d 34c0 92bd
000002c0: 17a5 3abd d485 a7bd 3db5 25be c811 7ebc
000002d0: 7cd6 8b3d 62ab f13c 4cf7 e2bd 89c7 08bb
000002e0: b23d 06bc 8cfb 683d 6b72 13be b379 0fbd
000002f0: d2ac 793d e23f f83c 469c 9e3a 563a e0bb
00000300: ffd7 d7bb 18c6 053d 7b48 8f3d ed30 da3c
00000310: 7845 ca3d afee 26be 9302 c73c 3f25 8cbc
00000320: 4dfc d73d 70bf f03d a542 c63d fee2 343d
00000330: 1bfc 793c 2b24 02bd 36b1 97bb 551b 683c
00000340: e228 80bd 556c b6bd fcd4 9fbd 1f29 59ba
00000350: 7bd9 473b 2391 a5bd ec2c b13d bcf4 96bb
00000360: 136c 513a 0222 80bc dc0d 1b3d ad88 8e3c
00000370: 32bc 443d 6410 b2bd fd9f d4bd 6763 f7bd
00000380: 603a 10bc 0452 0a3c 9cb0 a33d fde3 1ebd
00000390: e33f 02bd 31c0 7ebc 3a62 153d 0e5f a83c
000003a0: 9318 8fbd 200e c9bd c6d6 cf3d a399 c2bc
000003b0: 273c 0abe 7fa9 aa3d a3bd 823d dcc7 2bbc
000003c0: a21a e2bc 9efe 823d d3f8 11be 3e9d d43c
000003d0: e8e5 4b3d 032d 08bb c3b4 bcbc 1bf2 413d
000003e0: c669 a03d c822 87bc 306f bdbd e1db b03b
000003f0: 6c9b 553c 6a29 293d 9915 1fbc aa9e c83c

action_model._discrete_distribution.branches.0.bias f4 [2]
0.073007785 -0.07300781
00000000: 1b85 953d 1e85 95bd

exp_avg f4 [128, 6]
2.6134958e-05 1.9818552e-05 8.705067e-07 5.395907e-08 1.8696692e-08 -8.05591e-08 1.6626622e-05 3.6684436e-05
4.6977275e-05 4.1411397e-07 1.434909e-07 -6.182632e-07 8.296385e-06 -7.5301796e-05 -1.8627334e-05 7.9663135e-07
2.760332e-07 -1.1893524e-06 4.8212132e-05 -4.991606e-06 -4.31574e-05 -1.2222974e-06 -4.2352707e-07 1.8248622e-06
4.2921034e-05 1.988773e-06 -3.899024e-06 -7.4242325e-07 -2.5725035e-07 1.1084202e-06 -3.6734964e-06 -0.00020491943
7.48037e-05 -2.1549592e-06 -7.466951e-07 3.2173052e-06 -4.3943638e-07 7.2797535e-05 8.469047e-06 3.6009465e-07
1.2477322e-07 -5.3761306e-07 1.735375e-05 -2.0890773e-05 -1.37849165e-05 -6.8953824e-07 -2.3892554e-07 1.029465e-06
4.1869207e-06 6.066804e-05 2.03781e-05 -7.482199e-08 -2.5925807e-08 1.1170769e-07 4.8911523e-05 6.4380083e-06
-4.474041e-05 9.1921734e-08 3.185106e-08 -1.3723634e-07 2.2170852e-06 3.7255875e-06 -1.4609939e-05 -1.1731292e-06
-4.0649007e-07 1.7514554e-06 -7.746212e-06 1.5228882e-05 1.1571574e-05 2.1668244e-07 7.508061e-08 -3.2350206e-07
-1.4269629e-05 -5.289918e-05 3.050843e-05 -2.9003868e-07 -1.0049872e-07 4.3302182e-07 4.2499203e-05 -6.4628107e-06
-1.0666424e-05 -8.480208e-08 -2.9384092e-08 1.2660793e-07 3.3686152e-05 -5.685783e-06 5.7193342e-06 5.165947e-07
1.7900038e-07 -7.71264e-07 4.121998e-05 -6.721076e-06 1.1838556e-05 6.813135e-07 2.3607565e-07 -1.0171862e-06
-1.9759233e-05 -0.00010793808 1.4729238e-05 -9.1110513e-07 -3.156986e-07 1.3602596e-06 2.4748593e-05 4.5800673e-05
-1.2486593e-06 -6.4597083e-07 -2.2382925e-07 9.644189e-07 4.334879e-05 -2.8531644e-05 -2.372033e-05 -1.5942693e-07
-5.5241408e-08 2.3801931e-07 1.4102449e-06 -2.7423837e-05 -4.141588e-05 -6.686944e-07 -2.317032e-07 9.983457e-07
-1.4796481e-05 9.286218e-05 -1.3545095e-05 -1.8066305e-07 -6.259985e-08 2.6972685e-07 6.2874795e-05 -1.2270645e-05
1.0068453e-05 -6.1256753e-07 -2.1225507e-07 9.1454854e-07 -1.0814549e-06 -8.5642605e-05 3.1749487e-06 -8.621347e-07
-2.9873033e-07 1.2871477e-06 1.712869e-05 7.102727e-05 1.8315463e-05 6.147077e-07 2.1299681e-07 -9.177452e-07
-4.0161644e-06 3.0085117e-05 4.612391e-05 1.8014748e-07 6.2421286e-08 -2.6895648e-07 -7.5266e-06 -3.1434705e-05
2.1274916e-06 -9.85566e-07 -3.414992e-07 1.4714275e-06 4.3898558e-07 0.00011099769 -3.565687e-05 -1.15337485e-07
-3.99647e-08 1.7219732e-07 6.7704277e-06 3.343146e-05 7.503618e-06 4.533768e-07 1.5709534e-07 -6.768813e-07
-5.105428e-06 0.00014668246 2.2056558e-06 7.010721e-07 2.4292206e-07 -1.046685e-06 1.3964674e-05 8.8009794e-05
-3.3794815e-05 4.9240978e-08 1.7062005e-08 -7.3516134e-08 5.127319e-05 -3.548777e-05 2.7811278e-05 -1.28153825e-08
-4.4406177e-09 1.9135125e-08 1.3082079e-05 0.000100206606 1.2023532e-06 1.0228565e-06 3.544205e-07 -1.5271019e-06
1.4423679e-05 1.2384808e-05 -3.2372773e-05 6.801439e-08 2.3567019e-08 -1.01543925e-07 -1.7897695e-05 5.0734667e-05
-7.252714e-05 -1.356184e-06 -4.699189e-07 2.0247517e-06 1.1118729e-05 7.197497e-05 -1.6216894e-05 6.0168736e-07
2.0848516e-07 -8.9830604e-07 7.135015e-05 3.2648408e-05 -1.6278784e-05 -5.5267077e-07 -1.915007e-07 8.251252e-07
5.199879e-06 5.650512e-05 -4.673054e-05 -3.345124e-07 -1.1590881e-07 4.994192e-07 -4.1816213e-05 -0.00020248709
-3.7893758e-06 -7.185109e-07 -2.4896426e-07 1.0727198e-06 3.353595e-05 8.750886e-06 -2.297379e-05 -5.1654945e-07
-1.7898486e-07 7.711967e-07 9.968845e-06 7.703127e-05 4.5980625e-05 1.2959061e-06 4.4903234e-07 -1.9347583e-06
-9.7286575e-06 -0.00013827068 3.5966117e-08 -1.3010352e-06 -4.5080952e-07 1.942417e-06 -1.3967787e-05 9.017785e-06
-4.4537624e-05 -1.1020212e-06 -3.8185132e-07 1.6452933e-06 -3.533359e-05 0.0001880242 -0.00012452468 -1.993469e-06
00000000: 653c db37 0440 a637 c4ac 6935 a0c0 6733
00000010: 769a a032 d5ff acb3 6679 8b37 9ddd 1938
00000020: 7709 4538 6453 de34 7a12 1a34 b9f6 25b5
00000030: b430 0b37 58eb 9db8 e541 9cb7 17d8 5535
00000040: b731 9434 d6a1 9fb5 6237 4a38 927d a7b6
00000050: e803 35b8 d20d a4b5 1e61 e3b4 caed f435
00000060: 1c06 3438 dc76 0536 5cd4 82b6 f04a 47b5
00000070: 381c 8ab4 07c5 9435 3086 76b6 a4df 56b9
00000080: eedf 9c38 eb9d 10b6 7f70 48b5 e2e8 5736
00000090: adeb ebb4 e1aa 9838 4816 0e37 0853 c134
000000a0: 67f9 0534 7d50 10b5 e592 9137 983e afb7
000000b0: c445 67b7 b518 39b5 ad45 80b4 262c 8a35
000000c0: 607d 8c36 d075 7e38 a3f1 aa37 d3ad a0b3
000000d0: 74b3 deb2 f4e3 ef33 5926 4d38 1206 d836
000000e0: a6a7 3bb8 8266 c533 9ccc 0833 3d5b 13b4
000000f0: 3cc9 1436 1b05 7a36 361d 75b7 6a74 9db5
00000100: 923b dab4 8d13 eb35 baf5 01b7 8d7f 7f37
00000110: 8823 4237 37a9 6834 003c a133 c9ad adb4
00000120: 9767 6fb7 10e0 5db8 5bec ff37 9db6 9bb4
00000130: c1d1 d7b3 117a e834 2c41 3238 1fdb d8b6
00000140: f1f3 32b7 701c b6b3 4d68 fcb2 b9f1 0734
00000150: 3b4a 0d38 81c8 beb6 b5e8 bf36 1eac 0a35
00000160: 4033 4034 dc08 4fb5 9ee3 2c38 9a85 e1b6
00000170: 369e 4637 82e3 3635 fb7b 7d34 4086 88b5
00000180: a1c0 a5b7 d15c e2b8 981d 7737 ab92 74b5
00000190: 497d a9b4 2a92 b635 339b cf37 191a 4038
000001a0: 9b97 a7b5 c766 2db5 b755 70b4 2e71 8135
000001b0: 69d1 3538 3d57 efb7 05fb c6b7 f12e 2bb4
000001c0: 9242 6db3 4092 7f34 a547 bd35 3e0c e6b7
000001d0: f6b5 2db8 5480 33b5 17ca 78b4 e6fe 8535
000001e0: 673e 78b7 01bf c238 bd3f 63b7 48fc 41b4
000001f0: a26e 86b3 face 9034 a6db 8338 05de 4db7
00000200: adeb 2837 526f 24b5 3be8 63b4 4c7f 7535
00000210: 8226 91b5 069b b3b8 3411 5536 726d 67b5
00000220: 2f61 a0b4 0fc2 ac35 95af 8f37 7af4 9438
00000230: 28a4 9937 6402 2535 1eb4 6434 f85a 76b5
00000240: 97c2 86b6 4c5f fc37 2c75 4138 906e 4134
00000250: 770c 8633 1965 90b4 008d fcb6 c2d8 03b8
00000260: 07c6 0e36 ca47 84b5 4b57 b7b4 dd7d c535
00000270: b8ad eb34 6ec7 e838 468e 15b8 74af f7b3
00000280: a7a5 2bb3 3de5 3834 882d e336 c238 0c38
00000290: 96c7 fb36 a267 f334 0aae 2834 eeb2 35b5
000002a0: 4b4f abb6 c6ce 1939 e104 1436 4f31 3c35
000002b0: f46a 8234 d37b 8cb5 d149 6a37 e691 b838
000002c0: e8be 0db8 077d 5333 bf8f 9232 ecdf 9db3
000002d0: 2b0e 5738 b4d8 14b8 444c e937 a62a 5cb2
000002e0: 1694 98b1 965e a432 1a7b 5b37 0326 d238
000002f0: 8b60 a135 1549 8935 2f47 be34 d2f6 ccb5
00000300: 3bfd 7137 58c8 4f37 00c8 07b8 4e0f 9233
00000310: 6c70 ca32 5d10 dab3 0223 96b7 efcb 5438
00000320: b619 98b8 2106 b6b5 2949 fcb4 f8e0 0736
00000330: 948a 3a37 45f1 9638 8409 88b7 a483 2135
00000340: f7db 5f34 1f23 71b5 d2a1 9538 f6ef 0838
00000350: 6c8e 88b7 3f5b 14b5 509f 4db4 2c7e 5d35
00000360: 9f7a ae36 e9ff 6c38 8900 44b8 0997 b3b4
00000370: 8be9 f8b3 d30f 0635 d163 2fb8 b752 54b9
00000380: fb4c 7eb6 b1df 40b5 63a9 85b4 5ffa 8f35
00000390: f4a8 0c38 c5d0 1237 d7b7 c0b7 02a9 0ab5
000003a0: fc2e 40b4 3c04 4f35 dd3f 2737 d98b a138
000003b0: 52db 4038 ffee ad35 8912 f134 e5d6 01b6
000003c0: 4438 23b7 c1fc 10b9 2a79 1a33 3b9f aeb5
000003d0: ca06 f2b4 785a 0236 3057 6ab7 174b 1737
000003e0: e9cd 3ab8 29e9 93b5 3f01 cdb4 d9d3 dc35
000003f0: 2733 14b8 5d28 4539 d792 02b9 89c7 05b6

exp_avg_sq f4 [128, 6]
4.3035616e-08 2.0973167e-07 4.3952877e-08 2.0516398e-11 2.4632629e-12 4.5730655e-11 9.4383765e-08 6.648852e-07
1.220295e-07 9.060127e-11 1.0877861e-11 2.019484e-10 2.7900246e-08 5.8468196e-08 4.0873154e-08 1.35888375e-11
1.631538e-12 3.0289302e-11 7.523866e-08 8.142378e-08 9.51917e-08 2.4781482e-11 2.9753502e-12 5.5237502e-11
9.760301e-08 2.387119e-07 8.572038e-08 7.5816076e-11 9.102703e-12 1.6899261e-10 1.8142532e-07 6.5734326e-07
1.6114237e-07 6.401147e-11 7.685431e-12 1.4268042e-10 3.3884515e-08 7.9198756e-08 3.30842e-08 1.6581203e-11
1.9907897e-12 3.6959172e-11 2.9808536e-08 5.435053e-08 2.7755286e-08 1.055921e-11 1.2677696e-12 2.3536303e-11
1.2005295e-08 2.8676396e-08 2.3243883e-08 5.7584415e-12 6.913859e-13 1.2835472e-11 7.83416e-08 1.4547017e-07
2.2391232e-07 6.452809e-11 7.747441e-12 1.43832e-10 2.3498522e-08 5.5112324e-08 2.1746574e-08 1.2782638e-11
1.5347205e-12 2.8492313e-11 4.9665005e-09 1.30052085e-08 6.0693655e-09 2.63062e-12 3.1584297e-13 5.8636125e-12
2.1079131e-07 5.2151955e-07 2.3367002e-07 7.0150524e-11 8.422517e-12 1.5636432e-10 5.1529966e-08 7.414633e-08
1.1952291e-07 3.4708306e-11 4.1672195e-12 7.736427e-11 2.8475128e-08 3.762738e-08 5.3498027e-08 1.5820789e-11
1.8995135e-12 3.5264302e-11 5.9641714e-08 8.88427e-08 1.375428e-07 3.780802e-11 4.539371e-12 8.427325e-11
4.993459e-08 2.3734015e-07 2.2514692e-08 2.0618411e-11 2.4755183e-12 4.5958074e-11 6.847379e-08 1.01131334e-07
9.6175256e-08 4.5790958e-11 5.497794e-12 1.0206729e-10 6.763427e-08 1.2570247e-07 1.5777886e-07 5.54985e-11
6.663322e-12 1.2370516e-10 1.3976394e-08 1.8130676e-08 1.1824496e-08 4.926842e-12 5.9153214e-13 1.0981842e-11
1.0370914e-07 3.3697498e-07 8.255663e-08 4.1940562e-11 5.035513e-12 9.3484824e-11 1.0020332e-07 2.5285314e-07
1.0792854e-07 7.507139e-11 9.013279e-12 1.6733262e-10 4.8591097e-08 1.6491744e-07 3.1896953e-08 1.3605393e-11
1.6335046e-12 3.032617e-11 1.9265533e-08 1.3783189e-07 2.1059927e-08 1.0178147e-11 1.222024e-12 2.2686906e-11
2.8256842e-08 7.552146e-08 2.3936876e-08 1.04822045e-11 1.258535e-12 2.3364649e-11 3.0744122e-08 9.2904834e-08
2.122672e-08 1.120508e-11 1.3453241e-12 2.4975957e-11 6.907823e-08 2.4020656e-07 3.5554226e-08 2.1871296e-11
2.6259398e-12 4.875075e-11 1.2293632e-08 6.327223e-08 1.0037535e-08 6.36051e-12 7.636691e-13 1.4177482e-11
6.819109e-08 2.555387e-07 7.038565e-08 3.4228117e-11 4.1095244e-12 7.629384e-11 7.7399065e-08 3.1815213e-07
4.4569322e-08 2.91991e-11 3.5057317e-12 6.508429e-11 9.014033e-08 2.3517205e-07 2.2155756e-07 8.153076e-11
9.7888295e-12 1.8173066e-10 4.0660996e-08 1.7331061e-07 3.6686004e-08 2.0850571e-11 2.503426e-12 4.647561e-11
2.0037593e-08 1.2475267e-07 4.312284e-08 1.4684344e-11 1.7630522e-12 3.2731165e-11 1.7739012e-08 3.063528e-08
2.4818682e-08 1.3264264e-11 1.592548e-12 2.956586e-11 1.5330636e-08 7.069899e-08 1.9186828e-08 8.249641e-12
9.904936e-13 1.8388284e-11 5.7689487e-08 5.9208855e-08 7.1328756e-08 2.6582818e-11 3.1916418e-12 5.925264e-11
2.7684163e-08 1.6430889e-07 4.5800668e-08 2.1348236e-11 2.5631385e-12 4.758477e-11 1.4783625e-07 5.2321496e-07
6.4325526e-08 4.8643135e-11 5.840282e-12 1.0842472e-10 1.9245117e-08 3.233527e-08 4.465876e-08 1.3048765e-11
1.5666717e-12 2.9085486e-11 3.4206128e-08 1.8161752e-07 3.4315963e-08 1.633935e-11 1.9617532e-12 3.6420072e-11
7.064698e-08 6.349448e-07 4.192207e-08 4.1557553e-11 4.989518e-12 9.263107e-11 3.3838536e-08 6.0700266e-08
3.663954e-08 1.8223787e-11 2.1879993e-12 4.062051e-11 1.320707e-07 2.3666254e-07 1.677792e-07 8.67921e-11
00000000: 29d6 3833 9a32 6134 b3c6 3c33 d276 b42d
00000010: 3356 2d2c 2420 492e 06b0 ca33 907a 3235
00000020: 3707 0334 fb3b c72e 885d 3f2d 6c0b 5e2f
00000030: 4aa9 ef32 761e 7b33 828c 2f33 af0e 6f2d
00000040: 5a9e e52b b936 052e e492 a133 32db ae33
00000050: 316c cc33 f0fa d92d 255f 512c e6ef 722e
00000060: d299 d133 5028 8034 4715 b833 a8b8 a62e
00000070: ee22 202d 31cf 392f d0cd 4234 4974 3035
00000080: 7a06 2d34 41c3 8c2e 1b34 072d f8e0 1c2f
00000090: 6b88 1133 fa13 aa33 7618 0e33 8dd9 912d
000000a0: e116 0c2c 548c 222e d506 0033 0a6f 6933
000000b0: 856a ee32 74c2 392d 376c b22b 0b07 cf2d
000000c0: d93f 4e32 1054 f632 d7a9 c732 6e9b ca2c
000000d0: 9b9b 422b d4cd 612d c03c a833 8932 1c34
000000e0: 8d6c 7034 16e6 8d2e 5f4b 082d 1c25 1e2f
000000f0: ccd9 c932 a4b4 6c33 39cd ba32 e2df 602d
00000100: 22fe d72b fc9e fa2d cda5 aa31 836d 5f32
00000110: b48a d031 091d 392c c5cd b12a ba4e ce2c
00000120: e055 6234 8dfe 0b35 bae6 7a34 3c43 9a2e
00000130: a52b 142d a5ec 2b2f cc51 5d33 603a 9f33
00000140: 3556 0034 14a6 182e fa9e 922c 3620 aa2e
00000150: 7899 f432 be9b 2133 b4c5 6533 4029 8b2d
00000160: 98aa 052c 1318 1b2e 6114 8033 cac9 be33
00000170: 7aaf 1334 0c48 262e 05b7 9f2c 9f51 b92e
00000180: aa77 5633 90d7 7e34 5566 c132 895c b52d
00000190: f932 2e2c 3120 4a2e dd0b 9333 8a2d d933
000001a0: e888 ce33 0964 492e ba6f c12c c772 e02e
000001b0: 553e 9133 d5f8 0634 ec69 2934 c215 742e
000001c0: de71 ea2c e803 082f d51c 7032 c7bd 9b32
000001d0: af24 4b32 0c59 ad2c 6280 262b d231 412d
000001e0: b4b6 de33 7de9 b434 fd49 b133 e074 382e
000001f0: de2b b12c 4793 cd2e 5c2f d733 dfbf 8734
00000200: 58c6 e733 6f15 a52e 3390 1e2d f2fb 372f
00000210: 7ab2 5033 2914 3134 12ff 0833 3e59 6f2d
00000220: 35e5 e52b 3b60 052e 5b7d a532 f1fe 1334
00000230: 45e7 b432 4d0e 332d 0efc ab2b 5f8e c72d
00000240: 74b9 f232 5d2e a233 bf9d cd32 a767 382d
00000250: 811f b12b 8384 cd2d 850b 0433 f982 c733
00000260: 0d56 b632 321f 452d 6956 bd2b dbb0 db2d
00000270: 2958 9433 bdf5 8034 49b4 1833 c861 c02d
00000280: bac8 382c 7768 562e f733 5332 47e0 8733
00000290: 8c71 2c32 62ca df2c 28f4 562b b469 792d
000002a0: 7370 9233 f930 8934 ec26 9733 6f89 162e
000002b0: 4e97 902c 9dc5 a72e 9636 a633 7fce aa34
000002c0: 7d6c 3f33 446b 002e a6b1 762c 331f 8f2e
000002d0: 2c93 c133 9a83 7c34 47e5 6d34 bd49 b32e
000002e0: f834 2c2d a2d0 472f 3da3 2e33 4217 3a34
000002f0: b090 1d33 5067 b72d b729 302c e366 4c2e
00000300: 221f ac32 c1f3 0534 1036 3933 342a 812d
00000310: a620 f82b 04f4 0f2e 8060 9832 d993 0333
00000320: dc30 d532 ef58 692d 9721 e02b 3308 022e
00000330: 6db0 8332 2ed3 9733 48d0 a432 1521 112d
00000340: 4b66 8b2b bcbe a12d 43c6 7733 d34c 7e33
00000350: 662d 9933 2fd3 e92d 8297 602c 454c 822e
00000360: 1ece ed32 e26c 3034 5eb6 4433 f4c7 bb2d
00000370: 665d 342c b047 512e ebbc 1e34 0f73 0c35
00000380: 5523 8a33 4def 552e 957c cd2c b16d ee2e
00000390: 7650 a532 01e1 0a33 d3ce 3f33 6a8e 652d
000003a0: 4c7d dc2b b1d6 ff2d 09ea 1233 a502 4334
000003b0: cd62 1333 f2b8 8f2d ce0b 0a2c 5b2d 202e
000003c0: 97b6 9733 1371 2a35 ce0d 3433 a5c5 362e
000003d0: 958d af2c a8b2 cb2e dd55 1133 535a 8233
000003e0: 9a5d 1d33 524c a02d 7ef7 192c a1a6 322e
000003f0: 51cf 0d34 4e1d 7e34 cc26 3434 9cdb be2e

exp_avg f4 [128]
3.895639e-06 2.989748e-05 5.7513666e-05 -8.8245135e-05 -5.3600033e-05 -0.00015557969 2.5997457e-05 -4.9781975e-05
-5.4018515e-06 6.6364e-06 -8.469534e-05 1.564364e-05 -2.0939651e-05 -6.1223727e-06 3.7296115e-05 4.9188202e-05
-6.577825e-05 -4.663652e-05 -1.1509908e-05 -4.8277125e-05 -1.3043188e-05 -4.4224915e-05 -6.224279e-05 4.437953e-05
1.30059925e-05 -7.115401e-05 -8.32694e-06 3.2732052e-05 5.061463e-05 3.5550274e-06 -9.252109e-07 7.384629e-05
4.910367e-06 -9.791119e-05 4.3439508e-05 -3.990068e-05 -2.4150468e-05 -5.187369e-05 -3.729283e-05 9.3559385e-05
-9.392973e-05 -7.956166e-05 -0.00014392064 3.3340657e-05 -3.652708e-05 -2.2796206e-05 -8.764667e-05 2.1116839e-05
1.2818886e-05 -3.9507402e-05 -3.337249e-05 -1.2287709e-05 -1.9811978e-05 7.776322e-06 -0.00011786991 -8.7776374e-05
-5.4861168e-05 -4.8577553e-05 -0.00011593719 -7.312048e-05 -6.9844806e-05 -5.497796e-05 4.4772114e-05 -2.6508722e-05
-1.0092929e-05 6.443352e-05 -5.843501e-05 -1.5593846e-06 -2.8781686e-05 6.394812e-05 -3.7209662e-05 7.809545e-05
-2.4651661e-05 -4.7447542e-05 -3.7336282e-05 2.7608055e-05 -6.919497e-05 9.111305e-06 0.00014958318 2.0914087e-05
-1.0438999e-05 1.0430848e-05 2.9230193e-06 9.705298e-05 -1.1338635e-05 -3.2729105e-05 7.551146e-05 -1.2551837e-05
3.2427986e-05 -0.000103954146 -5.460318e-05 -1.7271966e-05 3.0911672e-06 -3.7698435e-05 -2.0622726e-06 -2.0236386e-05
-7.714603e-05 3.5013785e-05 -3.3194858e-05 -3.4241133e-05 4.6360376e-05 -4.6993602e-05 8.625603e-05 -8.332084e-05
-1.5870004e-05 1.002967e-05 1.33996755e-05 -7.706836e-05 -4.013508e-05 -7.1255263e-06 -0.00015523662 -5.4061566e-05
-2.2179336e-05 3.8985578e-05 -4.2121446e-05 1.8903695e-05 2.3693896e-05 4.4930148e-05 3.5990957e-05 -1.3464642e-05
5.1882125e-06 -7.7403805e-05 -2.1681966e-05 9.7309865e-05 6.503465e-05 -8.7268585e-05 -7.7664845e-05 -9.737936e-05
00000000: 49b7 8236 59cc fa37 d43a 7138 3f10 b9b8
00000010: 99d0 60b8 1b23 23b9 1d15 da37 fdcc 50b8
00000020: 8d41 b5b6 3eae de36 779e b1b8 763a 8337
00000030: 8fa7 afb7 c86e cdb6 666e 1c38 6e4f 4e38
00000040: 6ef2 89b8 959b 43b8 ae1a 41b7 2b7d 4ab8
00000050: 11d4 5ab7 247e 39b8 5888 82b8 2824 3a38
00000060: 5034 5a37 8538 95b8 efb3 0bb7 c649 0938
00000070: 0c4b 5438 e892 6e36 025c 78b5 eddd 9a38
00000080: bbc3 a436 ab55 cdb8 d132 3638 075b 27b8
00000090: bc96 cab7 f392 59b8 df6a 1cb8 5035 c438
000000a0: 24fc c4b8 57da a6b8 67e9 16b9 42d7 0b38
000000b0: a734 19b8 7b3a bfb7 f3ce b7b8 1124 b137
000000c0: b210 5737 c0b4 25b8 70f9 0bb8 4f27 4eb7
000000d0: e631 a6b7 0c77 0237 ed30 f7b8 9514 b8b8
000000e0: bb1a 66b8 c0bf 4bb8 4e23 f3b8 4258 99b8
000000f0: a579 92b8 2398 66b8 b1c9 3b38 0c5f deb7
00000100: cd54 29b7 7c20 8738 1d18 75b8 0c4c d1b5
00000110: 3370 f1b7 e31b 8638 9211 1cb8 2dc7 a338
00000120: 0acb ceb7 6902 47b8 8799 1cb8 d997 e737
00000130: c41c 91b8 c2dc 1837 6ed9 1c39 a970 af37
00000140: 2923 2fb7 2700 2f37 1729 4436 ec88 cb38
00000150: 113b 3eb7 9c46 09b8 e85b 9e38 bb95 52b7
00000160: 4903 0838 f501 dab8 b805 65b8 44e3 90b7
00000170: d971 4f36 631e 1eb8 9365 0ab6 4fc1 a9b7
00000180: 76c9 a1b8 c4db 1238 b53a 0bb8 239e 0fb8
00000190: 1373 4238 ff1a 45b8 5ae4 b438 89bc aeb8
000001a0: 9320 85b7 1b45 2837 2bcf 6037 c39f a1b8
000001b0: b756 28b8 ce17 efb6 03c7 22b9 2ac0 62b8
000001c0: c30d bab7 7284 2338 8fab 30b8 6093 9e37
000001d0: 41c2 c637 6173 3c38 fff4 1638 32e6 61b7
000001e0: 6816 ae36 da53 a2b8 abe1 b5b7 d612 cc38
000001f0: 3663 8838 f703 b7b8 ffdf a2b8 2538 ccb8
