turretresults/turret_train_1/TurretShoot/TurretShoot-165230.pt (torch, 24218 bytes, 30 tensors)

network_body._body_endoder.seq_layers.0.weight f4 [20, 11]
00000000: bfd3 18be 6f12 023e d53c b4bd b4ff bebf
00000010: d51c a3be 0f4f 973e 4bb2 9a3e edcb 653e
00000020: 362f 05bd 65ee baba ba64 b43e 3fa8 0bbf
00000030: 2ad2 24be aff2 973e 7213 8e3f 3703 333e
00000040: 22b1 aabd 0967 f53e c9f6 063f 4f4f d0bd
00000050: 43bf bfbe 926e 70bd 90ac 4a3e 935f 11bf
00000060: f761 8dbe bd04 1abd 3716 483e 0c58 f63e
00000070: 6e63 2fbc 4a86 fb3c a649 8c3e 1102 29be
00000080: 2400 803e 7b51 90be 15aa 863e ca49 b5be
00000090: 4df7 49be f6cb bb3e 5cc1 5c3d b3e8 e33d
000000a0: f691 ba3c f69d 5bbd 844d 91bc 9a13 b93e
000000b0: cb7a de3e f762 a3bc 4304 33bf 3903 8fbf
000000c0: 5421 043e 4e8e 6abd 1bda 67be 35e4 2d3f
000000d0: 2642 e3be 7657 8c3d c177 c23d 3ab4 21bd
000000e0: 8bac 50bf 78eb f93d 5374 51bf b61f dd3e
000000f0: bcd5 b83e b6f0 153d ad84 0c3f db2c 3c3e
00000100: 3bb2 2f3e ed98 d53d c469 a93e 89f6 e63d
00000110: aa93 0fbf 058c d13e 747b e5bc d377 1dbf
00000120: 3ce5 72bd a635 81be a2f0 44bc ba27 5f3e
00000130: a396 b83e 2e2b a03e 0ab7 243d 287b c63d
00000140: 37dc a73d 0030 f63b c388 a7be 80e9 adbe
00000150: 4e8e c93d 3e88 fa3e 1a87 4cbd f1ea bbbd
00000160: 8b2b a13e 5132 f43e 3c42 9b3d 250c 15bf
00000170: 2e08 fcbd 56eb 55be 2c42 35be d078 9bbe
00000180: aeb1 22be 1d67 24be 6767 4cbe ee78 c03e
00000190: 2267 c03e 1590 aabe d351 2a3f 7477 623e
000001a0: 6b52 bbbe b2ca 77be 8009 0a3f d261 ca3e
000001b0: b304 b23d 1fd8 b13e c212 943e 3b97 803e
000001c0: ca55 c4be 1cdc c53f 7c03 c63e f093 c93e
000001d0: c6cf 7d3e 20b1 9b3e b7f1 ea3c 9465 2bbe
000001e0: 968f 303e 9daf 263e a482 973d cfee a53e
000001f0: 41e1 5c3f 8ed6 ea3e ad69 963c 6dac ae3d
00000200: 75bb 89be d2e0 3fbd 34e7 b03e 38e8 983d
00000210: 208b 16be d835 1a3e 8e66 fbbe bbf4 d2bd
00000220: 0959 e9be a293 dbbc 4bb1 c2be 104e 093e
00000230: 5bf3 703f 2155 893e fd97 933e 8c59 a03e
00000240: 82eb 92be 5118 cebe 9b72 debf 126b 05be
00000250: 2df6 f63e c0f0 6b3e 831f 093f e435 c0bd
00000260: b230 57be ca44 113f b747 ff3e c145 29bf
00000270: 4d2b 153d f393 aabf 295a 8abb 153f 333b
00000280: 2c38 e2bd 26fb 2fbe eff3 bb3e 4839 403f
00000290: 6949 f03e 1ff0 ebbd d9c1 98be fd5c f3bd
000002a0: e022 0b40 e44e 61be b090 f03e 5ef1 03be
000002b0: d182 033f feb4 943e 8359 82bd d4d8 793d
000002c0: 0ac3 c1be 4db8 18bd 4dfe afbd d529 853f
000002d0: 5eb4 7e3f cac3 993e f872 8a3e 33cb f6bd
000002e0: 690a 5b3e 772c 633d a1e9 8ebe f243 2cbd
000002f0: c115 65bd 2fc4 4abd c90e 823f fcb0 5f3d
00000300: c1db 8d3e 7c7b 043f b320 87bf 4802 10b9
00000310: cac1 463e d26d 3e3e 77a3 82be b4da 7539
00000320: d442 bf3d 332c e73f 90ce aabe 9ab0 883e
00000330: dd2f 3f3f b80c eabe 52a3 92be 7cac 683e
00000340: f4be 233f 4050 aabe 61ef 96bd 7e52 f23d
00000350: df78 cbbf bea1 2bbf 457f f7be 3e0c b83e
00000360: fc33 35be a5cf f8bd 774c a3bc 0d56 8d3d
-0.14924525 0.12702344 -0.08800665 -1.4921784 -0.31857935 0.29552504 0.30214152 0.22441073
-0.032515727 -0.0014261721 0.35233098 -0.545536 -0.16095796 0.2967734 1.1099684 0.17481695
-0.08334567 0.47930172 0.52720314 -0.10171377 -0.3745061 -0.058699198 0.1979239 -0.5678646
-0.27613804 -0.037602175 0.19539724 0.4811405 -0.010704858 0.030703682 0.2739994 -0.16504695
0.25000107 -0.28187165 0.26301637 -0.3540786 -0.19723244 0.36679047 0.05389534 0.11128368
0.022774678 -0.05361744 -0.017737158 0.36147767 0.4345306 -0.019944651 -0.6992838 -1.1172858
0.12903339 -0.05726462 -0.22641794 0.6792634 -0.44386405 0.06852619 0.094954975 -0.039478518
-0.8151328 0.12203115 -0.8181812 0.43188256 0.36100566 0.036606513 0.5488995 0.18376486
0.17157833 0.10429559 0.33088505 0.112774916 -0.5608469 0.4092714 -0.028012969 -0.6151096
-0.059300646 -0.25236243 -0.012020262 0.21792498 0.36052427 0.31282943 0.040213622 0.09691459
0.081962995 0.0075130463 -0.32721528 -0.3396721 0.098415956 0.4893207 -0.04993353 -0.09175671
0.31478533 0.47694638 0.075809926 -0.58221656 -0.12306248 -0.20890555 -0.17701024 -0.3036561
-0.15888092 -0.1605496 -0.1996132 0.37592262 0.37578684 -0.3331305 0.66531104 0.2211588
-0.36586317 -0.24198416 0.53920746 0.39527756 0.086923026 0.347352 0.2892056 0.2511538
-0.38346702 1.5457797 0.38674533 0.3937068 0.2478629 0.30408573 0.028679712 -0.16737968
0.17242274 0.16277929 0.073979646 0.3240876 0.8628121 0.45866817 0.018360937 0.08528981
-0.2690083 -0.046845265 0.34551394 0.07466167 -0.1470151 0.15059602 -0.4910168 -0.10300585
-0.4557574 -0.026803795 -0.3802589 0.13408685 0.9412133 0.2682276 0.28826895 0.3131832
-0.28695303 -0.40252927 -1.7378725 -0.13029125 0.48234692 0.23041058 0.5356371 -0.09385279
-0.2101467 0.5674559 0.49859402 -0.6612206 0.036418248 -1.33264 -0.0042221737 0.0027350832
-0.1104587 -0.1718565 0.36709544 0.75087404 0.46931008 -0.11520409 -0.29835394 -0.118829705
2.1740036 -0.2200275 0.46985388 -0.12885043 0.51371485 0.29044336 -0.06364729 0.0609978
-0.37844115 -0.037285138 -0.08593426 1.0403391 0.9949397 0.30032188 0.2704084 -0.12050476
0.2139069 0.055462327 -0.2791262 -0.042056985 -0.05592895 -0.0495035 1.0160762 0.054612145
0.2770672 0.5175092 -1.0556854 -0.0001373376 0.19409862 0.1859658 -0.2551534 0.00023446494
0.09338918 1.8060364 -0.3336072 0.26697236 0.7468241 -0.4571283 -0.2864023 0.22722048
0.63963246 -0.3326435 -0.07369877 0.118321404 -1.5896262 -0.67043674 -0.48339286 0.3594684
-0.17695612 -0.1214898 -0.019933922 0.069011785

network_body._body_endoder.seq_layers.0.bias f4 [20]
00000000: c1c6 f43d fac7 a03d 846b 613d dae9 223e
00000010: 3ab8 e93d 2f0d 843d 649d 24be 8618 8abd
00000020: 8487 96bd 6a03 a0bd 1480 193e 02de d73d
00000030: 501a 85bd f232 d63d 62e6 703d 6b39 823d
00000040: dbf4 d53d b3ad 113e d56b c23d f7a1 ef3c
0.11951972 0.078506425 0.055034176 0.1590952 0.114120916 0.06447827 -0.16075665 -0.06742959
-0.07350066 -0.07813151 0.14990264 0.105403915 -0.06499159 0.10458936 0.05881346 0.06358608
0.10447093 0.14226417 0.094932236 0.029252036

action_model._continuous_distribution.log_sigma f4 [1, 2]
00000000: dc65 98be ea42 18bc
-0.29765213 -0.009293297

action_model._continuous_distribution.mu.weight f4 [2, 20]
00000000: 6d9a c13d fa79 bebc 2964 a23a a7fd 243c
00000010: 84d9 1fbd 383e 1d3d a29b 193c 4e51 b33a
00000020: bd6c 16bc dd0a 0a3c bb8e e0bd e97d ddbc
00000030: 613a 96bc 73e3 de3d 7fee 3cbd ca86 5fbe
00000040: 3322 8cbc a394 7cbd a574 2dbd 9edc 0b3e
00000050: b02c 78bd 4d0e 9a3c 5411 ab3d 3119 96bd
00000060: c790 343c 6f68 313c 41c6 063d 99bf 063c
00000070: 5f38 b63c e18a a13b 0a4b 76bc f1fd b6bc
00000080: 9ba5 de3d ae1d a13d 4e5a 13bd eb37 4f3c
00000090: e518 9ebc f162 7cbd 2d96 433c 22e0 dc3d
0.094532825 -0.023251522 0.0012389469 0.010070241 -0.0390258 0.038389415 0.009375485 0.0013680847
-0.009181199 0.008425442 -0.10964724 -0.027037578 -0.018338384 0.10883226 -0.046125885 -0.21828762
-0.017106151 -0.06166519 -0.04234757 0.13658378 -0.060589492 0.018805647 0.083529145 -0.07329024
0.011020846 0.010828122 0.032903913 0.008224391 0.022243677 0.0049298857 -0.015032539 -0.022337886
0.108714305 0.07866989 -0.035974793 0.012647609 -0.01929898 -0.061617795 0.01193766 0.107849374

action_model._continuous_distribution.mu.bias f4 [2]
00000000: 0e3c b2bb e529 e9bc
-0.005439288 -0.02846236

action_model._discrete_distribution.branches.0.weight f4 [2, 20]
00000000: 52d0 3b3e c131 293e 3819 35be 9b7e 6d3e
00000010: 08eb 1bbe 4bdd 5a3e a989 2ebe a97d 20be
00000020: c3ee febd f486 23be a52d 30be a349 fabd
00000030: 2990 36be 1ad2 1bbe 8981 0cbe f7bc 1bbe
00000040: 25a2 133e 50f7 433e 2214 193e 8257 143e
00000050: 1a76 39be ad22 1bbe c652 103e 9c87 53be
00000060: 1364 423e 4389 0cbe 733a 493e 51f1 073e
00000070: fcca 183e ed91 323e 09ec 393e a9ce 123e
00000080: 9fa6 143e 94c1 263e f4bf 1b3e 7ae9 343e
00000090: 80dc 3cbe bd67 3cbe d329 1cbe 5354 18be
0.18341187 0.16522886 -0.17685401 0.23192827 -0.15226376 0.21373479 -0.170447 -0.15672936
-0.12447884 -0.1596945 -0.17204912 -0.12221076 -0.1782843 -0.15216866 -0.13721289 -0.15208803
0.14417322 0.19137311 0.14949086 0.14486507 -0.18111458 -0.15149947 0.14094076 -0.206572
0.18983488 -0.13724236 0.19651203 0.13275649 0.14921182 0.17438479 0.18156447 0.14336647
0.14516686 0.16284782 0.15209943 0.17667189 -0.18443489 -0.18398948 -0.1525033 -0.14875917

action_model._discrete_distribution.branches.0.bias f4 [2]
00000000: dc3f 123e d83f 12be
0.14282173 -0.14282167

exp_avg f4 [20, 11]
00000000: ad26 11bd dbc2 5cb8 42cd c32e af5c 1fb7
00000010: 7237 9339 1d6c 9c3b b926 113d e383 082d
00000020: 62ee 9bb4 2f5d c12c 0400 0000 07f0 023c
00000030: c51c 4737 dd35 b0ad e51c 1a37 2b6d 86b8
00000040: 1dae 93ba 10f0 02bc 22ce 9aab 0233 fe33
00000050: a0b9 a7ab 0400 0080 bc4c bf3a b985 1136
00000060: 45ef 5fac 48d5 ed36 538f 33b7 bb7a b5b9
00000070: cc4c bfba 126b 482c e512 7334 b16c 51a9
00000080: 0400 0080 f1b6 dfbb 488b 29b7 f5ed 842d
00000090: 27bf f4b8 f82e 8938 4285 e23a 02b7 df3b
000000a0: d47e 1aad 506b 65b5 23fb 622b 0400 0000
000000b0: 6546 88ba 0446 cfb5 2681 3a2c d5cd df35
000000c0: 8914 0737 0dfa 0339 7046 883a 2df3 db2a
000000d0: 009f 0d31 6a63 3e2a 0400 0000 49a9 1abc
000000e0: 3454 6bb7 53d7 d72d b47e 2a38 fa97 9738
000000f0: 8e01 8a3a 55a9 1a3c 223e e92c eec0 9434
00000100: d2e8 f52b 0400 0000 f198 0d39 0e2b 5934
00000110: 7fed f9aa b737 bdb6 318e 0bb5 9060 b737
00000120: ff98 0db9 8e35 1aab a10c 27b3 821e 15a9
00000130: 0400 0080 7fa8 7c34 d671 3d30 3a9e b5a8
00000140: 6906 90b5 65a9 f333 5491 ea36 32a9 7cb4
00000150: c10a ada9 790f cbb1 9bd8 c025 0400 0080
00000160: bc11 c7b9 7f2b 17b5 25a5 7f2b 4302 2fb6
00000170: 3549 5a36 5d18 8e38 cb11 c739 929b 13aa
00000180: fc85 abb2 00e4 7829 0400 0000 273b 3739
00000190: 96af 8b34 60ef 01ab 15fa a1b5 d410 a5b5
000001a0: f30d 63b7 353b 37b9 d140 10aa dc90 d4b1
000001b0: 91e1 dba8 0400 0080 7dfb a23c ebd8 f737
000001c0: db32 60ae 4b7b 91b8 d5ba 21b9 37fb 1fbb
000001d0: 89fb a2bc 3fbd 5fad 506e d7b4 0ba4 78ac
000001e0: 0400 0080 16bf 443b 68e2 9536 f1c2 0aad
000001f0: b938 c8b7 ce8f b2b7 1906 76b9 27bf 44bb
00000200: 8ac2 3cac a005 0cb4 76d1 09ab 0400 0080
00000210: ef66 81b5 abd2 8c31 fc82 0aa9 8472 6435
00000220: 00e3 94b4 bf80 5bb5 4267 8135 4bab 3129
00000230: a871 0bb3 720b d0a7 0400 0080 9be4 55bc
00000240: 4b6e a2b7 28b2 1a2e 21d0 a038 5034 dc38
00000250: 0595 c13a ace4 553c d2d0 8f2d feda 5f35
00000260: 9ab1 682c 0400 0000 807e 98ba 7950 e8b5
00000270: f728 592c d75e 1037 a689 0c37 8a19 c638
00000280: 8a7e 983a 28db 982b 3484 7733 dc81 6b2a
00000290: 0400 0000 a5b9 323d dbe5 8738 4e7e f3ae
000002a0: bdf7 dab8 6232 b3b9 22ba bcbb b2b9 32bd
000002b0: a76c cead a18c 31b5 2b57 07ad 0400 0080
000002c0: 756c 9a3b 8161 eb36 22c7 60ad a4fd 4db8
000002d0: daac 07b8 776f 92b9 806c 9abb cb3a c1ac
000002e0: 59ae a4b4 1d44 66ab 0400 0080 7a23 953c
000002f0: f342 e337 3bb9 56ae 5f96 2fb9 f850 05b9
00000300: 7462 a2ba 8523 95bc 36a0 a9ad f998 8bb5
00000310: 5763 60ac 0400 0080 b4a9 623c 1e6e ac37
00000320: 8415 1bae 8c50 a7b7 8d1b e1b8 3333 deba
00000330: c7a9 62bc 8a1c b4ac bbd1 4cb3 9453 18ac
00000340: 0400 0080 b977 2cbd 4b5a 83b8 1060 f52e
00000350: 4d52 a839 0b06 9e39 58c4 5c3b c577 2c3d
00000360: 21bb 2c2e ee08 0536 bcce 012d 0400 0000
-0.035437275 -5.263356e-05 8.9040345e-11 -9.498718e-06 0.00028079335 0.0047736303 0.03543732 7.75999e-12
-2.9044446e-07 5.4957354e-12 6e-45 0.007991797 1.1868023e-05 -2.0032804e-11 9.185843e-06 -6.409952e-05
-0.00112671 -0.007991806 -1.0999571e-12 1.1837075e-07 -1.1917585e-12 -6e-45 0.0014595012 2.168452e-06
-3.1823027e-12 7.0879796e-06 -1.0702602e-05 -0.00034614452 -0.0014595031 2.8481145e-12 2.2638012e-07 -4.6501597e-14
-6e-45 -0.0068272282 -1.0105614e-05 1.5112337e-11 -0.000116704316 6.541418e-05 0.0017282146 0.006827236
-8.782048e-12 -8.546531e-07 8.063985e-13 6e-45 -0.0010396956 -1.5443079e-06 2.6503882e-12 1.66747e-06
8.051408e-06 0.00012586285 0.0010396969 3.9070952e-13 2.0608582e-09 1.6909881e-13 6e-45 -0.009439775
-1.4026697e-05 2.4538293e-11 4.064916e-05 7.228549e-05 0.0010529028 0.009439786 6.6291564e-12 2.7707523e-07
1.7472918e-12 6e-45 0.00013503783 2.0225363e-07 -4.439608e-13 -5.639125e-06 -5.198845e-07 2.1860265e-05
-0.00013503803 -5.4786113e-13 -3.8894203e-08 -3.3111107e-14 -6e-45 2.3530627e-07 6.891957e-10 -2.0163657e-14
-1.0730702e-06 1.1346382e-07 6.990662e-06 -2.3530882e-07 -7.684609e-14 -5.9098366e-09 3.3453468e-16 -6e-45
-0.0003796945 -5.631518e-07 9.0823383e-13 -2.6078349e-06 3.2527144e-06 6.775626e-05 0.00037969495 -1.3110197e-13
-1.9967949e-08 5.526482e-14 6e-45 0.00017474276 2.6018523e-07 -4.6162206e-13 -1.2068218e-06 -1.2298356e-06
-1.3533502e-05 -0.00017474296 -1.2812257e-13 -6.1864807e-09 -2.4411708e-14 -6e-45 0.01989531 2.9545705e-05
-5.0976872e-11 -6.937104e-05 -0.00015423757 -0.002441121 -0.019895332 -1.27181035e-11 -4.0127134e-07 -3.5333982e-12
-6e-45 0.0030021123 4.466903e-06 -7.8876775e-12 -2.3868271e-05 -2.1286218e-05 -0.0002346266 -0.0030021162
-2.6824398e-12 -1.3040562e-07 -4.8962863e-13 -6e-45 -9.641207e-07 4.0984864e-09 -3.0755766e-14 8.510326e-07
-2.7732312e-07 -8.177121e-07 9.641301e-07 3.9450468e-14 -3.246683e-08 -5.7744006e-15 -6e-45 -0.013054992
-1.9363264e-05 3.517378e-11 7.6681616e-05 0.000105001614 0.0014769143 0.013055008 1.6349953e-11 8.339265e-07
3.3067772e-12 6e-45 -0.001163438 -1.7308768e-06 3.0860295e-12 8.6051505e-06 8.376699e-06 9.446133e-05
0.0011634391 1.0861078e-12 5.7629407e-08 2.0917247e-13 6e-45 0.043634076 6.4801156e-05 -1.1072797e-10
-0.00010441195 -0.0003417908 -0.0057594934 -0.043634124 -2.346774e-11 -6.614228e-07 -7.693217e-12 -6e-45
0.004712636 7.0148967e-06 -1.2777142e-11 -4.911203e-05 -3.234749e-05 -0.00027930338 -0.0047126412 -5.4919173e-12
-3.0674235e-07 -8.180694e-13 -6e-45 0.018205393 2.7091684e-05 -4.8822484e-11 -0.00016745318 -0.00012714032
-0.001238896 -0.018205414 -1.9284224e-11 -1.0400828e-06 -3.188746e-12 -6e-45 0.013834406 2.0555275e-05
-3.526203e-11 -1.9945459e-05 -0.00010733968 -0.0016952514 -0.013834423 -5.119076e-12 -4.76882e-08 -2.1646894e-12
-6e-45 -0.042106364 -6.263385e-05 1.1158374e-10 0.00032104776 0.0003014061 0.0033686366 0.04210641
3.9274476e-11 1.9823742e-06 7.378705e-12 6e-45

exp_avg_sq f4 [20, 11]
00000000: 0fef 543b 3a98 fc31 f933 b91e 74fb 0134
00000010: 8911 3034 3328 8238 27ef 543b 277a 9a1e
00000020: 344b 7b32 1231 061e a8b1 e033 d708 8239
00000030: 7fc0 1930 d6e1 e11c bf58 0c32 d7ae 5a32
00000040: b903 a536 e708 8239 1c1c cb1c 8574 9e30
00000050: 83c6 341c 44ef 1c32 1d50 e437 b15b 8c2e
00000060: 4c39 541b a741 a82f 86c8 d430 4eae 8535
00000070: 4150 e437 333f d21b f241 7c2f 1a9e 2a1b
00000080: f91d 8631 8227 333a 4050 d930 557c 9d1d
00000090: c1b9 9e32 cdfe 3b33 fd62 7837 9b27 333a
000000a0: aec5 d51d c0f5 8531 0031 831d 2ea6 0733
000000b0: 3fab 2136 2014 c12c c0f1 8519 ed6d d42e
000000c0: b109 f62e 74ec 3f33 5dab 2136 399c 4319
000000d0: c91a 352d b3d4 a318 8858 af2e 94d2 5839
000000e0: b677 0330 8080 ab1c 9d18 0232 0d92 2232
000000f0: a3b4 9936 b5d2 5839 6338 9b1c 11bb 8530
00000100: 5d60 101c 47bb 2532 a1f5 9435 bf57 382c
00000110: 3534 fc18 c3e8 102e 0e08 842e 551b ce32
00000120: baf5 9435 142e 2619 a691 cf2c 5533 cc18
00000130: aaa7 832e 76db b833 71e8 5c2a f726 e016
00000140: 699f 472c 22d8 f82b 3b3c 0431 8fdb b833
00000150: 762a a016 e33a de29 664d 2016 cf9c 8e2b
00000160: f75f 2435 bb54 c42b f9b0 8618 002c 9f2d
00000170: a3a4 0c2e 25ec 6032 1360 2435 8593 9618
00000180: 3ed5 2d2c 8231 2a18 44dd 802d 0786 5f34
00000190: 65dc 042b 2e34 a317 c902 042d 35d4 de2c
000001a0: 3db8 8831 2b86 5f34 c8a1 4417 3d41 f02a
000001b0: b21e 9516 5abe c72c f0ad 4f3a 501a fa30
000001c0: 2f4a ab1d 4ae1 ec32 3f8f 1d33 2225 9f37
000001d0: 11ae 4f3a d972 ad1d 6c41 8831 b8c2 0f1d
000001e0: ea05 ef32 0745 b737 b859 612e 2fec 121b
000001f0: afa8 7030 7cd9 a030 3dde e334 2145 b737
00000200: a498 0d1b c3b7 e72e 4130 b01a 4c13 6e30
00000210: 4e01 9e34 7e42 4d2b 82dc ed17 28d3 212d
00000220: ae80 ac2d 73be 9331 6401 9e34 ff7a 0318
00000230: dfc0 7b2c 3b73 f417 e0d9 872f 3a1e 093a
00000240: 2794 a930 2841 661d 55dd 6032 8bb1 d832
00000250: 7628 7537 511e 093a 0b41 961d 4969 7331
00000260: 53a2 051d 570d 6c33 8bdb a836 59db 4e2d
00000270: d77a 0b1a 795e 5d2f 9e0f 8e2f 0492 cc33
00000280: a3db a836 f892 031a 5df0 d42d f103 9319
00000290: 5f77 b82f 2a40 773b d9df 1332 3959 cd1e
000002a0: 0be2 0b34 93fe 3634 9f42 c438 5740 773b
000002b0: c34c d01e 42fe a132 fd3e 281e 2504 0a34
000002c0: 1d07 0e39 81dd ad2f c0b8 711c 2e2b b131
000002d0: 3288 d131 373c 2c36 3007 0e39 0fa2 641c
000002e0: f7e0 2930 4ebf f01b 9b0d ea31 f046 ce3a
000002f0: 46d8 7d31 f6a4 331e 9d01 8a33 c336 ab33
00000300: bf89 f237 1247 ce3a 11a3 2e1e 8e4c 0e32
00000310: ae0f c01d 9050 c333 2999 143a 22b2 b030
00000320: 82b9 821d 9d72 b832 0804 ea32 2b01 3137
00000330: 3999 143a 8ec3 4e1d 417c 2e31 45c2 a71c
00000340: 818e b432 c5f2 df3b 119d 8932 2185 3e1f
00000350: 581e 9934 9ce2 b934 4a8e 0639 e5f2 df3b
00000360: e77d 351f 12a5 1d33 b480 c31e bc04 d734
0.0032491123 7.3514714e-09 1.9609132e-20 1.210554e-07 1.6397657e-07 6.206371e-05 0.0032491179 1.6355905e-20
1.4627222e-08 7.1040484e-21 1.0463128e-07 0.00024802118 5.593463e-10 1.4947628e-21 8.169251e-09 1.2729024e-08
4.9178166e-06 0.00024802165 1.3440679e-21 1.152913e-09 5.9813574e-22 9.134798e-09 2.7217024e-05 6.3827506e-11
1.7554743e-22 3.060567e-10 1.5482022e-09 9.960002e-07 2.721709e-05 3.4782427e-22 2.2942695e-10 1.4113156e-22
3.9033208e-09 0.0006834195 1.5811636e-09 4.168611e-21 1.8478092e-08 4.377107e-08 1.4804999e-05 0.000683421
5.6585027e-21 3.898748e-09 3.4726076e-21 3.1583276e-08 2.4090548e-06 5.4876242e-12 1.384952e-23 9.6601706e-11
1.11885064e-10 4.4685706e-08 2.4090616e-06 1.0112813e-23 1.0294606e-11 4.2349284e-24 7.973805e-11 0.00020677812
4.782764e-10 1.1349047e-21 7.572592e-09 9.462849e-09 4.580784e-06 0.0002067786 1.0271615e-21 9.730191e-10
4.777015e-22 9.646846e-09 1.1098347e-06 2.6196682e-12 6.519319e-24 3.2948543e-11 6.004096e-11 2.3993985e-08
1.1098375e-06 8.591304e-24 5.899464e-12 5.2784596e-24 5.9869734e-11 8.6080874e-08 1.962057e-13 3.6213742e-25
2.8368091e-12 1.7681449e-12 1.9242765e-09 8.608105e-08 2.587619e-25 9.868996e-14 1.294912e-25 1.013323e-12
6.123441e-07 1.3950155e-12 3.4816885e-24 1.8095747e-11 3.197854e-11 1.3092209e-08 6.123457e-07 3.8923048e-24
2.4703152e-12 2.199698e-24 1.4650177e-11 2.0817252e-07 4.720168e-13 1.05468e-24 7.50395e-12 6.333179e-12
3.9790664e-09 2.0817303e-07 6.353521e-25 4.2677832e-13 2.409162e-25 5.6770534e-12 0.0007922342 1.8197372e-09
4.5340027e-21 2.7576466e-08 3.6684693e-08 1.8971568e-05 0.0007922361 4.591147e-21 3.9655585e-09 1.902656e-21
2.7825951e-08 2.1847443e-05 5.1238763e-11 1.2153152e-22 8.7551205e-10 1.1703345e-09 4.2443745e-07 2.184749e-05
1.1712567e-22 1.05373064e-10 7.286985e-23 8.661132e-10 2.9430743e-07 7.2922907e-13 1.537143e-24 9.1986765e-12
1.9611281e-11 4.2999146e-09 2.9430805e-07 1.699345e-24 3.577631e-12 1.5797219e-24 2.4711166e-10 0.00052306394
1.2338476e-09 3.0473932e-21 1.3088841e-08 2.5226447e-08 1.46125585e-05 0.0005230653 3.9771922e-21 3.5421002e-09
1.7686323e-21 5.4960164e-08 5.0323483e-06 1.1758449e-11 2.8843756e-23 2.0133396e-10 2.5840746e-10 9.52605e-08
5.0323592e-06 2.7208885e-23 2.4208352e-11 1.5201036e-23 3.3554223e-10 0.0037727454 8.607423e-09 2.1742121e-20
1.3027618e-07 1.7042684e-07 9.3584174e-05 0.0037727559 2.2054605e-20 1.885849e-08 8.906872e-21 1.285376e-07
0.00013544825 3.1625905e-10 7.9978995e-22 5.156287e-09 6.098184e-09 2.5665047e-06 0.00013544853 7.564833e-22
6.1801536e-10 3.9828297e-22 6.811843e-09 0.0015737694 3.6939283e-09 9.510294e-21 6.426419e-08 7.972769e-08
2.8912791e-05 0.0015737733 9.245205e-21 8.282894e-09 5.083819e-21 9.095049e-08 0.00056685746 1.2856314e-09
3.4602524e-21 2.147254e-08 2.7243019e-08 1.0550294e-05 0.0005668584 2.7364972e-21 2.5390963e-09 1.110135e-21
2.1019561e-08 0.0068343603 1.6020325e-08 4.0344187e-20 2.852055e-07 3.4623815e-07 0.00012832243 0.006834375
3.8432385e-20 3.670454e-08 2.0699658e-20 4.0050315e-07

exp_avg f4 [20]
00000000: e53d e83b 0b80 d1ba 310a 99b9 c0f8 b23a
00000010: 3c0a 5a39 4075 f73a 548e e2b7 c721 4ab3
00000020: 6341 9f38 b895 12b8 ca62 82bb ac65 1dba
00000030: 270b 4f34 4a1d 2b3b 98fd 7339 eafa 0ebc
00000040: ed13 77ba 2b9f 6ebb 8f54 35bb 61f9 093c
0.0070874565 -0.0015983594 -0.00029190027 0.0013654456 0.00020793913 0.0018879548 -2.7007576e-05 -4.706251e-08
7.59389e-05 -3.494855e-05 -0.0039790617 -0.0006004225 1.9282434e-07 0.0026109987 0.00023268757 -0.008726815
-0.00094252714 -0.003641079 -0.002766881 0.008421273

exp_avg_sq f4 [20]
00000000: 0a47 0839 a671 2637 ca1e 9235 3e51 e537
00000010: aaef ce33 45c4 0a37 10ab 3e33 0c9e 6c31
00000020: 6a66 d232 0b0e 0f32 39ea 0438 d295 6a35
00000030: 093f 4a32 dd82 af37 4923 5834 963d 1e39
00000040: a9cb b536 6904 8438 af34 be37 b553 8f39
0.00012996435 9.920832e-06 1.0886808e-06 2.7336759e-05 9.636217e-08 8.2711385e-06 4.4393403e-08 3.443236e-09
2.449379e-08 8.3268885e-09 3.168939e-05 8.738981e-07 1.177228e-08 2.0922564e-05 2.0129404e-07 0.00015090997
5.4179295e-06 6.295072e-05 2.2674298e-05 0.00027337452

exp_avg f4 [1, 2]
00000000: fdfc 973c 6e0c 81ba
0.018553251 -0.0009845623

exp_avg_sq f4 [1, 2]
00000000: 8723 2b3c de52 0f3c
0.010445482 0.008747784

exp_avg f4 [2, 20]
00000000: 3bba 153e d87a a53e 0bb3 65bc af57 fa3d
00000010: 54c1 fdbb 1f09 e63c 86ff 47bc bb7d d2bb
00000020: 971d 33bc 3215 e9bb 5937 ea3b 2f71 e1bb
00000030: 444b 8fbc 8763 7cba c306 13bc 71ff 2d3c
00000040: b419 5f3e 395d 3f3e d95c a83e 8713 443e
00000050: ac1d c9bc fcf2 15bd d8f9 4c3a f23c 84bc
00000060: 366e 893a f6e4 01bc 9f25 393a 1b2d 033a
00000070: faa4 9c3a e17d e939 ca5c 12bb 57e4 ab3a
00000080: 1962 0c3b 58c8 5ebb 86fa a93a 6739 2dbb
00000090: 81bc ebbc 7167 c9bc befb 24bd 75d4 a3bc
0.14621823 0.32320285 -0.014019738 0.122237556 -0.007743994 0.028080521 -0.012206918 -0.0064236796
-0.010932348 -0.0071131224 0.0071477112 -0.0068799476 -0.017491944 -0.0009627868 -0.00897378 0.010619984
0.21787149 0.18687905 0.32883337 0.19148074 -0.024550281 -0.03660868 0.0007819212 -0.016142342
0.0010485116 -0.007928124 0.0007062796 0.00050039747 0.0011951022 0.0004453501 -0.0022333139 0.0013114315
0.0021420775 -0.0033993926 0.0012968339 -0.002643192 -0.02877641 -0.024585458 -0.040279143 -0.019998768

exp_avg_sq f4 [2, 20]
00000000: 33be 6e3d 57db 963e 2c2c 153a 89aa 243d
00000010: 585e 2f39 2276 1a3b bb6d e839 5ec1 1539
00000020: 8af8 b839 a513 3039 1bb4 3839 4145 7e39
00000030: fa09 5b3a 8d5a 1839 f1b3 7139 1d60 a839
00000040: 05b2 073e 8552 c33d 1ca9 993e 9133 d83d
00000050: 9c0f be3c c720 ee3d 8d64 6639 a05a 823c
00000060: 9967 8a38 ca34 823a e798 3439 9a74 6a38
00000070: c1f7 1039 0fea 8938 3a36 af38 6d9d ca38
00000080: 46de ac39 7a59 8238 356d bf38 b535 1b39
00000090: 992c 583d 781c 1b3d dc58 f33d f2d4 283d
0.058286857 0.29464218 0.0005690481 0.040201697 0.00016724446 0.0023568948 0.00044332244 0.00014281782
0.0003528039 0.00016791986 0.00017614702 0.00024249127 0.00083556736 0.00014529582 0.00023050584 0.00032115067
0.13251503 0.09537224 0.30011833 0.105567105 0.023200803 0.116273455 0.00021971967 0.015912354
6.599649e-05 0.0009933945 0.00017223098 5.589854e-05 0.00013825206 6.576266e-05 8.354751e-05 9.6614334e-05
0.00032972003 6.2155494e-05 9.127931e-05 0.0001480196 0.052776907 0.037868947 0.11882183 0.041218705

exp_avg f4 [2]
00000000: 47ab 803d d2f9 fbbb
0.062826686 -0.007689693

exp_avg_sq f4 [2]
00000000: 3332 313c 57d6 8b3b
0.010815191 0.0042674947

exp_avg f4 [2, 20]
00000000: be53 ee36 ba9e da37 5ff5 d4b5 8b22 0f37
00000010: 62c6 0ab5 d88c fdb4 6cd9 b6b5 65b5 2cb5
00000020: c5c8 70b5 24d7 50b5 1d08 05b4 df30 68b4
00000030: 9b74 b0b5 e080 0eb6 63a3 13b5 afb2 5f34
00000040: 6dbe 8037 d7dc 5d37 3cf0 d037 fe0d 8737
00000050: 793a eeb6 3a8d dab7 97e6 d435 3916 0fb7
00000060: 0cba 0a35 65b0 fd34 aacc b635 cba8 2c35
00000070: 84b5 7035 7ec8 5035 4814 0534 f40e 6834
00000080: f765 b035 bc7a 0e36 9f95 1335 6f8f 5fb4
00000090: 75b3 80b7 00ca 5db7 12df d0b7 4303 87b7
7.1027016e-06 2.6061538e-05 -1.5866643e-06 8.531507e-06 -5.169769e-07 -4.72274e-07 -1.3623335e-06 -6.4338957e-07
-8.9699125e-07 -7.779911e-07 -1.2389542e-07 -2.1624463e-07 -1.3146959e-06 -2.1234664e-06 -5.4999526e-07 2.0833498e-07
1.5347463e-05 1.3224045e-05 2.49074e-05 1.609977e-05 -7.09976e-06 -2.6053389e-05 1.5862341e-06 -8.528638e-06
5.167974e-07 4.7253266e-07 1.3619622e-06 6.432062e-07 8.967111e-07 7.777779e-07 1.2393969e-07 2.1612124e-07
1.3142698e-06 2.123109e-06 5.4979495e-07 -2.0820674e-07 -1.5342355e-05 -1.3219658e-05 -2.4899407e-05 -1.6094773e-05

exp_avg_sq f4 [2, 20]
00000000: 33c9 e237 4661 0c39 8ebb 7734 30aa 9837
00000010: 21eb 9c33 e295 b035 d1c4 4834 545f 8733
00000020: 8777 2834 7089 9d33 9f95 af33 cd3d 0b34
00000030: eb1f ca34 cb44 8733 6d51 db33 a29a 2e34
00000040: 7bd2 8238 e98d 3c38 9ab2 1239 0e67 3b38
00000050: 2fc9 e237 4661 0c39 8cbb 7734 30aa 9837
00000060: 21eb 9c33 e295 b035 d1c4 4834 545f 8733
00000070: 8777 2834 7089 9d33 9f95 af33 cd3d 0b34
00000080: eb1f ca34 c944 8733 6a51 db33 a09a 2e34
00000090: 7bd2 8238 e98d 3c38 9ab2 1239 0c67 3b38
2.703499e-05 0.00013387678 2.30719e-07 1.8199062e-05 7.307086e-08 1.3156643e-06 1.8698053e-07 6.3037675e-08
1.5689703e-07 7.335882e-08 8.1762884e-08 1.2967867e-07 3.7648655e-07 6.298941e-08 1.02127935e-07 1.6261268e-07
6.238088e-05 4.4954857e-05 0.0001399018 4.468025e-05 2.7034983e-05 0.00013387678 2.3071897e-07 1.8199062e-05
7.307086e-08 1.3156643e-06 1.8698053e-07 6.3037675e-08 1.5689703e-07 7.335882e-08 8.1762884e-08 1.2967867e-07
3.7648655e-07 6.298939e-08 1.0212791e-07 1.6261265e-07 6.238088e-05 4.4954857e-05 0.0001399018 4.4680244e-05

exp_avg f4 [2]
00000000: 4076 9e36 1b69 9eb6
4.722533e-06 -4.721003e-06

exp_avg_sq f4 [2]
00000000: 140f a336 120f a336
4.859534e-06 4.859533e-06

exp_avg f4 [20, 11]
00000000: 08b7 4cbc d331 98b7 3c7d 452d 900b 5bba
00000010: 92f4 6739 257f e33b 19b7 4c3c c44d 44ae
00000020: bd91 d3b6 5e30 bb2c 0400 0080 d1b9 d23d
00000030: db69 1e39 8257 47af a923 343b 6b93 b6ba
00000040: 19c8 0cbd e1b9 d2bd c430 762f 768e 0938
00000050: 2a06 e7ad 0400 0000 e6cb 333c f107 8537
00000060: 79c6 bcad 2581 7839 d91f 1bb9 8b20 68bb
00000070: f3cb 33bc 657c dc2d 223f ac36 c01b 67ac
00000080: 0400 0080 8e59 04bc eff7 42b7 418f a8ab
00000090: f967 6bba ad4f 4139 ce59 cf3b 9a59 043c
000000a0: a49a 2eae 766b b5b6 7fb2 aa2c 0400 0080
000000b0: 5bff 12be 0e07 5bb9 47c5 2f2f 5d3b 07bc
000000c0: 75fe 1c3b 9bdf 943d 66ff 123e 9f0a 01b0
000000d0: fcd0 8cb8 2e46 732e 0400 0080 cdfb 58bc
000000e0: f520 a2b7 38da 852d 87c9 39ba 2465 6439
000000f0: 1a5c ce3b defb 583c 0be1 30ae 6362 bdb6
00000100: 8de3 a82c 0400 0080 e998 053e 87bc 4839
00000110: e690 7aaf 756f 6b3b f37d e9ba d761 35bd
00000120: f498 05be 6760 9f2f 8b24 3338 db2b 15ae
00000130: 0400 0000 639d 8ebc 460a d6b7 c8de eb2d
00000140: 33e3 25ba 4fdc 8439 4153 db3b 6e9d 8e3c
00000150: cf02 3eae 1e7d ceb6 7a20 b32c 0400 0080
00000160: d027 60bb 6426 a7b6 cd73 9e2c 9b51 2db9
00000170: c7a4 6038 8616 cf3a e327 603b a39d 36ad
00000180: 8058 ccb5 f633 9a2b 0400 0080 37df acbd
00000190: 51db 00b9 b1d6 de2e d221 94bb b8e4 b33a
000001a0: 63b9 273d 44df ac3d 59dc 91af 923a 21b8
000001b0: 7b7d 082e 0400 0080 a300 413e ea34 9139
000001c0: 3d34 b9af b940 9e3b 713c 26bb 8ca2 7dbd
000001d0: b500 41be 309c dc2f 1bb0 7338 99db 4fae
000001e0: 0400 0000 f8f7 1f3e 0f7b 7039 bc3e 9baf
000001f0: 89ce 7c3b fdde 07bb 17c3 4ebd 05f8 1fbe
00000200: 2930 b62f 719a 4f38 4934 29ae 0400 0000
00000210: 82e2 5f3b dddf a636 540e abac 44c9 1439
00000220: c85e 54b8 da32 b8ba 97e2 5fbb 7abd 232d
00000230: dcab c535 1330 93ab 0400 0000 7abd 503b
00000240: 6cd6 9c36 8283 bfac 3200 ca38 8cfb 3ab8
00000250: e13d 95ba 88bd 50bb 242b 012d d696 8d35
00000260: 8b8c 77ab 0400 0000 3572 443e 7a50 9339
00000270: 3582 a3af 646f e53b ff1f 37bb 755d 98bd
00000280: 4372 44be 1421 0430 af56 9138 9352 79ae
00000290: 0400 0000 5254 553c 56bc 9a37 37a8 e9ab
000002a0: edc5 a03a ea25 84b9 16b9 0ebc 6954 55bc
000002b0: c357 802e 45c0 2b37 0367 d3ac 0400 0000
000002c0: 9b95 fe3d 773b 3f39 3cb3 7daf 1b65 393b
000002d0: 6632 d5ba 7abb 1fbd b295 febd 41ca 8c2f
000002e0: 5874 2638 e1ff 00ae 0400 0000 3741 9a3d
000002f0: 155d e638 0e88 d6ae 044a 723b 5c49 9cba
00000300: 99d1 0dbd 4341 9abd 6ef7 752f 2b72 0738
00000310: 1b7c e8ad 0400 0000 5557 273e 708f 7b39
00000320: 953c a0af 981c 8a3b d3fa 0fbb c883 5cbd
00000330: 6157 27be 126e c12f f07c 5a38 8929 34ae
00000340: 0400 0000 1186 36be a3f2 87b9 d116 5e2f
00000350: aa7c 25bc 2208 423b 5d4f b73d 1e86 363e
00000360: 6af9 1eb0 a51d afb8 4e19 952e 0400 0080
-0.01249481 -1.8143013e-05 1.1225961e-11 -0.000835591 0.00022120986 0.006942647 0.012494826 -4.463431e-11
-6.305256e-06 5.3202295e-12 -6e-45 0.10289348 0.00015107488 -1.8130034e-10 0.0027487075 -0.0013929432
-0.034370515 -0.1028936 2.2390895e-10 3.2796022e-05 -2.6264397e-11 6e-45 0.010973906 1.5858534e-05
-2.1461265e-11 0.00023699233 -0.00014793816 -0.0035419788 -0.010973918 2.5066347e-11 5.133349e-06 -3.2842479e-12
-6e-45 -0.008077992 -1.1621028e-05 -1.1976879e-12 -0.00089800317 0.00018435596 0.006327844 0.008078003
-3.9700368e-11 -5.4067305e-06 4.8515077e-12 -6e-45 -0.14355223 -0.00020888096 1.5986244e-10 -0.008253899
0.002395538 0.07269212 0.1435524 -4.694502e-10 -6.7146466e-05 5.5314135e-11 -6e-45 -0.013243628
-1.9327252e-05 1.5217258e-11 -0.000708722 0.00021781452 0.0062976005 0.013243644 -4.0217645e-11 -5.6440927e-06
4.8001104e-12 -6e-45 0.13046612 0.00019143718 -2.2788846e-10 0.0035924588 -0.0017814025 -0.04428276
-0.13046628 2.899043e-10 4.271096e-05 -3.391763e-11 6e-45 -0.017409032 -2.5515572e-05 2.6815342e-11
-0.0006328106 0.00025341145 0.0066932742 0.017409053 -4.3203493e-11 -6.153844e-06 5.0910916e-12 -6e-45
-0.0034203418 -4.981457e-06 4.5034866e-12 -0.00016528966 5.3559223e-05 0.0015799559 0.0034203462 -1.0380505e-11
-1.5224941e-06 1.095678e-12 -6e-45 -0.08441012 -0.00012288733 1.0133528e-10 -0.0045206333 0.001372478
0.040948283 0.08441022 -2.6531913e-10 -3.843994e-05 3.103427e-11 -6e-45 0.18847899 0.0002769598
-3.3688421e-10 0.004829493 -0.0025365616 -0.061922595 -0.18847926 4.0128745e-10 5.8099726e-05 -4.7261393e-11
6e-45 0.15621936 0.00022934026 -2.823891e-10 0.0038575253 -0.0020732277 -0.05047902 -0.15621956
3.3139827e-10 4.949648e-05 -3.847259e-11 6e-45 0.0034162109 4.9732466e-06 -4.861703e-12 0.00014189357
-5.063301e-05 -0.0014053241 -0.0034162158 9.3075495e-12 1.4727661e-06 -1.0458321e-12 6e-45 0.0031851218
4.6741243e-06 -5.443147e-12 9.632147e-05 -4.4580127e-05 -0.0011386239 -0.003185125 7.34238e-12 1.0549218e-06
-8.794707e-13 6e-45 0.19184192 0.00028097985 -2.9742045e-10 0.007001804 -0.0027942655 -0.074397005
-0.19184212 4.8068327e-10 6.930285e-05 -5.6689386e-11 6e-45 0.013020592 1.8445931e-05 -1.6602335e-12
0.0012266018 -0.0002520525 -0.00871112 -0.013020613 5.836356e-11 1.02371605e-05 -6.0084173e-12 6e-45
0.12430879 0.00018237332 -2.3073893e-10 0.0028289023 -0.001626563 -0.03899715 -0.12430896 2.5609562e-10
3.9685838e-05 -2.9331097e-11 6e-45 0.0753197 0.000109845925 -9.7557615e-11 0.0036970386 -0.0011923718
-0.034623716 -0.07531979 2.2370525e-10 3.2292835e-05 -2.643046e-11 6e-45 0.16341908 0.0002399066
-2.9146877e-10 0.0042148344 -0.0021969571 -0.053836614 -0.16341926 3.5184705e-10 5.2091607e-05 -4.0964152e-11
6e-45 -0.1782458 -0.00025929985 2.0198888e-10 -0.010100523 0.0029606898 0.08950684 0.17824599
-5.7834504e-10 -8.350172e-05 6.7802305e-11 -6e-45

exp_avg_sq f4 [20, 11]
00000000: a607 913b cb65 2d32 3aca 0d1f 6033 f734
00000010: 59c4 9334 c80c b538 bc07 913b a61f ed1e
00000020: 1735 7132 85b0 951e 27d2 e833 9381 953d
00000030: 60fc 3334 3d74 0921 0721 ad36 6b5e 8e36
00000040: 25bb 063b af81 953d a67e 2521 89d1 cf34
00000050: ea7f b620 d46f 6736 794e 2939 f17b ed2f
00000060: c50f b31c d000 6932 afdc 2432 b933 8736
00000070: a24e 2939 6762 bd1c 023d b231 0f3a 8f1c
00000080: 051d 4f33 254c 9a3b 8fa3 3732 70f5 1b1f
00000090: 8de4 1035 1d50 9f34 7bf4 8f38 384c 9a3b
000000a0: 5df1 cb1e 7a9b 2632 740f 911e 68ee 5a34
000000b0: 8afb e63e 314e 8a35 cf1c 5f22 0aa7 3b38
000000c0: 3a4c e937 98f6 1c3c aafb e63e 224e 4a22
000000d0: 0c98 da35 a051 f621 fc57 a737 6533 6a3b
000000e0: 7be6 0b32 6dbe e31e b93b ba34 cde5 6b34
000000f0: f9c4 9538 8933 6a3b 82e9 c11e 6074 4232
00000100: b234 761e 644c 2934 d357 fd3d 0a9c 9834
00000110: 322c 6921 6508 1537 324a ef36 a458 643b
00000120: ee57 fd3d 66b9 8c21 ee25 3435 1d22 1b21
00000130: b82e 9336 8383 5d3b 2db5 0432 8fd5 d01e
00000140: 00ae 9634 4d09 5a34 9b12 ac38 aa83 5d3b
00000150: bdbf d51e 426b 6d32 9047 7b1e a411 2c34
00000160: 5e47 2239 4b5e c22f 2a80 9d1c 1413 5932
00000170: 36ee 2b32 5276 8036 7b47 2239 3ebf 851c
00000180: c2b7 3530 306d 1f1c 4ecf fd31 0d4a 0e3e
00000190: 1ba5 aa34 2416 8921 b64a 6137 3dd4 0e37
000001a0: 7450 483b 274a 0e3e 1250 8021 bc5d 1235
000001b0: f7c2 1921 c02d d036 b249 753e 287d 1335
000001c0: 627b e121 6b90 8937 840a 6a37 9280 e13b
000001d0: e149 753e f1ce 0822 45a5 a535 a26d 9521
000001e0: 8dad 3037 6c45 1c3e 2098 bc34 bfaf 8e21
000001f0: 1f04 2d37 46e2 1237 a996 913b 8d45 1c3e
00000200: 7f04 b321 e5cf 7135 55ce 4221 621a 4436
00000210: f368 2939 5ab5 cc2f 5b2b 9e1c 2a3f 7832
00000220: 825f 2532 c862 7536 0d69 2939 0740 a11c
00000230: 261f 7630 9c6d 411c 3446 0832 2b3a af38
00000240: fbad 522f be6e 211c 66e8 df31 57ff a831
00000250: cf75 1b36 4c3a af38 8a82 411c 44e8 df2f
00000260: 7931 d51b f00d 8631 b762 d03e 1211 7a35
00000270: 1ff4 4322 e8bc 0e38 1be0 cc37 55d2 243c
00000280: d762 d03e da28 4e22 ad76 ed35 a515 ee21
00000290: b5d0 a237 f79d 283c f70c cb32 17b2 a31f
000002a0: 79d8 9735 2aab 2d35 8ffa 1439 1d9e 283c
000002b0: 50f4 5c1f 3155 4c33 6884 2a1f 3d6c ca33
000002c0: adfe ad3d 7436 5334 893f 1e21 7908 b736
000002d0: 4239 a236 b227 293b c5fe ad3d e65b 4f21
000002e0: b16a 2035 3216 de20 6c36 6336 c098 c83d
000002f0: 8a8f 7034 69d4 3e21 2eb2 1c37 f7c4 c836
00000300: f635 103b dd98 c83d f587 3921 39e1 d034
00000310: bd7b dd20 f8f5 9236 8bdf 373e 38a9 dd34
00000320: fc9f a821 989e 4f37 24ce 2d37 a9f3 a83b
00000330: aadf 373e bae4 ce21 185d 8735 a736 6221
00000340: 4c70 0c37 41a4 2f3f 9482 d235 4c62 a922
00000350: 6012 8e38 b922 3138 7cfa 703c 5da4 2f3f
00000360: 923c 9b22 508c 2d36 0819 3c22 5789 fe37
0.0044259606 1.009307e-08 3.002519e-20 4.6044715e-07 2.7523745e-07 8.633133e-05 0.004425971 2.510644e-20
1.40401175e-08 1.5848995e-20 1.0841568e-07 0.07300105 1.6762488e-07 4.6571246e-19 5.1596467e-06 4.2429215e-06
0.0020558324 0.07300126 5.607179e-19 3.8709211e-07 3.0916646e-19 3.4486775e-06 0.0001614633 4.3198115e-10
1.1849303e-21 1.356257e-08 9.596234e-09 4.029335e-06 0.00016146389 1.2532407e-21 5.1874176e-09 9.477954e-22
4.8222336e-08 0.004708784 1.0689191e-08 3.3025548e-20 5.3976765e-07 2.9674348e-07 6.8643094e-05 0.004708793
2.1593287e-20 9.697823e-09 1.5358863e-20 2.0389564e-07 0.45113784 1.0304558e-06 3.0237387e-18 4.473984e-05
2.781126e-05 0.009580277 0.4511388 2.7417468e-18 1.6286517e-06 1.6691214e-18 1.9948922e-05 0.00357362
8.14327e-09 2.4113318e-20 3.4688654e-07 2.1969682e-07 7.141563e-05 0.0035736284 2.0531246e-20 1.1318747e-08
1.3034029e-20 1.5767142e-07 0.12370267 2.842574e-07 7.9001963e-19 8.883047e-06 7.1313925e-06 0.0034842873
0.12370287 9.535844e-19 6.711042e-07 5.256119e-19 4.38638e-06 0.003380031 7.724606e-09 2.2111182e-20
2.806628e-07 2.0306216e-07 8.205065e-05 0.0033800402 2.2631553e-20 1.3819603e-08 1.3302628e-20 1.6025166e-07
0.0001547611 3.5355394e-10 1.0422518e-21 1.26354e-08 1.0007673e-08 3.8284716e-06 0.00015476152 8.850637e-22
6.610855e-10 5.274981e-22 7.386837e-09 0.13895436 3.1785098e-07 9.289342e-19 1.342844e-05 8.513275e-06
0.0030565532 0.13895474 8.694812e-19 5.452564e-07 5.209645e-19 6.204209e-06 0.23953894 5.4943894e-07
1.5279252e-18 1.6398923e-05 1.3949935e-05 0.006881782 0.23953964 1.854099e-18 1.2341558e-06 1.0125652e-18
1.0530825e-05 0.15260857 3.5128414e-07 9.668814e-19 1.0312563e-05 8.7549615e-06 0.004443009 0.15260907
1.2130702e-18 9.008202e-07 6.6002835e-19 2.9221633e-06 0.00016156193 3.7236242e-10 1.046677e-21 1.4449862e-08
9.62598e-09 3.6565343e-06 0.0001615623 1.0670637e-21 8.9538543e-10 6.400001e-22 7.932204e-09 8.355485e-05
1.9161199e-10 5.341356e-22 6.516575e-09 4.9184723e-09 2.3165373e-06 8.355509e-05 6.402706e-22 4.0728498e-10
3.5269865e-22 3.901498e-09 0.40700313 9.31571e-07 2.6556665e-18 3.403137e-05 2.4423052e-05 0.010059913
0.4070041 2.7939833e-18 1.7692415e-06 1.6133237e-18 1.9409092e-05 0.010291568 2.3638206e-08 6.932781e-20
1.1313379e-06 6.46966e-07 0.0001420772 0.010291603 4.6788903e-20 4.7574932e-08 3.6108424e-20 9.4260464e-08
0.08495841 1.9670716e-07 5.361657e-19 5.4548113e-06 4.834642e-06 0.0025811014 0.08495859 7.0255955e-19
5.97599e-07 3.762295e-19 3.3857314e-06 0.0979476 2.2403961e-07 6.4655626e-19 9.33981e-06 5.983394e-06
0.002200482 0.09794781 6.2860376e-19 3.890689e-07 3.752074e-19 4.3797736e-06 0.17956369 4.128758e-07
1.142647e-18 1.2375087e-05 1.0359599e-05 0.0051559997 0.17956415 1.4019646e-18 1.0085378e-06 7.664411e-19
8.370796e-06 0.68610007 1.5684222e-06 4.5911618e-18 6.77451e-05 4.2232426e-05 0.014708158 0.68610173
4.2076965e-18 2.5860681e-06 2.5492002e-18 3.0343113e-05

exp_avg f4 [20]
00000000: a0c5 233b a794 a8bc 51d6 0fbb 81c2 d33a
00000010: 2a32 eb3c 3f96 2d3b 76c1 d5bc 032f 643b
00000020: 0e53 333a 2d4c 8a3c eb66 1abd 28f3 ffbc
00000030: 9c1b 33ba fafd 26ba 2b28 1dbd dfa9 2abb
00000040: e3aa cbbc c0ce 76bc 77df 05bd d904 123d
0.002498962 -0.020578695 -0.002194781 0.0016155989 0.028710444 0.0026487259 -0.026093226 0.003481806
0.0006840684 0.016882027 -0.037695806 -0.031243876 -0.0006832422 -0.0006370243 -0.038368385 -0.0026041192
-0.024861759 -0.0150639415 -0.032683816 0.035649154

exp_avg_sq f4 [20]
00000000: 79a3 3939 2e5e 3f3b 84b6 d836 2f80 4539
00000010: 23d4 933c 78e3 1539 bc23 a23b d0c4 0d39
00000020: 98b7 cf36 4c21 b63b 0cfc 1c3c f506 c83b
00000030: 46d8 d836 674a 6036 e95d 853c 6bd4 d739
00000040: 97b6 5e3b c761 803b 985b eb3b 4cd2 e03c
0.00017703873 0.0029200423 6.4585493e-06 0.00018835136 0.01804549 0.00014294486 0.0049481075 0.00013520126
6.190454e-06 0.0055581685 0.009581577 0.006104345 6.462479e-06 3.342191e-06 0.016280131 0.0004116626
0.0033983344 0.003917906 0.0071825497 0.027444027

exp_avg f4 [1, 20]
00000000: efc2 1d3b f01c cabd 806d 383c 3d75 5bbb
00000010: ab75 96bc 9289 0fba 0d00 b1bd 0799 853b
00000020: 8eb8 f5bc 5977 cbbd c63b 19be 21e0 43bd
00000030: a02b a23b f3e7 623c bd76 49be 9351 1e3c
00000040: f217 10bd 4521 09be 3b9c b3bd deab 80bd
0.0024072488 -0.09868801 0.011256576 -0.0033486628 -0.018366655 -0.00054755167 -0.08642588 0.00407708
-0.02999523 -0.09934873 -0.14964208 -0.047821168 0.004949048 0.013849246 -0.19674201 0.0096630035
-0.035179086 -0.13391598 -0.08770033 -0.06282781

exp_avg_sq f4 [1, 20]
00000000: 98b0 a43a f20b c03c 314b 463b 0242 9b3a
00000010: 4e0a 2e3e 2850 c93a e674 9b3c 813c fd3a
00000020: 4b38 193c 44cb 1f3f 7ffb 4c3d 8ceb 873b
00000030: 1f7b a539 5dd4 7f3a 4b88 e03d 8802 823a
00000040: 3a91 e13a 8d04 da3d 7578 913c 2b4a 3d3e
0.0012564836 0.023443196 0.003025722 0.0011845233 0.16996118 0.0015358971 0.01897664 0.00193204
0.0093518 0.62419534 0.050044533 0.0041479524 0.00031562985 0.00097591226 0.10963496 0.0009918967
0.0017209419 0.10645399 0.017757634 0.18485324

network_body._body_endoder.seq_layers.0.weight f4 [20, 11]
00000000: 91f5 693e 972b bbbe 01f4 d6bd d7dd 943f
00000010: 29a2 fe3e f236 edbe 6081 93be 9fb5 abbe
00000020: a4a8 0f3f 5e2f 1dbe 348d 463f 4e3a d2be
00000030: dc6e b8bd 44e0 d6bd 1d1f 8abf f734 84bf
00000040: c832 4d3f a158 a3be add6 ac3d ca72 67bf
00000050: 32d9 b3be 84be 153e 1547 e73d 9421 ca3c
00000060: 3f7e 51be 327c 6e3e 8e06 00bf 1260 0e3e
00000070: f86e c7bd 0d99 803d 0741 66bf e982 a13b
00000080: ca52 b5be 7eb8 673e e581 38be 0a37 e93d
00000090: 1daa b63f 5d4a a73f 1178 90bf 7f36 8bbe
000000a0: c7ae 24bc 2aa8 803f e745 c0be 2e48 863d
000000b0: c32f 3dbd a5bb bcbd d1fe c43e 0d5a 9e3f
000000c0: ab83 223f 0cb4 12bf 3ca1 d63e bfb1 863d
000000d0: 9924 a23f ab63 95be fb8c cc3b 7112 31be
000000e0: d8dd 8ebe 4e1f 69be 3042 7e3f e7a6 4a3f
000000f0: dd4b 6bbf 34f2 12bf d275 47be 5964 253f
00000100: ce87 553b 7d65 d2bd 244d 32be fca7 7c3e
00000110: 1d08 d03e de52 58bf 3eb2 9fbf e11a 3c3f
00000120: 6d74 bcbd a9dc 13bd 86f4 7dbf 1958 353d
00000130: c815 64be 2a02 cd3e d90a 97bd 6f0e 043f
00000140: fc66 553f 6b2b 193f 78af 06bf db8e 7abc
00000150: 546e 95bc 07e0 693f c5cc c33d 6536 abbe
00000160: 08a5 37be dfd8 75bd 348d 2f3d 3484 253f
00000170: 0555 5a3e 108f 5c3e 5d84 28bd 006b b8be
00000180: 46e8 063e 0cc4 cf3e 857f 0a3f c61f 90be
00000190: 93f2 e2be c513 afbe 1ab7 133f 4fa8 813f
000001a0: cfd9 34bf 8379 0e3f 411b db3e 427d 203f
000001b0: 8c21 923e a9d5 943d 626e f83d e27a 263f
000001c0: 7e6f 183e 9c6b 91bf 6c1a 7cbf 1d1d 9b3f
000001d0: 813c 7f3e 58db 103f 890d cfbe faf8 c23d
000001e0: 6b78 653c b240 263d 254e e23d a3bf 9ebc
000001f0: e0e1 4fbf b677 49bf f2ba 053f 8675 c23d
00000200: aaa2 a2be 7bb5 3ebf c3a6 23be 5aa3 02bf
00000210: d470 c33e 117a 8d3e 0c14 113f 9bab 89bf
00000220: 2295 70bf cf79 bd3d 5836 b0be 44be 10bf
00000230: 7cfa cabf 221d 90bd 1c10 4f3e 5a59 053f
00000240: 5e21 273f df0f 363e ae74 acbe 401a 00bf
00000250: 3692 6f3f 800b fbbd cb38 1cbe d614 f7be
00000260: 1da7 223f 6e8f e23e 9fb6 bcbe 6822 813e
00000270: 5d1c 14bc 2fa0 aabf c49b 82bf a200 aa3f
00000280: 2f49 47be de24 e1be b995 66bf 226e d5bd
00000290: b850 ef3e aef4 da3d 24ad 85bd 3491 c9bd
000002a0: e4f8 4cbf 2c64 d5be eb55 6ebe 2e3b 8f3d
000002b0: 12f4 33be e482 92bf 3d17 2dbd 38a8 8bbe
000002c0: cbc2 f93c 5d87 843c e129 9fbd fa86 1bbf
000002d0: c2ef 18bf afa1 003f a5a2 393d 3bfe 6a3e
000002e0: 24e6 a1bf 8f2d 7d3e 51f3 5cbd 5e95 1abe
000002f0: 11c6 823e 4e69 e13e e12a 21bf 5682 cabe
00000300: 452d 253f bbfb 393e c0cc b4be b3ee d5be
00000310: 5820 51be f0cc 743e 2a1f a13e 9e05 763e
00000320: 722a 803d 0e65 74bf 97f3 85bf 971a 433f
00000330: 71e4 bd3e ee48 023e dc03 99bf 0eca 343f
00000340: 2071 cc3d a6d5 c6bd 2b93 4cbe 9127 533e
00000350: 6e89 b73e 7abd b93f 6397 9abe 2697 b23e
00000360: 2e25 7f3e 87d6 893e aeae 81bf f747 1bbd
0.22847582 -0.36556694 -0.10495759 1.16302 0.49733093 -0.46330982 -0.28809643 -0.33537003
0.561167 -0.153501 0.7755921 -0.41060108 -0.0900552 -0.10491994 -1.0790745 -1.0328664
0.8015561 -0.31903556 0.08439384 -0.9040953 -0.35126644 0.14623457 0.11292855 0.024674214
-0.20458315 0.23289564 -0.5001 0.13903835 -0.097379625 0.06279192 -0.89942974 0.004928936
-0.35414726 0.22628972 -0.18018301 0.11387451 1.4270664 1.3069569 -1.1286641 -0.27190015
-0.010051436 1.005132 -0.3755333 0.06556736 -0.046188127 -0.09215478 0.3847566 1.2371231
0.6348216 -0.5730598 0.41919887 0.06576871 1.2667419 -0.29177603 0.006242392 -0.17292191
-0.27903628 -0.22765848 0.99319744 0.7916092 -0.91912633 -0.5740082 -0.19478539 0.64606243
0.0032582167 -0.102732636 -0.1741224 0.24673456 0.4063119 -0.84501445 -1.247627 0.73478514
-0.09201894 -0.03609911 -0.9920124 0.04427347 -0.22273934 0.40040714 -0.07375116 0.51584524
0.83360267 0.59831876 -0.52611494 -0.015292848 -0.018241085 0.91357464 0.09560541 -0.33439937
-0.17934048 -0.060021278 0.04285927 0.6465485 0.21321495 0.21538949 -0.041141856 -0.36019135
0.13174543 0.4057926 0.5410083 -0.2814924 -0.44325694 -0.3419477 0.57701266 1.0129489
-0.7064485 0.5565416 0.4279423 0.6269113 0.2854122 0.07267315 0.12130429 0.65031254
0.14886281 -1.1360965 -0.98477817 1.211826 0.24925424 0.5658469 -0.40440014 0.09520145
0.014005761 0.040589042 0.11050061 -0.019378489 -0.8120403 -0.7869829 0.5223838 0.09495072
-0.31764728 -0.7449567 -0.15981583 -0.51030505 0.3817202 0.27632192 0.56671214 -1.0755495
-0.9397756 0.09251749 -0.3441646 -0.5654032 -1.5857692 -0.07036807 0.20220989 0.52089465
0.6528529 0.17779492 -0.3368277 -0.50040054 0.93582475 -0.12258053 -0.1525604 -0.48258084
0.63536245 0.44250053 -0.3685808 0.25221562 -0.009039965 -1.3330134 -1.0203786 1.3281443
-0.19461511 -0.4397344 -0.9007221 -0.10421397 0.4674127 0.106912 -0.065271646 -0.098421484
-0.80067277 -0.41677988 -0.23274963 0.069937095 -0.17573574 -1.1446195 -0.04225849 -0.27276778
0.030488392 0.016177827 -0.0777166 -0.6075283 -0.5974084 0.5024671 0.045321126 0.22948544
-1.2648358 0.2472441 -0.053942982 -0.15096042 0.25541738 0.44025654 -0.62956053 -0.39552563
0.645222 0.18162434 -0.35312462 -0.41783676 -0.20422494 0.23906302 0.3146909 0.2402558
0.06258096 -0.954667 -1.0464963 0.7621245 0.3708835 0.12723133 -1.1954303 0.7062081
0.099825144 -0.09708719 -0.19978015 0.20620562 0.35847038 1.4510949 -0.30193624 0.34880942
0.24916527 0.26921484 -1.0131433 -0.037910428

network_body._body_endoder.seq_layers.0.bias f4 [20]
00000000: 5c11 253e 9987 043e 62a8 a6bd 287c 323e
00000010: 4644 433e 08ac d1bd fb86 123e 875a ae3d
00000020: 4fda cfbd 3e4a 163e 7bcc a13c b650 5bbd
00000030: 4c31 82bd 5fca 00be 7ea2 8a3e ac35 89bd
00000040: 4c01 6abd c053 e3bd a243 603e 09e8 7a3e
0.16119903 0.12942351 -0.08137585 0.17430174 0.19069013 -0.102378905 0.14309303 0.085133605
-0.10149061 0.14676759 0.019750824 -0.05354377 -0.06357059 -0.12577198 0.27077097 -0.0669969
-0.057130143 -0.110999584 0.219008 0.24502577

value_heads.value_heads.extrinsic.weight f4 [1, 20]
00000000: 8279 343f 5565 a43e 56d7 0f3f f83a 4b3f
00000010: f374 20bf 27ad 2a3f 6214 d93e 61c1 213f
00000020: 7902 86bc 072b b9be 1597 0a3f 4fa0 143f
00000030: 9d25 52be 06b2 ddbd f214 233f d1fd a23e
00000040: 7cdc 003f d453 983e 3a5e 043f 80ed 43bf
0.70497906 0.3210856 0.5618795 0.79386854 -0.6267845 0.6667046 0.42398363 0.631857
-0.0163586 -0.3616564 0.5413678 0.5805711 -0.20522161 -0.10824971 0.63703835 0.31834272
0.5033643 0.29751456 0.5170628 -0.7653427
