turretresults/turret_train_4/TurretShoot/TurretShoot-47872.onnx (onnx, 287600 bytes, 11 tensors)

network_body.observation_encoder.processors.0.normalizer.running_mean f4 [11]
-1.2505538 -0.007281293 0.044636525 0.017932223 0.030933067 0.23783274 5.1602345 -1.9842585e-10
-0.0012644122 7.717271e-11 0.31333408
00000000: 2612 a0bf ea97 eebb cad4 363d 99e6 923c
00000010: 5867 fd3c 6d8a 733e a420 a540 e92b 5aaf
00000020: a2ba a5ba 60b4 a92e 536d a03e

network_body._body_endoder.seq_layers.0.weight f4 [256, 11]
0.27664477 0.738956 -0.059298526 0.17244813 -0.2622882 -0.74087936 -0.93526936 -0.079132944
-0.07636338 0.1906276 0.15275025 0.21180852 0.021260353 -0.24964352 -0.15448025 -0.0010117546
0.34956667 0.26621658 -0.038139712 -0.20147207 0.24975756 -0.10579321 0.044329856 -0.25681674
-0.14626041 0.6579634 0.041986916 0.16892037 0.25070006 -0.1423246 0.20082851 0.682185
-0.12486813 -0.05456541 0.21936831 -0.18282342 -0.2656906 0.5161997 -0.07701746 -0.057074327
-0.05724499 -0.14985703 0.37502956 -0.3253391 0.49130395 0.015037635 -0.32938808 0.186693
0.06537988 -0.44767773 0.1675094 -0.19130069 -0.06457579 -0.01831324 0.010755392 0.213059
0.4547884 0.4891017 0.24017887 -0.3295842 -0.50379825 0.2449194 0.28021216 0.4700719
-0.08092607 0.06596805 0.18451378 0.036254488 0.46930337 0.22466502 0.1449958 0.17608751
0.6479024 0.13820551 -0.22974086 0.27251056 -0.41618556 0.347059 0.14057298 -0.093285985
0.15526517 0.25003418 0.30978736 -0.10846937 -0.13544887 -0.7033499 0.18886033 0.012978163
-0.085191384 0.59300107 -0.0017584289 0.10589766 0.1489521 -0.3573317 -0.29974273 0.19506206
-0.03919491 0.24319096 -0.36177945 0.05074571 -0.2993701 0.030694343 -0.14320323 0.059490077
0.50538427 0.4717888 0.47259006 0.72950447 -0.54560214 -0.015923036 -0.07047251 0.56938046
-0.22992961 0.2223312 -0.5732486 -0.27307445 -0.009690684 -0.14264125 -0.17981942 -0.9326145
-0.23663245 -0.18706776 -0.3482393 0.025241254 0.142296 0.5720551 -0.48165047 0.37134892
0.47793716 -0.25821885 0.02654757 -0.09638163 -0.04001722 0.7082971 0.42598554 0.11354555
0.19385284 0.05805999 0.19118617 0.17995226 0.14208691 -0.23842047 -0.22440016 -0.14207728
0.096034884 0.08601985 0.107094824 -0.29275197 -0.09795765 0.30099264 -0.5284749 0.017533135
-0.32586128 -0.18176673 0.6312568 -0.09520418 0.118815355 -0.0006987329 -0.10127601 0.59765506
-0.12663154 0.31754044 -0.46666828 0.06589857 0.72333944 0.12467051 0.13037336 0.15372182
0.23254348 -0.42524183 -0.32022408 0.19991045 0.18372032 0.49414107 -0.28248703 -0.10328631
0.012081944 0.0012948059 -0.1699618 -0.16972056 0.05913821 0.23456366 0.1993566 -0.24346167
-0.33536008 -0.35855466 0.1736424 0.34379002 -0.16824825 -0.1141308 0.28342757 0.31860146
0.014093541 0.30328467 -0.07853749 -0.036467634 0.5669809 0.13312173 0.07795051 -0.23861592
-0.2918662 -0.17407264 -0.039716244 -0.37036505 -0.1349909 -0.63739944 -0.18490516 -0.34519106
0.035305217 0.21128245 0.020569697 0.2988097 -0.01530376 0.12239739 -0.43437907 0.5571521
-0.029361859 0.07086049 -0.37898126 -0.05113981 -0.11441803 0.7483367 0.17228232 -0.049979437
-0.08401029 0.15551592 -0.0870047 -0.055942256 -0.29665896 0.13676201 0.07621574 0.57930005
0.22143762 0.57800794 0.26739752 -0.24148856 0.45603147 0.62724483 0.2121776 0.25223503
0.066955395 0.1931036 -0.4067225 0.10706565 0.33546722 -0.2590346 0.8561252 0.071499676
0.4474285 -0.22253212 -0.3327596 -0.18718491 -0.18505292 -0.11416696 0.61208135 0.1735633
00000000: 62a4 8d3e 382c 3d3f 03e3 72bd 3e96 303e
00000010: a44a 86be 45aa 3dbf d06d 6fbf 7410 a2bd
00000020: 6764 9cbd e233 433e 906a 1c3e 55e4 583e
00000030: 312a ae3c 8da2 7fbe 1230 1ebe da9c 84ba
00000040: 67fa b23e 8a4d 883e 6338 1cbd b24e 4ebe
00000050: 72c0 7f3e 1caa d8bd 3993 353d 7c7d 83be
00000060: 4ac5 15be 4a70 283f 79fa 2b3d 76f9 2c3e
00000070: c25b 803e 8abd 11be fda5 4d3e ada3 2e3f
00000080: ddba ffbd fb7f 5fbd 16a2 603e 1036 3bbe
00000090: 9908 88be aa25 043f 54bb 9dbd c5c6 69bd
000000a0: b979 6abd 1f74 19be e003 c03e d992 a6be
000000b0: 318c fb3e 6a60 763c 8ea5 a8be 732c 3f3e
000000c0: e3e5 853d 0436 e5be 9687 2b3e 54e4 43be
000000d0: 5040 84bd a605 96bc 6237 303c 232c 5a3e
000000e0: 06da e83e 8a6b fa3e 73f1 753e 43bf a8be
000000f0: ecf8 00bf 27cc 7a3e f877 8f3e 44ad f03e
00000100: 91bc a5bd 421a 873d 2ef1 3c3e 967f 143d
00000110: 8848 f03e 960e 663e c779 143e 4950 343e
00000120: efdc 253f bf85 0d3e 3041 6bbe 8186 8b3e
00000130: 4616 d5be b8b1 b13e 5df2 0f3e b90c bfbd
00000140: d5fd 1e3e 7b04 803e 739c 9e3e 3025 debd
00000150: 1cb3 0abe bd0e 34bf 9a64 413e 5ca2 543c
00000160: d278 aebd ebce 173f 157b e6ba dfe0 d83d
00000170: e686 183e 2ef4 b6be e177 99be 59be 473e
00000180: d88a 20bd 0d07 793e 283b b9be bcda 4f3d
00000190: 0a47 99be b472 fb3c dea3 12be deab 733d
000001a0: dd60 013f 4d8e f13e 53f7 f13e cec0 3a3f
000001b0: 95ac 0bbf 0771 82bc e453 90bd ebc2 113f
000001c0: ab72 6bbe caaa 633e 6cc0 12bf 6ad0 8bbe
000001d0: adc5 1ebc 8c10 12be 9522 38be d3bf 6ebf
000001e0: c74f 72be b18e 3fbe 6c4c b2be bfc6 ce3c
000001f0: 0bb6 113e 3472 123f e49a f6be 7221 be3e
00000200: 2eb4 f43e 4335 84be 4a7a d93c bb63 c5bd
00000210: 19e9 23bd f552 353f c71a da3e 928a e83d
00000220: 5c81 463e 50d0 6d3d 4fc6 433e 6845 383e
00000230: 3b7f 113e 7f24 74be 28c9 65be b57c 11be
00000240: f0ad c43d 2d2b b03d 8854 db3d 96e3 95be
00000250: 059e c8bd b51b 9a3e 224a 07bf a6a1 8f3c
00000260: 4ad7 a6be 0f21 3abe 0c9a 213f 69fa c2bd
00000270: 7755 f33d 2c2b 37ba cc69 cfbd ecff 183f
00000280: b3ab 01be a994 a23e 25ef eebe d4f5 863d
00000290: c62c 393f 4153 ff3d 9880 053e 4169 1d3e
000002a0: e11f 6e3e 4cb9 d9be 69f4 a3be 53b5 4c3e
000002b0: 2e21 3c3e 0f00 fd3e 24a2 90be c687 d3bd
000002c0: 59f3 453c 7ab6 a93a 770a 2ebe 3acb 2dbe
000002d0: e83a 723d 7531 703e 2324 4c3e 044e 79be
000002e0: 51b4 abbe 7a94 b7be 50cf 313e 3f05 b03e
000002f0: 4549 2cbe 69bd e9bd 6b1d 913e bb1f a33e
00000300: 98e8 663c 2148 9b3e 43d8 a0bd 165f 15bd
00000310: a925 113f 1051 083e 84a4 9f3d bb57 74be
00000320: 7d6f 95be 1940 32be 80ad 22bd 7da0 bdbe
00000330: 0e3b 0abe 9c2c 23bf c757 3dbe e2bc b0be
00000340: 349c 103d 6d5a 583e c881 a83c 96fd 983e
00000350: 9fbc 7abc 7cab fa3d ef66 debe 85a1 0e3f
00000360: 4888 f0bc 4e1f 913d d509 c2be fa77 51bd
00000370: 0054 eabd fe92 3f3f c76a 303e 3db7 4cbd
00000380: 960d acbd 913f 1f3e 852f b2bd b523 65bd
00000390: afe3 97be 570b 0c3e ff16 9c3d 024d 143f
000003a0: 8bc0 623e 54f8 133f 54e8 883e c748 77be
000003b0: f57c e93e 1e93 203f 1645 593e f324 813e
000003c0: e91f 893d f3bc 453e ee3d d0be 3c45 db3d
000003d0: 5cc2 ab3e 2fa0 84be 052b 5b3f 6c6e 923d
000003e0: 5915 e53e 76df 63be 775f aabe 67ad 3fbe
000003f0: 837e 3dbe 5ed0 e9bd 5db1 1c3f 94ba 313e

network_body._body_endoder.seq_layers.0.bias f4 [256]
0.043769658 0.025020752 -0.059686616 0.040578842 0.022906363 0.01419348 -0.0534508 4.086993e-06
0.020342333 0.03346544 -0.014579542 -0.0008179772 -0.027306639 -0.0012750946 0.03635392 -0.0460042
0.036705274 -0.036954306 0.033515573 0.00912129 0.013964472 1.6495026e-06 0.017730618 0.054989476
-0.047852986 0.0031636662 -0.03006554 0.004722982 0.030443672 -0.00033136303 0.056593657 -0.06097954
0.03649648 0.029096525 0.014104042 0.05411656 -0.007394967 -0.007867486 0.033795796 -0.024072986
-0.05006369 0.046233308 -0.025602126 0.024686383 0.0022147517 0.038703796 0.015693896 0.031191183
-0.027431602 0.040750664 -0.010538658 -0.042621445 0.020235844 0.044583097 -0.002147578 -0.006272137
0.026366342 0.045714978 0.0011087314 0.042500332 0.031291112 -0.04790158 -0.045088075 -0.024122106
0.014259422 0.0108968 0.0027254478 -0.04425762 0.017148219 0.02628922 -0.024965674 0.05041254
-0.037796207 0.017313365 0.031768803 0.030094836 -0.00040322499 0.0074788826 0.0069489945 0.014070011
-0.000838378 0.03464972 0.051468816 -0.045354407 -0.025792131 0.051996034 0.02758831 -0.047827687
-0.05148831 0.046041828 -0.040857397 -0.02031013 0.022660851 0.00582555 0.0036763381 0.011616589
-0.03872113 -0.027437517 -0.03427502 -0.04807606 0.0040870477 0.033804886 -0.027516488 0.014086033
0.022308929 0.027925437 0.006981095 -0.02363468 -0.000679544 -0.0048867073 0.00045342784 -0.042876933
0.04041302 -0.027247682 0.04278414 0.04197006 0.03440444 0.047226787 0.055684272 0.021697458
0.031066868 -0.053330522 0.0071804835 -0.03555857 -0.001311959 -0.0058336332 0.0025027867 0.01979026
-0.034639068 0.033704024 0.056937728 0.0506762 0.020041233 -0.0015851436 0.023096006 0.013366265
0.024463968 0.0072702942 0.0063580396 -0.0077177184 -0.014167231 -0.023823498 0.05783594 -0.008257301
-0.048763767 0.04124287 0.016864507 0.027651161 -0.03806182 0.025064148 0.037961148 0.012255974
0.021940457 0.035060473 0.04232126 -0.017742274 0.053687863 0.057487648 0.009490435 0.020895075
-0.05255063 0.062276825 0.05609929 -0.023008315 -0.039094146 -0.005215906 -0.051613897 0.008238956
-0.037324883 -0.007732539 0.04848537 0.02432735 0.0050959014 0.018408924 0.060540296 0.031855043
-0.033174887 -0.037999853 0.013720693 0.028870888 0.013734506 0.025694733 -0.0018328623 -0.055282004
0.030427704 0.038526665 0.0533974 0.04582519 0.037008304 -0.01711772 -0.002627421 0.026609786
0.016842054 0.011109732 -0.007330481 -0.013875795 0.048150282 0.06624263 -0.06044242 0.040589444
-0.015720254 -0.044952825 -0.050256625 -0.039428506 0.01953311 0.027372213 -0.013349322 -0.042338245
-0.026149357 0.05114847 -0.0458973 0.07532323 -0.035480883 0.056516543 0.03158419 0.0046862992
0.057122853 -0.047897276 0.05402034 -0.002606029 -0.0055190204 -0.0005683758 0.007923411 0.009867206
-0.06794238 0.014929701 -0.047570687 0.029155979 -0.058755122 0.034966454 -0.028028864 -0.034289207
0.045978718 0.04992714 0.0144042475 0.08287038 -0.025297167 -0.022068303 -0.010024495 0.027027868
0.022628758 0.03627715 0.051975876 -0.022822527 -0.024923962 0.041403186 0.0013221343 -0.027809922
-0.03340814 -0.025572727 -0.006416113 0.016832814 -0.021137124 -0.0021611168 -0.027801435 -0.050527245
00000000: d047 333d 52f8 cc3c f479 74bd 0036 263d
00000010: 20a6 bb3c c58b 683c 3aef 5abd 0123 8936
00000020: f7a4 a63c 0f13 093d 08df 6ebc 856d 56ba
00000030: 2cb2 dfbc 1321 a7ba d9e7 143d e66e 3cbd
00000040: 4558 163d 665d 17bd a047 093d 7771 153c
00000050: 3ecb 643c 7a64 dd35 cd3f 913c a53c 613d
00000060: 7e01 44bd 8355 4f3b 024c f6bc 3fc3 9a3b
00000070: 0265 f93c cbba adb9 c0ce 673d afc5 79bd
00000080: 557d 153d d65b ee3c a414 673c 53a9 5d3d
00000090: 7b51 f2bb a1e6 00bc 766d 0a3d b634 c5bc
000000a0: 950f 4dbd 235f 3d3d 8dbb d1bc 193b ca3c
000000b0: 5e25 113b df87 1e3d 7c90 803c a784 ff3c
000000c0: 3db8 e0bc 2bea 263d 56aa 2cbc d393 2ebd
000000d0: a4c5 a53c c49c 363d 61be 0cbb 8086 cdbb
000000e0: 3afe d73c a13f 3b3d da52 913a d414 2e3d
000000f0: 1c2b 003d 7234 44bd 46ae 38bd b99b c5bc
00000100: 5aa0 693c 7e88 323c 6d9d 323b 7a47 35bd
00000110: 6c7a 8c3c 7e5c d73c d084 ccbc 617d 4e3d
00000120: 32d0 1abd c2d4 8d3c 0120 023d 7289 f63c
00000130: f167 d3b9 6a11 f53b 64b4 e33b e785 663c
00000140: 98c6 5bba ddec 0d3d f7d0 523d 8bc5 39bd
00000150: 054a d3bc cbf9 543d e100 e23c f7e6 43bd
00000160: 68e5 52bd 5b96 3c3d 165a 27bd 6e61 a6bc
00000170: 40a3 b93c 41e4 be3b b8ee 703b 8153 3e3c
00000180: 0c9a 1ebd a5c4 e0bc f763 0cbd 67eb 44bd
00000190: a4ec 853b fe76 0a3d 426a e1bc 1bc9 663c
000001a0: 37c1 b63c e3c3 e43c abc1 e43b 849d c1bc
000001b0: 6d23 32ba ac20 a0bb 0eba ed39 b99f 2fbd
000001c0: 1f88 253d 8836 dfbc 6c3e 2f3d cce8 2b3d
000001d0: aceb 0c3d e070 413d 3115 643d debe b13c
000001e0: f27f fe3c 1b71 5abd 434a eb3b dda5 11bd
000001f0: 0af6 abba 1028 bfbb cb05 243b 2f1f a23c
00000200: b2e1 0dbd 3b0d 0a3d 8937 693d d991 4f3d
00000210: 832d a43c 98c4 cfba d633 bd3c 2efe 5a3c
00000220: a968 c83c a63b ee3b 1a57 d03b eae4 fcbb
00000230: ac1d 68bc 7f29 c3bc 61e5 6c3d a149 07bc
00000240: 84bc 47bd 49ee 283d 6f27 8a3c b084 e23c
00000250: b6e6 1bbd 5453 cd3c 267d 1b3d 48cd 483c
00000260: 79bc b33c 929b 0f3d 0f59 2d3d 3f58 91bc
00000270: cee7 5b3d 2b78 6b3d c57d 1b3c 262c ab3c
00000280: 543f 57bd fc15 7f3d 5ec8 653d ef7b bcbc
00000290: 2f21 20bd 31ea aabb 1869 53bd b0fc 063c
000002a0: fae1 18bd 3d61 fdbb 9898 463d 274a c73c
000002b0: 85fb a63b 50ce 963c 1af9 773d 6f7a 023d
000002c0: 64e2 07bd bca5 1bbd c2cc 603c a482 ec3c
000002d0: b206 613c c37d d23c a73c f0ba 626f 62bd
000002e0: 8543 f93c 23ce 1d3d 3bb7 5a3d 32b3 3b3d
000002f0: 0596 173d 763a 8cbc cf30 2cbb c4fc d93c
00000300: 59f8 893c 9805 363c 8834 f0bb 4d57 63bc
00000310: 3b39 453d 37aa 873d 7992 77bd 1e41 263d
00000320: c3c7 80bc 7420 38bd e4d9 4dbd c97f 21bd
00000330: e703 a03c b13b e03c 1db7 5abc de6a 2dbd
00000340: 2d37 d6bc 0f81 513d cffe 3bbd 1143 9a3d
00000350: 6754 11bd e47d 673d 6c5e 013d 878f 993b
00000360: a7f9 693d ef2f 44bd 6f44 5d3d e9c9 2abb
00000370: e6d8 b4bb 0eff 14ba 32d1 013c 10aa 213c
00000380: 6025 8bbd b49b 743c 7bd9 42bd 85d8 ee3c
00000390: 36a9 70bd fc38 0f3d ca9c e5bc d772 0cbd
000003a0: 2e54 3c3d 6780 4c3d cbff 6b3c f2b7 a93d
000003b0: 013c cfbc 96c8 b4bc c83d 24bc 8c69 dd3c
000003c0: f25f b93c 5997 143d a8e4 543d 4ff6 babc
000003d0: 562d ccbc 6396 293d 774b ad3a a2d1 e3bc
000003e0: f9d6 08bd e57d d1bc 423e d2bb f8e4 893c
000003f0: c327 adbc 86a1 0dbb d6bf e3bc a8f5 4ebd

network_body._body_endoder.seq_layers.2.weight f4 [256, 256]
-0.13099985 0.11292442 -0.0078034066 0.0061790748 -0.04926589 -0.081214 0.06261424 -0.03223068
-0.03822126 0.05439068 -0.082401246 0.16611019 -0.002220352 -0.032089848 -0.08911923 0.051982213
0.05564569 0.030130874 -0.017342253 -0.010567971 -0.054590173 0.035430178 0.056508444 -0.08442182
-0.09803435 -0.041416716 0.055484995 0.03045725 -0.015007908 0.0040698824 -0.04156405 0.021835934
0.031241449 0.07556086 -0.01848486 -0.006226944 0.033889543 0.059154198 0.030452676 0.09118583
-0.117493056 -0.018497983 -0.07142191 -0.07500441 -0.1418693 -0.01841998 0.060951002 0.044916883
0.04132439 0.06329183 0.047470946 0.023147194 -0.03404073 -0.04088317 0.04245518 0.03791135
-0.015914615 0.009110495 -0.0067181163 -0.052924972 -0.1261848 0.061430294 0.0964823 -0.00015639073
0.10803653 -0.022287514 -0.07352234 0.025433384 -0.0155221075 -0.07140926 -0.06987233 0.044069164
-0.08707935 0.031278223 -0.03749795 -0.04899489 -0.1577479 0.09033806 -0.0049467753 0.030463133
-0.05764577 0.058565427 0.029318113 -0.060767952 -0.034675043 0.14852656 0.050294988 0.08252981
-0.004629134 -0.0017217081 -0.10554848 0.03794699 -0.08869135 0.017820584 0.04827928 0.024147674
0.016446505 0.038814425 -0.051360887 0.03414347 0.015263168 -0.065277524 -0.025307665 0.014151792
-0.064317554 -0.052074235 0.089929335 -0.09502026 0.013561174 0.07541305 0.12900409 -0.0092036165
0.010893513 -0.03609373 0.032614302 0.03306735 0.012793821 -0.038602825 0.014030911 0.03511517
-0.0063064005 0.08802202 0.08841573 0.10544759 -0.04834169 -0.029403072 0.06405157 0.024181815
0.007678824 -0.008220199 0.05045447 -0.0725947 -0.09543457 0.12645492 0.013480863 0.1073194
0.009146973 -0.006777244 0.004399414 0.025117747 0.016881803 0.013189196 0.12492519 0.12868264
-0.020806214 -0.014488649 -0.06429069 -0.009828968 -0.03412142 0.11984227 0.012776966 -0.03071731
-0.07947958 0.020736758 0.07467947 0.12340362 0.032741778 -0.11243467 -0.070855685 0.021686247
-0.10228526 -0.039200723 -0.06448974 -0.013781352 0.015311534 0.032535896 -0.075865544 0.0299807
0.061312463 -0.03924543 0.10631759 0.09761823 0.016772587 0.03920982 0.052126307 0.10976698
-0.054889683 0.1751616 -0.08711096 0.008899275 -0.074674174 0.07855989 0.01957588 0.021728497
0.027877212 -0.059090827 -0.10472442 -0.04162532 -0.068571225 0.034473296 0.061196554 -0.036712818
-0.010009693 -0.101066716 0.048923954 0.093173 0.010773056 0.078468636 0.08361408 0.092671484
-0.053206746 -0.0039725704 -0.08815462 0.009445733 -0.04139331 0.0211084 -0.023468703 0.12088213
0.08034458 -0.048702095 0.13506454 -0.07248903 0.06957473 0.049120482 -0.07496368 0.058418524
0.010554512 0.1509708 -0.12860475 0.012916168 -0.019155158 -0.038943518 -0.04868461 0.11982998
0.022708977 0.081513144 -0.048621476 -0.03717574 0.047048923 -0.07891242 0.100594684 0.0023349358
0.03789566 -0.010142813 -0.055259764 -0.0077234055 0.004175002 0.00058797887 0.07847795 -0.044829432
-0.14773116 0.013531035 -0.14681935 -0.005235836 0.08038644 -0.06333578 0.10828914 0.0053781425
-0.08782793 0.018485831 0.014359527 0.02321302 -0.006580235 0.048503123 -0.040396076 0.01721128
00000000: d324 06be eb44 e73d b8b3 ffbb d679 ca3b
00000010: 08cb 49bd 8753 a6bd e53b 803d 5104 04bd
00000020: e58d 1cbd c3c8 5e3d fcc1 a8bd ca18 2a3e
00000030: 5383 11bb a570 03bd 2584 b6bd 4deb 543d
00000040: bcec 633d 06d5 f63c 5711 8ebc 4825 2dbc
00000050: f299 5fbd 3c1f 113d 6675 673d 59e5 acbd
00000060: 3cc6 c8bd 93a4 29bd 3c44 633d 7c81 f93c
00000070: bbe3 75bc a65c 853b 113f 2abd 46e1 b23c
00000080: 11ee ff3c a7bf 9a3d 906d 97bc 640b ccbb
00000090: c3cf 0a3d ac4b 723d e477 f93c a3bf ba3d
000000a0: 33a0 f0bd 1589 97bc a645 92bd ea9b 99bd
000000b0: 3046 11be 7fe5 96bc c2a7 793d c4fa 373d
000000c0: c343 293d 269f 813d e570 423d 2f9f bd3c
000000d0: 4b6e 0bbd 1c75 27bd 7ce5 2d3d ef48 1b3d
000000e0: 5e5f 82bc 3044 153c a523 dcbb dbc7 58bd
000000f0: 9736 01be 559e 7b3d 8398 c53d d1fc 23b9
00000100: 4242 dd3d 4e94 b6bc e192 96bd ac59 d03c
00000110: 7050 7ebc 053f 92bd 3919 8fbd de81 343d
00000120: a956 b2bd 981d 003d 7397 19bd deae 48bd
00000130: aa88 21be 2903 b93d 8f18 a2bb d28d f93c
00000140: f91d 6cbd 4de2 6f3d 8a2c f03c d1e7 78bd
00000150: 6b07 0ebd 5917 183e 1e02 4e3d 6405 a93d
00000160: feaf 97bb f0aa e1ba cd29 d8bd 4e6e 1b3d
00000170: cfa3 b5bd 79fc 913c 7fc0 453d 58d1 c53c
00000180: d2ba 863c e0fb 1e3d cb5f 52bd 06da 0b3d
00000190: 5e12 7a3c 39b0 85bd 0552 cfbc ebdc 673c
000001a0: ecb8 83bd cb4b 55bd df2c b83d fb99 c2bd
000001b0: b02f 5e3c 2872 9a3d a619 043e c4ca 16bc
000001c0: b57a 323c 05d7 13bd 9396 053d a171 073d
000001d0: 2d9d 513c ff1d 1ebd e8e1 653c edd4 0f3d
000001e0: eca5 cebb e444 b43d 4e13 b53d e8f4 d73d
000001f0: f001 46bd b6de f0bc 782d 833d f118 c63c
00000200: a59e fb3b 03ae 06bc 59a9 4e3d 88ac 94bd
00000210: 3373 c3bd 667d 013e d6de 5c3c 46ca db3d
00000220: 2fdd 153c a513 debb f628 903b bcc3 cd3c
00000230: b54b 8a3c 7f17 583c c7d8 ff3d 62c5 033e
00000240: cb71 aabc cc61 6dbc d6aa 83bd ae09 21bc
00000250: e7c2 0bbd dd6f f53d 7b56 513c dea2 fbbc
00000260: 31c6 a2bd 22e0 a93c 8df1 983d 0abb fc3d
00000270: 3e1c 063d 2644 e6bd c91c 91bd 5ba7 b13c
00000280: ef7a d1bd f090 20bd 3213 84bd 2ecb 61bc
00000290: 3add 7a3c 5c44 053d 655f 9bbd 169a f53c
000002a0: c722 7b3d d1bf 20bd 09bd d93d 11ec c73d
000002b0: aa66 893c 7a9a 203d 6582 553d 83cd e03d
000002c0: 01d4 60bd 905d 333e 3b67 b2bd 44ce 113c
000002d0: c6ee 98bd 02e4 a03d 995d a03c f6ff b13c
000002e0: c05e e43c 3909 72bd c279 d6bd 507f 2abd
000002f0: 126f 8cbd df33 0d3d 3da9 7a3d 2e60 16bd
00000300: b2ff 23bc 11fc cebd 7c64 483d 7cd1 be3d
00000310: 7981 303c 2ab4 a03d dc3d ab3d 8cca bd3d
00000320: 51ef 59bd 562c 82bb 698a b4bd 47c2 1a3c
00000330: 088c 29bd 86eb ac3c 7041 c0bc 0d91 f73d
00000340: b38b a43d d97b 47bd 5c4e 0a3e 2175 94bd
00000350: 327d 8e3d 8f32 493d 8f86 99bd 4348 6f3d
00000360: d5ec 2c3c 1798 1a3e f7b0 03be 569e 533c
00000370: 47eb 9cbc 3d83 1fbd 8369 47bd 6c69 f53d
00000380: 2d08 ba3c 5df0 a63d 5027 47bd 9745 18bd
00000390: 5fb6 403d d69c a1bd 9604 ce3d b905 193b
000003a0: 7b38 1b3d 0b2e 26bc 1058 62bd 9f14 fdbb
000003b0: 75ce 883b 9822 1a3a 0cb9 a03d 119f 37bd
000003c0: d646 17be 46b1 5d3c d057 16be 6091 abbb
000003d0: a5a1 a43d 30b6 81bd b2c6 dd3d 213b b03b
000003e0: 21df b3bd 996f 973c 3944 6b3c 3b29 be3c
000003f0: 039f d7bb 36ab 463d 5b76 25bd acfe 8c3c

network_body._body_endoder.seq_layers.2.bias f4 [256]
-0.010574561 -0.02337519 0.044324324 0.050814204 0.0361692 -0.0013435235 0.03877147 -0.004015017
-0.044934783 -0.029263474 0.0143381255 -0.0011715008 0.04455897 0.030953964 0.04339759 0.0485514
0.013064835 -0.03249908 0.042780016 -0.023897242 0.018924465 0.056083407 -0.015634708 0.016099319
-0.043446686 0.0075675617 -0.011708734 0.045405358 0.014804103 0.06286268 0.040105302 0.048094187
-0.046921335 0.061150033 0.025713928 -0.046024773 0.011097066 0.011097428 -0.03665397 -0.03811428
0.019657215 0.040757727 0.044163186 -0.016986215 0.03057675 0.041798025 -0.035498913 0.06809755
-0.007409866 -0.0023698148 0.050931644 0.0045943367 0.030983105 0.043659505 0.05691351 0.032667387
0.05700977 -0.043505635 0.038605586 0.04604604 0.042745013 0.007369585 0.059657235 0.060978647
0.0077102166 0.04427461 -0.027764246 0.0042168815 -0.01319607 -0.0014603863 0.027899992 -0.03552623
0.036439713 -0.0040353234 0.026314203 0.04806011 0.032334264 -0.020139644 0.043423153 0.006011934
0.013216924 -0.0014538737 -0.045066033 0.045619026 0.02999518 -0.017605428 -0.024262063 -0.021192122
-0.03301424 0.02281795 -0.0123097 -0.0363901 0.039982956 -0.0008290142 0.06066356 0.019096196
0.04773249 -0.04077411 0.0018413963 -0.024579864 0.044363055 0.034391597 0.03659473 0.05986946
-0.021155898 -0.02425837 -0.014239532 0.054507747 -0.037260484 0.03038318 0.016510764 -0.013165643
0.012667354 -0.005216284 0.06688576 0.034968697 -0.03904166 0.012899933 -0.047388837 -0.007442474
0.002667898 -0.04850496 0.030334534 0.024511985 0.02936023 0.014585895 0.065698974 -0.033115104
-0.047521725 -0.026838819 0.05324686 0.002844947 0.038934033 -0.009033723 -0.0279826 0.016939221
0.045972563 -0.015882296 0.028582763 0.03625731 0.029798035 -0.0022284177 0.05822037 -0.043471634
0.02852507 0.05706185 -0.03348016 0.02292598 0.0074294284 0.02906897 -0.024332471 -0.039747868
-0.023368362 -0.03274189 0.04449797 -0.0126585895 0.032722417 0.04618659 0.0155609315 0.00087137596
-0.04275386 -0.023024717 -0.0066722636 -0.027973924 -0.04024907 -0.042723536 0.06546698 -0.04429617
0.023358762 -0.04702606 -0.031048266 0.063861705 0.03950705 0.040246747 -0.020613158 -0.039221767
0.046084784 0.02764797 0.04124 -0.035999272 -0.011102351 -0.0150542315 -0.05022961 -0.022348253
-0.013997679 0.017334888 0.028060889 0.013108851 -0.056102514 0.03761453 -0.038189027 -0.034173917
0.040631853 0.03222086 -0.019175012 0.026544442 0.0023880885 0.04712069 0.04962281 -0.011963889
-0.007240105 0.03831366 0.015095775 -0.040435337 0.06560635 0.043078773 -0.019260677 0.02550888
-0.00038432705 0.053015996 0.0062735234 0.03876372 0.01665161 0.03509972 -0.031922124 -0.04114427
0.06059061 -0.027405865 0.047049686 0.040585056 0.012846564 -0.03204329 0.0008437062 0.037012212
0.059623178 -0.048845433 -0.015432966 0.00994699 0.025207452 0.033479545 0.012179612 0.000336301
-0.03233149 -0.02979144 -0.049884714 0.06312697 0.043315914 0.013132171 0.0036420794 0.0326761
-0.046880748 -0.017949687 -0.049662855 -0.012103896 -0.027215114 -0.03772441 -0.036349308 -0.02840674
0.04092507 -0.04631033 0.02495087 0.033246104 -0.021036567 -0.0067508603 0.058289513 0.036524184
00000000: ec40 2dbc 547d bfbc 6c8d 353d 8e22 503d
00000010: 2826 143d 2b19 b0ba d5ce 1e3d 6790 83bb
00000020: 890d 38bd f4b9 efbc 75ea 6a3c 0b8d 99ba
00000030: 7783 363d 2b93 fd3c acc1 313d d5dd 463d
00000040: e40d 563c c11d 05bd 193a 2f3d 26c4 c3bc
00000050: 7b07 9b3c b7b7 653d 5c14 80bc b8e2 833c
00000060: 27f5 31bd 4ff9 f73b fdd5 3fbc f8fa 393d
00000070: e98c 723c 26be 803d 7545 243d 69fe 443d
00000080: 9630 40bd 7578 7a3d 04a6 d23c 7984 3cbd
00000090: 78d0 353c fdd1 353c 7922 16bd b81d 1cbd
000000a0: 2b08 a13c 93f1 263d 75e4 343d ad26 8bbc
000000b0: 187c fa3c 6834 2b3d 4f67 11bd ba76 8b3d
000000c0: 76ce f2bb e54e 1bbb b39d 503d 178c 963b
000000d0: 48d0 fd3c 4fd4 323d 241e 693d 3dce 053d
000000e0: 1483 693d f732 32bd e420 1e3d c69a 3c3d
000000f0: 6515 2f3d 8f7c f13b 255b 743d bfc4 793d
00000100: fca5 fc3b 4b59 353d d871 e3bc c42d 8a3b
00000110: 5434 58bc 6f6a bfba 868e e43c f483 11bd
00000120: cf41 153d bf3a 84bb e290 d73c aeda 443d
00000130: ef70 043d e5fb a4bc 7adc 313d c2ff c43b
00000140: cc8b 583c e88f beba 2997 38bd 04db 3a3d
00000150: 74b8 f53c 4239 90bc 3cc1 c6bc 1a9b adbc
00000160: f139 07bd b6ec ba3c a0ae 49bc c90d 15bd
00000170: 2bc5 233d 3452 59ba 5a7a 783d a06f 9c3c
00000180: 2583 433d c102 27bd 025b f13a b65b c9bc
00000190: 09b6 353d 34de 0c3d 5be4 153d ae39 753d
000001a0: 224f adbc 7db9 c6bc ed4c 69bc 8443 5f3d
000001b0: 739e 18bd 26e6 f83c 9541 873c b6b4 57bc
000001c0: bc8a 4f3c 5ded aabb 67fb 883d 563b 0f3d
000001d0: 26ea 1fbd 3e5a 533c cc1a 42bd ffdf f3bb
000001e0: e7d7 2e3b 23ad 46bd 2180 f83c 5ccd c83c
000001f0: dd84 f03c aef9 6e3c 2f8d 863d b4a3 07bd
00000200: 24a6 42bd 15dd dbbc 6119 5a3d 4a72 3a3b
00000210: 4b79 1f3d 2e02 14bc c43b e5bc 1fc4 8a3c
00000220: ba4d 3c3d 971b 82bc 6626 ea3c 8c82 143d
00000230: 021b f43c a50a 12bb 7c78 6e3d 500f 32bd
00000240: 68ad e93c b0b9 693d 7e22 09bd 44cf bb3c
00000250: 9072 f33b 0c22 ee3c e454 c7bc a9ce 22bd
00000260: 026f bfbc 5c1c 06bd 8143 363d f965 4fbc
00000270: f107 063d 262e 3d3d 47f3 7e3c 0d6d 643a
00000280: ac1e 2fbd 559e bcbc 01a3 dabb 9229 e5bc
00000290: 35dc 24bd e0fe 2ebd 8d13 863d e76f 35bd
000002a0: e05a bf3c 669e 40bd ef58 febc edc9 823d
000002b0: 25d2 213d c6d9 243d eddc a8bc 01a7 20bd
000002c0: 66c3 3c3d ff7d e23c 46eb 283d f973 13bd
000002d0: a3e6 35bc 06a6 76bc 90bd 4dbd af13 b7bc
000002e0: 8556 65bc e501 8e3c f3df e53c 82c6 563c
000002f0: c0cb 65bd b211 1a3d 196c 1cbd f3f9 0bbd
00000300: 966d 263d 05fa 033d ea14 9dbc bb73 d93c
00000310: 7a81 1c3b a001 413d 4a41 4b3d 3004 44bc
00000320: 673e edbb c9ee 1c3d 4554 773c 869f 25bd
00000330: 9f5c 863d 5e73 303d 91c8 9dbc 00f8 d03c
00000340: 817f c9b9 4d27 593d 2192 cd3b b5c6 1e3d
00000350: f568 883c b9c4 0f3d c6c0 02bd e586 28bd
00000360: dc2d 783d 4482 e0bc 2cb7 403d 843c 263d
00000370: 657a 523c d33f 03bd 2a2c 5d3a 1e9a 173d
00000380: 6f37 743d 2612 48bd 8dda 7cbc b3f8 223c
00000390: dc7f ce3c d921 093d ff8c 473c 8e51 b039
000003a0: 066e 04bd 2e0d f4bc ea53 4cbd b648 813d
000003b0: 076c 313d 5128 573c f4af 6e3b 60d7 053d
000003c0: 0706 40bd 390b 93bc 476b 4bbd 6b4f 46bc
000003d0: 3bf2 debc e984 1abd 03e3 14bd 40b5 e8bc
000003e0: 0ca1 273d e7af 3dbd c465 cc3c 112d 083d
000003f0: e154 acbc 5236 ddbb fcc0 6e3d 629a 153d

action_model._continuous_distribution.log_sigma f4 [1, 2]
-0.09342691 -0.03853218
00000000: 9c56 bfbd ebd3 1dbd

action_model._continuous_distribution.mu.weight f4 [2, 256]
0.00616068 -0.011408478 0.021550106 0.020457841 0.018394224 -0.003623437 0.051292878 -0.0050938064
-0.03422969 0.00071022223 -0.008183209 -0.012932665 0.020931039 0.020496886 0.025524003 0.028001243
0.009304665 -0.018550074 0.04223648 -0.018253073 0.017807078 0.016542707 -0.015518493 0.0057259747
-0.047436163 -0.02201724 -0.03513237 0.030330574 0.015322496 0.047763508 -0.0031976278 0.030529985
-0.03105827 0.04104114 0.0020252236 -0.050855655 0.004402784 0.005781006 -0.0056325602 -0.021203533
0.007054025 0.017418634 0.017591473 -0.028052928 0.019782865 0.008482038 -0.012393494 0.04379084
-0.0078713605 0.0035675033 0.058360983 -0.012497785 0.018630577 0.030324114 0.04577168 0.036954254
0.01965079 -0.020216059 0.013429037 -0.021299616 0.02178248 0.012986183 0.025566386 0.03751513
-0.011515703 0.01665619 -0.044043183 -0.008131058 -0.004501231 0.011526697 0.01219397 -0.046605013
-0.012479701 -0.019934382 0.014350177 0.029432492 0.0048542325 -0.018947037 0.05579487 -0.008629659
3.8198545e-05 -0.0006695565 -0.04650937 0.009452946 0.021167226 0.0007387772 -0.0069298362 -0.028046543
-0.021361778 0.022322344 -0.020217244 -0.022836069 0.0020887642 -0.011175373 0.03772538 0.017493207
0.025663972 -0.03389864 -0.03168602 -0.036237318 0.04702774 0.025468284 0.017419782 0.02994565
-0.016454829 -0.038574226 0.0030356874 0.03465008 -0.016463839 0.007497719 -0.007964659 0.0155084375
0.017268648 -0.02735705 0.04618624 0.027064858 -0.03003935 -0.0031804817 -0.036001183 0.001817785
-0.000663443 -0.048914485 0.007717657 0.01272652 0.0115741715 0.004233181 0.027902313 -0.012363889
-0.024350233 -0.0035898495 0.011365714 -0.010752983 0.0119285425 -0.04528975 -0.0548296 0.011480095
0.041381642 -0.028359018 0.012884401 0.004306869 0.007939188 0.004208992 0.020140817 -0.034546427
0.014999868 0.012184497 -0.028526671 -0.020540893 -0.005864768 0.011214197 -0.028245822 -0.015328662
-0.036311146 -0.008153887 0.047797155 -0.017655073 0.0320792 0.020142509 0.012917752 0.017510189
-0.04850918 -0.014197609 -0.001165575 -0.0050415844 -0.018982051 -0.023446947 0.054188527 -0.043042082
0.010627351 -0.03986825 -0.05359696 0.02505992 0.036432404 0.0024169825 -0.019912113 -0.034570713
0.019152218 0.018978702 0.009659249 -0.0075978595 -0.017871276 0.0023679289 -0.024706703 -0.035361398
-0.0049809157 0.0045085642 0.012459569 0.0041980105 -0.009551477 0.027508106 -0.013848047 -0.032001015
0.01817302 0.016036026 -0.020768197 0.03953159 -0.01876226 0.010848938 0.045411397 0.0026472732
-0.006393466 0.020817127 -0.0036576635 -0.03687638 0.039804175 0.025553055 -0.0003510421 0.0125499265
0.0026838307 0.057297476 -0.009653472 0.01836095 0.0013805134 0.024127621 -0.023515461 -0.03463485
0.030137448 -0.05172704 0.0354386 0.036772933 0.018639246 -0.024990467 -0.011046393 0.011380053
0.03082173 -0.038651843 -0.022212474 0.0115132285 0.0034301446 0.030313408 0.017579896 0.014782856
-0.04448197 -0.021643765 -0.02763047 0.02571406 0.018520627 0.0024737837 0.0078008925 0.024306368
-0.035870783 0.0019059367 -0.038666476 -0.023850523 -0.0006612522 -0.035530638 -0.019861525 -0.045957558
0.024938371 -0.025552008 0.016659616 0.024730885 -0.013056451 -0.036164142 0.045950662 0.009804839
00000000: 88df c93b a0ea 3abc d989 b03c 3497 a73c
00000010: 7caf 963c 2f77 6dbb 7b18 523d f2e9 a6bb
00000020: 6e34 0cbd 352e 3a3a de12 06bc 87e3 53bc
00000030: 9277 ab3c 16e9 a73c b717 d13c dd62 e53c
00000040: 9872 183c 53f6 97bc 2900 2d3d 7887 95bc
00000050: 26e0 913c 9284 873c 4741 7ebc f5a0 bb3b
00000060: 6c4c 42bd 805d b4bc f6e6 0fbd d377 f83c
00000070: 350b 7b3c aba3 433d 4b8f 51bb 051a fa3c
00000080: ea6d febc c11a 283d 9db9 043b 054e 50bd
00000090: 3b45 903b 986e bd3b 5791 b8bb 08b3 adbc
000000a0: 7325 e73b 86b1 8e3c fe1b 903c 41cf e5bc
000000b0: ad0f a23c 3ff8 0a3c 150e 4bbc 065e 333d
000000c0: e1f6 00bc c6cc 693b ed0b 6f3d 82c3 4cbc
000000d0: 279f 983c 476a f83c 167b 3b3d 585d 173d
000000e0: b2fa a03c 269c a5bc 7705 5c3c 887c aebc
000000f0: 2c71 b23c 00c4 543c 9970 d13c 77a9 193d
00000100: 5cac 3cbc 9072 883c a066 34bd 2138 05bc
00000110: 107f 93bb 79da 3c3c 38c9 473c e6e4 3ebd
00000120: a977 4cbc 6e4d a3bc 011d 6b3c 691c f13c
00000130: 4110 9f3b d136 9bbc 2989 643d 6a63 0dbc
00000140: 6037 2038 2d85 2fba 9c80 3ebd 87e0 1a3c
00000150: e466 ad3c 80aa 413a ae13 e3bb ddc1 e5bc
00000160: e5fe aebc 59dd b63c a29e a5bc b512 bbbc
00000170: a6e3 083b e918 37bc ee85 1a3d ea4d 8f3c
00000180: 403d d23c 4dd9 0abd 33c9 01bd 956d 14bd
00000190: 29a0 403d dda2 d03c eeb3 8e3c 9450 f53c
000001a0: 47cc 86bc 0200 1ebd 62f2 463b 3eed 0d3d
000001b0: 2cdf 86bc 6daf f53b 337e 02bc 1a17 7e3c
000001c0: fb76 8d3c e41b e0bc c82d 3d3d 1fb7 dd3c
000001d0: 1515 f6bc a16f 50bb fa75 13bd be42 ee3a
000001e0: e8ea 2dba 8e5a 48bd 66e4 fc3b e582 503c
000001f0: 98a1 3d3c 7fb6 8a3b 6493 e43c e991 4abc
00000200: 247a c7bc ae43 6bbb 4237 3a3c 482d 30bc
00000210: ef6f 433c bf81 39bd 0195 60bd 0217 3c3c
00000220: cc7f 293d 2c51 e8bc 1819 533c a320 8d3b
00000230: 5e13 023c 95eb 893b 5bfe a43c 8e80 0dbd
00000240: 02c2 753c 7ca1 473c c4b0 e9bc 6045 a8bc
00000250: 3d2d c0bb c0bb 373c c863 e7bc 1125 7bbc
00000260: ffba 14bd e297 05bc f3c6 433d 5fa1 90bc
00000270: 7b65 033d e701 a53c fba4 533c 8771 8f3c
00000280: 90b1 46bd 179d 68bc 35c6 98ba e033 a5bb
00000290: 3f80 9bbc d013 c0bc caf4 5d3d e54c 30bd
000002a0: 571e 2e3c e44c 23bd 7c88 5bbd 764a cd3c
000002b0: 253a 153d 3d66 1e3b ba1e a3bc 059a 0dbd
000002c0: 1de5 9c3c 3979 9b3c d441 1e3c 77f7 f8bb
000002d0: c866 92bc 412f 1b3b b665 cabc 1dd7 10bd
000002e0: f336 a3bb 94bc 933b 3823 4c3c 778f 893b
000002f0: cc7d 1cbc ae58 e13c ebe2 62bc 7f13 03bd
00000300: 96df 943c fc5d 833c 1122 aabc e0eb 213d
00000310: 50b3 99bc bebf 313c 4d01 3a3d e07d 2d3b
00000320: 4880 d1bb ae88 aa3c 69b5 6fbb b00b 17bd
00000330: b409 233d a454 d13c 130c b8b9 359e 4d3c
00000340: 35e3 2f3b c2b0 6a3d 9929 1ebc b469 963c
00000350: 58f2 b43a 4aa7 c53c 7fa3 c0bc 46dd 0dbd
00000360: cfe2 f63c bcdf 53bd 1128 113d 379f 163d
00000370: 55b1 983c cfb8 ccbc eefb 34bc 6773 3a3c
00000380: da7d fc3c 6551 1ebd eff6 b5bc fba1 3c3c
00000390: 47cc 603b d353 f83c b703 903c cb33 723c
000003a0: ba32 36bd 444e b1bc 4c59 e2bc 4ba6 d23c
000003b0: 92b8 973c 341f 223b a19e ff3b 261e c73c
000003c0: 3eed 12bd a0d0 f93a bd60 1ebd 2c62 c3bc
000003d0: e257 2dba 9388 11bd a3b4 a2bc fe3d 3cbd
000003e0: 8e4b cc3c 7252 d1bc bf79 883c 6d98 ca3c
000003f0: baea 55bc da20 14bd c336 3c3d 7aa4 203c

action_model._continuous_distribution.mu.bias f4 [2]
0.04908615 0.022642804
00000000: 8f0e 493d 677d b93c

action_model._discrete_distribution.branches.0.weight f4 [2, 256]
-0.013908641 -0.019048773 0.067125596 0.053689957 -0.034928814 0.051472336 -0.024455136 -0.019367635
-0.0057854555 -0.0018417048 0.045700043 0.04093458 0.046892848 -0.030079352 -0.019007767 -0.008661046
-0.029682862 0.04563047 -0.032049395 -0.019894864 -0.01962065 0.051473606 0.019896144 -0.010313144
0.01410584 0.0715302 -0.015505174 0.021381427 -0.012096621 0.033359736 0.04085256 0.04100724
0.0057059955 0.065807 0.06272814 0.015563571 -0.033452325 -0.025002385 0.005209499 0.029008793
0.036872458 -0.020878121 0.044201225 0.001635353 -0.029638724 0.015017993 -0.024287269 0.03739224
0.028141785 -0.026921373 -0.050367065 -0.014403089 -0.03946785 -0.01845416 -0.002552485 0.018438067
0.030668559 -0.006883077 0.06736182 0.029067304 0.070464596 -0.008182712 0.04538089 0.022264492
-0.029483221 0.038266063 0.0059880125 0.032252513 0.0017511691 0.016958574 -0.002262158 0.021599097
0.033617597 0.035611846 0.049510773 -0.03676563 -0.0417434 -0.010991038 -0.044410598 -0.017730432
0.042105846 -0.02627506 0.023217803 0.041253157 -0.019222021 0.028752415 -0.010775246 -0.009597951
0.04482659 0.032440607 -0.022029616 -0.010175997 0.016374607 0.04910655 0.044516023 0.05917054
0.03943468 0.0064623887 -0.027198505 -0.009320493 -0.03299807 0.040525537 -0.035895135 0.06272842
-0.019827252 -0.010384352 -0.00887772 0.0064777303 -0.0035916637 -0.034988694 0.050692767 0.005876458
-0.025422813 -0.029236434 0.055341277 -0.03823458 -0.0025717923 -0.027178284 0.0027878557 0.025735715
-0.053859986 0.010097117 0.03807031 -0.03241279 -0.021817954 0.02866551 0.03704421 0.018113524
0.008706582 0.0454683 0.060747646 0.037190992 -0.033941384 -0.035375897 -0.0038326192 0.027631098
-0.014546248 -0.026190594 -0.026592825 -0.025660677 0.037491787 0.0056374585 0.04823424 0.0020376642
-0.047892135 0.04464722 -0.033425115 0.018404596 0.053341344 0.04118388 -0.041216306 0.004169586
-0.01204463 -0.01805241 0.022567915 -0.009724976 0.03616606 0.04769928 0.051305868 0.030933265
0.03648924 -0.020268489 0.022114296 0.011701156 0.0069139134 0.030023485 -0.015840195 0.021341931
-0.034315858 0.01310735 0.034573074 0.025258588 -0.030475643 0.04775189 -0.026153104 0.017233552
0.03332127 0.007897728 -0.021388255 0.0028126482 0.045364566 0.02723719 0.008508411 -0.009071639
-0.016176494 0.04881259 -0.01366749 0.0492226 0.0043870476 -0.036114678 0.0076198876 0.028304279
0.004828359 -0.035783324 0.038832203 0.023541026 -0.031896345 0.03588519 0.008898633 -0.020142406
-0.0043173507 -0.02939274 0.041736145 -0.007513836 0.014765788 -0.027619628 0.029516332 -0.03217235
0.04767377 -0.009572976 0.0417376 0.053691976 -0.03090264 -0.040845558 0.00041236132 -0.01038626
0.017538888 0.030028718 -0.04738137 -0.027304992 -0.023040762 0.00865119 0.05380567 0.051261608
-0.021497702 -0.0060805455 -0.027430795 -0.020796832 -0.026079498 -0.024748819 -0.0077343592 0.010122016
0.013084247 0.011657689 0.013020121 0.050573982 0.0642066 -0.031663105 0.028209921 -0.026582224
0.02953038 0.03816218 -0.018782103 -0.010724154 -0.0043085865 0.008566098 -0.022979358 -0.008222781
0.034999177 0.029469412 -0.02882775 -0.039049935 -0.02875186 -0.020630158 0.05867424 0.050959982
00000000: 12e1 63bc 2c0c 9cbc 2579 893d 00ea 5b3d
00000010: 8411 0fbd a8d4 523d 2356 c8bc e0a8 9ebc
00000020: eb93 bdbb 5c65 f1ba f82f 3b3d 05ab 273d
00000030: b712 403d f968 f6bc 2db6 9bbc 0fe7 0dbc
00000040: 7929 f3bc 04e7 3a3d 3a46 03bd 8efa a2bc
00000050: 7cbb a0bc fdd5 523d 3dfd a23c 76f8 28bc
00000060: 2e1c 673c 6d7e 923d 6a09 7ebc 1a28 af3c
00000070: e830 46bc 38a4 083d 0455 273d 35f7 273d
00000080: 5cf9 ba3b d2c5 863d 9c77 803d 59fe 7e3c
00000090: 4e05 09bd cdd1 ccbc 72b4 aa3b d9a3 ed3c
000000a0: 9307 173d 9808 abbc 580c 353d 5759 d63a
000000b0: e9cc f2bc 070e 763c 18f6 c6bc 9b28 193d
000000c0: 9a89 e63c 368a dcbc b24d 4ebd effa 6bbc
000000d0: 0aa9 21bd 2e2d 97bc 9847 27bb 6e0b 973c
000000e0: a13c fb3c 6f8b e1bb fef4 893d 8e1e ee3c
000000f0: be4f 903d c810 06bc 50e1 393d 0664 b63c
00000100: cc86 f1bc e0bc 1c3d 1737 c43b 361b 043d
00000110: 7c87 e53a b5ec 8a3c b740 14bb 97f0 b03c
00000120: 9bb2 093d badd 113d cfcb 4a3d 8f97 16bd
00000130: 21fb 2abd c113 34bc e3e7 35bd 693f 91bc
00000140: 2e77 2c3d cb3e d7bc 4333 be3c 12f9 283d
00000150: 8077 9dbc 2f8a eb3c a88a 30bc b940 1dbc
00000160: 169c 373d 71e0 043d 7477 b4bc 3ab9 26bc
00000170: 0a24 863c f323 493d 6f56 363d cf5c 723d
00000180: 4286 213d 72c2 d33b 66cf debc fbb4 18bc
00000190: fc28 07bd 1bfe 253d c706 13bd c277 803d
000001a0: c36c a2bc 2123 2abc db73 11bc 2443 d43b
000001b0: 1e62 6bbb 4e50 0fbd 38a3 4f3d 4d8f c03b
000001c0: 8143 d0bc 3f81 efbc 89ad 623d dd9b 1cbd
000001d0: 848b 28bb fea4 debc 75b4 363b b5d3 d23c
000001e0: 4a9c 5cbd 616e 253c 9def 1b3d 46c3 04bd
000001f0: 91bb b2bc eed3 ea3c abbb 173d d062 943c
00000200: 0da6 0e3c f83c 3a3d 86d2 783d 9555 183d
00000210: 1f06 0bbd 51e6 10bd ae2c 7bbb 9d5a e23c
00000220: 6353 6ebc a88d d6bc 32d9 d9bc 5736 d2bc
00000230: fd90 193d 6eba b83b 4491 453d 558a 053b
00000240: 8b2a 44bd 01e0 363d c6e8 08bd 3cc5 963c
00000250: 747c 5a3d 6eb0 283d 6ed2 28bd 06a1 883b
00000260: d756 45bc a6e2 93bc 59e0 b83c 8155 1fbc
00000270: dd22 143d 5260 433d 1a26 523d c267 fd3c
00000280: be75 153d 1a0a a6bc 0a29 b53c 35b6 3f3c
00000290: 1c8e e23b d0f3 f53c 4cc3 81bc 46d5 ae3c
000002a0: c98e 0cbd 36c0 563c 7f9c 0d3d 19eb ce3c
000002b0: 0ea8 f9bc 7c97 433d 093f d6bc 612d 8d3c
000002c0: e27b 083d 7965 013c 6c36 afbc 6854 383b
000002d0: 32d0 393d 8720 df3c dd66 0b3c 36a1 14bc
000002e0: 9184 84bc b6ef 473d 9ced 5fbc a39d 493d
000002f0: 39c1 8f3b fcec 13bd 40b0 f93b 60de e73c
00000300: 3637 9e3b 8991 12bd 840e 1f3d 1cd9 c03c
00000310: bea5 02bd 59fc 123d 92cb 113c b001 a5bc
00000320: 9078 8dbb 0bc9 f0bc 85f3 2a3d a036 f6bb
00000330: 34ec 713c 8f42 e2bc 3ccc f13c 27c7 03bd
00000340: 9245 433d f9d7 1cbc 0cf5 2a3d 1eec 5b3d
00000350: 8927 fdbc ac4d 27bd 3332 d839 222b 2abc
00000360: b7ad 8f3c c9fe f53c f812 42bd b8ae dfbc
00000370: fbbf bcbc b9bd 0d3c 5663 5c3d b1f7 513d
00000380: f31b b0bc 503f c7bb 8cb6 e0bc 1e5e aabc
00000390: aca4 d5bc 09be cabc 8270 fdbb d0d6 253c
000003a0: 4f5f 563c e4ff 3e3c 5852 553c aa26 4f3d
000003b0: c07e 833d 2cb1 01bd 7e18 e73c f7c2 d9bc
000003c0: b2e9 f13c f24f 1c3d eddc 99bc 5db4 2fbc
000003d0: 0b2f 8dbb d258 0c3c 353f bcbc d8b8 06bc
000003e0: 4c5b 0f3d d669 f13c 2c28 ecbc d3f2 1fbd
000003f0: 0589 ebbc 9400 a9bc 6654 703d 6abb 503d

action_model._discrete_distribution.branches.0.bias f4 [2]
0.002875633 -0.0028756326
00000000: 1e75 3c3b 1c75 3cbb

onnx::Div_70 f4 [11]
3.9262812 0.00315432 3.3412192 0.03500271 0.024618391 0.4257586 1.2318501 0.001176473
0.014584807 0.001176473 0.45252562
00000000: 3148 7b40 b5b8 4e3b 89d6 5540 005f 0f3d
00000010: 82ac c93c 08fd d93e 44ad 9d3f e233 9a3a
00000020: 1df5 6e3c e233 9a3a 70b1 e73e
