turretresults/turret_train_9/TurretShoot/TurretShoot-188977.onnx (onnx, 287600 bytes, 11 tensors)

network_body.observation_encoder.processors.0.normalizer.running_mean f4 [11]
000000 d2 6e 69 3d ea be 78 c5 a9 e7 8e bc b9 e1 6c bc
       0.056990452 -3979.9321 -0.017444449 -0.014458113
000010 cc d0 da 3c a2 bd 08 3f f0 12 79 45 f9 57 0e 3b
       0.02671089 0.53414357 3985.1836 0.0021719916
000020 18 19 c8 c3 e0 0c 9e bc e7 14 09 3f
       -400.19604 -0.019293249 0.5354752

network_body._body_endoder.seq_layers.0.weight f4 [256, 11]
000000 9c 1f aa 3e a7 b2 b7 3d 60 ca 19 3e ca dc 72 3e
       0.3322724 0.08969622 0.15018606 0.23717037
000010 64 48 07 bd 41 f2 aa be ea 7a 6e 3d ad d7 fb bc
       -0.03302802 -0.3338795 0.05822269 -0.03074249
000020 68 e9 01 bf 9d d2 92 be 8b 4c 05 3c bb f2 eb 3e
       -0.50746775 -0.2867631 0.008135925 0.46083626
000030 27 5d 77 be f3 3b 47 bd 3e f8 23 3d 28 b1 86 3e
       -0.24156629 -0.048641156 0.040031664 0.26307034
000040 c2 12 af be e3 46 91 3e 79 7c fe 3d e0 21 2e be
       -0.34194 0.28374395 0.12426085 -0.1700511
000050 36 bc 3c be bd ce 28 3e 09 fd 36 be 52 c8 83 bd
       -0.18431172 0.16485114 -0.17869963 -0.064346924
000060 fa 4b 92 bb 8b 7b 91 3e ef 85 2e 3e 9c bd 21 be
       -0.0044646235 0.28414568 0.17043279 -0.15794986
000070 66 4d 24 3f aa 26 b1 3e 37 63 ce bd 31 bb ee bb
       0.641806 0.3459981 -0.100775175 -0.0072854985
000080 04 d3 66 3e ee 1e 95 3e c9 44 50 3e ea 2a 2a bf
       0.22541434 0.2912516 0.2033874 -0.6647173
000090 d0 dc 07 3f e4 0b 30 3e 7a f9 a0 bd ef dd 11 bf
       0.5307131 0.17192036 -0.07860084 -0.5697927
0000a0 1e f6 19 3f 2e 8f 9b bd 5e 91 b5 be c9 ce a7 bd
       0.6014117 -0.07595669 -0.3546247 -0.08193738
0000b0 a8 45 e7 3c de dd 0c 3f 4c 6f 55 be ca 19 ac be
       0.028231457 0.5502604 -0.20843238 -0.33613425
0000c0 0e c0 ae 3e af 95 ca 3e 1c 03 b5 3e c3 8d 88 3e
       0.341309 0.39567325 0.35353935 0.26670656
0000d0 09 30 82 be c0 31 55 be 8a 6f 68 3d 08 16 14 be
       -0.25427273 -0.2081976 0.056746997 -0.14461529
0000e0 53 cc 3a 3e 22 ee 6a 3e c8 c2 96 3e 68 c0 c1 3e
       0.18242006 0.22942403 0.2944548 0.37842107
0000f0 6b 61 cb 3e 9c 17 21 3f 33 8a 15 3e ad 85 0c 3e
       0.39722762 0.6292665 0.146035 0.13722868
000100 d9 cb 3a bd a1 6e ba be 7c ed 29 bf f0 3d c8 3e
       -0.04560456 -0.36412528 -0.66378 0.39109755
000110 49 0f c9 bd 36 98 cc 3e 98 ad ba 3e 76 26 a6 3d
       -0.098173685 0.39959878 0.36460567 0.081128046
000120 dc d9 19 3d 58 88 0c be d9 50 09 3e 49 92 59 be
       0.037561283 -0.13723886 0.13409747 -0.2124721
000130 30 59 d6 3e 97 34 8a be 7e cf ca 3e f0 11 9c be
       0.4186492 -0.26993248 0.3961143 -0.30482435
000140 a9 30 1f 3f b4 f9 5b 3e 55 91 a0 3d de 83 fa ba
       0.62183625 0.21481973 0.0784022 -0.0019112786
000150 e6 34 1b 3f 00 27 f1 3d bb 1f da 3e 6b a8 eb be
       0.6062759 0.11775017 0.42602333 -0.4602693
000160 84 fb 80 3e 95 fc c3 be 9c 32 c7 3e 57 49 ee 3e
       0.2519189 -0.38278642 0.389058 0.4654033
000170 13 cf 98 3e e0 54 9c be 08 ab 04 3f 6f 8b 32 be
       0.29845485 -0.30533504 0.5182347 -0.17436002
000180 00 72 7a 3e ed 8a 70 3e 9f fa 80 3e 0a d9 d9 3c
       0.2445755 0.23490496 0.2519121 0.02659275
000190 52 b6 a9 3e a7 e0 24 3d c4 58 d0 bc c7 82 fd 3d
       0.33146912 0.040253308 -0.025432952 0.123784594
0001a0 f6 b1 77 3f eb 9e 2d be 90 9d b2 be e2 81 2d bd
       0.9675592 -0.16955154 -0.34885836 -0.042360194
0001b0 b7 47 37 be 51 9d 15 3f c2 bd 51 be 11 5f 2c 3f
       -0.17898451 0.5844317 -0.20482543 0.6733256
0001c0 10 8e 16 be 50 c3 1e 3f 82 62 03 bf 86 7c a3 3e
       -0.1470263 0.62016773 -0.51322186 0.3193094
0001d0 a0 8c 52 be f0 08 30 3e 70 54 3c 3e d4 55 b0 3e
       -0.20561457 0.1719091 0.18391585 0.34440482
0001e0 9e 46 f4 3e 4b ed 1f 3d a9 59 dc 3d 57 10 c1 3d
       0.47710127 0.03904466 0.10759289 0.09426945
0001f0 fc 94 2c 3e 1f c2 aa be 4c 62 39 3e a4 67 8e bd
       0.16853708 -0.33351228 0.18103904 -0.06953362
000200 92 7c 6c be 75 01 2f be 80 7c d2 3e 55 9b 72 be
       -0.23094395 -0.170904 0.4111061 -0.23692067
000210 98 0b 10 3e 18 db 45 be 60 61 dc 3e 25 dc 65 be
       0.14066923 -0.19321859 0.4304304 -0.2244726
000220 21 f7 88 be 4c ff 30 3e 67 0b c0 3d e0 de 21 3d
       -0.26751044 0.17284888 0.09377175 0.03951919
000230 b3 f8 f8 bd b1 9b 6e bd 9e ab 73 be 32 79 8b bd
       -0.121568106 -0.058253948 -0.23795936 -0.068102255
000240 12 96 cb be 5b 95 d3 3e e7 fe 1e 3f 10 c4 70 be
       -0.39762932 0.41324887 0.621077 -0.23512292
000250 a6 d4 e9 3e b0 83 dd be 0a fd 28 3e 07 7d 76 be
       0.4567005 -0.43264532 0.16502777 -0.24071132
000260 74 73 a3 bd 82 28 e1 bd aa ff ca bd e9 af 26 be
       -0.07981005 -0.109940544 -0.09912045 -0.16278042
000270 e5 c3 85 3d ca c8 21 3d e8 ea 0f 3f 5a 00 34 be
       0.065315045 0.039498128 0.56217813 -0.17578259
000280 ac e4 d1 3e c6 fd e6 3e de e5 6a 3e fb f8 84 3e
       0.40994775 0.4511549 0.2293925 0.25971207
000290 65 6b cd be 46 44 f0 3e a7 da c6 3e 53 b2 73 be
       -0.40120998 0.46927088 0.38838693 -0.23798494
0002a0 dc 27 0c be a7 8a 21 3d a4 21 9d 3e 35 54 1f 3d
       -0.1368708 0.03943887 0.30689728 0.038898665
0002b0 5e 3c 9b 3d c7 67 0b bf cf c4 7b bd 4f ff 41 3e
       0.075798735 -0.54455227 -0.06146699 0.18945049
0002c0 12 c8 a5 be d2 de 0e 3e 96 16 b9 3e cb 3a 7b be
       -0.32379204 0.13952187 0.36150044 -0.24534146
0002d0 76 a0 7a 3e 50 c7 32 bf 5d 33 43 bf 92 ac 16 3e
       0.24475273 -0.69835377 -0.7625025 0.14714268
0002e0 53 d2 cd 3e f6 6d b6 3e 62 7d 73 be e6 b0 3f 3f
       0.40199527 0.3563077 -0.23778298 0.748793
0002f0 a6 8c 25 3d ef f7 da bb b7 3b a4 3d 97 12 16 3d
       0.040417336 -0.006682388 0.08019202 0.036638822
000300 5e 74 57 be a0 9a 2d bf 97 60 6e be e6 a3 93 be
       -0.21040484 -0.67814064 -0.23279034 -0.28835982
000310 ae 02 8c 3e 68 10 87 3c dd 27 d6 bc 2a e1 af bd
       0.27345794 0.016487315 -0.026142055 -0.085878685
000320 da 55 af bd 2f 75 53 3e 2b 6e 69 3e 50 71 4b bf
       -0.08561297 0.2065017 0.22795932 -0.79469776
000330 4f 97 af 3e 6d 97 db 3e 29 08 0f bf 12 0f 24 be
       0.34295127 0.42888966 -0.55871826 -0.16021374
000340 4e c3 0a 3d f3 ac 2f 3d 43 d2 0e be 38 ec b4 3d
       0.033877663 0.042889547 -0.13947396 0.08834118
000350 ee d9 98 be 40 49 88 be c5 c9 c2 be 20 8d d1 3e
       -0.29853767 -0.26618385 -0.38044563 0.40927982
000360 fb 19 57 bd b8 fa 2b 3e a3 ac 29 bc ef 3f 6e 3e
       -0.05251501 0.1679486 -0.010356101 0.23266576
000370 f5 39 ca be 7b d7 be be 9c ac 0b 3e 08 2a 8f be
       -0.39497343 -0.37273774 0.13640064 -0.27961755
000380 81 f9 c7 be f8 c5 cd 3e 51 ed de be 41 17 42 bd
       -0.39057544 0.401901 -0.43540433 -0.047385458
000390 7d 91 4b be 8b 62 0c bc 64 41 08 3e 33 84 e4 be
       -0.19879718 -0.008568416 0.13306195 -0.4463211
0003a0 14 db c7 bd 98 ca c8 be a4 b3 ce 3e 3f eb 21 be
       -0.09758583 -0.39217067 0.4037143 -0.15812396
0003b0 2a 93 71 bc ad 6e 0f 3d 39 9b ce bd f9 da e6 bd
       -0.014744559 0.035017658 -0.100882 -0.112722345
0003c0 31 82 40 3d a0 85 9c bd 3e 66 a5 bd 5f be eb bd
       0.04699916 -0.076426744 -0.08076142 -0.1151092
0003d0 64 1d 21 3f f0 37 6f be 9b f8 8a 3e a8 54 21 bf
       0.6293547 -0.23361182 0.27142796 -0.630198
0003e0 16 5c 16 3f d4 48 27 3e 9e e3 ca 3e 36 d4 8b 3e
       0.5873426 0.16336375 0.39626783 0.27310342
0003f0 7d 2b 81 3d 45 ed 66 3e a6 a2 d0 be c8 aa c7 3d
       0.06307123 0.22551449 -0.4074909 0.09749371

network_body._body_endoder.seq_layers.0.bias f4 [256]
000000 28 cc 72 bb 33 31 d1 3c ee fe a6 3b 2e 04 22 3d
       -0.0037047956 0.025536155 0.005096308 0.039554767
000010 4f 16 0d 3d f1 63 3c 3d 95 02 f6 3c ae c4 73 3d
       0.034445103 0.04599375 0.030030528 0.05951374
000020 b8 7f a5 bc de 49 1b 3d 77 e2 08 bb 8f b7 90 ba
       -0.020202503 0.037912242 -0.0020886937 -0.0011041033
000030 89 58 d1 3c fb 39 15 3d d2 39 85 3c 10 46 40 3c
       0.025554912 0.036432248 0.016262922 0.011735454
000040 5b 4e 0c 3d 53 60 eb 3c 69 f8 21 3d 76 b1 d3 3c
       0.034254413 0.028732454 0.039543543 0.025841456
000050 08 ae 9f 3c 73 f5 c3 3c 4f 64 d2 3b 74 14 92 3c
       0.019492164 0.02392075 0.006420649 0.017832018
000060 7f 6b ba 3c c6 47 b9 bb 9d 60 c5 3c 08 a6 24 3d
       0.022756336 -0.005654308 0.02409392 0.040197402
000070 b9 5e d2 3c e1 f6 06 3d 05 55 84 3b 1a 32 03 3d
       0.025679933 0.032950286 0.0040384554 0.032030202
000080 b7 7e 42 3d 4c a1 bb 3c d5 c2 1c 3d c4 d9 35 3d
       0.047484126 0.02290406 0.038271744 0.04439713
000090 2c a9 35 3c 56 0a 61 3c 92 ac 21 3d 5a 28 3a 3c
       0.011087697 0.013735374 0.039471216 0.01136216
0000a0 21 b4 61 3d ec f7 48 3c ad 78 2a 3c 86 c5 0b bb
       0.055103425 0.01226614 0.010404748 -0.002132745
0000b0 08 b8 2e 3d 68 0a 01 3d d2 8d ba 3b 82 50 65 3c
       0.042655975 0.031504065 0.005693176 0.013996245
0000c0 fe ed 5d 3c e1 53 d6 3c c0 3d 0c 3d 06 ce 90 3c
       0.013545511 0.026163043 0.034238577 0.017676365
0000d0 19 0b 02 3d 2a 5e ad 3c db 70 01 3c 87 31 2a 3d
       0.031748865 0.021163065 0.007900442 0.04155114
0000e0 28 22 a5 3d 47 0d 10 3d bd a7 1f 3d 16 50 31 3d
       0.080631554 0.035168912 0.038978327 0.043289267
0000f0 11 0c 13 3d a5 0e 0d 3c 83 5f 38 3d f2 51 bf bc
       0.03590018 0.008609449 0.045012962 -0.023354504
000100 8e 54 0e bb d2 87 cd 3c 52 2a 7d 3c 3d 0b 1f 3d
       -0.002171788 0.025089178 0.0154519845 0.038829077
000110 50 b7 d4 3b 99 6c 05 3d 09 42 e9 3c cb bc 19 3d
       0.006491579 0.03257427 0.02847387 0.037533563
000120 eb 28 cb 3c aa 1d 14 3d 85 5c 9c 39 4e c4 87 3c
       0.024799785 0.036161102 0.0002982357 0.016573098
000130 e8 e2 e5 3b 26 a0 61 3d 09 20 1e 3c 64 fe 96 3b
       0.0070155747 0.05508437 0.009651192 0.0046079624
000140 8b 5f 59 3d 04 8b a7 3c c7 69 3f bc 06 9b 30 3d
       0.053069633 0.02045203 -0.011682934 0.043116592
000150 8d db 52 3d 37 83 db 3c a2 8d d1 3c 7a d6 93 3d
       0.05147891 0.026795967 0.025580231 0.072186425
000160 1c 7e a4 3c 11 71 27 3c f0 80 05 3c 39 7b fd 3c
       0.020079665 0.010219828 0.008148417 0.030942546
000170 9b 11 30 3d d4 78 f4 3c 2c d4 03 3d 7b c7 de 3c
       0.04298554 0.029842772 0.032184765 0.02719473
000180 47 b4 7e 3d 0d b1 e0 bb fe 36 c6 3a 3d 0d fd 3c
       0.062183645 -0.0068570436 0.001512259 0.030890102
000190 85 b7 74 3c ff 66 37 3d 09 fd ed 3c 22 eb b4 3c
       0.014936333 0.04477596 0.02905132 0.022084776
0001a0 fe 0a 90 3c b3 da 5e 3d 40 89 a4 3c 58 58 bf 3c
       0.017583366 0.054407787 0.020084977 0.023357555
0001b0 57 d7 45 3d af 12 b0 3c 0c 3f 3d 3d c5 ee aa 3c
       0.048301067 0.021493284 0.046202704 0.020865807
0001c0 68 a0 9b 3b bd 00 2b bc 69 ce ec 3c 9c d9 8a 3d
       0.0047493465 -0.010437188 0.028907018 0.06779787
0001d0 e9 94 0e 3d 9b 12 ac 3c 28 ba 57 3c ec 5d ea 3c
       0.03480998 0.021004966 0.013166942 0.028609239
0001e0 03 6c bd 3c 8b c3 fc 3b 4d d8 c1 3c e8 44 f2 3c
       0.023122793 0.00771374 0.02366271 0.029573873
0001f0 51 3a 80 3c 75 57 b9 bc 91 00 ae 3c 57 2b 01 3c
       0.015652807 -0.02262471 0.021240504 0.007883868
000200 b1 41 11 3d df a8 bf bb 77 ed e1 39 61 b0 2a 3d
       0.03546304 -0.0058489884 0.0004309227 0.041672114
000210 f9 31 46 3c fc ac b8 3c b1 45 ba 3c dd f2 05 3d
       0.012096875 0.022543423 0.02273831 0.032702316
000220 97 c1 ed 3c fa 32 f6 3c 75 a1 da 3b 49 cb 29 3d
       0.029022975 0.030053604 0.006672079 0.041453633
000230 6e 72 ac 3c e8 0a be 3b f4 ec 97 3a 20 7a 06 3d
       0.021050658 0.00579964 0.0011591003 0.03283131
000240 ca ee 5b 3d 5e 1d 3c 3d 08 94 db 3c 59 88 67 3d
       0.053694524 0.045926444 0.026803985 0.056526516
000250 02 51 12 3d 9e 12 46 ba a0 15 be 3c aa 4b 47 3d
       0.035721786 -0.0007555875 0.023203671 0.048656143
000260 25 1e ae 3b 08 35 da 3c aa 14 07 3d 02 5f 31 3c
       0.005313652 0.026636615 0.03297869 0.010825874
000270 fd b5 a0 3b 11 ac 09 3d 87 35 8e 3c 5e 0d 0f 3d
       0.004904507 0.03361136 0.017359508 0.034924857
000280 fb 4f e4 3c a2 ea a6 3c cb 97 90 3c 49 21 a4 3c
       0.027870169 0.020375554 0.017650506 0.020035403
000290 35 fc 7e 3c 9e d6 cd 3b e7 7c 89 3d 5f fd d1 3c
       0.0155630605 0.006281688 0.06713276 0.025633512
0002a0 b3 e6 0c bc 2b 1c 38 3c dc e8 12 3d f5 3e 88 3c
       -0.008599925 0.0112371845 0.035866603 0.016631583
0002b0 2e 11 21 bc 69 02 08 3d a6 e9 9b 3c 67 e9 a1 3c
       -0.009830756 0.033205424 0.01903231 0.019764615
0002c0 a7 df 82 3d c6 5d 34 bb 8a 6d f6 bc f8 e0 0d 3c
       0.063903145 -0.0027521714 -0.03008153 0.008659594
0002d0 78 e3 c3 3c 19 11 06 3d 79 70 b3 3b 67 77 1c 3d
       0.023912176 0.03273115 0.0054760543 0.03819981
0002e0 7d 5a 93 3d 05 f0 c7 3c 66 39 32 3d 4f 63 39 3d
       0.07194994 0.024406442 0.04351177 0.045260724
0002f0 b7 66 0e 3d 39 5c c7 ba 99 5f 5b 3d 90 70 37 3d
       0.034765925 -0.001520998 0.053557966 0.044785082
000300 9d fe 09 3d c7 44 f5 3c ac 8d de bc a8 be 1b 3d
       0.033690084 0.029940022 -0.027167164 0.03802362
000310 2a b3 84 bc ce 29 47 3d 0e 78 f5 3c ba 00 b4 3d
       -0.016198713 0.048623852 0.029964473 0.08789201
000320 d9 8e c6 3b f3 18 42 3d fc 74 f4 3c fb 3c b8 bc
       0.0060595092 0.047387075 0.029840939 -0.022490015
000330 e2 39 59 3c 31 9d d8 3c 9b f4 f3 3c 9b 7f 22 3d
       0.013258429 0.026442142 0.029779723 0.039672475
000340 e8 a3 bd 3c e8 df 37 3d 9a 20 b6 3b 8c 17 14 3d
       0.023149446 0.044891268 0.0055580856 0.03615527
000350 e0 cb bd bc 4e 8d 9f 3c 87 6f db 3c 77 77 f6 3c
       -0.023168504 0.019476559 0.026786579 0.030086262
000360 20 c8 27 3d 4c f2 40 3c 41 ae 0c 3d 3f 1b 28 3d
       0.04096234 0.011776518 0.03434587 0.04104161
000370 03 b2 22 3c 50 25 68 3b 3b 8d a8 3c da 5e 3c 3d
       0.009930137 0.003542263 0.020575156 0.045988895
000380 02 60 b5 3c bd 19 de 3c 8e 25 19 3d b4 1b 01 3c
       0.022140507 0.027111882 0.03738933 0.00788014
000390 12 71 35 3d 95 4a d0 3c 57 4b 1b 3d c2 fc 0d 3d
       0.044297285 0.025426188 0.037913647 0.034664877
0003a0 bf f8 1e 3d 71 53 36 3d ec b4 df 3c 15 3d 0d 3c
       0.03881144 0.04451317 0.02730795 0.00862052
0003b0 96 0a 40 3c 38 ec 04 bc 56 fb 11 3d c7 14 05 3d
       0.011721274 -0.00811296 0.035640083 0.032490518
0003c0 f1 ca 31 3d 47 86 51 3b 5e 57 1c 3c f4 ba d1 3c
       0.04340643 0.0031970905 0.009542314 0.025601842
0003d0 46 67 0f bc 90 17 2b 3b c6 15 88 3b a3 71 d7 3c
       -0.00875265 0.0026106574 0.004152986 0.026299303
0003e0 74 57 19 3d 8b 20 6e 3d aa ae f8 3b 44 81 bb 3c
       0.037436917 0.058136504 0.007589181 0.022888787
0003f0 16 f7 e7 3c 08 2f 5a 38 8c fe 07 bc 1e a6 a6 bb
       0.028316062 5.201905e-05 -0.008300435 -0.0050857207

network_body._body_endoder.seq_layers.2.weight f4 [256, 256]
000000 27 12 37 bd 8f a7 65 bd be 0d ed 3c b6 36 5a 3d
       -0.044695046 -0.056068 0.028937217 0.053274833
000010 3d 0e 36 be 3d 3c 15 3e b3 32 fa bd 3e 00 93 bb
       -0.17778869 0.1457376 -0.12216701 -0.004486113
000020 b6 aa b7 bb 7c 82 56 bd 99 98 77 bd 75 59 8b 3d
       -0.005605067 -0.052370533 -0.060448263 0.06804172
000030 9b 18 c1 3d b4 4e 48 bd b7 3b 6e bd bb 12 fe bd
       0.09428521 -0.048903182 -0.058162417 -0.12405916
000040 42 8a 7f 3d e1 fc b9 bd c2 82 36 bb f8 61 99 3d
       0.062387712 -0.09081436 -0.0027848934 0.07489389
000050 fb 5f 1c 3e 8f 44 b7 bd ff 40 3f 3d 42 a6 48 3c
       0.15270989 -0.089486234 0.046692844 0.01224667
000060 2d 9d 36 3d 6f b8 98 bd 6c 18 fa bd 6c a7 42 3b
       0.04458349 -0.07457053 -0.12211689 0.0029701842
000070 04 0f d4 bd 42 83 86 bd 19 dd 9e bd 33 32 c7 3d
       -0.103544265 -0.06568004 -0.07757015 0.097263716
000080 6f d2 a6 bc 78 1b 4d bd 5e c8 ff bd 5f 10 f2 bc
       -0.020364014 -0.050075024 -0.12489389 -0.029548822
000090 c0 88 25 3d 5f 26 3c bc 7d d3 e9 bc 61 74 0f bd
       0.040413618 -0.011483758 -0.028543228 -0.035023097
0000a0 cb 32 23 bd db ac 79 3d 44 e5 f7 3d 1c 5c b1 3c
       -0.03984336 0.060955863 0.12104276 0.021650366
0000b0 a3 9e fb bb 65 f2 99 bd 8a c3 99 bd f8 70 a4 bc
       -0.007678823 -0.07516936 -0.07507999 -0.020073399
0000c0 3c 31 ca 3c 7b 0c 21 3d 9a 2d a7 3d 6c ce 80 bd
       0.02468168 0.039318543 0.08162995 -0.06289372
0000d0 3a 93 a1 3d 63 56 04 3b b0 04 2c bd 36 5e 1b bd
       0.07889409 0.0020193092 -0.041996658 -0.037931643
0000e0 be ae a8 3c a6 67 31 bd b9 10 a4 bc d4 ae 89 3d
       0.020591136 -0.043311737 -0.020027505 0.06722799
0000f0 b5 2a 23 bd b0 be f4 3c cb 54 83 bd 57 d5 dd bb
       -0.03983565 0.029876083 -0.06412657 -0.006769817
000100 ef 5b 2c bc 39 93 8d 3c b1 cb 51 3d 44 0f 9b bc
       -0.010519966 0.017282115 0.051219646 -0.018928178
000110 ec 3c 38 bd 4e 76 ed bd 96 f9 f8 bb f5 32 d1 3d
       -0.044979975 -0.115948305 -0.0075981123 0.102147974
000120 e1 b0 cf bd 92 e8 b6 3c af e0 01 3d c8 05 8b bd
       -0.10141159 0.022327695 0.031708416 -0.06788212
000130 9d f7 c5 3d 2b 1d bb 3c 08 20 6f bc c7 ba c8 bd
       0.09666369 0.022841057 -0.014595039 -0.0980125
000140 ef 07 d0 3c c3 de 4a 3d 98 93 0d bc e0 98 bf bc
       0.025394408 0.04952885 -0.008641146 -0.023388326
000150 1a 35 d1 3c 3d 49 16 3d cf f4 86 bd 33 d0 ba bb
       0.025538016 0.03669094 -0.06589662 -0.005701089
000160 db df e2 bc 91 9c 43 bc d0 5e bd bd 99 f9 72 3d
       -0.027694633 -0.011939184 -0.092466 0.059320066
000170 82 ab c1 3c af 35 1b 3d ea dc 44 bd bb ca 41 bc
       0.023641352 0.037892994 -0.048062243 -0.01182812
000180 7b c7 bd bd 9a a9 da 3d ae 1f 0d bd 0e 25 a0 3c
       -0.092665635 0.1067688 -0.03445404 0.019548919
000190 92 75 b9 bd b7 c1 2a 3d 98 96 e6 bc 43 23 19 bd
       -0.09055628 0.041688647 -0.02814798 -0.037387144
0001a0 4a 94 82 bc 30 d6 8d bd ac 02 c7 3d 30 01 00 3c
       -0.01593985 -0.06925619 0.097173065 0.007812783
0001b0 cf 0c 0c be 5a 83 27 3d 5c 18 60 bd db 0d 2e bd
       -0.13676761 0.04089675 -0.05471073 -0.042493682
0001c0 92 47 85 3c 0b f9 58 3b 2e 3d 5c bd 63 e1 16 3e
       0.016269479 0.0033107426 -0.053769283 0.14734416
0001d0 aa e4 f6 bd be 80 ee 3d 1e 7c 57 bd 7e 2e 57 bd
       -0.12055333 0.116456494 -0.0526086 -0.052534573
0001e0 5d 60 24 bd a2 05 85 bd 09 b4 26 3e 5b 73 92 3c
       -0.04013096 -0.06495215 0.16279615 0.017877271
0001f0 35 d6 56 3d d0 0a 4c be 96 5c f7 bd 37 0b d6 bc
       0.052450377 -0.19926 -0.12078206 -0.026128395
000200 80 2b 1b 3d ad f4 ba 3d c6 f4 ad 3c 73 bf 4d 3d
       0.03788328 0.091286995 0.021234881 0.05023141
000210 33 68 05 bd 47 e4 1a be 34 4b e3 bc b7 5f 0b be
       -0.032570075 -0.15126143 -0.02774582 -0.13610731
000220 0a f2 11 bd 93 7b 3d bc a7 cf 65 bd 3e e3 e8 bd
       -0.035631217 -0.011565107 -0.056106236 -0.11371468
000230 42 d9 03 bd 56 4c 6f bd bc f2 23 3d 62 2a 6a bd
       -0.032189615 -0.05842241 0.04002641 -0.057169326
000240 51 ec 90 bd 7f 72 0d be 63 d4 28 bd 69 1d f0 bd
       -0.07076324 -0.13813208 -0.041218173 -0.117243595
000250 fe be 0a be a6 5b 13 b8 ae 85 18 3c 8a ed e1 bb
       -0.1354942 -3.5132885e-05 0.0093092155 -0.006894772
000260 f1 91 6f bc a2 5c 9f 3c 96 23 ef ba 44 a6 3c 3d
       -0.0146221975 0.01945335 -0.0018244858 0.046057
000270 bf 9d 87 bd 96 1e 2d bd 84 3a fa 3d 5f 10 3a bc
       -0.066218846 -0.042265497 0.12218192 -0.011356442
000280 c1 5c 92 bb 7c e2 0b bd 3b 5c c6 bb 1a 1c e7 bd
       -0.0044666235 -0.03415154 -0.006053475 -0.11284657
000290 6e 5a 2c 3d ee e4 10 bd 92 8a bd 3d 8f 3b a0 bc
       0.042078428 -0.035374574 0.09254946 -0.01955965
0002a0 72 72 b0 bd 41 f3 76 3b 69 93 9f bc d3 24 d9 3c
       -0.08615579 0.0037681612 -0.01947947 0.026506817
0002b0 82 72 fe bd f8 88 b9 bc e0 34 a3 3c 86 db 19 be
       -0.124241844 -0.02264832 0.019922674 -0.15025148
0002c0 ff ac fc bc 3d 36 95 3d 4c 2f 72 3b b0 3f 15 3b
       -0.03084421 0.07285736 0.003695446 0.0022773556
0002d0 89 46 1e bd e5 39 19 bd 14 33 22 3d 32 f7 c8 bd
       -0.038641486 -0.03740873 0.039599493 -0.09812774
0002e0 31 ca ef 3c 45 56 12 bd aa 0b 66 bd 4b 50 71 3d
       0.029271217 -0.035726804 -0.056163467 0.058914464
0002f0 2e 1c 68 3d 1f c5 51 bd d9 a9 b2 bd 16 2b 9f 3c
       0.0566675 -0.05121338 -0.08723802 0.019429725
000300 a6 de 45 bd 4b 1b 9b bd 08 82 0c 3d de a0 54 bd
       -0.048308037 -0.07573565 0.034303695 -0.051911227
000310 81 ef 11 3d 4b d2 96 bc 63 6d 76 b8 ec 8e db bd
       0.0356288 -0.018410822 -5.8752845e-05 -0.107206196
000320 da d6 0b bc 5f c3 1c bd 98 e4 29 bd 02 65 f6 3d
       -0.008535111 -0.038272258 -0.04147777 0.120309845
000330 5f 23 3f 3d a1 62 cd 3c 51 e1 42 bd 7c fa da 3d
       0.046664592 0.025071444 -0.04757816 0.10692307
000340 d8 d2 a5 bc 00 f0 db bd 50 37 42 bd 38 7b 08 3b
       -0.02024214 -0.10739136 -0.04741603 0.0020825397
000350 11 db e5 bc 83 3e 07 3d b4 50 9b bd 1f e1 71 3c
       -0.02805856 0.0330186 -0.07583752 0.014763146
000360 07 de 70 3d b3 a1 1e bd 8f 69 b3 3c 98 30 b2 3d
       0.05880549 -0.038728427 0.02190092 0.08700675
000370 ed 19 92 3d 11 71 85 3d 69 48 c3 3d 5d dd a1 3d
       0.07133851 0.06515706 0.095352955 0.0790355
000380 4f b2 22 bc ba 8f 87 bd d9 7d 02 3d cf 31 84 3c
       -0.009930207 -0.066192105 0.0318583 0.016137032
000390 4d 62 f2 bd 03 5c 25 3c cd 13 b2 bc 06 03 70 bd
       -0.11835156 0.010092738 -0.021737957 -0.058596633
0003a0 1e 09 98 3d 14 13 c7 3d b0 f7 81 3d 68 ca 2e 3d
       0.07423614 0.09720436 0.06346071 0.0426735
0003b0 c5 79 0f bd 21 95 98 bd ec fd b5 bd 3f 68 9f bd
       -0.035028238 -0.07450319 -0.088863224 -0.07783555
0003c0 bc 41 ba 3c a4 6b 82 3c a7 d3 2d be 25 42 a7 bb
       0.022736423 0.015920468 -0.1697527 -0.0051043206
0003d0 6c d7 77 3c c2 4b 38 3d 0b 4e 54 3a 1f 82 24 bb
       0.015127044 0.044994123 0.00080987875 -0.0025101972
0003e0 eb 1a d7 bd e3 b0 9c bd a9 5e 2f bc 6e 8b fc 3c
       -0.10503181 -0.07650926 -0.010703721 0.030828204
0003f0 7e 93 bf 3c 35 74 c8 bd d5 31 23 bd 6e 73 ad 3d
       0.02338576 -0.0978779 -0.039842445 0.08469282

network_body._body_endoder.seq_layers.2.bias f4 [256]
000000 fe 49 1d 3c 85 a1 bc 3c 94 1b ed 3c 00 7b c6 3b
       0.009600161 0.023026237 0.028943814 0.006057143
000010 b1 96 04 bd 52 51 5f 3c 68 a8 b9 3c 01 37 82 3c
       -0.032370273 0.013630228 0.02266331 0.015895369
000020 76 f1 e9 3c 64 76 91 3c bf 61 d0 3c a1 6c 52 3c
       0.02855752 0.017756648 0.025437234 0.012843282
000030 45 56 7c 3c 8e 57 a1 3c 6f 33 2e 3c fb f3 e8 3c
       0.015401428 0.01969507 0.01063238 0.028436651
000040 59 d0 06 3d 79 da 13 3d 27 f7 ec 3b 3a f9 60 3c
       0.03291354 0.036097024 0.0072316113 0.013731295
000050 dd 8c b2 3c 79 63 8d 3c 4c 8c c4 3c 37 af 48 3b
       0.021795684 0.017259346 0.02399268 0.0030622014
000060 60 e6 1b 3d 2d da 9d 3c 75 8e ad 3c fc 7b 13 3d
       0.0380615 0.019269073 0.021186093 0.036006913
000070 fc e5 0c 3d 1c 74 80 3c 35 36 b5 3c cd 8b 1f 3d
       0.034399018 0.015680365 0.022120574 0.038951684
000080 55 d8 60 bc 65 2a b9 3c 98 d9 b0 3c 6b 2c c6 3c
       -0.013723453 0.022603223 0.021588132 0.024191102
000090 0c 30 34 3c 1c b8 fc 3b 0c e0 8e 3c b7 f0 f1 3c
       0.010997783 0.0077123772 0.017440818 0.029533727
0000a0 d3 d6 9d 3b e5 32 1b 3d 97 b9 1c bb 60 3c b9 3c
       0.004816869 0.037890334 -0.002391433 0.022611797
0000b0 ff a5 36 3c e6 35 09 3d c4 c1 3e ba 09 82 a8 3b
       0.011147975 0.033498667 -0.0007276798 0.0051424545
0000c0 71 85 02 3d a9 8f 9c 3c a5 2c 05 3d bc d5 89 3b
       0.03186554 0.019111471 0.03251328 0.0042063873
0000d0 b7 6a 0f 3d fe 3e 19 3c 0c 9d c0 3c 27 b7 6a 3c
       0.03501388 0.009353397 0.023512386 0.0143258935
0000e0 a7 be 00 3d 3e d6 e6 3c 9b e3 81 3c fe cd 2f 3c
       0.03143182 0.02817833 0.015855601 0.010730265
0000f0 41 3d 10 3c ad 92 90 3c b7 13 c7 3c 50 92 51 3c
       0.008803667 0.017648065 0.024301393 0.012791231
000100 60 13 73 3b a1 27 24 3c db 04 8d ba 27 df c7 3b
       0.0037090406 0.010019214 -0.0010758893 0.0060996
000110 d0 d3 50 3c 74 3e 98 3c 03 b4 03 3c 89 d4 5c 3c
       0.012745813 0.018584467 0.008038524 0.013478407
000120 eb d7 4d 3c fe f9 28 3c 5e d7 36 3c 2b 3d bb 3c
       0.012563686 0.010313509 0.011159746 0.022856316
000130 20 a3 40 3c 40 cd 93 3c 46 8b 18 3a 67 85 ed 3c
       0.011757642 0.018042207 0.0005819093 0.028994275
000140 56 b2 08 bc fe c7 c3 3c 44 19 07 3d 34 e4 2c bb
       -0.0083433 0.023899075 0.03298308 -0.0026381137
000150 51 31 9b 3b 68 e5 e2 3c e6 3f 80 3c 76 7f b6 3c
       0.0047361036 0.02769728 0.01565547 0.022277575
000160 dc 5e b5 3b 66 ac e5 3c 22 56 83 3c c3 1f d3 3c
       0.0055349898 0.028036308 0.016032282 0.025771981
000170 32 6b 52 3d df 87 cb 3c fe e1 21 3d 9f f5 0f 3d
       0.05137176 0.024845062 0.039522164 0.035146352
000180 ae e4 91 3c f1 75 bb 3c 91 21 a3 3b 88 6c 92 3c
       0.017809238 0.022883387 0.0049783667 0.017874017
000190 de 7d e7 3c 2a 9e b2 3c 5e 08 ed 3c 50 39 38 3d
       0.02825826 0.021803934 0.028934654 0.044976532
0001a0 d6 e4 c6 3c fa 61 40 3c a2 3b 1c 3d e7 66 1c 3b
       0.02427904 0.011742109 0.038142808 0.0023865046
0001b0 06 9b 28 3d d4 0c 1d 3d da 1a 57 bc 30 b4 49 3d
       0.041163467 0.038342312 -0.0131289605 0.049244106
0001c0 91 58 63 3b 85 c5 a1 3c 2d f8 0e 3d 85 6b 8c 3c
       0.003469024 0.019747505 0.034904648 0.017141113
0001d0 2c 92 d0 3c 9c db 21 3d 69 72 09 3d be f5 ca 3a
       0.025460325 0.039516076 0.033556376 0.0015484614
0001e0 d3 11 f6 bb 90 64 9a 3c 56 84 0e 3d fb 95 83 3b
       -0.007509449 0.01884678 0.034794174 0.004015682
0001f0 ae fa 44 3b 4c a4 08 3d ff fc 4f 3c f0 b2 4a 3c
       0.0030056643 0.03335981 0.012694596 0.012371764
000200 cd a5 7a 3c 59 d0 cf 3c e5 2f 01 3d 5e 2f 75 3c
       0.015298319 0.025367903 0.031539816 0.0149649065
000210 fa e8 53 3c 1e ce 66 3c 5b 4d 83 3c c1 de bf 3c
       0.012933964 0.014087228 0.016028097 0.023421647
000220 4a 82 9e 3c f0 b6 4f 3c 01 59 34 3d 42 d0 35 3c
       0.019349236 0.012677893 0.044030193 0.011097016
000230 a3 d7 d2 3c de 5a 91 3b 7a 2e 76 3c 73 75 a9 3c
       0.02573759 0.004435881 0.015025729 0.020685887
000240 92 8d a3 3c 8e 42 3b 3d b6 65 3b 3c d8 14 dd ba
       0.019964967 0.04571777 0.011437824 -0.0016867174
000250 85 47 8e 3c b2 94 25 3c 36 02 a6 3c 6e 13 fe 3b
       0.017368088 0.0101062525 0.020264726 0.007753781
000260 08 93 ef 3c d2 a6 60 bc 2f fa 27 3c 0c 92 88 3c
       0.029244915 -0.013711648 0.0102525195 0.016671203
000270 f8 2e 97 3c 40 72 45 3c 12 1e 38 3b 0e a4 50 3c
       0.018455014 0.012051165 0.0028094095 0.012734426
000280 37 38 8e 3b 76 99 2e 3c ee bd e1 3c 41 45 5b 3c
       0.0043401974 0.010656705 0.027556386 0.013383211
000290 bf 8e 35 3c cb 27 1f 3c 52 79 a4 3c 1d ac 90 3c
       0.011081397 0.009714077 0.020077381 0.017660195
0002a0 ed 8d 9c 3c c7 23 2d 3c 75 41 18 3d 4d 0f 72 3c
       0.019110644 0.010567612 0.0371718 0.014774156
0002b0 c3 04 6c 3c e7 a8 03 bc 1a e6 3f 3c 30 a7 04 3d
       0.014405432 -0.008035875 0.011712575 0.032386005
0002c0 f9 e3 6d 3c 07 be a1 3c 85 48 62 3c 89 1d cd 3c
       0.014519685 0.019743932 0.013811235 0.025038498
0002d0 94 5d a4 3c 02 a2 1a 3d 95 be 32 3c 35 15 23 3b
       0.020064153 0.03775216 0.010909696 0.0024884467
0002e0 1c 00 e4 3c a4 c8 15 3d 8e e1 5e 3c 1e d1 23 3d
       0.027832083 0.0365683 0.013603581 0.03999435
0002f0 0c 45 b9 3c 4c e1 9c 3c 6e 1b 86 3b 8c 05 bf 3c
       0.022615932 0.019150399 0.0040926253 0.023318075
000300 d3 95 94 3c d2 40 03 3b 91 82 18 3d 0a 89 ce 3c
       0.018137848 0.002002765 0.037233893 0.02521183
000310 de 26 a3 3b 64 82 88 bb 7f 44 d1 3c 4e c6 ff bb
       0.0049789986 -0.0041659344 0.025545357 -0.007805622
000320 7d 57 a9 3c b3 b8 02 3b 15 bc 2b 3c c4 46 13 3c
       0.0206716 0.0019946515 0.010481854 0.00898904
000330 9d 1f 15 3d 9f 00 c3 3c 16 b7 6a 3c a2 91 7c 3c
       0.036407102 0.023804007 0.014325878 0.015415581
000340 79 59 0a 3d 9a 9f 8c 3c 9a b4 06 bb dc 7e 8c 3b
       0.033776734 0.017165948 -0.0020554424 0.0042875838
000350 5e f8 ee 3b b2 df 8c 3c 5b 99 ac 3c 70 9e 9a bb
       0.0072927913 0.01719651 0.02106922 -0.0047185943
000360 00 15 06 3d 5b f8 6f bb 0f 36 d4 3c d1 59 06 3d
       0.03273487 -0.0036616537 0.025904683 0.0328005
000370 23 85 36 3c d7 f0 45 3c 83 e1 d1 3c 9c c2 ac 3c
       0.011140141 0.0120813465 0.025620228 0.02108889
000380 13 21 61 3b 59 ec 1a 3d 42 86 6f 3c cc 25 b4 3c
       0.003435199 0.037823055 0.014619412 0.02199068
000390 2c ba cd 3c b6 5b 97 3c 80 f8 aa 3b a0 e7 bb 3b
       0.025113188 0.018476348 0.005217612 0.005734399
0003a0 fb b3 58 3a dc f8 2e 3d a1 37 b8 3c ec a5 c6 3c
       0.0008266565 0.0427178 0.022487463 0.02424904
0003b0 08 a6 60 3c 58 49 9a 3c 64 8e 92 bb c4 d9 c4 3c
       0.01371146 0.018833801 -0.0044725407 0.02402962
0003c0 ac 3a b5 3c 62 4c 4c 3c 74 41 8e 3c b4 06 b6 3c
       0.022122703 0.012469383 0.017365195 0.022219993
0003d0 10 47 50 3c 9f e9 f7 3c bc 93 4c 3c b1 73 ea 3c
       0.012712255 0.030262766 0.0124863945 0.02861962
0003e0 85 6c f2 3c 21 21 26 3d 05 cb c6 3c 8e 16 3e 3c
       0.029592762 0.040558938 0.02426673 0.011602057
0003f0 51 3d 01 bc 70 32 6f 3c 11 d3 0b 3d f0 c4 c1 3c
       -0.007888154 0.014599428 0.034136835 0.023653477

action_model._continuous_distribution.log_sigma f4 [1, 2]
000000 55 5f a6 be 65 0f 0a be
       -0.32494608 -0.13482435

action_model._continuous_distribution.mu.weight f4 [2, 256]
000000 2d 99 9c 3d be 8c 37 bb 64 89 9b bd 66 17 fa bc
       0.076464035 -0.0028007473 -0.075945646 -0.030528735
000010 6f a6 89 3b a8 1a 1a ba f7 90 b9 bb c4 87 a6 3c
       0.0042007486 -0.0005878606 -0.005663033 0.02032841
000020 f2 95 74 bd 84 ec f9 3c 78 7f d4 bc 7a c2 58 bb
       -0.05971331 0.030508287 -0.025939688 -0.0033074901
000030 76 03 a3 bd f9 0a 88 3c c7 71 a4 3d 9a 6c 69 3d
       -0.079596445 0.016606795 0.08029514 0.056988336
000040 7f fa 3e bd b6 03 f4 bd 8b dd 57 3d 32 ba 9c 3d
       -0.04662561 -0.1191477 0.052701514 0.076527014
000050 da 42 99 bb e4 86 9a bd c8 bf 44 bc 25 41 4d 3d
       -0.004677159 -0.075452596 -0.012008615 0.050110955
000060 5d 0e 45 bc d0 3e a7 bd 7a 97 ed 3d 23 a2 0d 3c
       -0.01202735 -0.081662774 0.116011575 0.008644613
000070 13 30 42 3d 8a 62 a4 bc 7f fd fb 3c a7 54 b3 bc
       0.04740913 -0.020066518 0.030760525 -0.021890951
000080 ad 22 47 bc 4f 2c a8 bd fe d5 43 bd 8e 04 08 3d
       -0.012154263 -0.08211576 -0.0478115 0.03320747
000090 8e 5b 55 3c 55 b8 a6 bc 08 b5 25 bd ef 3a 37 3d
       0.013022317 -0.020351568 -0.040455848 0.044733938
0000a0 e4 55 ff 3c da 42 2d bd c5 87 0d 3c 4a 47 9f bd
       0.031168886 -0.042300083 0.008638327 -0.07777269
0000b0 fa 43 8f 3d 89 85 99 3c 22 f9 4d bb 52 a1 38 3d
       0.069953874 0.018740432 -0.0031429012 0.045075722
0000c0 25 5c 47 bd 7e b1 b7 ba 23 cb 72 bd 29 43 2c 3c
       -0.04867186 -0.0014014689 -0.059275758 0.010514059
0000d0 da c3 a4 bd 59 14 76 bd 45 91 cf 3d 63 f2 c3 bb
       -0.08045168 -0.060078 0.1013513 -0.0059798225
0000e0 72 be 29 3d 03 58 81 bd 5d 5b 4a 3d d3 0a 11 bd
       0.04144139 -0.06315615 0.049403537 -0.035410713
0000f0 ef f2 2b bd 46 72 72 3c 8f 82 9e 3c 3f 58 51 bd
       -0.041979726 0.014797753 0.019349365 -0.05110955
000100 d5 ca 99 3d 7e 06 1d 3c 48 18 30 bc 14 0a e6 3b
       0.0750939 0.009584067 -0.010747977 0.0070202444
000110 b6 0a 0d 3d 34 c9 51 bd a2 89 21 3d fb 06 af bc
       0.034434043 -0.051217273 0.039437898 -0.021365633
000120 87 32 14 bd 93 fa 69 bd c7 26 12 3d 31 85 18 bd
       -0.036181 -0.05712373 0.035681512 -0.037236396
000130 3b 17 84 bc 55 a4 23 3c eb 43 51 3d 27 82 32 bd
       -0.016124358 0.00998791 0.051090162 -0.043581154
000140 e3 20 de bc 2e 0d 93 3c f6 d1 34 bd 21 f9 23 bd
       -0.027115291 0.01795062 -0.044145547 -0.04003251
000150 76 7e 9c 3c 6d f9 4b 3d 77 a7 ef bb f0 d7 c5 3c
       0.01910327 0.049798418 -0.0073136645 0.024150819
000160 4f 02 5a 3a 7f bf 52 bc 09 1c 40 3d 47 48 dd 3c
       0.0008316384 -0.012863039 0.046901736 0.027012004
000170 4b cb 80 bd fa 41 64 3d c4 8e 89 3d 1f 37 b1 bb
       -0.06288775 0.055726983 0.067166835 -0.0054081823
000180 13 fe 7b bd e8 ce 97 3d 1c 08 49 bd 4c 75 fb bc
       -0.0615216 0.07412511 -0.04908 -0.03069558
000190 27 cc 52 bd 1d 01 12 bd e5 e8 10 bd dd a3 15 bb
       -0.051464226 -0.035645593 -0.035378356 -0.0022833266
0001a0 fc 9f 91 3c c1 45 1f 3d 4d 7d fd bb 09 98 0e bc
       0.017776482 0.038884882 -0.0077358843 -0.00870324
0001b0 3e dc 28 bd d0 70 4a bc a7 4b 39 3a 65 8f 8c bd
       -0.041225664 -0.012355998 0.0007068463 -0.06863288
0001c0 94 4a b7 bd 55 43 77 3c 67 d0 cf 3c d9 c8 05 bd
       -0.089497715 0.015091737 0.025367929 -0.032662246
0001d0 bd 2f a1 bc f8 b1 50 bc b5 30 12 bc 82 a5 b0 bc
       -0.019676084 -0.012737744 -0.0089227455 -0.021563295
0001e0 40 e7 2c bc 71 b8 df 3c d5 b2 8a 3d 9b a5 57 bd
       -0.010553181 0.027309628 0.06772391 -0.052648168
0001f0 06 0d 3f bd 64 d5 20 bd 38 36 1a bc 0d 8d 12 bc
       -0.04664328 -0.039266005 -0.009412341 -0.008944762
000200 f1 32 f9 3d 3e 34 5d 3d e0 1a 8e 3d 9f a3 9b bd
       0.121679194 0.0540049 0.0693872 -0.075995676
000210 01 5b 86 bc 5e ef 19 bc 85 fc 45 bb 66 d4 1c bd
       -0.016400816 -0.0093954485 -0.0030210328 -0.038288496
000220 74 68 d4 bc 98 14 a3 3c 5f bc 99 bd e7 06 81 3a
       -0.025928713 0.01990728 -0.07506632 0.0009843976
000230 cd fd 38 bd 2a b3 94 3c 7c e9 46 3c fd a3 88 3b
       -0.04516392 0.018151838 0.012140628 0.0041699396
000240 d9 89 70 bc bd 4c a4 bd 9e d9 21 bd b8 7b 82 3d
       -0.014681303 -0.08022449 -0.039514177 0.06371254
000250 96 6c 2f 3c db 35 24 3d 1a 10 c9 bc 17 0b 32 3d
       0.010707041 0.040090423 -0.02454381 0.043467607
000260 33 1c 0e bd ac c4 0d 3d 48 63 2b 3c 00 31 a5 3d
       -0.03469486 0.03461139 0.010460682 0.08065987
000270 59 61 8e bc 6b cb 93 bc 54 c9 c9 bc 9c 13 53 3d
       -0.017380403 -0.018041333 -0.024632134 0.051532373
000280 2a 05 86 bc 4f 8d 96 3d 8d 4e ec 3b 94 f8 49 bd
       -0.016359884 0.07351171 0.0072115124 -0.04930933
000290 4b 48 80 3d fb 79 0d bd 9c c6 79 3b 62 63 0a bd
       0.06263789 -0.034540158 0.0038112765 -0.033786185
0002a0 8a c7 fd bc 3d 8d 83 3d 34 22 3b bd 04 4f bc 3c
       -0.030978937 0.064234234 -0.045686916 0.022986896
0002b0 0e d6 98 bc d6 a6 67 3d 3d 2a a6 ba b3 87 ac 3d
       -0.018656757 0.05655559 -0.0012677383 0.0842432
0002c0 7b 7a 97 3d d7 49 c7 3d 8c d7 75 bc 9c 32 8a bd
       0.07396408 0.09730881 -0.015005004 -0.06747934
0002d0 62 a2 ec 3c 1b 4c 8f 3d f1 42 bd 3d c3 56 80 3c
       0.028886024 0.06996938 0.09241284 0.015666371
0002e0 19 86 e1 bc 39 f1 1b 3d 1b f3 81 3d 17 8f a5 bc
       -0.027529763 0.038071845 0.06345197 -0.020209832
0002f0 46 0f af 3b e5 1a 98 bd cb 78 4f 3a ba 16 9d 3d
       0.005342397 -0.07427005 0.0007914423 0.076703504
000300 c3 03 a9 3b 72 4d 03 bd 10 4a 52 3d 23 34 e6 bb
       0.005157919 -0.03205628 0.051340163 -0.007025258
000310 bb 03 67 bd 9d 9b 27 bc 23 21 66 bd e7 90 cb bc
       -0.056400042 -0.010229972 -0.056183945 -0.024849368
000320 61 a2 64 bd a3 9b 26 3d 01 dd 0e 3e 37 53 71 bc
       -0.05581892 0.04067577 0.13951494 -0.014729313
000330 c2 4f 64 bb 82 d6 b4 3c 01 ac bd 3d b2 6c 02 3c
       -0.0034837578 0.022074942 0.09261323 0.007960485
000340 f8 f9 33 bd 77 66 11 bd fa 5d 0a bd 9a ce 49 3c
       -0.04393956 -0.03549811 -0.03378103 0.012317324
000350 ac 3b 20 3d e4 c1 8d 3d 1b cc 51 3c 58 f3 50 3b
       0.039119408 0.06921747 0.01280501 0.0031883325
000360 aa 52 c9 ba 2c 86 8b bd 69 93 3a 3d 6c ec 14 3d
       -0.0015359719 -0.06812701 0.045550738 0.036358282
000370 7a 9d 0d 3d 5b bc 6b 3d e8 52 91 bd 9a 21 c7 bd
       0.03457401 0.057552677 -0.07095891 -0.09723206
000380 df 5a 9f bb 3c e3 a4 3b 67 e9 3a 3d 40 95 44 3d
       -0.0048631276 0.0050319713 0.045632746 0.0479939
000390 ca 24 70 bd 3a ae b8 bc aa 49 97 bd 30 84 4e 3d
       -0.058628835 -0.022544015 -0.07387097 0.050419033
0003a0 ce 63 68 bc a2 81 72 bd a3 90 eb 39 95 47 36 3d
       -0.014183952 -0.05920566 0.00044930456 0.04450186
0003b0 3c 6a 3b 3d 89 95 1b 3d 03 b5 e0 3c 5d f1 df 3b
       0.04575561 0.037984405 0.027430063 0.0068341927
0003c0 06 85 74 bd 31 80 15 3c 30 dc e1 3b e9 1b e1 bc
       -0.059697174 0.0091248015 0.0068927035 -0.027479129
0003d0 70 7f 92 3d d9 40 8f bb 97 09 1d 3d 5e d6 46 3d
       0.07153213 -0.004371744 0.038339224 0.04854428
0003e0 9b d4 38 3c c2 93 bd bc 6d 7f 0c 3d f6 28 08 bc
       0.011281158 -0.023141745 0.03430121 -0.008310547
0003f0 4e 2b 3b 3d 12 f7 2e bd 15 7a 49 3c 9e 43 a2 bd
       0.045695595 -0.042716093 0.012297173 -0.07923053

action_model._continuous_distribution.mu.bias f4 [2]
000000 10 a6 24 bb e0 23 c4 bb
       -0.0025123395 -0.005985722

action_model._discrete_distribution.branches.0.weight f4 [2, 256]
000000 f7 0c 47 3c 23 43 51 3d 4b 56 1a 3d 7a 30 ab 3c
       0.012149087 0.051089417 0.03767995 0.020897139
000010 46 54 da bc a2 ca 0d bd 7b 47 3b 3d d2 0f 48 bd
       -0.026651513 -0.034617074 0.045722466 -0.048843212
000020 70 a1 2f bd 56 d7 e4 bc 1b bb 82 3d 89 0c 35 bd
       -0.04287857 -0.027934711 0.06383344 -0.044201408
000030 6b 38 d1 bb d9 ad 85 bd 34 fd a0 bd 8f a3 cf 3c
       -0.0063848994 -0.065272994 -0.07860795 0.025346546
000040 91 b5 0f 3d e6 ca 95 bb 68 01 37 bd a3 a1 f3 3b
       0.035085265 -0.0045713065 -0.044679075 0.00743504
000050 23 4c 6d 3d eb 7b 29 bd 03 8c 74 bd 9c 09 82 bd
       0.057933938 -0.041377943 -0.059703838 -0.06349489
000060 a9 04 d0 bd 51 3c 14 bc 89 f3 99 bc 8d 79 73 3d
       -0.10157139 -0.009047584 -0.018792884 0.05944209
000070 d3 53 5f 3d bb 61 b1 bc 9b 3d cc 3b 9f d8 6a 3d
       0.0545233 -0.021653047 0.00623293 0.057335492
000080 72 3c c1 3c 53 3b e7 3a 99 ef 4f bd 20 cf 4b 3d
       0.023588393 0.0017641581 -0.050765608 0.049758077
000090 6e b6 83 bd a4 d0 dd bc 8c 47 ce 3b 92 1f 1d 3d
       -0.0643128 -0.027077027 0.00629515 0.038360186
0000a0 28 af e4 bc d9 f2 5f 3d 3e 70 59 bd 35 12 8e 3c
       -0.027915552 0.054674957 -0.053085558 0.017342666
0000b0 00 7f 3a bd 8c a3 3f 3d 2c 3d b6 3b 38 d5 43 bd
       -0.045531273 0.04678683 0.0055614915 -0.047810763
0000c0 2f 1a 1a 3c a8 f4 54 bd b9 b9 2a bd d2 74 5c bc
       0.009405657 -0.051991135 -0.041681025 -0.0134555865
0000d0 44 da f7 3c 5b 2f 5c bd d8 ba 1a bc 8d d3 77 bd
       0.030255444 -0.0537561 -0.009443961 -0.060504485
0000e0 7c 1f b2 3d 94 73 eb bb 39 76 b5 bc e5 9d 39 3c
       0.086974114 -0.007185409 -0.0221511 0.011329149
0000f0 1b 2f d3 bc 4d 3e 5f bd 4f 3b 50 3d a0 35 ec bb
       -0.025779298 -0.054502774 0.05083781 -0.007208541
000100 f9 22 05 bd b0 9d 28 3d 06 56 8a 3b 47 4e aa 3c
       -0.032504056 0.041166008 0.0042216806 0.020789279
000110 8d ba 28 3d 75 3c da 3a c6 38 98 3d 8d ea 74 bd
       0.041193534 0.0016650098 0.07432704 -0.059793998
000120 43 89 10 3d bb 48 de bc 15 00 0d 3d a7 d4 e7 bc
       0.035287153 -0.02713429 0.034423906 -0.028299643
000130 22 ed 1b bc a4 ea c5 bd db 2b 9f b9 43 f2 65 bd
       -0.009516986 -0.09663895 -0.00030359518 -0.056139242
000140 c4 34 7e 3c 22 27 65 3d 67 95 48 3c f3 e4 ed 3c
       0.01551551 0.055945523 0.012242652 0.029039836
000150 7b 9a ec bc 98 d0 35 3d 51 5f b8 bd 6a 57 bd 3c
       -0.028882256 0.044388384 -0.09002555 0.023112971
000160 f9 df 1c bb f8 d2 62 bd 92 02 95 bd 4a bd 73 bd
       -0.002393721 -0.055376977 -0.07275881 -0.059506692
000170 21 6f 26 3d 2f 26 6d bd 29 a4 f4 3c 95 6f 74 3d
       0.040633325 -0.057897743 0.029863434 0.059676725
000180 ca 58 b3 3c c1 46 09 3d f0 9c 27 3d f7 13 bf bd
       0.021892924 0.03351474 0.04092115 -0.0932998
000190 32 f0 c0 3c 3b cc 4a 3d eb 23 2c 3d 09 d7 a6 bd
       0.023552034 0.049511176 0.04202644 -0.081464835
0001a0 37 87 6e bd 1b 90 91 3b af 29 43 3d 4c 98 4f bc
       -0.05823442 0.0044422275 0.047647174 -0.012670588
0001b0 78 94 10 3d fc a2 4b 3d 21 33 27 3d 46 70 ff 3c
       0.03529784 0.04971598 0.040820245 0.031181466
0001c0 3b 19 7e bd 11 55 84 3d ef 1b 56 3d 69 81 66 bc
       -0.06203578 0.06461538 0.052272733 -0.01406894
0001d0 43 4f 4b 3d 22 a4 61 3d af 2e 7d bd eb a7 ee 3c
       0.049636137 0.05508817 -0.0618121 0.029132804
0001e0 ac b7 3c 3b 79 d1 2e bd 3b 55 0a 3d 1f c2 d9 3c
       0.0028796 -0.042680237 0.03377269 0.026581822
0001f0 73 ca 2c bd 46 99 eb 3c 5a 59 8d 3b e5 9b c2 3c
       -0.042185258 0.02875961 0.00431363 0.023755977
000200 7d 7c 09 bd ae be 84 3b 98 3c 36 bc 67 27 93 bb
       -0.033565987 0.004051051 -0.011122845 -0.004490781
000210 20 f0 b6 3c 3d d0 c8 bd f2 21 e4 3c 58 68 90 3c
       0.022331297 -0.09805343 0.027848218 0.01762788
000220 5e 72 5e 3d 23 0d 2d 3d c0 98 ac bb 6b ea b5 3d
       0.054308288 0.042248856 -0.0052672327 0.08882602
000230 60 6d ab bc df 19 21 3d 2a 59 2f bd 1c 37 57 3d
       -0.020926178 0.039331313 -0.042809643 0.05254279
000240 76 8e fb bc 91 12 ae 3b e5 2c 06 bd 86 89 0a bb
       -0.03070758 0.005312272 -0.03275766 -0.00211391
000250 2e bd 0f bd a8 27 e5 bc 3f 3e 5c 3d 73 10 36 3d
       -0.035092525 -0.027973011 0.0537703 0.04444928
000260 ec 18 27 3d b0 d9 f5 bc f8 cf 31 bd 70 f5 36 3d
       0.04079525 -0.030011028 -0.043411225 0.04466766
000270 d6 1c 47 bc b5 ab f9 bc de 55 36 bd b7 5f 01 bd
       -0.012152871 -0.030477384 -0.044515483 -0.03158542
000280 40 dd 37 bd 03 84 24 3b 30 bc 3b 3d 3f f5 38 bd
       -0.044888735 0.00251031 0.045833766 -0.04515576
000290 fb f4 9b 3c f0 93 d6 bc 0e 34 f9 bc c7 1e 65 bd
       0.019037714 -0.026193589 -0.03042033 -0.055937555
0002a0 38 8a 0a 3d ad 42 87 bd da 6f 22 3d 55 00 20 3d
       0.033823222 -0.06604514 0.03965745 0.039062817
0002b0 fb 5f 2e bd a9 62 0e bd 95 73 16 3d 6f 6c ac 3c
       -0.042572003 -0.03476206 0.03673132 0.021047799
0002c0 4b 00 01 3c 37 d9 5b bd c7 9a 41 bc c9 34 64 bb
       0.007873605 -0.05367395 -0.011816687 -0.0034821501
0002d0 4e 16 88 bd f1 47 8c 3b 57 13 48 bd 76 28 03 3d
       -0.06644879 0.004281037 -0.04884657 0.03202101
0002e0 c8 0e 75 3d bc a1 bc 3c a7 da ae 3c 70 c5 3e 3d
       0.05982855 0.02302634 0.021344496 0.04657501
0002f0 ad 3d 21 3d 2c 32 b3 bb 4f c8 10 bd b2 fb 10 3c
       0.03936546 -0.0054686274 -0.03534728 0.008849071
000300 eb 5b 59 3d 56 fb af 3c c9 a0 47 3d a3 0e 89 bd
       0.053066175 0.021482151 0.04873732 -0.06692245
000310 fd b5 56 bd 3f 3b 64 3c 2b 27 57 3d a0 3e 6a bb
       -0.05241965 0.013930141 0.052527588 -0.0035742894
000320 07 8a 5e bd 5e 69 1b bd ac 89 65 bd 81 54 d7 3b
       -0.054330852 -0.037942283 -0.056039497 0.006571353
000330 d7 2f 44 3d 51 35 2e bd e7 3d 81 bd 3f d8 b9 3d
       0.047897186 -0.042531315 -0.06310635 0.09074449
000340 0b d7 0d 3d cf ce 8a 3c d4 57 66 3c c3 55 6e bd
       0.03462891 0.016944317 0.014059026 -0.058187257
000350 6c d3 39 bd 97 d3 ef 3c f0 ef 18 3d 60 51 13 ba
       -0.045367643 0.029275699 0.037338197 -0.0005619731
000360 14 93 1b 3d 16 89 bf 3c 57 8b 76 3d c8 34 e3 3c
       0.03798206 0.023380797 0.06019148 0.027735129
000370 bd fa 28 3d 2d 00 88 bc 6c 01 5b 3d ff cd 62 bd
       0.041254748 -0.016601646 0.053468153 -0.055372234
000380 f9 d7 e0 bc b5 5d 14 3d 5e 08 76 3c 47 c9 4a 3d
       -0.027446734 0.03622218 0.015016643 0.04950836
000390 41 d8 9e 3c f1 0d e3 3c 7a 04 12 bd 67 cb 44 bd
       0.019390227 0.027716609 -0.0356488 -0.048045542
0003a0 7b 20 3b bd dd a7 f2 3c 15 d9 3a bd 0a c1 f5 3c
       -0.045685273 0.02962106 -0.04561718 0.029999275
0003b0 55 2c 1f 3d b8 94 34 3c 93 ae 9c 39 4a 0d 67 3d
       0.038860638 0.011021785 0.00029884707 0.056409158
0003c0 f4 d6 20 bd 16 00 93 bd f4 26 67 bc d9 88 86 3c
       -0.039267495 -0.07177751 -0.014108408 0.016422676
0003d0 49 9d 1f b9 75 74 1e 3d cc d2 43 3c b6 95 0a 3d
       -0.00015222015 0.03868528 0.011952113 0.03383418
0003e0 21 74 5d 3d 67 e1 69 3d 16 33 34 3d 55 13 82 bd
       0.054065827 0.057099726 0.04399403 -0.063513435
0003f0 16 a0 21 bd 71 ea 18 3d 26 94 97 bd 74 d4 44 3c
       -0.03945931 0.037332956 -0.07401304 0.012013543

action_model._discrete_distribution.branches.0.bias f4 [2]
000000 5b d1 79 3c 59 d1 79 bc
       0.015247668 -0.015247666

onnx::Div_70 f4 [11]
000000 46 f7 80 40 21 56 ed 46 7b 92 80 40 f4 14 86 3e
       4.0301847 30379.064 4.017881 0.2618786
000010 9b cd c4 3c 1a 67 ff 3e c7 54 ed 46 91 6a 8c 3f
       0.024023822 0.49883348 30378.389 1.0970021
000020 a6 aa 24 45 5b 25 d2 3f 0e 2a f6 3e
       2634.6655 1.641765 0.4807896
