turretresults/turret_train_9/TurretShoot/TurretShoot-455916.onnx (onnx, 287600 bytes, 11 tensors)

network_body.observation_encoder.processors.0.normalizer.running_mean f4 [11]
0.031333935 -3548.922 0.028076924 -0.013764594 0.026361382 0.51934314 3554.3113 -0.013292948
-356.9078 0.012468917 0.524649
00000000: 0358 003d c1ce 5dc5 9401 e63c e484 61bc
00000010: d3f3 d73c acf3 043f fb24 5e45 aaca 59bc
00000020: 3374 b2c3 6e4a 4c3c 664f 063f

network_body._body_endoder.seq_layers.0.weight f4 [256, 11]
0.33731014 0.08970226 0.15125847 0.23854664 -0.031894673 -0.3370091 0.058216717 -0.030186294
-0.50746113 -0.2867126 0.010089667 0.45734456 -0.24158683 -0.045380995 0.04074543 0.26117778
-0.34515488 0.28376356 0.12443454 -0.170069 -0.18401402 0.16565135 -0.18255949 -0.064056545
-0.0081547545 0.2844491 0.16992585 -0.15786313 0.64152133 0.34692752 -0.10047651 -0.009325295
0.22682339 0.28922585 0.20304619 -0.65655667 0.5381102 0.17354277 -0.08292668 -0.5696089
0.6016753 -0.07617997 -0.35441443 -0.07064484 0.029589534 0.5499376 -0.21341504 -0.33754757
0.33908942 0.39704818 0.35383776 0.2667567 -0.25457945 -0.20832893 0.04675137 -0.14178587
0.18268384 0.23757307 0.30355415 0.38621324 0.40081272 0.6290091 0.14629269 0.1375164
-0.046961352 -0.37183565 -0.6649735 0.39249104 -0.10174247 0.40016103 0.36848795 0.08011379
0.036583025 -0.13660726 0.13540517 -0.21452801 0.42092165 -0.26695982 0.396459 -0.2928383
0.63395333 0.21769252 0.077252485 -0.0021625776 0.6082574 0.11803612 0.42300022 -0.4558716
0.258161 -0.3828845 0.38945898 0.467526 0.3024353 -0.30376112 0.51833254 -0.17392768
0.24445602 0.23962049 0.258036 0.031880718 0.33263326 0.038726896 -0.02463402 0.12129283
0.973614 -0.17030732 -0.34942713 -0.041068 -0.17897151 0.5728708 -0.20696026 0.67509145
-0.14746347 0.62242156 -0.51518947 0.31991756 -0.206878 0.1719738 0.1857791 0.34361872
0.47908333 0.04188658 0.10697188 0.094868995 0.17468464 -0.32755437 0.17930247 -0.06895859
-0.22929072 -0.1714418 0.40862063 -0.23592423 0.1376166 -0.19334309 0.4256486 -0.22909608
-0.2700604 0.17438196 0.093894586 0.039817594 -0.12169291 -0.05905749 -0.2284333 -0.06538798
-0.3977434 0.40825775 0.62065977 -0.22447039 0.45731512 -0.43253917 0.16497017 -0.24083488
-0.07953343 -0.116872214 -0.103109755 -0.16281103 0.0669779 0.04547034 0.5591142 -0.16586402
0.40997836 0.45199198 0.2293395 0.25822407 -0.39727497 0.471535 0.38862488 -0.23781887
-0.14127414 0.037815545 0.31398296 0.038665604 0.07549662 -0.5443005 -0.061387785 0.1800064
-0.3208813 0.1376448 0.35772923 -0.2509982 0.24917735 -0.69697356 -0.7616611 0.14714243
0.4003876 0.35722104 -0.23614219 0.7451583 0.040384017 -0.0037914237 0.08161071 0.04033392
-0.21457197 -0.6781295 -0.23311356 -0.28840214 0.27525234 0.018727712 -0.02181105 -0.08560619
-0.080746464 0.21297649 0.21986476 -0.7983318 0.34268302 0.42871076 -0.5584228 -0.15703769
0.04290049 0.04761362 -0.13952112 0.09201522 -0.3016422 -0.26383317 -0.37889817 0.40932608
-0.052785482 0.16790782 -0.011293453 0.22422451 -0.39550105 -0.37296355 0.13471557 -0.2804355
-0.39698824 0.40177393 -0.43518785 -0.047245026 -0.1990031 -0.009062237 0.12273396 -0.44619253
-0.09733718 -0.38752604 0.4117399 -0.15766671 -0.017352495 0.03477486 -0.10017353 -0.11248234
0.045560904 -0.07132595 -0.0775441 -0.11535235 0.6308262 -0.23136625 0.27326483 -0.62556404
0.5875794 0.16524112 0.3959876 0.27276304 0.0765039 0.227319 -0.4069006 0.10106638
00000000: eab3 ac3e d2b5 b73d 80e3 1a3e 9245 743e
00000010: fda3 02bd 758c acbe a774 6e3d 3f49 f7bc
00000020: f9e8 01bf fecb 92be 214f 253c 1129 ea3e
00000030: 8a62 77be 6ce1 39bd aee4 263d 18b9 853e
00000040: 24b8 b0be 7549 913e 89d7 fe3d 9126 2ebe
00000050: 2c6e 3cbe 82a0 293e e0f0 3abe 1430 83bd
00000060: 859b 05bc 50a3 913e 0b01 2e3e dfa6 21be
00000070: be3a 243f 7ca0 b13e a1c6 cdbd 1fc9 18bc
00000080: 6444 683e 6915 943e 57eb 4f3e 1914 28bf
00000090: 97c1 093f 32b5 313e 77d5 a9bd e4d1 11bf
000000a0: 6407 1a3f 3e04 9cbd cf75 b5be 3eae 90bd
000000b0: c065 f23c b6c8 0c3f 7989 5abe 09d3 acbe
000000c0: 219d ad3e e649 cb3e 392a b53e 5694 883e
000000d0: 3d58 82be 2e54 55be 5d7e 3f3d 5130 11be
000000e0: 7911 3b3e 5b46 733e 736b 9b3e bebd c53e
000000f0: 5337 cd3e be06 213f c0cd 153e 19d1 0c3e
00000100: 8c5a 40bd 3e61 bebe b43b 2abf 96f4 c83e
00000110: 5b5e d0bd e8e1 cc3e 74aa bc3e b312 a43d
00000120: 15d8 153d c6e2 0bbe a7a7 0a3e 3bad 5bbe
00000130: 0b83 d73e f5ae 88be adfc ca3e e7ee 95be
00000140: c44a 223f caea 5e3e 8d36 9e3d 08ba 0dbb
00000150: c2b6 1b3f ecbc f13d 7c93 d83e 0168 e9be
00000160: ae2d 843e 7009 c4be 2b67 c73e 915f ef3e
00000170: cdd8 9a3e 9486 9bbe 71b1 043f 191a 32be
00000180: ae52 7a3e 135f 753e 4b1d 843e 5b95 023d
00000190: e84e aa3e 18a0 1e3d 49cd c9bc 6068 f83d
000001a0: c43e 793f 0b65 2ebe 1de8 b2be eb36 28bd
000001b0: 4f44 37be a9a7 123f 64ed 53be cbd2 2c3f
000001c0: aa00 17be 0557 1f3f 75e3 03bf 3ccc a33e
000001d0: d4d7 53be e619 303e e03c 3e3e cbee af3e
000001e0: 694a f53e 4391 2b3d 1314 db3d ad4a c23d
000001f0: 88e0 323e 35b5 a7be 119b 373e 293a 8dbd
00000200: 30cb 6abe 708e 2fbe b936 d13e 1f96 71be
00000210: 5eeb 0c3e bbfb 45be 9dee d93e 2a98 6abe
00000220: 5b45 8abe 2f91 323e ce4b c03d c617 233d
00000230: 223a f9bd 44e6 71bd 6bea 69be 22ea 85bd
00000240: 06a5 cbbe 2907 d13e 8fe3 1e3f 91db 65be
00000250: 3525 ea3e c675 ddbe f1ed 283e 6b9d 76be
00000260: 6ce2 a2bd b35a efbd 352b d3bd efb7 26be
00000270: b62b 893d 1b3f 3a3d 1c22 0f3f 42d8 29be
00000280: afe8 d13e 7e6b e73e f9d7 6a3e f235 843e
00000290: a067 cbbe 096d f13e d7f9 c63e ca86 73be
000002a0: 2baa 10be 79e4 1a3d 60c2 a03e d35f 1e3d
000002b0: f99d 9a3d 4757 0bbf c271 7bbd 9953 383e
000002c0: 8e4a a4be c2f2 0c3e 4928 b73e d682 80be
000002d0: 5928 7f3e dc6c 32bf 39fc 42bf 81ac 163e
000002e0: 9aff cc3e ade5 b63e 42cf 71be b2c2 3e3f
000002f0: b669 253d 8979 78bb 8423 a73d 2e35 253d
00000300: c1b8 5bbe e599 2dbf 52b5 6ebe 72a9 93be
00000310: e0ed 8c3e dc6a 993c 16ad b2bc 4c52 afbd
00000320: 675e a5bd 8216 5a3e 3a24 613e 795f 4cbf
00000330: 2674 af3e fa7f db3e ccf4 0ebf 7dce 20be
00000340: 6db8 2f3d 8006 433d a0de 0ebe 7a72 bc3d
00000350: d970 9abe 2415 87be f1fe c1be 3093 d13e
00000360: 9735 58bd 07f0 2b3e 2d08 39bc 1c9b 653e
00000370: 1d7f cabe 14f5 bebe e1f2 093e 3e95 8fbe
00000380: 0b42 cbbe 50b5 cd3e f1d0 debe 0084 41bd
00000390: 78c7 4bbe c779 14bc f15b fb3d 5973 e4be
000003a0: b758 c7bd d069 c6be 92cf d23e 6273 21be
000003b0: d226 8ebc 1570 0e3d c827 cdbd 245d e6bd
000003c0: 129e 3a3d 5713 92bd 71cf 9ebd da3d ecbd
000003d0: d37d 213f 46eb 6cbe 5ee9 8b3e f724 20bf
000003e0: 9b6b 163f f834 293e e3be ca3e 99a7 8b3e
000003f0: 14ae 9c3d 50c6 683e 4755 d0be e4fb ce3d

network_body._body_endoder.seq_layers.0.bias f4 [256]
-0.0035118093 0.02532565 0.008854333 0.038713615 0.032821923 0.048678167 0.032459076 0.059607986
-0.022532955 0.040222898 0.0010957426 -0.004728388 0.02363198 0.03571353 0.014823416 0.014466485
0.031732082 0.028218044 0.044867005 0.025313511 0.018805252 0.026268868 0.0022796476 0.019786114
0.02007459 -0.003733374 0.022899019 0.039274056 0.025345853 0.037639417 0.0061336877 0.027565122
0.0488958 0.024349742 0.041779216 0.04787714 0.00968659 0.01540646 0.04068548 0.010349065
0.058438618 0.009648035 0.011067819 -0.003762225 0.040151183 0.03381202 0.0027543309 0.01383621
0.00963149 0.025755046 0.030766051 0.011657264 0.019047445 0.021511698 0.008289643 0.045957107
0.082858615 0.036860567 0.04198655 0.043113112 0.036000077 -0.0036349772 0.047743667 -0.023807958
0.0018400922 0.023028547 0.0135807125 0.03994739 0.008758166 0.029202417 0.028076839 0.036422666
0.028110698 0.039494466 -0.0067165345 0.019916575 0.009439193 0.05696276 0.007495273 0.008602899
0.04592564 0.023176635 -0.011712095 0.041923746 0.044670273 0.027153183 0.019958379 0.072840855
0.018472338 0.007542773 0.019157566 0.020593096 0.0489693 0.03633474 0.03348427 0.025631225
0.059820257 -0.011871537 0.0033895401 0.035278995 0.015235598 0.039994903 0.027048636 0.022021966
0.009893244 0.056284018 0.017469242 0.024684899 0.054974005 0.016968008 0.05083859 0.025445206
0.008094458 -0.0074328114 0.031048417 0.07150955 0.037889417 0.021833109 0.01682915 0.034181997
0.028068695 0.0064504887 0.02248005 0.029553968 0.012027097 -0.020485045 0.024084872 -0.0016368565
0.034741364 -0.0055950643 -0.0038792873 0.040103104 0.012895748 0.024840344 0.021296984 0.026665552
0.02760283 0.033488102 0.0062892986 0.04590483 0.019222971 0.00878413 -0.0013659782 0.033844873
0.060763337 0.044681635 0.029022861 0.05914445 0.03756558 -0.0026736462 0.023957686 0.04353702
0.009293415 0.023644025 0.032268386 0.01279003 0.0051521463 0.028948752 0.014199255 0.029168503
0.028602844 0.021220835 0.016915172 0.020865818 0.015765173 0.006438548 0.07202132 0.029018426
-0.0067007644 0.009897308 0.037284918 0.015924877 -0.006205547 0.035652343 0.017334053 0.022397352
0.06268788 -0.0056700846 -0.027545966 0.013654525 0.023008207 0.03687835 0.0028203325 0.04039087
0.068601154 0.024999129 0.043583266 0.041805714 0.03063756 0.00028331703 0.05597002 0.045660235
0.028986188 0.035946198 -0.025260938 0.039116092 -0.018568685 0.049715687 0.031057756 0.09048797
0.00865718 0.049043633 0.029736612 -0.021829102 0.010045767 0.030064143 0.028449412 0.04083555
0.017102517 0.04725392 0.0041100187 0.03192497 -0.013434286 0.01694248 0.025150098 0.030034209
0.0431293 0.0127978325 0.03659411 0.039612424 0.0038394567 -0.0016673371 0.022250278 0.044655345
0.026358051 0.029321827 0.02047881 0.006010772 0.045228694 0.028267736 0.03856926 0.033554163
0.03686739 0.0442885 0.030449938 0.0046991957 0.011720738 -0.005914921 0.037647884 0.03842927
0.044195227 0.0016215607 0.011844439 0.025586305 -0.0063179047 -0.0056962683 0.0037474674 0.018025054
0.044777777 0.06065778 0.011027253 0.02288264 0.029192446 0.0013759739 -0.006597567 -0.001445334
00000000: 6226 66bb bd77 cf3c c411 113c 2b92 1e3d
00000010: 4870 063d c262 473d cff3 043d 8127 743d
00000020: 0897 b8bc c4c0 243d 059f 8f3a 98f0 9abb
00000030: db97 c13c 5a48 123d eadd 723c d604 6d3c
00000040: 80f9 013d 8729 e73c 77c6 373d 485e cf3c
00000050: 790d 9a3c cf31 d73c 2466 153b 7d16 a23c
00000060: 7773 a43c 9fab 74bb b996 bb3c d5dd 203d
00000070: 1ba2 cf3c ca2b 1a3d 1afd c83b 40d0 e13c
00000080: f646 483d 1c79 c73c af20 2b3d d21a 443d
00000090: 81b4 1e3c 606b 7c3c d1a5 263d 208f 293c
000000a0: 555d 6f3d cb12 1e3c cc55 353c a98f 76bb
000000b0: 9175 243d 797e 0a3d 0182 343b 45b1 623c
000000c0: 66cd 1d3c 3ffc d23c 1609 fc3c 1cfe 3e3c
000000d0: 6309 9c3c 4d39 b03c 48d1 073c 853d 3c3d
000000e0: c7b1 a93d 1bfb 163d 17fa 2b3d 6097 303d
000000f0: d174 133d cc38 6ebb dd8e 433d e808 c3bc
00000100: 402f f13a 5da6 bc3c a381 5e3c e09f 233d
00000110: 697e 0f3c e839 ef3c 6601 e63c ef2f 153d
00000120: 6848 e63c f3c4 213d 6016 dcbb 1628 a33c
00000130: d8a6 1a3c c851 693d e89a f53b 2cf3 0c3c
00000140: 861c 3c3d eddc bd3c 16e4 3fbc 3cb8 2b3d
00000150: 2df8 363d 5a70 de3c c17f a33c 962d 953d
00000160: 4d53 973c 5e29 f73b 54f0 9c3c dab2 a83c
00000170: 0894 483d bdd3 143d cd26 093d 93f8 d13c
00000180: 1606 753d d680 42bc 0c23 5e3b b580 103d
00000190: bb9e 793c b2d1 233d 1a95 dd3c 6967 b43c
000001a0: 4617 223c 128a 663d a81b 8f3c fc37 ca3c
000001b0: 6c2c 613d 7e00 8b3c 203c 503d 7772 d03c
000001c0: 9e9e 043c f18e f3bb 4059 fe3c 9973 923d
000001d0: ef31 1b3d 59db b23c 49dd 893c 6c02 0c3d
000001e0: 52f0 e53c 9f5e d33b 1528 b83c 2a1b f23c
000001f0: 4d0d 453c 41d0 a7bc a34d c53c ca8b d6ba
00000200: f64c 0e3d cd56 b7bb a43b 7ebb 2743 243d
00000210: b048 533c fa7d cb3c 0377 ae3c b771 da3c
00000220: 551f e23c d22a 093d 7616 ce3b b406 3c3d
00000230: 7e79 9d3c 50eb 0f3c 9f0a b3ba eca0 0a3d
00000240: fae2 783d 1704 373d 5ac1 ed3c 7341 723d
00000250: 5ede 193d 5738 2fbb e942 c43c e053 323d
00000260: 6843 183c 1db1 c13c db2b 043d 468d 513c
00000270: 56d3 a83b ef25 ed3c fea3 683c c9f2 ee3c
00000280: 8350 ea3c 51d7 ad3c b091 8a3c cbee aa3c
00000290: f725 813c 75fa d23b ea7f 933d 0db8 ed3c
000002a0: 1692 dbbb 5228 223c 12b8 183d e374 823c
000002b0: e757 cbbb 3108 123d 2500 8e3c a77a b73c
000002c0: 8162 803d 1ecc b9bb 14a8 e1bc 3bb7 5f3c
000002d0: b57b bc3c c10d 173d 54d5 383b e670 253d
000002e0: c37e 8c3d f9ca cc3c 5e84 323d 783c 2b3d
000002f0: 9ffb fa3c 2b8a 9439 d240 653d 3a06 3b3d
00000300: 7174 ed3c 523c 133d 07f0 cebc 3238 203d
00000310: 5b1d 98bc ada2 4b3d d66c fe3c c251 b93d
00000320: d8d6 0d3c fae1 483d 329a f33c f2d2 b2bc
00000330: 0097 243c 1449 f63c be0e e93c 2d43 273d
00000340: 941a 8c3c 548d 413d 56ad 863b c2c3 023d
00000350: 7b1b 5cbc f5ca 8a3c 9407 ce3c 4d0a f63c
00000360: 59a8 303d 00ae 513c b5e3 153d a340 223d
00000370: 659f 7b3b 8d8a daba 3746 b63c 86e8 363d
00000380: d7ec d73c 5434 f03c 2dc3 a73c 03f6 c43b
00000390: b941 393d bd91 e73c cdfa 1d3d 1770 093d
000003a0: 4302 173d dc67 353d 2672 f93c b6fb 993b
000003b0: 5708 403c f4d1 c1bb ab34 1a3d 0368 1d3d
000003c0: 0e06 353d 8c8a d43a 2e0f 423c 5f9a d13c
000003d0: 6d06 cfbb c3a7 babb 1298 753b 47a9 933c
000003e0: e768 373d 4b74 783d a7ab 343c 6074 bb3c
000003f0: ff24 ef3c 065a b43a 6730 d8bb 5d71 bdba

network_body._body_endoder.seq_layers.2.weight f4 [256, 256]
-0.043460403 -0.04975327 0.036819756 0.05297242 -0.17831874 0.13313007 -0.10974001 -0.017060801
-0.0021698659 -0.039962742 -0.04733631 0.058634292 0.08126068 -0.056528457 -0.060136776 -0.12456027
0.059672203 -0.09178644 0.0011003339 0.07932048 0.1605127 -0.0936632 0.046224665 0.02242665
0.03951355 -0.07026503 -0.119771585 0.005259688 -0.10517016 -0.064971484 -0.0749391 0.08885363
-0.02644305 -0.0505806 -0.11870804 -0.031449325 0.038027138 -0.013957434 -0.01607488 -0.027729189
-0.04052036 0.05396032 0.10739828 0.03102961 -0.016826032 -0.06761925 -0.086084835 -0.01921815
0.027518192 0.032311443 0.078561105 -0.044553824 0.06357466 0.0021249328 -0.03746191 -0.038093757
0.025359627 -0.038325395 -0.020989833 0.076080486 -0.043113533 0.02197309 -0.062388875 -0.007904069
-0.014049082 0.02155554 0.062417362 -0.024713013 -0.0422172 -0.13041769 -0.011385577 0.10761465
-0.09288764 0.02381137 0.02044162 -0.064448714 0.091890745 0.015040636 -0.018344136 -0.08508024
0.029633755 0.07101479 -0.0040585715 -0.0265247 0.02646375 0.029545715 -0.06585189 -0.009421871
-0.026980082 -0.019653196 -0.08840715 0.047985625 0.023723712 0.027480777 -0.031739164 -0.012718026
-0.10360026 0.09838803 -0.048132777 0.0311669 -0.111974314 0.042732816 -0.0077589937 -0.033181623
-0.021212047 -0.06137756 0.096849546 0.004106502 -0.12888172 0.029284185 -0.0573965 -0.041892376
0.010971843 0.010096766 -0.042504944 0.14769655 -0.11209357 0.11780273 -0.051505707 -0.047276717
-0.043318987 -0.06715528 0.1819232 0.00068726885 0.036752034 -0.1973543 -0.116131954 -0.036792453
0.03621083 0.09402064 0.013369944 0.04253297 -0.015270001 -0.14966539 -0.0061507146 -0.13522808
-0.04128184 -0.011646809 -0.056079168 -0.11114326 -0.0343765 -0.049291857 0.043249797 -0.060393553
-0.056903623 -0.12706548 -0.040059876 -0.121665895 -0.12980713 0.0039762734 0.009635006 -0.03218028
-0.016610371 0.0126916645 -0.0071030487 0.066206284 -0.06751831 -0.046830002 0.1296685 -0.017598478
-0.0025187328 -0.04435825 -0.0010112739 -0.10945069 0.041101363 -0.03112592 0.09408714 -0.022579959
-0.06068138 -0.0004144785 -0.013821415 0.02684807 -0.11987698 -0.024243347 0.019622877 -0.14536695
-0.033497207 0.08239531 0.011635401 0.010019052 -0.05728239 -0.035208955 0.045830976 -0.0967965
0.025233665 -0.032168485 -0.058740623 0.06548654 0.059393037 -0.044166155 -0.09141321 0.0084506525
-0.04975282 -0.0809445 0.037120204 -0.054675095 0.033266485 -0.021258613 0.0034032578 -0.11103436
0.011789117 -0.038389236 -0.04952227 0.12939167 0.045495726 0.025335243 -0.056026384 0.10596653
-0.023257162 -0.09926716 -0.03770222 0.005317731 -0.023903105 0.029991945 -0.08102186 0.007107242
0.07761973 -0.04725781 0.015666556 0.08281303 0.07029616 0.07158885 0.08649998 0.08407281
0.0041638264 -0.07193346 0.013158816 0.015467458 -0.1307892 0.011100892 -0.01772174 -0.06257957
0.07310644 0.09366153 0.06231368 0.021276515 -0.02018127 -0.08256071 -0.08394942 -0.066566095
0.016928554 0.020907462 -0.16575505 -0.020170797 0.009253417 0.03705748 -0.0052444437 -0.0070810895
-0.09584978 -0.080544546 -0.012313698 0.030391948 0.014583766 -0.10332938 -0.02058018 0.08339033
00000000: 8903 32bd 16ca 4bbd 50d0 163d 9cf9 583d
00000010: 3099 36be 4053 083e 5fbf e0bd 18c3 8bbc
00000020: 4f34 0ebb f9af 23bd b8e3 41bd 832a 703d
00000030: 006c a63d 628a 67bd fb51 76bd 7419 ffbd
00000040: d76a 743d 87fa bbbd 1439 903a c772 a23d
00000050: 715d 243e 7ed2 bfbd 1356 3d3d 18b8 b73c
00000060: f6d8 213d 1de7 8fbd ce4a f5bd 7659 ac3b
00000070: 7463 d7bd c50f 85bd ac79 99bd e4f8 b53d
00000080: 189f d8bc 9a2d 4fbd 331d f3bd 02d1 00bd
00000090: 58c2 1b3d b9ad 64bc 77af 83bc 5328 e3bc
000000a0: adf8 25bd 7f05 5d3d a1f3 db3d cf31 fe3c
000000b0: bfd6 89bc f67b 8abd 3f4d b0bd 626f 9dbc
000000c0: d56d e13c 0159 043d a5e4 a03d 127e 36bd
000000d0: 6e33 823d 7542 0b3b a971 19bd 3308 1cbd
000000e0: febe cf3c 17fb 1cbd dff2 abbc 16d0 9b3d
000000f0: d197 30bd e900 b43c 7a8b 7fbd 1180 01bc
00000100: 1f2e 66bc 3e95 b03c 59a9 7f3d f272 cabc
00000110: f1eb 2cbd 378c 05be 928a 3abc 1265 dc3d
00000120: e03b bebd 1010 c33c 2f75 a73c b0fd 83bd
00000130: 3731 bc3d 006d 763c 7146 96bc 8d3e aebd
00000140: 7dc2 f23c 3470 913d c4fd 84bb 544a d9bc
00000150: 82ca d83c db09 f23c 5bdd 86bd 315e 1abc
00000160: 5505 ddbc bdff a0bc cf0e b5bd 938c 443d
00000170: 3b58 c23c 5e1f e13c ed00 02bd 445f 50bc
00000180: 602c d4bd aa7f c93d e026 45bd ba51 ff3c
00000190: ca52 e5bd 9b08 2f3d 283f febb 74e9 07bd
000001a0: e3c4 adbc 0967 7bbd 0e59 c63d d68f 863b
000001b0: 92f9 03be 63e5 ef3c 9818 6bbd 5797 2bbd
000001c0: 3fc3 333c e86c 253c aa19 2ebd c43d 173e
000001d0: 5091 e5bd 8f42 f13d a6f7 52bd 3ba5 41bd
000001e0: 406f 31bd b588 89bd 134a 3a3e d529 343a
000001f0: 4d89 163d 3f17 4abe 97d6 edbd afb3 16bd
00000200: cf51 143d e58d c03d 9c0d 5b3c 0d37 2e3d
00000210: 072f 7abc e241 19be ef8b c9bb 3b79 0abe
00000220: 2617 29bd 42d2 3ebc 45b3 65bd 149f e3bd
00000230: 5fce 0cbd 42e6 49bd b326 313d 3b5f 77bd
00000240: c613 69bd 741d 02be d315 24bd f82b f9bd
00000250: 29ec 04be 664b 823b 25dc 1d3c 78cf 03bd
00000260: 7912 88bc b3f0 4f3c b1c0 e8bb 2997 873d
00000270: 0a47 8abd d1d0 3fbd d2c7 043e af2a 90bc
00000280: 5311 25bb ffb0 35bd b98c 84ba af27 e0bd
00000290: e759 283d c9fb febc c2b0 c03d 9bf9 b8bc
000002a0: 0a8d 78bd 5d4e d9b9 3773 62bc 7cf0 db3c
000002b0: 1082 f5bd fc99 c6bc 28c0 a03c 13db 14be
000002c0: 5e34 09bd dfbe a83d 69a2 3e3c f326 243c
000002d0: f0a0 6abd 4437 10bd 43b9 3b3d 3e3d c6bd
000002e0: d5b6 ce3c 1ac3 03bd 029a 70bd cf1d 863d
000002f0: 1d46 733d 92e7 34bd d936 bbbd 9b74 0a3c
00000300: 9dc9 4bbd 3bc6 a5bd 5b0b 183d fef2 5fbd
00000310: 7042 083d 8b26 aebc 3109 5f3b fc65 e3bd
00000320: 2427 413c 083e 1dbd ddd7 4abd 407f 043e
00000330: ba59 3a3d db8b cf3c ec7b 65bd fb04 d93d
00000340: ce85 bebc 954c cbbd a56d 1abd 5c40 ae3b
00000350: 72d0 c3bc abb1 f53c caee a5bd dee3 e83b
00000360: 18f7 9e3d 6891 41bd 2657 803c e199 a93d
00000370: 6ff7 8f3d 2d9d 923d e726 b13d 5e2e ac3d
00000380: b570 883b da51 93bd 1398 573c 396b 7d3c
00000390: 9bed 05be 84e0 353c 2f2d 91bc b829 80bd
000003a0: d4b8 953d 9ed1 bf3d a13c 7f3d 164c ae3c
000003b0: 3153 a5bc 9715 a9bd aced abbd ce53 88bd
000003c0: c0ad 8a3c 2046 ab3c b1bb 29be 3a3d a5bc
000003d0: a59b 173c 96c9 173d 95d9 abbb 7c08 e8bb
000003e0: e44c c4bd 8af4 a4bd 65bf 49bc 89f8 f83c
000003f0: c0f0 6e3c 5b9e d3bd c497 a8bc 8dc8 aa3d

network_body._body_endoder.seq_layers.2.bias f4 [256]
0.0046337964 0.028828988 0.032600332 0.008535835 -0.028736476 0.005237066 0.02227499 0.00712801
0.028483558 0.012228193 0.028234823 0.0027611656 0.0123661775 0.020470152 0.012361013 0.027836623
0.038182344 0.03930446 0.008144534 0.010894188 0.027769698 0.01968649 0.021484664 0.003225232
0.029324852 0.023200508 0.020813309 0.032323863 0.036281202 0.01858099 0.020700391 0.039604973
-0.010034757 0.02433337 0.025339663 0.022754572 0.01032026 0.003844673 0.01755658 0.026619716
0.002407357 0.040750295 -0.00060615427 0.02213306 0.011478944 0.034310475 0.005673139 0.0035894213
0.030411534 0.021086283 0.034602378 -0.00026536192 0.03618766 0.01481107 0.021285875 0.016891582
0.03217349 0.028152974 0.005121224 0.014497864 0.011190673 0.014575475 0.023940861 0.010340144
0.0036301506 0.0050777667 0.0037507166 0.012189446 0.011482778 0.018344378 0.013137889 0.01760455
0.014419741 0.015433118 0.010146956 0.023469578 0.0026052417 0.020944778 -0.00219967 0.027565183
-0.003938975 0.026340976 0.028230013 -0.009213619 0.0010655897 0.0264022 0.018341575 0.013521059
-0.0059508686 0.02775239 0.013216556 0.01464435 0.05487612 0.02232001 0.038834643 0.04009956
0.012828664 0.02578101 0.0059214877 0.020690775 0.026809406 0.028595287 0.030803384 0.035204925
0.019588273 0.010864514 0.0429245 -0.001971699 0.04384969 0.040709212 -0.004789094 0.051991586
0.009966981 0.020669969 0.037575383 0.01240837 0.026002983 0.043060616 0.024962766 0.0024864157
-0.0011020203 0.012737456 0.03165165 0.0026518633 0.008437657 0.035457287 0.008496117 0.018308118
0.014137087 0.02194728 0.029785851 0.01710692 0.013252673 0.016536033 0.011997066 0.02560568
0.025179014 0.011494446 0.046767183 0.018213289 0.025770694 0.0018589349 0.0077689406 0.024628676
0.009781502 0.045280796 0.008478008 -0.004616019 -0.008888666 0.0046318653 0.018728115 0.0069316924
0.02918301 -0.013057081 0.012307534 0.016184783 0.012676054 0.007149416 0.006498969 0.008813251
0.0066567212 0.00927441 0.03149087 0.015774418 0.009421499 0.01441801 -0.0032279745 0.020667078
0.024491055 0.0109617505 0.037072815 0.01724467 0.009107898 -0.010351286 0.023072185 0.02850544
0.01281272 0.017420743 0.012975506 0.027892405 0.009460379 0.03564616 0.012540132 0.0013688703
0.031836092 0.037796743 0.0121987825 0.04064046 0.028807824 0.023603342 0.009317641 0.019297816
0.019707955 0.0064938366 0.036421895 0.025968125 0.009760941 0.0016298052 0.027025493 -0.010387699
0.02430421 0.0029316656 0.009748982 0.004584528 0.04065763 0.013940428 0.0140075255 0.024502322
0.03449339 0.015357124 0.0035906474 0.005412116 0.007108747 0.01626063 0.021945292 -0.0019704204
0.038015798 -0.0041684913 0.026445448 0.03291521 0.01236206 0.009157827 0.024569394 0.02670309
0.007436327 0.031759594 0.008713969 0.020680599 0.022858864 0.021778822 0.010833231 0.0052503063
0.004831377 0.04266225 0.022438364 0.019266624 0.009139158 0.017982146 -0.008248992 0.028087094
0.027374538 0.014542035 0.0040936274 0.022148509 0.012215998 0.027479133 0.010579747 0.027533058
0.029679114 0.041399643 0.020961583 0.013488486 -0.0124954535 0.018310137 0.02299978 0.024885273
00000000: 1ad7 973b c52a ec3c ed87 053d e3d9 0b3c
00000010: c268 ebbc b29b ab3b 0a7a b63c 1592 e93b
00000020: 5a56 e93c c258 483c b74c e73c acf4 343b
00000030: 829b 4a3c 05b1 a73c d985 4a3c a109 e43c
00000040: 1765 1c3d b7fd 203d a770 053c 897d 323c
00000050: 477d e33c 9045 a13c 9b00 b03c 6a5e 533b
00000060: ac3a f03c fe0e be3c ac80 aa3c 0766 043d
00000070: 999b 143d 2937 983c de93 a93c d338 223d
00000080: d268 24bc c756 c73c 2095 cf3c cc67 ba3c
00000090: 4f16 293c e9f6 7b3b d1d2 8f3c 9711 da3c
000000a0: c0c4 1d3b c8e9 263d 53e6 1eba 6450 b53c
000000b0: 2e12 3c3c 2489 0c3d bde5 b93b 7f3c 6b3b
000000c0: 9c21 f93c 24bd ac3c 39bb 0d3d 4620 8bb9
000000d0: 8339 143d 21aa 723c b75f ae3c 3760 8a3c
000000e0: 59c8 033d 11a1 e63c f1cf a73b 7388 6d3c
000000f0: 1659 373c f9cd 6e3c a01f c43c b569 293c
00000100: d2e7 6d3b 6563 a63b 95ce 753b 3eb6 473c
00000110: 4322 3c3c f346 963c 4d40 573c 6b37 903c
00000120: c740 6c3c 30db 7c3c 6b3f 263c 4643 c03c
00000130: b4bc 2a3b 6294 ab3c 5728 10bb 61d0 e13c
00000140: 8412 81bb 08c9 d73c a142 e73c b8f4 16bc
00000150: 42ab 8b3a 6d49 d83c 1241 963c 6f87 5d3c
00000160: 81ff c2bb fb58 e33c 418a 583c dbee 6f3c
00000170: c8c5 603d 74d8 b63c 1311 1f3d 703f 243d
00000180: 512f 523c b232 d33c 0a09 c23b b37f a93c
00000190: 669f db3c aa40 ea3c 6157 fc3c 0a33 103d
000001a0: 9677 a03c 1301 323c 9ad1 2f3d 9f37 01bb
000001b0: bc9b 333d b4be 263d d5ed 9cbb 21f5 543d
000001c0: 8c4c 233c 1154 a93c a5e8 193d 7a4c 4b3c
000001d0: 3504 d53c 5460 303d b77e cc3c 22f3 223b
000001e0: aa71 90ba c3b0 503c 29a5 013d e2ca 2d3b
000001f0: 193e 0a3c a93b 113d 4c33 0b3c e8fa 953c
00000200: 3e9f 673c c8ca b33c 7501 f43c d023 8c3c
00000210: bd21 593c 9376 873c 588f 443c 01c3 d13c
00000220: 3844 ce3c 3353 3c3c f28e 3f3d 0934 953c
00000230: 101d d33c 81a7 f33a 9992 fe3b 14c2 c93c
00000240: 9842 203c 5b78 393d 58e7 0a3c f941 97bb
00000250: c4a1 11bc e7c6 973b b46b 993c 4023 e33b
00000260: 3511 ef3c 5eed 55bc 8aa5 493c f395 843c
00000270: 39af 4f3c a645 ea3b 4ef5 d43b 7465 103c
00000280: a020 da3b b2f3 173c 92fc 003d 5a39 813c
00000290: a25c 1a3c 8439 6c3c 6d8c 53bb 014e a93c
000002a0: 77a1 c83c ea98 333c aad9 173d b244 8d3c
000002b0: 4b39 153c 7198 29bc e101 bd3c 3e84 e93c
000002c0: 71ec 513c f2b5 8e3c 3797 543c 9d7e e43c
000002d0: b5ff 1a3c b501 123d 2075 4d3c aa6b b33a
000002e0: 9066 023d c2d0 1a3d 67dd 473c 9c76 263d
000002f0: 63fe eb3c cc5b c13c 05a9 183c 7416 9e3c
00000300: 9472 a13c 40ca d43b 202f 153d 1bbb d43c
00000310: 5bec 1f3c 309f d53a 9164 dd3c 2b31 2abc
00000320: 9f19 c73c 3021 403b 32ba 1f3c cf39 963b
00000330: 9d88 263d 6566 643c d27f 653c 18b9 c83c
00000340: f148 0d3d 729c 7b3c 1151 6b3b 1f58 b13b
00000350: 7ef0 e83b 0335 853c 9dc6 b33c 2b22 01bb
00000360: 74b6 1b3d d797 88bb 20a4 d83c 19d2 063d
00000370: 3d8a 4a3c b60a 163c c145 c93c 70c0 da3c
00000380: 6fac f33b 5916 023d 09c5 0e3c 5c6a a93c
00000390: 8342 bb3c 8069 b23c dd7d 313c c30a ac3b
000003a0: 8750 9e3b 9dbe 2e3d a9d0 b73c 0ad5 9d3c
000003b0: 68bc 153c 4b4f 933c c826 07bc e816 e63c
000003c0: 9140 e03c b741 6e3c d623 863b ca70 b53c
000003d0: 9c25 483c eb1b e13c ad56 2d3c 028d e13c
000003e0: 9d21 f33c ac92 293d a0b7 ab3c d0fe 5c3c
000003f0: bbb9 4cbc 24ff 953c 096a bc3c 33dc cb3c

action_model._continuous_distribution.log_sigma f4 [1, 2]
-0.33518583 -0.13656877
00000000: 7a9d abbe afd8 0bbe

action_model._continuous_distribution.mu.weight f4 [2, 256]
0.07157985 -0.003579094 -0.079838455 -0.028149882 -0.00078376994 -0.0029232046 -0.006244968 0.017431322
-0.062518336 0.030604945 -0.025595995 -0.006870833 -0.07612403 0.017083598 0.08214791 0.059208553
-0.050906386 -0.12202778 0.053749345 0.07514006 -0.0038359507 -0.07505311 -0.014583247 0.05407098
-0.019650644 -0.084575705 0.1165383 0.008216499 0.04727741 -0.020834386 0.03257326 -0.02172927
-0.012444237 -0.08163104 -0.05029033 0.033383586 0.012779697 -0.021542402 -0.042847253 0.044901762
0.032402094 -0.043250997 0.007556321 -0.07726864 0.07249397 0.019998636 -0.004393148 0.0473002
-0.047762897 0.00055383675 -0.061317425 0.016640263 -0.07928188 -0.06431257 0.099886574 -0.0073563727
0.04053732 -0.06566953 0.04469455 -0.03705302 -0.04019198 0.014321588 0.019482842 -0.047666796
0.07706426 0.007852251 -0.009944148 0.010818122 0.0333022 -0.047077402 0.041489158 -0.024386479
-0.033796277 -0.060024906 0.037116222 -0.0391551 -0.010296431 0.008336723 0.054074153 -0.044037234
-0.026159696 0.01787563 -0.041636847 -0.035652157 0.010815505 0.050424807 -0.009886755 0.021181764
0.004548727 -0.015328735 0.04841551 0.023818852 -0.064619 0.057935018 0.06607653 -0.0053520165
-0.059705112 0.07883113 -0.048000794 -0.035337694 -0.048531655 -0.040172253 -0.032726146 -0.0069044014
0.017511731 0.040223002 -0.008333586 -0.015306581 -0.04213154 -0.011490549 0.0041057635 -0.072697155
-0.09414245 0.011106187 0.025300253 -0.0357224 -0.01856435 -0.013447014 -0.016413882 -0.019679923
-0.016092582 0.023889903 0.06929888 -0.04835915 -0.048836492 -0.037575074 -0.009336357 -0.009351098
0.12343256 0.05307331 0.07001101 -0.07339635 -0.017152483 -0.008641257 -0.0053794496 -0.0379307
-0.025641697 0.022687064 -0.076712675 -0.0012252615 -0.045947675 0.01820818 0.010520759 0.0042518456
-0.013738489 -0.078068145 -0.03824668 0.0665438 0.008311648 0.039175346 -0.024738083 0.041421603
-0.0329876 0.04380506 0.010646635 0.085115425 -0.020767821 -0.024949253 -0.02635357 0.04769971
-0.01928566 0.0699589 0.007823571 -0.053352267 0.061609805 -0.03500069 0.0027827437 -0.035897687
-0.0323124 0.066258565 -0.045014206 0.023408921 -0.015562168 0.059388295 -0.00064477517 0.082486056
0.07363063 0.101630405 -0.0160687 -0.07090757 0.028702768 0.071601756 0.09488045 0.018432472
-0.026533185 0.038622446 0.062427744 -0.020447696 0.006251988 -0.07642 8.717035e-05 0.07401303
0.005681485 -0.036391534 0.0524427 -0.011812463 -0.05702517 -0.008682242 -0.05529751 -0.02341482
-0.057568166 0.04629154 0.14236395 -0.01478825 -0.002924581 0.019663643 0.094860785 0.0051440224
-0.04435251 -0.035756998 -0.036160816 0.012104577 0.04078732 0.069820054 0.015574863 0.0054838643
-0.003011355 -0.06775143 0.048411824 0.036838908 0.034508873 0.060314264 -0.06900955 -0.100711346
-0.0038225255 0.0047922013 0.04042156 0.047566924 -0.05556674 -0.025430419 -0.080093965 0.055945545
-0.017069323 -0.058161866 0.001084246 0.045019437 0.047561586 0.033473127 0.020377351 0.0063691763
-0.06379168 0.008735228 -0.0004588554 -0.02773361 0.07305915 -0.0034213534 0.037306596 0.04667556
0.009575627 -0.022809073 0.034847476 -0.009174634 0.044437416 -0.042267665 0.007432378 -0.080105014
00000000: 7598 923d 3c8f 6abb 5882 a3bd 959a e6bc
00000010: e975 4dba 3c93 3fbb 97a2 ccbb 22cc 8e3c
00000020: 9d09 80bd 39b7 fa3c b1ae d1bc ba24 e1bb
00000030: eae6 9bbd e7f2 8b3c 2a3d a83d ab84 723d
00000040: 3783 50bd b3e9 f9bd 4628 5c3d 08e3 993d
00000050: 9364 7bbb 72b5 99bd 92ee 6ebc 8879 5d3d
00000060: 63fa a0bc 0736 adbd a2ab ee3d 7f9e 063c
00000070: f5a5 413d e0ac aabc 8a6b 053d 9501 b2bc
00000080: eae2 4bbc 2d2e a7bd 3cfd 4dbd 3abd 083d
00000090: ef61 513c b179 b0bc 9a80 2fbd e9ea 373d
000000a0: 0fb8 043d f527 31bd 049b f73b 053f 9ebd
000000b0: b877 943d 2ed4 a33c 65f4 8fbb dbbd 413d
000000c0: 07a3 43bd 5b2f 113a fb27 7bbd 2951 883c
000000d0: 8a5e a2bd 4fb6 83bd 5591 cc3d ba0d f1bb
000000e0: 760a 263d bf7d 86bd a211 373d e8c4 17bd
000000f0: 58a0 24bd 18a5 6a3c 7b9a 9f3c 423e 43bd
00000100: ded3 9d3d baa6 003c c8ec 22bc 7e3e 313c
00000110: e367 083d 3cd4 40bd 89f0 293d 27c6 c7bc
00000120: f76d 0abd addc 75bd 2e07 183d 1961 20bd
00000130: 5db2 28bc c096 083c dc7c 5d3d 6360 34bd
00000140: dc4c d6bc ea6f 923c 668b 2abd ff07 12bd
00000150: 8433 313c 3e8a 4e3d 0efc 21bc 6185 ad3c
00000160: 7d0d 953b 6025 7bbc 584f 463d c11f c33c
00000170: f756 84bd 454d 6d3d 2253 873d f85f afbb
00000180: 598d 74bd 3772 a13d 7b9c 44bd 42be 10bd
00000190: 21c9 46bd a98b 24bd da0b 06bd 513e e2bb
000001a0: c374 8f3c e0c0 243d 9889 08bc 74c8 7abc
000001b0: 1f92 2cbd db42 3cbc a489 863b 3fe2 94bd
000001c0: c2cd c0bd b9f6 353c 7a42 cf3c a751 12bd
000001d0: 4414 98bc dd50 5cbc 6876 86bc ca37 a1bc
000001e0: 97d4 83bc c2b4 c33c 92ec 8d3d 3e14 46bd
000001f0: c608 48bd 52e8 19bd 85f7 18bc 5935 19bc
00000200: 36ca fc3d 6663 593d ef61 8f3d d350 96bd
00000210: 5d83 8cbc 0f94 0dbc 1846 b0bb 395d 1bbd
00000220: 890e d2bc 39da b93c 891b 9dbd f498 a0ba
00000230: a133 3cbd 5229 953c 435f 2c3c 1153 8b3b
00000240: 6617 61bc 31e2 9fbd 8da8 1cbd 1e48 883d
00000250: 942d 083c 5476 203d 85a7 cabc b3a9 293d
00000260: 011e 07bd ef6c 333d 396f 2e3c ff50 ae3d
00000270: 4721 aabc 6062 ccbc 71e3 d7bc c560 433d
00000280: f6fc 9dbc 9d46 8f3d 6f2e 003c e887 5abd
00000290: 905a 7c3d e25c 0fbd b15e 363b 7409 13bd
000002a0: 025a 04bd 92b2 873d d160 38bd 11c4 bf3c
000002b0: 77f8 7ebc 2441 733d 2106 29ba 73ee a83d
000002c0: a8cb 963d 9a23 d03d 82a2 83bc fd37 91bd
000002d0: 1122 eb3c f1a3 923d ae50 c23d b2ff 963c
000002e0: 1f5c d9bc 9232 1e3d 3cb4 7f3d ed81 a7bc
000002f0: 7add cc3b 1782 9cbd 3acf b638 2594 973d
00000300: c02b ba3b 4a0f 15bd 28ce 563d 1089 41bc
00000310: 3a93 69bd f63f 0ebc a47f 62bd 70d0 bfbc
00000320: 99cc 6bbd 339c 3d3d dbc7 113e 6b4a 72bc
00000330: 54aa 3fbb a615 a13c 5f46 c23d 308f a83b
00000340: faaa 35bd ee75 12bd 5d1d 14bd 4752 463c
00000350: 9b10 273d d1fd 8e3d b62d 7f3c fdb1 b33b
00000360: 275a 45bb 43c1 8abd 7a4b 463d 65e4 163d
00000370: 2d59 0d3d 170c 773d e154 8dbd c041 cebd
00000380: 5683 7abb e607 9d3b 1491 253d 89d5 423d
00000390: f399 63bd 7453 d0bc 4e08 a4bd 2827 653d
000003a0: f7d4 8bbc 233b 6ebd 421d 8e3a 4d66 383d
000003b0: f0cf 423d 1e1b 093d 67ee a63c 86b4 d03b
000003c0: 36a5 82bd 341e 0f3c 8792 f0b9 9831 e3bc
000003d0: 09a0 953d c938 60bb cdce 183d df2e 3f3d
000003e0: 17e3 1c3c 18da babc 3abc 0e3d 3451 16bc
000003f0: 0204 363d dc20 2dbd 4e8b f33b 190e a4bd

action_model._continuous_distribution.mu.bias f4 [2]
-0.0047172257 0.0012158027
00000000: f592 9abb 925b 9f3a

action_model._discrete_distribution.branches.0.weight f4 [2, 256]
0.011440056 0.054545555 0.03986346 0.0246844 -0.03481859 -0.033768594 0.04655511 -0.048614495
-0.039257128 -0.027420374 0.06779533 -0.043752044 -0.0056739473 -0.06702753 -0.08042213 0.03168891
0.037403073 -0.0008755442 -0.046006903 0.010101783 0.061684363 -0.03949768 -0.057783578 -0.064326994
-0.0975235 -0.0046780263 -0.01829054 0.06414353 0.057818975 -0.019659495 0.0093454635 0.06248303
0.024247238 0.0028903459 -0.04799301 0.058196783 -0.06610105 -0.027132118 0.010519801 0.04572393
-0.027735734 0.05758273 -0.056629222 0.019009018 -0.045768738 0.049832866 0.0048938687 -0.047970656
0.009405065 -0.053473286 -0.040742762 -0.012309663 0.032003358 -0.049077306 -0.0073797726 -0.062853985
0.09600957 -0.0044790437 -0.018429244 0.01234467 -0.024298381 -0.0563313 0.05767158 -0.0050860834
-0.0333014 0.044320572 0.0090132635 0.023701968 0.04674098 0.003039245 0.07726537 -0.061902296
0.03877108 -0.021281203 0.038075287 -0.02454782 -0.007102845 -0.098674096 0.0044702548 -0.054936685
0.015819043 0.060754687 0.014127761 0.025891503 -0.029070085 0.050793506 -0.09259227 0.02740404
-0.0023823834 -0.050166767 -0.07477122 -0.059674133 0.042587735 -0.06111639 0.03167181 0.06550235
0.023481034 0.038808886 0.04086871 -0.09300951 0.025415571 0.056534287 0.0456532 -0.0814943
-0.058562387 0.0052426555 0.052485075 -0.011446427 0.03763404 0.05152526 0.040081207 0.034029238
-0.05741102 0.07380506 0.058176503 -0.012250683 0.050528433 0.061869312 -0.061766237 0.029824544
0.003532412 -0.043950588 0.040374123 0.027517708 -0.04078532 0.030230366 0.004805505 0.025326256
-0.03237151 0.00892953 -0.008402842 -0.0017937374 0.024566665 -0.101059936 0.028761514 0.01835613
0.06060298 0.04596359 -0.0040930915 0.098886244 -0.020113006 0.04720696 -0.043330606 0.05666578
-0.026950585 0.006612407 -0.029325496 0.0030017998 -0.032192517 -0.025368588 0.05447498 0.048283886
0.043393284 -0.037874505 -0.042759065 0.051258292 -0.012058162 -0.02961006 -0.044580583 -0.030449566
-0.046672795 0.0059590195 0.04885901 -0.042522807 0.02187963 -0.026102403 -0.028949108 -0.053563163
0.036739025 -0.067407735 0.040920284 0.041685015 -0.04131209 -0.035392247 0.04303988 0.027234709
0.009957468 -0.052950714 -0.009931638 -0.0008969834 -0.06896908 0.010784076 -0.04904547 0.032782216
0.061231416 0.025059728 0.027131984 0.047704764 0.042339757 -0.0035169115 -0.036881946 0.012312421
0.055198994 0.025856106 0.05584063 -0.067118734 -0.045647435 0.01684242 0.053426046 -0.0054647718
-0.053089064 -0.040961977 -0.055591628 0.010238769 0.05088697 -0.041763265 -0.06313557 0.10210608
0.035878986 0.018205773 0.0136813205 -0.059987813 -0.045417316 0.030202188 0.03969064 0.00052699057
0.042082276 0.025114855 0.0658149 0.031109842 0.042361904 -0.014247825 0.056385703 -0.051563215
-0.027189847 0.03745845 0.015232673 0.05609621 0.021642089 0.029560454 -0.033925142 -0.05212498
-0.04605231 0.03110182 -0.045863282 0.03564978 0.043280233 0.010425432 0.0028165607 0.05936323
-0.03519675 -0.07488616 -0.011934888 0.019942658 0.0009241625 0.04559095 0.01588817 0.03655121
0.060251057 0.060986225 0.051436868 -0.06642812 -0.03595065 0.040405303 -0.075041376 0.0135541065
00000000: 136f 3b3c 296b 5f3d de47 233d f036 ca3c
00000010: f09d 0ebd f050 0abd 92b0 3e3d fe1f 47bd
00000020: 15cc 20bd b1a0 e0bc 47d8 8a3d 5835 33bd
00000030: 85ec b9bb bb45 89bd 5cb4 a4bd 3bcc 013d
00000040: f733 193d c784 65ba bc71 3cbd f381 253c
00000050: bea8 7c3d 52c8 21bd 79ae 6cbd dfbd 83bd
00000060: 67ba c7bd 214a 99bb 0bd6 95bc af5d 833d
00000070: 97d3 6c3d f30c a1bc b71d 193c 35ee 7f3d
00000080: 25a2 c63c f56b 3d3b 5294 44bd c05f 6e3d
00000090: fd5f 87bd 2d44 debc 3e5b 2c3c 0449 3b3d
000000a0: 0d36 e3bc dedb 6b3d 0bf4 67bd cdb8 9b3c
000000b0: 0078 3bbd 8c1d 4c3d bf5c a03b e17c 44bd
000000c0: b417 1a3c ce06 5bbd e2e1 26bd 78ae 49bc
000000d0: f415 033d 4905 49bd 05d2 f1bb 97b9 80bd
000000e0: aaa0 c43d f1c4 92bb edf8 96bc 4c41 4a3c
000000f0: 660d c7bc a6bb 66bd 0939 6c3d 29a9 a6bb
00000100: 0c67 08bd 7d89 353d 5eac 133c a12a c23c
00000110: 7873 3f3d 122e 473b 4e3d 9e3d 438d 7dbd
00000120: 6dce 1e3d eb55 aebc d5f4 1b3d 8318 c9bc
00000130: fbbe e8bb a515 cabd 377b 923b 4a05 61bd
00000140: f096 813c e8d9 783d 2078 673c 6b1a d43c
00000150: 6324 eebc da0c 503d 04a1 bdbd 707e e03c
00000160: c321 1cbb ab7b 4dbd a721 99bd dd6c 74bd
00000170: 7a70 2e3d 2e55 7abd 4dba 013d 1926 863d
00000180: 4c5b c03c 11f6 1e3d f365 273d c57b bebd
00000190: 5134 d03c 7f90 673d dafe 3a3d 7ce6 a6bd
000001a0: 1ddf 6fbd 95ca ab3b 97fa 563d cb89 3bbc
000001b0: 2726 1a3d 270c 533d 312c 243d 3e62 0b3d
000001c0: d127 6bbd 1b27 973d 7c4a 6e3d 17b7 48bc
000001d0: e7f6 4e3d ad6a 7d3d 98fe 7cbd 9a52 f43c
000001e0: 0a80 673b 8805 34bd 565f 253d d16c e13c
000001f0: 820e 27bd aca5 f73c 7f77 9d3b 0279 cf3c
00000200: fd97 04bd 2a4d 123c 13ac 09bc d71b ebba
00000210: 0840 c93c 83f8 cebd 449d eb3c 985f 963c
00000220: d53a 783d 5144 3c3d 571f 86bb df84 ca3d
00000230: 08c4 a4bc 165c 413d 6f7b 31bd 601a 683d
00000240: 79c7 dcbc e4ac d83b 063c f0bc d8b9 443b
00000250: 4ddc 03bd c9d1 cfbc 2821 5f3d 53c5 453d
00000260: 28bd 313d 4c22 1bbd 2124 2fbd 37f4 513d
00000270: 998f 45bc cc90 f2bc 219a 36bd 5e71 f9bc
00000280: f92b 3fbd e143 c33b 6320 483d 652c 2ebd
00000290: e93c b33c b5d4 d5bc ae26 edbc 0c65 5bbd
000002a0: a97b 163d 110d 8abd 079c 273d e8bd 2a3d
000002b0: de36 29bd 76f7 10bd 964a 303d 531b df3c
000002c0: a624 233c d9e2 58bd 4fb8 22bc 8923 6bba
000002d0: a93f 8dbd b1af 303c e7e3 48bd a546 063d
000002e0: cbcd 7a3d 0f4a cd3c e543 de3c 1266 433d
000002f0: 746c 2d3d fc7b 66bb 8611 17bd 09ba 493c
00000300: 5718 623d 2fd0 d33c 25b9 643d 8c75 89bd
00000310: cef8 3abd 1df9 893c 45d5 5a3d d411 b3bb
00000320: eb73 59bd bfc7 27bd 0cb4 63bd 83c0 273c
00000330: db6e 503d f50f 2bbd 394d 81bd fe1c d13d
00000340: d8f5 123d 4624 953c 9e27 603c c8b5 75bd
00000350: 8207 3abd 946a f73c a792 223d bd25 0a3a
00000360: 775e 2c3d abbd cd3c f6c9 863d 11da fe3c
00000370: ad83 2d3d b66f 69bc b2f4 663d f333 53bd
00000380: 3ebd debc 086e 193d 7692 793c 24c5 653d
00000390: c04a b13c c428 f23c 17f5 0abd 0181 55bd
000003a0: 59a1 3cbd 3ec9 fe3c 23db 3bbd 8105 123d
000003b0: 9d46 313d 6ecf 2a3c 0c96 383b dc26 733d
000003c0: 782a 10bd ea5d 99bd 8c8a 43bc c95e a33c
000003d0: 7f43 723a 93bd 3a3d e827 823c b9b6 153d
000003e0: d0c9 763d b1cc 793d 77af 523d 770b 88bd
000003f0: fd40 13bd 0880 253d 4baf 99bd 0b12 5e3c

action_model._discrete_distribution.branches.0.bias f4 [2]
0.02155212 -0.021552116
00000000: 128e b03c 108e b0bc

onnx::Div_70 f4 [11]
4.1183248 28707.662 4.1186066 0.26143712 0.0235693 0.49962932 28707.012 1.3115627
2490.486 2.0769129 0.48175928
00000000: 51c9 8340 5347 e046 a0cb 8340 16db 853e
00000010: 6814 c13c 6acf ff3e 0646 e046 49e1 a73f
00000020: c7a7 1b45 24ec 0440 27a9 f63e
