results/turret_train_4/TurretShoot/TurretShoot-499968.onnx (onnx, 287600 bytes, 11 tensors)

network_body.observation_encoder.processors.0.normalizer.running_mean f4 [11]
00000000: c401 b9bc 8730 eebb 087e 373d d5b2 12bc
00000010: 79d1 e93c 3545 cf3e 1ae7 a440 63f0 3dae
00000020: 38b4 acba 7023 3a2e 9d81 0f3f
-0.02258385 -0.0072689685 0.044797927 -0.00895377 0.028542267 0.40482488 5.1532106 -4.318713e-11
-0.0013176268 4.232298e-11 0.5605715

network_body._body_endoder.seq_layers.0.weight f4 [256, 11]
00000000: aaf8 a83e 7531 a23d 64c2 143e f9ed 713e
00000010: 2b40 18bd 8041 a9be 0ac9 8e3d d3e4 39bd
00000020: a1b6 04bf 6a91 96be fd6c d63b 385e f13e
00000030: 0720 86be 1cfc dfbc e9a0 f83c 0837 8b3e
00000040: bf20 a5be 08d1 9c3e 9b3b 013e 645b 1dbe
00000050: c85f 2bbe 0b87 2d3e 9096 34be c585 60bd
00000060: 37c1 673a 29c7 7c3e a632 2f3e 6b89 26be
00000070: dcb3 223f 16c5 ae3e 6f0d e6bd 612b 2ebd
00000080: d396 713e b5a4 8c3e 1503 4d3e dfb0 22bf
00000090: 1bc5 043f 2988 343e 3c21 b6bd 4d52 12bf
000000a0: 8f53 1d3f 185b 81bd 4f8d a6be ef55 bebd
000000b0: 38af 203d ca70 103f 61ea 50be 4ff7 99be
000000c0: e7c7 aa3e 6b92 c33e c69f b33e 5269 8b3e
000000d0: 8841 85be 398d 60be e7ff 573d 0dfc 08be
000000e0: d6ba 483e e6c9 633e 6c6d 843e 80f1 bf3e
000000f0: ea7a c93e c1aa 1f3f 803f 093e 9672 ee3d
00000100: ef89 81bd 2337 bdbe c76a 27bf 20e3 c93e
00000110: a1af e7bd a872 b63e b53a bb3e 280b 8d3d
00000120: 7676 093d ef29 f6bd bf21 0d3e f356 64be
00000130: 1622 da3e d2c7 81be d75b cc3e 0c8b 9abe
00000140: 945a 173f a8ca 593e 9001 823d 1ce0 97bc
00000150: 3188 1d3f d827 013e c80c d23e 68a1 f1be
00000160: e807 783e e86f d5be b0b8 c13e a4af e83e
00000170: caa1 973e 8530 98be 514f 0b3f 7401 09be
00000180: 5812 743e bfbc 5d3e f7a3 7b3e 4ae0 d03c
00000190: ea1e b23e 996e 943c 8728 92bc 860d 073e
000001a0: 4f78 713f c82f 33be 2fe8 a2be a08f 53bd
000001b0: 42a0 2abe d3de 0e3f 23f3 43be ef2b 2d3f
000001c0: a4e5 18be 94c7 183f 71d3 04bf 316d 9a3e
000001d0: 5e8a 56be 80d9 3e3e 9377 3d3e b8bb a93e
000001e0: 1fb0 f23e f420 4e3d f71f 023e 5ffc b43d
000001f0: aaea 153e 92a5 a4be d117 343e d415 a3bd
00000200: 1310 75be 6dbd 35be 81a3 da3e 7133 74be
00000210: 2d14 0a3e 930a 5bbe c386 d33e 9fae 55be
00000220: b60a 88be b4ea 2b3e 64fb cb3d b129 343b
00000230: 0f73 e7bd 3087 94bd 6423 6ebe fa9b b4bc
00000240: 41cf c6be ffad bd3e c011 113f 2077 67be
00000250: 5881 eb3e 1fed dabe b4a1 2b3e 90d6 80be
00000260: ade6 b5bd 15ca cebd 02b2 b7bd 75b0 31be
00000270: 3e67 893d 1d19 0d3d 81ab 0a3f 3931 48be
00000280: cc32 d23e 284e de3e f18e 763e b3ed 753e
00000290: 70c3 d2be 2d58 e63e 957f cf3e 400f 80be
000002a0: 4aea 04be 53b0 653d e2b9 9d3e 2061 513d
000002b0: 7ac6 f93d 57ee 0fbf e154 6fbd 6432 343e
000002c0: 1244 a2be e7c7 073e 88e0 b13e a85e 74be
000002d0: 110a 7f3e b39a 30bf c52d 45bf f9a4 043e
000002e0: 6960 c73e 90c1 ad3e f32c 71be 9ae6 3c3f
000002f0: f1be 2f3d 13dd 363c 3e77 993d f59d 283d
00000300: c6c4 42be 46f6 25bf 97af 61be c2bd 96be
00000310: 6e21 923e 3eb8 b53c f3fc 19bd bb13 dbbd
00000320: b43c a9bd f8e9 533e 8690 683e 178e 4bbf
00000330: a984 b93e 200c da3e 9f70 0dbf bba9 21be
00000340: 0966 f73c f5a3 6d3d b5bd 22be 1393 9d3d
00000350: d461 8dbe 4e01 85be d25e c5be 8d39 d73e
00000360: 92ca f3bc 8ba4 3b3e 593a 58bc 44f9 5f3e
00000370: a376 c7be 002b b6be f076 093e cded 69be
00000380: 97b0 c0be 8ff9 c93e 3355 e0be ff5c 5bbd
00000390: 7e39 54be 5f7f 2dbc 0ec7 053e 8085 e0be
000003a0: fc04 c5bd e5fd c6be 0deb be3e 36ed 20be
000003b0: 66cb aabc 017f e13c 1c3e 9dbd a5b0 d7bd
000003c0: e934 773d c4cd 96bd b0e7 b9bd efd8 05be
000003d0: f462 213f 2e66 67be 6678 833e b6a8 21bf
000003e0: 4385 1d3f f4c1 213e 812c ce3e d70e 663e
000003f0: 4982 593d 9ca4 5c3e 0728 debe f65e e13d
0.33002216 0.079195894 0.14527279 0.23625936 -0.03717057 -0.33057785 0.06971939 -0.04538424
-0.5184117 -0.29407817 0.006543754 0.47142196 -0.2619631 -0.027341895 0.030350165 0.27190423
-0.32251546 0.30628228 0.12620394 -0.15366894 -0.16735756 0.16946046 -0.1763556 -0.054815073
0.0008840742 0.24685349 0.17109165 -0.16263358 0.63555694 0.3413474 -0.11233031 -0.042521838
0.23592691 0.27469411 0.20020707 -0.63551134 0.5186326 0.17630066 -0.08893058 -0.5715683
0.61455625 -0.06316203 -0.32529685 -0.09293734 0.0392296 0.564221 -0.20401908 -0.30071494
0.33355638 0.38197646 0.35082835 0.2722879 -0.2602656 -0.21928872 0.052734282 -0.133774
0.19602522 0.22244987 0.25864732 0.37488937 0.39351588 0.62369925 0.1340313 0.11642949
-0.06325137 -0.36956128 -0.65397304 0.39431095 -0.113127954 0.3563435 0.36568227 0.068868935
0.03356024 -0.12019717 0.13782404 -0.22298793 0.4260413 -0.25347763 0.39913818 -0.3018421
0.59122586 0.21268713 0.06347954 -0.01853948 0.61535937 0.12612855 0.41025376 -0.47193456
0.24221766 -0.4168694 0.37836218 0.45446503 0.29615623 -0.29724517 0.544179 -0.1337946
0.23835123 0.21654032 0.24574266 0.025497574 0.3478921 0.018119143 -0.01784159 0.13188753
0.943242 -0.17498696 -0.31817767 -0.051650643 -0.16662696 0.5580875 -0.19135718 0.6764516
-0.14931351 0.5967953 -0.51885134 0.3016143 -0.2095122 0.18637657 0.18502645 0.3315103
0.47399995 0.050324395 0.12707506 0.088371985 0.14640298 -0.3215757 0.1758721 -0.07963148
-0.23931913 -0.17748041 0.4270287 -0.23847748 0.13484259 -0.21390752 0.41313753 -0.20867394
-0.26570672 0.16788751 0.09960058 0.002749067 -0.113012426 -0.072523475 -0.23255688 -0.022047032
-0.38829997 0.3704681 0.5666771 -0.22604036 0.4599712 -0.42759034 0.16760904 -0.25163698
-0.088818885 -0.10097138 -0.08969499 -0.1735247 0.06709145 0.034447778 0.54167944 -0.19550027
0.4105438 0.43419003 0.24077965 0.24016456 -0.41164732 0.44989148 0.40527025 -0.25011635
-0.12979999 0.05607636 0.3080588 0.051118016 0.121960595 -0.5622305 -0.058430556 0.17597347
-0.3169256 0.1325985 0.34741616 -0.23864233 0.24906184 -0.6898605 -0.77022964 0.12953557
0.38940743 0.3393674 -0.23552303 0.7378937 0.042906705 0.011161107 0.07493447 0.041166265
-0.19020376 -0.6482891 -0.22039638 -0.2944165 0.2854113 0.02218258 -0.037594747 -0.10697123
-0.08263531 0.20694721 0.22711381 -0.79513687 0.36234024 0.42587376 -0.5524997 -0.15787403
0.030200021 0.05801769 -0.1589268 0.07694068 -0.276137 -0.25977558 -0.38548905 0.42036095
-0.029759679 0.18324487 -0.013197505 0.21872431 -0.389577 -0.3557968 0.13424277 -0.2284462
-0.37634727 0.3944821 -0.43815002 -0.053555485 -0.20725057 -0.01058945 0.13064215 -0.43851852
-0.09620091 -0.3886558 0.37288705 -0.15715489 -0.020848941 0.02752638 -0.07677862 -0.10531739
0.060353193 -0.073634654 -0.09077394 -0.13071035 0.63041615 -0.22597572 0.25677794 -0.6314806
0.61531466 0.15796643 0.4026833 0.22466598 0.053102765 0.21547168 -0.43389913 0.110044405

network_body._body_endoder.seq_layers.0.bias f4 [256]
00000000: 790c 443c 9103 f43c b096 d33b c466 b63c
00000010: 3ea5 913c c492 f93c a447 ea3c cc05 4c3d
00000020: 7677 c6bc 40a4 923c 5517 aebb abf7 6bbb
00000030: df65 963c 9ff9 6f3c f902 a63c e0a4 ce3a
00000040: 79db ea3c c500 ef3c 00f1 303d 4559 b93c
00000050: 406a c53b e3a0 a13c 0608 cd3b 5a94 a13c
00000060: a8ac 993b 2e83 98bb 9747 7a3c 8492 223d
00000070: fa21 833c 5d36 e43c 57c4 1abc 1379 0c3d
00000080: 183d 443d 0b44 873c 4bf9 253d 2466 3d3d
00000090: 6b6a 1c3c e306 a23b d205 223d a431 9a3b
000000a0: 3168 4f3d 434f e93b 649a 9c3c 5443 de3b
000000b0: c5cd 313d 8c3a 0a3d f5ab 4dbb ff3b c03b
000000c0: 4e3a 2d3c 85bb a7b9 83f7 b23c 520f 2a3c
000000d0: 37c4 373c ecb2 023d 4ebc a2bb 5bb9 343d
000000e0: e74a 503d d012 603c aba8 a43c f7d4 2e3d
000000f0: d870 cc3c 4d90 4a3b 226b 953c c7e5 74bc
00000100: d60e 6f3c 0f37 79bb 1c0e 0c3c 9137 1d3d
00000110: 461d 0c3c d893 a63c 5792 bc3c 3e92 013d
00000120: 0826 843c b390 313d 29c3 2dbc d563 9d3c
00000130: 8e65 bfba b69d 543d df46 463c 7e46 683c
00000140: dc17 303d 586f e63c 2c7b 17bc 479a 153d
00000150: be49 143d 1ae4 9a3c 7b4e af3c a627 343d
00000160: 2abb 973c 1b8f 23bc ebc2 e33c 91c7 f83c
00000170: 626f 3a3d f0bb f03c 6a42 033d e976 d73c
00000180: 58c8 1f3d be11 79bc cc7f bfbb 4799 1f3d
00000190: 6884 863a 509e fc3c d3bf 833c 1ebc d83c
000001a0: 366d 233c 117a 573d 7a4b d93b 51aa 16bb
000001b0: d224 4e3d 3067 8a3c 7298 a53c ad49 f43c
000001c0: f84c fcbb 3fe2 54bc 1a84 e93c c74d 343d
000001d0: 2587 1f3d 7568 e83c a76c 303c 68c3 1e3d
000001e0: c58f c23c b947 1ebc 4167 593c ff93 d03c
000001f0: 65e5 673b 9e63 17bc a896 803c 3fb5 a83b
00000200: 881b 1a3d c425 98bc 4a2f 0a3a 24c4 163d
00000210: 2018 2f3c bbfe eb3c 33aa 9f3c 54be 003d
00000220: b0f3 f43b df7d b93c ed3b 89bb 69c1 2d3d
00000230: 895f b43c ea89 c53a d519 50bc 1759 a53c
00000240: 6c69 3c3d 3e7f 1c3d 00b7 d03c 560c 1c3d
00000250: f910 053d 700b 97bb 5660 1b3c 2b74 013d
00000260: 9e0e 943c a26c 453a a4e8 913c 47d2 3f3c
00000270: de88 ecbb 6723 2b3d 4167 6b3c 1eca b13c
00000280: 005a 0e3d 18fe cdb9 6e31 353c be6d b23c
00000290: 28b1 fc3c 4acd 3c3c 9008 1f3d a7e8 cc3c
000002a0: 5cc5 f43b 8372 40bc 5bc0 1a3d 0f6a bc3c
000002b0: b4fd 86bc 598e 203d f0f9 883c 01d3 dc3c
000002c0: 6a98 403d 6ecb a5bb 03f0 a6bc 2b13 a13c
000002d0: 4e4d 0abc 226c 1e3d 6ef2 043a 1b06 f13c
000002e0: 0523 423d b115 a03c 6ad4 2f3d 53c3 e33c
000002f0: 4d4c b23c bf53 a3bb 0ced 123d 9fbf 1d3c
00000300: 6c58 ee3c e5d7 223d 1fad 5fbc 1e6e 1f3d
00000310: f32b ccbc 6e55 d83c ee7d f93c cec1 6f3d
00000320: 7c8b 0b3c 5fa4 3e3d 6a05 6f3c 9740 19bc
00000330: a607 873c 57c9 073d bc6c af3c f1c6 343d
00000340: 2125 043c 50a6 1a3d ea85 f5bb 83f9 e13c
00000350: abd2 1a3b 5b19 263c 5813 be3c 6cb3 073d
00000360: 224b 8c3c f575 cdba c3fa 203d 805c 2c3d
00000370: c10a d33b 73ef d7bb 4a21 743c 49cd 293d
00000380: d42c d33c 1d0b 783c d94d c03c 5d98 a93b
00000390: dcd7 c53c a33b 063d cbc0 223d 964d 3d3c
000003a0: fb4c 423d 54b0 c23c 7ceb fb3c 6a27 a6bc
000003b0: 007b 63bb 2d33 1cbc 262e 253d 0c48 a13c
000003c0: 2918 243d 0ed8 f7ba 1698 ad3c c8f3 ea3c
000003d0: 7cf4 59bc 82c6 733b a5b6 50bb 448d 813c
000003e0: 52ae ad3c d9bc 543d a591 a83c 4bd3 083c
000003f0: e25d 173c 79cd a6bb 6d57 97ba e5f3 363c
0.011965864 0.029786857 0.0064571723 0.0222658 0.017778989 0.030465491 0.028598614 0.049810216
-0.024226885 0.017900586 -0.00531284 -0.0036005776 0.018359123 0.014646917 0.02026509 0.0015765689
0.028669106 0.029175172 0.043198586 0.022625575 0.006024629 0.019730037 0.00625706 0.01972406
0.0046897717 -0.0046543097 0.015275857 0.03969051 0.016007412 0.027857954 -0.009446225 0.034295153
0.047909826 0.016511938 0.040520947 0.046239987 0.009546856 0.0049446686 0.039556332 0.0047056247
0.050636474 0.0071200444 0.019116588 0.0067829285 0.043409128 0.03374724 -0.0031383012 0.005866527
0.010572983 -0.00031992435 0.021846538 0.010379629 0.011216215 0.031908914 -0.0049662953 0.04412208
0.050852682 0.01367636 0.020099958 0.042683568 0.024956152 0.0030908764 0.018239561 -0.014947361
0.0145909395 -0.0038027202 0.008548286 0.03838307 0.008551901 0.02033417 0.023018999 0.031633608
0.016131416 0.043350887 -0.010605612 0.019212643 -0.0014602409 0.051908217 0.012101858 0.014176963
0.042991504 0.028129265 -0.009245675 0.036524083 0.03620314 0.018907595 0.021399727 0.043983124
0.018521864 -0.0099828495 0.027802905 0.030368598 0.04551638 0.02938649 0.03204576 0.026301818
0.039009422 -0.015201984 -0.005844092 0.038964536 0.0010262849 0.030837208 0.01608268 0.026456889
0.009974768 0.052606646 0.006631312 -0.00229897 0.050328083 0.016894907 0.020214293 0.029820288
-0.007699605 -0.012993394 0.028505374 0.044019487 0.038947243 0.028370121 0.010768092 0.038760573
0.023750195 -0.009660655 0.013269247 0.025461195 0.0035384533 -0.009240059 0.015696838 0.0051485593
0.037623912 -0.018572696 0.0005271329 0.036808148 0.010686904 0.028807988 0.019490337 0.03143151
0.007475339 0.022643028 -0.004188052 0.04242078 0.022018211 0.0015071009 -0.012701471 0.020184083
0.045998976 0.038207285 0.025477886 0.038097702 0.03248689 -0.0046095178 0.0094834175 0.031604927
0.018073376 0.0007531141 0.017811127 0.011707849 -0.0072184643 0.04178181 0.014367879 0.021702822
0.0347538 -0.00039289962 0.011059148 0.021780845 0.030846193 0.011523554 0.038826525 0.025013281
0.007469816 -0.011746052 0.0377811 0.022999791 -0.016478397 0.039198253 0.016720742 0.026956083
0.047020353 -0.005059651 -0.020378118 0.01966246 -0.008441282 0.038677342 0.0005071525 0.029421857
0.04739668 0.019541593 0.042927183 0.027803099 0.021764899 -0.0049843485 0.035870597 0.009628206
0.029094897 0.039756674 -0.013652115 0.038923375 -0.0249233 0.026407924 0.030455556 0.058534436
0.008517142 0.046543475 0.014588693 -0.009353778 0.01648314 0.033150997 0.021414153 0.044135038
0.008065493 0.037756264 -0.0074927704 0.027584797 0.0023624103 0.010137881 0.023202583 0.033130094
0.01712567 -0.0015675413 0.039301645 0.042080402 0.006440491 -0.006589824 0.014900515 0.04145554
0.025778212 0.015139368 0.02347462 0.005175634 0.024150781 0.032771718 0.039734643 0.011554142
0.047436696 0.02376572 0.030751936 -0.020282466 -0.0034710765 -0.009533686 0.040327214 0.019687675
0.040062103 -0.0018908994 0.021190684 0.028680697 -0.0133029185 0.0037197177 -0.0031847146 0.015814431
0.021201286 0.05193791 0.020577261 0.008351157 0.009238692 -0.005090412 -0.0011546441 0.011166547

network_body._body_endoder.seq_layers.2.weight f4 [256, 256]
00000000: 21da 43bd 1d89 34bd 6838 6c3d 56ff 833d
00000010: b501 2fbe 48eb 133e 730a b3bd 4b4e 3a3a
00000020: 1943 19bb 7cad 1abd d648 26bd ee85 7a3d
00000030: 5945 8b3d 6e89 31bd dd98 7dbd f2f5 b2bd
00000040: 11c3 5e3d 7cb8 a4bd 6b46 203c c851 993d
00000050: 2362 203e 103a 67bd 285c 1c3d 0696 e93a
00000060: 94a5 373d b93e 7cbd b9f4 e8bd 5325 a33c
00000070: db6e dbbd e4c6 57bd 9e53 afbd 52ab ab3d
00000080: d68d 4fbc ae87 18bd 9057 d4bd b8e6 4abc
00000090: 13b0 b23c 2da6 d9bb 6fa8 fabc bfd4 41bc
000000a0: db94 02bd 10bd b33d 3eb4 ea3d 5843 b43c
000000b0: 781e e5bb 7aa9 35bd 5dd4 b0bd a473 f1bb
000000c0: d2be e03a 9c2c 523d 4178 873d 35d0 4fbd
000000d0: fa04 323d 0e2f e73b e64d 82bc 89d5 98bc
000000e0: bb7b 043d e81f ddbc 2144 54bc 3c0c 503d
000000f0: a476 eabc e4a6 0b3c 4435 7abd 560b 12bc
00000100: dc8d 9a3b 0f58 0a3d f523 6f3d eed0 48bc
00000110: 2761 b8bc 1ff6 debd 2ac5 a43c df4a d23d
00000120: ce85 8dbd 96cb dd3c 23bb f83c 022c febc
00000130: 3b2d bf3d 4328 af3c fabb c3bc 88db d8bd
00000140: 5e29 e73c c2c1 6c3d 1ae8 d13c e299 95bc
00000150: d8d1 183d 8c46 203d be6f 7bbd d092 c8ba
00000160: f2b6 a3bc 14fb 1abd 9f23 dcbd c206 523d
00000170: 5d27 243c e9cf 5e3d 2ae6 dabc 870a a93c
00000180: cf8e 95bd fdbc db3d cd96 e8bc 9fc8 f73c
00000190: f68f adbd f616 063d c997 06bd 01c6 8b3b
000001a0: 6d4e 31bd a2ce 73bd 157b be3d c6de 343b
000001b0: 9357 06be 2a9f 0a3d b92b 20bd de3e d1bc
000001c0: 1975 9c3c 4312 a63c 10e0 14bd a8dc 123e
000001d0: a1d5 bbbd bd44 f33d 0a58 d8bc 1657 1bbd
000001e0: 35b1 0fbd 2c09 85bd 151c 1e3e 2816 953c
000001f0: b82d 5f3d 64b5 25be d8d5 d5bd 0d95 1abd
00000200: 3e15 a93c 62ff ab3d 2d43 173c 0a50 223d
00000210: 47f7 cebc f7e9 1abe 7b90 01bd c68d f3bd
00000220: fa7a 0ebd 14b0 683c 370e 55bd 032c c5bd
00000230: 6953 cfbc a586 e6bc 92fc 4d3c 202c 85bc
00000240: 6051 79bd da67 04be 8c08 b6bc 9bab d8bd
00000250: d46f d4bd 1168 683c 0456 613c b1d3 a2bc
00000260: bdf0 e2bc 211b 4f3d 8d2a 1abc 2d96 4d3d
00000270: bddd 6ebd 452c 2fbd 093a ee3d be4d 463c
00000280: b2bb 8e3c 80d6 20bd 7a57 87bc 9dd7 bebd
00000290: 18c4 2d3d 4099 24bd 8768 c63d 1a8e 1a3b
000002a0: a55a 9ebd 34e8 0ebc 3bcf 04bb a49a 0b3d
000002b0: 68ca d3bd f774 e2bc c093 863c 110e 17be
000002c0: 6531 d3bc b6ef 973d 5c3a 123c d832 7f3c
000002d0: aae8 41bd 75e3 29bd e988 933c 9eaa b0bd
000002e0: b98a 083d 3cbf 2bbc 1145 02bd 6f7b 9b3d
000002f0: a5fe 703d cde4 a7bc fefc 54bd 442f f73c
00000300: 4853 6bbd 4c8a 89bd 55eb 1d3d 2100 94bd
00000310: e15b 193d dfc4 3bbc 6657 a63c 0397 d2bd
00000320: 7b35 e0bc a8fc bbbc 6889 e9bc 7868 d43d
00000330: 57b4 a43c e47f ce3c 6724 53bd f397 d03d
00000340: 27d9 96bc 4215 8dbd 5dda 45bd cc21 93bc
00000350: 0b8f cfbc a16b 8f3c ee44 c5bd 4d8f 083d
00000360: b160 883d cc7f edbc ab53 e13c 959a 8d3d
00000370: 4004 973d d7ee 9f3d a7b5 ca3d ad58 953d
00000380: f4a2 f9bc 2c90 5abd 5ca8 d13c c427 dd3a
00000390: 762b d7bd 2e8c 023c 7f70 ff3a 974b 70bd
000003a0: 596a 9b3d ffde ba3d 2a76 9c3d 5e19 f43c
000003b0: fcb9 40bc 8a55 94bd 8059 96bd e79a 38bd
000003c0: 63aa 823c 5929 0f3d b901 26be f79e 06bc
000003d0: a127 0a3d 14e0 233d 5b83 383c 9c83 edbb
000003e0: 3179 d1bd 5888 80bd 3cf7 573c 2e6b 0a3d
000003f0: 83ef b53c 851a cabd 2428 7ebc e4ab c03d
-0.047815446 -0.044076074 0.05767098 0.06445186 -0.17090495 0.14445221 -0.087422274 0.00071070035
-0.002338594 -0.037763104 -0.040596806 0.06116288 0.068003364 -0.043343954 -0.06191336 -0.087383166
0.05438525 -0.08043 0.009782414 0.07486302 0.15662436 -0.056451857 0.038173825 0.00178212
0.044835642 -0.061583254 -0.11374802 0.019915259 -0.107145034 -0.05267991 -0.085608706 0.08382286
-0.012668094 -0.03723877 -0.10368264 -0.012384109 0.021812474 -0.006642124 -0.030597894 -0.011830508
-0.03188024 0.08776295 0.1146016 0.022004768 -0.0069921575 -0.04435108 -0.08634255 -0.0073685218
0.0017146713 0.051312074 0.066147335 -0.05073567 0.043461777 0.00705517 -0.015906285 -0.018656509
0.03234456 -0.026992753 -0.012955696 0.050792918 -0.028621025 0.008523677 -0.061085954 -0.0089138355
0.004716618 0.033775385 0.0583839 -0.012256844 -0.022507263 -0.108867876 0.020113546 0.10268187
-0.06910287 0.027074616 0.030362671 -0.031026844 0.09334799 0.021381503 -0.023893345 -0.10588747
0.028217968 0.05780197 0.02562337 -0.018261854 0.037309498 0.03912978 -0.061385863 -0.0015302543
-0.019984696 -0.037837103 -0.10748982 0.051275976 0.010019151 0.054397497 -0.026721079 0.020634903
-0.07302629 0.10729406 -0.02839222 0.03024703 -0.08474724 0.03273674 -0.032859597 0.0042655473
-0.043287683 -0.059523232 0.0930082 0.0027598604 -0.13119344 0.033843197 -0.039104197 -0.025542673
0.019098805 0.02027238 -0.036346495 0.14341986 -0.09171606 0.11878345 -0.026409168 -0.03792485
-0.035081107 -0.0649589 0.154404 0.018199041 0.05448696 -0.16182476 -0.10441178 -0.037739802
0.020640012 0.0839832 0.009232325 0.039627112 -0.025264395 -0.15128313 -0.031631928 -0.118922755
-0.03478525 0.014202137 -0.05201551 -0.09627535 -0.025308328 -0.028140375 0.0125724245 -0.016256392
-0.06086862 -0.12930241 -0.022220872 -0.10579606 -0.10372892 0.014184968 0.013753418 -0.019876333
-0.027702684 0.05056298 -0.009409559 0.050192047 -0.058316935 -0.042766828 0.11632163 0.012103496
0.017423484 -0.039267063 -0.016521204 -0.09318469 0.042423338 -0.040185213 0.09687906 0.0023583234
-0.07732133 -0.008722354 -0.002026512 0.034083024 -0.1034134 -0.027643664 0.016427875 -0.1475146
-0.02578039 0.07418768 0.008925047 0.015576087 -0.047341026 -0.041476686 0.01800962 -0.08626293
0.03333542 -0.010482606 -0.031804148 0.075919025 0.058836598 -0.020494843 -0.051999085 0.030173905
-0.05745247 -0.06715831 0.03855451 -0.07226587 0.03744114 -0.011460512 0.020305347 -0.102827094
-0.027369251 -0.022947624 -0.028507903 0.10371488 0.020105524 0.025207467 -0.051548388 0.10185232
-0.018414093 -0.0688882 -0.04830395 -0.017960452 -0.025336763 0.017507376 -0.09632288 0.033339787
0.066590674 -0.028991602 0.027505716 0.0691425 0.073738575 0.07809227 0.09897929 0.07292304
-0.03047321 -0.05336015 0.025592975 0.0016872813 -0.105063364 0.007967992 0.0019488483 -0.058665838
0.075886436 0.091245644 0.076397255 0.029797252 -0.011763092 -0.07242878 -0.073412895 -0.0450696
0.015950387 0.03495154 -0.16211595 -0.008216611 0.0337292 0.04000862 0.011261786 -0.007248355
-0.102281936 -0.062760055 0.013181504 0.03379362 0.022208935 -0.098683394 -0.0155125 0.094077855

network_body._body_endoder.seq_layers.2.bias f4 [256]
00000000: 1126 c5ba cc56 013d cc51 c63c bd4b 3f3c
00000010: 26ca 8bbc 318a 6c3b 0fd8 d23c a9ba 81bb
00000020: 2158 c23c 4b89 0d3c eb55 df3c fc02 42ba
00000030: 4a31 a03b f69d 89bb 2b30 8fbb 7820 dd3c
00000040: b2b2 173d bd08 0a3d 8b6a 80bb f60d c43a
00000050: 63a4 d83c 77d0 a13b 12e7 3e3b 1b83 44bc
00000060: 5bb3 c9ba 20e3 a93c 28a7 b13c e671 013d
00000070: ee5c 033d dc85 833c 4c1b 893c 8a07 2d3d
00000080: d3bc cabb 565d a33c ecef 6f3c 5989 d83c
00000090: b45f 28bc c6af ea38 b693 503c 8951 033d
000000a0: 96aa 4cbb 940d 1d3d e56a e9bc 796a 863c
000000b0: 4e5e 3e3b e501 173d 310a 443b 9ef8 0cbc
000000c0: b42b d23c 45e8 483c 9725 b53c 931d 213a
000000d0: c5e3 033d 6329 2b3c 63cf 823b a36d bb3b
000000e0: e4f5 d43c d5c5 b53c 72a5 02bb be25 653c
000000f0: 52d4 533b a3ec 0a3b 1f9e e03c eb9c 37bc
00000100: c21d d0bb 33d5 e23b 71b2 553c d099 703c
00000110: 4a28 5b3c bbc9 7e3c c3cd bc3b c12e 303b
00000120: eb42 ae3c 7eac 773c e19c 8b3c fe19 903c
00000130: 139d 833b 15f5 dcbb 1637 cb39 a2d9 353c
00000140: c752 50bb 8a39 c03c a76b e23c 7d05 2abc
00000150: c015 76bc d70a d53c e246 3839 9ff8 713c
00000160: b868 1bbb e238 013c b120 b9bb 8915 8f3a
00000170: 67cb 4c3d 165e d33b f5b4 033d d533 233d
00000180: e881 643c 6697 a53c 4be4 473b f6db cdba
00000190: 388f d83c 7412 e13c 41ca f03c 6e41 133b
000001a0: c2b3 90bb 7e29 463c 4a54 2d3d 4a32 81bc
000001b0: 4792 2b3d eff7 223d 1ed7 4ebb 3ad5 363d
000001c0: 2b33 673b a5fe a93c 3db3 153d 2475 aa3b
000001d0: 2261 e53c 11ae 303d 3fc5 d03b 4a73 213c
000001e0: c9b3 d33b 3682 0fba 4d74 fb3c 7185 7739
000001f0: 8fed 1cbb 8135 0a3d e92e 0e3c 0c83 953c
00000200: 5b4a f03b 9804 6b3c df28 b43c bcae 093c
00000210: 3229 b03c 9146 a039 3429 053b 1f6a d03c
00000220: ca37 d03c e744 8b3c 424b 163d 07f0 573b
00000230: 6fb9 a03c 6e3a 203c 79df 1fbb e0ed d03c
00000240: addb 813b 9c42 213d a531 0d3b 0a8b aabc
00000250: 7ec8 94bb 018b 373b c5f4 8b3c 5db3 2a3c
00000260: a3c9 083d 303e fabc 80af 953a 77c5 813c
00000270: b0d7 d23b 453f c3bb 1806 acbc b53c 1239
00000280: 562b 723b 94be 8abc c22c 033d 2a1b 183c
00000290: db09 e33b 2fc1 173c ad06 023c 63ed 663b
000002a0: edc7 c73c f870 4fbc 484f 0e3d 9951 8c3c
000002b0: 9d47 933b 37af c3bc 92a0 c63c 8730 bd3c
000002c0: 0b41 1b3c 3b3b a53a fa97 a33c 1b63 b83c
000002d0: 4930 afbb 6a87 9e3c 4d3b 67bb 6921 063c
000002e0: 4724 fc3c e722 fe3c 5a80 3b3b 647f 173d
000002f0: 9bee de3c e9d1 a63c 9e68 f3bb 0769 343c
00000300: 1dbb bd3c a02e 403c 0b4f 283d 8b59 aa3a
00000310: 0655 71bc 11b5 0f3c 1d76 943c f146 7bbb
00000320: e475 373c 4f54 a4bc 3bb6 45ba 49a7 4a3c
00000330: af34 123d 3fe9 223b feb6 4ebb b45f 613b
00000340: abb3 073d 195a 7e3c bb32 933b af34 98bc
00000350: 75b7 0dbc c5a6 403c 15ee d63c 8e3b a23b
00000360: 6772 103d bb31 91bb 70d3 bf3c 9b68 f63c
00000370: 3045 0f3c 8668 ccbb 5b83 fb3c cfc6 ad3c
00000380: 11b3 193b 3ae2 ff3c fc4d 903b f9dc b23c
00000390: 3046 7b3c 8b01 ba3c 61fb 78bb 7f80 babc
000003a0: 964b 8fbb e405 173d 2891 be3b 466d c13c
000003b0: 27c3 563c 1c7c 673c 8e26 c1bb e0ca d93c
000003c0: a6d7 8d3c 714e 50bb da78 df39 d732 ca3c
000003d0: 7a77 d23b 9593 e43c 93df a53b f4bd a73c
000003e0: effb 013d 2133 343d 133b a53c 9120 dbba
000003f0: 98e0 03bd e840 a13c 42ff 373a 6830 963c
-0.0015041252 0.031576917 0.024208926 0.011675772 -0.017064165 0.003609311 0.02573779 -0.003959019
0.023723664 0.00863869 0.027262649 -0.00074009574 0.004888688 -0.0041997386 -0.0043697557 0.026993021
0.03703565 0.03369974 -0.003918951 0.0014957774 0.026445573 0.004938181 0.0029129428 -0.011994149
-0.0015388535 0.020738184 0.021686152 0.031602763 0.032071047 0.01605504 0.016736649 0.042243518
-0.0061870604 0.019941967 0.014644604 0.02643268 -0.010276724 0.0001119073 0.0127305295 0.03206018
-0.0031229607 0.038343027 -0.028493354 0.016408192 0.002904791 0.03686704 0.00299133 -0.008604197
0.025655605 0.012262409 0.02211265 0.00061460695 0.03219964 0.010446879 0.0039920076 0.005719857
0.025996156 0.02218906 -0.001993504 0.013986049 0.0032322598 0.0021198175 0.027419148 -0.011206846
-0.0063512037 0.006922388 0.013043032 0.014685109 0.013376305 0.015551026 0.0057618334 0.0026883336
0.021272143 0.015116809 0.01704258 0.017590519 0.0040165274 -0.0067430832 0.0003876022 0.011099251
-0.003178762 0.023464937 0.027639223 -0.010377285 -0.015019834 0.026006145 0.00017574013 0.014768749
-0.002371354 0.007887097 -0.005649649 0.0010916452 0.049998667 0.006450425 0.032154996 0.039844353
0.013946988 0.020213794 0.0030501063 -0.0015705812 0.02643548 0.02747462 0.029393317 0.002246942
-0.00441596 0.012094853 0.042316712 -0.01577105 0.041887548 0.03978723 -0.0031561325 0.044636942
0.0035278301 0.020751307 0.036547888 0.0052019525 0.028000418 0.043134753 0.00637117 0.009854147
0.006460641 -0.000547442 0.030695105 0.00023605466 -0.0023945307 0.03374243 0.008678176 0.018250965
0.0073330826 0.014344357 0.021992145 0.008403476 0.021504018 0.00030570154 0.0020318748 0.025441227
0.025417227 0.017000629 0.036692865 0.0032949464 0.019619672 0.009779556 -0.0024394675 0.025504053
0.003962955 0.039370164 0.0021544483 -0.020818252 -0.004540502 0.0028006437 0.017084489 0.01041874
0.03339542 -0.030547231 0.0011420101 0.015841229 0.0064344034 -0.00595847 -0.020999 0.0001394626
0.00369521 -0.016936578 0.032025106 0.00928382 0.006928665 0.009262367 0.007936162 0.0035236708
0.024387324 -0.012661211 0.034743577 0.017128753 0.004494621 -0.02388726 0.024246488 0.023094429
0.009475957 0.0012606153 0.019969929 0.022508195 -0.005346332 0.01935168 -0.0035283149 0.008186677
0.030779017 0.031022502 0.002861044 0.036986724 0.027213385 0.020363765 -0.007428243 0.011011369
0.023160512 0.011729866 0.041091006 0.0012996657 -0.014729744 0.008771197 0.018122727 -0.0038341845
0.011197541 -0.020059733 -0.0007542108 0.012368985 0.035694774 0.0024858264 -0.0031542177 0.003438932
0.03313033 0.015524411 0.0044921315 -0.018579809 -0.008649697 0.011758511 0.026236573 0.004950947
0.035265353 -0.004430977 0.023416251 0.030079177 0.008744523 -0.006238046 0.030702284 0.021212963
0.002345268 0.031235803 0.0044038277 0.021833884 0.015336558 0.022705814 -0.003799163 -0.02276635
-0.004373024 0.036870852 0.005815644 0.023611676 0.013108051 0.014128711 -0.0058944887 0.026585996
0.017314743 -0.0031785036 0.00042623916 0.024682445 0.006422934 0.027902404 0.0050620525 0.020476319
0.031734403 0.043994073 0.02016977 -0.001671808 -0.03219661 0.01968427 0.00070189324 0.018333629

action_model._continuous_distribution.log_sigma f4 [1, 2]
00000000: 39cd fabd ea75 31bd
-0.12246174 -0.043325342

action_model._continuous_distribution.mu.weight f4 [2, 256]
00000000: 5691 4b3d baa4 46bb 7737 6fbd 3dfb c3bc
00000010: afe9 2a3b 08f3 88bb 5201 c7bb 30f4 6a3c
00000020: 498b 4fbd 177c 8e3c 9e80 67bc 2f76 95bb
00000030: 2fd2 6cbd 60a5 0f3c a50f 583d ff6e 313d
00000040: fa89 24bd 570d a7bd db5e f33c d0ca 583d
00000050: e518 c1ba cf32 32bd a7e9 4dbc acb8 003d
00000060: 9185 42bc 0a99 53bd e4db a93d 7c5d b63b
00000070: 4f31 0d3d 0d92 98bc 5a53 b83c 8a1f a0bc
00000080: 17fe cebb ad39 86bd 177d e1bc 2504 cc3c
00000090: 9940 433c d06b a1bc 173e fbbc ce7b 0f3d
000000a0: dcc3 e83c 216a 15bd 7d27 073c ad7d 7cbd
000000b0: 9957 4c3d 8ec4 b63c 9e7a e8ba c858 d33c
000000c0: db74 0cbd b024 0cb8 ea46 0fbd f4f9 383c
000000d0: cdc6 78bd 834f 26bd a459 803d 1f96 b5bb
000000e0: 7080 ba3c 886d 3fbd a648 e53c ec5e e7bc
000000f0: 3482 06bd e73d 5a3c f981 8e3c 1211 bfbc
00000100: eda4 5e3d 2aa0 1c3c 734d 46bc b836 4e3b
00000110: 74ce d63c b330 1abd d620 cb3c 7e12 3bbc
00000120: b09e debc 3b9f 1dbd db5a e83c 7831 abbc
00000130: 9617 6abc 55fb dd3b 2d0f 1d3d 94bd cdbc
00000140: bd58 92bc 0843 7c3c f818 1bbd dc33 9abc
00000150: 7430 a83c 28ee 103d 5687 f7bb 0c99 963c
00000160: 8130 b63b 80f7 02bc 1963 ef3c 3450 593c
00000170: 312d 42bd 0b99 233d 5e43 473d ef32 30bb
00000180: ce52 3cbd ab04 723d bc6a e2bc 6511 b0bc
00000190: 3233 1bbd bc75 dbbc d97d bdbc 734f f6bb
000001a0: b42b ea3b dd82 ac3c 750a 1abc 0171 fbba
000001b0: 5c2d 0fbd 99d6 3ebc 6a14 b2ba 245c 57bd
000001c0: f6a9 7abd abaa fd3b d5cd 9a3c 35ce c4bc
000001d0: 81e1 b6bc 820d 5fbc a531 f2bb bcea 89bc
000001e0: 1092 16bc f924 753c ab44 5b3d 5159 c8bc
000001f0: aee5 d8bc 7bae e7bc 6420 85bb 471a ffbb
00000200: 2c8b a53d 0862 293d 5262 363d a0c9 4fbd
00000210: ee7b 53bc be18 3bbc 82d9 193b 5dbb ddbc
00000220: 308a a8bc 33c2 b23c 4b4a 52bd d945 4b3a
00000230: d5fe 25bd 44f3 743c 5079 453c acf0 bc3b
00000240: b99c 0dbc e2e2 79bd b797 b8bc ec76 223d
00000250: 799c f43b b041 b43c 42e9 babc 0b43 e93c
00000260: aea5 a1bc b97c ad3c 2bae 103c c8f7 803d
00000270: 9fc3 38bc 0514 6fbc a4d3 13bc 7b82 103d
00000280: 2036 93bc d366 1e3d 1324 a13b 8dc2 23bd
00000290: 0476 2f3d 6a89 d2bc fbd3 8cbb 84c6 a4bc
000002a0: b630 d3bc ce04 123d fc56 fcbc 0075 933c
000002b0: 47e9 90bc da34 913c b4ff 03bb 0c66 753d
000002c0: af65 813d 6d66 803d 78e2 20bc 4b33 23bd
000002d0: 02a1 d73c c438 4e3d 9a54 813d 696b 723c
000002e0: b52b c1bc cee3 e53c 6aff 423d e7a9 92bc
000002f0: 9926 853a 136a 4bbd 36f3 33bb 54bb 3c3d
00000300: 32c1 253c 5468 dbbc 0ee9 1d3d 97ae 6fbb
00000310: 91f0 c0bc b25b 51bc c5b3 16bd f327 9bbc
00000320: 4324 1ebd 44cb 683c c389 ca3d d93d 03bc
00000330: c1cc 09bc 4d45 673c 7a39 673d b98e 153b
00000340: 8748 ffbc e53d 01bd a260 0fbd b209 893b
00000350: 23b4 ae3c 9f64 2f3d 53ba 8a3c 4029 f53b
00000360: 57b6 22bb b2e6 39bd 496d ec3c e23e dd3c
00000370: bb72 d43c 88cc 0e3d 66f5 4dbd 6d1a 90bd
00000380: 6c4c 81bb 8678 ce3b d1fa e43c f99c 1a3d
00000390: 05af 09bd 97a8 6cbc 643c 20bd 1039 9b3c
000003a0: 0254 65bb 12b3 30bd 9801 b8ba ff97 0c3d
000003b0: 9d72 0b3d 9500 933c e296 973c 827f 2f3c
000003c0: 8bba 1fbd af1c 0c3c 1e99 883b 7f73 a1bc
000003d0: 00fd 3c3d 5ef5 ecbb 4239 0d3d cf3a 013d
000003e0: b692 bd3b 673e 8cbc 56a1 b23c 3c9e b9ba
000003f0: fd0b c73c 7698 f6bc 254c e93b e0de 7bbd
0.04969915 -0.0030310587 -0.058402505 -0.02392351 0.0026079228 -0.004179362 -0.0060731554 0.014340445
-0.050669942 0.017393155 -0.014129786 -0.0045612077 -0.057817634 0.008767456 0.052749295 0.043318745
-0.040170647 -0.08156841 0.029708317 0.052927792 -0.0014732151 -0.043505486 -0.012567914 0.031426117
-0.011872665 -0.05165962 0.08293894 0.0055653434 0.034470852 -0.01862433 0.022500683 -0.019546289
-0.006316911 -0.065539695 -0.027525468 0.02490432 0.011917257 -0.01970473 -0.030669255 0.03503018
0.028413706 -0.036478166 0.008249161 -0.06164329 0.049888227 0.022310521 -0.0017736738 0.02579917
-0.03429113 -3.341277e-05 -0.03497974 0.011290062 -0.060736466 -0.040603172 0.062670976 -0.0055415775
0.022766322 -0.046735317 0.027988743 -0.028243504 -0.032839015 0.013320423 0.01739596 -0.02332357
0.054356504 0.00955967 -0.012103426 0.003146572 0.026221491 -0.0376441 0.02479593 -0.011417983
-0.027175277 -0.038481932 0.028363636 -0.020897612 -0.01428785 0.006774346 0.03834455 -0.025114812
-0.01786458 0.015396841 -0.03786561 -0.018823557 0.020530917 0.035383373 -0.007553975 0.018383525
0.0055599813 -0.007993579 0.029222058 0.013263751 -0.04740638 0.039940875 0.04864823 -0.0026885828
-0.045977406 0.059086483 -0.027638786 -0.02149267 -0.03789062 -0.026789539 -0.023131298 -0.0075167953
0.007146323 0.021058494 -0.009401907 -0.0019183458 -0.034955367 -0.011647844 -0.0013586406 -0.052578107
-0.061197244 0.0077412925 0.018896976 -0.024024108 -0.022324326 -0.01361406 -0.007391172 -0.016835563
-0.009190097 0.014962428 0.053532284 -0.024456652 -0.026476707 -0.028281441 -0.004062699 -0.007785115
0.080831856 0.041353256 0.04452736 -0.050729394 -0.012907965 -0.011419473 0.0023475592 -0.02706688
-0.020573705 0.021821117 -0.051340383 0.00077542436 -0.04052623 0.014950577 0.012052849 0.005765995
-0.008643323 -0.061007388 -0.02253328 0.039664194 0.007464942 0.022003978 -0.022816304 0.028474351
-0.019732323 0.021177636 0.008830587 0.062972605 -0.011277108 -0.014592175 -0.009022627 0.035280686
-0.017970145 0.03867228 0.0049176305 -0.03998046 0.042837158 -0.02570029 -0.004297731 -0.02011419
-0.025780063 0.035649113 -0.030803196 0.018000126 -0.01768936 0.017725397 -0.0020141425 0.059911773
0.06318223 0.06269536 -0.009819619 -0.03984384 0.026321892 0.050347105 0.063149646 0.014796116
-0.023580411 0.028062727 0.047606863 -0.017903281 0.0010158598 -0.049661707 -0.0027458197 0.046077088
0.010116862 -0.026783146 0.038552336 -0.003657257 -0.023552211 -0.0127782095 -0.036792535 -0.018939948
-0.0386088 0.014208619 0.09889557 -0.008010351 -0.008410634 0.014115644 0.0564513 0.0022820665
-0.031162513 -0.031553168 -0.035004266 0.004182064 0.02132613 0.04282057 0.01693455 0.007481724
-0.0024827921 -0.045386024 0.028860705 0.027007524 0.025933614 0.034863025 -0.05028286 -0.0703629
-0.003945878 0.0063009886 0.02795163 0.037747357 -0.033614177 -0.014444492 -0.039120093 0.018948108
-0.00349927 -0.043139525 -0.0014038561 0.034324642 0.03404485 0.017944613 0.018504564 0.010711553
-0.03899626 0.008551761 0.0041686436 -0.019708393 0.046139717 -0.0072313985 0.034478433 0.031550225
0.0057853116 -0.0171196 0.021805447 -0.0014161537 0.024297709 -0.030101996 0.007119673 -0.061491847

action_model._continuous_distribution.mu.bias f4 [2]
00000000: 0e90 a8bb 2ab6 2b3b
-0.005144126 0.0026201108

action_model._discrete_distribution.branches.0.weight f4 [2, 256]
00000000: 833f 2c3c 9a19 2d3d 6c6b b03c 01a8 923b
00000010: c348 cebb cb0b 67bc 26bd e23c a0b2 d0bc
00000020: c261 94bc 5408 56bc 53d3 f23c 3341 85bc
00000030: f8bf 89bc c006 dcbc 7a45 2cbd df7a 8c3c
00000040: d508 ea3c a00d ab3b 1f2e a8bc c72b 3c3c
00000050: c981 1b3d cc43 89bc 2c99 f7bc b091 22bd
00000060: 3c6d 55bd 24f5 abb7 cf50 0f3b 12e9 283d
00000070: 7055 143d b62e 47bc 841b b23b 19b1 123d
00000080: 2603 0e3c 0913 e1b9 b8c0 92bc 97a3 073d
00000090: 6236 cabc 7bd5 abbc 403e 613c b460 c33c
000000a0: 2339 8ebc fe71 253d b0e6 a9bc b69a a73c
000000b0: 2199 c6bc 1f01 1b3d 8265 52b9 427c b3bc
000000c0: 1746 b7b9 c58c b0bc 438e 6bbc ccf2 62bb
000000d0: 6a30 b23c 3c97 07bd 998f 1c3b 70cd dfbc
000000e0: 981b 1a3d c1f8 8a3b fe0c f7bb c69f 243c
000000f0: 33e6 9abc d78c 8ebc 1ff3 183d 76c7 febb
00000100: 0c86 7bbc 7f9c a93c e181 f13b b8ac 923c
00000110: 883d dd3c f027 3aba c6af 103d 8039 80bc
00000120: fdcb c83c 9a59 2abc 4908 003d e78e febb
00000130: cd0b b0bb 30ad 3bbd 0b72 1b3c 019d d9bc
00000140: caae d0b8 6b77 193d d8de 0d3a aafa 123c
00000150: 3de5 9abc 6385 e43c 63e6 45bd 6805 9a3c
00000160: 7ddb 2f3b 22d6 b5bc 9aa0 0abd da0a edbc
00000170: 54f5 f53c 4fe0 08bd a4bc e63c 695c 2e3d
00000180: a280 a03b 1921 a13c 32ff 213c 89bd 47bd
00000190: ce41 943c 757a 0d3d 4bef 893c 4d70 08bd
000001a0: 8459 e0bc 4306 3b3b ac82 093d 2db3 dc3a
000001b0: 0dfa 013d b1cd 0f3d 2458 713c 3956 f33c
000001c0: 2949 19bd 6317 2f3d 5321 063d 50ee 13bb
000001d0: 584a f13c 0de2 0d3d 6c76 dbbc 78cc db3b
000001e0: 1809 db3b e19a abbc 4c4e 053d d080 493c
000001f0: d2d6 8fbc 1c3e 763c 40b2 7d3a a8f6 413c
00000200: b10d 39bb b15d 093c 7cdd 233b da05 2abc
00000210: ecd6 2e3c 0bc8 3cbd 57f7 a93c a825 533c
00000220: 045d f33c cecd 003d 24ff b93b 756a bf3c
00000230: cb2f eebb a0fb b53c 4a8d efbc 01d4 193d
00000240: 46f0 32bc db07 243b ad50 afbc a806 8ebb
00000250: 778f a3bb a03f a7bb f826 ff3c c274 e53c
00000260: 76af ed3c b71a d6bc ea2e 89bc 8ae7 143d
00000270: e752 16bc 73ed 81bc fe2c a8bc daab 7bbc
00000280: 4f44 a0bc 5a4e 51bb 5ce6 153d 5869 afbc
00000290: 7142 ac3c 6ce7 82bc 7f39 0ebc 13ec 0abd
000002a0: daa3 c33c cc14 d5bc 0447 bc3c 607c bb3c
000002b0: 4f29 c7bc c37f 37bb 5449 de3c 09e1 af3c
000002c0: 2a1f 113c d0b0 c9bc 4644 55bb 240d 373b
000002d0: fc3e 0fbd 1d6d 8b3c 8805 b8bc ed65 ae3c
000002e0: b54c f03c 8124 973c 0d78 bd3c eee3 e83c
000002f0: c62b d93c f541 923a 0e2f cebc 9600 dd3b
00000300: 13f9 043d 846e d73c 3c2b 183d 99ef f9bc
00000310: b263 a0bc 7031 203b ef8d 0f3d 4f7a 1f3a
00000320: e3db c5bc bd2c 8bbc e8ba abbc 74a2 063c
00000330: 7ed8 033d 8bc8 bdbc 62e8 21bd f487 153d
00000340: a9f4 a33c 567e a23c a57f ff3b 9bd5 8ebc
00000350: 31d8 d8bc 41cd 803c 4dda f03c a24d bd3a
00000360: 7701 d23c 3fc0 053c 5214 073d d677 813c
00000370: 8d35 e33c b920 1dbb 70eb 283d 88b7 f6bc
00000380: 6395 47bc 172d f63c ecdd 933a b8de 083d
00000390: a888 1c3c 3214 043c 3b95 b3bb 6745 80bc
000003a0: cdcc a8bc 9736 893c 48db c5bc 75a3 b03c
000003b0: b009 aa3c e77b 023b 2c40 5dbb 00c8 253d
000003c0: 648c a7bc 3ba2 05bd 9f5a 2ebc 8ffe 4a3c
000003d0: 38bc 4b3c 7ec3 f63c 1bbd 233c 290c d23c
000003e0: 64e1 1a3d ac54 153d 8595 bf3c eb90 f1bc
000003f0: 1a70 82bc c0e9 f03c 722f f0bc b8d6 8c3c
0.010513189 0.042260744 0.021535598 0.004475594 -0.006295295 -0.014101933 0.027678084 -0.0254758
-0.01811302 -0.013063509 0.029641783 -0.016266441 -0.01681517 -0.026858687 -0.042058446 0.017148433
0.028568665 0.00522013 -0.020529805 0.011485047 0.03796557 -0.01675596 -0.030224405 -0.03968972
-0.052106127 -2.0498941e-05 0.0021868234 0.0412379 0.036214292 -0.012157133 0.005435409 0.035813425
0.008667743 -0.00042929527 -0.017914161 0.033114996 -0.024684135 -0.020975819 0.013747752 0.023849823
-0.01736123 0.040391915 -0.020739883 0.020459514 -0.02424294 0.037842866 -0.00020064975 -0.021909837
-0.000349567 -0.0215515 -0.01437718 -0.0034629581 0.021751601 -0.033103213 0.0023889302 -0.02731964
0.03762397 0.0042410796 -0.0075393906 0.010047859 -0.018908596 -0.017401142 0.037341233 -0.0077752424
-0.0153517835 0.020704506 0.007370219 0.017904624 0.02700688 -0.0007101288 0.03532388 -0.015652418
0.024511332 -0.010397339 0.0312579 -0.0077685 -0.0053725005 -0.04581946 0.009487639 -0.026564123
-9.95077e-05 0.0374674 0.00054119295 0.008970896 -0.018908137 0.027895635 -0.048315417 0.018801406
0.0026833706 -0.022196833 -0.033844568 -0.028935838 0.030024208 -0.033417042 0.028166123 0.042568598
0.0048981467 0.019669103 0.009887503 -0.04876474 0.018097784 0.034540612 0.016837737 -0.033310223
-0.027386434 0.0028537668 0.033571884 0.0016838067 0.031732608 0.035108272 0.014730487 0.0297042
-0.037423287 0.042746913 0.032746624 -0.0022572465 0.029454395 0.034639407 -0.026789866 0.006707724
0.0066844337 -0.020947875 0.032545373 0.012298778 -0.017558489 0.0150294565 0.00096777454 0.011838593
-0.002823692 0.008384154 0.002500384 -0.010377372 0.010671359 -0.046089213 0.020747824 0.012887396
0.02970744 0.03144627 0.005676167 0.023366192 -0.007268881 0.02221471 -0.029242177 0.0375557
-0.010921543 0.0025029096 -0.021400774 -0.0043342896 -0.0049914676 -0.0051040202 0.031146511 0.028009776
0.02901433 -0.026135786 -0.016746003 0.036353625 -0.009175039 -0.015860295 -0.020529266 -0.015360797
-0.019563822 -0.003193757 0.03659664 -0.021412537 0.021027775 -0.015979491 -0.0086807 -0.033916544
0.023881841 -0.026010893 0.022983082 0.022886455 -0.02431169 -0.0027999736 0.027134575 0.02146961
0.008857528 -0.024620444 -0.0032541915 0.0027931416 -0.034972176 0.017019803 -0.022463575 0.021288836
0.029333452 0.018450024 0.023128534 0.028428998 0.02651013 0.0011158573 -0.025168922 0.0067444546
0.0324641 0.026297815 0.037150607 -0.030509757 -0.019578788 0.002444353 0.035047468 0.0006083594
-0.024152702 -0.016989106 -0.020963147 0.008217443 0.032188885 -0.023166915 -0.03952826 0.036506608
0.020014124 0.019835632 0.007797199 -0.01743584 -0.026470276 0.015722873 0.029400969 0.0014442692
0.025635464 0.008163511 0.032978363 0.015804213 0.027735496 -0.0023975803 0.041240156 -0.030116811
-0.012181613 0.030050797 0.0011281348 0.033415526 0.009554066 0.008061456 -0.005480436 -0.015658094
-0.02060547 0.016749663 -0.024152413 0.021562317 0.020756572 0.0019910277 -0.0033760173 0.040473938
-0.020452686 -0.03262542 -0.010641723 0.012389793 0.012435012 0.030122515 0.009993817 0.025640564
0.037812606 0.036457703 0.023386726 -0.029488048 -0.015922595 0.029408336 -0.029319499 0.01719223

action_model._discrete_distribution.branches.0.bias f4 [2]
00000000: 43c4 963c 45c4 96bc
0.018404132 -0.018404135

onnx::Div_70 f4 [11]
00000000: 5963 7340 d917 5e3b b1c0 7140 0183 793e
00000010: dac0 de3c 0252 fb3e 78e6 bc3f 9a5e b93a
00000020: 708b 713c 9a5e b93a 8e5b f43e
3.8029387 0.0033888726 3.777386 0.2436638 0.027191568 0.49086004 1.4757833 0.0014142573
0.014742717 0.0014142573 0.477261
