turretresults/turret_train_2/TurretShoot/TurretShoot-50920.pt (torch, 24163 bytes, 30 tensors)

network_body._body_endoder.seq_layers.0.weight f4 [20, 11]
000000 46 b7 30 ba 59 d3 30 3f 86 40 14 be e9 c3 f6 bd
       -0.0006741177 0.6907249 -0.14477739 -0.12049086
000010 2e fb d5 bd d9 fb 3f 3f a6 44 c8 3c 6e ef 9b be
       -0.10448299 0.74993664 0.024446797 -0.30456108
000020 dd b9 28 3f bd 6d 20 be 0e c1 bb 3c f4 0b 28 3e
       0.65908605 -0.15666862 0.022919204 0.1641081
000030 c4 09 9d 3e 95 a5 36 bc 61 cf 93 be 49 c5 41 bd
       0.30671513 -0.011147876 -0.28869155 -0.047307286
000040 63 62 83 3f 3e 59 56 3e 2f f8 1d 3f c4 27 46 be
       1.02644 0.2093248 0.61706823 -0.19351107
000050 cc ef ca 3e 0d 6e 20 3f ce 3f 48 3e f4 87 91 be
       0.39636075 0.62667924 0.1955559 -0.28424037
000060 0a 23 1d 3f ca dd 6c 3d b8 79 13 3c bd 32 04 bf
       0.6138159 0.057828702 0.009001188 -0.5163992
000070 73 20 e7 3e 63 71 97 be dc 93 7c be 97 9b 72 3d
       0.45141944 -0.29578695 -0.24665779 0.059230413
000080 dd 6a 16 3f 5a b1 bd 3d bb 2e b3 be 71 d7 95 be
       0.5875681 0.09262343 -0.3499659 -0.2926593
000090 6f 9e 9b bb 90 dc 8a be e0 e4 bb 3f e4 6a 48 3e
       -0.0047491114 -0.271214 1.4679222 0.19572026
0000a0 50 20 46 3d 40 79 94 be 58 1e d5 3b 00 81 8c 3e
       0.04837066 -0.28998756 0.0065038614 0.2744217
0000b0 20 62 96 bd 5f 4e 0c bf 93 25 b0 3c e9 4d a4 3c
       -0.073429346 -0.54807085 0.021502292 0.020056682
0000c0 da 1d c9 be 1a 92 7d 3f 52 66 11 3d 6a 2f 8b 3d
       -0.39280587 0.9905106 0.03549797 0.06796153
0000d0 10 23 ab be 7e cf 33 be c6 5d af be 03 34 c1 3e
       -0.33425188 -0.1755962 -0.3425123 0.37734994
0000e0 a6 d7 34 ba fc db 8a be 94 14 c7 3e 94 a3 86 3e
       -0.0006898589 -0.2712096 0.38882887 0.26296675
0000f0 8e 04 0a 3f 2e e3 c1 3e db d3 23 3e b3 8c 96 be
       0.539132 0.37868637 0.15998785 -0.2940422
000100 c1 7f 9d be ca f6 49 3e 87 e6 b4 bd 90 4b fe be
       -0.3076153 0.19723049 -0.08833032 -0.49667025
000110 07 18 cd bd 43 af ea be 9f bb 05 3f 2f 0a 82 be
       -0.100143485 -0.4583684 0.5223941 -0.25398394
000120 e1 24 a3 3e 3e b7 be be 1f 61 02 3b c8 83 c1 3c
       0.31864074 -0.37249178 0.0019894314 0.023622409
000130 03 2d f1 3d 04 30 c9 be 10 98 55 be 56 bd 84 3e
       0.117761634 -0.39294446 -0.20858788 0.25925702
000140 8c c2 1e 3e 40 9d b9 bd 29 b6 64 bf aa d9 81 3e
       0.15503901 -0.09063196 -0.89340454 0.25361377
000150 ed 0b 6a 3e 34 49 04 3f 11 8a c0 bc 3b 79 04 3e
       0.22856112 0.516742 -0.023503335 0.12936871
000160 be f9 f2 3d e2 68 b0 bd 0e f1 6f be 44 15 35 be
       0.11864041 -0.08613755 -0.23431799 -0.17683893
000170 b4 d5 30 3e 9b c9 6d 3e 92 4e 92 3e 50 91 00 3f
       0.17269021 0.23221438 0.2857557 0.5022173
000180 cc c6 55 3e 13 6b b0 3e 50 c7 a9 bd bc ad 59 3e
       0.20876616 0.3445669 -0.08289969 0.2125768
000190 5f e8 6d be 00 43 97 3d 4d e9 31 bf 4d a2 ba 3d
       -0.23233174 0.07385826 -0.69496614 0.09112988
0001a0 4e 46 69 3f 9a ea b7 3e aa 48 fe bc 85 d1 b5 be
       0.911229 0.35921174 -0.031040508 -0.35511413
0001b0 4b f8 be 3e 96 f5 83 be 4b 5f d3 be 14 0c 4a 3f
       0.37298808 -0.25773305 -0.4128364 0.7892468
0001c0 af bd 22 3e 4c a9 f0 3e 58 85 a6 bd e8 d2 c2 bd
       0.15892671 0.47004163 -0.08130902 -0.095128834
0001d0 36 45 10 3f 5b cb 54 be 1e e7 c0 bc 78 15 4f 3e
       0.5635561 -0.20780699 -0.023547705 0.20223033
0001e0 36 1e 13 3e bc d6 49 be 44 f3 a0 be cc 00 d4 3d
       0.14366993 -0.19710821 -0.31435597 0.103517145
0001f0 8d 40 cc 3e 14 19 ba bd 46 ba ca be a2 12 0e bf
       0.39892998 -0.090868145 -0.3959524 -0.5549718
000200 e1 c6 ff be b1 b3 51 be 9c c2 15 3f 6a c2 7f be
       -0.4995642 -0.20478703 0.58500075 -0.24976507
000210 df 96 72 be 98 8f 9b 3e 4c b5 bc 3e af e7 3a bb
       -0.23690365 0.3038299 0.3685707 -0.0028519442
000220 c6 7d 0c be 66 e0 49 3f 0c a6 5b be f6 9d 03 3e
       -0.13719854 0.7885803 -0.2145006 0.12853226
000230 f2 6d c3 3e ce 3f b2 be f3 18 99 3e f5 b6 02 bf
       0.3816982 -0.34814304 0.29901847 -0.5106042
000240 02 5b 39 be 26 1b 25 be 64 75 7d be ad 98 49 3e
       -0.18101123 -0.16123638 -0.24751812 0.19687147
000250 39 6e cb bd 53 09 b2 3c df 7c 9c be 5b be f7 3e
       -0.09933133 0.021732962 -0.3056402 0.48387417
000260 c3 c4 eb bd 61 ed 8a be 8f d9 9f 3e be 8f dd 3d
       -0.11512139 -0.2713423 0.31220672 0.10818432
000270 2e 90 57 be e6 b5 82 be 1f ce d8 be 72 2c 65 3f
       -0.21051094 -0.25529402 -0.42344758 0.89520943
000280 34 65 da 3e 43 13 57 be cb 17 a8 3e e7 d3 96 bd
       0.42655337 -0.21003442 0.32830653 -0.07364636
000290 4a fc 54 be 64 c6 3b bd 51 7f 8f be 30 7c 84 3e
       -0.20799366 -0.045843497 -0.28026822 0.25875998
0002a0 db 8c b3 bc a4 e0 ae bd 82 4d 64 3f ac 4c 5d bd
       -0.021917751 -0.085389405 0.8918077 -0.054028198
0002b0 9d a4 11 bf 4e 1d 00 be 27 a8 2d 3e 4a 2f 1b 3f
       -0.56891805 -0.12511179 0.16958676 0.6061903
0002c0 37 4a 29 be 4b 35 31 bd a4 72 e8 3e f5 37 2f 3e
       -0.16532217 -0.043263715 0.45399964 0.1711119
0002d0 08 6a 05 3e 1f 2b c7 be e4 00 8d 3e a0 4b 79 3b
       0.13028729 -0.38900086 0.27539742 0.003803946
0002e0 b0 59 25 3f 1c ec 8b be 32 96 c3 be 3c 58 6c be
       0.6458998 -0.27328575 -0.38200527 -0.23080534
0002f0 57 8f fc bc d9 1a a2 3e 21 01 44 3d de 04 6c 3e
       -0.030830069 0.31661108 0.04785264 0.23048732
000300 e9 6f bf be fa 6a 01 3d 60 83 c4 bd 45 91 3d be
       -0.37390068 0.03159616 -0.0959537 -0.18512447
000310 07 ea b3 3d 87 20 8a 3e 18 84 9a be 92 90 06 bf
       0.087848715 0.2697794 -0.30178905 -0.52564347
000320 b0 2a f3 bd b4 2f 9e 3e 15 16 49 bd 60 f4 a5 3d
       -0.11873376 0.3089577 -0.049093325 0.081032515
000330 8a 22 6a bd a6 42 06 3f 35 b2 2f bd 2a 0d 3c 3e
       -0.057161845 0.5244545 -0.04289456 0.18364397
000340 55 42 9c 3e 96 0a 3c be 86 9c 11 bf 27 69 74 bd
       0.30519357 -0.18363413 -0.5687946 -0.059670594
000350 94 98 c6 3d 6f ad 0e bf cb fc 7d 3f 8a 35 a4 bd
       0.09697071 -0.5573339 0.99213856 -0.08018024
000360 9c 5f 20 3e 63 b3 e2 bb e9 ae 8d 3e 8a f2 83 be
       0.15661472 -0.006918357 0.27672508 -0.2577098

network_body._body_endoder.seq_layers.0.bias f4 [20]
000000 1a ce c4 3d b3 9a 93 3d 4d 36 dd 3d d6 d4 39 3d
       0.09609623 0.07207241 0.10801373 0.04536899
000010 6b 23 97 3d 07 46 ac bc 99 5d a8 3d 6a 63 02 3e
       0.07379802 -0.021029485 0.08220977 0.12733236
000020 f5 13 32 bd 09 0d 83 bc 88 4b a5 3d dc 25 27 3d
       -0.043476064 -0.015997427 0.08071047 0.04080759
000030 33 d8 52 3d 2b 41 d0 3d 8f 60 cb 3c 2d 9b 3b 3e
       0.051475715 0.1016868 0.024826316 0.18320914
000040 dc 72 e2 3d 60 96 b4 3d a6 89 8e 3c d1 9b 9b 3d
       0.11057064 0.08817744 0.01739962 0.07598079

action_model._continuous_distribution.log_sigma f4 [1, 2]
000000 fa 83 5c 3d 75 3e 7f 3c
       0.0538368 0.015578856

action_model._continuous_distribution.mu.weight f4 [2, 20]
000000 91 40 84 bd ad 22 da 3c b8 dd 95 3d b3 79 8d bd
       -0.064576276 0.026627863 0.0731768 -0.06907978
000010 b6 fb ae bd cb 79 d0 bd d0 1f 02 3e 08 bb 1d bd
       -0.08544104 -0.1017948 0.12707448 -0.038508445
000020 90 30 db 3a d3 f7 2b bb 25 3d af bc bf ae 6a bd
       0.0016722847 -0.0026240244 -0.02139146 -0.057295557
000030 08 a0 2d bd 40 7d 1f 3d ba 98 c0 3b 76 88 cc 3c
       -0.042388946 0.038937807 0.0058775814 0.024967413
000040 5d 6b 27 bc be bf ca 3d 0d e9 91 3d a6 94 ff 3c
       -0.0102184685 0.09899853 0.07124529 0.03119881
000050 25 99 10 bc dc 5e 4c 3c 07 ec 46 3d 33 c8 7d bb
       -0.008825575 0.012473788 0.048564937 -0.0038724064
000060 0d 4b a4 3c 26 d5 8a bd 06 e6 26 bc 7f 03 df bc
       0.020055318 -0.06778936 -0.010186678 -0.027223347
000070 e4 61 a5 3d 5c 35 ee 3c 87 2d 0d 3d 50 67 18 bc
       0.08075312 0.029078178 0.034467246 -0.009301975
000080 0a da cb 3c b9 53 8b bd 9c a9 3c bc 30 4e 0b 3d
       0.024884243 -0.06803078 -0.011515047 0.034010112
000090 1b e1 f4 bc 14 52 93 bd 3a 48 78 bd af ac 5e 3d
       -0.029892495 -0.071933895 -0.060615756 0.054363903

action_model._continuous_distribution.mu.bias f4 [2]
000000 ea fb 8c 3c 1e 72 38 bc
       0.017209966 -0.011257676

action_model._discrete_distribution.branches.0.weight f4 [2, 20]
000000 66 f7 b9 be 0b b7 f3 be 6c d2 32 3e fa aa db be
       -0.36321563 -0.47600588 0.17463082 -0.42903882
000010 5a e3 f5 be b2 07 9c be 35 94 f9 3d 08 12 80 3e
       -0.48025018 -0.3047462 0.121864714 0.25013757
000020 76 7a b0 bc f4 c1 81 be f1 c9 d3 3d fa 84 1d be
       -0.021542769 -0.25343287 0.10341252 -0.15382758
000030 7b 95 d9 be f6 5d e5 3d 93 08 f9 be 99 66 b7 be
       -0.42496857 0.11199562 -0.48639354 -0.35820463
000040 9c c4 45 3e fa 27 49 3e eb 87 7c 3c 50 56 09 bf
       0.19313282 0.19644156 0.015413265 -0.5364733
000050 63 67 a1 3e 16 d2 eb 3e d0 3c 7e be f3 45 cb 3e
       0.3152419 0.4605872 -0.24827886 0.39701805
000060 be 56 01 3f 49 40 aa 3e ad 74 13 be 35 7f 7c be
       0.50522983 0.3325217 -0.14399977 -0.246579
000070 0c 9b 47 3b 7f fa 83 3e 5c f8 e5 bd 6e 37 14 3e
       0.0030457405 0.2577705 -0.112290114 0.1447427
000080 1f 09 ea 3e 5d a9 ff bd c2 8e ea 3e 3f 20 c3 3e
       0.45710084 -0.12483475 0.4581204 0.3811054
000090 a1 36 12 be 1c 81 1d be 89 f4 51 bd d0 8b fb 3e
       -0.14278652 -0.15381283 -0.051258598 0.49130106

action_model._discrete_distribution.branches.0.bias f4 [2]
000000 37 e1 f4 3d 3b e1 f4 bd
       0.11957019 -0.11957022

exp_avg f4 [20, 11]
000000 7a af 8f 3b a6 57 dc 36 00 00 00 00 c6 e7 b7 b9
       0.004384932 6.5667145e-06 0.0 -0.00035077165
000010 a6 8a 9e 36 bc 0c 2e ba 85 af 8f bb 3c 8e 1e a7
       4.7249077e-06 -0.0006639471 -0.004384937 -2.200401e-15
000020 c6 dc 08 31 27 d9 b1 26 0c 12 ec b9 79 8b 1c 3b
       1.99161e-09 1.2340701e-15 -0.00045026874 0.0023886843
000030 e0 f3 6f 36 00 00 00 00 76 bb ed b9 3d 12 71 38
       3.575573e-06 0.0 -0.00045343832 5.7475863e-05
000040 f1 aa ca b9 7f 8b 1c bb 8c cd 12 28 66 24 04 31
       -0.00038655804 -0.0023886857 8.149199e-15 1.9229218e-09
000050 09 4b 69 a6 97 17 f9 b9 e8 5e d5 bb 74 9f 23 b7
       -8.0939806e-16 -0.00047510557 -0.006511558 -9.752683e-06
000060 00 00 00 00 c3 53 fe 39 79 2b 50 38 c2 f4 05 3a
       0.0 0.00048509063 4.963155e-05 0.0005110019
000070 fa 5e d5 3b 8e 11 51 27 49 b9 12 30 f7 d2 7a a7
       0.006511566 2.9014093e-15 5.3377797e-10 -3.4808834e-15
000080 c5 8e 34 3a d0 9b ca 3b 36 58 1b 37 00 00 00 00
       0.00068877294 0.006183125 9.259258e-06 0.0
000090 4e f6 0f ba 08 66 54 37 fa 4e 74 ba e3 9b ca bb
       -0.00054917193 1.2659941e-05 -0.000931963 -0.006183134
0000a0 d8 ee 8a a7 a1 d7 5e 31 0d e1 c7 26 2d 16 19 ba
       -3.856165e-15 3.2427823e-09 1.3869399e-15 -0.0005839791
0000b0 b2 48 e3 3b e3 41 2e 37 00 00 00 00 87 0b 2b ba
       0.006936156 1.0386549e-05 0.0 -0.000652485
0000c0 d6 32 27 38 4b a2 94 ba bf 48 e3 bb 1f b0 9a a7
       3.9863247e-05 -0.0011339871 -0.0069361622 -4.2934537e-15
0000d0 00 f1 ac 31 e4 a4 0b 26 7a 63 03 ba 0c 01 d1 3b
       5.0332574e-09 4.844878e-16 -0.00050120766 0.0063782986
0000e0 74 47 20 37 00 00 00 00 aa ab d9 b9 70 6a 39 b8
       9.55338e-06 0.0 -0.00041517365 -4.4206565e-05
0000f0 d3 f2 1b ba 1e 01 d1 bb 27 cd 07 a7 fd 9d 36 b0
       -0.00059489644 -0.006378307 -1.8846227e-15 -6.643573e-10
000100 4e 95 87 27 80 a6 35 ba 9b 2e ae bb 8a 8f 05 b7
       3.7631904e-15 -0.00069294125 -0.0053156144 -7.960838e-06
000110 00 00 00 00 63 b2 5e 39 b9 b9 3e 38 93 29 8c 3a
       0.0 0.00021238024 4.5472498e-05 0.0010693542
000120 a9 2e ae 3b c0 59 ae 28 f2 38 b3 b1 92 5b 82 a6
       0.005315621 1.9356803e-14 -5.2160596e-09 -9.045382e-16
000130 28 26 32 39 8a a1 96 b9 ba c7 e5 b4 00 00 00 00
       0.00016989617 -0.00028730585 -4.2799894e-07 0.0
000140 5a 45 cd 39 a1 54 b9 b8 45 e1 0b 39 7a a1 96 39
       0.00039152318 -8.837251e-05 0.00013339992 0.0002873054
000150 2e a8 fa a7 66 d9 0b b1 06 f5 2d 27 75 e2 89 36
       -6.957128e-15 -2.0350739e-09 2.41414e-15 4.1092812e-06
000160 9b 34 1d bb fe 33 71 b6 00 00 00 00 c0 55 12 39
       -0.0023987654 -3.5942062e-06 0.0 0.0001395559
000170 e2 2b 68 38 f2 6e 8f b9 a8 34 1d 3b 6f b6 fb a7
       5.535398e-05 -0.00027357746 0.0023987684 -6.986429e-15
000180 24 ab a2 31 b6 ac 78 a7 86 8c 03 3a dd 84 93 3a
       4.734277e-09 -3.451054e-15 0.0005018193 0.0011254806
000190 9f 06 e2 35 00 00 00 00 97 a7 79 b9 9d 98 4b 38
       1.6840239e-06 0.0 -0.00023808923 4.8541104e-05
0001a0 6a 8c d0 b9 e4 84 93 ba 01 42 08 a6 25 57 3e 31
       -0.00039777468 -0.0011254814 -4.727393e-16 2.7698175e-09
0001b0 20 b2 91 a6 9a a2 65 b8 e8 f4 ec ba 89 b5 35 b6
       -1.0109677e-15 -5.474929e-05 -0.0018078359 -2.707677e-06
0001c0 00 00 00 00 ad cb 8e 39 05 00 f3 b5 33 3e 1d b9
       0.0 0.000272361 -1.8104917e-06 -0.00014995858
0001d0 f9 f4 ec 3a 1f d4 1d a8 72 ca 29 31 2c d3 c1 a6
       0.0018078379 -8.761247e-15 2.4707814e-09 -1.3449303e-15
0001e0 56 6e c0 39 eb 79 83 b9 88 9f c9 b4 00 00 00 00
       0.000367033 -0.00025077103 -3.7555242e-07 0.0
0001f0 a4 3a 53 37 e9 5d cd 35 e1 ac 48 38 f4 79 83 39
       1.2590233e-05 1.5301022e-06 4.7844722e-05 0.0002507713
000200 8c ff 0d 26 74 9e 2f af 6a e4 e0 a4 61 64 ec 37
       4.926553e-16 -1.5972451e-10 -9.753146e-17 2.8180135e-05
000210 2a a6 85 3b da ea cc 36 00 00 00 00 7d 5d d3 b9
       0.004078646 6.107014e-06 0.0 -0.0004031471
000220 54 12 0f 38 80 d9 4e ba 33 a6 85 bb bc 26 38 a7
       3.4110926e-05 -0.00078906864 -0.0040786504 -2.5556128e-15
000230 99 82 8f 31 6c b7 d4 a5 05 5a d4 b9 0a eb 5d 39
       4.176695e-09 -3.690043e-16 -0.0004050286 0.00021163761
000240 31 57 ab 34 00 00 00 00 86 3d 49 38 8e 5c 69 b8
       3.1914672e-07 0.0 4.7979433e-05 -5.5637727e-05
000250 1a 29 34 3a fc ea 5d b9 70 93 58 28 44 da ee b1
       0.00068725797 -0.00021163741 1.2022379e-14 -6.9515256e-09
000260 70 6c 87 27 17 4b d8 b9 0e 75 75 3b c5 2a bc 36
       3.7587595e-15 -0.00041254677 0.0037453803 5.6078156e-06
000270 00 00 00 00 46 0a 1c ba 1a e5 66 38 0f 63 d9 b9
       0.0 -0.00059524586 5.504964e-05 -0.0004146327
000280 23 75 75 bb c9 00 ca 27 45 86 e3 2f f2 5e 35 26
       -0.0037453852 5.6067114e-15 4.1386464e-10 6.2925665e-16
000290 56 96 ce b9 4a 19 b5 3a 13 bf 0a 36 00 00 00 00
       -0.0003940339 0.0013816741 2.0674822e-06 0.0
0002a0 79 6b a6 b9 46 63 70 38 73 42 b9 b9 4c 19 b5 ba
       -0.0003174206 5.7312915e-05 -0.00035335458 -0.0013816743
0002b0 a1 31 94 27 cd 93 57 31 83 3c 08 a7 7a b4 77 b9
       4.113206e-15 3.1370633e-09 -1.8906595e-15 -0.00023622988
0002c0 f8 bc 6f b9 e4 e1 b6 b4 00 00 00 00 82 ce 7d 39
       -0.00022863213 -3.40645e-07 0.0 0.0002420489
0002d0 ee d6 80 b8 a0 76 7b 39 d3 bc 6f 39 59 1d 8e a6
       -6.1435494e-05 0.00023981417 0.00022863159 -9.861184e-16
0002e0 20 30 38 b1 0b 1d 1c 27 35 2d b8 b8 45 f3 e0 ba
       -2.680288e-09 2.1665093e-15 -8.782224e-05 -0.0017162344
0002f0 f7 58 2c b6 00 00 00 00 53 fd ff 38 ff d3 01 b8
       -2.5681782e-06 0.0 0.00012206533 -3.0953433e-05
000300 ee 4f 8b 3a 53 f3 e0 3a 47 be b8 28 41 c9 11 b2
       0.0010628679 0.001716236 2.0510623e-14 -8.485871e-09
000310 89 c6 59 27 18 05 ba b9 a8 c6 3e b9 04 99 91 b4
       3.0222426e-15 -0.0003548048 -0.00018193817 -2.7119688e-07
000320 00 00 00 00 ea ea c5 b8 a6 5e 75 b7 e5 8d 43 3a
       0.0 -9.437448e-05 -1.4625175e-05 0.00074598036
000330 d5 c6 3e 39 ea 0f 98 28 83 79 e5 b1 ae bc 43 27
       0.00018193883 1.6882292e-14 -6.6785915e-09 2.716397e-15
000340 97 20 cd b9 e0 49 2d 3b 7b c7 84 36 00 00 00 00
       -0.00039124928 0.0026441738 3.957129e-06 0.0
000350 73 01 20 ba 83 d7 e4 38 25 27 11 ba e9 49 2d bb
       -0.00061037316 0.000109120294 -0.0005537144 -0.002644176
000360 07 b2 2d 27 e9 da 90 31 a5 a5 26 a7 f8 14 4b b8
       2.4105082e-15 4.215839e-09 -2.3126924e-15 -4.84185e-05

exp_avg_sq f4 [20, 11]
000000 cc 5a 5a 3a b4 d1 02 31 00 00 00 00 4c f4 a3 35
       0.000832957 1.9036692e-09 0.0 1.2215546e-06
000010 c2 78 67 33 97 1b 54 37 e4 5a 5a 3a dd 06 44 1e
       5.3893707e-08 1.2642608e-05 0.0008329584 1.0377573e-20
000020 c9 77 74 31 68 e4 ca 1c ed 77 9c 37 9e 94 60 3b
       3.5574763e-09 1.342628e-21 1.8652494e-05 0.003426827
000030 5d 8e 06 32 00 00 00 00 c3 89 a5 36 d6 60 83 34
       7.832196e-09 0.0 4.9334208e-06 2.447111e-07
000040 9b c5 59 38 ce 94 60 3b 8d 7a 50 1f 39 38 6d 32
       5.1920866e-05 0.0034268382 4.4147085e-20 1.3807999e-08
000050 5b 74 0c 1e ce 20 b8 38 b0 cd c0 3a b0 c9 63 31
       7.4356e-21 8.779914e-05 0.0014709737 3.3147494e-09
000060 00 00 00 00 8e b5 16 36 94 39 f6 33 9a bd 92 37
       0.0 2.245742e-06 1.1465741e-07 1.7492846e-05
000070 ce cd c0 3a ef 1e 9d 1e d4 e0 c9 31 1e 2b 73 1d
       0.0014709772 1.6635815e-20 5.87543e-09 3.2183073e-21
000080 6c 44 fd 37 43 22 57 3b 2f 18 01 32 00 00 00 00
       3.0191812e-05 0.0032826818 7.514287e-09 0.0
000090 45 12 95 36 fc bb 80 34 be 3b 61 38 67 22 57 3b
       4.442673e-06 2.3978635e-07 5.369982e-05 0.0032826902
0000a0 6b 77 4b 1f ed 2c 95 32 b9 55 18 1e 68 b4 97 38
       4.3085702e-20 1.7366313e-08 8.06454e-21 7.2338444e-05
0000b0 d1 4e 3e 3b 00 ce e6 31 00 00 00 00 9a f6 76 36
       0.0029038677 6.7173005e-09 0.0 3.6800398e-06
0000c0 5c 38 62 34 1d 9b 57 38 f7 4e 3e 3b 75 c1 2f 1f
       2.1068394e-07 5.1404455e-05 0.0029038766 3.7217715e-20
0000d0 38 12 a0 32 f6 2d f8 1d b2 de 47 38 7c bd 96 3a
       1.8634736e-08 6.5692576e-21 4.76527e-05 0.0011500563
0000e0 00 26 34 31 00 00 00 00 ac d4 e1 35 98 c4 9d 33
       2.6215048e-09 0.0 1.6825702e-06 7.3466424e-08
0000f0 b8 6e a0 37 90 bd 96 3a 2b d0 61 1e 46 94 e5 31
       1.9125044e-05 0.0011500586 1.1954449e-20 6.681634e-09
000100 7f 7d 14 1d f3 bf ea 37 69 46 01 3b ac ef 9a 31
       1.9652517e-21 2.7984357e-05 0.0019725806 4.5092374e-09
000110 00 00 00 00 e1 e0 12 36 06 8b 1c 34 48 f0 04 38
       0.0 2.1886592e-06 1.4579209e-07 3.169503e-05
000120 7a 46 01 3b 70 63 12 1f 9f a6 3a 32 05 a9 98 1d
       0.0019725845 3.0998955e-20 1.086451e-08 4.0408827e-21
000130 b2 07 19 38 79 d6 09 3b 57 44 a4 31 00 00 00 00
       3.648521e-05 0.0021032377 4.7807975e-09 0.0
000140 2b ea 4f 36 ed 45 3e 34 50 22 e6 37 90 d6 09 3b
       3.0981707e-06 1.7720568e-07 2.7434115e-05 0.002103243
000150 58 5f e3 1e d1 14 09 32 75 8e a8 1d 49 3c 22 38
       2.4073993e-20 7.979183e-09 4.4616527e-21 3.8679955e-05
000160 4a 1a ea 39 d4 fd 8e 30 00 00 00 00 77 ea ec 34
       0.00044651545 1.0404002e-09 0.0 4.412902e-07
000170 9d 97 16 33 d7 c6 21 37 75 1a ea 39 a1 ac 48 1e
       3.5062488e-08 9.642644e-06 0.0004465167 1.0623611e-20
000180 fd 83 99 31 39 f5 a7 1c c8 a5 12 37 c4 5c 38 3a
       4.4678914e-09 1.1114522e-21 8.740877e-06 0.0007032866
000190 52 b6 e0 30 00 00 00 00 be be 78 35 c9 27 62 33
       1.6349964e-09 0.0 9.2664766e-07 5.265591e-08
0001a0 47 59 3d 37 e3 5c 38 3a 65 c5 29 1e 9e 6d 91 31
       1.1286064e-05 0.0007032884 8.987606e-21 4.2325174e-09
0001b0 c7 66 d5 1c d4 89 54 37 80 02 07 3a d7 32 a0 30
       1.4121725e-21 1.2668275e-05 0.0005150214 1.1655982e-09
0001c0 00 00 00 00 40 06 34 35 2c a7 3a 33 11 07 f9 36
       0.0 6.706432e-07 4.345854e-08 7.421601e-06
0001d0 9b 02 07 3a c9 44 23 1e 72 59 0c 31 ef 7d b1 1c
       0.00051502296 8.6433726e-21 2.0423525e-09 1.1745431e-21
0001e0 c0 90 0e 37 b9 0c b9 36 4c 2c 5c 2d 00 00 00 00
       8.497562e-06 5.5149108e-06 1.2515388e-11 0.0
0001f0 07 a4 e6 31 79 67 ce 2f 66 ce c5 33 dc 0c b9 36
       6.7125288e-09 3.7544703e-10 9.211071e-08 5.5149267e-06
000200 67 46 b4 1a e8 50 f7 2d 85 28 56 19 9b d3 0d 34
       7.4559996e-23 2.8116579e-11 1.10717235e-23 1.320863e-07
000210 d1 9d 00 3b 30 c4 9a 31 00 00 00 00 19 3b 4b 36
       0.0019625316 4.504294e-09 0.0 3.0283757e-06
000220 00 53 0c 34 ce bd ea 37 e3 9d 00 3b 1c a7 f9 1e
       1.3068711e-07 2.7983358e-05 0.0019625358 2.6433015e-20
000230 40 b8 07 32 2c ad 89 1d ac 70 56 38 d3 a2 8a 3a
       7.899928e-09 3.6442654e-21 5.112651e-05 0.001057709
000240 c5 ae 27 31 00 00 00 00 02 8f ae 35 33 21 ab 33
       2.4401043e-09 0.0 1.3005631e-06 7.968847e-08
000250 cc 1a 94 37 e9 a2 8a 3a de 51 cd 1e 0c 07 f1 31
       1.7655453e-05 0.0010577115 2.1739079e-20 7.0148243e-09
000260 f8 f1 49 1d ca 35 b7 37 d8 fe 19 3b 09 16 b9 31
       2.6727223e-21 2.1840347e-05 0.0023497846 5.3867137e-09
000270 00 00 00 00 97 ba 56 36 b9 67 35 34 d7 15 1f 38
       0.0 3.1997095e-06 1.6894673e-07 3.7928894e-05
000280 f0 fe 19 3b f3 33 da 1e 28 0d 2f 32 e7 2a bd 1d
       0.0023497902 2.3103134e-20 1.0189332e-08 5.0072243e-21
000290 d9 b9 28 38 17 fa e7 3a 3a bb 8b 31 00 00 00 00
       4.0227405e-05 0.0017698434 4.0667176e-09 0.0
0002a0 83 17 39 36 e0 43 00 34 b2 8e d1 37 43 fa e7 3a
       2.7580834e-06 1.1945622e-07 2.498119e-05 0.0017698485
0002b0 79 24 df 1e 02 d1 f6 31 ca 94 7b 1d a4 44 51 38
       2.3626128e-20 7.1833037e-09 3.3296496e-21 4.989341e-05
0002c0 d2 a4 72 3a 4c f3 10 31 00 00 00 00 40 5c c3 35
       0.00092561275 2.1093056e-09 0.0 1.455548e-06
0002d0 a6 96 a2 33 9e 4f 3a 37 f8 a4 72 3a 7e 79 55 1e
       7.571116e-08 1.1105001e-05 0.00092561496 1.130125e-20
0002e0 14 ff 7f 31 ff 63 1f 1d ce f6 93 37 57 58 e9 3a
       3.725238e-09 2.1095172e-21 1.7638693e-05 0.0017802817
0002f0 76 95 8c 31 00 00 00 00 a2 b4 17 36 88 6b 0a 34
       4.091528e-09 0.0 2.2605896e-06 1.2891371e-07
000300 5a 3a da 37 7a 58 e9 3a fc 16 20 1f 5c 41 25 32
       2.6014797e-05 0.0017802857 3.390033e-20 9.619125e-09
000310 66 75 98 1d 0d 5a 20 38 bc a8 3d 3a 65 d0 e5 30
       4.0355452e-21 3.823084e-05 0.0007234921 1.6721172e-09
000320 00 00 00 00 56 90 3b 35 1f ea 51 33 c2 5c 6b 37
       0.0 6.9872965e-07 4.8874536e-08 1.4028688e-05
000330 e6 a8 3d 3a 8b 6d a7 1e e2 78 a5 31 01 53 fe 1c
       0.00072349457 1.7727119e-20 4.815875e-09 1.6829766e-21
000340 5a 70 79 37 89 fe 5c 3b 20 f4 05 32 00 00 00 00
       1.4867715e-05 0.003372105 7.7971265e-09 0.0
000350 62 ee 93 36 b8 9f 87 34 1f 2e 7b 38 a8 fe 5c 3b
       4.408693e-06 2.526192e-07 5.9886017e-05 0.0033721123
000360 c9 79 2d 1f ef 3a a9 32 8a 1e 11 1e 69 79 72 38
       3.6734913e-20 1.970099e-08 7.6825514e-21 5.7810368e-05

exp_avg f4 [20]
000000 94 e5 65 ba be 78 fa b9 53 b2 aa 3a 40 16 a2 ba
       -0.00087698665 -0.00047773676 0.0013023115 -0.001236625
000010 c1 d3 b5 ba 0c 34 a7 ba 7e 58 8b 3a 97 02 71 38
       -0.0013872312 -0.00127566 0.0010631231 5.746129e-05
000020 5e 87 fb 39 c7 07 6c b9 b4 90 bd 39 ad 5c 52 38
       0.00047975307 -0.00022509611 0.000361567 5.0154213e-05
000030 a9 d6 55 ba d7 88 31 b8 a2 5d 44 ba 00 e1 90 b9
       -0.0008157292 -4.232753e-05 -0.0007490759 -0.00027633458
000040 69 ca 3f 38 cc f5 b3 39 0a 9f 18 38 79 a1 0a ba
       4.5726458e-05 0.00034324673 3.638774e-05 -0.00052883435

exp_avg_sq f4 [20]
000000 44 bf 0b 38 3d bb 0f 39 db c9 76 38 6f af 09 39
       3.3318312e-05 0.00013707294 5.8838963e-05 0.00013130692
000010 18 98 f3 38 90 f2 40 38 cf 78 a5 38 b4 6e b0 38
       0.000116154726 4.600227e-05 7.8903155e-05 8.412954e-05
000020 5d d3 95 37 dc fb eb 37 04 d0 ac 37 26 dd 6c 34
       1.7860608e-05 2.8131464e-05 2.0600863e-05 2.2059666e-07
000030 1c a1 a4 38 57 74 31 38 44 1d c5 38 0a 77 94 38
       7.850138e-05 4.230844e-05 9.399143e-05 7.079363e-05
000040 c4 4a 1b 38 39 57 95 38 a0 c3 f2 37 bb 6f 0d 39
       3.702451e-05 7.12112e-05 2.8939743e-05 0.0001348843

exp_avg f4 [1, 2]
000000 20 69 06 3c 12 8a b6 3c
       0.008203775 0.022282634

exp_avg_sq f4 [1, 2]
000000 48 29 d1 3b cd 12 e2 3b
       0.006383095 0.006899214

exp_avg f4 [2, 20]
000000 85 0d 8f 3b 00 2e fc 3b 95 8c 84 3b d7 50 3f 3c
       0.0043656253 0.0076959133 0.004045079 0.011676989
000010 3e 87 f1 3b 66 f7 1e 3b 49 86 2c 3c 71 23 66 3c
       0.0073708585 0.0024256348 0.010530063 0.014046536
000020 3c 34 9a 3b 4f c1 00 3c 96 51 f5 3c 47 73 b1 ba
       0.004705934 0.007858588 0.02994613 -0.0013538384
000030 93 67 9e 3b 97 a3 7b 3c e8 2f e3 3b 52 84 c0 3b
       0.0048341244 0.015358827 0.006933201 0.005875149
000040 f1 4d 26 3c 2f b9 a1 3b 57 2f dd 3b f1 e8 f3 3b
       0.010150419 0.0049354057 0.006750028 0.0074435403
000050 90 7f b1 ba 28 bd 40 3a c0 1a 7d 3c f1 5b 9d ba
       -0.0013542045 0.0007352405 0.015448272 -0.001200555
000060 dd 5a 16 bb ef d4 ce 37 4b 4e 82 3c d6 6c f5 3c
       -0.0022942342 2.4656269e-05 0.015906474 0.029959124
000070 02 1a 30 3b 3a f5 0b bb df 8a 25 3d c1 4f 06 bb
       0.002687097 -0.0021355883 0.04041564 -0.0020494314
000080 56 3b bc b9 a4 80 90 3c 24 da f4 ba b2 79 3f 3a
       -0.00035902363 0.017639466 -0.0018680734 0.0007304206
000090 27 6c 76 3c 8a 2a 4d 3c 08 56 27 3c 18 c2 00 bb
       0.015040434 0.012522349 0.010213383 -0.001964694

exp_avg_sq f4 [2, 20]
000000 0f be 0f 3a ab 6b 52 3b 50 00 8c 3b 66 de bd 3b
       0.0005483338 0.0032107632 0.004272498 0.005794334
000010 5d e6 cd 3a 12 40 86 39 d8 b6 29 3c ad 9d eb 3c
       0.0015708912 0.00025606208 0.010358535 0.02876171
000020 b8 b1 bf 3a 8a f3 fe 3a 31 b7 ac 3d f8 38 46 39
       0.0014625108 0.0019451242 0.084333785 0.00018903974
000030 a2 ee 7f 3a ce 03 9c 3c 3a 7e ba 3a fa b4 00 3b
       0.0009763037 0.019044783 0.0014228292 0.001963912
000040 fa 38 2a 3c fe 68 6a 3b 0b 09 8f 3b 51 2e db 3a
       0.010389561 0.0035768147 0.0043650917 0.0016722177
000050 1d 39 12 3a a8 69 60 3b d9 1b 84 3b 4d 7c c3 3b
       0.00055779685 0.0034242664 0.00403164 0.0059657455
000060 3b 22 c5 3a 62 e7 91 39 c4 0e 1b 3c 75 05 d9 3c
       0.0015040109 0.0002782895 0.00946397 0.02649186
000070 58 dc b3 3a 22 c9 f4 3a 5c 0c a0 3d b7 40 35 39
       0.0013722284 0.0018675665 0.07814857 0.00017285613
000080 e4 e7 87 3a 35 a4 8d 3c ef f0 b3 3a 0f c0 0b 3b
       0.0010368791 0.017290214 0.001372842 0.0021324193
000090 38 b1 19 3c ba a8 57 3b 64 6e 87 3b 6d 0a d4 3a
       0.009380631 0.0032906965 0.0041330326 0.0016177424

exp_avg f4 [2]
000000 df 3a cb 3b b7 09 fc 3b
       0.0062020863 0.007691588

exp_avg_sq f4 [2]
000000 9f 4e 5e 3b 39 78 4d 3b
       0.0033921374 0.0031352176

exp_avg f4 [2, 20]
000000 2b a7 c2 39 da 45 55 3a dd d6 9b 3a 13 a8 a5 3a
       0.00037127113 0.0008135714 0.0011889596 0.0012638591
000010 e7 bd 4d 3a 2a f6 d9 39 ee e1 ac 3a 82 96 3f 3b
       0.0007848427 0.00041572872 0.0013189891 0.0029233997
000020 a5 fd f8 39 d1 06 c4 39 c8 09 ae 3b 94 ba 81 b9
       0.00047491226 0.00037389112 0.0053112246 -0.0002474381
000030 b9 02 0d 3a 0f 17 0b 3b 76 ca 19 3a 02 a7 42 3a
       0.0005379129 0.002122346 0.0005866656 0.0007425399
000040 cd 8c ed 3a 10 33 8d 3a c2 73 bb 3a 3c 05 61 3a
       0.0018123627 0.0010772664 0.0014301466 0.0008583849
000050 37 a7 c2 b9 ea 45 55 ba e9 d6 9b ba 1d a8 a5 ba
       -0.00037127148 -0.0008135723 -0.001188961 -0.0012638603
000060 f1 bd 4d ba 33 f6 d9 b9 f9 e1 ac ba 8f 96 3f bb
       -0.0007848433 -0.00041572898 -0.0013189904 -0.0029234027
000070 b0 fd f8 b9 df 06 c4 b9 d3 09 ae bb 97 ba 81 39
       -0.00047491258 -0.00037389153 -0.0053112297 0.00024743818
000080 c3 02 0d ba 19 17 0b bb 7e ca 19 ba 11 a7 42 ba
       -0.00053791347 -0.0021223484 -0.00058666605 -0.00074254075
000090 cb 8c ed ba 13 33 8d ba cc 73 bb ba 48 05 61 ba
       -0.0018123625 -0.0010772668 -0.0014301478 -0.0008583856

exp_avg_sq f4 [2, 20]
000000 c1 57 81 37 48 80 12 39 fc c4 e6 39 19 d4 9e 39
       1.5418862e-05 0.00013971434 0.00044015783 0.00030294133
000010 91 e4 71 38 51 49 21 37 ce c2 81 3a 40 ec 44 3b
       5.7671747e-05 9.613418e-06 0.0009899975 0.0030048043
000020 62 b3 38 39 e8 84 be 38 28 46 0a 3c 27 1d b2 37
       0.00017614433 9.084662e-05 0.008439578 2.1232829e-05
000030 e5 ec 02 38 0f fd e4 3a 95 db 53 38 9b 48 a2 38
       3.121504e-05 0.0017470437 5.0510822e-05 7.738286e-05
000040 b4 22 7c 3a 89 c5 ae 39 e1 de d8 39 5a 71 8b 38
       0.0009618208 0.0003333504 0.00041364788 6.64915e-05
000050 c2 57 81 37 48 80 12 39 fd c4 e6 39 1a d4 9e 39
       1.5418864e-05 0.00013971434 0.00044015786 0.00030294136
000060 90 e4 71 38 4f 49 21 37 ce c2 81 3a 3f ec 44 3b
       5.7671743e-05 9.613416e-06 0.0009899975 0.003004804
000070 62 b3 38 39 e9 84 be 38 27 46 0a 3c 27 1d b2 37
       0.00017614433 9.0846625e-05 0.008439577 2.1232829e-05
000080 e6 ec 02 38 13 fd e4 3a 98 db 53 38 9c 48 a2 38
       3.1215044e-05 0.0017470442 5.0510833e-05 7.7382865e-05
000090 b9 22 7c 3a 88 c5 ae 39 e1 de d8 39 5a 71 8b 38
       0.0009618211 0.00033335038 0.00041364788 6.64915e-05

exp_avg f4 [2]
000000 17 9f 81 3a 19 9f 81 ba
       0.0009889331 -0.0009889334

exp_avg_sq f4 [2]
000000 1e a1 b3 39 1d a1 b3 39
       0.00034261582 0.0003426158

exp_avg f4 [20, 11]
000000 9e ad 0d c1 a2 56 59 bc 00 00 00 00 14 ac 0e 3f
       -8.854887 -0.013265284 0.0 0.5573132
000010 be f8 8d 3d 19 73 f9 be a8 ad 0d 41 8e 9d 56 2b
       0.069322094 -0.48720625 8.854897 7.6246724e-13
000020 f2 9e be 36 3f a2 86 29 41 09 8e 3e c9 26 60 c1
       5.680945e-06 5.9789406e-14 0.27741435 -14.009469
000030 5b ed ab bc 00 00 00 00 49 e4 60 3f fe 1e e0 3d
       -0.020987203 0.0 0.87848336 0.10943411
000040 3f 37 41 bf da 26 60 41 38 57 a5 2b c8 e6 13 37
       -0.75474924 14.009485 1.1748163e-12 8.815616e-06
000050 12 c7 be 29 98 fa e4 3e b5 5c 82 bf 81 f7 c7 ba
       8.472228e-14 0.44722438 -1.0184542 -0.0015256257
000060 00 00 00 00 cc b1 67 3d e6 0e f2 3b 30 90 d2 bc
       0.0 0.056566045 0.00738703 -0.02570352
000070 bf 5c 82 3f 34 8e 1a 29 f7 bc db 33 e7 9a b7 a7
       1.0184554 3.431821e-14 1.0232355e-07 -5.096065e-15
000080 4d 90 47 3d 17 fd 24 c1 cc 18 7d bc 00 00 00 00
       0.0487216 -10.3117895 -0.015447807 0.0
000090 1a 95 25 3f 6c bc a4 3d d1 bc 0d bf 24 fd 24 41
       0.64680636 0.08043751 -0.55366236 10.311802
0000a0 59 70 74 2b b7 c5 d8 36 6e 09 96 29 59 c8 a2 3e
       8.684213e-13 6.4603187e-06 6.662974e-14 0.31793478
0000b0 76 1d 2b bf 6b 3e 83 ba 00 00 00 00 ac ce 12 3d
       -0.6684183 -0.0010013109 0.0 0.03584163
0000c0 0e 60 9e 3b 82 64 65 bc 84 1d 2b 3f 03 4f 27 29
       0.004833228 -0.014001014 0.6684191 3.714998e-14
0000d0 0a 65 90 34 3d d0 27 27 d1 fb 3a 3d 05 9c 5c c1
       2.6895606e-07 2.3288792e-15 0.045650307 -13.788091
0000e0 d1 35 a9 bc 00 00 00 00 cc ab 5c 3f 16 bc db 3d
       -0.020655544 0.0 0.8619964 0.10729234
0000f0 f2 89 3a bf 18 9c 5c 41 fd c8 a2 2b 2e a9 0f 37
       -0.7286674 13.788109 1.1566578e-12 8.562854e-06
000100 e2 4e c9 29 f4 10 dc 3e 03 a6 1b c1 ce c4 6e bc
       8.939877e-14 0.42981684 -9.72803 -0.014573289
000110 00 00 00 00 9c 1b 1c 3f 8a 8a 9b 3d c4 13 06 bf
       0.0 0.6097963 0.075947836 -0.5237391
000120 0e a6 1b 41 3d 43 66 2b dd fb cb 36 4f 2e 8a 29
       9.728041 8.1805726e-13 6.079192e-06 6.1364644e-14
000130 4e c3 9d 3e 3a 9e fd 40 9b 86 42 3c 00 00 00 00
       0.30813068 7.925565 0.011872913 0.0
000140 88 9f f2 be 94 1c 76 bd f1 80 a9 3e 4c 9e fd c0
       -0.47387338 -0.060085848 0.33106187 -7.9255733
000150 4d 26 1b ab ed 47 89 b6 04 ae fb a8 c0 f0 99 be
       -5.5120215e-13 -4.0912914e-06 -2.7942065e-14 -0.3006649
000160 ed fd 80 c1 8f e0 c5 bc 00 00 00 00 38 8b 81 3f
       -16.123987 -0.02415493 0.0 1.0120611
000170 fc 11 01 3e dc 04 60 bf f8 fd 80 41 64 fb c0 2b
       0.12604517 -0.87507415 16.124008 1.3712195e-12
000180 24 6b 2c 37 bd 68 e3 29 57 5b 03 3f 9e 39 21 c1
       1.02769445e-05 1.0098994e-13 0.5131125 -10.076567
000190 b5 52 77 bc 00 00 00 00 dc 30 21 3f fb 88 a0 3d
       -0.0150954025 0.0 0.6296518 0.07838627
0001a0 37 8d 07 bf ab 39 21 41 83 49 68 2b b0 31 cf 36
       -0.5294985 10.076579 8.2524975e-13 6.174865e-06
0001b0 5a 2e 8a 29 23 ce a3 3e 0f d7 e0 c0 80 74 2c bc
       6.136472e-14 0.31993207 -7.0262523 -0.010525823
0001c0 00 00 00 00 48 3a e1 3e 1d 53 60 3d 98 25 c0 be
       0.0 0.43989778 0.054766763 -0.37528682
0001d0 1f d7 e0 40 d6 44 23 2b 11 3a 91 36 81 83 45 29
       7.02626 5.800476e-13 4.3280966e-06 4.385685e-14
0001e0 af 07 5d 3e 39 e1 47 3f 74 4e 99 3a 00 00 00 00
       0.21584962 0.7807804 0.0011696354 0.0
0001f0 6d 58 33 bd 4e 22 be bb 83 79 cd 3c 46 e1 47 bf
       -0.0437855 -0.0058024293 0.025082355 -0.78078115
000200 49 9d 2e a9 9d 18 ac b4 e2 04 c8 26 6d 0c 16 bd
       -3.8772184e-14 -3.2055405e-07 1.3879111e-15 -0.036632944
000210 53 ea 88 41 ae 06 d2 3c 00 00 00 00 4c 4c 7c bf
       17.114416 0.02563795 0.0 -0.9855392
000220 be 22 01 be ea 91 0a 3f 5d ea 88 c1 0a bf 8e ab
       -0.1261091 0.541289 -17.114435 -1.0142731e-12
000230 14 6e e6 b6 a0 1f 5b a9 6c d4 34 bf d4 97 3a c1
       -6.867349e-06 -4.86552e-14 -0.7063663 -11.662067
000240 7e 1e 8f bc 00 00 00 00 db 62 3a 3f ae ea b9 3d
       -0.017470594 0.0 0.7280709 0.09077965
000250 34 26 1d bf e2 97 3a 41 84 20 86 2b 02 1d f0 36
       -0.6138642 11.662081 9.530298e-13 7.1559343e-06
000260 5a 71 98 29 b9 37 c1 3e 3f 6c 65 c1 7e f8 af bc
       6.7698194e-14 0.37737826 -14.338927 -0.021480795
000270 00 00 00 00 c0 5b 66 3f 0d eb e5 3d 3e 10 49 bf
       0.0 0.8998375 0.11226473 -0.7854041
000280 50 6c 65 41 60 01 b1 2b 5f c1 1b 37 a9 5b e0 29
       14.3389435 1.2576988e-12 9.283743e-06 9.963499e-14
000290 03 b6 eb 3e 86 eb ee 40 2e 41 37 3c 00 00 00 00
       0.460373 7.4662504 0.011184974 0.0
0002a0 ea 85 ec be 6d 7f 6c bd d5 a3 bf 3e 97 eb ee c0
       -0.46195918 -0.05773871 0.3742968 -7.4662585
0002b0 5d ba 32 ab 8c e2 9b b6 34 5b 60 a9 87 60 80 be
       -6.3496934e-13 -4.6457335e-06 -4.9817098e-14 -0.25073645
0002c0 01 08 44 c1 01 5c 96 bc 00 00 00 00 bc 2c 47 3f
       -12.251954 -0.018354418 0.0 0.77802634
0002d0 84 09 c6 3d f9 1e 36 bf 12 08 44 41 b6 72 9a 2b
       0.09669784 -0.7114101 12.25197 1.0974197e-12
0002e0 2d e8 0a 37 ef 6a bc 29 19 8f c6 3e 9b 84 03 41
       8.279499e-06 8.367427e-14 0.3878105 8.219874
0002f0 30 c0 49 3c 00 00 00 00 46 e8 ff be 4e f3 80 bd
       0.0123138875 0.0 -0.49981898 -0.06296407
000300 b6 9f c1 3e a4 84 03 c1 65 73 35 ab 05 cf 9e b6
       0.37817162 -8.219883 -6.446426e-13 -4.732867e-06
000310 1b b3 48 a9 98 57 99 be 86 fb ea 3e 03 3b 34 3a
       -4.456427e-14 -0.2994964 0.45895022 0.00068752485
000320 00 00 00 00 15 c2 d8 bc b9 68 5e bb 7b 61 7c 3c
       0.0 -0.026459733 -0.0033936931 0.0154041005
000330 97 fb ea be 95 d0 07 a9 d0 ff 55 b4 6f 60 13 a7
       -0.45895073 -3.0156938e-14 -1.9930235e-07 -2.0452625e-15
000340 da 69 99 bc d2 3b 28 41 ba 08 81 3c 00 00 00 00
       -0.018727232 10.514605 0.015751231 0.0
000350 a3 c4 1b bf 2a b7 9f bd f2 84 b2 3e de 3b 28 c1
       -0.6084692 -0.07798608 0.34867054 -10.514616
000360 75 2a 23 ab ac 36 8f b6 a5 9f 72 a8 b2 1f dc be
       -5.7968154e-13 -4.2680967e-06 -1.3468316e-14 -0.42992932

exp_avg_sq f4 [20, 11]
000000 eb d6 6a 42 cf 63 ec 38 00 00 00 00 75 32 28 3d
       58.70988 0.00011271948 0.0 0.041063745
000010 7a e0 df 3a 2c a4 30 40 1e d7 6a 42 97 7b 3b 26
       0.0017080449 2.7600203 58.710075 6.5046153e-16
000020 1d 82 ac 39 ba df 8e 24 13 f6 8e 3f 84 15 25 43
       0.00032903338 6.196169e-17 1.1168846 165.08405
000030 14 9c a5 39 00 00 00 00 56 2b ef 3d 6f c0 9b 3b
       0.0003158754 0.0 0.116781875 0.0047531645
000040 0c a9 f3 40 a4 15 25 43 17 5b 03 27 84 7d 76 3a
       7.6143856 165.08453 1.8229282e-15 0.00094028586
000050 be 3f 46 25 6c cc 48 40 3b 43 0a 3f d2 ba 8f 35
       1.7195359e-16 3.137477 0.54008836 1.0708702e-06
000060 00 00 00 00 51 04 fc 39 a2 ce 87 37 ac ba a5 3c
       0.0 0.00048068402 1.6189475e-05 0.020230614
000070 54 43 0a 3f d5 77 03 23 c4 3e f4 35 d1 a5 3f 21
       0.54008985 7.1269e-18 1.8197684e-06 6.4932773e-19
000080 d5 7e 14 3c 18 e0 ac 42 f1 df 2d 39 00 00 00 00
       0.009063442 86.43768 0.0001658199 0.0
000090 29 86 82 3d 65 26 27 3b 3c d6 7d 40 3b e0 ac 42
       0.06373245 0.0025505063 3.9662008 86.43795
0000a0 d6 9c 8a 26 4d 55 00 3a f3 8e d4 24 ac 0c ce 3f
       9.618184e-16 0.00048955233 9.218251e-17 1.6097617
0000b0 5f 0e 53 3e 33 82 d5 34 00 00 00 00 23 56 34 39
       0.20610951 3.9769074e-07 0.0 0.00017198226
0000c0 bc 61 d0 36 11 5b ff 3b 81 0e 53 3e e6 d7 7a 22
       6.210261e-06 0.0077928384 0.20611002 3.3995614e-18
0000d0 4a b9 ac 35 fc 5e b4 20 42 48 20 3b e4 db 1a 43
       1.2868925e-06 3.0556041e-19 0.0024457132 154.85895
0000e0 71 96 9b 39 00 00 00 00 ad 7d e8 3d 44 26 95 3b
       0.0002967599 0.0 0.11352096 0.0045516808
0000f0 b8 e5 e2 40 01 dc 1a 43 0b 6f fa 26 91 e9 67 3a
       7.090542 154.85939 1.7377333e-15 0.0008846755
000100 aa 48 3f 25 0f 88 37 40 42 42 89 42 02 5e 0a 39
       1.6591229e-16 2.8676794 68.62941 0.00013195726
000110 00 00 00 00 26 35 4c 3d ea 1a 02 3b 63 f0 4c 40
       0.0 0.049855374 0.0019852468 3.202172
000120 61 42 89 42 e7 6a 5c 26 58 91 c7 39 20 3a a4 24
       68.62965 7.647271e-16 0.00038064527 7.122213e-17
000130 08 64 a5 3f 7c 78 28 42 c2 a1 a9 38 00 00 00 00
       1.2921152 42.11766 8.088678e-05 0.0
000140 cc 6f 05 3d d7 26 a4 3a 2f ae ed 3f 9b 78 28 42
       0.03257732 0.0012523782 1.8568782 42.11778
000150 9b e5 12 26 06 f3 7b 39 56 74 60 24 11 bb 44 3f
       5.09651e-16 0.00024027759 4.8670798e-17 0.7684794
000160 2c 25 5f 43 2b 79 df 39 00 00 00 00 2d 70 1c 3e
       223.1452 0.00042624152 0.0 0.15277167
000170 21 25 d0 3b 43 72 25 41 50 25 5f 43 70 a4 32 27
       0.0063520824 10.340396 223.14575 2.4791604e-15
000180 f4 bb a7 3a 32 10 86 25 83 b4 87 40 75 84 93 42
       0.0012797103 2.325627e-16 4.240785 73.758705
000190 15 d3 14 39 00 00 00 00 a3 1c 67 3d c3 07 0f 3b
       0.00014193014 0.0 0.056423794 0.0021824695
0001a0 02 d3 58 40 93 84 93 42 cb 9a 6d 26 d3 09 d9 39
       3.387879 73.758934 8.2435676e-16 0.00041396785
0001b0 e3 d4 b3 24 2f 26 b0 3f 0c 38 06 42 b5 d2 87 38
       7.798952e-17 1.3761653 33.554733 6.476549e-05
0001c0 00 00 00 00 c5 f7 d4 3c fb c0 82 3a 34 59 c7 3f
       0.0 0.025997052 0.0009975726 1.5574098
0001d0 2d 38 06 42 c8 50 d5 25 ce 99 41 39 c5 b0 1f 24
       33.55486 3.700435e-16 0.00018463211 3.462736e-17
0001e0 67 e5 1f 3f 99 4a 9f 3e 94 e4 22 35 00 00 00 00
       0.62459415 0.311116 6.068233e-07 0.0
0001f0 5f 90 73 39 ee 92 3b 37 4e 13 44 3c b6 4a 9f 3e
       0.00023228068 1.1180278e-05 0.011967493 0.31111687
000200 d0 c2 9c 22 6a d8 ea 35 70 26 11 21 ba 4b b7 3b
       4.249015e-18 1.7497343e-06 4.917878e-19 0.005593744
000210 ee b2 f3 42 94 03 7d 39 00 00 00 00 45 c1 08 3e
       121.84947 0.00024129293 0.0 0.13354976
000220 f7 4d 81 3b 04 cf 99 40 1e b3 f3 42 42 91 e3 26
       0.0039460617 4.8065205 121.84984 1.5790661e-15
000230 15 78 1c 3a f4 5d 23 25 16 0e ea 3f 05 63 c9 42
       0.00059688214 1.4169829e-16 1.8285549 100.6934
000240 28 f4 4a 39 00 00 00 00 5e 02 9a 3d a6 a9 40 3b
       0.00019355176 0.0 0.07519983 0.0029397993
000250 43 3f 94 40 2d 63 c9 42 36 25 a3 26 36 de 13 3a
       4.6327224 100.6937 1.1320483e-15 0.0005640717
000260 2e b0 f4 24 87 b1 f2 3f be 05 28 43 62 5a a8 39
       1.0611659e-16 1.8960427 168.02243 0.00032110797
000270 00 00 00 00 22 bf e3 3d 00 74 9b 3b b8 0c fc 40
       0.0 0.1112044 0.004744053 7.8765526
000280 de 05 28 43 ac 1b 08 27 48 58 7b 3a ac 75 4a 25
       168.02292 1.8888792e-15 0.0009588045 1.7560576e-16
000290 45 1d 4b 40 9d ca 68 42 de 8d e7 38 00 00 00 00
       3.1736615 58.197865 0.00011041363 0.0
0002a0 11 a0 1c 3d 81 e7 dd 3a b9 21 28 40 d1 ca 68 42
       0.03823859 0.0016929955 2.6270583 58.198063
0002b0 b8 16 43 26 f0 56 b7 39 5b 78 9a 24 8f ed 8a 3f
       6.7685005e-16 0.00034969253 6.6990744e-17 1.0853747
0002c0 55 90 df 42 e0 21 61 39 00 00 00 00 f6 b1 8f 3d
       111.7819 0.00021470292 0.0 0.07016365
0002d0 3f 05 51 3b 95 53 ad 40 85 90 df 42 2f f6 b1 26
       0.0031893996 5.416453 111.782265 1.234857e-15
0002e0 10 f3 23 3a 49 f5 04 25 82 64 0d 40 51 64 60 42
       0.00062541757 1.1532281e-16 2.2092595 56.097965
0002f0 40 64 e0 38 00 00 00 00 ca 4f 21 3d a2 c9 d6 3a
       0.00010699825 0.0 0.039382733 0.0016386996
000300 09 61 21 40 70 64 60 42 85 ea 3f 26 3c d9 ac 39
       2.5215476 56.098083 6.658427e-16 0.0003296825
000310 1d c1 93 24 80 3f 83 3f de 9f e5 3d ca e8 68 34
       6.4078234e-17 1.0253754 0.11212133 2.1691372e-07
000320 00 00 00 00 65 6e cd 38 20 5e 68 36 17 e7 98 3b
       0.0 9.795724e-05 3.4625482e-06 0.00466622
000330 08 a0 e5 3d c7 51 da 21 b9 60 2a 35 47 48 22 20
       0.11212164 1.4793901e-18 6.3470685e-07 1.3745848e-19
000340 29 06 e7 3a 01 f5 4c 42 36 ed d2 38 00 00 00 00
       0.0017625737 51.23926 0.00010057764 0.0
000350 15 7d 51 3d d7 c2 d7 3a aa 0d 03 40 21 f5 4c 42
       0.05114468 0.0016461265 2.047709 51.239384
000360 c6 27 3d 26 d9 7b 89 39 d4 2e 93 24 44 8e 62 3f
       6.562645e-16 0.0002622295 6.383042e-17 0.8849833

exp_avg f4 [20]
000000 63 af e2 3f 3a 52 33 40 53 94 50 3e ad fd 03 40
       1.7709774 2.8018937 0.20369081 2.0623581
000010 5f e4 08 3e d3 7c 30 40 9e 09 f9 3f fb e4 ca bf
       0.13368367 2.7576187 1.945606 -1.5851129
000020 17 63 4e 40 e5 fa 00 40 40 df b3 3f 61 e7 1f be
       3.224798 2.0153134 1.4052505 -0.15615608
000030 84 10 5b c0 44 46 15 40 cc 89 37 40 d1 22 bf bf
       -3.422883 2.3324137 2.8677855 -1.49325
000040 34 d3 1c 40 c4 6d d2 bf 6b fc bb bd 42 96 06 c0
       2.4503908 -1.6439748 -0.09179004 -2.102921

exp_avg_sq f4 [20]
000000 2d 4c 16 40 bf 4e d3 40 fa f9 b0 3c db 47 5d 40
       2.3483994 6.6033626 0.021603573 3.4575107
000010 6c 13 07 3c 1a 38 c6 40 04 b1 2f 40 8d a4 d7 3f
       0.008244377 6.1943483 2.7451792 1.6847092
000020 14 d0 0e 41 8b d2 3c 40 e6 cc ab 3f af e4 4b 3c
       8.9258 2.9503505 1.3421905 0.012444659
000030 a4 f7 9b 40 31 e3 80 40 83 11 d7 40 84 fc 14 40
       4.8739796 4.0277333 6.7208877 2.3279123
000040 b6 14 8f 40 52 9c 0f 40 ad f5 92 3b 20 2c 03 40
       4.471278 2.243916 0.0044848532 2.0495682

exp_avg f4 [1, 20]
000000 13 0e 98 40 50 79 a8 40 31 83 70 be ed 06 01 41
       4.751718 5.2648087 -0.23487546 8.064191
000010 7e be 81 be 0d cc b3 40 e7 dc 96 40 d8 60 e0 40
       -0.25340647 5.6186585 4.7144656 7.0118217
000020 58 4f 8c 40 7a f8 b6 40 b6 16 f2 40 39 2f 47 bf
       4.3846855 5.7178316 7.5652723 -0.7780643
000030 46 ec a1 40 34 84 95 40 ec cf 67 40 49 71 bb 40
       5.060092 4.672388 3.6220655 5.8575788
000040 c4 36 47 40 bc 35 e6 40 a1 34 20 bf 18 61 7c 40
       3.1127176 7.1940594 -0.62580305 3.9434261

exp_avg_sq f4 [1, 20]
000000 64 3d 4a 42 e1 1b 94 42 a2 c1 09 3f e6 a0 1e 43
       50.55995 74.05445 0.53811085 158.62851
000010 85 6d fd 3e ed f5 fc 42 10 6c 92 42 6f e2 c1 41
       0.4949762 126.48032 73.21106 24.235563
000020 86 79 7a 42 be 54 0b 43 db f8 17 43 75 1d 64 3e
       62.618675 139.33102 151.97209 0.22276862
000030 b1 ec bb 40 ca c5 dd 42 bb 2d 96 42 df a1 00 42
       5.872643 110.88631 75.08932 32.158077
000040 89 02 b8 41 ef 83 f8 41 96 be 3b 3e 07 d2 9b 40
       23.001238 31.06442 0.18334422 4.869388

network_body._body_endoder.seq_layers.0.weight f4 [20, 11]
000000 29 45 29 be 48 56 e2 be 04 06 94 be 41 61 51 bf
       -0.16530289 -0.44206452 -0.2891084 -0.8178902
000010 71 9f cb bc 75 f8 1e 3f 60 85 88 3e 62 b8 03 bf
       -0.024856301 0.62097865 0.26664257 -0.5145322
000020 41 33 16 be 95 72 c6 3d 9d 5d 5f 3f 41 4b e3 be
       -0.1466799 0.096898235 0.8725222 -0.44393352
000030 a9 e7 4e 3e 08 98 0e 3e 69 db a1 be f3 9e f6 be
       0.20205559 0.13925183 -0.3161271 -0.48168144
000040 96 22 ae 3f 8c d7 59 3d 37 ea 84 3d e9 37 7d be
       1.3604305 0.053184077 0.064899854 -0.2472836
000050 ca 29 f6 3e 97 5c 3f be b9 4c c7 3e a8 3e c3 3e
       0.48078758 -0.18687664 0.38925722 0.3813374
000060 35 fa 1a 3f 92 d8 8b bd 68 60 d1 be ac cd c8 3f
       0.60538036 -0.06828417 -0.40893865 1.5687766
000070 17 08 62 be a9 83 0b 3d 6e 21 5a bf 7d 0c 1a 3f
       -0.22073399 0.034061108 -0.8520726 0.60175306
000080 e7 49 ab 3d 45 a2 9f be fb 41 4a be 15 e5 c2 3e
       0.08363705 -0.3117849 -0.19751732 0.380654
000090 a8 a4 1e bf 66 5f b1 be d2 22 94 3f 27 8d be 3e
       -0.61969995 -0.34643096 1.1573126 0.37217066
0000a0 0c c3 5a be 58 c1 2c bf 56 7d a6 bd 88 68 55 3f
       -0.21363467 -0.6748252 -0.08129375 0.8336263
0000b0 d6 b6 a2 3e ee 8f 86 3e 42 9f 44 3c 66 ea 52 bf
       0.31780118 0.26281685 0.012000861 -0.82388914
0000c0 12 e1 9c be 85 3c 85 3f 9a 90 92 be 82 72 58 be
       -0.30640465 1.0409094 -0.28625947 -0.21137431
0000d0 80 95 3b be 02 3f 0a bf 2b 9b 36 3f 20 0e af be
       -0.18318748 -0.5400239 0.7133052 -0.34190464
0000e0 b2 43 94 be d6 bb 40 3f c2 ae 84 bf 67 cf 34 bd
       -0.28957897 0.75286615 -1.0365832 -0.044143107
0000f0 0e 09 a2 3f 5f 4d 49 3e 3b 1f 43 be d4 ac cc be
       1.2659013 0.19658421 -0.19054882 -0.39975607
000100 23 d0 6c 3e 9a 2f 84 3f 2a 92 10 bf cf 59 aa 3d
       0.23126273 1.0327027 -0.5647303 0.08317911
000110 a2 f7 71 3e 31 17 b9 be 4d 49 7c be 2d 42 93 3f
       0.2362962 -0.36150506 -0.24637337 1.150457
000120 46 a9 1c be 4e 91 8b 3e 04 7d 5d bf 1d 9d a5 3c
       -0.15298948 0.27259296 -0.86518884 0.020216519
000130 06 68 3f 3f d2 7c 55 be 0c 7e 24 3f 86 ea c8 be
       0.747681 -0.20848396 0.6425483 -0.39241427
000140 a7 b0 28 3f 58 bd 39 bc 84 13 a4 bf e7 54 88 3e
       0.6589455 -0.011336647 -1.2818456 0.26627275
000150 c3 4e 48 be a0 7c 82 3e 2e 17 80 3d 83 4f 55 be
       -0.19561295 0.25485706 0.06254421 -0.20831113
000160 45 8f 3a 3e d0 fb 91 3d 22 ca 91 bd 07 f9 49 bf
       0.18218715 0.071281075 -0.07118632 -0.7889561
000170 35 e1 88 be d2 88 98 3f 1c 56 1c 3f 08 50 30 be
       -0.2673432 1.1916754 0.6106889 -0.1721803
000180 58 db 0e be e2 7c 5f 3e d2 d3 05 3e bf b4 ed be
       -0.1395086 0.21824983 0.13069084 -0.4642696
000190 4c 18 0d 3f 6b 04 b2 be af e0 b2 bf ed 74 08 bf
       0.551152 -0.34768996 -1.3974818 -0.53303415
0001a0 39 26 be 3f 9e 39 09 3e 49 0f 81 be bc 46 bd 3e
       1.4855415 0.13400885 -0.25206974 0.3696803
0001b0 f0 c5 94 be 82 ae 1a 3f a6 b0 bc bd f1 7f 28 3e
       -0.29057264 0.6042253 -0.092133805 0.16455056
0001c0 c7 16 cd bd b6 3d d6 bd 01 98 9b be 74 70 a7 3f
       -0.1001411 -0.10460989 -0.30389407 1.3081193
0001d0 ca 9c 06 3f 00 87 a8 bc 15 06 1b bf dc 7b 49 be
       0.5258299 -0.020572186 -0.60556155 -0.19676155
0001e0 0c f7 80 3f 10 e5 98 3e 80 62 21 3f 33 f1 6a 3e
       1.0075393 0.2986226 0.63040924 0.22943573
0001f0 18 f1 25 3f 1e 3a 19 bb cb f1 dc bf cc 97 85 bd
       0.64821005 -0.0023380588 -1.7261289 -0.065230936
000200 01 64 9c be 0b b3 5d be 55 5b ea 3b fb cb 2a be
       -0.30545047 -0.2165033 0.007152001 -0.16679375
000210 08 d9 90 bd 06 90 9b be 18 e1 23 bf 23 58 7f 3f
       -0.070726454 -0.3038332 -0.6401534 0.9974386
000220 70 20 03 3f eb d4 6d bf 9f fe 70 3e a3 78 4e be
       0.5122137 -0.9290301 0.2353463 -0.20163207
000230 1b 48 b7 3e 9a 9d 01 3e a1 87 fe be ef 62 07 bd
       0.357972 0.12657776 -0.49712852 -0.033053335
000240 9b d0 23 bf 13 a5 46 3e 9c b9 82 bf 14 68 2d 3f
       -0.6399018 0.19398908 -1.0212893 0.67736936
000250 d5 3c d8 3f 8a f8 e1 3e b0 d4 16 3f a1 f6 87 be
       1.6893564 0.44134933 0.58918285 -0.2655535
000260 b2 86 a2 be 59 c2 69 3e 14 9d 55 3e 5a 19 01 3d
       -0.3174339 0.22828044 0.20860702 0.031518318
000270 fe 35 97 be c1 5e 88 bf fe 9c cf 3e 6e 2c 8c 3f
       -0.2953338 -1.0653917 0.40549463 1.0951059
000280 8a 12 08 3f 1c 1c 98 be c8 03 9d 3b 1a 45 a6 3d
       0.5315329 -0.29708946 0.0047917105 0.08118649
000290 16 d5 a7 3f d4 cc 9b be 82 29 b3 be a2 94 67 be
       1.3111904 -0.3042971 -0.34992605 -0.22615293
0002a0 26 93 1e 3f bf 11 a9 be 4a d5 10 bf 50 b3 0c 3e
       0.6194328 -0.33021352 -0.56575453 0.13740277
0002b0 ba 16 9d 3d 41 9a d1 bb 89 d0 c6 3c c5 0a ac be
       0.076703504 -0.0063965623 0.02426936 -0.33601967
0002c0 66 4a 1c be 5b a0 a9 3e 71 6b b7 3e 98 53 31 bf
       -0.15262756 0.33130154 0.3582416 -0.6926818
0002d0 f6 d6 e4 be c3 19 42 3f 77 b1 30 3e 9f 80 f4 bc
       -0.44695252 0.7582056 0.17255197 -0.029846488
0002e0 2a 67 b0 bd 54 40 86 3d f4 14 ea 3e ab 56 83 be
       -0.08613427 0.06555238 0.4571911 -0.2565206
0002f0 d7 dd 4c 3e bc bd 1b bf 70 90 29 3f a1 f8 9a bd
       0.200065 -0.60836387 0.6623602 -0.075669535
000300 d4 5b 84 bf 44 21 81 3e 9e 9e a7 be ff 4f 6d 3e
       -1.0340524 0.25220692 -0.32738203 0.23175047
000310 27 f5 4f 3e a5 31 ec be 34 9a 6c 3e 4f 5e 5d be
       0.20308362 -0.46131626 0.23105699 -0.21618007
000320 e3 ed 64 3e 49 bb 6e 3f 67 e8 81 3d 0c f1 4e bf
       0.22356372 0.93254524 0.06343155 -0.8083656
000330 c2 f5 7c be b5 56 ed 3e f0 c3 5b 3e 79 6e d3 be
       -0.24703124 0.46355215 0.21461463 -0.4129522
000340 4f 47 11 bf d1 33 03 bf 10 ec 60 be 59 86 24 be
       -0.56749433 -0.5125094 -0.2196505 -0.16066875
000350 4e 6e b1 3e 89 c1 7e 3e 12 25 76 bf cc 64 6e be
       0.34654468 0.24878515 -0.96150315 -0.23280638
000360 03 90 08 be 25 ba ea 3d ed 54 10 3e fa ae cf bd
       -0.13336186 0.114612855 0.14094897 -0.10140796

network_body._body_endoder.seq_layers.0.bias f4 [20]
000000 c8 c7 f8 3d 33 bd 4f 3e 20 4a 0b be 12 f0 b4 3d
       0.1214748 0.20287018 -0.13602495 0.08834852
000010 64 71 10 be c2 67 cd 3d 0d 78 78 3e 0c 8a af bd
       -0.14105755 0.10029556 0.24264546 -0.08571252
000020 22 91 96 3e d2 5f c6 3d 8c 1f c9 3d 13 d3 55 be
       0.29407603 0.09686245 0.0982047 -0.208813
000030 dc 2e 15 3e 1b 2f 9d 3e 7c 3c d1 3e d4 5f c3 bd
       0.14568657 0.307 0.40866458 -0.09539762
000040 e8 a8 39 3e fa e8 cb bd 3c 90 15 bd e8 33 f9 3c
       0.18130839 -0.09956546 -0.036514506 0.030420259

value_heads.value_heads.extrinsic.weight f4 [1, 20]
000000 2a 15 19 3f 69 25 70 3f d4 1b 4e bf 3a bf 35 3f
       0.5979792 0.93807083 -0.8051121 0.70994914
000010 a4 a5 05 bf 95 4e 6d 3f 5f 18 27 3f 27 35 02 bf
       -0.5220587 0.9269803 0.6527156 -0.50862354
000020 7b 6b 8a 3f e9 3d 2d 3f 2b 1e f6 3e 22 3c 1b 3f
       1.081405 0.6767259 0.4806989 0.6063863
000030 26 70 8a bf 65 0d 47 3f 08 19 7b 3f ae 63 fe be
       -1.0815475 0.77754813 0.9808507 -0.49685425
000040 ec 2d 5b 3f 31 79 09 bf 1a 22 a6 3e 7c e0 30 bf
       0.85616946 -0.5370055 0.32447892 -0.69092536
