results/turret_train_9/TurretShoot/TurretShoot-281499.onnx (onnx, 287600 bytes, 11 tensors)

network_body.observation_encoder.processors.0.normalizer.running_mean f4 [11]
000000 50 c7 91 3d 56 a9 6e c5 d9 c0 bf bc 33 af 76 bc
       0.07118094 -3818.5835 -0.023407387 -0.015056419
000010 b9 9c d8 3c 0b 4d 09 3f 29 fd 6e 45 99 92 08 3b
       0.026441919 0.53633183 3823.8225 0.0020839332
000020 6b fc bf c3 8b a4 97 bc f0 63 09 3f
       -383.97202 -0.018511077 0.5366812

network_body._body_endoder.seq_layers.0.weight f4 [256, 11]
000000 2c 16 aa 3e 9c a3 b7 3d ae 23 1a 3e 68 3e 72 3e
       0.3322004 0.08966753 0.15052673 0.23656619
000010 43 7e 02 bd a4 93 aa be f7 98 6e 3d f3 d5 fb bc
       -0.031858694 -0.33315766 0.058251347 -0.030741667
000020 4c eb 01 bf 43 d3 92 be 78 8f 19 3c 29 d0 ec 3e
       -0.5074966 -0.28676805 0.0093725845 0.46252564
000030 f0 5b 77 be e0 13 47 bd 3b 7e 1e 3d df b3 86 3e
       -0.24156165 -0.04860294 0.0386946 0.26309106
000040 4c db ae be 40 46 91 3e 63 7c fe 3d 9b 20 2e be
       -0.34151685 0.2837391 0.12426069 -0.17004625
000050 ee bb 3c be ae b9 28 3e 87 57 37 be b4 ec 83 bd
       -0.18431064 0.16477081 -0.17904483 -0.06441632
000060 bc 84 8f bb f2 a2 91 3e 48 2b 2f 3e e4 b0 20 be
       -0.004379837 0.2844463 0.17106354 -0.15692478
000070 d8 51 24 3f 6d 27 b1 3e 0f 89 ce bd e7 d7 ef bb
       0.64187384 0.34600392 -0.100847356 -0.0073194387
000080 05 3d 67 3e 6d 12 95 3e 5f 20 50 3e 16 41 2a bf
       0.22581871 0.2911562 0.20324849 -0.66505563
000090 76 f3 07 3f 27 24 2f 3e c1 bf 9f bd 23 d8 11 bf
       0.53105867 0.17103635 -0.07800246 -0.56970423
0000a0 3f f6 19 3f b4 c4 9b bd d5 92 b5 be 1a 05 ab bd
       0.60141367 -0.076058775 -0.35463586 -0.083505824
0000b0 f1 e7 e9 3c 02 dc 0c 3f a5 fb 55 be ef e4 ab be
       0.028552981 0.55023205 -0.20896776 -0.335731
0000c0 da 4a af 3e d2 34 ca 3e 90 06 b5 3e df 8d 88 3e
       0.34236795 0.39493424 0.3535657 0.2667074
0000d0 96 33 82 be f9 32 55 be a4 03 6c 3d 6e 16 15 be
       -0.25429982 -0.20820226 0.05762066 -0.14559337
0000e0 17 ce 3a 3e 82 34 6a 3e ba 8f 96 3e 6d 63 c2 3e
       0.1824268 0.22871593 0.2940653 0.3796648
0000f0 6b 6f cb 3e 2f 17 21 3f 19 8a 15 3e a4 87 0c 3e
       0.39733443 0.62926 0.14603461 0.13723618
000100 8d c9 3a bd 2b 83 b9 be 0f 0a 2a bf 5e 13 c8 3e
       -0.04560237 -0.36232886 -0.664216 0.39077276
000110 7c 1c c9 bd b6 9c cc 3e 46 0e bb 3e bb 9c a7 3d
       -0.09819886 0.3996331 0.36534327 0.08184191
000120 37 c7 1a 3d e0 87 0c be 2c fe 08 3e 27 95 59 be
       0.037787642 -0.13723707 0.13378209 -0.21248303
000130 fd 80 d6 3e 5e d5 8a be 9c e8 ca 3e 7d b6 9c be
       0.41895285 -0.2711591 0.39630592 -0.30607978
000140 65 33 1f 3f 61 17 5b 3e 95 ce a1 3d ca 3f 05 bb
       0.62187797 0.21395637 0.079007305 -0.002033221
000150 b9 34 1b 3f 28 7e f1 3d 80 21 da 3e 68 47 ec be
       0.60627323 0.117916405 0.42603683 -0.4614823
000160 d4 f9 80 3e cc f2 c3 be 9f 33 c8 3e 68 40 ee 3e
       0.25190604 -0.38271177 0.39101884 0.46533513
000170 49 ab 99 3e 92 51 9c be 28 a6 04 3f 4d 8d 32 be
       0.30013493 -0.30530983 0.51816034 -0.17436714
000180 0b 88 7a 3e e9 95 70 3e ee c2 81 3e 88 14 ea 3c
       0.24465959 0.23494686 0.25344032 0.028574243
000190 28 44 a9 3e 96 17 23 3d d9 3e d0 bc f4 03 fd 3d
       0.33059812 0.039817415 -0.025420593 0.123542696
0001a0 c3 7a 77 3f ab 00 2d be 08 9d b2 be ba 53 31 bd
       0.96671695 -0.16894786 -0.3488543 -0.04329274
0001b0 03 4e 37 be dd 3f 16 3f 35 d7 52 be 06 3a 2c 3f
       -0.17900853 0.586912 -0.20589907 0.67276037
0001c0 d0 ad 17 be 82 a3 1e 3f e2 28 03 bf 17 0f a3 3e
       -0.14812398 0.61968243 -0.5123426 0.3184745
0001d0 73 1f 52 be 6b 0a 30 3e 52 ba 3b 3e 94 51 b0 3e
       -0.2051981 0.17191474 0.18332794 0.3443724
0001e0 2b 23 f4 3e 57 9a 19 3d fd 6b dc 3d 62 7f be 3d
       0.4768308 0.037500706 0.10762785 0.0930164
0001f0 5f 62 2b 3e 04 47 ab be e6 ec 37 3e b5 78 8e bd
       0.16736744 -0.33452618 0.17961463 -0.06956617
000200 a9 7c 6c be aa f9 2e be d2 7c d2 3e cd 70 75 be
       -0.23094429 -0.17087427 0.41110855 -0.23968811
000210 8b b9 10 3e be c2 45 be f2 50 dd 3e 39 63 64 be
       0.14133279 -0.1931257 0.4322582 -0.22303475
000220 c7 7b 89 be 85 6b 31 3e 47 db bf 3d 5f d9 21 3d
       -0.26852247 0.17326172 0.09367996 0.03951394
000230 6d c6 f8 bd 00 7c 6e bd 2a 44 74 be 28 9d 8e bd
       -0.12147222 -0.058223724 -0.23854128 -0.06963569
000240 31 97 cb be 94 57 d3 3e 2e af 1e 3f 1d e4 6e be
       -0.39763787 0.41277754 0.61986053 -0.23329206
000250 3c 7b e9 3e a1 82 dd be 1b fd 28 3e 3e 7f 76 be
       0.45601833 -0.43263724 0.16502802 -0.24071977
000260 1f 74 a3 bd e3 60 e1 bd ed c6 c9 bd ce 97 26 be
       -0.07981133 -0.11004808 -0.09852395 -0.16268846
000270 2c 9e 83 3d f8 10 27 3d 11 47 10 3f d3 45 34 be
       0.06426653 0.040787667 0.5635844 -0.17604761
000280 ee d8 d1 3e 2d fd e6 3e 2c 01 6b 3e 46 fc 84 3e
       0.40985817 0.45115033 0.22949666 0.2597372
000290 20 ef cd be 43 20 f2 3e 66 d1 c6 3e c0 56 75 be
       -0.402215 0.4729024 0.38831633 -0.23958874
0002a0 3d 56 0d be 1d 7e 20 3d d8 b8 9d 3e 0a 9d 1f 3d
       -0.13802429 0.03918277 0.30805087 0.038968123
0002b0 64 3d 9b 3d 92 6c 0b bf d8 d0 7b bd b1 5d 43 3e
       0.07580069 -0.5446254 -0.061478466 0.19078709
0002c0 a0 9a a5 be 36 a8 0f 3e ea 9b b9 3e fd a9 7a be
       -0.32344532 0.14029011 0.36251765 -0.24478908
0002d0 21 c4 7b 3e 6b 27 33 bf 7c 4a 43 bf d8 ab 16 3e
       0.24586536 -0.6998202 -0.7628553 0.1471399
0002e0 c3 2c ce 3e ff 6f b6 3e 80 84 72 be 7b a0 3f 3f
       0.40268525 0.3563232 -0.23683357 0.7485425
0002f0 5e 8c 25 3d 97 99 e5 bb 11 4e a1 3d d7 90 1a 3d
       0.040417068 -0.0070068347 0.07876218 0.037735786
000300 b2 5e 59 be 9a 9a 2d bf 8f 60 6e be e8 a3 93 be
       -0.2122753 -0.6781403 -0.23279022 -0.28835988
000310 b1 02 8c 3e 82 8c 85 3c b7 45 bc bc 10 d6 af bd
       0.27345803 0.01630235 -0.022982461 -0.08585751
000320 0b 88 ac bd dd d9 52 3e f6 90 6a 3e f7 5f 4b bf
       -0.08424386 0.20590921 0.2290686 -0.79443306
000330 8d 94 af 3e 3d 97 db 3e a1 06 0f bf ee 0c 24 be
       0.34293023 0.42888823 -0.5586949 -0.16020557
000340 8a 88 0f 3d ae f0 2c 3d 71 cb 0e be 0a cf b5 3d
       0.035042323 0.042221718 -0.13944794 0.0887738
000350 a7 00 99 be 76 bd 88 be df 98 c2 be cc 89 d1 3e
       -0.2988331 -0.26707047 -0.38007256 0.40925443
000360 2d 1b 57 bd 35 02 2c 3e 91 8f 29 bc 1a a5 6f 3e
       -0.05251615 0.16797717 -0.01034917 0.23402825
000370 a9 7d c9 be b6 e3 be be b6 f2 0b 3e 43 20 8f be
       -0.39353684 -0.37283105 0.13666806 -0.279543
000380 a7 eb c8 be f4 e4 cc 3e af e1 de be 32 15 42 bd
       -0.39242288 0.40018427 -0.43531558 -0.047383495
000390 f2 a8 4b be aa 94 0c bc 58 04 08 3e 1b f0 e4 be
       -0.19888666 -0.008580366 0.13282907 -0.44714436
0003a0 fd f8 c7 bd de 63 c9 be 80 f9 ce 3e 74 9f 22 be
       -0.097642876 -0.39334005 0.40424728 -0.15881139
0003b0 df 21 72 bc 1f a9 0f 3d 83 9a ce bd 89 f8 e6 bd
       -0.014778583 0.035073396 -0.100880645 -0.11277873
0003c0 64 79 40 3d 19 7c 9f bd 86 a1 a3 bd 94 59 eb bd
       0.046990767 -0.077873416 -0.079897925 -0.11491695
0003d0 f8 1d 21 3f 5f b3 6e be 02 a7 8b 3e 2a 9f 21 bf
       0.62936354 -0.23310612 0.27275854 -0.6313349
0003e0 d1 4f 16 3f d8 46 27 3e e2 ff ca 3e 08 da 8b 3e
       0.5871554 0.16335618 0.39648348 0.27314782
0003f0 25 58 82 3d 63 5b 66 3e 64 95 d0 be 71 fc c9 3d
       0.063644685 0.22495799 -0.40738976 0.098626025

network_body._body_endoder.seq_layers.0.bias f4 [256]
000000 4e 68 86 bb 3c 9d d1 3c 10 40 8b 3b 51 01 21 3d
       -0.0041017896 0.02558767 0.00424958 0.039307896
000010 be 7d 0c 3d f9 92 3c 3d 0c 11 f1 3c ce 2b 75 3d
       0.034299605 0.0460386 0.029427074 0.05985623
000020 97 35 99 bc d1 a9 15 3d e5 93 3f bb 62 1d 7e ba
       -0.018702311 0.036538903 -0.002923244 -0.00096937094
000030 90 60 db 3c d9 15 15 3d b8 c5 8f 3c 68 7b 35 3c
       0.026779443 0.03639779 0.017550334 0.011076786
000040 37 cf 10 3d dd 5c eb 3c 21 9c 23 3d f5 db d6 3c
       0.035353865 0.028730804 0.039943818 0.02622793
000050 9b 62 9b 3c ee 04 c0 3c b8 e1 0f 3c d7 d9 93 3c
       0.018967917 0.02343985 0.008781843 0.01804821
000060 94 99 ba 3c 2d 04 7f bb e4 e9 c4 3c ec 80 22 3d
       0.02277831 -0.00389124 0.024037309 0.03967373
000070 7e d2 db 3c bd b3 01 3d a3 44 6b 3b 84 54 0d 3d
       0.026833769 0.031665552 0.0035899065 0.03450443
000080 b8 c5 40 3d f0 a2 b8 3c 4e 6e 1a 3d 8c 37 32 3d
       0.04706356 0.022538632 0.03770285 0.043510005
000090 7d f7 46 3c 5e 92 59 3c b2 34 2a 3d e8 d7 2d 3c
       0.012143967 0.013279526 0.04155416 0.010610558
0000a0 26 b2 60 3d 07 b2 4c 3c dc 38 35 3c af b1 3d bb
       0.054857396 0.012493617 0.01106092 -0.002894502
0000b0 69 6d 2f 3d 5f b2 fb 3c 09 11 f8 3b 0f df 5d 3c
       0.04282895 0.030724702 0.00757039 0.013541951
0000c0 a1 6b 8f 3c a1 7f d1 3c ce 3c 10 3d 30 05 8f 3c
       0.017507376 0.025573554 0.035214238 0.017458528
0000d0 2f cc 14 3d 99 33 af 3c 2d 1d ec 3b 99 2f 25 3d
       0.036327537 0.021386908 0.0072056265 0.040328596
0000e0 66 fe a2 3d 05 0f 07 3d 3d f3 1a 3d 1e d6 33 3d
       0.07958679 0.032973308 0.037829626 0.04390537
0000f0 bb 91 10 3d 62 89 3f 3c ff f3 32 3d 15 a9 cb bc
       0.03529523 0.011690469 0.043689724 -0.024860898
000100 a4 99 6b bb 52 d4 dc 3c c0 13 80 3c 5a 76 20 3d
       -0.0035949731 0.026956711 0.015634418 0.03917537
000110 ef 31 a1 3b ca 0a 06 3d 77 72 e0 3c 19 5b 1a 3d
       0.0049192826 0.032725133 0.027398331 0.037684534
000120 c3 9f c5 3c b8 ed 10 3d 4a 81 fc 3a 6a 39 83 3c
       0.024124032 0.035382956 0.0019264605 0.016018588
000130 c0 8f c3 3b 95 5b 5f 3d 5a c5 27 3c 6f e9 d2 3b
       0.005968064 0.0545307 0.010239923 0.006436519
000140 03 d0 61 3d 4b 1e a8 3c ae cf 46 bc 2d da 31 3d
       0.055130016 0.020522257 -0.012134476 0.04342096
000150 4b ba 56 3d 1a 8e e4 3c 3b bc da 3c c1 fc 93 3d
       0.052423757 0.02789979 0.026701083 0.07225943
000160 e9 2d b8 3c 82 39 1e 3c 51 33 fa 3b c8 ca 06 3d
       0.02248283 0.009657266 0.007635512 0.03290823
000170 bc 7b 2e 3d ba 86 ea 3c 86 64 02 3d 8a 0e de 3c
       0.04259847 0.028628696 0.031834148 0.027106542
000180 51 49 7b 3d 9f db 9c bb c1 32 96 3a 84 47 f3 3c
       0.061349217 -0.004786923 0.0011459218 0.029697187
000190 3c 67 74 3c 30 8a 3e 3d 60 d0 ec 3c 49 eb ae 3c
       0.014917191 0.046518505 0.028907955 0.021352427
0001a0 8c 87 a8 3c ad 3f 5b 3d a0 aa aa 3c 79 e8 c5 3c
       0.020572446 0.053527523 0.020833313 0.024158703
0001b0 3e 94 42 3d 8c 62 c2 3c 1f 0a 3a 3d c8 87 9d 3c
       0.047504656 0.023728631 0.04541981 0.019229785
0001c0 b9 14 81 3b 2b 24 2e bc 4c 20 f1 3c b5 84 88 3d
       0.003939238 -0.01062874 0.029434346 0.06665937
0001d0 98 45 08 3d dc cc a5 3c 76 4d 49 3c 08 84 e3 3c
       0.033269495 0.020239286 0.0122865345 0.027772918
0001e0 c7 18 b6 3c e2 dd fe 3b 9a ab c6 3c 5f 75 f0 3c
       0.022228612 0.0077779153 0.024251748 0.029352842
0001f0 9d 3c 82 3c da f9 c7 bc 8a 75 a9 3c 00 8f 2e 3c
       0.015898043 -0.02441113 0.02068593 0.010654211
000200 4e 79 10 3d b0 e1 c8 bb d8 c5 1a 3b 28 38 33 3d
       0.035271935 -0.0061304197 0.002361646 0.043754727
000210 59 72 3c 3c af 9c ae 3c 0d e1 bb 3c 06 aa 08 3d
       0.011501872 0.021314947 0.022934461 0.033365272
000220 ce 1f ed 3c c0 11 ef 3c 71 39 db 3b 19 75 29 3d
       0.02894583 0.029183269 0.006690197 0.04137144
000230 c1 49 b5 3c be 7d b9 3b 95 9e 06 3b ba 60 05 3d
       0.022129895 0.0056607416 0.00205413 0.03256295
000240 82 3d 53 3d 86 9d 38 3d bc 3b dc 3c ac 39 64 3d
       0.05157233 0.0450721 0.026883952 0.055719063
000250 5a 42 0e 3d 03 0b a5 b9 1a 3a d1 3c 79 5e 4d 3d
       0.034731247 -0.00031479457 0.0255404 0.050138924
000260 d0 46 8a 3b 53 78 d4 3c 82 f8 06 3d bd 0f 0f 3c
       0.0042198673 0.025936281 0.03295184 0.00873178
000270 39 b5 a0 3b 08 60 0d 3d 16 15 95 3c 98 e9 11 3d
       0.004904416 0.03451541 0.018198531 0.035623163
000280 a6 f5 d7 3c f1 86 a6 3c dc 34 8e 3c 28 c3 9e 3c
       0.026362251 0.020328017 0.01735919 0.019380167
000290 55 c2 81 3c 3d 86 e0 3b 56 6a 87 3d 91 a5 ca 3c
       0.015839735 0.00685194 0.06612079 0.024737151
0002a0 dc 93 23 bc d0 be 3c 3c f8 9b 10 3d 5f db 95 3c
       -0.009983983 0.011520103 0.035304993 0.01829308
0002b0 8d 26 20 bc ff d3 04 3d cb d7 9b 3c 1f 05 9e 3c
       -0.009774816 0.032428738 0.019023797 0.019289551
0002c0 26 db 83 3d 0b 94 4d ba 11 45 fd bc 53 57 fc 3b
       0.064382836 -0.00078421895 -0.030916722 0.0077008395
0002d0 66 60 c0 3c a8 2d 03 3d d7 cd c8 3b bb b5 19 3d
       0.023483466 0.032025963 0.0061280536 0.037526827
0002e0 e0 36 94 3d 29 29 c6 3c f2 9f 2f 3d 17 4e 3d 3d
       0.07237029 0.024189549 0.042877145 0.04621705
0002f0 fd 14 13 3d 80 aa 4c bb e2 0b 5b 3d 3b 5a 35 3d
       0.035908688 -0.0031229556 0.05347813 0.044275504
000300 8d 00 12 3d e5 a5 ec 3c e9 1b dd bc 45 0f 1d 3d
       0.035645057 0.028887698 -0.026990848 0.03834464
000310 f7 80 80 bc 8a 5f 47 3d 47 f9 ee 3c 46 56 b0 3d
       -0.015686495 0.048675098 0.0291716 0.08610205
000320 7b 3f d9 3b ce 48 40 3d a6 74 f3 3c e6 70 b7 bc
       0.006629882 0.046944432 0.029718708 -0.022392701
000330 74 47 70 3c 05 3a d6 3c be 03 f6 3c 9f 66 28 3d
       0.014665473 0.026150713 0.030031081 0.041113492
000340 f2 af d5 3c ec 6d 35 3d 2b 7d c0 3b 54 3f 19 3d
       0.026084874 0.044294283 0.005874296 0.03741391
000350 6c 1e d3 bc b0 c8 b8 3c 11 5d f0 3c 61 5e f2 3c
       -0.025771342 0.022556633 0.029341253 0.029586019
000360 08 a6 22 3d e2 38 37 3c 7c 32 0b 3d 16 e2 2a 3d
       0.03970912 0.0111829955 0.033983693 0.04171952
000370 c2 cb 47 3c f4 bf 9f 3b f4 ef a4 3c f3 39 3d 3d
       0.012194576 0.0048751775 0.02013395 0.046197843
000380 1d d5 b6 3c 91 82 e0 3c a8 33 2a 3d ad ea 17 3c
       0.022318417 0.027406009 0.04155317 0.00927226
000390 cc 34 35 3d 84 d4 c5 3c dc 55 18 3d e0 b8 14 3d
       0.044239804 0.024149187 0.037191257 0.036309123
0003a0 ec f3 1c 3d a0 63 38 3d 49 47 d3 3c ba 7e 36 3c
       0.03831856 0.045016885 0.025790827 0.011138612
0003b0 15 a6 3d 3c 80 99 14 bc fb 69 0d 3d 6d 4c 00 3d
       0.011575242 -0.0090698 0.0345249 0.031322885
0003c0 f3 d7 33 3d fc 01 09 3b cb e9 1c 3c 3e 7b d4 3c
       0.043907117 0.0020905724 0.009577225 0.025937673
0003d0 33 85 12 bc 7b 44 75 3b 48 87 82 3b 0d 79 ee 3c
       -0.00894289 0.003742485 0.003983412 0.029110456
0003e0 06 eb 12 3d 61 4e 6e 3d 6f 30 d0 3b 70 97 b9 3c
       0.035868667 0.058180217 0.00635343 0.022655219
0003f0 8d 98 e9 3c 06 1f 34 38 73 7e 02 bc 45 6d be bb
       0.028515125 4.2944237e-05 -0.007964718 -0.005811366

network_body._body_endoder.seq_layers.2.weight f4 [256, 256]
000000 02 c8 39 bd c9 c7 6b bd 5e 57 eb 3c bd cb 4d 3d
       -0.045356758 -0.057563577 0.028728183 0.050243128
000010 52 f6 39 be 42 b7 17 3e 2d 16 fc bd 71 64 6f bb
       -0.1816037 0.14816001 -0.12308917 -0.0036528374
000020 cb 24 ad bb 4a e7 5e bd e3 0b 74 bd 0d 92 8e 3d
       -0.005283927 -0.054419793 -0.05958165 0.06961451
000030 8a 48 c5 3d 55 2e 41 bd c0 17 6d bd 34 66 04 be
       0.09632976 -0.047163326 -0.057883978 -0.12929612
000040 b8 e0 81 3d d1 27 bf bd c7 d9 fb ba 72 b8 9a 3d
       0.0634169 -0.09333766 -0.0019214683 0.075547114
000050 ea 0d 1e 3e 3a 28 ba bd a5 c6 44 3d 7f d3 56 3c
       0.15434995 -0.09089704 0.048041005 0.013111948
000060 ab c6 2e 3d 51 ff 97 bd 75 52 f9 bd 2d 36 dd 38
       0.042669933 -0.074217446 -0.121739306 0.00010548192
000070 70 3f d1 bd ff 97 84 bd 9c 4d 9b bd 57 06 c7 3d
       -0.10217178 -0.064743035 -0.07583162 0.09718006
000080 c7 c4 b1 bc a5 f4 4b bd 90 83 ff bd ee e5 ec bc
       -0.021700276 -0.049793858 -0.124762654 -0.028918233
000090 a2 13 28 3d 94 5e 51 bc 94 63 d6 bc f6 57 22 bd
       0.04103435 -0.012778897 -0.02617053 -0.039634667
0000a0 dc f2 22 bd 2a 0d 6d 3d 84 6c f7 3d 0f 3a b0 3c
       -0.03978239 0.057873882 0.120812446 0.02151206
0000b0 08 89 19 bc f3 f3 a0 bd 67 30 97 bd a0 9f a1 bc
       -0.00937105 -0.078590296 -0.07382279 -0.019729435
0000c0 9e ca d6 3c 1b 39 1b 3d 2b 2a aa 3d f0 2f 86 bd
       0.026219662 0.037896257 0.08308824 -0.06552112
0000d0 a9 7a a5 3d d4 76 f1 ba dc 83 35 bd 6d 12 18 bd
       0.08080036 -0.0018422254 -0.044315204 -0.037126947
0000e0 3a 54 a7 3c 2d 2b 39 bd ad 1f 9c bc b9 ee 8e 3d
       0.020425905 -0.04520719 -0.019058073 0.069791265
0000f0 d2 6e 28 bd 1a e3 f3 3c a0 dd 7f bd 5d 12 e3 bb
       -0.04112131 0.029771376 -0.062467217 -0.0069296793
000100 a6 5b 40 bc 21 5a 81 3c 58 6b 4f 3d 50 df 93 bc
       -0.011740601 0.015790047 0.05063948 -0.01805082
000110 ee 75 43 bd f3 49 f0 bd 41 90 27 bc b2 40 d1 3d
       -0.04771989 -0.11732855 -0.010227264 0.10217418
000120 0e 9d d0 bd fa 70 b9 3c ee e1 06 3d 82 c0 8e bd
       -0.10186206 0.02263688 0.032930307 -0.06970312
000130 ad 6e c9 3d 6c 9f bb 3c 40 4a 74 bc 87 f4 c5 bd
       0.09835563 0.022903167 -0.014910281 -0.096657805
000140 d8 43 c7 3c 09 30 47 3d 6d ee 43 bc 60 e0 c0 bc
       0.024324343 0.048629794 -0.011958701 -0.02354449
000150 ed 09 c4 3c 92 3a 1a 3d a3 39 8a bd 21 29 70 bb
       0.023930514 0.037653513 -0.067492746 -0.0036645608
000160 9a e6 ee bc 8b 77 29 bc 51 81 bc bd a5 48 74 3d
       -0.029162694 -0.010343443 -0.09204353 0.05963959
000170 6c bd cc 3c 33 f8 1e 3d aa bf 50 bd 24 c7 69 bc
       0.024992667 0.03881092 -0.050964035 -0.01426867
000180 73 8d be bd 05 fa da 3d f3 a7 01 bd 70 dc 9a 3c
       -0.09304323 0.10692219 -0.03165431 0.01890394
000190 97 17 b4 bd 83 79 28 3d c2 1d f2 bc 55 a9 23 bd
       -0.08793562 0.041131508 -0.029555205 -0.03995641
0001a0 4f 6b 81 bc e8 28 90 bd 3c a2 c7 3d 12 d3 0a 3c
       -0.015798239 -0.07039052 0.097477406 0.008473175
0001b0 b3 90 0b be 6b 43 30 3d f0 40 67 bd 27 11 3a bd
       -0.13629417 0.043033045 -0.056458414 -0.045426514
0001c0 90 1b 94 3c 4c a9 61 3b b4 37 64 bd aa b4 19 3e
       0.01807955 0.0034433184 -0.055717185 0.15010324
0001d0 00 97 fa bd ae 88 ed 3d e3 b9 54 bd 1d bf 53 bd
       -0.12235832 0.11598335 -0.051935088 -0.05169593
0001e0 b9 5e 1e bd 41 d4 88 bd 13 3a 26 3e a9 30 a0 3c
       -0.038664553 -0.06681109 0.16233091 0.019554453
0001f0 dd 72 5a 3d 5e 0a 4f be 12 bc f6 bd bc 75 c8 bc
       0.0533322 -0.20218799 -0.1204759 -0.024470203
000200 e4 c5 19 3d 5e 72 bc 3d d4 81 b3 3c 9e 44 52 3d
       0.03754224 0.09201501 0.021912493 0.05133497
000210 8f f9 04 bd 0f 76 1c be 0f 12 ee bc 2b 0f 10 be
       -0.03246456 -0.15279411 -0.029061345 -0.14068286
000220 5b 19 11 bd 41 78 44 bc f6 f4 6c bd ef 69 e8 bd
       -0.03542457 -0.011991561 -0.0578508 -0.1134833
000230 7c b1 0c bd 55 38 78 bd e1 04 29 3d 88 44 6c bd
       -0.03434895 -0.060600597 0.04126442 -0.057682544
000240 7e 64 8f bd 38 15 13 be e2 cd 34 bd 22 de f3 bd
       -0.07001589 -0.14363563 -0.044141658 -0.11907603
000250 66 45 0b be f6 f3 ea ba f7 bf 27 3c ee 5d 95 bb
       -0.13600692 -0.0017925489 0.010238639 -0.0045583164
000260 01 cc 73 bc 9b a1 7b 3c fb e2 8a ba 6c 86 3e 3d
       -0.014880181 0.015358354 -0.001059621 0.046514913
000270 4f 62 89 bd f5 dd 2d bd fa 14 fc 3d 88 68 5c bc
       -0.06708204 -0.042448003 0.123086885 -0.013452657
000280 c2 5d d4 bb ff b3 00 bd b9 4a a9 bb fc 8d ec bd
       -0.0064809034 -0.031421658 -0.0051663783 -0.11550519
000290 e1 da 35 3d 5e e4 0b bd 10 73 c0 3d 0c 23 97 bc
       0.044398192 -0.034153335 0.093969464 -0.018449329
0002a0 9e 95 b3 bd 7a 06 d8 3b 90 5b a7 bc ae 99 d8 3c
       -0.087687716 0.006592569 -0.020429403 0.026440468
0002b0 47 c4 fd bd b6 cd b7 bc 5a 42 a0 3c ce e9 1a be
       -0.123909526 -0.022436958 0.019562889 -0.15128252
0002c0 a4 09 fd bc 6d 17 94 3d 29 7e 41 3b bd 01 49 3b
       -0.030888386 0.072310306 0.002952466 0.0030671202
0002d0 03 45 0d bd 12 e2 15 bd 1d 08 29 3d cc 6e c5 bd
       -0.034489643 -0.03659255 0.041267503 -0.096402735
0002e0 74 4a e3 3c 26 c4 24 bd 41 dc 72 bd b2 68 69 3d
       0.027745463 -0.040226124 -0.05929208 0.05698461
0002f0 25 c0 62 3d d7 08 5d bd 38 96 b4 bd 9f 39 a9 3c
       0.055359025 -0.05396351 -0.088177145 0.020657359
000300 6b a4 49 bd 59 b0 9d bd 92 1a 0e 3d 88 ee 51 bd
       -0.049229067 -0.07699651 0.03469331 -0.05125287
000310 9f 79 0f 3d ab f6 a0 bc 50 4d 01 bb 0c 14 d7 bd
       0.035028096 -0.01964887 -0.001972992 -0.105018705
000320 23 82 df bb 89 c2 23 bd 9a bf 2a bd 43 ce f8 3d
       -0.0068209334 -0.039980445 -0.04168663 0.12148716
000330 29 22 46 3d 81 90 d7 3c c1 90 3e bd 85 e8 dd 3d
       0.04837242 0.026314022 -0.046524767 0.10835365
000340 5f 81 a3 bc ab 0c e0 bd e1 81 48 bd 1c 60 3c 3b
       -0.01995915 -0.10939916 -0.048951987 0.002874381
000350 77 e2 dc bc 01 22 06 3d 29 e6 9c bd 78 57 41 3c
       -0.026963456 0.032747272 -0.07661087 0.011800639
000360 c6 7f 73 3d ec 3f 17 bd 96 6d b9 3c b0 ae b2 3d
       0.059448026 -0.036926195 0.022635262 0.08724725
000370 5f 2e 8c 3d 09 04 83 3d 3a d4 c5 3d 28 52 a3 3d
       0.06844782 0.06397254 0.0965962 0.079746544
000380 a9 6c e7 bb 2e 41 88 bd fa 6c 0c 3d 20 15 82 3c
       -0.007062514 -0.06653057 0.034283616 0.015879214
000390 5c ca f1 bd 7a 74 2e 3c cd 48 be bc 5f 55 69 bd
       -0.11806175 0.010647887 -0.023228073 -0.05696618
0003a0 c3 c2 95 3d cb 5f c8 3d d1 f8 77 3d 8e 77 3f 3d
       0.073125385 0.09783896 0.060540024 0.046744876
0003b0 59 64 22 bd 17 b4 95 bd 28 5a b3 bd b9 c9 a2 bd
       -0.03964648 -0.0730974 -0.0875743 -0.07948632
0003c0 fc 8d c3 3c b5 f5 7b 3c f0 ae 2d be 06 b9 7d bb
       0.023871414 0.015378405 -0.16961265 -0.003871502
0003d0 3e ae 5d 3c e6 bb 3b 3d 7b 5e e2 3a 02 b9 5f bb
       0.013530312 0.04583349 0.0017270589 -0.0034137373
0003e0 2c e0 d4 bd 1d 30 9c bd 26 09 51 bc ab 1d ee 3c
       -0.1039432 -0.076263644 -0.012758529 0.029066881
0003f0 af 89 d1 3c e5 26 c9 bd 93 13 30 bd 71 3f ae 3d
       0.025578348 -0.09821872 -0.042987417 0.08508194

network_body._body_endoder.seq_layers.2.bias f4 [256]
000000 97 47 60 3c fc 6a a9 3c 36 5c e3 3c f8 56 9f 3b
       0.013688943 0.020680897 0.02775393 0.0048626624
000010 89 4f 07 bd 3f 2f 68 3c 0c d4 cc 3c 6c a4 8d 3c
       -0.033034835 0.014171421 0.025003456 0.017290317
000020 25 07 e6 3c 24 0a 9e 3c 1c 90 c8 3c b9 68 69 3c
       0.028079579 0.019291945 0.02448278 0.014246159
000030 2d d7 84 3c fd 87 9e 3c 93 3d 32 3c f1 14 ef 3c
       0.016215885 0.019351954 0.010878938 0.02918479
000040 2e c8 00 3d a9 cb 0f 3d 60 c5 eb 3b cf 16 76 3c
       0.031440906 0.035106335 0.00719516 0.015020086
000050 f8 22 9a 3c fd 70 8a 3c 01 f5 c4 3c ea f6 59 3b
       0.018815503 0.01689958 0.024042608 0.0033258745
000060 01 fd 1d 3d 84 c1 96 3c 4b 68 a6 3c 92 15 22 3d
       0.03857136 0.018402822 0.020313403 0.039571352
000070 43 ca 0b 3d 5b 1f 71 3c 5b 0e bf 3c ab fb 1d 3d
       0.03412844 0.014716948 0.023322275 0.038570087
000080 e5 62 6e bc 2b 36 b5 3c 47 87 ac 3c 6e 15 c8 3c
       -0.0145499455 0.022120556 0.021060599 0.024424281
000090 83 92 2d 3c 3b c4 16 3c 9c 3c 94 3c 15 a8 fa 3c
       0.010594013 0.009202058 0.018095307 0.030597726
0000a0 c9 1f b0 3b 9a c7 16 3d 6f 2c 0a bb 79 c5 ba 3c
       0.005374883 0.03681145 -0.0021083613 0.02279924
0000b0 0a 2d 35 3c 55 49 07 3d 7e cd 3f bb 9c 18 ae 3b
       0.011058101 0.03302892 -0.002926677 0.0053129923
0000c0 0b ff 04 3d 48 80 98 3c 07 f4 03 3d d1 98 8e 3b
       0.03246979 0.018615857 0.032215144 0.004351713
0000d0 b2 3e 0d 3d 46 86 09 3c 9b e5 c7 3c e3 1f 5f 3c
       0.03448362 0.00839383 0.024401477 0.013618442
0000e0 90 8d 01 3d c4 98 eb 3c f4 cc 9a 3c 31 bd 18 3c
       0.031629145 0.028759368 0.018896557 0.0093224505
0000f0 39 76 0f 3c d1 b9 90 3c 7f ca d1 3c b8 ad 60 3c
       0.008756214 0.01766673 0.025609253 0.013713293
000100 01 0a 84 3b b4 30 57 3c bc 51 84 bb 42 c1 87 3b
       0.004029513 0.01313417 -0.004038064 0.004142911
000110 7e 90 6c 3c 57 30 99 3c 02 e1 dc 3b 7f 5f 51 3c
       0.0144387465 0.018699808 0.00674069 0.012779116
000120 55 b0 44 3c 7c b7 15 3c 78 1a 42 3c ec c6 bb 3c
       0.012004931 0.009137984 0.011847131 0.022922002
000130 3a 02 53 3c 14 e9 92 3c 09 42 c6 3a c7 b7 f0 3c
       0.012878949 0.017933406 0.0015125881 0.029384507
000140 f8 de 17 bc 39 43 c2 3c fc 9e 08 3d 50 0a 68 ba
       -0.0092694685 0.023713695 0.033354744 -0.00088516343
000150 cd 6d f2 3b 4d 6d ea 3c cd 4d 76 3c 65 0f d4 3c
       0.007398343 0.028616572 0.015033198 0.025886247
000160 5c ea 04 3c 44 6c e7 3c f9 18 88 3c a8 05 dd 3c
       0.008112516 0.028249867 0.01661347 0.026980236
000170 32 4f 4e 3d 0b 6b cf 3c a1 53 24 3d 1e 68 0a 3d
       0.050368495 0.025319597 0.040118817 0.0337907
000180 c5 4f 93 3c 41 8a c6 3c 64 4d 99 3b 6f 7c 8c 3c
       0.017982373 0.024235846 0.004678415 0.017149178
000190 5d 06 e7 3c f6 c4 a0 3c c1 85 e4 3c da 0c 3b 3d
       0.028201276 0.019625168 0.02789581 0.045666553
0001a0 3f c9 c9 3c 50 85 45 3c b6 e7 17 3d 1c ab a2 3b
       0.024632094 0.01205571 0.03708621 0.0049642455
0001b0 2b dd 25 3d f4 1c 1a 3d b8 d8 83 bc 72 6d 47 3d
       0.040494125 0.037625268 -0.01609455 0.04868836
0001c0 d8 bd 31 3b 3e 9e b4 3c 8e 67 0f 3d 9c 86 9c 3c
       0.0027121212 0.022048112 0.035010867 0.019107156
0001d0 02 f8 cb 3c 3d d5 1f 3d 04 6d 0c 3d ad 33 30 3a
       0.024898533 0.03902172 0.034283653 0.00067215675
0001e0 ee c3 19 bc a3 db a2 3c 58 46 16 3d cf ad 96 3b
       -0.009385092 0.019880122 0.03668818 0.0045983563
0001f0 09 c1 0a 3b fa 20 05 3d 62 c5 65 3c 6a ae 25 3c
       0.0021172187 0.032502152 0.0140241105 0.010112384
000200 e4 64 7f 3c fa 46 de 3c ca b7 05 3d 01 20 6b 3c
       0.015588019 0.027133454 0.032645978 0.014350892
000210 d3 47 54 3c 6c f2 58 3c af f5 96 3c 8c e4 b8 3c
       0.012956577 0.013241392 0.018427698 0.022569917
000220 10 5a 89 3c 6c 17 61 3c 0a 2d 33 3d 0a 94 52 3c
       0.016766578 0.013738494 0.043744124 0.012852678
000230 3d 93 d0 3c 48 d5 ca 3b d6 54 84 3c 24 a6 a3 3c
       0.025460834 0.006189976 0.016153734 0.019976683
000240 84 aa b0 3c 94 a4 3d 3d 8b 79 43 3c 5f e9 84 39
       0.021565683 0.046299532 0.011930834 0.00025350877
000250 dc 11 a8 3c 24 a6 40 3c 44 4e b2 3c 94 96 19 3c
       0.020516329 0.011758361 0.021765836 0.0093742795
000260 fb 3e f2 3c 33 fb 4b bc 62 31 21 3c f0 c3 95 3c
       0.029571047 -0.012450027 0.009838434 0.018281907
000270 8a 66 a3 3c 40 5c 63 3c de d4 16 3b 3a 21 64 3c
       0.019946355 0.013876975 0.0023015062 0.013923937
000280 ec 2d 62 3b 96 d9 5a 3c d9 a7 d6 3c 65 0b 51 3c
       0.0034512235 0.013357541 0.026203083 0.012759064
000290 af 3f 45 3c 55 32 0c 3c 84 88 c0 3c a8 9a 90 3c
       0.012039109 0.008556922 0.023502596 0.01765187
0002a0 e2 e8 85 3c e5 85 33 3c 53 1f 19 3d ed ac 5c 3c
       0.016346399 0.010957216 0.03738339 0.013468963
0002b0 06 08 7a 3c b2 fe 01 bc 37 81 0a 3c a9 9c 0f 3d
       0.015260702 -0.007934259 0.008453659 0.035061512
0002c0 bf 93 7f 3c b4 6a a1 3c 7c 1e 66 3c 7e f7 c5 3c
       0.01559919 0.0197042 0.014045354 0.024165865
0002d0 6b 2d b1 3c 5a 3d 26 3d 11 3f 30 3c 78 ae 81 3b
       0.021628102 0.040585853 0.010757224 0.003957566
0002e0 c0 39 d6 3c b5 c3 17 3d ab fe 78 3c 4c 94 28 3d
       0.026150584 0.037051875 0.015197436 0.041157052
0002f0 7f 3e a7 3c 40 c1 93 3c c3 3c 71 3b 20 8c ca 3c
       0.020415543 0.018036485 0.0036809898 0.02472502
000300 98 32 93 3c 05 88 e4 39 3f 49 1b 3d 86 3e c5 3c
       0.01796846 0.0004358889 0.03791165 0.024077665
000310 3c a7 8c 3b 6e f5 cf bb 69 b9 d4 3c d8 ea ee bb
       0.004292397 -0.006346396 0.025967317 -0.007291179
000320 dc fd a5 3c 4d fe f8 3a d4 47 34 3c eb eb 1c 3c
       0.020262651 0.0018996686 0.011003453 0.009577732
000330 72 a4 16 3d 29 02 d4 3c c6 11 75 3c cd 02 83 3c
       0.03677792 0.025879936 0.014957851 0.015992546
000340 4e e7 0b 3d 8d 42 93 3c 24 8d 87 bb 00 db 89 3b
       0.034156136 0.01797607 -0.0041366983 0.004207015
000350 d8 2a f9 3b 8f f1 8d 3c b1 9a a6 3c c6 42 b9 bb
       0.0076039843 0.017327098 0.020337434 -0.005653712
000360 39 bf 07 3d 0c 02 70 bb 0b f4 da 3c 0b 7b 08 3d
       0.03314135 -0.0036622314 0.026727697 0.033320468
000370 b5 9e 26 3c 1d a3 5a 3c 08 8f cf 3c b2 17 aa 3c
       0.010169675 0.013344553 0.025336757 0.020763252
000380 c2 78 0e 3b fe 01 2a 3d d2 2c 8e 3c e1 f7 bc 3c
       0.0021739458 0.041505806 0.017355356 0.023067417
000390 09 1e d2 3c b9 3f 94 3c 60 d7 8f 3b 10 38 ce 3b
       0.025649088 0.018096792 0.0043896884 0.0062933043
0003a0 68 4b 9b 39 ab 48 2f 3d 97 36 b3 3c cc e5 da 3c
       0.00029620086 0.04279391 0.021876616 0.026720904
0003b0 18 d4 87 3c 94 8f 9a 3c 44 d3 d6 ba 23 59 ba 3c
       0.016580626 0.018867292 -0.0016389866 0.022747582
0003c0 09 ad ae 3c 9e f5 44 3c 38 35 a7 3c 1d c2 b5 3c
       0.021322744 0.01202145 0.020411119 0.022187287
0003d0 f5 0c 57 3c 1a f2 07 3d 5f f3 66 3c a8 cc f0 3c
       0.013125648 0.03318987 0.01409611 0.029394463
0003e0 51 22 00 3d 95 db 24 3d db 7e da 3c 72 e9 33 3c
       0.031282727 0.040248472 0.026671818 0.010980951
0003f0 28 9b 99 bb 73 ae 5b 3c 9f 51 10 3d 8f 70 c3 3c
       -0.0046876855 0.013408291 0.03523409 0.023857383

action_model._continuous_distribution.log_sigma f4 [1, 2]
000000 28 bc a9 be 26 c0 09 be
       -0.33151364 -0.13452205

action_model._continuous_distribution.mu.weight f4 [2, 256]
000000 29 f7 a3 3d 0c f6 3d bb 20 07 9c bd 06 f1 00 bd
       0.080061264 -0.0028985767 -0.076185465 -0.031479858
000010 bb e9 8e 3b 23 a9 24 ba 29 b5 aa bb a5 b1 9f 3c
       0.004361359 -0.0006281307 -0.0052095843 0.019493887
000020 db ff 6f bd 7b 05 f6 3c a2 49 d7 bc 50 32 54 bb
       -0.058593612 0.03003191 -0.026280228 -0.0032378621
000030 2c 5a a4 bd 5c 78 85 3c bb d5 a2 3d 77 0e 6e 3d
       -0.080250114 0.016292743 0.07950922 0.058119263
000040 4f e4 40 bd a0 75 f6 bd f4 1b 54 3d 09 e6 9d 3d
       -0.047092732 -0.12034154 0.05178447 0.07709891
000050 2d 45 82 bb 34 d4 9b bd 78 7e 40 bc d4 75 48 3d
       -0.0039755316 -0.07608834 -0.0117489025 0.048940495
000060 8b 1a 35 bc 68 de a8 bd 8e d7 ec 3d 51 ea 23 3c
       -0.011053692 -0.082455456 0.11564551 0.010004596
000070 21 dc 48 3d 86 dc a1 bc 28 37 00 3d 1c 96 b0 bc
       0.049038056 -0.019758474 0.0313026 -0.021555953
000080 5a 7b 4a bc 9a cf a8 bd 53 af 42 bd 00 d0 08 3d
       -0.012358511 -0.08242722 -0.047530483 0.03340149
000090 a1 08 47 3c 10 16 ab bc 6e bd 2a bd c7 cb 3a 3d
       0.012148053 -0.020884544 -0.04168456 0.045604493
0000a0 a5 ee fc 3c b6 3e 2f bd 6a ba 13 3c 49 f8 9f bd
       0.030875513 -0.042784415 0.009016613 -0.078110285
0000b0 23 46 8e 3d 4a b6 9d 3c 38 2b 56 bb 6f 66 35 3d
       0.06946971 0.019251961 -0.003267957 0.04428714
0000c0 68 4a 49 bd f6 08 d0 ba c7 15 73 bd 78 49 1c 3c
       -0.049143225 -0.0015871811 -0.05934694 0.009539001
0000d0 65 ba a6 bd d9 16 76 bd 20 a4 cf 3d 7a 98 c4 bb
       -0.08141021 -0.060080383 0.10138726 -0.005999622
0000e0 31 2a 34 3d 0b e4 81 bd 36 d4 4c 3d 78 b8 0f bd
       0.04398555 -0.06342324 0.050007068 -0.035088032
0000f0 96 1a 2e bd ec a2 67 3c 44 b9 a6 3c e1 58 53 bd
       -0.042505823 0.014137965 0.020352013 -0.051598433
000100 87 f2 98 3d 88 fc 24 3c 52 41 27 bc 5e 64 d0 3b
       0.074681334 0.010069974 -0.010208445 0.006359621
000110 a4 ab 11 3d 52 3e 57 bd eb ef 2c 3d 10 49 ae bc
       0.03556408 -0.052549668 0.04222099 -0.021275073
000120 d3 48 18 bd 2b 3c 6b bd 4e 3f 14 3d 34 ad 1a bd
       -0.037178826 -0.057430428 0.036193185 -0.037762836
000130 01 a8 87 bc d0 e2 22 3c 3a ad 50 3d 25 8e 34 bd
       -0.016559603 0.009941772 0.05094645 -0.044080872
000140 56 bf e1 bc 68 54 9c 3c 41 72 35 bd fe 89 2b bd
       -0.027557056 0.019083217 -0.044298414 -0.041879646
000150 bb c8 8f 3c 79 a8 50 3d 18 88 ee bb 21 47 cc 3c
       0.01755177 0.050941918 -0.0072794072 0.02493626
000160 10 98 c8 b7 dc 3b 4d bc 81 58 3e 3d cc c4 dc 3c
       -2.3912668e-05 -0.012526479 0.046471123 0.026949309
000170 0e 0c 82 bd 96 a5 63 3d be 5e 8a 3d 6b 14 8c bb
       -0.063499555 0.055577837 0.06756352 -0.004274895
000180 ae eb 7d bd 8a 40 9b 3d 88 be 4e bd d1 62 f6 bc
       -0.06199234 0.07580669 -0.050474674 -0.030076416
000190 c2 a9 53 bd 7e 38 13 bd 6c 17 14 bd 65 a2 fc ba
       -0.051675566 -0.035942547 -0.03615515 -0.0019274472
0001a0 ae b3 8f 3c 78 da 1f 3d 39 6c e3 bb 96 dc 24 bc
       0.017541733 0.039026707 -0.0069403914 -0.010062357
0001b0 6d 8b 2a bd a6 eb 45 bc 94 c4 85 3a 03 b4 8d bd
       -0.041636873 -0.012080109 0.001020568 -0.069191
0001c0 16 17 b6 bd 76 4e 89 3c 5b 95 dc 3c d7 ca 07 bd
       -0.08891122 0.016761046 0.026926687 -0.033152428
0001d0 e8 68 a0 bc 51 08 43 bc 41 dc 0d bc 47 f8 b6 bc
       -0.019581273 -0.011903838 -0.00865847 -0.022335185
0001e0 94 7b 39 bc f5 38 db 3c af 3a 8b 3d f1 81 5c bd
       -0.011320967 0.026760558 0.067983024 -0.05383486
0001f0 d9 e0 3f bd a4 fb 21 bd 93 4d 1d bc f4 68 0f bc
       -0.04684529 -0.039546624 -0.009601015 -0.00875305
000200 bd 5e f8 3d 6a 61 5f 3d b8 0f 8f 3d a8 c8 9c bd
       0.12127445 0.05453626 0.0698542 -0.0765546
000210 07 cf 87 bc 22 13 1e bc ca d6 51 bb a7 2c 1e bd
       -0.01657821 -0.009648116 -0.0032018893 -0.038616803
000220 24 e5 d7 bc 3f a3 a7 3c 48 8b 9a bd fb 5f 47 3b
       -0.02635438 0.020463584 -0.07546097 0.00304222
000230 c0 03 39 bd e8 22 9c 3c 61 8f 3c 3c 1d 10 a7 3b
       -0.045169592 0.019059613 0.011508794 0.0050983564
000240 e9 d7 81 bc 0c 9e a5 bd 5c 56 24 bd 62 41 82 3d
       -0.015850024 -0.08086786 -0.04012142 0.06360127
000250 44 6a 3c 3c aa ed 23 3d 92 a5 c7 bc f8 67 37 3d
       0.011499945 0.040021576 -0.024370942 0.044776887
000260 3b b7 11 bd 0b 6c 14 3d 12 60 25 3c 5c b1 a6 3d
       -0.035575133 0.03623585 0.010093706 0.08139297
000270 8a a8 91 bc 68 ab 9f bc 83 b7 c1 bc ad 3f 53 3d
       -0.017780561 -0.019490913 -0.023647076 0.051574398
000280 7f 12 87 bc ac 51 9c 3d 94 aa 06 3c cd 0a 47 bd
       -0.016488312 0.07632765 0.00821938 -0.048594285
000290 54 f3 80 3d fb b8 0d bd ca fe 86 3b ca 27 0b bd
       0.06296411 -0.03460024 0.0041197287 -0.033973493
0002a0 da 80 00 bd 6d cb 81 3d d7 b9 3c bd bf 6a c0 3c
       -0.031372882 0.063376285 -0.04607567 0.0234884
0002b0 05 32 9d bc 04 0e 64 3d 4e 82 18 ba 2c 6c ae 3d
       -0.01918889 0.05567743 -0.0005817757 0.08516726
0002c0 6a 08 99 3d 3d a7 c4 3d a8 63 78 bc 69 56 8b bd
       0.07472308 0.09602211 -0.015160479 -0.06803591
0002d0 16 f5 ea 3c 6f 8d 8f 3d 37 2a bc 3d 46 7c 84 3c
       0.02868132 0.07009398 0.09187739 0.01617254
0002e0 5d 08 e6 bc 35 34 1e 3d 7c 35 82 3d a4 5b a2 bc
       -0.02808016 0.038624007 0.063578576 -0.019819088
0002f0 1d 49 bd 3b 82 7b 99 bd c9 97 a6 3a e3 b7 9d 3d
       0.005776538 -0.0749426 0.001271003 0.07701089
000300 0b dd b7 3b b6 8f 03 bd 95 66 57 3d 2f c4 e1 bb
       0.005611067 -0.032119475 0.052588064 -0.006889842
000310 13 b3 66 bd 0a 6d 34 bc a0 de 69 bd 5a c1 d7 bc
       -0.056323122 -0.011012325 -0.057097077 -0.026337314
000320 71 5e 64 bd 53 9f 20 3d 53 38 0e 3e 92 b8 7b bc
       -0.05575413 0.039214443 0.13888673 -0.015363829
000330 7b 74 34 bb 44 29 b5 3c 27 b4 bc 3d bc 6d 1e 3c
       -0.0027535248 0.022114404 0.09214049 0.009669717
000340 53 b8 34 bd 96 ad 10 bd ee ae 09 bd 70 15 4e 3c
       -0.044121098 -0.035321794 -0.03361409 0.012578353
000350 06 a1 1d 3d 43 3e 8d 3d 0c f5 49 3c ba de 2e 3b
       0.038483642 0.06896641 0.01232649 0.0026683048
000360 88 ac 66 ba 2c d6 8c bd 26 3e 45 3d 0e 06 19 3d
       -0.0008799513 -0.068767875 0.048154972 0.03735929
000370 6b 0b 0f 3d 73 1c 66 3d 27 1f 93 bd cc 87 c6 bd
       0.034923 0.056179475 -0.07183676 -0.0969387
000380 22 5f a3 bb 6a 65 b6 3b 2e 82 3f 3d 4f bf 4a 3d
       -0.004985706 0.0055662887 0.04675501 0.049498852
000390 80 aa 74 bd 42 f4 ba bc 78 03 97 bd 9d ee 49 3d
       -0.059732914 -0.02282155 -0.073737085 0.049299825
0003a0 cb 3c 62 bc 28 65 74 bd 0a 92 90 39 62 7f 3a 3d
       -0.0138084395 -0.059666783 0.00027574628 0.045531638
0003b0 03 99 3f 3d 2f 67 20 3d 8d bc e4 3c 11 8c e7 3b
       0.046776783 0.039160904 0.02792194 0.0070662578
0003c0 51 eb 72 bd 81 05 10 3c 7a 76 ec 3b da 75 e5 bc
       -0.059306446 0.008790375 0.007216272 -0.028010298
0003d0 ec df 92 3d a9 01 5d bb f4 6f 1e 3d 29 96 4a 3d
       0.07171616 -0.0033722913 0.038680986 0.04945961
0003e0 53 c7 4a 3c 6b 74 c0 bc 66 f8 11 3d d6 f7 08 bc
       0.012376624 -0.023493012 0.03563728 -0.00835987
0003f0 ad 27 40 3d f8 1b 36 bd 06 1a 52 3c 12 f2 a2 bd
       0.046912838 -0.044460267 0.012823587 -0.079563275

action_model._continuous_distribution.mu.bias f4 [2]
000000 9f fe d1 ba 8a 59 0a bc
       -0.0016021318 -0.008444199

action_model._discrete_distribution.branches.0.weight f4 [2, 256]
000000 9d 01 35 3c 7f 9b 4f 3d 31 3d 19 3d ec f4 ab 3c
       0.011047748 0.050685402 0.037411872 0.020990811
000010 af 66 d7 bc c2 06 0e bd 8e 47 3b 3d 58 a5 42 bd
       -0.02629408 -0.034674414 0.045722537 -0.047520965
000020 0f 6c 34 bd 89 8c e1 bc b1 1e 83 3d 83 01 35 bd
       -0.044048365 -0.027532833 0.06402338 -0.044190895
000030 47 78 b1 bb 58 bd 85 bd a3 ea 9f bd da 13 c5 3c
       -0.0054159495 -0.06530255 -0.07808425 0.024057318
000040 83 66 0d 3d cd 78 af bb d6 26 34 bd 31 f7 d3 3b
       0.03452159 -0.0053549767 -0.04398235 0.0064686765
000050 68 01 6b 3d 3c 27 2b bd 76 a5 75 bd a5 e4 80 bd
       0.057374388 -0.041785464 -0.05997225 -0.062936105
000060 d9 6c d2 bd cb ee 26 bc b6 21 9a bc c7 6a 70 3d
       -0.10274667 -0.010188769 -0.018814903 0.05869558
000070 89 08 5a 3d c2 86 af bc 4f 56 c0 3b 6f 00 6b 3d
       0.053230796 -0.021426562 0.005869664 0.05737346
000080 0a 74 c0 3c 95 09 d6 3a 5f 7e 52 bd dd 8c 49 3d
       0.023492832 0.001632976 -0.051390048 0.049206603
000090 6c ff 82 bd b5 2a db bc 3b bd be 3b 09 16 19 3d
       -0.06396374 -0.026753763 0.005820898 0.03737453
0000a0 f0 3a e5 bc 8c a7 5e 3d 89 cf 5a bd e0 06 8c 3c
       -0.027982205 0.054359004 -0.053420577 0.017093122
0000b0 25 e4 39 bd 94 39 3f 3d 19 ec b4 3b b0 d6 40 bd
       -0.04538359 0.04668577 0.005521309 -0.047079742
0000c0 b6 bb 1d 3c 65 55 56 bd fc 6e 2b bd e0 6f 5c bc
       0.009627273 -0.052327532 -0.04185389 -0.013454407
0000d0 74 84 f7 3c 4f dc 60 bd 52 c8 20 bc ca cb 78 bd
       0.030214526 -0.054897603 -0.009813385 -0.060741223
0000e0 7a 01 ae 3d 99 63 fa bb d5 6e b9 bc 49 4a 36 3c
       0.084963754 -0.0076412675 -0.022635857 0.011126109
0000f0 89 4c cd bc 6f c4 5d bd e6 17 4c 3d 65 57 cf bb
       -0.025060909 -0.05414241 0.04982748 -0.006327557
000100 c1 00 05 bd 47 a6 26 3d af ac 38 3b 27 bb a3 3c
       -0.032471422 0.04068592 0.00281791 0.019986702
000110 5f f1 24 3d f4 ee 00 3b de 76 94 3d 1b 6e 76 bd
       0.040269252 0.0019673677 0.072492346 -0.0601636
000120 96 6b 10 3d 90 50 eb bc f0 76 0c 3d 61 92 ed bc
       0.035258852 -0.028724939 0.034293115 -0.029000463
000130 57 5e 1d bc 3c 6d c6 bd 41 49 38 b9 02 a3 66 bd
       -0.009605012 -0.096888036 -0.00017574897 -0.0563078
000140 84 b4 87 3c 76 f6 61 3d 35 be 51 3c 14 23 f9 3c
       0.016565569 0.055166684 0.012801697 0.030412234
000150 2d 57 da bc 77 6d 31 3d f5 4a b9 bd 05 5d b2 3c
       -0.026652897 0.043317284 -0.090475 0.02177287
000160 0c 82 03 bb 53 72 68 bd ad 63 93 bd a8 e1 70 bd
       -0.0020066528 -0.056749653 -0.07196746 -0.058808953
000170 c6 ad 25 3d 86 2a 6d bd 34 10 f1 3c 5d 02 72 3d
       0.040448926 -0.05790188 0.029426672 0.059084285
000180 2a 4b b9 3c ba 77 03 3d 8c 81 29 3d 10 16 c0 bd
       0.022618849 0.032096602 0.04138331 -0.09379208
000190 36 26 c4 3c 83 70 43 3d 41 bd 2e 3d f2 08 a6 bd
       0.023944002 0.04771472 0.042660955 -0.08107175
0001a0 f4 39 6b bd e8 a8 8a 3b c4 4d 40 3d 0b 1b 1b bc
       -0.057428315 0.004231561 0.046949163 -0.009466897
0001b0 ef 5b 0f 3d a5 d4 4a 3d 66 2b 2b 3d 06 fa fb 3c
       0.034999784 0.0495192 0.041789435 0.030758869
0001c0 3e c2 81 bd b2 14 80 3d 7e 70 52 3d d6 ba 62 bc
       -0.06335877 0.06253947 0.051376812 -0.0138384905
0001d0 82 d6 4b 3d 30 68 5f 3d a9 d8 79 bd 0e bc f5 3c
       0.049765117 0.05454272 -0.06099764 0.029996898
0001e0 93 75 2f 3b 2c b2 2c bd e6 46 07 3d 98 12 dc 3c
       0.002677296 -0.042162105 0.0330266 0.026864335
0001f0 dc fd 2e bd e1 15 ed 3c e3 bd 93 3b e1 8b c1 3c
       -0.042722568 0.028941097 0.0045087202 0.02362627
000200 26 5a 0a bd 6e 36 4f 3b 2f 59 41 bc 3f ac 85 bb
       -0.03377738 0.0031618136 -0.011801048 -0.004079371
000210 25 1d b6 3c b1 6d c8 bd da d9 e9 3c e6 a2 8f 3c
       0.022230694 -0.09786547 0.028546263 0.01753373
000220 ff 60 5a 3d 17 bd 2c 3d c2 99 b4 bb 6a c7 b3 3d
       0.05331516 0.042172518 -0.0055114934 0.087782696
000230 ef b0 ab bc 60 96 1b 3d 6b 71 2d bd 23 88 54 3d
       -0.020958392 0.037985206 -0.042344492 0.051887643
000240 42 2f f9 bc 8a a6 b5 3b b8 25 08 bd 01 ba fe ba
       -0.030418042 0.0055435346 -0.033239096 -0.0019434096
000250 ab 64 12 bd 1a cf e8 bc 26 2d 5c 3d eb fb 30 3d
       -0.035740536 -0.028419066 0.053753994 0.043208998
000260 37 ce 26 3d 96 b2 ec bc db aa 2f bd 17 9a 34 3d
       0.040724006 -0.02889375 -0.04288755 0.044092264
000270 fa 1a 3f bc 0d e1 df bc 5f 18 39 bd 96 0d 03 bd
       -0.011664147 -0.027328992 -0.045189258 -0.03199538
000280 36 b4 35 bd 6a b1 a4 3a 83 82 39 3d 4d d7 3b bd
       -0.044361316 0.001256508 0.04529048 -0.045859624
000290 f4 14 96 3c f7 d6 d6 bc 1d f2 fa bc 5f f0 66 bd
       0.018320538 -0.02622555 -0.030633027 -0.05638158
0002a0 7f 45 09 3d d8 7e 85 bd d5 9c 23 3d 24 85 1e 3d
       0.033513542 -0.06518334 0.03994449 0.03870119
0002b0 c4 fe 2c bd b1 c0 0b bd 82 0a 13 3d b5 8f a5 3c
       -0.04223515 -0.03411931 0.035898693 0.020210126
0002c0 dc 93 e6 3b 60 0a 58 bd 18 d3 46 bc d3 ab 81 bb
       0.007036669 -0.05274427 -0.01213529 -0.0039572506
0002d0 5e a8 85 bd d0 a6 6e 3b 5f b6 47 bd a0 f7 02 3d
       -0.06526254 0.0036415346 -0.048757907 0.031974435
0002e0 db ef 76 3d 70 36 b9 3c 61 c5 a8 3c a8 85 3e 3d
       0.060287338 0.022608966 0.02060193 0.046514183
0002f0 63 21 20 3d 29 91 c4 bb 0e c9 10 bd 10 5a 04 3c
       0.03909434 -0.0059987498 -0.03534799 0.008078113
000300 d0 3b 58 3d 6a 12 a5 3c 1c 1e 42 3d 28 0d 89 bd
       0.052791417 0.020150382 0.047391996 -0.066919625
000310 2a 9f 61 bd f1 a7 5b 3c cd d9 56 3d 06 88 5f bb
       -0.05508343 0.01340674 0.052453805 -0.0034108176
000320 60 f6 5f bd 9a ae 1a bd 8e c8 65 bd 30 b7 cc 3b
       -0.05467832 -0.03776417 -0.056099467 0.0062474236
000330 f3 90 42 3d 74 25 27 bd 4b 01 81 bd d1 68 b7 3d
       0.047501516 -0.040807202 -0.06299075 0.08955539
000340 56 15 0f 3d ad d7 89 3c bb a5 6a 3c 3b dc 6d bd
       0.034932457 0.016826475 0.01432174 -0.058071356
000350 53 58 39 bd 9f f9 ed 3c a1 56 19 3d 7f 65 e2 b9
       -0.04525025 0.029049693 0.03743613 -0.000431817
000360 00 f8 19 3d 88 00 c7 3c f4 76 70 3d 51 26 dd 3c
       0.037590027 0.024292246 0.058707193 0.02699581
000370 a9 b2 27 3d 3b 5e 74 bc 34 58 5d 3d a6 f1 66 bd
       0.040941868 -0.014915044 0.054039195 -0.056382798
000380 9c ad e1 bc c6 e6 13 3d d9 74 74 3c a4 6a 44 3d
       -0.027548604 0.036108755 0.014920437 0.047953263
000390 3a bb a4 3c 4d 01 e0 3c 60 6d 14 bd 94 44 40 bd
       0.020108808 0.02734437 -0.03623712 -0.0469404
0003a0 8c c9 3b bd ae a7 f2 3c 39 da 3a bd 9f 3b ec 3c
       -0.045846507 0.029620972 -0.04561827 0.028837023
0003b0 9e 37 1a 3d 17 73 23 3c 4e 52 18 ba 29 00 65 3d
       0.037650697 0.00997617 -0.0005810604 0.055908356
0003c0 f0 e9 25 bd 1a 59 93 bd 08 fa 6d bc 0d 1b 82 3c
       -0.040506303 -0.07194729 -0.014524944 0.01588204
0003d0 bd 9a 04 ba 35 dc 1a 3d 5c 54 39 3c dc 38 07 3d
       -0.0005058458 0.037807662 0.011311617 0.03301321
0003e0 8d 87 59 3d b4 23 69 3d 6d cf 2e 3d 09 f9 81 bd
       0.053107787 0.056918815 0.042678285 -0.06346328
0003f0 66 c1 21 bd e8 14 17 3d 8e 01 97 bd bf 0f 41 3c
       -0.03949108 0.036885172 -0.073733434 0.011783539

action_model._discrete_distribution.branches.0.bias f4 [2]
000000 49 5a 70 3c 46 5a 70 bc
       0.014669963 -0.01466996

onnx::Div_70 f4 [11]
000000 f4 a3 80 40 27 8e e8 46 4b 34 80 40 79 5a 86 3e
       4.020014 29767.076 4.0063834 0.262409
000010 ee 2f c3 3c ed 52 ff 3e d5 8c e8 46 5f 8a 89 3f
       0.023826566 0.49867955 29766.416 1.0745353
000020 72 5e 21 45 92 d7 cd 3f b2 1e f6 3e
       2581.9028 1.6081412 0.48070294
