Assets/Z-SuperTank/models/Nueva carpeta/TurretShoot_sac.onnx (onnx, 287600 bytes, 11 tensors)

network_body.observation_encoder.processors.0.normalizer.running_mean f4 [11]
000000 18 01 13 3f 36 59 ef bb 56 5f 68 bd dc 63 43 3d
       0.57423544 -0.007304336 -0.056731544 0.047702655
000010 4e 1f 7e 3c 57 de a5 3e 47 b0 a6 40 e8 76 84 2d
       0.015510393 0.32396194 5.209018 1.5059468e-11
000020 0c ea 48 bb 50 14 e3 2b 18 d1 a5 3e
       -0.003065708 1.6134958e-12 0.32386088

network_body._body_endoder.seq_layers.0.weight f4 [256, 11]
000000 39 3f 5a be 17 ac 37 3e 11 a7 bb be 30 42 86 be
       -0.2131318 0.17936741 -0.366509 -0.26222372
000010 1a b5 24 3f 2c d1 90 3e a3 33 3e be ff a6 52 be
       0.6433884 0.28284585 -0.18574385 -0.20571516
000020 d7 dc 38 be 87 1e c1 3e 0f 71 7a be 77 e6 10 be
       -0.18052994 0.37718603 -0.24457191 -0.14150415
000030 c2 7c 3c 3b 7f 22 43 bf b2 c2 a0 3d a5 02 ab 3e
       0.0028760885 -0.7622451 0.07849635 0.33400455
000040 75 3b 91 3b 06 1d 73 bd 2c 1e 81 3e 49 81 b7 3c
       0.0044321367 -0.05935385 0.25218332 0.022400515
000050 83 7e bc be e2 d1 98 bd c5 7c 6b 3e 54 f0 b4 bd
       -0.3681527 -0.07461907 0.22996815 -0.088349015
000060 30 13 fa be 0a fc da 3c f1 cf f4 be 7d 30 27 3e
       -0.48842764 0.02673151 -0.47814897 0.1632709
000070 f6 54 ce 3e 85 37 7d 3e 51 8c bb 3e 6a 05 20 bf
       0.40299195 0.2472821 0.3663049 -0.6250826
000080 3d 98 c0 3e 25 f9 61 be 34 ec ab 3e 2e 4a 9a be
       0.3761615 -0.22067697 0.33578646 -0.3013472
000090 39 df dc be d3 54 b9 3e ac 22 bd 3e 07 86 23 3c
       -0.43139055 0.36197528 0.36940515 0.009980685
0000a0 f2 9c 05 38 a8 27 73 be b9 32 1f 3f de 9e 63 3b
       3.1855838e-05 -0.23745596 0.6218677 0.0034732143
0000b0 e2 e3 b1 3c c0 d0 fa 3e 69 df 67 3d 67 34 81 3e
       0.021715108 0.4898739 0.056609545 0.25235292
0000c0 b4 bf b0 bd 29 01 f9 be de bc e0 3d 7b bf c7 be
       -0.086303145 -0.48633698 0.109735236 -0.39013276
0000d0 10 aa 37 bd 4a 58 65 3e e0 3b e5 be 04 f6 08 3f
       -0.04483992 0.22396961 -0.44772243 0.5350039
0000e0 90 53 3a be 12 a8 ac 3e 13 61 9a 3d 56 69 1f 3e
       -0.18195939 0.33721977 0.07538047 0.15567526
0000f0 51 0c 6d bd cf 4f 09 bf 5e 8a b5 bb 76 4f f8 3c
       -0.057873074 -0.53637403 -0.0055401763 0.030311327
000100 75 98 5f be be 46 29 3e 65 6c bf be 4e 31 28 bd
       -0.21835501 0.16530892 -0.37387386 -0.041062646
000110 b9 dc 90 3e 92 cb 0a bf a1 f8 dd 3d 7e 0b e8 be
       0.28293398 -0.54216874 0.10838438 -0.45321268
000120 ce e4 99 3e 82 a2 b1 bc 87 10 c6 3e 63 29 80 be
       0.30057377 -0.021683935 0.38684484 -0.25031576
000130 fb f5 24 be 2b 58 c7 be 58 4c ad be aa 11 bb be
       -0.16109459 -0.38934454 -0.33847308 -0.36536914
000140 76 a6 ae bd 62 b5 6e bd 29 7b 25 be 5c c1 3d bf
       -0.08527844 -0.05827845 -0.16160263 -0.7412317
000150 03 eb 80 be bd 3e 12 3e 06 9e 45 bf e1 9a bd 3b
       -0.251793 0.14281745 -0.7719425 0.0057862853
000160 b3 d6 9d be 12 fd a6 bd 4c 59 4c 3e 55 fa 88 be
       -0.30827865 -0.08153738 0.19955939 -0.26753488
000170 12 09 35 3f c6 51 3d bf 1c 9a 45 be 62 52 28 3e
       0.70716965 -0.739529 -0.1929707 0.16437677
000180 16 11 c0 3e da 61 e1 3d 3a 2b cd 3c 73 e1 9b 3e
       0.37513036 0.11004992 0.025045026 0.30445442
000190 6e f0 d5 3d 2f 34 3e bf 25 88 10 3f 50 59 31 3d
       0.10446249 -0.74298376 0.5645774 0.043298066
0001a0 26 8d bb bd d8 55 37 bf 00 0e 3d 3e e4 21 97 bd
       -0.09157781 -0.7161536 0.18462372 -0.07379511
0001b0 5e c1 8b 3d 29 0e 08 3e 86 89 54 be bb 66 9a be
       0.06823991 0.13286652 -0.20755586 -0.30156502
0001c0 83 bb 2d 3e 64 a5 29 3f 88 2c 84 3d d9 c9 83 be
       0.16966061 0.6626799 0.06453806 -0.25739935
0001d0 f2 90 0b bf 8a 53 0a bf b3 19 8d 3e 91 4e 73 be
       -0.54518044 -0.5403372 0.2755867 -0.2376044
0001e0 28 c1 da be 98 4b c4 3e d5 21 79 3e c3 47 a8 3e
       -0.42725492 0.38338923 0.24329312 0.3286725
0001f0 6a 55 22 3e 54 ba c5 3e 06 47 8f bd d3 05 4e 3e
       0.15852895 0.3861872 -0.069959685 0.2011941
000200 e3 6a b2 bd 70 1a 01 3e 5b 8f 0a 3f 2e 62 e6 be
       -0.08711793 0.12607741 0.54124993 -0.4499678
000210 3b 6b 6f 3e 41 a7 1d bf cf 23 a0 be 55 30 22 bf
       0.23380749 -0.61583334 -0.3127732 -0.63355
000220 f5 97 cf be c6 07 9c 3e f7 6a a4 3e 06 14 d7 bc
       -0.40545622 0.3047468 0.32112858 -0.026254665
000230 19 1c d5 bd 08 fd 02 bf 22 35 ca 3e 75 83 4d bd
       -0.1040575 -0.51167345 0.39493662 -0.050174195
000240 1a d0 55 3e 5c 4e 4e 3e e4 77 29 3e 05 85 ae 3e
       0.20880166 0.20147079 0.16549641 0.3408586
000250 27 67 e1 3e ef 65 1d 3d b2 2d ec be 9f b6 c6 3e
       0.44024011 0.03842729 -0.46128613 0.38811204
000260 8a a2 e5 3e 7f 81 a2 bd 57 4a 22 3e 28 23 bb 3d
       0.4485057 -0.07934856 0.15848671 0.09137565
000270 47 ca 35 bf 97 b4 49 3e 1f ff 03 3e 10 40 39 3e
       -0.71011776 0.19697796 0.1289029 0.18090844
000280 7b d5 7e be 35 66 56 3e ca 8e 81 be e5 d1 d5 bc
       -0.24886124 0.20937426 -0.25304252 -0.026101062
000290 39 a1 5f be b4 3e be be b7 06 c1 3e d9 10 63 be
       -0.21838845 -0.37157214 0.37700436 -0.22174396
0002a0 bb c7 cb be 8f 54 eb bd f5 e1 5b bd 7c fd e8 bd
       -0.3980082 -0.11490738 -0.053682286 -0.11376473
0002b0 dd 55 80 bd 47 5c 72 3e 8d 78 fd bd 25 b4 63 be
       -0.06266377 0.23668014 -0.12376509 -0.22236688
0002c0 09 1a e4 3d 3f 49 20 bb 32 3b 80 3d 92 00 14 be
       0.11137778 -0.002445772 0.062612906 -0.14453343
0002d0 8a 81 18 3e 87 0f 42 bf 03 06 d7 be 70 8c dd bd
       0.14893165 -0.7580494 -0.41996774 -0.10817802
0002e0 d9 54 39 3e 9e 63 3f be 63 44 1d 3e 38 61 28 be
       0.18098773 -0.18690345 0.15358119 -0.16443336
0002f0 29 39 63 bd ae 8a 07 bf 57 3b e1 be 33 a2 89 3e
       -0.055474434 -0.52945983 -0.43990585 0.2688156
000300 2d 9b e5 3d 52 28 27 3e 0d 57 60 3d b7 99 44 3e
       0.11211238 0.16323975 0.054770518 0.19199263
000310 4b 87 c4 bc 51 b7 59 be 2b 43 96 be a7 47 5b 3d
       -0.023990294 -0.21261336 -0.2934812 0.05353513
000320 c2 9d 80 3f fe e9 97 3c 30 5c 6e 3e be f4 e4 bd
       1.0048144 0.018544193 0.23277354 -0.11179493
000330 b7 29 58 ba c1 77 91 3e 2a 0a 90 be 04 56 34 3e
       -0.0008245962 0.28411677 -0.28132755 0.17610937
000340 f7 87 29 3f e7 c9 b7 3e 36 70 03 bf 49 f7 16 bf
       0.6622309 0.35896227 -0.51343095 -0.5897108
000350 58 a6 87 bd f3 a6 ef bd 38 f5 e0 3c c0 02 42 be
       -0.066235244 -0.11701765 0.02746068 -0.18946362
000360 a8 0d a0 bd 30 6c 85 be 2c 91 00 3f 95 ec 8a 3b
       -0.07815105 -0.26059103 0.50221515 0.0042396286
000370 39 88 33 3f 47 42 50 3e 5d 21 86 bd 47 b7 8b be
       0.70129734 0.20337783 -0.06549332 -0.27288267
000380 7c 18 1d bf 74 24 83 3e 41 55 6c 3e 5e ac 59 bd
       -0.61365485 0.2561375 0.23079397 -0.053142898
000390 2c e7 5c be e7 a0 8c 3e e8 c9 45 3e d6 52 c2 3e
       -0.2157256 0.2746651 0.19315302 0.37953824
0003a0 4d fe 1d be 7a 2f 4c bd 59 f3 04 3e 44 79 77 3e
       -0.1542904 -0.049849965 0.12983455 0.24167353
0003b0 6a 48 a4 be 71 d1 79 3d 1e 7b b2 3e 06 39 45 be
       -0.32086498 0.060990755 0.34859556 -0.19260034
0003c0 f1 4c c6 bd 09 b1 78 be ef dc fb bd 7f c6 19 bf
       -0.09682644 -0.24286284 -0.12297999 -0.60068506
0003d0 69 40 d3 bc 33 53 82 3c b8 99 0e be e3 a7 cb bd
       -0.02578755 0.015908813 -0.13925827 -0.09944131
0003e0 28 57 bc bb db 10 67 be 7f ae 1f 3c 9e 42 ae 3e
       -0.0057476945 -0.22565024 0.009746193 0.340352
0003f0 0f c9 d5 bc 41 82 6e 3d 42 4f d0 be e2 66 bf 3e
       -0.026096849 0.05822969 -0.4068547 0.3738318

network_body._body_endoder.seq_layers.0.bias f4 [256]
000000 79 c7 d8 3c c1 73 81 3d be a7 42 3d e5 33 c1 bb
       0.026462303 0.063209064 0.047523253 -0.005896079
000010 52 1c 2a 3d 73 0a a5 3d 46 88 d8 3d a4 d3 56 3d
       0.041530915 0.08058634 0.10572867 0.05244793
000020 dd bf d1 3d d1 b4 1d 3d a5 c5 8d 3d 8a fc b5 3d
       0.10241673 0.038502518 0.06922463 0.08886059
000030 09 a4 4d 3c 95 4b 0e 3c d5 0a 7e 3c 57 04 4b 3d
       0.012551316 0.008685012 0.015505512 0.049564686
000040 ce 9d c9 3d 01 75 06 3d 6a 6d 88 3d 35 de 16 3d
       0.09844552 0.032826427 0.06661494 0.036833007
000050 2a c9 3c 3d 5f 4f 0e 3e bb ef 82 3d 59 2c c6 3d
       0.046090282 0.13897465 0.06393381 0.096764274
000060 00 54 45 3d 97 78 c3 3d 58 09 05 3c 50 38 6b 3d
       0.04817581 0.09544485 0.0081199035 0.05742675
000070 23 4c 2e 3d 3a d8 81 3d ae 45 20 3d 8f 50 36 bd
       0.04255308 0.0634007 0.03912895 -0.04451042
000080 db 2c 84 3c 91 ba 9d 3c e7 8d d6 3d 4a f5 15 3d
       0.01613467 0.019254 0.104762845 0.03661088
000090 78 77 d2 bc 3f b2 c7 3d 73 12 70 3d d2 d6 83 3d
       -0.025691733 0.097507946 0.058611345 0.06437458
0000a0 f8 fb 96 3d 81 89 8c bb 69 ec 97 3d fb da af 3d
       0.07372278 -0.0042888527 0.074181385 0.08586689
0000b0 94 96 00 3d 28 b5 79 3d 9d 54 ad 3d a1 34 54 3d
       0.031393602 0.06096378 0.08463404 0.051808003
0000c0 a8 a5 93 3d fc b4 28 3c 00 a8 b9 3b c1 0a 75 bb
       0.07209331 0.010297056 0.005665779 -0.0037390443
0000d0 7b b0 7b 3d 6e 46 00 bd 31 94 b1 3d e4 3f 91 3d
       0.0614476 -0.031317167 0.086708434 0.07092264
0000e0 ba 42 8f 3d 3b c7 5a 3d 0f 70 2d bc c0 c9 ab 3c
       0.06995149 0.053412657 -0.010585799 0.020970225
0000f0 01 67 3d bc 3a 32 72 3d 90 5f fb 3c 64 d4 d2 3c
       -0.011560203 0.05912993 0.030685216 0.025736041
000100 32 4f c8 3d 51 ba 05 3b 26 eb c4 3d 13 e3 09 3c
       0.0978073 0.0020405243 0.096151635 0.008415955
000110 e7 70 92 3d 9b 37 8d 3d d1 cf fa 39 a8 85 46 3d
       0.07150441 0.068953715 0.0004783855 0.04846731
000120 74 11 93 3d 91 36 9f 3d 14 11 c3 3c 4b 0b d1 3b
       0.07181063 0.077740796 0.023811854 0.00637952
000130 84 b0 08 bc 0d 79 65 3c fc 4b 87 3d 6f 17 6e 3d
       -0.008342866 0.014005912 0.0660629 0.058127817
000140 ea c1 86 3d f1 cc 31 bb 19 3f 65 bc b7 90 56 3d
       0.06579955 -0.0027130211 -0.013992094 0.052384105
000150 09 24 93 3d df ab 87 bc 05 92 f1 3c e0 4e 2d 3d
       0.071846075 -0.016561447 0.029488573 0.04231155
000160 2e eb 16 3c 51 ea 7b 3d 36 7d eb 3b 9d ed 43 3d
       0.009211345 0.06150276 0.007186557 0.047834028
000170 99 20 c8 3c a0 19 d7 3b 8c ab be 3d 8c 0d 8e bb
       0.024429606 0.006564334 0.09310064 -0.004335111
000180 85 b5 cf bc 7d 2c 7a 3d c0 70 66 3d b5 b3 80 3d
       -0.02535511 0.061077584 0.05625987 0.062842764
000190 65 2a 5d 3d 4d 32 90 3c 4f e6 b8 3d 47 96 ac 3c
       0.05399551 0.01760211 0.09028303 0.021067752
0001a0 1d 83 b8 3c f7 ac 16 bd a5 51 72 bc 4e e6 3c bd
       0.022523457 -0.036786046 -0.014789973 -0.046118073
0001b0 3f a3 81 3d 51 f8 48 3c 1b 60 b8 bb a0 d7 ab 3d
       0.06329965 0.0122662345 -0.005626691 0.083907366
0001c0 24 25 0a bc 0e 18 50 3d a4 f9 4e 3d 64 eb ae 3c
       -0.008431707 0.05080419 0.050531045 0.021352477
0001d0 56 36 b9 3d ec a2 1f 3d f3 ef 96 bb 8c 6b 31 bc
       0.09043567 0.038973734 -0.004606241 -0.010828864
0001e0 32 7d dd 3d 2f 76 23 3d cc 74 71 3d d3 f5 51 3d
       0.10814895 0.03990763 0.058949277 0.051259827
0001f0 05 72 14 bc 14 21 a7 3d 57 52 a4 3c 0b dc 30 3d
       -0.0090603875 0.08160606 0.020058794 0.0431786
000200 bf c0 56 3d 18 85 ee 3c 2d aa 88 3d 84 be d1 3d
       0.05242991 0.029116198 0.066730835 0.10241416
000210 13 ab 0e 3d 13 d2 42 3d a7 02 20 bc db 22 e1 bc
       0.034831118 0.047563624 -0.009766257 -0.02748244
000220 9e c4 2c 3d 10 d7 20 3b 84 cf a2 3c 46 f5 c3 ba
       0.042179696 0.002454225 0.019874342 -0.0014950417
000230 1e b0 bf 3d 37 a9 a2 3c d6 94 ad 3d da b7 82 3d
       0.093597636 0.019856079 0.08475654 0.06382723
000240 05 a8 9a 3d b0 17 22 bc dc a9 85 3d 44 05 31 3b
       0.075515784 -0.009893343 0.06526539 0.0027011195
000250 93 b8 59 3d 3e 92 8e 3c 26 46 8d 3d e7 55 ae 3b
       0.05315454 0.017403718 0.068981454 0.005320299
000260 f1 09 9a 3d f5 52 7d 3d 8e b0 db 3d d4 f5 40 3d
       0.075214274 0.061846692 0.107270345 0.04710944
000270 d1 ec 51 bd 87 ec b5 bc bf 42 7b 3d 7f 52 b3 3d
       -0.051251236 -0.022207512 0.06134295 0.08755969
000280 dd 82 c7 3d 37 07 b5 3d af 46 02 bd c6 76 97 bb
       0.09741757 0.08839267 -0.03180569 -0.004622313
000290 fb 1b 95 3d 7d eb 0d bb 80 85 68 bc 07 74 ae 3d
       0.072807275 -0.0021655255 -0.014191985 0.08518224
0002a0 dd ff 82 3d fd 8b 0a 3d 8e 17 9c 3d e9 64 3a bd
       0.06396458 0.03382491 0.0762168 -0.04550639
0002b0 8f 57 58 3d 5e 85 5c 3d cd e8 2c 3c 5f 07 2c 3d
       0.052817877 0.053838126 0.010553551 0.041999217
0002c0 dc 23 93 3d c3 ff bd 3c 64 f0 25 3d 7b 57 22 3d
       0.07184574 0.023193246 0.040512457 0.03963421
0002d0 f4 21 d1 3d 89 8b 67 bc ae e4 5b 3c 24 7a f0 3c
       0.10211554 -0.014132389 0.013421221 0.029355116
0002e0 e1 12 e0 3d 37 e1 d5 bb 66 2b 36 bd 47 bf 06 bd
       0.10941101 -0.006527092 -0.04447498 -0.03289726
0002f0 a5 46 0c 3d 23 02 e7 3b 8e a5 ae 3c 40 2f 94 3c
       0.03424706 0.0070498153 0.021319177 0.018088937
000300 ef 84 99 3d f3 e7 cf 3d 31 ed 00 3d ff c2 e8 3c
       0.07496058 0.10151663 0.031476203 0.028413294
000310 19 8c 8a bc fc 23 18 3d 3c a5 10 3d 51 d8 98 3d
       -0.016912507 0.037143692 0.03531383 0.07463134
000320 59 d5 db bb 1a 05 44 3d 28 25 ae 3d b3 61 c6 3c
       -0.0067087826 0.047856428 0.08503181 0.024216508
000330 fb 42 92 3c e2 04 a7 3c 91 d1 4e bc f1 67 e9 bb
       0.017854204 0.02038807 -0.012623207 -0.0071229865
000340 19 77 d2 3a cf dd 2e bd b7 2e d0 3c fc 45 90 bc
       0.0016057222 -0.042692002 0.0254129 -0.017611496
000350 4b b8 76 bc c6 bc 5f 3d 66 44 af 3d 24 5d 4c 3d
       -0.015058587 0.054623388 0.08557968 0.049893513
000360 de 77 93 3d ca 4c 42 3d 89 e5 47 3d 78 c3 c9 3c
       0.07200597 0.047436513 0.048802886 0.02462934
000370 c6 b7 7e 3d 20 35 a6 3c ed c3 43 3d d2 6b 5e 3d
       0.06218698 0.020289004 0.04779427 0.054302044
000380 77 00 c0 3d 6a 11 61 3d 30 54 24 bd 0b 35 8f 3b
       0.09375089 0.054948248 -0.04011935 0.004370337
000390 cf 25 8d 3d 00 40 7f 3c 75 5c b5 bc 49 9f 99 3d
       0.06891977 0.015579224 -0.022138814 0.07501084
0003a0 4f 7c ea 3c c1 30 e3 3b 32 fd e4 bc f7 72 58 3d
       0.028623728 0.006933302 -0.027952764 0.052844014
0003b0 d4 30 43 3d 0b 95 ab 3b 90 a9 06 3d ce 78 fb 3c
       0.047653988 0.005236273 0.03287655 0.030697253
0003c0 18 ea 08 bd 36 85 11 3d 79 a8 00 3d 4d 53 f5 bc
       -0.033426374 0.03552743 0.031410668 -0.029946947
0003d0 89 be d4 3c 70 c3 b4 bc 51 a9 e1 3c f8 cd 12 3d
       0.02596976 -0.022065848 0.027546557 0.03584096
0003e0 fc 3b 91 bc 0c c2 0c ba d7 c7 59 3d f4 00 2d 3d
       -0.017728798 -0.00053694914 0.053169098 0.042237237
0003f0 3a b3 8e 3d 26 e1 8c 3c 66 7e 97 3d 7e 07 4f 3d
       0.069677785 0.017197203 0.073971555 0.050544254

network_body._body_endoder.seq_layers.2.weight f4 [256, 256]
000000 cb ac ae 3b ca 21 1e 3e 5a 0c 09 3d 14 0a 8b bd
       0.005330657 0.15442577 0.033459045 -0.067890316
000010 84 80 ed 3d e6 9e ed b8 75 b4 92 bd c4 da ca 3d
       0.11596778 -0.00011330638 -0.07163326 0.099050075
000020 0a 6e 04 3d 63 ae fc 3c e2 0c ca 3b 87 d6 2e bd
       0.032331504 0.030844873 0.0061660865 -0.042685058
000030 74 64 9a bd 27 ca d9 bd b1 75 ab 3d db 7e 98 3d
       -0.07538691 -0.106342606 0.08372057 0.07446071
000040 58 7f 81 bc bd 82 56 3d 6d d5 c2 bc 79 ba eb 3b
       -0.015807793 0.052370775 -0.02378341 0.00719386
000050 4b 88 19 bc 00 f9 75 3d 6c 5e 38 3e 5c 3c 67 bc
       -0.009370874 0.060051918 0.18004769 -0.014113512
000060 64 60 1b 3c bb b6 03 be 4f ac c6 ba ca 8e 9b 3c
       0.009483431 -0.12862675 -0.0015157553 0.018988986
000070 7f 64 cd 3c 3a a7 43 bb ce 05 6c 3d 52 e0 d9 3d
       0.025072334 -0.0029854313 0.057622723 0.10638489
000080 37 7c 4c bd b8 34 28 bd 3a 3b 11 3c bc 9b a9 3c
       -0.049923148 -0.0410659 0.008864218 0.020704143
000090 4c 35 17 3d f9 be 25 3d d9 29 9d 3d 4a 5d 9c 3b
       0.036916062 0.04046533 0.076739974 0.004771863
0000a0 8c 25 09 3e 67 76 da bc 7a 53 01 3e 41 31 73 bd
       0.13393229 -0.026667787 0.126295 -0.059373144
0000b0 43 6f f3 bc 85 60 6d 3d b6 e9 0d bd ce 58 76 3d
       -0.02971614 0.057953376 -0.034646712 0.060143284
0000c0 f8 95 9f bc 8a f4 01 3e 55 c9 8f 3d b4 b7 e0 3c
       -0.01948069 0.1269094 0.07020823 0.027431346
0000d0 5a f6 82 bc be a7 da 3a 78 3b 38 bc d8 1c c9 bd
       -0.01598661 0.0016682071 -0.011244647 -0.09819955
0000e0 5b d4 9f 3d 8a 6b 2f 3c 06 9a a2 3d 97 fe a7 3c
       0.078041755 0.010706792 0.07939534 0.02050714
0000f0 50 61 4f bd 82 c5 0f bc 13 c2 e2 3c 4b 3c 4f bd
       -0.050629914 -0.008775117 0.027680432 -0.05059461
000100 c3 a4 fa 3c 95 51 8e bd 92 7d e6 3d 68 4b 56 bd
       0.030596143 -0.06949154 0.112544194 -0.052318007
000110 00 09 86 3c 52 d8 56 3c 4d 3b ed bc e5 06 b0 bd
       0.016361713 0.013113098 -0.02895894 -0.08595065
000120 f3 82 79 3d 56 11 56 3d ea 9b ca bc 7a 29 6a ba
       0.0609159 0.052262627 -0.024732549 -0.0008932572
000130 e1 ce 27 3c 89 24 5c bd 6e 77 ef 3d f4 a6 30 3e
       0.010242195 -0.05374578 0.11692701 0.17251188
000140 12 2b c3 3c 3e 00 ed bc 83 c5 ce bb 2f 01 0b 3e
       0.023824248 -0.02893078 -0.0063101663 0.1357467
000150 c6 fb ee 3c 4e 58 76 3c 41 bd 50 3c 58 78 15 3e
       0.02917279 0.015035702 0.012740434 0.14596689
000160 00 da 13 be 04 10 df 3c fd 62 3b 3d 39 3d a8 3c
       -0.14438629 0.027229317 0.0457487 0.020537006
000170 55 47 52 3d c4 52 01 bd 44 79 ba 3d e2 a8 0c be
       0.05133756 -0.031573072 0.09105161 -0.13736299
000180 24 8d 01 bd a5 59 9b 3d 05 46 87 3d f8 a8 db 3d
       -0.031628743 0.07585458 0.06605152 0.107255876
000190 9f b5 00 3d bc 76 90 bc be 9f 1b 3d 69 48 42 3c
       0.031423207 -0.017634742 0.03799414 0.011858084
0001a0 2d 8c 07 3b b5 d7 88 bb 4e e5 eb 3c 78 1c 26 be
       0.0020682917 -0.004176105 0.028795864 -0.16221797
0001b0 a5 99 fd 3b 50 1f 00 bd a9 84 08 be 79 14 15 3d
       0.007739263 -0.031279862 -0.13331856 0.036396477
0001c0 0e d3 47 3d a4 f5 76 bc 86 d5 08 3d 2c c8 15 3d
       0.04878526 -0.015073214 0.033406757 0.036567852
0001d0 b1 07 13 3e ba d8 e4 3d c3 87 8a bd d9 e0 a3 3c
       0.14358403 0.1117415 -0.06764176 0.020004677
0001e0 05 99 62 3d db 01 7d bc ab 38 33 3d 53 b1 e4 bd
       0.055321712 -0.015442337 0.043755215 -0.111666344
0001f0 18 9c f6 3c 79 aa d9 bc cc ae b0 bc 56 40 12 3e
       0.030103728 -0.026570546 -0.021567725 0.14282355
000200 d6 3c 3c ba 97 57 ad 3d d0 e1 f9 3d d2 09 e8 bd
       -0.0007180696 0.08463972 0.122012734 -0.11329998
000210 4c a9 57 bd 68 1b 2a 3c ef 17 a9 bc 54 f8 01 be
       -0.05265169 0.010382511 -0.020641295 -0.12692386
000220 2a 93 12 bd c3 5d 82 3d 7b 95 87 3d 6f bf f4 bd
       -0.035784878 0.0636554 0.06620308 -0.119505756
000230 1d f2 e6 3a a3 52 7e 3c e0 73 cb b9 ee 7b c1 3d
       0.0017619763 0.015522632 -0.0003880551 0.09447466
000240 50 44 94 3d 7e 57 3d bd 26 bf 66 3d d8 e4 4b 3d
       0.07239592 -0.046226017 0.056334637 0.04977879
000250 1b 4d 44 bc 88 f4 7f 3d fe 53 b6 bb 29 af 99 bd
       -0.011981274 0.062489063 -0.005564212 -0.07504112
000260 fc a0 b5 3d c6 f2 78 3d 10 d6 8c 3d 8f 5c 03 3e
       0.08868596 0.0607784 0.06876767 0.12828277
000270 77 78 e3 bd d6 62 7f bd 9a 2d 38 bd b0 2e 0b 3b
       -0.11106961 -0.062350117 -0.044965364 0.0021237545
000280 35 26 a8 3c 0c 80 86 3c 6d 9b 17 bd b7 31 ed 3c
       0.020526031 0.01641848 -0.03701346 0.02895437
000290 d0 ed 46 bd 53 99 c5 bc 1e 7b b5 3c 49 03 cb 3d
       -0.04856664 -0.024120962 0.022153433 0.09912736
0002a0 06 58 38 3d bb 83 87 3d c1 9e f2 bc c5 93 10 bd
       0.04500582 0.066169225 -0.029616715 -0.035297174
0002b0 db de 97 bd 51 a3 b4 bb 7a 16 ae 3d 71 ce 91 bd
       -0.07415553 -0.005512633 0.08500381 -0.07119454
0002c0 bf 7f ea 3d 6f 82 c3 bc 3d ba 53 3d 02 f7 61 3d
       0.11450147 -0.023865907 0.051691283 0.055167206
0002d0 eb b1 52 bc aa 44 f9 3b cf a3 ae 3d 2d e5 10 be
       -0.012859802 0.0076070623 0.08527338 -0.14149924
0002e0 f2 e2 f6 bd 89 64 bf 3d 3c 0e 78 bd c5 3d 2e 3d
       -0.12055005 0.093453474 -0.06056045 0.042539377
0002f0 8b 98 d8 3d 6b e8 79 bd 4c 78 e8 bb 59 bf e7 bd
       0.1057597 -0.061012667 -0.0070944186 -0.113157935
000300 16 09 79 3b b6 82 d6 3d b4 53 57 3b 55 74 bc bd
       0.00379998 0.1047415 0.0032856287 -0.09201876
000310 e5 da 57 bd cd cf bc bb 36 77 58 3d 9a be 18 3e
       -0.05269899 -0.0057620765 0.052848063 0.14916459
000320 04 b7 08 be 6d 8c d4 3d 0b a8 4c bd b0 01 de 3d
       -0.13351065 0.103783466 -0.049964946 0.108401656
000330 1e 9c c9 bd 65 f8 35 bd c2 46 8b 3c b2 12 8b bb
       -0.0984423 -0.04442634 0.017001513 -0.004244172
000340 58 94 0b 3d e7 9e fb bc 79 8d 88 3d 6e 64 14 bd
       0.03407702 -0.030715419 0.06667609 -0.03622859
000350 0f f6 5d bd 00 a1 df bc d5 07 e9 3d 46 b6 fa 3c
       -0.054189738 -0.02729845 0.11378447 0.030604493
000360 53 67 4e 3c b9 c9 14 3b f9 b9 3c 3c 88 27 ea 3d
       0.012597877 0.0022703244 0.011518949 0.11433321
000370 5a 61 03 3e 01 a7 f0 bc c0 07 b3 3c b0 75 8b bc
       0.12830105 -0.029376509 0.021854281 -0.017023891
000380 24 1c 95 3d 94 70 8f bd 3f 35 26 3c 6d f2 a8 bd
       0.07280758 -0.070038944 0.010144531 -0.08249364
000390 b1 65 86 3d 16 76 ed bc f4 96 37 3d 37 c5 43 3d
       0.06562365 -0.028986972 0.044821694 0.0477955
0003a0 58 d4 b5 3d dc 04 a2 bd 52 88 e0 3c 6b 45 ca 3d
       0.08878392 -0.07911083 0.027408753 0.09876522
0003b0 d1 2d 00 3c 93 c2 c8 3c 34 ef 58 bd ad 15 bb 3d
       0.0078234235 0.024506843 -0.052962497 0.09134994
0003c0 6b c4 af bd fc 3a 89 bc 80 b2 44 bd 48 7a 93 bd
       -0.08582386 -0.016751759 -0.048021793 -0.07201058
0003d0 a4 b3 5f 3d 9c e5 61 bb 9c 4b 4e bc 64 d5 fc 39
       0.054614678 -0.0034469133 -0.012591269 0.00048224174
0003e0 7d 5e 95 3b ba e8 af 3c 45 fe 49 3d ad 1e 01 3e
       0.004558383 0.021473277 0.049314756 0.12609358
0003f0 51 d6 a6 3c a1 7e 7a 3d 51 46 90 bc 8d 89 90 bc
       0.020365866 0.06115592 -0.017611654 -0.017643714

network_body._body_endoder.seq_layers.2.bias f4 [256]
000000 2d eb 47 3d be 6e a5 3c 75 a6 1f 3d 7e fc 82 3c
       0.048808265 0.020194408 0.038977105 0.015989538
000010 b4 e7 03 3d 88 0b 73 3a cb b2 d5 3b b2 b3 e4 3b
       0.03220339 0.00092714326 0.006521558 0.006979429
000020 f3 eb 41 3c 9f 2f 45 3d 76 6d 65 bc 83 d1 a8 3c
       0.01183604 0.04814112 -0.014003148 0.020607715
000030 58 a7 9e bb e5 ae c6 bc 35 92 3f 3d f3 cf 23 bc
       -0.0048417263 -0.024253318 0.046770293 -0.009998309
000040 37 56 8c 3c 26 5f 83 3d 8d 13 9b bc af f4 02 3d
       0.017130954 0.064146325 -0.018930221 0.03197163
000050 75 35 97 3d a5 6a 58 3d 38 47 03 bc ed 49 76 3d
       0.07383243 0.05283608 -0.008012585 0.060129095
000060 b4 a3 83 3d 15 20 06 bc df 15 4b 3c fc b9 9e 3d
       0.06427708 -0.00818636 0.012395351 0.077503175
000070 c1 13 90 bc 1e 9b c7 bc 14 4f d5 b9 ea f9 2f 3d
       -0.017587544 -0.024365958 -0.00040685444 0.042962946
000080 6a d6 2f 3d 8c d7 66 bd ff 6a 92 bc 4a ee 80 3d
       0.04292909 -0.056357905 -0.017873285 0.0629545
000090 32 04 1c bd 51 fb 49 3c 13 a4 a6 3d d9 19 99 3b
       -0.03808994 0.012327985 0.081367634 0.0046722707
0000a0 dc c2 db 3d a2 ef 6e bd a7 33 c4 3d 08 ed 6d 3d
       0.10730526 -0.058334 0.095801644 0.05808738
0000b0 b9 14 6b bc cb 38 3b 3c 73 b8 9c bc 97 f8 d4 bb
       -0.014348202 0.011427115 -0.019130921 -0.006499361
0000c0 9e af 45 3d 2b 46 0a bd c1 93 05 3c c5 a2 62 3d
       0.048263185 -0.033758324 0.008152903 0.05533101
0000d0 52 76 66 3d f4 46 86 3d ed 3d f4 3c c9 52 93 3c
       0.056265183 0.06556502 0.029814685 0.017983811
0000e0 54 33 66 3d 71 44 0f 3d 61 c0 08 bd 21 09 13 bc
       0.056201294 0.03497738 -0.03338659 -0.0089743445
0000f0 5b e8 86 3d e6 ce aa 3d ed ea 8a 3c 3a e5 35 3a
       0.06587287 0.08340244 0.016957724 0.00069387595
000100 67 62 35 bd 1d ce 40 3d 23 04 a5 3b 20 91 89 3d
       -0.044283297 0.047071565 0.0050358935 0.067171335
000110 06 a6 4c bd 09 27 0c 3d 43 6c 2b bd 32 aa 32 bd
       -0.04996302 0.034216914 -0.041851293 -0.043619342
000120 05 46 dd 3c 23 3a ad 3c a1 dd 03 3a df a5 6c 3d
       0.027010927 0.021145886 0.00050302787 0.057775375
000130 75 98 5b bc b4 ab 15 bc be 0c 2c 3d a4 00 48 3c
       -0.013403048 -0.0091351755 0.04200434 0.012207184
000140 1a 9e 49 3d bf 24 bd 3c 4f fb 66 3c 11 5f 86 3b
       0.049223043 0.023088811 0.014098003 0.0041006883
000150 7c dc 28 3d 2c 3b a7 3b 05 2a c8 bb aa c4 53 bd
       0.041225895 0.0051034894 -0.0061085247 -0.051701225
000160 cc 98 1b bd 93 22 2c 3d bc ea 90 bc c9 f2 59 bc
       -0.037987515 0.04202516 -0.017690055 -0.013302513
000170 58 09 d3 3d 28 c1 8f 3d 8a cd 7d bd ad ae 6a bd
       0.103045166 0.070192635 -0.061963595 -0.05729549
000180 41 bd 3c 3c 9c 8d 1a 3d f6 5b 94 3c 41 71 6c 3d
       0.011519731 0.037732705 0.018110257 0.057725195
000190 88 04 55 3d f4 e7 79 3c 5f 0a 3f bc 3e ef 79 bc
       0.052006274 0.015253056 -0.0116601875 -0.015254794
0001a0 df c6 6b 3c 29 5f 95 3c ca cb 7b bc aa a9 67 bc
       0.014390676 0.018233852 -0.015368411 -0.014139572
0001b0 c5 ec e2 ba a5 53 e6 3b 82 49 ae 3d bd aa b5 3c
       -0.0017312994 0.007029014 0.08510114 0.02217614
0001c0 6b 2e 35 bd f8 19 2c 3d a7 99 1c bd f2 7d 77 3d
       -0.04423372 0.042016953 -0.03823247 0.060422845
0001d0 8c 94 fb 3c c6 b3 65 3d 34 3e 9c 3d 60 6e 59 3c
       0.030710481 0.05607965 0.07629052 0.013270944
0001e0 f7 f9 8f 3c e8 94 6f bc 39 95 3a 3d e3 af df 3b
       0.017575247 -0.014622904 0.045552466 0.0068263873
0001f0 9a 14 9c bc d8 9b a3 3c 3d 8a 60 3d 65 cd 40 3c
       -0.019052792 0.019971773 0.054819334 0.01176772
000200 00 10 c7 3c 36 96 e8 bc 75 18 32 3b a0 9e fd bc
       0.024299622 -0.028391939 0.0027175222 -0.030959427
000210 60 82 92 3d 89 9d 8b 3b 72 03 6b bd ee 56 29 3d
       0.07153773 0.004260723 -0.057376333 0.04134267
000220 e0 22 b8 3c a1 eb bb ba ff 55 1b 3b 28 ba 55 3d
       0.022477567 -0.0014337191 0.002370238 0.052179486
000230 bf ae 53 3d 31 c5 5b bd 48 c2 a8 3c dc b3 6c bc
       0.051680323 -0.053654853 0.020600453 -0.014447179
000240 05 5d 58 3c 47 95 bc bb be 9d 90 3a 2f 35 92 bb
       0.013205771 -0.0057551 0.0011033339 -0.0044619064
000250 0d e9 98 3d 42 aa 79 3c 95 51 86 bc 5a 36 2e 3d
       0.07466326 0.0152383465 -0.016396323 0.042532302
000260 5d 06 0b bd 84 d6 9f 3c d3 54 69 3d bf 0f 89 3d
       -0.033941615 0.019511469 0.05696566 0.066924565
000270 57 f2 e5 3c e6 22 29 bb e9 7b 60 bc 66 92 49 3c
       0.028069658 -0.0025808155 -0.0137014175 0.0123029705
000280 b5 ac 11 bc 4d 74 0f 3d 1a 45 14 3c 34 5b 0e 3c
       -0.008891274 0.035023022 0.009049678 0.008688737
000290 89 98 ec 3c 47 4d a5 bb 11 a9 05 3d d0 68 82 bc
       0.028881328 -0.0050446126 0.032631937 -0.01591912
0002a0 6f bf 77 bc 30 e3 92 bc 04 c3 93 bc 45 1c ab 3c
       -0.015121325 -0.017930597 -0.018037327 0.020887503
0002b0 d1 da b8 ba 80 a2 9c 3c a1 8d 1e 3c 21 3d 8b 3c
       -0.0014103298 0.019120455 0.009677322 0.016996922
0002c0 c7 bf 67 3c 0f c4 b8 bc 97 56 50 bc a0 73 43 3c
       0.014144844 -0.022554426 -0.012715957 0.011929423
0002d0 65 43 17 bd e9 a0 f2 3c 3b 4e 2f bd 12 26 da 3c
       -0.036929507 0.029617744 -0.042799216 0.026629481
0002e0 f3 c1 f3 3c eb ee 68 3d 51 52 02 bd c4 8a 48 bc
       0.029755568 0.056868475 -0.031816784 -0.012240116
0002f0 87 c2 82 3b f2 e9 9a 3c 0a 09 2f 3d 94 36 24 3d
       0.0039904746 0.018910382 0.04273323 0.040091112
000300 e9 94 d7 3b 89 7d 0b 3d b0 f4 0e 3c 9d cc fd 3c
       0.006579031 0.034055267 0.00872533 0.030981356
000310 45 99 2b 3c 32 f4 09 3d 94 c4 68 bd 2d 00 fa 3c
       0.010473554 0.03368015 -0.056828097 0.030517662
000320 af f0 94 3d 4a fb 49 3c b8 c6 06 bc 47 b8 34 bd
       0.07272469 0.012327978 -0.008226089 -0.044121053
000330 d6 f8 09 3d b9 b9 c3 3c 72 be 05 bd 23 10 d3 3c
       0.033684574 0.02389227 -0.032652326 0.02576453
000340 4d c8 17 3c be 5e 74 3a 8a fc 1e ba 42 2f 7e 3c
       0.009264064 0.0009321979 -0.0006064853 0.015514197
000350 21 e9 31 3d 2d fb ca 3a 54 93 87 3c de a1 bb bc
       0.04343522 0.0015486233 0.016549744 -0.022904333
000360 e5 b4 cb 3b 50 31 ae 3c 5d 43 76 3d ca 15 c0 bc
       0.0062166327 0.021263748 0.060122836 -0.02344789
000370 32 99 92 3d 6f f8 06 bc fd 02 ff 3c fe 05 ad 3b
       0.07158126 -0.008237942 0.031129355 0.0052802553
000380 09 d5 52 bd 7a f7 5d 3a 78 0e e3 bb 3f 44 d9 3c
       -0.051472697 0.0008467358 -0.006929215 0.0265218
000390 00 a7 8e 3c 46 48 ba 3c 0f b8 3f 3d 23 82 ac bb
       0.017413616 0.02273954 0.04680639 -0.005264537
0003a0 9e 79 cd 3c b7 9f 27 bd 27 78 2f bc 33 ec 2a 3c
       0.025082406 -0.0409238 -0.010709799 0.010432291
0003b0 52 1b d4 bb e7 45 b8 3c 70 c5 6d 3d db d2 1d 3d
       -0.0064729834 0.02249427 0.05804962 0.038531166
0003c0 50 1b 8e bc f8 2a a4 3c 4f 8e 99 3c bf 6a 86 bb
       -0.017347008 0.02004002 0.018744616 -0.0041020806
0003d0 b5 5c 1f bc de 3b c7 bb ab 7e b0 3c be 5d 93 3d
       -0.009726693 -0.006080135 0.021544775 0.07195614
0003e0 c6 22 8f bc 2a 11 73 3d 14 09 97 bc 38 37 26 b8
       -0.017472636 0.05934254 -0.018436946 -3.962891e-05
0003f0 fc be 67 3d 36 d0 6a 3d f1 a7 56 bd 7a c1 97 bb
       0.05657862 0.05732747 -0.052406255 -0.0046312185

action_model._continuous_distribution.log_sigma f4 [1, 2]
000000 48 d0 33 be e2 79 6b be
       -0.17559922 -0.22995713

action_model._continuous_distribution.mu.weight f4 [2, 256]
000000 bd 88 52 bd 2e b9 68 3c 5b 5f cd bc 70 55 fd bc
       -0.051399935 0.0142043065 -0.025069883 -0.030924529
000010 80 c9 96 bd 67 1c 09 bd e4 14 82 bd 00 cb 3c bc
       -0.07362652 -0.033474352 -0.06351641 -0.011523008
000020 af a8 67 bd fc e1 0e bc db 89 b1 3b c8 1d ef bc
       -0.056557354 -0.008720871 0.005418045 -0.029189005
000030 ec af 57 3d 96 3f bb ba 20 7e 7e bd e6 f9 0e bd
       0.052658007 -0.0014285918 -0.062132 -0.03490629
000040 e0 78 2f 3d 32 2e 72 3c f9 7e 94 bb 74 4c 4e 3c
       0.042839885 0.014781522 -0.004531738 0.01259147
000050 ed 80 43 3d 62 8d b8 bb 11 84 f1 3c 3e c0 36 bb
       0.047730375 -0.0056320885 0.02948192 -0.0027885581
000060 2f b3 40 bb 60 aa 67 bc 7d f0 6e 3d fc 50 41 3c
       -0.0029403677 -0.014139742 0.058334816 0.011799093
000070 b2 2e b1 bc aa 2b c0 3c d8 20 45 3c 34 dd f1 3c
       -0.021628711 0.02345832 0.012031756 0.029524423
000080 8b 71 30 bd b2 2b bc bc 59 d9 e4 3b b2 89 d4 3d
       -0.043077033 -0.022970054 0.0069839177 0.10377826
000090 0a 05 e7 bb 0c b3 51 3d 36 d2 d4 3b c3 6f 9b 3d
       -0.0070501612 0.051196143 0.0064947857 0.07589676
0000a0 36 17 82 3d 29 25 bd bc ee 8a 44 3d 1f cb 8d 3d
       0.063520834 -0.023089008 0.047984056 0.06923508
0000b0 57 42 e3 3c 1c d3 17 bc 63 f6 0c bc 50 f9 a5 3c
       0.027741594 -0.009266641 -0.008603665 0.020260483
0000c0 9d 13 1c bd 8f a7 a2 3c 85 aa 8b 3d a1 26 8e 3b
       -0.038104642 0.019855289 0.068196334 0.004338101
0000d0 b3 66 9e bd 8e a9 d0 3b e8 dc 1c 3c 1a ef 04 bd
       -0.07734432 0.0063678687 0.0095741525 -0.032454588
0000e0 d6 0a ab 3c 5e ad 9b bd 20 ef fe bb 36 0e 91 bc
       0.02087919 -0.076014265 -0.0077799708 -0.017706972
0000f0 a5 d9 54 3d 22 d8 7e 3d bb ce ba bc 52 64 3d 3c
       0.051965374 0.06221784 -0.022803655 0.011559563
000100 9d d3 26 bb fa a6 1a bd d7 87 56 3c cf 76 1c 3b
       -0.0025455721 -0.037756898 0.01309391 0.0023874526
000110 7a f1 61 bb a2 a5 6f 3c a5 b6 00 bd fe e4 ab bc
       -0.0034476207 0.014626892 -0.031424183 -0.020983215
000120 87 5e 81 3c d7 64 4c 3d 78 a8 37 bd 15 55 d5 bc
       0.015792144 0.049900856 -0.0448384 -0.026041547
000130 b8 ed ab 3c 67 6c 80 3d 90 93 07 bb 9a 5c 13 3d
       0.020987377 0.06270676 -0.002068732 0.035976984
000140 a5 32 a1 3d 14 c1 db bc d4 6d a4 bc 05 95 43 3c
       0.07870988 -0.026825465 -0.020071901 0.0119373845
000150 9b a3 90 3d f0 1c 86 bc d1 75 83 3d 6f 0c 00 bb
       0.07062455 -0.01637122 0.06418956 -0.001953866
000160 9f 45 ef bb d9 a2 04 3c b2 02 86 bc 14 0c aa 3a
       -0.0073020007 0.0080954665 -0.016358707 0.001297357
000170 4e 5e bc 3d 15 fd 4e 3d de a7 7c bc 6c 99 d1 bc
       0.09197675 0.050534327 -0.015420882 -0.025585853
000180 55 89 98 3c 2e da 3a 3d 5b 98 10 3d 16 ce af 3d
       0.018620173 0.04561823 0.035301547 0.0858423
000190 0c 58 ba 3c 3a 88 ab bd 2e e7 00 3d d8 27 0b 3d
       0.022747062 -0.083755925 0.03147047 0.033973545
0001a0 91 ab 34 bd 2a 9d 0c bd bc c3 b7 bd ff d9 9d bc
       -0.04410893 -0.03432957 -0.0897288 -0.019268988
0001b0 93 a5 26 bd d1 b0 8c 3d d7 40 2d 3d 21 44 11 bd
       -0.040685248 0.068696626 0.042298164 -0.035465363
0001c0 1e 82 ad 3c 12 33 f1 bc e7 e3 30 3c 09 4a 4f 3d
       0.021180209 -0.029443298 0.010796524 0.050607715
0001d0 dc f8 27 bd c6 ab ba 39 f6 68 f4 3a 45 b4 25 bd
       -0.041008815 0.00035604666 0.0018647003 -0.04045512
0001e0 d2 9f 48 bd 21 a4 92 3d 97 39 94 3d d2 30 e0 bc
       -0.04898054 0.07160211 0.07237547 -0.02736703
0001f0 ee b3 4c 3c 64 e5 f7 3c 6a 02 9c bd 17 5e 3a bd
       0.01249407 0.03026075 -0.07617648 -0.045499887
000200 8d 7d c0 bc 87 14 f1 3b 7c f7 5e 3b 2c bc aa bc
       -0.023497367 0.0073571834 0.0034022024 -0.02084168
000210 33 01 95 bc d5 ea ed bc d5 03 8b bc be 50 74 3c
       -0.018189048 -0.02904264 -0.0169696 0.014911829
000220 55 50 8b bc 95 ce 10 bd 1d 00 ed bc 7c ba ef bc
       -0.017006079 -0.035353262 -0.028930718 -0.029263727
000230 12 7f a1 bd c6 be 6d 3c d7 f9 bb bc 3e d0 b1 bc
       -0.07885565 0.014510816 -0.022946281 -0.021705743
000240 94 e3 33 3d d9 81 7f 3d 74 c4 60 bc 12 1d 6b bd
       0.043918207 0.06237969 -0.013718713 -0.05740077
000250 e7 c8 23 3d e5 4a 48 bc 56 bf ac 3c f7 94 d2 3c
       0.039986517 -0.0122248875 0.02108733 0.025705798
000260 97 a7 00 bd ec f8 a7 3d d8 42 4b 3c 34 02 0b 3d
       -0.031409826 0.08201775 0.0124060735 0.033937648
000270 c3 b3 c1 bc ec 3a 4d bd 6b 1e fe bc a9 1c a6 bb
       -0.023645287 -0.05010502 -0.031020364 -0.0050693345
000280 29 fe 83 bd a1 87 b6 bc 08 c6 02 3c d2 82 50 3c
       -0.064449616 -0.02228147 0.007981785 0.0127265025
000290 14 4d 29 bd ce 78 07 3c ad 65 9c ba 42 cf d4 bc
       -0.041333273 0.008268548 -0.0011932157 -0.025977734
0002a0 fb 84 29 3d 98 6e eb 3c 83 83 4e 3d f9 16 f1 ba
       0.041386586 0.028739259 0.050418388 -0.0018393687
0002b0 1c 61 58 3c 6c 2f 0b 3b 28 ce 45 bd 99 74 e9 3c
       0.013206746 0.0021237982 -0.04829231 0.02849798
0002c0 d2 b6 53 bd c5 a0 1b bd 23 1d 91 3a 55 9e 7f 3c
       -0.051688023 -0.03799512 0.0011071305 0.015601714
0002d0 84 8b 2b bd cd c8 75 3d 48 68 2f bc 4d 2d 8c 3d
       -0.0418811 0.06000595 -0.010706015 0.06844578
0002e0 84 9a 1a bc 4e 29 5b 3c 0c 94 4c 3c f8 93 f7 bc
       -0.009436253 0.013376547 0.012486469 -0.030221924
0002f0 5e 83 28 bd 06 6e e0 3b 2f ab 7d bd df 9d 58 3d
       -0.041140907 0.0068490533 -0.06193083 0.052884933
000300 09 ed 2b bd 90 7d eb 3c 97 b0 0d 3d 3d 20 de bc
       -0.0419741 0.028746396 0.034592237 -0.027114982
000310 21 7e fe 3c 8d 1e 29 3d bd 96 60 bc 75 99 02 3d
       0.031066002 0.0412889 -0.013707814 0.03188463
000320 1d ea 91 3d 1f 53 38 3d ac 5d ae bd e5 08 00 bc
       0.07124732 0.045001145 -0.0851396 -0.007814621
000330 13 6f 6e bd b7 02 a5 3d 20 48 18 bc 96 f6 7f bd
       -0.058211397 0.080571584 -0.00929454 -0.062491022
000340 21 ca 1f bb a4 f3 9d bc 20 6d 69 bd b7 cd 8c bd
       -0.0024381953 -0.019281216 -0.056988835 -0.068751745
000350 dd bf b3 bc 72 5a 4b 3d 92 2f 99 bb 4f 86 91 bc
       -0.021942073 0.049646802 -0.0046748603 -0.017764239
000360 79 0f 59 bd 38 33 99 bc 51 f9 60 3d 2a 9e c7 3c
       -0.05299327 -0.01870118 0.054925267 0.02436741
000370 85 17 12 3c e7 1c 5a bd e0 e8 4d bd 33 2c a6 3c
       0.00891674 -0.05325022 -0.050270915 0.020284748
000380 1e ba 35 3c 3f e5 64 3d c0 ec c1 bc 51 89 d1 bd
       0.011091737 0.05588269 -0.023672462 -0.10231269
000390 5d d7 0a bd 12 47 8e bd c2 26 f9 3c 01 39 18 3d
       -0.033896793 -0.06947149 0.030413989 0.03716374
0003a0 b3 52 4e ba e0 65 ff bc 9c 55 ea bc ed 80 90 3d
       -0.00078705995 -0.031176507 -0.028605275 0.07055841
0003b0 99 18 87 3d da 1f 18 bd 26 f4 e3 bc b8 46 01 3d
       0.065964885 -0.03713975 -0.02782638 0.031561583
0003c0 38 e1 d9 bc 6e dd 31 3b 9a 02 83 3d df 58 8e 3c
       -0.02659665 0.002714004 0.063969806 0.017376361
0003d0 59 a4 ed 3c 5b 27 28 3c 48 fc f7 bc 08 e6 89 3d
       0.029009031 0.010263289 -0.030271664 0.06733328
0003e0 0f 95 be 3b 7a 43 66 ba 90 e2 0d 3d a0 03 65 bd
       0.005816109 -0.00087838585 0.034639895 -0.05591166
0003f0 bb 28 59 3c f8 62 92 ba 03 0b 35 bb 88 c8 86 bc
       0.01325434 -0.0011168411 -0.0027624972 -0.016453043

action_model._continuous_distribution.mu.bias f4 [2]
000000 98 06 ec 3a c3 93 fe 3c
       0.0018007336 0.031076318

action_model._discrete_distribution.branches.0.weight f4 [2, 256]
000000 e4 58 16 3d 2b 2c 29 3d dd 4f bc bc 41 06 f3 bb
       0.036705866 0.041301887 -0.0229873 -0.007416517
000010 2f 2c 48 3c 08 68 c4 3b 95 2d c0 3a 2f 5a 1d 3d
       0.012217565 0.005993847 0.0014662022 0.038416084
000020 7c 01 a1 bb 6a 51 65 3d bb eb 80 bd 72 c4 12 3d
       -0.004913507 0.055985846 -0.06294962 0.035831876
000030 7b e0 a8 3b 53 4e 8d 3b 34 aa 0b 3d 2b 5d 3a bd
       0.0051537133 0.0043123155 0.034097865 -0.04549901
000040 0c 1a 5e bc dd fb 53 3d ae 1c 4f bd ec 4d fe 3c
       -0.013556015 0.051753867 -0.05056446 0.031043015
000050 d5 a7 16 3d 8b 9f 17 3d 3e 32 8a 3c 95 24 8d 3d
       0.03678115 0.037017386 0.01686966 0.06891743
000060 cb 15 0b 3d 23 49 62 bc d0 cc 04 bc 4a c8 23 3d
       0.03395633 -0.013811382 -0.008105472 0.039985932
000070 b0 e9 7d bd 29 54 3e bd a5 b2 d1 3c 65 60 8e 3c
       -0.06199044 -0.04646698 0.02559788 0.017379949
000080 ba 56 70 3c 27 a5 60 bc 25 5a 7b 3c a5 17 5d 3c
       0.014669115 -0.01371125 0.015341316 0.013494407
000090 9d 85 9f 3b 2e 3b d9 3b 56 ad 74 3d 28 44 f4 3a
       0.004868223 0.006629369 0.05973562 0.0018636035
0000a0 72 aa a2 3c ca 9e 05 bd c6 eb 71 3d ed c1 96 3a
       0.019856665 -0.032622136 0.05906274 0.0011501886
0000b0 14 42 54 bd aa 6a 37 3c 19 51 77 bc f3 aa a5 b9
       -0.05182083 0.011194864 -0.015095019 -0.0003159862
0000c0 ca 04 42 bc c7 6d b3 bc 63 a3 e9 bc 23 c3 81 3d
       -0.011841962 -0.021902932 -0.028520292 0.063360475
0000d0 e6 2f 33 3d 54 a0 5a 3d c3 78 45 3d 7e 2a 8c ba
       0.04374685 0.053375557 0.04821087 -0.0010693816
0000e0 f9 fe f6 3c d6 82 af 3b d5 1f 8a 3c 29 ea 26 bc
       0.030150877 0.005356173 0.016860882 -0.010187664
0000f0 2a ce 3b bc 29 e6 33 3d b1 90 95 3c 54 4a a2 bc
       -0.011462728 0.04392067 0.01825747 -0.019810833
000100 e7 89 1b bd 02 7b 5e 3d 75 1f 91 bc e6 2f 4c 3d
       -0.03797331 0.05431653 -0.017715195 0.049850367
000110 c0 9f c1 bc ca 53 9d bc ce ba c9 bc 98 1a 20 bc
       -0.023635745 -0.019204993 -0.024625208 -0.009771965
000120 9e 8b 79 3b 5b 65 3b 3d 4b da d1 bc ac 9d 38 3d
       0.0038077603 0.045750957 -0.025616786 0.045072243
000130 84 0b 30 bd ba 1e c7 bc a5 c7 5f 3d eb 42 59 bc
       -0.042979732 -0.024306644 0.054633755 -0.013260583
000140 09 c9 a9 3c 20 32 ff 3c fc e9 03 3d 4f 8e 2b 3d
       0.020725744 0.031151831 0.032205567 0.041883763
000150 61 a3 0a 3d e1 91 83 bc 46 1f 7c bb 4d ad f3 bc
       0.033847217 -0.016060771 -0.003847079 -0.029745722
000160 5d 53 12 bb c1 86 54 3d cb 84 c5 3b c7 22 30 bc
       -0.002232752 0.051886324 0.006027793 -0.010750479
000170 09 42 4c 3d 71 94 d7 3c a3 bb cb bc f6 04 b8 bc
       0.049867664 0.0263159 -0.024869746 -0.022463303
000180 aa 88 e4 3c a7 12 64 3d 4b f5 e3 3c a8 2e 21 3c
       0.027897198 0.05568185 0.027826926 0.009837784
000190 6f 6c 3c 3d da ca 94 3b f6 54 9a bc e0 fe 9f bb
       0.046001848 0.0045407834 -0.01883934 -0.0048826784
0001a0 54 76 01 3d a8 c7 54 3b 7f ad 5f bc 81 0d 74 bb
       0.031606987 0.0032467637 -0.013652205 -0.0037239494
0001b0 4e a7 61 bd 6b 38 f7 3a 59 a6 56 3d f5 19 8b bc
       -0.055091195 0.0018861418 0.052404735 -0.01698015
0001c0 8c 07 45 bc c4 8a 5c 3d 9c 4f bd bc fd f4 29 3d
       -0.012025725 0.053843275 -0.02310925 0.041493405
0001d0 48 20 14 3d d1 57 a8 39 a0 67 40 3d 99 a1 d7 bb
       0.0361636 0.00032108885 0.046973825 -0.0065805432
0001e0 8d 10 ce bc d8 e8 2b bd 53 89 b1 bb d0 f7 00 bd
       -0.025154376 -0.041970104 -0.0054179817 -0.031486332
0001f0 05 2f 27 bd 40 52 a2 3c 92 df 0c 3d df 2d df 3b
       -0.040816326 0.01981461 0.0343929 0.006810888
000200 0b 2f 9d bb 63 2e 90 3c 57 de e6 3b ac 58 dc 3a
       -0.0047968677 0.017600244 0.007045548 0.0016811094
000210 33 f7 3c 3d 77 2b 50 3b 28 a5 ee bc e6 ea 4c 3d
       0.046134185 0.0031764188 -0.029131487 0.050028704
000220 12 53 68 3b 31 9e 09 3d ce 07 3d bd 65 61 88 3d
       0.0035449904 0.03359813 -0.04615002 0.066592015
000230 c5 30 1c 3b 87 1a cd bc ff 31 3f b8 e0 95 12 bd
       0.002383278 -0.025037063 -4.558451e-05 -0.035787463
000240 69 69 de 3c 4e 0b 52 bd 0a d4 8d 3c d6 06 86 3b
       0.027149873 -0.051280312 0.017313022 0.0040901704
000250 82 a3 87 3c 10 ab fc bb d1 c9 52 3c 2d a2 44 3c
       0.016557459 -0.007710822 0.0128655 0.012001556
000260 03 d7 c8 bc 96 c1 b4 3c 52 19 f3 3c 16 d5 e4 3b
       -0.024516588 0.022064965 0.02967516 0.0069834096
000270 d3 92 24 bc 27 d1 07 3c 48 df 2c bd d5 bf 4e 3c
       -0.010044771 0.008289612 -0.042205125 0.0126189785
000280 e1 b5 19 3c 0c 8c 5e 3d 93 37 c1 bc 2b f4 10 3c
       0.009381742 0.054332778 -0.02358607 0.008847277
000290 af c3 f3 bb e1 83 49 bd ae 94 42 3d 7f c2 d2 bc
       -0.007439099 -0.049198035 0.047505073 -0.025727509
0002a0 7f b6 20 bc 73 15 f9 bc 40 a9 1f bd 83 ca 58 3d
       -0.009809135 -0.030405736 -0.03897977 0.052927505
0002b0 d5 a6 86 bc 24 44 b3 bc 0c a5 99 3b 82 b3 92 3c
       -0.016436974 -0.021883078 0.0046888646 0.017907862
0002c0 fc 32 12 3c 59 3e 33 bd cd 1a bd 3c 03 cc 7c 3c
       0.008923288 -0.04376063 0.023084069 0.0154295
0002d0 6e d2 94 bc b6 c3 a1 3c 95 44 1f bd ae 8a 6a 3c
       -0.018166747 0.019746643 -0.038883764 0.01431529
0002e0 f4 47 03 3d 1e ad 58 3d 22 80 36 bd 43 71 86 bd
       0.03205104 0.052899472 -0.04455579 -0.06564572
0002f0 99 b8 65 3b ec 67 16 3d 83 73 21 3d 40 96 f1 3b
       0.0035052656 0.0367202 0.0394168 0.0073726475
000300 57 4e 34 3c c7 4d 1b 3d ef b5 c4 bc 5b ba 0b 3d
       0.011005006 0.03791597 -0.024012534 0.03411327
000310 e5 73 16 3d 3a c1 02 bb f5 95 2f bd 57 23 b6 3c
       0.03673162 -0.0019951598 -0.04286762 0.022233648
000320 97 4a 25 3c 24 63 cb bb 48 36 09 3b a4 e5 19 bc
       0.010088584 -0.006206887 0.0020936895 -0.0093931295
000330 3a 91 1a 3d a0 b1 89 bb b2 45 3f bc 1a 81 0b 3d
       0.037736155 -0.0042020828 -0.0116743315 0.034058668
000340 30 79 ce 3c 69 f1 45 bd 11 d3 4d bc ba e7 fc bc
       0.025204271 -0.04832593 -0.012562529 -0.030872215
000350 31 24 8b 3c a5 76 09 bc e1 1d f5 bc fd b9 23 bc
       0.01698503 -0.0083901035 -0.029921474 -0.0099930735
000360 81 9f 28 bc a7 5d fb bb 27 4b 2c 3d 74 03 db 3c
       -0.010291935 -0.0076710763 0.04206386 0.026735045
000370 ab 3a 1f 3c da 1a 44 bc 33 73 fb 3c 28 dc 7a bd
       0.009718577 -0.011969293 0.03069458 -0.061245114
000380 61 aa 84 bc 2e c2 3d 3c 57 7f 63 bd 72 0c 1c bd
       -0.016194524 0.011581941 -0.055541363 -0.038097806
000390 ab 25 b5 3c 38 ea ce bb cf 22 0c 3c 57 63 6e 3a
       0.022112688 -0.006314542 0.008553221 0.0009093782
0003a0 96 31 81 bc 44 0b e0 bc 5a 11 25 bd e3 97 a5 3c
       -0.015770715 -0.027349122 -0.04029975 0.020214027
0003b0 2c ef 8f bc 9f 1b 00 bc c1 46 2d bc 38 9f 66 3c
       -0.0175701 -0.007819085 -0.010575951 0.014076047
0003c0 b3 21 6c bc da 9d af 3b 83 b6 6e bb a2 a3 c3 3c
       -0.014412331 0.0053593935 -0.0036424703 0.023881737
0003d0 c2 1f 4f bd 78 f1 0a b8 13 01 3a 3d b2 1f bd 3c
       -0.050567396 -3.312665e-05 0.04541118 0.023086403
0003e0 02 61 9d bb 55 77 25 3d ff 6e 33 3c 08 43 a2 bb
       -0.004802824 0.040397007 0.0109517565 -0.0049518384
0003f0 74 03 43 3d ce 8c 6e 3d 70 2b 06 bd f5 82 1d 3c
       0.047610715 0.05823975 -0.03275627 0.009613742

action_model._discrete_distribution.branches.0.bias f4 [2]
000000 70 6b ee 3c 6d 6b ee bc
       0.029103965 -0.029103959

onnx::Div_70 f4 [11]
000000 37 0d 72 40 52 12 2f 3b 2e 43 74 40 fe 18 31 3e
       3.7820566 0.00267138 3.8166003 0.1729469
000010 09 4d 33 3c e0 9b ef 3e cd 20 b8 3f 1d 5b 39 3a
       0.01094366 0.4679861 1.438501 0.0007070767
000020 37 85 28 3d 1d 5b 39 3a 2f a2 e9 3e
       0.04114267 0.0007070767 0.4563155
