results/turret_train_10/TurretShoot/TurretShoot-57037.onnx (onnx, 287600 bytes, 11 tensors)

network_body.observation_encoder.processors.0.normalizer.running_mean f4 [11]
000000 be 1b 11 3d 3f 21 db c0 3f 98 0e bd 09 4e aa 3c
       0.035426848 -6.8478084 -0.034813162 0.020789163
000010 13 c8 b3 3c f7 77 95 3d d9 99 4e 41 c1 29 85 3d
       0.021945989 0.07298272 12.91256 0.065021046
000020 d0 2f 6e bf ea 4b 17 bd f6 07 bb 3e
       -0.93041706 -0.03693763 0.3652951

network_body._body_endoder.seq_layers.0.weight f4 [256, 11]
000000 79 bb 93 be 0f 25 39 bd 9c 37 22 3e 27 32 2b be
       -0.28853968 -0.045201357 0.15841526 -0.1671835
000010 16 61 a1 be 5a e3 9b 3e 3a 45 c8 bd c6 8d 22 3c
       -0.31519383 0.30446893 -0.09778829 0.009921497
000020 34 1a d2 3d f5 dc 20 3e 68 f7 81 3e 15 1a b1 3d
       0.10258904 0.15709288 0.25384068 0.08647553
000030 a0 63 06 bf e2 f2 17 3e 60 f4 c9 be 71 1e 45 be
       -0.52495766 0.14838746 -0.39444256 -0.19249894
000040 bb 88 6b 3e 2d e3 19 3e 01 a1 d4 3e bc a0 08 bf
       0.23001377 0.15028067 0.41529086 -0.5337026
000050 db ac 75 3e 66 16 4d bd b5 e8 9a 3e b2 f1 73 b9
       0.2399172 -0.05007019 0.30255666 -0.00023264324
000060 70 fe 22 be 88 46 56 3d b6 cc 1c bf b7 ae a8 3d
       -0.15917373 0.052313358 -0.61249864 0.08236449
000070 f8 b9 30 be ab e8 1d be e3 31 81 3e 12 23 ab 3e
       -0.17258441 -0.15420787 0.25233373 0.33425194
000080 aa ca 70 be 85 48 39 3f 06 9f 0d 3e 21 e2 55 be
       -0.2351481 0.7237628 0.13830194 -0.20887043
000090 ee 45 0b bf 58 0b f3 be 5a fe 3f 3e 47 d3 35 3e
       -0.5440358 -0.47469592 0.18749371 0.17756377
0000a0 f2 91 eb bd be 53 93 3b 1e 49 a2 be 20 ce 3d bc
       -0.11502446 0.004496067 -0.3169641 -0.011584789
0000b0 2c 6f 8d be 46 a7 99 3e d4 7c 60 3f a3 50 ac bc
       -0.2762388 0.30010432 0.8769047 -0.021034544
0000c0 11 7d 08 3e d6 1f 58 bf 4e a1 c5 bb 4d 16 22 be
       0.13328959 -0.8442358 -0.006031192 -0.1582882
0000d0 01 3d 57 bd b7 7a 3b bf cc 37 ca be ae 45 fb 3e
       -0.052548412 -0.73234123 -0.39495695 0.490766
0000e0 53 eb 1d 39 90 d9 05 be 6e 30 38 bc 02 af 39 bd
       0.00015060352 -0.13071275 -0.011242015 -0.045332916
0000f0 96 de 86 be 03 af ad be 0c e1 ee be 49 31 82 3d
       -0.26341695 -0.33922586 -0.46656072 0.06357057
000100 8d 73 ee 3e 03 ba 99 bc f9 ac 1b 3f 1d e4 bd ba
       0.46572533 -0.018765455 0.6081081 -0.0014487539
000110 f2 ea 41 3e 44 4d 10 3d 5e 44 03 be 53 7a 8e bc
       0.18937281 0.035229936 -0.12819049 -0.017392313
000120 33 6c 1a 3e 93 05 02 bd ae 7d 18 3e 56 32 9e be
       0.15080337 -0.031743597 0.14891693 -0.30897778
000130 35 b3 0a 3f 70 8e 6a b9 d8 b8 87 bd 5f 75 51 3f
       0.541797 -0.00022369041 -0.06627053 0.8181972
000140 62 74 90 3d 9f 78 df 3c 54 f9 7c 3e e9 8e 07 be
       0.07053448 0.027279196 0.24704486 -0.1323811
000150 61 c7 6b 3d 75 cf 4c 3e 94 cf 0a 3d 36 85 54 3e
       0.05756319 0.20001014 0.03388937 0.20753941
000160 c1 a2 b6 be 6d e7 1d be 54 e9 31 3e d7 e0 ee bd
       -0.35671046 -0.15420313 0.17374164 -0.116639785
000170 b0 71 07 be 22 f3 a9 3e ab 28 8a bd 81 9e 6a 3d
       -0.13226962 0.33193308 -0.06746038 0.057280067
000180 a2 e5 4e be c8 21 02 3d 82 67 15 3f 04 53 b7 3e
       -0.20204785 0.031770498 0.58361065 0.35805523
000190 d4 06 9e be ef c2 92 bd 25 75 f8 3e 8b 7a de 3e
       -0.30864584 -0.07166087 0.48526874 0.43452868
0001a0 fa 08 1a bd a8 80 f3 3d 67 6f b9 3b fb ee 23 3f
       -0.037606217 0.118897736 0.005659032 0.6403653
0001b0 24 3f e8 bd 1d c2 e5 be b7 c8 9d be 13 43 86 be
       -0.11340168 -0.4487466 -0.30817196 -0.2622305
0001c0 af 6f 04 3e a0 33 8a 3e 5d e3 14 bf 04 0f f3 3e
       0.12933229 0.26992512 -0.5815943 0.47472394
0001d0 fb d1 6f 3d bb 26 83 3e df bb 8f 3e 6f a5 60 be
       0.058549862 0.25615487 0.28073022 -0.21938108
0001e0 51 ed e5 3e df b5 f7 bd 73 39 26 3e 84 33 24 be
       0.4490762 -0.12095236 0.16232853 -0.16035277
0001f0 0f b5 5d 3f c1 05 75 3e 2e b1 06 be 86 93 5e be
       0.866044 0.23927976 -0.13153526 -0.21735963
000200 4b 15 a5 3d 99 35 9c 3e 44 05 ad bd 66 4d 0a 3f
       0.08060702 0.30509642 -0.0844827 0.5402435
000210 17 5c cc be ea c4 e8 be 84 41 30 3d 0e 29 e0 3c
       -0.3991401 -0.45462734 0.04303123 0.027363326
000220 c6 b5 07 3e 31 6b 07 be 6b 76 67 3e f5 28 12 3f
       0.13252935 -0.13224484 0.22603767 0.57093745
000230 cf 20 58 3e 4a 81 2f 3f 86 5f 71 3e 4e 47 f4 bd
       0.21106265 0.68556654 0.23571596 -0.11927663
000240 cf 67 04 bf 40 77 c9 3e e8 12 2e be 8d ed e3 3e
       -0.517209 0.39348793 -0.169994 0.44517174
000250 c9 9d 4b 3e ac 10 35 bc 44 57 6f be 7a 17 4e 3e
       0.19884409 -0.011051338 -0.23373133 0.20126143
000260 b0 2b 27 be 4f fd c5 bd 1f 90 23 be 13 ee c7 bd
       -0.16325259 -0.096674554 -0.15972947 -0.09762206
000270 fd 29 de 3e 23 ea a7 be a7 8a c5 bd 26 2e 2d 3e
       0.4339141 -0.3279582 -0.096455865 0.16912135
000280 82 ab ea 3e fc 23 71 be c4 21 22 3f ca d4 05 3e
       0.45833975 -0.23548883 0.6333277 0.13069454
000290 53 21 f9 bd 34 78 1c be 79 d8 87 bd 58 c7 bc 3d
       -0.12164559 -0.15280229 -0.06633086 0.09217709
0002a0 38 b2 a5 3e c0 ee 12 bd 65 7f 97 bc ca fc fd 3d
       0.32362533 -0.03587222 -0.018493364 0.12401731
0002b0 26 15 01 3e bd 7e d7 3e af 03 d8 be d9 62 a1 be
       0.12605724 0.4208888 -0.4219031 -0.31520727
0002c0 d3 b6 6b 3f 81 10 07 be 71 e5 55 3e 0a ee 82 bd
       0.9207584 -0.1318989 0.20888306 -0.063930586
0002d0 43 7a e4 bd 9b 99 b8 3d 85 72 d5 3d 4e 76 ad 3e
       -0.11156132 0.09013673 0.104222335 0.33879322
0002e0 55 5e 2b be 1f 52 06 be 2b 6c 17 3f ef 51 27 3e
       -0.16735204 -0.13117264 0.59149426 0.16339849
0002f0 0c 05 e5 be b1 6c de be 0f 62 22 bf 35 fc e1 3e
       -0.44730413 -0.434423 -0.63430876 0.4413773
000300 8d 54 03 3e e7 c9 8d be c0 7a 37 be a3 ec 2e 3e
       0.12825222 -0.27693102 -0.17917919 0.17082457
000310 37 8f 8f 3e ab ee d6 be 42 76 a4 be d0 06 f4 3e
       0.28038952 -0.41978964 -0.32121474 0.47661448
000320 1e c7 5b 3e ef 18 52 be 5f 47 15 bf 21 b8 88 bd
       0.21462676 -0.20517324 -0.5831203 -0.06675745
000330 cc fc ab 3d 22 02 bd 3e cc e3 6b 3e bb 6b 42 3e
       0.083978266 0.3691569 0.23036116 0.18986408
000340 c1 b0 de bd dd ff f5 3d b6 38 28 3d 1d 96 09 3d
       -0.10873557 0.12011693 0.04106971 0.033590425
000350 0e a4 6f 3e cb f9 dd be 99 45 ad bc b3 9f f9 3d
       0.23402426 -0.4335464 -0.02115135 0.12188663
000360 08 d5 62 be 27 67 ba be f9 43 77 be 91 4a 05 bf
       -0.22151577 -0.36406824 -0.24147023 -0.52066904
000370 3a 2d 0d be a8 48 74 be 67 5e a2 3e 06 c2 75 bd
       -0.13786784 -0.23855841 0.31712648 -0.05999949
000380 bd 93 9d be d2 e7 19 3f 6c a1 96 3c 20 fe 17 be
       -0.30776778 0.60119355 0.018387519 -0.14843035
000390 b9 4b 9a bd 21 5f 22 bd df 1a 04 bc 95 c0 4a 3e
       -0.07533974 -0.039641503 -0.008063047 0.19800027
0003a0 27 fa 4b bd bd 6c 05 3f e6 57 23 3e 9a 7d 03 3e
       -0.04979911 0.52119046 0.159515 0.12840882
0003b0 ee 9a a2 be 96 52 65 bd db 50 a2 3c 0c e5 b6 3c
       -0.31758827 -0.055986963 0.019813946 0.022326015
0003c0 84 d1 3f bd c3 76 e4 bc ed b0 8d 3e 8c 71 8f bd
       -0.04683067 -0.027888661 0.27674046 -0.07004079
0003d0 f3 6e aa bc fd fc 9d 3e f6 ed 01 3e 85 68 d1 3e
       -0.020804858 0.30857077 0.12688431 0.40900055
0003e0 c9 7a b8 3e 43 43 1a 3d 19 da dc 3d ab 44 ad bd
       0.36031178 0.037661802 0.10783786 -0.08460363
0003f0 15 d0 c8 3d 9b 87 15 bc 3a d7 87 be 2b 8a be 3d
       0.098053135 -0.009126569 -0.26531392 0.09303697

network_body._body_endoder.seq_layers.0.bias f4 [256]
000000 ff 95 78 3c ee 46 33 bd d2 83 10 3d ed 6e 33 3d
       0.015172481 -0.043768816 0.035281964 0.04380696
000010 f4 d9 60 3d ff 1f 6f 3d ef 96 61 3d 9a b2 5c 3d
       0.054895356 0.058380123 0.055075582 0.053881265
000020 27 fd de b8 cd cd aa 3d 0e 0d 05 3d d4 eb 57 3d
       -0.00010632938 0.08340035 0.032483153 0.052715138
000030 a2 23 9f 3c 0d aa a2 3c b9 31 89 3b a7 da 11 bb
       0.01942617 0.019856477 0.0041868356 -0.002225557
000040 01 c3 d6 3c 2c 12 97 3d b6 3e 03 3d 7d 83 04 3d
       0.026216032 0.07376513 0.032042228 0.03235196
000050 11 5b 30 3d 48 e0 87 3d 35 e8 4f bd d9 a9 8a bc
       0.043055598 0.06634575 -0.05075856 -0.016926693
000060 d7 c8 dd 3c 0b 7c 30 bd ec c8 71 3d a8 82 46 3d
       0.027073307 -0.043087047 0.059029505 0.048464447
000070 59 7c ca bc 4e e1 df 3c 06 24 1a bd da af 49 3d
       -0.024717497 0.027329113 -0.03763201 0.04923997
000080 20 0e 6e 3d 4d 25 66 3d 74 9a 39 3d 68 26 4d 3d
       0.05811894 0.056187917 0.045313314 0.050085455
000090 3b 27 b3 3c b8 fc a1 bb ed 42 07 bd a8 e4 5e 3c
       0.021869292 -0.0049434565 -0.03302281 0.013604321
0000a0 15 4a 13 3d 6d 89 73 3d f2 02 1a bd c9 cd 03 3c
       0.035959322 0.05945723 -0.037600465 0.0080446685
0000b0 04 6a 31 3d 7e c4 d7 3b f6 d0 78 3d 89 8c 57 3d
       0.043313995 0.006584703 0.060746156 0.05262426
0000c0 b0 0e 4a 3d f5 ba eb 3c 99 c7 91 3c 27 4b 15 3d
       0.049330413 0.028775671 0.01779537 0.036448624
0000d0 56 eb 77 3d b0 70 21 3d 3f 92 8d 3d 9a 0b 4c 3d
       0.06052717 0.039414108 0.0691266 0.04981575
0000e0 f4 58 fc 3c 36 37 23 3d 08 d2 48 bc 25 02 c8 3c
       0.030804135 0.039847575 -0.012257107 0.024415085
0000f0 81 7a 3a 3d a8 70 30 3d 7e 12 f1 3c be 89 57 bc
       0.045526985 0.043076187 0.029427763 -0.013155399
000100 b8 f2 c3 bc 5c 24 40 3d 05 8c 82 3d 0d 74 54 3d
       -0.023919448 0.046909675 0.06374363 0.051868487
000110 0e ab bd 3c 64 3b 89 3d bb c7 68 3c 8a ac 2e 3d
       0.023152854 0.06700781 0.014207776 0.042645015
000120 7c 5e a0 3d 5c 4b 02 3b 06 af 44 3d 7f 85 8a bc
       0.078305215 0.0019881343 0.048018478 -0.016909359
000130 12 37 9c 3b f4 ea c3 bc 37 5b 6f 3d fb 31 49 3d
       0.004767307 -0.023915745 0.0584366 0.04911993
000140 f3 f9 29 3d ed 3f 12 bd 9e 8f 7f 3d 4e 72 e2 3c
       0.041498136 -0.035705496 0.062392823 0.027642395
000150 f0 3c 32 3d 5a 47 ad bb 48 80 55 3d ed a4 e2 bc
       0.043515146 -0.005288047 0.05212429 -0.027666533
000160 90 2f 38 bb 56 1b b4 3c c8 80 4b 3d 6a 19 71 3d
       -0.0028104521 0.021985691 0.049683362 0.058862127
000170 f7 3d 2a 3d c6 67 a4 3d ca b8 25 3d 06 92 c7 3c
       0.041563 0.08027606 0.04045943 0.024361622
000180 f6 ff fa 3c 7b ee 23 bd b0 d0 33 bd f8 0d 02 3d
       0.03063963 -0.040022355 -0.04390019 0.031751603
000190 56 d6 18 3d 8c 86 a0 3d 49 0f 43 3d 28 93 26 3d
       0.03731378 0.07838163 0.047622 0.040667683
0001a0 43 8d 9f 3c 39 d7 58 3d 50 8a 8a 3d 41 1f 5c 3d
       0.019476539 0.052939627 0.06764662 0.053740744
0001b0 f4 f7 ba bc 0e f5 1c 3d 62 98 0c bd 07 e3 ab bc
       -0.022823311 0.03831964 -0.03432501 -0.020982279
0001c0 79 df 40 bd 62 ab 48 3d af 1d 89 3d ae 70 d6 3c
       -0.04708812 0.04899157 0.06695115 0.026176777
0001d0 62 c2 81 3d f4 58 2d 3d 2d 6c 49 3d 2d 2e 5a bd
       0.06335904 0.04232116 0.04917543 -0.053266693
0001e0 3c e1 91 3c 27 ae 7d 3d 1a 1f 67 3d 17 b8 31 3d
       0.017807595 0.061933663 0.056426145 0.043388452
0001f0 6e c2 a1 3c 7e ac 54 3d 4b 63 1f 3d c9 f4 3c bd
       0.019746032 0.051922314 0.038913053 -0.046131883
000200 64 5f 14 bd 44 b5 75 3d 97 09 6b 3d 77 f9 02 3d
       -0.036223784 0.05998732 0.057382192 0.03197619
000210 84 73 99 3d 1c 88 3f bd 4d 07 eb 3c dc 6c 00 3d
       0.07492736 -0.046760663 0.028690005 0.031353816
000220 32 64 01 3c 45 44 4b 3d 83 29 6a 3d ff cb de 3c
       0.007897424 0.049625654 0.057168495 0.027196882
000230 25 a8 e5 3c a4 56 53 3d 8f e1 5e 3d 22 64 31 3d
       0.02803428 0.0515963 0.05441433 0.043308385
000240 bf 2e d3 bc 84 1c 6a 3d 5b 44 67 3d 93 c8 89 3d
       -0.025779126 0.0571561 0.056461673 0.067277096
000250 30 f2 1b 3d 93 c6 7f 3c 04 92 17 3d f7 42 76 bc
       0.038072765 0.015611309 0.037004486 -0.015030614
000260 7f 5f 96 3d da 21 35 3d 1b 1e 6a 3d 62 8c 83 3d
       0.07342433 0.044221736 0.057157617 0.0642326
000270 6c 95 0f 3d 48 f6 1d 3d db d3 90 bb e2 1e 47 bd
       0.03505461 0.03856495 -0.0044197864 -0.048613437
000280 2b dd 5f 3d a3 e5 5a 3d ea de ae bc bf 60 df 3c
       0.05465428 0.053441655 -0.021346528 0.027267812
000290 4d b2 d5 bc be 86 3b 3d 7d 0b 86 bc b3 c2 a5 bc
       -0.026085997 0.045782797 -0.0163629 -0.020234441
0002a0 c6 7f 04 3d b1 7a 0b bd e1 16 14 3d 27 58 76 bc
       0.032348417 -0.034052555 0.03615463 -0.015035666
0002b0 92 e5 8b 3d c3 79 31 bc 4d c4 59 3c ff 80 6e 3d
       0.068308964 -0.010832253 0.013291431 0.05822849
0002c0 42 37 05 3d f6 8a 57 3c cd 3e 32 3d d7 e5 7c 3d
       0.0325234 0.013155689 0.043516923 0.06174263
0002d0 c1 75 99 3d 05 52 3c bd 3d 67 40 3d 68 ac c8 bb
       0.07493163 -0.045976657 0.046973456 -0.006124068
0002e0 ad 54 10 3d 0f 12 49 3d 64 b5 73 3d a3 75 41 3d
       0.035237003 0.049089488 0.05949916 0.047231328
0002f0 a2 50 84 3c 42 ed 87 3d 75 3f 09 3d d5 4a 9b 3c
       0.01615173 0.0663705 0.033507783 0.018956581
000300 08 56 2b 3d cb 94 40 3d bd 4e 4e 3d 90 59 06 3d
       0.041830093 0.0470169 0.05036806 0.032800257
000310 f9 81 49 3d ee 06 96 3a 5e b6 0c bd 72 2d 4b 3d
       0.049196217 0.0011446157 -0.034353606 0.049603887
000320 4a 07 e9 bc 46 a4 46 3d 98 8f 99 3d 81 26 47 3d
       -0.028445859 0.048496507 0.074980915 0.048620705
000330 bc 52 d7 3c 4e 5e 15 3d 00 95 5b 3b d1 d6 7c 3d
       0.026284568 0.03646689 0.003350556 0.061728302
000340 4d c9 13 3d eb 37 0e bd e2 b1 48 3d 62 47 95 3d
       0.036080647 -0.034721296 0.048997767 0.07289006
000350 58 53 89 3d c7 bf 00 3d 4f 6d 1c 3d 24 48 e6 3c
       0.0670535 0.031432893 0.038190182 0.028110571
000360 0c 54 37 3d 40 2f 4e 3d f3 b2 70 3d 94 a5 22 3c
       0.044757888 0.05033803 0.05876441 0.009927172
000370 07 95 08 bd 37 5d 43 3d 99 f7 9c 3d 2e 3b 82 bc
       -0.03334525 0.04769632 0.07664413 -0.01589736
000380 0b cf 17 3d fb 6a 58 3d 8b ff 3d 3d b2 52 73 3d
       0.037062686 0.0528364 0.046386283 0.059405036
000390 91 72 89 3d ee dc 2c 3d 99 24 77 3d 3b 8f 17 3d
       0.06711305 0.042202882 0.060337637 0.03700183
0003a0 4d f0 53 3d 32 50 a4 3c 31 08 4b 3d c4 c7 06 3c
       0.05174284 0.020057771 0.04956836 0.008226339
0003b0 9d fc cf 3c 5e 32 8b 3d 3d 67 2f 3d cb ef 38 bd
       0.02538901 0.06796716 0.042823065 -0.04515056
0003c0 0b 13 1a 3d 9b 58 b8 ba 46 e4 52 3d 3c ea f5 bc
       0.037615817 -0.0014064492 0.05148723 -0.030018918
0003d0 a0 da 13 3d 66 2d 17 3d 18 7b 62 bc 8f 30 2e 3d
       0.03609717 0.03690853 -0.013823293 0.042526778
0003e0 eb 14 76 3c b7 b2 87 3d 8f e2 5a 3d 7d 29 b1 bc
       0.015019636 0.06625884 0.05343872 -0.021626228
0003f0 60 07 9c bb 00 0e 12 bd cf ef 6b 3d b6 66 90 3d
       -0.0047616214 -0.035657883 0.057601746 0.070508406

network_body._body_endoder.seq_layers.2.weight f4 [256, 256]
000000 6b 73 85 bd 19 35 15 3d 14 cf 98 3d 18 66 d4 bd
       -0.06516155 0.03642759 0.07461372 -0.10371035
000010 60 5e 89 bd 7c 0f 5e 3b b2 b5 2f 3d 0b ac 0f be
       -0.06707454 0.003388374 0.042897888 -0.14030473
000020 17 03 4a 3c 3e cb df bd f0 b6 4f bd fa 9b 35 bd
       0.012329838 -0.10927437 -0.050711572 -0.044338204
000030 1f 52 5f bd 5e 19 e3 bc ad a8 63 3c e5 c4 e6 3b
       -0.054521676 -0.027722057 0.013895196 0.0070425146
000040 d4 e7 10 3d 3e 32 b5 3d b4 bc 7c 3c 89 63 b6 bd
       0.03537734 0.088474736 0.01542585 -0.089057036
000050 ac a7 0f bb aa f4 11 bc 8c 2d 18 3d a5 41 c1 3c
       -0.0021920009 -0.00890843 0.037152812 0.023590872
000060 75 53 d0 bb 1a b1 93 3d f9 b8 c2 3d db 5c c9 bc
       -0.006357605 0.07211514 0.09507937 -0.02458041
000070 59 8b 26 bc 21 b2 02 be 2e 15 02 bc 98 05 4f 3d
       -0.010165059 -0.12763263 -0.00793962 0.050542444
000080 87 18 9e 3c 6f 38 45 bd be e3 8d bc 52 28 33 bb
       0.019298805 -0.048149522 -0.01732051 -0.0027337265
000090 67 b5 1b bd f3 4e 29 3d af cf cb bd 79 55 13 3c
       -0.038014796 0.041335057 -0.09951722 0.008992546
0000a0 0b 70 2e bd 97 0c de 3d 47 cb 78 3c c4 a6 80 3d
       -0.04258732 0.10842245 0.015185184 0.06281808
0000b0 a3 34 0f be bd 57 cc 3d 49 d8 81 3c c6 d5 40 bd
       -0.13984923 0.09977672 0.015850203 -0.04707887
0000c0 61 70 d8 3c 86 a1 cd 3d aa fb 8f bb 81 30 d6 bd
       0.026420774 0.10040574 -0.0043940144 -0.1045847
0000d0 76 1d 03 be 07 16 a1 3d 5a 74 24 3c 8c fc 90 bd
       -0.12804207 0.078655295 0.010037506 -0.070794195
0000e0 95 19 1a 3d eb 2b 83 bd ab 5c 20 bc 13 7f 94 bc
       0.037622053 -0.06404861 -0.009787719 -0.018127
0000f0 8a 4c b7 bc 94 fa 95 bd e4 21 ca 3c fe f6 6e 3d
       -0.022375364 -0.073231846 0.024674363 0.05834102
000100 42 9a 04 bc 63 d0 40 bd 0f 4e ba bd b3 01 88 3d
       -0.008093419 -0.047073733 -0.0909692 0.06640949
000110 02 eb 95 3d e8 ae 20 3d da f0 b3 bd fa 2a 24 3c
       0.07320215 0.039229304 -0.08786173 0.010020012
000120 c5 08 40 bd 7e 07 55 3d ab 77 90 bc f1 a7 ab bb
       -0.046883363 0.0520091 -0.017635187 -0.005238526
000130 93 90 ff 3c 76 cc e1 3d 2c 94 10 bd a1 47 cd 3c
       0.031196868 0.11025326 -0.035297558 0.02505857
000140 91 76 91 bc e5 03 c5 bc 72 4d 1b 3d 1c bc 01 bd
       -0.017756732 -0.024049709 0.037915654 -0.031673536
000150 2d 71 1e 3c 65 82 18 be a3 1d a4 bd 05 1d db bc
       0.009670538 -0.14893492 -0.08013465 -0.026747236
000160 eb 11 04 bd bb 70 23 bc 0e 91 d5 bd d4 7e ec 3c
       -0.03224365 -0.0099756075 -0.104280576 0.02886907
000170 dd 47 4e bc d4 2a af bd 5d 8e 5c bd cc 8f 9f bd
       -0.012590376 -0.08553091 -0.053846706 -0.07791099
000180 ae 4a 93 3c 3e ad 39 bd 39 16 0e 3c a8 35 25 3d
       0.017979946 -0.045331232 0.0086722905 0.040334374
000190 49 ee 3c bd a9 2a 97 bd d8 16 e6 bc 5b b0 aa bc
       -0.046125684 -0.07381184 -0.028087065 -0.020836046
0001a0 2e 5f 8b bd 34 b7 c3 39 1b f8 33 bd e8 68 30 3c
       -0.068052635 0.00037329795 -0.043937784 0.010767199
0001b0 5d b3 d8 3a 73 91 ab 3d ba 93 a3 bd c8 20 30 bd
       0.0016532947 0.083773516 -0.07987161 -0.043000013
0001c0 8f b1 29 be 03 40 42 3c bd 5a c5 bc 7e 63 dc bd
       -0.1657164 0.011856082 -0.024091119 -0.10761164
0001d0 79 ae 1a bd 2e 04 3f be 64 ef 1a 3d ad 69 76 bd
       -0.037764046 -0.18653938 0.037825957 -0.060159374
0001e0 1b 1b bf bd 2f b1 0e bd bc 78 29 be 2c 64 db 3b
       -0.09331342 -0.034836944 -0.16549963 0.006695291
0001f0 81 78 56 3d c0 5d 8d bd 76 94 d4 3b 8c 44 44 bd
       0.052361015 -0.06902647 0.0064874245 -0.047916934
000200 44 89 9b bd 1e cb 4f bd c6 4f b6 bb 50 04 1e bd
       -0.07594541 -0.050730817 -0.005563709 -0.03857833
000210 08 f4 34 bd f6 c5 79 bb d2 51 df bd 77 ca 1c bc
       -0.04417804 -0.0038112379 -0.10904278 -0.009569756
000220 33 88 19 3d f4 6a 16 3d 7b 2a a7 bd ce 81 83 bd
       0.037483405 0.036723092 -0.081623994 -0.06421243
000230 b0 41 c4 bd 3e 6a e0 bd f8 7c 92 3d 97 0f 60 bb
       -0.095828414 -0.10957764 0.07152742 -0.003418898
000240 40 93 79 bd 7e db 7e 3d 63 65 86 bd 8f d4 53 bd
       -0.060931444 0.062221043 -0.06562307 -0.051716384
000250 7e 5f 95 3d 15 bd db 3b 4d b7 f3 bd 6c 83 ee bc
       0.07293604 0.00670589 -0.11900196 -0.029115401
000260 94 a9 30 bc 08 a7 a1 bd 23 35 6c bd f3 a5 b2 bb
       -0.010782618 -0.07893187 -0.057667863 -0.0054519116
000270 41 d1 76 3d 35 fb de 3b 36 80 c7 3b cd c8 b9 bd
       0.060258154 0.0068048486 0.006088282 -0.09071503
000280 bf c8 1e be 1d 67 9c bd 46 f0 32 bd a7 49 41 3d
       -0.15506266 -0.07636855 -0.043686174 0.04718938
000290 9e c2 c2 3c 6b 3b 96 bd 88 64 84 3c 31 7c 38 3d
       0.023774441 -0.07335552 0.016161218 0.045040313
0002a0 63 a6 90 bd 9d a4 18 bd 5c 76 d8 3b ed b8 22 3d
       -0.07062986 -0.037266362 0.0066059064 0.03972714
0002b0 45 d3 cb bc 66 6a a5 bd cc d3 96 3c 7b 25 be 3d
       -0.024881015 -0.080769345 0.01841154 0.092844926
0002c0 cc f4 db bc d8 9c 0d 3d bc 60 c5 3d 05 ef e1 3c
       -0.026850127 0.034573406 0.09637591 0.027579794
0002d0 97 48 06 bd 92 de c4 3d d3 7c 92 3b 76 84 6f 3d
       -0.03278407 0.096127644 0.0044704466 0.058475934
0002e0 fd 17 e3 bd f9 a6 dd 3a 88 0a 09 3d 4e bd 66 bb
       -0.1108856 0.0016910724 0.03345731 -0.003520805
0002f0 93 96 85 bc 98 b9 10 3e d3 48 ec 3b 8e 47 79 bc
       -0.016307151 0.14133298 0.0072108298 -0.015214814
000300 7f bc 21 bd fe bd 9f bb 47 31 c1 bd bd 02 91 3c
       -0.039486405 -0.0048749438 -0.09433227 0.017701501
000310 3f 3a 6d bc a3 8b d0 3b e7 14 82 3d a6 d6 ab bd
       -0.014479219 0.0063643022 0.06351643 -0.0839055
000320 c6 47 c2 bc 36 0b c0 bd aa ef 84 bc 4b 7f 8a bd
       -0.023715865 -0.09377138 -0.016227562 -0.067625605
000330 b1 f1 71 3c 8b 73 86 3d 86 76 e1 bd 38 00 68 3b
       0.014767096 0.06565007 -0.11008935 0.003540052
000340 28 5a 9a 3d 01 6d d5 bc 38 3f b5 bd 42 ee 68 bd
       0.07536727 -0.026052954 -0.08849949 -0.056867845
000350 7b 17 68 bd 4f 90 3b 3d d5 95 be 3d a7 cf 81 bc
       -0.056663018 0.04579192 0.09305922 -0.015846087
000360 ba 82 ae bb 5c cd 4d bd fa 77 dc bd 1d 6e f0 bd
       -0.0053256424 -0.050244674 -0.10765071 -0.117397524
000370 e0 39 c4 bd 8e fd 24 bc 8b 6f 3b bd c6 58 46 3d
       -0.09581351 -0.010070218 -0.045760673 0.048424505
000380 c2 46 3b bc 2e ad ee bc f0 23 03 be ab 40 82 3d
       -0.011430444 -0.029135313 -0.12806678 0.06359991
000390 cd d4 27 bc 87 ad 91 bd a5 f4 27 3d d1 a4 fb bc
       -0.010243607 -0.07113176 0.041004796 -0.030718239
0003a0 79 48 64 3d 53 98 82 bd 0f 01 dc bd 6e 1f d1 3d
       0.055733178 -0.0637671 -0.107423894 0.10211073
0003b0 9a 29 3d 3d 87 31 e6 3d 1c 26 2e 3d 55 d8 bb bc
       0.046182252 0.11239915 0.042516813 -0.022930304
0003c0 e3 1a 94 bc 7c 6d 1c 3d 3a a8 e7 bc df e2 97 3c
       -0.018079227 0.03819035 -0.028278459 0.018540798
0003d0 a4 1e 43 bc e7 54 12 bd b0 07 75 bd 31 62 db bd
       -0.011909161 -0.0357255 -0.059821784 -0.10712088
0003e0 ba 89 00 3d 36 c1 66 bd 54 a2 10 bd 39 aa 90 bc
       0.031381346 -0.056336604 -0.03531106 -0.017659293
0003f0 54 ad d1 3c d7 cc a8 bd c0 5f 04 bd 37 64 06 bd
       0.025595345 -0.08242195 -0.032317877 -0.032810416

network_body._body_endoder.seq_layers.2.bias f4 [256]
000000 56 23 2b bd 2b b1 69 3d 31 04 74 3d 44 c0 33 3d
       -0.041781746 0.057053726 0.05957431 0.04388453
000010 37 2d 1e 3d 75 dd 20 3d 02 40 12 bd e1 9c 4a bd
       0.03861734 0.039273698 -0.035705574 -0.049466018
000020 b5 b8 51 3d bc f5 03 bd ac d9 c5 3c b4 c8 4a bd
       0.05120154 -0.032216772 0.024151646 -0.04950781
000030 b0 51 8a 3c 20 82 fe 3c 3f 2d 54 bd 8c 2a a1 bc
       0.016884655 0.031067908 -0.051800963 -0.019673608
000040 fa cd 26 3d 8d 01 1a 3c 1f ee 28 3d 00 a6 07 3d
       0.04072378 0.009399784 0.041242715 0.033117294
000050 77 4c 88 3d 1c f5 35 3d b4 c9 ee bc ec 23 b5 3c
       0.066552095 0.044423208 -0.029148914 0.022111855
000060 3b 64 ca bc 21 19 26 bb ee 05 4d bd e9 d6 c6 3b
       -0.024705997 -0.0025344568 -0.050054483 0.0060680998
000070 79 01 4d bd 68 61 0d bd 5e 49 5a bd cf ae 6f 3d
       -0.050050233 -0.034516722 -0.053292625 0.05851632
000080 9d 74 33 bd d1 dd f6 3b 6f c5 17 bd 06 3c 07 3d
       -0.043812383 0.007533767 -0.03705352 0.033016227
000090 93 2b 23 3d 95 e6 7f 3d a6 1e dd 3c 4b 79 95 bc
       0.039836477 0.06247576 0.026992153 -0.018246314
0000a0 4a 82 2f 3d 8e 75 25 3c 52 d2 1f bd 9f 26 b5 3c
       0.042848863 0.010098828 -0.039018936 0.022113143
0000b0 1b 82 ae 3c ba 24 50 3d ba d4 42 3d c1 f9 07 bd
       0.021302273 0.050816275 0.047566153 -0.03319717
0000c0 9b 7b 1c bd 92 c3 08 3d ad 7b b6 3c e4 bb bb 3c
       -0.038203817 0.033389635 0.02227577 0.022916742
0000d0 81 83 54 bb d1 86 45 3d ad 85 6c 3d 83 08 b3 bc
       -0.0032427015 0.048224274 0.05774467 -0.021854645
0000e0 0f e7 9b 3c f2 55 23 bd 87 9d 25 3d 6a e1 93 3c
       0.019031076 -0.039876886 0.040433433 0.018051822
0000f0 d0 72 4c 3d 72 9b 50 3d c4 ae 23 bc ae 84 10 bd
       0.04991418 0.050929494 -0.009990398 -0.035282783
000100 8b 3a 32 3d ce f8 1c 3d cc 2a 0e bd 05 f1 12 3d
       0.043512862 0.038323216 -0.034708783 0.035874385
000110 1f 2a fb 3c 24 da 27 3d 7f f8 ac 3c 60 91 3b 3d
       0.030659733 0.04097952 0.021114586 0.045792937
000120 2a 2a 43 3d bc 0c 09 bc 96 66 18 3d 93 37 a8 bc
       0.047647633 -0.0083648525 0.03720721 -0.020534312
000130 59 9f b7 bb 63 12 0a 3d dd 93 bc 3c 0b e5 1e 3c
       -0.0056037125 0.03370894 0.023019725 0.009698163
000140 ea f9 65 3d c9 5f be 3b 27 c3 b5 3c 07 e1 58 3d
       0.05614654 0.0058097583 0.022187782 0.052948978
000150 8f 16 f2 bc d2 19 2e bd 1f 59 5c 3d e9 5e 31 3d
       -0.029551772 -0.042505093 0.05379593 0.043303404
000160 4a 64 80 3b 59 4a 3e 3d c6 91 19 ba 82 c1 f6 3c
       0.0039182054 0.046457622 -0.0005858209 0.030121569
000170 18 ef d6 bb 09 3b 3a 3d 4b d7 11 bd 19 ee 40 3d
       -0.006559264 0.045466457 -0.03560571 0.047102068
000180 6f 7e 1d bd b6 0c a3 bc 12 f3 f4 3c e4 e4 3e 3d
       -0.038450655 -0.019903522 0.029901061 0.046605006
000190 a2 fa 3d 3d 2c e5 42 bc 91 a1 fa bc 78 c2 33 b9
       0.0463816 -0.011895459 -0.030594619 -0.00017143216
0001a0 e3 c9 8e bc b4 67 04 bb ee 76 3f 3d 5b 1b ef bc
       -0.017430251 -0.0020203413 0.04674428 -0.029187849
0001b0 76 40 48 3d eb 65 0a 3d 00 2b ec bc 91 64 13 3d
       0.0488896 0.033788603 -0.028829098 0.03598458
0001c0 9a 3f 3a bd 42 0b 0f bd b3 f1 fd 3c a0 bd d9 3c
       -0.04547081 -0.034922846 0.03099904 0.026579678
0001d0 39 56 03 bd c8 75 1b bc 54 46 0c bd 6c 16 c8 bc
       -0.03206465 -0.00948853 -0.034246758 -0.024424754
0001e0 e8 ff 43 3d 5a 49 e8 bc ef 62 15 bd af c5 19 3d
       0.047851473 -0.02835529 -0.036471304 0.03754204
0001f0 7f be 18 bd 4d 5a 3a bd cd 15 0c bd c0 73 26 3d
       -0.037291046 -0.045496274 -0.03420048 0.04063773
000200 8d 96 46 3d 63 8b 69 3d bd 50 0a 3d c1 f2 19 bd
       0.04848342 0.057017695 0.033768404 -0.037585024
000210 53 61 28 bd b7 18 9b 3c 87 e2 20 3d 08 46 bb bb
       -0.04110844 0.018932683 0.039278533 -0.0057151355
000220 8e f1 88 3d e3 5f ce 3c b8 88 90 3c 47 9c 0b bd
       0.06686698 0.025192207 0.017643318 -0.034084585
000230 3c fa 4c bc 0c c7 fc 3c 5e 91 12 bd ca 4b 05 bd
       -0.012510832 0.030856632 -0.035783164 -0.03254298
000240 8e f4 4a 3d c4 c9 9e bb c5 46 e8 3c 85 7e 2b bd
       0.04954963 -0.0048458297 0.028354058 -0.041868705
000250 b0 24 14 3d ab e9 dc bc 3e a3 22 bc 21 2b 15 3d
       0.0361678 -0.02696689 -0.009926615 0.036418084
000260 b3 a6 8b 3c aa 72 fa bb 7f 5a d3 bc 42 8c 2b bd
       0.017047262 -0.0076430636 -0.025799988 -0.041881807
000270 91 44 58 3d 84 05 ea 3c 07 e3 38 3d 7a 6e 1b 3c
       0.052799765 0.028567083 0.045138385 0.009486789
000280 17 39 4e bd 1f 3f df bb cd 23 86 3c c0 c7 7e bc
       -0.050347414 -0.0068129445 0.016374493 -0.015550554
000290 9b 5d 38 3d 9a 28 34 3d 8d 63 27 3d 04 d1 67 3d
       0.045011144 0.043984033 0.040866423 0.056595817
0002a0 9c 4d 64 bc 67 54 84 3c 41 9c 28 3c 94 5a 18 3d
       -0.013934519 0.016153527 0.01029116 0.037195757
0002b0 1b 9a fb 3c 5b 40 da bc 42 ad fd 3c 98 25 0b bd
       0.030713132 -0.026642015 0.030966405 -0.0339714
0002c0 3b bc 46 bd ab 13 49 3d 6d 98 de bc ba 61 b1 bc
       -0.048519354 0.049091022 -0.027172292 -0.021653045
0002d0 8a 55 d1 3c fa 2b 39 3d 11 87 b6 ba 41 85 6e 3d
       0.025553484 0.045207955 -0.0013925751 0.05823255
0002e0 bd 2e 61 3c 80 73 21 3d 35 d8 dd 3a 62 2a 45 3d
       0.013744053 0.03941679 0.0016925397 0.048136123
0002f0 ab 10 fc bc 99 21 42 3d ec b2 64 3d 26 fd 10 3d
       -0.030769667 0.047395322 0.055834696 0.03539767
000300 ae 2b 80 3d da 76 79 3c 3c ab 61 3d f6 c3 0a 3d
       0.06258331 0.01522609 0.055094942 0.03387829
000310 3c 95 29 3d 3d 17 34 3d ca a4 4f bd 42 88 2f 3d
       0.041402087 0.043967474 -0.050694264 0.042854555
000320 0b 4f 81 3c da 53 f4 3c 93 8d 2c bd f9 d3 c0 3c
       0.015784761 0.02982514 -0.042127203 0.023538576
000330 89 51 ce 3c ba ea d4 bc 7c 80 e4 3c 1c ca 38 3d
       0.025185363 -0.025990833 0.027893297 0.04511462
000340 a5 29 07 3d 7d c3 67 3d 38 ba 5f 3d 48 dd f8 3c
       0.0329987 0.056582917 0.05462095 0.030378953
000350 70 ed 85 3c 56 f7 b8 3c 2f dd 0c bd 6f 95 42 3d
       0.01634857 0.022578876 -0.034390625 0.047505792
000360 b7 28 b6 3c 6a 81 97 bb 73 9c 02 3d ee 96 4a bd
       0.022236211 -0.0046235817 0.031887483 -0.049460344
000370 fe 56 54 3d fb 37 9f 3c c5 e7 36 3b b2 8d cd 3c
       0.051840775 0.019435873 0.0027909141 0.02509198
000380 47 b5 5d bd cc 37 00 3d 53 d1 10 3d ad 2d 10 bd
       -0.054127958 0.031303212 0.035355877 -0.03519981
000390 c5 62 22 3c ea c0 d0 3c 82 89 d7 3c 29 9c ac ba
       0.009911244 0.025482614 0.026310686 -0.0013169098
0003a0 fb 04 72 3d 20 a8 39 3d 37 96 90 bc 7d 78 65 3d
       0.05908678 0.045326352 -0.017649753 0.05602311
0003b0 f9 ff 8c 3c ce 99 13 bb 93 b2 a8 3b 13 73 cc bc
       0.017211901 -0.0022522095 0.005148241 -0.024957215
0003c0 12 19 c2 bb 41 ea 09 bd f5 57 13 3c 98 53 e9 bc
       -0.005923399 -0.033670668 0.008993139 -0.028482243
0003d0 d0 cc f5 bc da ef 9e bc 2f 15 57 3d 55 77 bb bc
       -0.030004889 -0.01940148 0.052510437 -0.02288405
0003e0 b7 67 96 3c 81 6e 33 3d 05 37 83 bc e3 36 36 bd
       0.018360002 0.043806557 -0.016017446 -0.044485938
0003f0 bb 32 40 3d 42 43 ab 3b 05 5f 49 bd 00 4e 61 3d
       0.04692338 0.0052265236 -0.049162883 0.055006027

action_model._continuous_distribution.log_sigma f4 [1, 2]
000000 be 07 1f bd 90 43 82 bd
       -0.038825743 -0.06360543

action_model._continuous_distribution.mu.weight f4 [2, 256]
000000 f5 de e6 bc f8 d0 2a bc 75 ba b8 3a 08 60 bc bc
       -0.028182486 -0.010425799 0.0014093654 -0.02299501
000010 82 e4 14 3b cb 78 4d 3b 44 89 8c 3c 27 ca 0e bc
       0.002271921 0.0031352516 0.017155297 -0.008715189
000020 53 30 0b bc f6 ed f2 bc 1f 83 06 bb 3f d5 5e 3b
       -0.008495408 -0.029654484 -0.0020524932 0.0034001616
000030 4c 91 3e 3a 65 ec e2 bc db 44 1d bb 23 6b cd 3b
       0.0007269576 -0.027700612 -0.002399734 0.006268875
000040 dc fe 08 bc 03 8e ae ba 3b 13 da 3b ca c2 7d bb
       -0.008361544 -0.0013317469 0.0066551245 -0.003872084
000050 6e fe 92 3c 30 ba bf 3b a4 d8 8c 3c c7 75 7d 3c
       0.017943587 0.0058510527 0.017193146 0.015469975
000060 d5 8f cf 3c d6 53 2f 3b 76 4e c5 bb 99 70 1d bb
       0.02533714 0.002675285 -0.006021316 -0.0024023412
000070 13 53 6a bc e5 00 99 bc 07 21 98 3b 79 40 5e 3c
       -0.014302033 -0.018677184 0.004642609 0.013565176
000080 9e 49 26 3c c4 3d 2a bc e9 e2 f2 ba 0f 8d 5b bb
       0.010149388 -0.010390703 -0.0018530759 -0.0033500826
000090 0e bd 65 bc e5 0d ca 3c a8 20 8d ba 22 cd 09 3c
       -0.014022125 0.024664829 -0.0010767179 0.008410724
0000a0 68 d7 6c 3a b0 f4 fc ba 71 7e 98 3c eb f5 7e 3c
       0.00090347836 -0.0019298997 0.01861498 0.015561561
0000b0 db 22 78 bc 46 5f d3 bb 11 c9 1c bc 64 e3 fd bb
       -0.015145029 -0.0064505665 -0.009569422 -0.0077480543
0000c0 cf 6d be 3b e7 a4 c3 bc 19 c6 76 bc 96 ae 0d 3d
       0.00581143 -0.023882343 -0.015061879 0.034590326
0000d0 b3 06 cc bc bc 60 7b 3c bb ec 74 bb 31 e5 9a bc
       -0.024905538 0.0153428875 -0.0037372548 -0.018908115
0000e0 00 9c 15 bb db aa 93 3b 49 37 6f 3c c8 a9 f9 3c
       -0.002282858 0.0045064515 0.014600583 0.030476466
0000f0 71 a4 82 3c 5c e7 70 3c f3 d3 01 3d 89 81 a5 3c
       0.015947552 0.014703598 0.03169627 0.020203369
000100 67 43 93 ba 48 d7 83 3a 96 58 f8 3b 96 51 35 3c
       -0.0011235297 0.0010058666 0.0075789196 0.011066815
000110 dd ff 60 3c 35 c8 41 3b 39 29 8a 3c d8 8c 24 bb
       0.013732878 0.0029568796 0.01686536 -0.0025108363
000120 66 db 06 bc 81 b3 9a 3a a5 c9 bd bc 57 4b 68 bc
       -0.00823102 0.0011802764 -0.02316744 -0.014178119
000130 a0 58 13 bc dd 3c 01 3d 30 3c fd 3c 4d 07 4c bc
       -0.008993298 0.031552184 0.030912489 -0.0124529125
000140 f6 82 d1 bb 8c db 83 3c 30 72 fa bc 25 db f6 3b
       -0.0063937856 0.016095899 -0.030572027 0.0075334483
000150 bc cc 8b 3c 49 7e 8e bc 0d 93 34 3c 0a 9b 1c 3b
       0.017065398 -0.017394202 0.011021388 0.0023896121
000160 dc a5 53 3c 3b 67 0f 3d a3 a0 ec bc de 62 e5 bc
       0.012917962 0.035010558 -0.028885191 -0.028001245
000170 14 a2 1d 3b 24 3a 2c bc 1a c4 5a 3c 62 83 2e bc
       0.0024052905 -0.010511909 0.013352418 -0.010651441
000180 03 e9 7c 3c d5 0c 5d bc 8c 82 f1 3c a3 51 97 bc
       0.015436414 -0.013491829 0.029481195 -0.018471545
000190 40 6b 99 bc aa ff 00 bd c6 ef e5 3c 7e 9b 2f bc
       -0.018727899 -0.03149382 0.028068434 -0.010718225
0001a0 c9 1a 11 bd 5a ac 6e bc 10 80 cf 3b 6b 40 a4 3c
       -0.035425935 -0.014567459 0.006332405 0.020050248
0001b0 c8 fd 10 3c 44 24 90 3b 79 27 b0 bc 10 0d 03 ba
       0.008849569 0.0043988544 -0.021503197 -0.00049992
0001c0 9f 5b cf bc 2f b1 b9 3c 47 d3 e8 bc 6b 24 06 3d
       -0.025312243 0.022667496 -0.028421057 0.032749575
0001d0 8d c3 2a 3c de 9e a9 bc 50 69 c2 3c e5 13 2a 3c
       0.0104225995 -0.020705637 0.023731858 0.01038072
0001e0 9d 6f 2d ba d9 62 de 3c 6b 23 a8 bc f4 c1 5c 3c
       -0.0006616058 0.027146744 -0.020524701 0.013473976
0001f0 1b 5d 54 bc 49 e9 af ba 90 b6 68 3c d9 bd 3d 3c
       -0.012961651 -0.0013420965 0.014203683 0.011580908
000200 ac 26 ab 3c 28 17 83 3b 9c 14 c8 3c e1 b3 44 3b
       0.020892464 0.004000563 0.02442389 0.0030014443
000210 4d 5c 69 3a 66 31 09 bb da 2e a6 3c db a5 03 3c
       0.00089019985 -0.0020933985 0.020286012 0.0080351485
000220 e4 5c 53 3c 8c 44 0c bd bb 56 9e bc b3 b2 47 3b
       0.012900565 -0.03424506 -0.019328466 0.0030471503
000230 f6 a9 d1 3c 3f 4f bc bb a2 2b 3b bb 67 83 80 3c
       0.025593739 -0.0057467516 -0.0028559943 0.015687658
000240 75 fe 7f bc 74 c4 f1 bc 39 d0 aa 3b bf 1f 0a 3c
       -0.015624632 -0.029512621 0.0052128104 0.00843042
000250 62 d1 91 3b e0 0b b7 bc bb fa 94 bb f1 2c 14 ba
       0.004450009 -0.02234453 -0.004546491 -0.0005652449
000260 14 0e 52 bb 41 af ac 3c 29 9f f4 3a ea c9 21 bb
       -0.0032051848 0.021079661 0.0018663156 -0.0024687
000270 ff a8 c9 3c 2f 2d 8e bc 09 ea d6 3c 23 1c be 3c
       0.024616716 -0.01735553 0.026234644 0.023206776
000280 9e 58 3e bc d0 38 0d bc f9 e2 12 3d 81 4b c3 bc
       -0.011617808 -0.008619502 0.03586099 -0.023839714
000290 e8 72 0c bc ce bf c5 39 44 ad 16 3c 5b ba da 3c
       -0.008572318 0.00037717674 0.009196583 0.02670019
0002a0 0f bd 2a bc db dc e8 bc b9 4c 30 3c 70 94 a2 bc
       -0.010421052 -0.028425625 0.01076048 -0.019846171
0002b0 52 0c 96 bc 3b 7a f4 3c 48 69 f6 ba b8 2b 04 3d
       -0.018316422 0.02984344 -0.0018799687 0.032268256
0002c0 36 25 75 bb 39 ea bf 3b a9 df 24 bd 66 cd ca bc
       -0.0037406213 0.005856779 -0.04025236 -0.024756145
0002d0 1c 7f 1f 3c 93 8a 21 3c fc b4 a3 3c 2f 24 30 3b
       0.009734895 0.009859699 0.019983761 0.0026877036
0002e0 88 08 a9 3c 1f 5c ea 3b f5 5c a1 3c fa ac c7 bb
       0.02063395 0.007152095 0.019697646 -0.0060936185
0002f0 99 61 cc 3c 4b 3e 26 bb f6 85 1e 3c d8 63 d7 3a
       0.024948882 -0.002536672 0.009675493 0.0016432954
000300 30 d2 42 3c 09 74 93 3c 0a 13 27 3c 39 64 c7 bc
       0.011890933 0.017999666 0.01019741 -0.024339782
000310 1a c8 e2 bb 36 db cf 3c ed 14 06 bc 73 d2 b7 bc
       -0.0069208266 0.025373083 -0.0081837 -0.022439217
000320 5d c9 ca bc 16 98 53 bc c3 0a 16 3c 55 a7 2a bd
       -0.02475422 -0.012914678 0.009157839 -0.041663487
000330 db 8f 27 3c 92 3e b4 3c cb 7d c3 3c 74 ea 5e bc
       0.010227169 0.022002492 0.023863694 -0.013605703
000340 f5 f0 47 bc 3d 62 b1 3b 6a 1b 37 3c 31 45 a2 3c
       -0.012203445 0.0054133222 0.01117597 0.019808384
000350 bd fb b1 bb 29 11 2a bd 6a a1 a1 3a d4 f0 f6 bc
       -0.005431621 -0.04152027 0.001233143 -0.030144133
000360 bf 42 95 bc 3c f7 a2 bc 66 e0 fb 3c 69 8e 56 bc
       -0.018220304 -0.019893281 0.03074665 -0.013095477
000370 4d fa 5c 3c fc 20 aa 3c ad 20 16 bc ed 16 18 ba
       0.013487411 0.020767681 -0.009163064 -0.0005801756
000380 2b 4d 30 bc a0 d9 0a bd 03 be a3 ba 59 21 80 bb
       -0.010760586 -0.03389895 -0.0012492541 -0.0039102254
000390 5e 55 da 3b 15 73 7d 3c 45 17 0e 3b 1f 8a c4 3c
       0.0066630086 0.015469332 0.002168135 0.023991643
0003a0 bf ee d1 bc a9 50 0e bd af b7 b2 bc 7f 20 62 3c
       -0.025626538 -0.034744892 -0.021816103 0.013801693
0003b0 b0 6b b1 3c bf af f0 39 d6 6d df 3c ff 6d d7 3c
       0.021657795 0.00045907308 0.027274054 0.026297567
0003c0 67 6e 01 bd d4 40 93 3c fe 51 88 bc 97 40 6c bc
       -0.03159943 0.017975248 -0.01664066 -0.014419696
0003d0 62 89 23 bd 42 a5 39 bb db bd e0 3b e5 b6 23 bd
       -0.03992594 -0.002832726 0.00685857 -0.039969344
0003e0 09 c4 07 3b 3b 96 0a 3c 21 68 4c bc a6 9e 0e bc
       0.0020716211 0.008458669 -0.012475998 -0.008704817
0003f0 a2 12 1d 3c b5 fa ac 3c 6b 1e 7a bb c1 48 39 3b
       0.009586962 0.02111564 -0.0038165103 0.0028272124

action_model._continuous_distribution.mu.bias f4 [2]
000000 22 f4 53 3b 7c db d7 b9
       0.003234156 -0.00041171524

action_model._discrete_distribution.branches.0.weight f4 [2, 256]
000000 22 b3 18 bd 41 b7 00 3d 97 97 8c 3d 22 ed 02 3d
       -0.03728021 0.031424765 0.06864851 0.03196443
000010 0d 46 ec 3c 04 9a 28 3d 60 17 26 bd f1 3c 33 bd
       0.028841997 0.041162506 -0.040549636 -0.04375929
000020 e3 30 2c 3d d0 d3 d7 bc cf df a3 3c 8d 8c 1f bd
       0.04203881 -0.026346117 0.020004181 -0.0389524
000030 b5 46 86 3c 91 9d 05 3d 0b 19 53 bd 74 55 5e bc
       0.016391138 0.03262097 -0.051537555 -0.013570178
000040 3f 40 f2 3c 50 82 af 3c 2d 91 ff 3c a2 c0 d0 3c
       0.02957165 0.021424443 0.031197155 0.02548248
000050 01 9a 90 3d 9d 9d 29 3d 81 18 9a bc 55 f4 d1 3a
       0.07060624 0.041410077 -0.018810512 0.0016018251
000060 31 ff 63 bc e1 5a 4e 3b ed 48 47 bd 69 3c 25 3c
       -0.013915823 0.0031487274 -0.04865353 0.010085204
000070 12 49 09 bd 58 8b e8 bc 51 a7 47 bd 58 ac 43 3d
       -0.03351695 -0.028386757 -0.04874355 0.04777178
000080 dc 47 36 bd 65 7b 48 ba 44 0c af bc a6 5c 10 3d
       -0.044502124 -0.0007647782 -0.021368153 0.035244606
000090 10 2a 45 3d 9d 18 14 3d 57 d1 a4 3c 89 10 61 bc
       0.048135817 0.036156286 0.020119352 -0.013736852
0000a0 81 8b 1e 3d 70 45 be 3b fc c4 55 bd 11 80 46 3c
       0.03870726 0.0058066174 -0.052189812 0.012115494
0000b0 e4 bf 46 3c 72 cf 12 3d 0e e9 55 3d 01 dc 2d bd
       0.012130711 0.035842367 0.05222421 -0.04244614
0000c0 42 eb c4 bc 90 73 c6 3c c7 17 d1 3c 05 b6 02 3c
       -0.02403796 0.024225026 0.025524033 0.007977967
0000d0 6f b7 55 3a ca eb 50 3d b7 46 15 3d 87 64 21 bc
       0.0008152639 0.051006116 0.036444392 -0.009850628
0000e0 58 5a f9 3c 7e f7 ce bc cc df d8 3c 08 cb 6a ba
       0.030438587 -0.025264498 0.026473902 -0.00089566456
0000f0 43 b2 4b 3d 74 26 0c 3d 96 b1 ee bb d9 f4 13 bd
       0.04973055 0.03421636 -0.0072843535 -0.036122177
000100 b4 9f 14 3d 13 10 2d 3d 02 dc 4a bd 6e c8 e7 3c
       0.036285117 0.042251658 -0.049526222 0.028293815
000110 d6 60 b4 3c fb 1e f9 3c 70 77 84 3c 5b 76 15 3d
       0.022018831 0.03041028 0.016170233 0.036489826
000120 c7 a9 21 3d a6 bb 26 3c e5 60 0a 3d 76 22 21 bd
       0.039468553 0.010176575 0.033783812 -0.039339505
000130 a0 c7 65 bc 66 b1 d8 3c 89 48 a1 3c ab 47 71 3c
       -0.014024645 0.026451778 0.019687908 0.01472656
000140 09 50 68 3d 6a ff b1 bb c0 96 b5 3c 64 14 61 3d
       0.056716952 -0.005432059 0.02216661 0.054951087
000150 f1 c5 17 bd d8 80 8d bc 7c a2 45 3d e4 65 bb 3c
       -0.037054006 -0.017273352 0.04825066 0.022875734
000160 b4 54 b0 bb cf 6b 08 3d 0c a1 29 3c d1 c2 f8 3c
       -0.005381191 0.03330594 0.010353338 0.030366333
000170 77 e2 64 3b 0d fa 2b 3d 42 2a 78 bd 9f 84 17 3d
       0.0034925023 0.041986514 -0.060587175 0.03699171
000180 8d 47 47 bd 2c 9d 84 bc 49 96 e9 3c 98 4b 52 3d
       -0.04865222 -0.016188227 0.028514044 0.051341623
000190 95 78 57 3d da b3 7e bc 8f 8c 31 bd cd d2 d4 ba
       0.05260523 -0.01554581 -0.043346938 -0.001623714
0001a0 d8 aa 3f bc 73 2c bd 3c 6b dd e6 3c de ac 51 bd
       -0.011698447 0.023092484 0.028181752 -0.05119025
0001b0 e9 61 17 3d 5e fa b9 3c 08 c4 04 bd d8 04 f6 3c
       0.03695861 0.022702392 -0.032413512 0.030031607
0001c0 34 0a 15 bd 60 1d 43 bd d9 68 39 3d 62 99 07 3c
       -0.036386684 -0.047635436 0.045266006 0.008276315
0001d0 dd 1a 01 bd 07 a4 86 bc 9e 78 07 bd 7a 46 c1 bc
       -0.03151976 -0.016435636 -0.033074014 -0.023593176
0001e0 33 6c 1c 3d cf 4c f7 bc ba f7 47 bd 1c ff 17 3d
       0.038189124 -0.030187992 -0.048820235 0.037108526
0001f0 3c 99 f1 bc 52 d9 04 bd a2 00 07 bd 86 0e 23 3d
       -0.029492013 -0.032433815 -0.032959588 0.039808773
000200 9a 56 2e 3d 06 f0 68 3d d0 e0 da 3c bf 7f d2 bc
       0.04256306 0.05686953 0.026718527 -0.02569568
000210 e8 b8 44 bd c7 85 3a 3c 1c bd b1 3c 8b e0 cb bb
       -0.048027903 0.011384434 0.02169662 -0.006221836
000220 3b f3 91 3d 2e c7 04 3c c7 8f f4 3b 02 f1 26 bd
       0.07126471 0.008104129 0.0074634287 -0.040757187
000230 af 73 03 bd 24 5a e3 3c ba 16 32 bc 06 0b 2c bd
       -0.032092746 0.027752943 -0.010869676 -0.0420027
000240 6d b8 40 3d 8d ab 1f 3c eb 6d da 3c 20 44 71 bd
       0.047050882 0.009745491 0.026663741 -0.05890286
000250 d4 1e fc 3c 20 d9 00 bd f5 01 a3 ba 11 6e 1c 3d
       0.030776419 -0.031457067 -0.0012436496 0.038190905
000260 ed f2 7d 3c 56 b0 78 bc 36 fd 69 bc b1 6d 0f bd
       0.015499813 -0.0151787605 -0.014281562 -0.03501672
000270 8f d3 57 3d 90 e1 de 3b 1a ec 40 3d 7b 3c 71 3c
       0.052691992 0.0068017915 0.047100164 0.014723892
000280 05 9f 1e bd d6 a6 8b bc eb 27 77 3c 3c f8 8d 3b
       -0.03872587 -0.017047327 0.015085201 0.0043325704
000290 99 ea 21 3d 69 f5 ee 3c d5 65 30 3d 0f 01 67 3d
       0.03953037 0.029169755 0.043065865 0.056397494
0002a0 1b b1 c7 bc 7f 3c fa 3b 01 05 0c 3c bc 1a 32 3d
       -0.024376443 0.007636606 0.008546115 0.043482527
0002b0 ea 2e f9 3c 69 e2 0a bd 37 4e 83 3c 1b d5 5c bd
       0.030417878 -0.033907328 0.016028507 -0.05391417
0002c0 09 67 32 bd 91 f6 47 3d 52 f7 c9 bc a7 fd 93 bc
       -0.043555293 0.04881913 -0.024654064 -0.018065287
0002d0 7d 2c 5e 3c 58 e8 2b 3d 19 2a fc bb 2f 55 79 3d
       0.0135604115 0.041969627 -0.007695448 0.060872253
0002e0 0c 3a 99 3c ec 2a f0 3c e3 10 64 bb 79 46 38 3d
       0.018704437 0.029317342 -0.0034800104 0.044989083
0002f0 89 1e c5 bc 7a 9b 2a 3d 15 f7 4f 3d 2b 4f 07 3d
       -0.024062412 0.04165218 0.050772745 0.033034485
000300 22 1e 7a 3d bd 7f 95 3c b4 45 38 3d ae 5e a5 3c
       0.061063893 0.018249387 0.04498835 0.020186748
000310 c9 d5 04 3d c4 fd f7 3c 7c d0 06 bd fc 68 26 3d
       0.032430444 0.030272372 -0.03291367 0.040627465
000320 44 d3 c1 3c c0 89 2b 3c aa eb 9c bc 19 9e 15 3c
       0.02366031 0.010469854 -0.019155342 0.009131932
000330 f9 c8 d1 3c 43 0c eb bc 4c 46 d3 3c 0b bd 37 3d
       0.025608527 -0.02869237 0.025790356 0.04485802
000340 79 e0 c3 3c e8 02 34 3d 5a 75 58 3d df 99 b3 3c
       0.023910748 0.043948084 0.05284629 0.021923957
000350 ce 97 c8 3c 96 52 9c 3c bb 2a a0 bc 38 ae 53 3d
       0.024486449 0.019082349 -0.019551625 0.05167982
000360 bc 2e eb 3c 6a 26 72 ba db df c5 3c 9e d4 24 bd
       0.028708808 -0.00092372915 0.024154594 -0.04024183
000370 7b 3b 39 3d c1 bc 69 3c 5c a3 84 3c 91 09 8d 3c
       0.04522274 0.014266194 0.016191177 0.017216476
000380 a3 fe 00 bd 39 75 06 3d 2a af 1a 3d 89 2f d8 bc
       -0.03149284 0.032826636 0.037764706 -0.026389854
000390 1b 2f fa bb 57 8d e7 3c 50 e7 a4 3c 32 2d 53 3c
       -0.00763501 0.028265638 0.02012983 0.012889193
0003a0 3a 3e 64 3d 4f 80 08 3d cd 4a d1 bb d4 57 3a 3d
       0.055723406 0.03332549 -0.006387091 0.045493916
0003b0 da 03 83 39 3d 8f 1c ba 50 c2 03 bc ef 3b 51 bd
       0.00024989137 -0.0005972272 -0.008041933 -0.051082548
0003c0 4f 81 0f bc 1f 28 dc bc fc ef aa 3b 30 00 91 bc
       -0.008758857 -0.0268746 0.0052165966 -0.017700285
0003d0 84 82 f4 bc 90 eb ce bc a9 a3 3d 3d 07 11 48 bc
       -0.029847391 -0.02525881 0.046298657 -0.012211091
0003e0 20 28 9b 3c ae 6b 23 3d 6a 09 e4 bb 7a c6 5a bd
       0.018940032 0.039897613 -0.00695913 -0.05341194
0003f0 97 95 0f 3d 71 21 e1 bb 81 1f db bc a5 91 1a 3d
       0.03505477 -0.0068704416 -0.02674842 0.037736554

action_model._discrete_distribution.branches.0.bias f4 [2]
000000 72 0c 22 3d 72 0c 22 bd
       0.03956265 -0.03956265

onnx::Div_70 f4 [11]
000000 d9 e3 8e 40 ee 69 de 42 6b 3b 8f 40 5f 0f 48 3d
       4.4653134 111.206894 4.476003 0.048842784
000010 66 1b 2d 3c 59 2d 85 3e ae b1 dd 42 6c 6b 03 40
       0.010565614 0.2601116 110.84703 2.0534315
000020 9b ce 45 41 47 e9 1a 40 38 f9 ef 3e
       12.362941 2.420488 0.46869826
