results/Test4/SuperTank/SuperTank-101213.onnx (onnx, 547611 bytes, 13 tensors)

network_body.observation_encoder.processors.0.normalizer.running_mean f4 [6]
0.10963652 0.27207074 -0.07990635 0.04122683 0.19999005 -0.006921779
00000000: 1d89 e03d db4c 8b3e f1a5 a3bd 77dd 283d
00000010: 31ca 4c3e 17d0 e2bb

network_body._body_endoder.seq_layers.0.weight f4 [256, 6]
-0.5358905 0.70407724 -0.81338733 0.51135063 -0.008752915 -0.41986737 -0.22133866 0.20236595
-0.24196954 -0.19126636 0.14950946 0.1405594 -0.37466696 0.33194935 -0.09790533 0.38479874
-0.34581798 1.5508208 0.2871182 0.13849828 0.33622903 -0.14039418 -0.12677939 -0.20737827
-0.7593984 -0.055599112 0.16351862 0.5354023 0.15832561 -0.44256976 0.30276757 -0.40202615
-0.28978738 -0.4449132 0.26477647 0.21812896 -0.084793314 -0.16020086 0.117621206 0.3091526
-0.58525777 -0.009540859 -0.23678838 0.3556265 0.088526435 0.14274089 -0.2295476 0.51207703
0.03841626 -0.013273413 0.042089775 0.7098668 -0.77669847 0.8838734 0.67197055 -0.63321286
0.4416865 0.5463708 -0.46092013 -0.6158256 -0.8919372 0.5142406 -0.29375353 0.43884343
0.080898546 0.117823 1.0663455 0.75531465 0.42389902 0.82400787 0.5160034 0.07988203
0.48228884 1.1516032 0.20405526 0.18151093 0.59478956 -0.5393477 -0.64629596 -0.7666164
0.07874493 0.29904675 0.59699214 0.2280637 0.011714523 -0.70285344 -0.3513707 -0.65628064
0.6251258 0.26964676 -0.0047326596 -0.5411429 -0.038462717 0.00514906 0.15592487 -0.08439376
0.5466489 -0.01599991 0.08492905 0.097687475 0.086689994 0.039140914 -0.83798 0.40975803
0.92222875 -0.4624264 0.10249443 0.8139394 -0.3658285 -0.2117098 0.40240136 0.69417566
0.64937586 -0.33243337 0.108391605 0.18696609 0.24423245 0.38232234 -0.39802626 0.27916342
-0.08801427 -0.40700832 -0.2994202 -0.37394828 -0.0386433 -0.90453047 -0.27290753 0.038638044
0.1359654 0.25042975 -0.33433786 -0.21149124 -0.12532572 -0.30881318 -0.09504394 -0.022738239
-0.21271728 0.4082256 -0.26422837 -0.018139523 0.11073241 -0.5289097 -0.07088306 0.23893335
0.2545778 -0.4993824 0.11318821 0.25576726 0.52801204 -0.31336978 0.70202816 -0.352915
0.58027 -0.15969846 -0.48873132 0.85945445 -0.18727793 -0.62843096 0.29213956 0.14553335
-0.21509506 -0.40913764 -0.5389096 -0.12362072 -0.057541177 -0.9313738 0.3389913 -0.3001181
0.2322982 -0.32162967 0.20215556 0.24557148 0.15730974 0.35263997 -0.026443837 0.09537642
-0.45119265 -0.13821359 0.5469038 -0.019776218 0.9476353 -0.5244796 -0.6012816 0.44566593
-0.046074532 0.20995261 0.55627376 -0.057727534 0.18076403 -0.19879587 -0.8879519 -0.760647
-0.51555496 -0.44475722 0.32582593 -0.05614264 -0.37074324 0.43146282 -0.15612094 -0.33459818
0.39506793 -0.08693726 0.21293475 -0.039208725 0.25887847 -0.45288405 -0.41964516 -0.17788693
0.04086491 0.55836785 0.35006446 0.43459508 0.4797074 -0.19595483 0.17716476 0.41007856
0.18816629 0.045754872 -0.08560364 -0.4342729 0.108831845 -0.21384913 -0.25449446 0.22814173
0.38988853 -0.49519852 -0.40181533 0.42781365 -0.4412912 0.10634269 -0.28840712 0.31977955
0.15110376 -0.19791858 -0.5909321 0.55378693 -0.05267096 0.060498774 -0.02145516 -0.23254536
-0.21987762 -0.6035271 0.14615868 0.23356068 0.8973373 -0.42694253 0.2471453 0.018202284
0.32877943 -0.0085312715 0.7295429 -0.11640115 -0.0020494342 -0.4652089 0.007604058 -0.84691703
00000000: 1f30 09bf 683e 343f 273a 50bf e0e7 023f
00000010: 6368 0fbc dbf8 d6be 9aa6 62be 0539 4f3e
00000020: ddc6 77be 54db 43be 0219 193e ceee 0f3e
00000030: 59d4 bfbe 44f5 a93e 9782 c8bd 5704 c53e
00000040: 0e0f b1be 4c81 c63f 2801 933e 7ed2 0d3e
00000050: 3626 ac3e 7ec3 0fbe 75d2 01be f85a 54be
00000060: ef67 42bf e5bb 63bd 6d71 273e 2010 093f
00000070: 1c20 223e 8198 e2be 5a04 9b3e 5fd6 cdbe
00000080: 035f 94be aacb e3be c890 873e 335d 5f3e
00000090: 1ea8 adbd b20b 24be 63e3 f03d 4049 9e3e
000000a0: 74d3 15bf 4351 1cbc a778 72be ad14 b63e
000000b0: 594d b53d ab2a 123e 870e 6bbe 7b17 033f
000000c0: 5e5a 1d3d bb78 59bc 5466 2c3d d5b9 353f
000000d0: b6d5 46bf 8745 623f 4306 2c3f 3d1a 22bf
000000e0: bc24 e23e f5de 0b3f b9fd ebbe bfa6 1dbf
000000f0: ff55 64bf 46a5 033f dd66 96be 16b0 e03e
00000100: 23ae a53d 2f4d f13d 027e 883f 4d5c 413f
00000110: 4b09 d93e 2ef2 523f cc18 043f 3199 a33d
00000120: 90ee f63e bc67 933f ddf3 503e 00de 393e
00000130: 2144 183f b112 0abf a773 25bf f940 44bf
00000140: 0645 a13d a81c 993e 7ad4 183f 8889 693e
00000150: 45ee 3f3c 34ee 33bf dce6 b3be 0202 28bf
00000160: 3f08 203f 240f 8a3e 6d14 9bbb 5788 0abf
00000170: 158b 1dbd 72b9 a83b c5aa 1f3e a3d6 acbd
00000180: 2ff1 0b3f 3e12 83bc 48ef ad3d 5f10 c83d
00000190: 868a b13d 3952 203d db85 56bf cecb d13e
000001a0: 2f17 6c3f 27c3 ecbe 9ae8 d13d 555e 503f
000001b0: e04d bbbe 74ca 58be 8d07 ce3e 7fb5 313f
000001c0: 7f3d 263f b534 aabe 6bfc dd3d 0a74 3f3e
000001d0: 1218 7a3e c1bf c33e 19ca cbbe 82ee 8e3e
000001e0: d340 b4bd 6563 d0be 9b4d 99be 2676 bfbe
000001f0: 7048 1ebd 4f8f 67bf 89ba 8bbe ed42 1e3d
00000200: 843a 0b3e 5438 803e 552e abbe 2991 58be
00000210: 6355 00be c31c 9ebe 66a6 c2bd 8b45 babc
00000220: 8fd2 59be f202 d13e f148 87be 5699 94bc
00000230: acc7 e23d a066 07bf 232b 91bd f2aa 743e
00000240: 0558 823e 0daf ffbe 38cf e73d edf3 823e
00000250: cc2b 073f 0172 a0be 1eb8 333f 46b1 b4be
00000260: 938c 143f fe87 23be fe3a fabe 3505 5c3f
00000270: c9c5 3fbe dae0 20bf 5193 953e b206 153e
00000280: e141 5cbe 7d7a d1be fbf5 09bf dc2c fdbd
00000290: 4cb0 6bbd 836e 6ebf 4590 ad3e 14a9 99be
000002a0: 94df 6d3e a5ac a4be de01 4f3e 1777 7b3e
000002b0: ce15 213e 3a8d b43e bfa0 d8bc b654 c33d
000002c0: b902 e7be dd87 0dbe e301 0c3f bc01 a2bc
000002d0: 3a98 723f 4c44 06bf 97ed 19bf 532e e43e
000002e0: a6b8 3cbd d1fd 563e f567 0e3f b573 6cbd
000002f0: 351a 393e 2591 4bbe d150 63bf c3b9 42bf
00000300: 69fb 03bf 38b7 e3be a8d2 a63e d3f5 65bd
00000310: 0fd2 bdbe b2e8 dc3e 2bde 1fbe 7450 abbe
00000320: 5846 ca3e 2a0c b2bd 910b 5a3e 5499 20bd
00000330: b88b 843e 6be0 e7be bbdb d6be fe27 36be
00000340: f761 273d 32f1 0e3f a63b b33e 3f83 de3e
00000350: 359c f53e 62a8 48be ae6a 353e d1f5 d13e
00000360: aaae 403e 7669 3b3d f650 afbd 0459 debe
00000370: 3be3 de3d 44fb 5abe 194d 82be fc9d 693e
00000380: 789f c73e a98a fdbe bdba cdbe 640a db3e
00000390: ecf0 e1be 32ca d93d 19aa 93be 25ba a33e
000003a0: f2ba 1a3e 2bab 4abe 5347 17bf fbc4 0d3f
000003b0: 81bd 57bd 90cd 773d bbc2 afbc 5f20 6ebe
000003c0: 9927 61be c180 1abf 9faa 153e 882a 6f3e
000003d0: e6b7 653f 3698 dabe a813 7d3e f51c 953c
000003e0: c755 a83e bfc6 0bbc 53c3 3a3f ba63 eebd
000003f0: cd4f 06bb dc2f eebe 762b f93b 8ecf 58bf

network_body._body_endoder.seq_layers.0.bias f4 [256]
0.0066303643 -0.047864515 -0.015415881 0.03785821 0.02584313 0.023676569 0.0010002124 -0.016669499
0.058383618 0.035786126 0.0005329362 0.05090235 0.05106959 0.048216797 0.0039979103 -0.0061552916
0.035695035 0.055685118 0.039795958 -0.009585746 -0.004330331 0.055684637 -0.03414633 0.031574007
0.038707282 0.022875734 0.040807124 0.01945483 0.027385255 0.018012367 0.047422554 0.015217027
0.03224424 -0.011888306 0.00414173 0.042772308 0.04062352 0.015502934 0.030871246 0.046240468
0.04213055 0.037702292 0.03936578 -0.023327388 0.018693615 0.047195163 0.03807203 0.038811468
-0.019258702 0.034541663 -0.0013538764 -0.018843915 0.007905548 0.030466791 0.008639283 -0.021846559
0.037761472 -0.040092405 0.044375684 0.0100133335 0.02348786 0.04732088 -0.020934572 0.042425863
0.035734277 -0.01889792 0.035368375 0.01950797 0.04784382 0.046307657 -0.007799059 -0.011587541
0.037879065 0.05909652 0.039387885 0.008825771 0.052426256 0.03218372 0.028245669 0.027955031
-0.000505482 0.029519891 -0.014366508 0.04073537 0.044425335 0.031174336 0.046616152 0.0009403824
-0.010343425 0.030577984 0.05525332 -0.018197427 0.052479554 0.052224543 0.053632777 0.04162947
0.021761302 0.019004801 0.041090354 0.01734038 0.046829846 0.020944223 0.02643558 0.03889596
0.038558554 0.03623606 0.026821153 0.03897483 0.03537267 0.023846464 0.0021031962 -0.017071238
-0.004006083 -0.016913395 0.015371185 0.031460468 -0.0027899663 -0.019344496 -0.0155791305 0.030102624
0.050681382 -0.051975008 0.03154402 0.044224102 0.061982494 0.02840424 0.03306891 0.041284744
0.050764322 0.04369676 -0.011160103 0.005102211 0.044639036 0.05680031 0.029581983 0.04552263
0.046037473 0.036518585 -0.02296304 -0.00048808157 0.032940716 0.045870982 0.01915038 0.04868406
0.002128801 0.017056912 0.038711313 0.027637178 0.036495075 0.00037486292 0.004319809 0.056262575
0.013308113 0.017989773 0.0040931017 0.028737292 0.00042619812 0.018195707 0.027059928 -0.014412884
0.051773217 0.0030349959 0.017818032 -0.009723209 -0.023565866 0.04008069 0.006787338 0.041380595
-0.0043827165 -0.0015550895 0.046488214 0.051271357 -0.047767244 0.044557977 0.05007189 0.012390434
0.040549863 0.052373007 0.012220608 0.046859488 0.027580608 0.04231403 -0.016344279 0.033621065
-0.02544096 0.036780693 0.030428482 0.039554883 -0.036566634 0.060393877 -0.007369674 0.016905984
0.052905403 -0.01711248 0.014249786 0.024996014 0.03996098 0.04201438 0.0140829515 0.061848335
0.03990868 0.021613356 -0.018973889 0.0021338395 0.013413951 -0.01936875 0.02512847 -0.00016817868
0.029687807 0.05374704 0.0071885507 0.011751206 -0.00039129893 0.054385237 0.035439234 -0.029900488
-0.006341412 -0.023075888 0.022263851 0.052002937 0.040700674 -0.010683514 -0.007486533 -0.008245499
0.034512248 0.027177515 0.01378585 0.03232945 0.04596303 -0.0035609852 0.052626453 -0.02920356
-0.031866692 0.038603447 -0.010720533 -0.0003623473 0.03860817 0.02647392 0.011616143 0.043846443
-0.025903957 0.044455096 -0.023066046 -0.024316747 0.045080658 0.031646263 -0.00591072 0.04218469
0.03036497 -0.034666035 0.013844317 0.015644984 0.037712343 0.048780616 0.025410967 0.029684138
00000000: 8743 d93b 950d 44bd e492 7cbc 3611 1b3d
00000010: f9b4 d33c 5df5 c13c 8f19 833a 798e 88bc
00000020: a923 6f3d 7994 123d beb4 0b3a fc7e 503d
00000030: 592e 513d fa7e 453d e700 833b 54b2 c9bb
00000040: f534 123d 1416 643d 1601 233d 880d 1dbc
00000050: 73e5 8dbb 9315 643d 06dd 0bbd bf53 013d
00000060: 878b 1e3d e465 bb3c 5f25 273d bc5f 9f3c
00000070: 0b57 e03c ac8e 933c 273e 423d d650 793c
00000080: 8912 043d 2bc7 42bc 59b7 873b 0432 2f3d
00000090: d964 263d 0500 7e3c b2e5 fc3c a566 3d3d
000000a0: 1591 2c3d b86d 1a3d 033e 213d 1419 bfbc
000000b0: 5a23 993c b74f 413d 6bf1 1b3d c6f8 1e3d
000000c0: 6dc4 9dbc 8f7b 0d3d 8e74 b1ba 8e5e 9abc
000000d0: 4686 013c 7e95 f93c c78b 0d3c 8ef7 b2bc
000000e0: c6ab 1a3d ef37 24bd 47c3 353d f70e 243c
000000f0: 9d69 c03c 8ad3 413d fb7e abbc bec6 2d3d
00000100: 1b5e 123d d0cf 9abc 6ede 103d 2ecf 9f3c
00000110: e2f7 433d 19ad 3d3d 408f ffbb abd9 3dbc
00000120: 1427 1b3d 310f 723d 3155 213d f799 103c
00000130: eabc 563d 14d3 033d 7663 e73c f301 e53c
00000140: 5382 04ba b3d3 f13c 8161 6bbc 22da 263d
00000150: 57f7 353d 5261 ff3c 94f0 3e3d ff83 763a
00000160: 7877 29bc ae7e fa3c 4e51 623d c512 95bc
00000170: cdf4 563d 67e9 553d 0bae 5b3d aa83 2a3d
00000180: c244 b23c f5af 9b3c 5c4e 283d 6a0d 8e3c
00000190: a7d0 3f3d 3893 ab3c 6e8f d83c 5f51 1f3d
000001a0: 93ef 1d3d 436c 143d 09b8 db3c 12a4 1f3d
000001b0: efe2 103d a959 c33c c7d5 093b fbd8 8bbc
000001c0: 7645 83bb f68d 8abc 6cd7 7b3c b1dc 003d
000001d0: ded7 36bb 5978 9ebc 9c3f 7fbc c799 f63c
000001e0: 4897 4f3d bfe3 54bd 4d34 013d 5524 353d
000001f0: 5be1 7d3d 02b0 e83c 4473 073d 311a 293d
00000200: 40ee 4f3d 60fb 323d ddd8 36bc 7330 a73b
00000210: 6cd7 363d 71a7 683d ea55 f23c f075 3a3d
00000220: ca91 3c3d 8394 153d fc1c bcbc 33e5 ffb9
00000230: d8ec 063d 36e3 3b3d 42e1 9c3c f068 473d
00000240: 5b83 0b3b f0ba 8b3c c18f 1e3d 5d67 e23c
00000250: dc7b 153d 4089 c439 2f8d 8d3b 9673 663d
00000260: 460a 5a3c 4a5f 933c 6d1f 863b 786a eb3c
00000270: 5873 df39 2a0f 953c c8ac dd3c 0424 6cbc
00000280: 2710 543d c8e6 463b 1ff7 913c 184e 1fbc
00000290: 340d c1bc a62b 243d 5168 de3b b37e 293d
000002a0: e49c 8fbb 25d4 cbba 6d6a 3e3d ea01 523d
000002b0: 96a7 43bd 6d82 363d 2f18 4d3d 3f01 4b3c
000002c0: 9d17 263d 1485 563d f238 483c bcef 3f3d
000002d0: baf0 e13c 7a51 2d3d 70e4 85bc 3eb6 093d
000002e0: 8f69 d0bc 5aa7 163d 2745 f93c 4d04 223d
000002f0: e5c6 15bd 925f 773d 4e7d f1bb 6b7e 8a3c
00000300: 56b3 583d 792f 8cbc ef77 693c 71c4 cc3c
00000310: 20ae 233d 4517 2c3d 2ebc 663c ae54 7d3d
00000320: 4977 233d 7e0e b13c 216f 9bbc e3d7 0b3b
00000330: 30c6 5b3c 36ab 9ebc 39da cd3c 1f59 30b9
00000340: d833 f33c db25 5c3d ef8d eb3b 2188 403c
00000350: 4127 cdb9 0ec3 5e3d bb28 113d def1 f4bc
00000360: 9fcb cfbb a509 bdbc ae62 b63c 0801 553d
00000370: c0b5 263d e809 2fbc 9751 f5bb 2118 07bc
00000380: b75c 0d3d 61a3 de3c 0cde 613c e36b 043d
00000390: bb43 3c3d 6b5f 69bb d68e 573d 4e3c efbc
000003a0: a686 02bd a61e 1e3d 2da5 2fbc 6ef9 bdb9
000003b0: 9a23 1e3d d6df d83c a351 3e3c 5498 333d
000003c0: 8934 d4bc 8c16 363d 01f5 bcbc ea33 c7bc
000003d0: 7fa6 383d 839f 013d b7ae c1bb dac9 2c3d
000003e0: f5bf f83c f9fd 0dbd 46d3 623c e929 803c
000003f0: 4278 1a3d 2fce 473d a92a d03c 262c f33c

network_body._body_endoder.seq_layers.2.weight f4 [256, 256]
-0.045146886 0.00020453427 0.08186792 -0.094136104 0.13673571 -0.0077669118 0.034730267 0.022454593
-0.015396464 0.12883802 -0.08604928 0.094243035 0.09108923 -0.058143403 -0.018872648 -0.07307776
-0.02189217 -0.009762609 -0.06463022 -0.07862296 0.07172879 -0.049160574 -0.052666828 0.0819234
0.00035037912 0.02889032 -0.02346611 0.035129145 -0.14204676 0.01155632 0.04728731 0.07582969
0.07377003 0.03347591 0.008690196 -0.017831689 0.041645736 -0.037610296 0.043263245 0.0693981
-0.026844187 -0.015525996 -0.019430356 -0.059696995 -0.015593145 0.0023824314 -0.070784114 0.11638305
-0.067596875 0.009181321 -0.056836262 0.017695954 -0.04101153 0.07251918 0.025641939 0.07241498
-0.067287624 -0.049153525 -0.06707478 -0.008923834 -0.07445646 -0.0926179 -0.12043471 0.061053257
-0.015271929 -0.051036425 -0.10908627 -0.06994604 -0.032917652 0.010773868 0.014221405 -0.0014739134
0.07424377 -0.0248987 -0.12665756 -0.0181239 -0.052678857 0.12126713 0.05579902 0.025413321
-0.013901046 0.015970852 0.0074877297 -0.06769591 -0.072019055 0.07066245 0.0004715731 0.1657243
0.15209824 0.006986544 0.038613338 0.032728523 -0.07732832 -0.036380943 0.017022572 -0.07114364
0.05117946 0.05688681 0.09212645 0.06996791 -0.061861303 0.05510577 -0.02569337 0.09239054
0.011429664 0.0069620116 0.053030737 -0.0032724638 -0.009894981 0.05252055 -0.015291685 -0.0018148549
0.03529659 -0.049435038 0.09799758 0.034817774 -0.04084366 -0.040956337 0.00445179 0.023737513
0.018678948 -0.044575695 0.023071444 0.011205572 0.0010049021 -0.014797045 0.06161639 -0.03644335
-0.0037179778 0.04381063 -0.12546891 -0.008498165 0.01940029 0.009570361 0.022047127 0.0005410079
-0.0339101 -0.11643855 -0.032939956 0.03699708 0.07905103 0.006511794 -0.07240604 0.10789736
0.0726157 -0.009026735 -0.06676785 0.069283195 0.06325618 -0.07093222 0.021315038 0.06357232
-0.01600873 0.06378071 -0.12547454 0.15369545 -0.014521576 0.063443325 -0.056228414 0.0148587655
-0.06523725 0.008742745 0.020982407 0.02492169 -0.007270591 -0.010186787 -0.13923095 0.079755686
0.068090454 -0.06955861 0.04059304 -0.039659534 -0.04848489 -0.03191833 0.06015505 0.047875337
-0.0537478 -0.09297116 0.008658137 -0.04688754 0.016324228 0.055869047 -0.028205328 0.03809282
-0.09590061 0.012769695 0.071948156 0.11614185 0.061392285 -0.029717986 -0.089150384 -0.038918547
-0.10656823 -0.01933648 -0.015880842 -0.0698656 0.156135 0.02158173 0.029020384 0.036721814
0.00959652 0.020489829 0.08198886 0.09144538 0.057808924 0.1077709 -0.05236332 0.04834722
-0.021601925 -0.034694806 -0.004605731 -0.061515905 -0.06518656 0.06667542 -0.00016725152 0.087676786
-0.013798959 0.06866798 -0.03440111 -0.03278912 0.008742121 0.06834859 -0.017690036 0.05608953
0.014023264 0.05980625 0.10294437 0.024291836 -0.15012354 -0.0074510444 0.10863475 -0.06137286
-0.031409238 -0.0012262911 0.0136358 0.054044366 -0.00073166075 0.09491247 0.099701986 -0.10171997
0.059573077 -0.017809924 -0.026950585 -0.073874906 0.037875507 0.021389535 0.0922221 -0.0023699715
0.087712 0.024445327 0.03824772 -0.04707168 0.049416725 0.06739195 -0.037265707 0.029972635
00000000: f1eb 38bd 4078 5639 5eaa a73d 6eca c0bd
00000010: 7204 0c3e 9481 febb 5341 0e3d b2f2 b73c
00000020: 7341 7cbc 1dee 033e 9b3a b0bd 7e02 c13d
00000030: fd8c ba3d c727 6ebd d09a 9abc cba9 95bd
00000040: 3557 b3bc 5af3 1fbc d95c 84bd 1305 a1bd
00000050: 8be6 923d 995c 49bd 2cb9 57bd 75c7 a73d
00000060: 17b3 b739 64ab ec3c 003c c0bc 94e3 0f3d
00000070: b574 11be b856 3d3c 57b0 413d 994c 9b3d
00000080: be14 973d 091e 093d 5361 0e3c c313 92bc
00000090: b894 2a3d 410d 1abd cd34 313d 9720 8e3d
000000a0: 57e8 dbbc bf60 7ebc 692c 9fbc d684 74bd
000000b0: 647a 7fbc 9122 1c3b 43f7 90bd 3d5a ee3d
000000c0: 3b70 8abd 406d 163c 24cd 68bd 1bf7 903c
000000d0: b5fb 27bd f084 943d 0b0f d23c 4e4e 943d
000000e0: 18ce 89bd 3555 49bd 815e 89bd 4635 12bc
000000f0: a17c 98bd 74ae bdbd 79a6 f6bd fb12 7a3d
00000100: 1d37 7abc 920b 51bd 9f68 dfbd df3f 8fbd
00000110: a9d4 06bd e184 303c e500 693c 5430 c1ba
00000120: 1e0d 983d 5cf8 cbbc 85b2 01be 9378 94bc
00000130: c9c5 57bd e75a f83d 838d 643d 992f d03c
00000140: 36c1 63bc 4ed5 823c a15b f53b 27a4 8abd
00000150: ba7e 93bd 79b7 903d 783d f739 a2b3 293e
00000160: a4bf 1b3e 61ef e43b 0529 1e3d 580e 063d
00000170: 4f5e 9ebd 2f04 15bd ec72 8b3c c2b3 91bd
00000180: 8ea1 513d 2502 693d cbac bc3d 564b 8f3d
00000190: 4762 7dbd 96b6 613d e77a d2bc 4037 bd3d
000001a0: 7c43 3b3c 9621 e43b c236 593d d576 56bb
000001b0: 8f1e 22bc ca1f 573d fa89 7abc 6de0 edba
000001c0: 2893 103d 657c 4abd f5b2 c83d 159d 0e3d
000001d0: ae4b 27bd d5c1 27bd 52e0 913b 2c75 c23c
000001e0: 9804 993c 0195 36bd 5300 bd3c 9397 373c
000001f0: ebb6 833a 4e6f 72bc 7861 7c3d 9f45 15bd
00000200: 51a9 73bb c672 333d ec7a 00be e33b 0bbc
00000210: 5bed 9e3c 01cd 1c3c 2d9c b43c 6dd2 0d3a
00000220: 51e5 0abd 5677 eebd 0cec 06bd 408a 173d
00000230: 82e5 a13d e360 d53b 9e49 94bd 4bf9 dc3d
00000240: 8ab7 943d dfe4 13bc 95bd 88bd 59e4 8d3d
00000250: 758c 813d e944 91bd e09c ae3c 3432 823d
00000260: bd24 83bc 769f 823d 667c 00be 5762 1d3e
00000270: e8eb 6dbc 93ee 813d c44f 66bd 2e72 733c
00000280: 1b9b 85bd bb3d 0f3c 4ce3 ab3c 9228 cc3c
00000290: 233e eebb 7be6 26bc 8f92 0ebe f356 a33d
000002a0: 0273 8b3d bf74 8ebd e344 263d 0972 22bd
000002b0: 1898 46bd cbbc 02bd 2465 763d ee18 443d
000002c0: a726 5cbd aa67 bebd dcda 0d3c 260d 40bd
000002d0: 63ba 853c f1d6 643d dc0e e7bc 3807 1c3d
000002e0: 8a67 c4bd fc37 513c 8e59 933d c7db ed3d
000002f0: 7a76 7b3d 2273 f3bc 7a94 b6bd 0e69 1fbd
00000300: 7240 dabd 8a67 9ebc 8a18 82bc b215 8fbd
00000310: dae1 1f3e 2bcc b03c 28bc ed3c 9d69 163d
00000320: b93a 1d3c 49da a73c c7e9 a73d b747 bb3d
00000330: 0dc9 6c3d fdb6 dc3d ec7a 56bd bc07 463d
00000340: 85f6 b0bc 241c 0ebd aceb 96bb 1af8 7bbd
00000350: 8880 85bd 1f8d 883d 3d60 2fb9 e38f b33d
00000360: 0715 62bc cca1 8c3d 2ee8 0cbd e24d 06bd
00000370: 1d3b 0f3c 58fa 8b3d b2ea 90bc 23be 653d
00000380: d5c1 653c 66f7 743d 7fd4 d23d acff c63c
00000390: fcb9 19be e427 f4bb e57b de3d 1c62 7bbd
000003a0: f9a6 00bd 80bb a0ba b168 5f3c a05d 5d3d
000003b0: eccc 3fba 7861 c23d 8e30 cc3d 8f52 d0bd
000003c0: e602 743d 1ee6 91bc 79c7 dcbc ba4b 97bd
000003d0: 5923 1b3d 1b39 af3c f1de bc3d 8651 1bbb
000003e0: 59a2 b33d 9141 c83c a4a9 1c3d 3cce 40bd
000003f0: 3169 4a3d ca04 8a3d eda3 18bd 2c89 f53c

network_body._body_endoder.seq_layers.2.bias f4 [256]
0.033527248 0.018826747 -0.004134844 -0.07516572 0.01730411 0.022227902 0.011952701 -0.07058204
0.026062703 -0.03839525 -0.04359492 -0.047298443 0.017763294 0.025608636 -0.031458985 -0.056217942
0.03958092 -0.07278296 -0.00925395 -0.056498498 0.009900984 0.037692595 0.0022541282 -0.031364422
-0.0042866124 -0.006289122 -0.027211966 -0.02152227 -0.050648697 -0.018845791 0.0073711183 0.011491474
-0.011841323 -0.046889048 0.04111701 -0.007180538 -0.044100817 0.0041473345 0.00013664753 -0.020058146
0.028524723 -0.032616522 0.016476076 -0.05227101 -0.013326284 0.014213419 -0.062958665 0.034435514
0.031988006 -0.038463645 -0.04119502 -0.07551562 0.048921928 0.032114703 0.021202285 -0.028715143
-0.08123392 0.033797625 0.037885234 0.015107614 0.021147609 -0.041529074 -0.0056299255 0.05453601
-0.0464163 0.037656005 -0.050124068 0.015683139 0.031492174 -0.033978097 -0.017261246 -0.04304235
0.020609872 0.02122882 -0.04232629 -0.016298467 -0.016918965 -0.0070387223 0.027784672 0.034759242
-0.0038825395 0.014371308 0.02748502 -0.029842036 -0.03375322 0.023809304 0.0118614 0.02550333
-0.030747972 0.032234207 -0.004855071 0.007598237 -0.015842356 -0.07085912 0.0084317485 -0.032872334
-0.005096953 0.01902383 0.019084794 0.012708441 -0.017875127 -0.011760783 0.023959793 -0.05973966
0.008748886 0.032693837 0.0126626585 0.0066891485 -0.01981143 -0.07514258 -0.068332575 -0.034906834
0.012591375 -0.05817667 -0.059153426 0.045743607 -0.06449543 0.029652221 0.049258627 0.0048684794
0.016881242 0.015950972 -0.011574527 0.013063499 0.030545566 -0.039363183 0.037089203 0.036281243
0.010685852 -0.042613253 -0.063604586 0.028750438 -0.05957898 0.032649938 0.046517294 -0.07186214
-0.031957585 0.029561346 -0.008745545 0.03218544 -0.024130896 0.0044882684 0.035362653 -0.046658035
-0.01552709 0.022748116 -0.0036640738 -0.020316245 -0.05378042 -0.021258455 -0.02675379 -0.020571874
-0.0476758 -0.06082504 -0.0135561135 0.0039778748 0.04078112 -0.022006594 0.05099771 -0.068458006
0.030075436 -0.035492998 0.025230264 -0.008094105 -0.04567309 -0.055239756 0.0066382373 -0.074883685
-0.029055022 0.006249077 0.038800567 -0.018345019 0.04100625 0.02965084 -0.01518466 0.021637022
0.013752366 0.010088308 0.021081947 0.038257997 -0.021320157 0.014210117 -0.019730097 0.024373306
-0.009419731 0.014234384 0.030363752 -0.0030422301 0.031947717 0.029525027 0.026141912 0.0284428
0.01906901 8.506748e-06 0.03482797 0.036562953 -0.0021189926 0.01933729 0.021747487 0.031358037
-0.033992942 -0.0009541157 0.023206238 0.010029257 0.0006399245 0.015936438 -0.023252366 0.029562894
0.040037893 -0.018289026 -0.000311826 0.000826033 -0.015464338 0.003222609 -0.049445223 0.010752292
0.018578328 -0.0031631398 -0.005829087 -0.007873182 0.02256488 -0.07202119 -0.035032254 0.020305017
-0.011159857 -0.047536194 -0.014942284 0.0025527745 -0.006356445 0.018230066 0.033194553 -0.009564905
0.029821176 -0.017357683 0.03497838 0.023082297 0.046236753 0.03319984 0.034592893 -0.04155102
0.025082886 -0.05316939 -0.052562337 0.033385348 -0.024877178 -0.028029636 0.008047642 -0.0049867104
0.014671189 0.05266885 0.0012346357 0.0005358317 0.028548438 0.025282532 0.017150318 0.00069450616
00000000: de53 093d 8d3a 9a3c 967d 87bb 7cf0 99bd
00000010: 59c1 8d3c 4a17 b63c 43d5 433c 518d 90bd
00000020: 7381 d53c 5644 1dbd 9690 32bd 03bc 41bd
00000030: 5484 913c 34c9 d13c 23db 00bd c944 66bd
00000040: 9a1f 223d 3c0f 95bd e19d 17bc f86a 67bd
00000050: bd37 223c 8d63 1a3d ffb9 133b fb77 00bd
00000060: b676 8cbb fb14 cebb a1eb debc 794f b0bc
00000070: 0275 4fbd 7d62 9abc 6c89 f13b bc46 3c3c
00000080: 1c02 42bc bb0e 40bd 4f6a 283d b84a ebbb
00000090: 0fa3 34bd 5de6 873b 0b49 0f39 fb50 a4bc
000000a0: aeac e93c e798 05bd d6f8 863c 201a 56bd
000000b0: 7c56 5abc 66df 683c 79f0 80bd 410c 0d3d
000000c0: db05 033d 0e8c 1dbd 1cbc 28bd efa7 9abd
000000d0: 5c62 483d b58a 033d 6ab0 ad3c 053c ebbc
000000e0: f85d a6bd 616f 0a3d 8c2d 1b3d ed85 773c
000000f0: c03d ad3c 641a 2abd 3d7b b8bb 2761 5f3d
00000100: 051f 3ebd 2f3d 1a3d e54e 4dbd ed79 803c
00000110: f0fd 003d 9e2c 0bbd 7567 8dbc 2d4d 30bd
00000120: 09d6 a83c 10e8 ad3c 555e 2dbd 5d84 85bc
00000130: a499 8abc 15a5 e6bb ae9c e33c b55f 0e3d
00000140: 3472 7ebb a275 6b3c 4428 e13c 4977 f4bc
00000150: d140 0abd bb0b c33c 5156 423c 5cec d03c
00000160: 2ce3 fbbc 0408 043d 4a17 9fbb a2fa f83b
00000170: d4c7 81bc 961e 91bd 5125 0a3c 24a5 06bd
00000180: 5704 a7bb ddd7 9b3c b757 9c3c 1137 503c
00000190: dc6e 92bc 4db0 40bc 5447 c43c 93b1 74bd
000001a0: 7d57 0f3c f9e9 053d 0a77 4f3c a530 db3b
000001b0: 944b a2bc 5ae4 99bd f3f1 8bbd 78fa 0ebd
000001c0: 0e4c 4e3c a94a 6ebd dd4a 72bd a65d 3b3d
000001d0: 2e16 84bd 37e9 f23c 6ac3 493d c487 9f3b
000001e0: 884a 8a3c 9dab 823c 16a3 3dbc 4908 563c
000001f0: b23a fa3c 4a3b 21bd d9ea 173d a49b 143d
00000200: b613 2f3c 3c8b 2ebd 1f43 82bd 0a86 eb3c
00000210: 1709 74bd f1bb 053d eb88 3e3d 752c 93bd
00000220: f5e5 02bd a32a f23c 7949 0fbc e1d4 033d
00000230: 28ae c5bc 5312 933b 6ed8 103d 7f1c 3fbd
00000240: 5665 7ebc 425a ba3c f520 70bb 416e a6bc
00000250: dc48 5cbd 3626 aebc c42a dbbc 5986 a8bc
00000260: b347 43bd ad23 79bd 761a 5ebc d558 823b
00000270: 1b0a 273d 2c47 b4bc fae2 503d b633 8cbd
00000280: c360 f63c 1b61 11bd b3af ce3c 239d 04bc
00000290: b513 3bbd 1543 62bd 9285 d93b 9e5c 99bd
000002a0: cc04 eebc 0fc5 cc3b 58ed 1e3d 4b48 96bc
000002b0: 2bf6 273d 52e6 f23c 15c9 78bc 2040 b13c
000002c0: 9b51 613c 6e49 253c 0cb4 ac3c 6bb4 1c3d
000002d0: 9ca7 aebc 8dd1 683c 03a1 a1bc 87aa c73c
000002e0: 3755 1abc 5537 693c 67bd f83c 2760 47bb
000002f0: 9cdb 023d 78de f13c 9027 d63c e000 e93c
00000300: 9d36 9c3c 34b8 0e37 c6a7 0e3d 09c3 153d
00000310: ccde 0abb 3d69 9e3c c927 b23c 4971 003d
00000320: 2f3c 0bbd 9f1d 7aba 021b be3c c151 243c
00000330: 9bc0 273a 228d 823c bf7b bebc e22d f23c
00000340: c6fe 233d ded2 95bc 947c a3b9 238a 583a
00000350: 225e 7dbc 6832 533b 1387 4abd 622a 303c
00000360: 9431 983c ae4c 4fbb ed01 bfbb 85fe 00bc
00000370: fcd9 b83c d87f 93bd fb7d 0fbd b556 a63c
00000380: d5d7 36bc 50b5 42bd 7bd0 74bc 734c 273b
00000390: ba49 d0bb 3857 953c 03f7 073d 1fb6 1cbc
000003a0: 8a4b f43c b331 8ebc 7d45 0f3d 1617 bd3c
000003b0: c062 3d3d 8efc 073d 47b1 0d3d 6731 2abd
000003c0: a07a cd3c 25c8 59bd 9b4b 57bd 13bf 083d
000003d0: 39cb cbbc 689e e5bc 42da 033c 8f67 a3bb
000003e0: 6d5f 703c 4bbb 573d 80d3 a13a 0f77 0c3a
000003f0: 6ade e93c 501d cf3c d37e 8c3c 850f 363a

network_body._body_endoder.seq_layers.4.weight f4 [256, 256]
-0.069326445 0.061899327 0.017179016 0.105172336 -0.09347572 0.096323125 0.058621448 -0.15226637
0.07025936 -0.0651462 -0.12351242 -0.031662755 -0.08244697 0.041731123 0.011328406 -0.023636727
-0.0076588606 -0.014342113 0.07504384 -0.0012289801 -0.086369716 0.013847872 0.01849824 -0.10135561
0.036221594 0.0014642234 0.0074249706 -0.024227016 0.0519103 0.0015913909 -0.07774071 0.012127687
-0.06741152 0.046855673 0.008285822 -0.10239872 -0.009547499 0.10683348 -0.1415866 0.087793574
-0.08673875 -0.034089293 -0.071168944 -0.09147108 0.06631618 0.0059622237 0.0079784375 -0.015836807
-0.0025120259 -0.052682444 0.030662939 0.019645311 0.00050083507 -0.10483461 -0.01841367 -0.06345768
-0.04008275 -0.075831845 -0.05440086 -0.055322822 -0.013816872 0.008965071 0.008656756 -0.03827792
-0.055722315 0.10774276 -0.052340996 -0.094288625 0.045428757 -0.013140036 0.09442485 0.058176864
0.015400651 0.027218694 -0.06606949 0.061711702 -0.07440284 -0.04472965 -0.01770546 0.039470058
0.011960764 0.024273919 0.079420574 -0.09597579 0.08767217 0.090651125 -0.0024130347 0.03194756
-0.060807582 0.04867375 -0.052891973 0.05131976 -0.04001647 0.11467648 -0.020891983 -0.07756955
-0.011252826 0.013503831 0.09767334 -0.15274478 0.03711476 -0.06851528 0.08778865 -0.09899776
-0.16496278 0.014083777 0.051267687 0.0014366469 0.025495784 0.021719452 0.16540451 0.0042521786
0.086446516 -0.042099174 0.0680691 0.08485476 -0.074420854 -0.02496009 -0.00755953 0.058862574
0.050306402 -0.12915048 0.06438786 0.055140797 0.10371946 -0.07684909 -0.03377146 0.093958825
0.1146755 -0.0648813 0.04789378 -0.1315239 0.08777339 -0.060366396 0.019387197 -0.059135195
-0.013987377 -0.011446577 -0.034118503 -0.017922688 -0.043958962 -0.011790154 -0.00525065 -0.064528726
0.04167188 -0.016141288 0.008648158 0.014405288 -0.13653332 -0.09878409 0.044218816 -0.06346647
0.0010395194 -0.007930492 -0.08577275 -0.079042 -0.020898204 -0.10637054 -0.004669822 0.07173561
0.004819941 0.032279436 -0.040997468 0.0021803644 -0.22033063 0.083541386 -0.08712478 -0.0210064
-0.07077654 -0.03608771 0.046205256 0.045469135 0.042290583 0.025847223 0.021788208 0.061408233
0.013619974 -0.058167867 -0.005855764 -0.04187248 0.044913366 -0.0036339224 -0.01690827 -0.06445928
0.03735893 0.032657955 -0.07879474 0.14783062 -0.05815 -0.0011991716 0.035702705 0.07434479
-0.04570445 0.095356986 0.009348642 -0.00059308676 0.022555297 0.0036534627 0.04608967 0.02964854
-0.030421225 0.04792247 0.038324345 -0.022487955 -0.07785406 0.006900102 -0.05020113 0.012213465
-0.03351965 0.1319761 0.0006752394 0.02072638 -0.08611336 -0.02550007 0.092567354 0.0038043105
-0.04204828 -0.035490032 0.052643865 -0.043529253 0.034756605 -0.040362116 -0.017600589 0.06546929
-0.058780957 -0.17351888 -0.12736751 0.042168565 0.07171798 0.03520401 -0.07958394 -0.0036209878
0.06954898 0.03597977 0.01298869 0.09909407 0.017201267 -0.03941732 -0.015567875 -0.024556983
0.015127216 0.071575694 -0.017371112 -0.07499306 0.09954565 -0.059855737 -0.11774508 0.0026591937
0.05924606 -0.036832634 0.06732907 -0.012507697 0.033545356 0.023030367 0.0104223285 0.013847308
00000000: 06fb 8dbd 268a 7d3d 02bb 8c3c 9864 d73d
00000010: 3370 bfbd 0f45 c53d 0b1d 703d b7eb 1bbe
00000020: 24e4 8f3d 5f6b 85bd 14f4 fcbd ceb0 01bd
00000030: f5d9 a8bd 41ee 2a3d c79a 393c cfa1 c1bc
00000040: 2ef7 fabb 2ffb 6abc 96b0 993d bb15 a1ba
00000050: 9be2 b0bd 2fe2 623c 9f89 973c 8893 cfbd
00000060: 185d 143d 2feb bf3a 2b4d f33b bc77 c6bc
00000070: e59f 543d 3896 d03a 8536 9fbd 35b3 463c
00000080: 0d0f 8abd bceb 3f3d 42c1 073c 6cb6 d1bd
00000090: 1d6d 1cbc 83cb da3d 14fc 10be 1ecd b33d
000000a0: 16a4 b1bd 37a1 0bbd 06c1 91bd 3155 bbbd
000000b0: c7d0 873d c25e c33b feb7 023c 31bc 81bc
000000c0: cda0 24bb 8cc9 57bd d830 fb3c 34ef a03c
000000d0: 794a 033a 87b3 d6bd 44d8 96bc 1af6 81bd
000000e0: cf2d 24bd ba4d 9bbd 70d3 5ebd 2f9a 62bd
000000f0: 2960 62bc 3ce2 123c 11d5 0d3c 4fc9 1cbd
00000100: 153d 64bd 3ca8 dc3d 8363 56bd 651a c1bd
00000110: 8113 3a3d 4e49 57bc d161 c13d dd4a 6e3d
00000120: 0353 7c3c bdf9 de3c 714f 87bd 69c5 7c3d
00000130: 8460 98bd 7036 37bd 0a0b 91bc 5bab 213d
00000140: 15f7 433c 19da c63c 41a7 a23d f48e c4bd
00000150: 778d b33d 4ca7 b93d 0124 1ebb 72db 023d
00000160: 5f11 79bd 205e 473d 41a5 58bd ab34 523d
00000170: 4fe8 23bd 81db ea3d aa25 abbc c9dc 9ebd
00000180: c65d 38bc 2c3f 5d3c f608 c83d 2169 1cbe
00000190: a605 183d bd51 8cbd 89ca b33d 56bf cabd
000001a0: 01ec 28be a4bf 663c 11fe 513d df4d bc3a
000001b0: 89dc d03c feec b13c cd5f 293e dc55 8b3b
000001c0: df0a b13d 2f70 2cbd d067 8b3d 55c8 ad3d
000001d0: f669 98bd 1a79 ccbc efb5 f7bb e219 713d
000001e0: 160e 4e3d 0640 04be c8dd 833d 51db 613d
000001f0: de6a d43d 0e63 9dbd f153 0abd 7c6d c03d
00000200: fdda ea3d 7de0 84bd 452c 443d 34ae 06be
00000210: 89c2 b33d c142 77bd e6d1 9e3c bf37 72bd
00000220: 502b 65bc 6c8a 3bbc d8bf 0bbd 9ad2 92bc
00000230: 500e 34bd 7d2b 41bc a50d acbb a327 84bd
00000240: 22b0 2a3d bc3a 84bc 01b1 0d3c 2804 6c3c
00000250: 64cf 0bbe 504f cabd ca1e 353d b5fa 81bd
00000260: 7c40 883a e5ee 01bc a0a9 afbd c6e0 a1bd
00000270: b632 abbc ccd8 d9bd 4e05 99bb 1fea 923d
00000280: 98f0 9d3b 7137 043d f6ec 27bd 72e4 0e3b
00000290: 5a9e 61be bf17 ab3d 7a6e b2bd 9d15 acbc
000002a0: 4af3 90bd b5d0 13bd b941 3d3d d83d 3a3d
000002b0: e438 2d3d 8ebd d33c 2f7d b23c 3387 7b3d
000002c0: 5026 5f3c 6e41 6ebd b5e1 bfbb 7a82 2bbd
000002d0: 14f7 373d 1a27 6ebb 3683 8abc 3a03 84bd
000002e0: ad05 193d 59c4 053d 235f a1bd e960 173e
000002f0: b22e 6ebd 862d 9dba 003d 123d 1542 983d
00000300: 9734 3bbd 864a c33d 0c2b 193c 6179 1bba
00000310: e3c5 b83c ef6e 6f3b 86c8 3c3d 7fe1 f23c
00000320: ef35 f9bc 5a4a 443d fdf9 1c3d a938 b8bc
00000330: f371 9fbd 401a e23b b39f 4dbd fc1a 483c
00000340: e74b 09bd be24 073e 8d02 313a 5fca a93c
00000350: 345c b0bd 86e5 d0bc f493 bd3d bd51 793b
00000360: d13a 2cbd ff5d 11bd 18a1 573d bb4b 32bd
00000370: f15c 0e3d bf52 25bd 1c2f 90bc c314 863d
00000380: 4dc4 70bd efae 31be a16c 02be f2b8 2c3d
00000390: e0e0 923d 1432 103d e8fc a2bd 184e 6dbb
000003a0: b26f 8e3d 865f 133d 84ce 543c d5f1 ca3d
000003b0: ace9 8c3c 0e74 21bd 6610 7fbc ba2b c9bc
000003c0: 24d8 773c 4796 923d dd4d 8ebc f695 99bd
000003d0: 97de cb3d 4a2b 75bd 5524 f1bd de45 2e3b
000003e0: ffab 723d d1dd 16bd d3e3 893d 15ed 4cbc
000003f0: db66 093d 2eaa bc3c 6ac2 2a3c d2df 623c

network_body._body_endoder.seq_layers.4.bias f4 [256]
0.022328721 -0.029339906 -0.045432683 -0.051997837 -0.032072216 -0.0054137665 0.015160793 -0.012845132
0.026186049 0.030197248 -0.012545982 -0.05807553 -0.053731304 -0.013580557 -0.007869759 -0.04596136
-0.02780346 -0.016914148 0.012256471 -0.020156015 -0.052789252 0.0038092758 0.038918164 -0.002343073
-0.003818718 0.021474142 -0.04480288 0.001500672 0.022430263 0.023791667 0.034675103 0.033546247
-0.01049051 0.035506632 0.012541387 0.037157174 0.03107922 -0.039028008 0.0026172758 0.02377697
0.028235514 0.019266166 0.028320527 -0.041307934 -0.046011914 0.025025781 0.0044886824 0.0021477346
0.0043053427 0.033018876 0.041427325 0.003966494 -0.0038172458 -0.018714622 0.02947632 -0.01849566
-0.014932384 -0.027350968 0.008084694 -0.036780402 0.02097173 -0.04895308 -0.045959715 0.0020776126
0.019463977 -0.038267497 0.030676736 0.028293397 -0.0076137916 -0.029973218 -0.027531074 -0.023266412
-0.017714115 -0.016672563 -0.0077722715 -0.045226455 -0.048656426 0.019605374 -0.006606536 -0.04925712
-0.051525738 -0.0004786255 0.0345857 -0.0029192625 0.011186363 0.032541618 -0.0123499185 -0.044797815
0.0048341947 -0.0036235233 -0.05541547 0.015096775 0.0046454603 0.035801638 -0.027030619 -0.024561241
-0.01992981 -0.044675466 -0.0028575403 0.01964228 -0.015560289 0.0005778182 -0.037209813 -0.016143546
0.029896257 -0.023558753 -0.048445474 -0.009574629 -0.04675179 0.013675558 -0.026342617 -0.029305203
0.028046895 0.020908248 0.021650964 -0.034905676 -0.01663506 -0.029695729 -0.014994724 -0.031339988
-0.027707787 0.018448142 0.008661658 0.020359132 -0.017391128 -0.018516112 -0.014380764 0.021075051
-0.040944245 -0.044079073 0.025933571 -0.031188747 -0.05464329 0.0004877834 -0.022862922 0.002832769
-0.044004515 0.029494943 0.030970048 0.026860293 0.02199712 0.01583668 0.0087451255 0.021839399
0.0010101796 -0.022952782 0.04187059 0.019957118 -0.015217279 0.029390117 0.012952342 -0.00558418
0.011669856 0.013293447 -0.013371504 0.0004196455 0.015661927 0.019125845 0.025989864 -0.04897404
0.03325242 0.02362991 -0.023928585 -0.05054262 -0.01444909 -0.05392775 0.023191107 -0.06476635
0.031073282 0.02573837 -0.025468607 -0.03915538 0.0034163333 0.016200861 -0.041826975 -0.021801146
0.031372823 0.0028837267 0.017832518 -0.011967177 -0.027009416 -0.039515693 -0.055759314 -0.041395556
-0.05323714 -0.03513633 -0.010086938 0.01594096 0.026493497 0.011396761 -0.012763221 0.022891363
0.007686959 -0.02205731 0.005958515 0.025548968 -0.019177113 0.024577804 -0.019316392 -0.04975427
0.014192548 0.012575669 -0.058862492 0.019057745 -0.0040787375 0.007528794 0.023783427 -0.048470214
-0.021966258 0.036677558 0.022698684 -0.050110213 -0.016110038 0.021606538 0.010775166 0.035914954
0.027403867 0.018773073 -0.009748284 0.014689689 -0.050856486 0.032624252 0.0061518117 0.023581069
0.015080882 -0.017265007 -0.010827113 -0.01777822 -0.036264893 -0.0048460523 -0.03364647 -0.044850852
-0.021177491 -0.018131046 -0.04148896 0.016045624 0.03998551 -0.008621919 0.022678964 -0.0014200615
-0.03584673 -0.0038241076 0.00046577238 0.041346867 0.025107605 0.03588849 -0.0014118517 -0.045535516
0.026953015 -0.022791201 -0.012699085 0.0075749597 -0.032413997 -0.047089845 0.02669069 -0.04327248
00000000: b9ea b63c 3e5a f0bc 9f17 3abd affb 54bd
00000010: 285e 03bd f765 b1bb fa64 783c 6374 52bc
00000020: 2084 d63c 3860 f73c aa8d 4dbc 9be0 6dbd
00000030: 5b15 5cbd fc80 5ebc 29f0 00bc fb41 3cbd
00000040: 15c4 e3bc 8a8f 8abc 5ecf 483c 3a1e a5bc
00000050: 8b39 58bd 0ba5 793b a768 1f3d 3e8e 19bb
00000060: 7543 7abb 8aea af3c 3a83 37bd 32b2 c43a
00000070: acbf b73c bee6 c23c 7b07 0e3d ca67 093d
00000080: 63e0 2bbc 676f 113d 647a 4d3c 1f32 183d
00000090: d999 fe3c d5db 1fbd 9a86 2b3b ecc7 c23c
000000a0: 2a4e e73c 14d4 9d3c 7300 e83c 8232 29bd
000000b0: fd76 3cbd de02 cd3c cc15 933b 02c1 0c3b
000000c0: d513 8d3b cd3e 073d b3af 293d 5df9 813b
000000d0: c22a 7abb 684f 99bc 5378 f13c 3684 97bc
000000e0: f5a6 74bc 230f e0bc aa75 043c 0ca7 16bd
000000f0: e8cc ab3c 0683 48bd 4140 3cbd 8e28 083b
00000100: eb72 9f3c 61be 1cbd c74d fb3c 8ec7 e73c
00000110: 1d7d f9bb 658a f5bc d988 e1bc 3499 bebc
00000120: 311d 91bc e694 88bc 8aae febb 603f 39bd
00000130: f64b 47bd 739b a03c a47b d8bb d5c1 49bd
00000140: a70c 53bd 07f0 fab9 bca9 0d3d 1951 3fbb
00000150: 0247 373c 5c4a 053d 5057 4abc ea7d 37bd
00000160: 2a68 9e3b a278 6dbb 55fb 62bd 7758 773c
00000170: f238 983b bda4 123d 516f ddbc a834 c9bc
00000180: d743 a3bc 9ffd 36bd 9245 3bbb d9e8 a03c
00000190: 95f0 7ebc b978 173a 5169 18bd 783f 84bc
000001a0: ffe8 f43c 49fe c0bc c36e 46bd e8de 1cbc
000001b0: ce7e 3fbd 730f 603c 79cc d7bc 7711 f0bc
000001c0: 9ac2 e53c c647 ab3c 5d5d b13c 41f9 0ebd
000001d0: 4046 88bc 7544 f3bc 6eac 75bc 5c5e 00bd
000001e0: 71fb e2bc 8f20 973c a0e9 0d3c 32c8 a63c
000001f0: d777 8ebc 1aaf 97bc 4c9d 6bbc 96a5 ac3c
00000200: 27b5 27bd 428c 34bd a472 d43c 8b7f ffbc
00000210: a4d1 5fbd 2ebd ff39 064b bbbc faa5 393b
00000220: 143e 34bd 619f f13c e6b4 fd3c 1e0a dc3c
00000230: 4e33 b43c edbb 813c b747 0f3c 8ae8 b23c
00000240: 0168 843a 7907 bcbc 7f80 2b3d 1c7d a33c
00000250: e551 79bc 8bc3 f03c 0f36 543c 7ffb b6bb
00000260: ec32 3f3c c2cc 593c 2714 5bbc de03 dc39
00000270: 714d 803c cead 9c3c b2e8 d43c 0199 48bd
00000280: b133 083d 8393 c13c e105 c4bc c705 4fbd
00000290: e0bb 6cbc 58e3 5cbd 47fb bd3c 38a4 84bd
000002a0: 658d fe3c 46d9 d23c 8aa3 d0bc 6461 20bd
000002b0: 90e4 5f3b abb7 843c c352 2bbd 5198 b2bc
000002c0: ca80 003d e8fc 3c3b 8015 923c fa11 44bc
000002d0: da42 ddbc 35db 21bd e163 64bd 638e 29bd
000002e0: 300f 5abd 1deb 0fbd af43 25bc 9e96 823c
000002f0: e408 d93c 7bb9 3a3c d41c 51bc ab86 bb3c
00000300: e3e2 fb3b 88b1 b4bc a63f c33b 124c d13c
00000310: 5219 9dbc 6457 c93c 693d 9ebc 22cb 4bbd
00000320: dc87 683c 2e0a 4e3c cc19 71bd fd1e 9c3c
00000330: eea6 85bb 1ab4 f63b 76d5 c23c b488 46bd
00000340: 95f2 b3bc 353b 163d 97f2 b93c 5e40 4dbd
00000350: 33f9 83bc 3200 b13c 528a 303c 8f1b 133d
00000360: 137e e03c fdc9 993c 44b7 1fbc 05ad 703c
00000370: e44e 50bd 02a1 053d 2395 c93b 162d c13c
00000380: ce15 773c 586f 8dbc 3464 31bc a1a3 91bc
00000390: 7f8a 14bd a2cb 9ebb e2d0 09bd 87b5 37bd
000003a0: 6b7c adbc 8f87 94bc 54f0 29bd 1d72 833c
000003b0: d9c7 233d f342 0dbc 3cc9 b93c 5b21 baba
000003c0: 05d4 12bd e19d 7abb e932 f439 555b 293d
000003d0: 77ae cd3c cfff 123d e20d b9ba 7383 3abd
000003e0: 92cc dc3c 9db4 babc d30f 50bc 5e37 f83b
000003f0: 8ac4 04bd 48e1 40bd 6fa6 da3c 7c3e 31bd

action_model._continuous_distribution.log_sigma f4 [1, 3]
-0.036599517 -0.051054556 -0.033881005
00000000: 60e9 15bd 951e 51bd cfc6 0abd

action_model._continuous_distribution.mu.weight f4 [3, 256]
-0.002313454 0.014878437 -0.0020864028 0.0019047542 0.0037350368 -0.030447561 0.025713984 -0.00073596154
0.007295733 0.001719819 0.008887991 0.0038641975 0.0052649044 -0.0010887479 0.00793579 -0.011316338
-0.0016870595 -0.019614689 -0.0060255644 0.0035183672 0.0014368218 -0.0014341696 -0.0044288593 0.013268032
0.013484282 -0.004756686 -0.01286639 0.019305069 -0.0009914136 0.00383779 0.002148945 -0.0051596207
0.0066329264 0.0033270884 -7.043796e-05 0.0076429783 -0.01073164 0.0020610937 0.035082404 0.01135388
-0.007518396 0.015459012 0.0061940434 0.006241396 -0.0059813475 -0.0074778837 -0.030382624 0.003767952
0.010418321 -0.017961973 -0.008521743 0.00625747 -0.024493007 -0.0049173506 0.0020627012 -0.00013469071
-0.011762038 -0.025674187 0.005922273 0.010327503 -0.026108896 0.0121923825 0.009269057 -0.0052446336
0.017040335 -0.015406162 0.0035125543 -0.010367013 -0.012342848 0.0032637662 0.015982945 0.019967536
0.013404604 -0.013989595 -0.0021332717 -0.0077182036 0.013362609 -0.014160998 -0.007882964 0.004075129
0.004999039 -0.022173727 0.005293951 0.008664003 0.009392151 -0.014761629 -0.013389727 0.0034366595
0.003011965 -0.023728298 -0.00918063 0.0024705569 0.011983846 0.006387859 -0.006870211 0.020002184
-0.0069784815 0.0118415225 -0.009916418 0.012280568 0.009011492 0.00508143 -0.0077271746 0.02214225
-0.0077227345 -0.008115847 0.0071740667 -0.010072685 0.006110573 -0.016311483 0.0138762435 0.031222867
-0.012742295 -0.0004159612 -0.008474973 -0.01010179 -0.017663077 -0.019864583 0.017998217 -0.010457286
0.0063951695 0.0009665148 0.020171039 -0.011378856 -0.0008721662 0.007842075 -0.0013779892 -0.0005555125
0.0058291624 -0.013482628 0.009709223 -0.020976631 0.0005109577 0.03132559 0.015891246 0.003072107
-0.020715758 0.005020783 0.011821201 0.011048021 0.008126038 -0.002856575 0.0061665014 -0.0005660133
-0.0069964663 -0.022652002 0.0002683031 0.013639995 0.034921236 0.0036115032 0.010976007 0.00058793416
-0.0025719206 0.007942614 -0.0046915994 0.0397404 -0.0019193467 -0.011957478 -0.018533785 0.015258792
-0.002878189 0.02146693 -0.0052777817 -0.0057336115 -0.0044297194 -0.0021487908 -0.0066340175 0.0002880504
-0.00901559 0.003959768 -0.01550024 -0.010138687 -0.007985591 -0.00940488 -0.0033083241 -0.009280331
0.014577148 -0.0032883256 0.042739768 -0.0016686554 0.0026230754 0.010097101 0.0018202794 0.013427917
0.0037615707 -0.0046378896 -0.0063340277 0.034196407 0.027142756 0.017383162 -0.022701971 -0.0041055623
0.0006600388 -0.0018692082 0.022588102 0.0031179965 -0.014326987 0.0009839789 0.02863808 0.0010760182
-0.019485697 0.022628643 -0.0043186843 -0.026134979 -0.009678282 0.00949764 0.0101939505 -0.019291868
-0.009215238 -0.016366802 0.003022253 0.015128983 0.019429429 -0.014353039 -0.01552344 -0.006855685
-0.00435562 -0.0010237454 0.02000267 0.010228389 -0.0008042039 -0.00655999 0.0060623935 -0.012970991
-0.0072788326 0.0060545905 0.024803601 0.020096011 -0.02047879 -0.005380528 0.0017885414 -0.011406841
-0.011948808 -0.0056822607 0.013519152 0.004541901 0.007447904 0.00027556173 -0.0136108445 0.0052169813
0.014873528 -0.012130568 -0.017561592 -0.016035914 -0.018003574 -0.00038044926 -0.021710308 0.004271965
0.016600749 -0.016291555 0.0054952055 -0.0059539145 -0.018600525 0.006568585 -0.006216042 0.01917413
00000000: 519d 17bb b0c4 733c 08bc 08bb f2a8 f93a
00000010: 85c7 743b 2a6d f9bc 22a6 d23c 8bed 40ba
00000020: 0b11 ef3b 8d6b e13a f09e 113c 7a3e 7d3b
00000030: 3885 ac3b 51b4 8eba 1e05 023c 2968 39bc
00000040: 5320 ddba fcae a0bc 1972 c5bb 6894 663b
00000050: bd53 bc3a bffa bbba f71f 91bb 2962 593c
00000060: 2eed 5c3c f9dd 9bbb 8dcd 52bc aa25 9e3c
00000070: 52f2 81ba 6f83 7b3b 50d5 0c3b 0912 a9bb
00000080: 0559 d93b 480b 5a3b 18b8 93b8 f371 fa3b
00000090: c3d3 2fbc 6a13 073b 91b2 0f3d a005 3a3c
000000a0: e05c f6bb cc47 7d3c 67f7 ca3b a084 cc3b
000000b0: 2eff c3bb 0909 f5bb fbe4 f8bc bfef 763b
000000c0: 9bb1 2a3c fd24 93bc c89e 0bbc 770b cd3b
000000d0: 8fa5 c8bc ba21 a1bb 622e 073b c33b 0db9
000000e0: 90b5 40bc ac52 d2bc a00f c23b b034 293c
000000f0: 53e2 d5bc 8fc2 473c 3edd 173c 2ddb abbb
00000100: 2c98 8b3c 206a 7cbc e232 663b 67da 29bc
00000110: a839 4abc e9e4 553b aaee 823c f592 a33c
00000120: fc9e 5b3c 9d34 65bc 5cce 0bbb fce8 fcbb
00000130: d8ee 5a3c 8803 68bc 8c27 01bc a988 853b
00000140: fbce a33b ada5 b5bc e178 ad3b 76f3 0d3c
00000150: 89e1 193c c2da 71bc 9660 5bbc 9439 613b
00000160: 6364 453b d961 c2bc 5a6a 16bc 11e9 213b
00000170: e557 443c 3f51 d13b 821f e1bb 9fdb a33c
00000180: bfab e4bb f202 423c 7978 22bc 6f34 493c
00000190: f0a4 133c 2082 a63b 3d34 fdbb aa63 b53c
000001a0: fe0e fdbb 54f8 04bc 6f14 eb3b e707 25bc
000001b0: 343b c83b a99f 85bc 2f59 633c 19c7 ff3c
000001c0: 0fc5 50bc 5e15 dab9 9dda 0abc fa81 25bc
000001d0: 28b2 90bc 0dbb a2bc ff70 933c 0955 2bbc
000001e0: 928e d13b b65d 7d3a bc3d a53c 626e 3abc
000001f0: 15a2 64ba 0c7c 003c a59d b4ba d09f 11ba
00000200: 8f02 bf3b 3ee6 5cbc 6f13 1f3c 2fd7 abbc
00000210: caf1 053a 434f 003d 5c2e 823c 6755 493b
00000220: 18b4 a9bc 6185 a43b b6ad 413c c202 353c
00000230: 1323 053c 6035 3bbb 5d10 ca3b 8260 14ba
00000240: 9d42 e5bb b190 b9bc 08ab 8c39 497a 5f3c
00000250: 9209 0f3d f8ae 6c3b b6d4 333c 981f 1a3a
00000260: ab8d 28bb bd21 023c fdbb 99bb d4c6 223d
00000270: 9792 fbba 4ce9 43bc 2ad4 97bc 0300 7a3c
00000280: 00a0 3cbb 6adb af3c 3ef1 acbb 05e1 bbbb
00000290: 2e27 91bb bad2 0cbb 2c62 d9bb 7805 9739
000002a0: 20b6 13bc f1c0 813b b8f4 7dbc bc1c 26bc
000002b0: ffd5 02bc ed16 1abc 78d0 58bb 880c 18bc
000002c0: fdd4 6e3c f380 57bb e50f 2f3d c9b6 daba
000002d0: e7e7 2b3b 506e 253c 7196 ee3a c400 5c3c
000002e0: af84 763b 70f9 97bb ad8d cfbb 8811 0c3d
000002f0: 7c5a de3c 2267 8e3c 7cf9 b9bc f487 86bb
00000300: 7406 2d3a 3800 f5ba af0a b93c 4d57 4c3b
00000310: bdbb 6abc daf8 803a 689a ea3c 2e09 8d3a
00000320: 78a0 9fbc b45f b93c c083 8dbb 0619 d6bc
00000330: a891 1ebc fd9b 1b3c 8704 273c fb09 9ebc
00000340: 82fb 16bc ac13 86bc fe10 463b 8edf 773c
00000350: 772a 9f3c 0229 6bbc 0756 7ebc a7a5 e0bb
00000360: 97b9 8ebb 322f 86ba a4dc a33c f994 273c
00000370: 36d1 52ba 2ff5 d6bb 0ba7 c63b 4884 54bc
00000380: 4683 eebb 9665 c63b ec30 cb3c 64a0 a43c
00000390: 23c3 a7bc 244f b0bb 7e6d ea3a c2e3 3abc
000003a0: efc4 43bc 4232 babb 6f7f 5d3c 3ad4 943b
000003b0: 8c0d f43b 4579 9039 0500 5fbc 36f3 aa3b
000003c0: 19b0 733c 4abf 46bc 54dd 8fbc c05d 83bc
000003d0: 3b7c 93bc 0977 c7b9 d1d9 b1bc d7fb 8b3b
000003e0: 4bfe 873c de75 85bc 2011 b43b 0e19 c3bb
000003f0: 2160 98bc 493d d73b f1af cbbb 1113 9d3c

action_model._continuous_distribution.mu.bias f4 [3]
0.003374947 0.02868567 0.00022193331
00000000: 372e 5d3b 36fe ea3c c5b6 6839
