results/turret_train_1/TurretShoot/TurretShoot-128.onnx (onnx, 285736 bytes, 7 tensors)

network_body._body_endoder.seq_layers.0.weight f4 [256, 11]
000000 13 b8 53 be a0 77 f4 3e 09 85 99 3e 7f 2f 17 3c
       -0.20675687 0.47747517 0.2998431 0.009227633
000010 02 4d 00 3f 2e bc 7e be 3a 54 1b bf cb e8 8f bc
       0.50117505 -0.24876472 -0.60675395 -0.017567059
000020 09 97 03 bf 83 48 4e bd fd a7 48 3e f7 13 ca 3e
       -0.51402336 -0.05036212 0.19595332 0.39468357
000030 2e 64 83 3e 19 4d 5d be e6 1f 07 bf 43 e2 83 bd
       0.2566237 -0.21611442 -0.5278305 -0.064396404
000040 d9 95 5a 3e a2 7f c6 be c9 1c 99 be a4 97 71 3d
       0.21346225 -0.3876925 -0.29904774 0.058982506
000050 6e 46 60 bd 49 b7 79 bd 02 aa 8a bd 82 d7 77 bc
       -0.054754667 -0.06096581 -0.06770708 -0.015127065
000060 e7 4e 20 3e e6 b4 b1 bd 64 37 08 3e eb 60 3e bd
       0.15655099 -0.08677082 0.1330238 -0.046479147
000070 53 36 46 bf 28 25 1a 3e 44 82 c2 be d5 14 09 3e
       -0.7742664 0.15053236 -0.3799001 0.13386853
000080 f7 98 92 3d 59 0e 8d be ba 02 c2 3e 88 95 27 bd
       0.07158082 -0.2755001 0.37892705 -0.04091409
000090 82 d3 ad bc ce 87 89 bd cd 75 d8 be f0 fc eb bd
       -0.021219019 -0.06715356 -0.42277375 -0.115228534
0000a0 f6 29 33 3f f1 d5 0d be 18 12 05 bf de 0f e0 3d
       0.699859 -0.13851143 -0.51980734 0.109405264
0000b0 0c 5f 86 3e e5 c5 da be c3 c0 e5 be a2 cb 34 be
       0.2624439 -0.42729107 -0.44873628 -0.17655805
0000c0 5f 12 0a 3e 0e ab c8 bb 08 6f 44 bf b1 a0 02 3f
       0.1348357 -0.006123907 -0.7673192 0.51026446
0000d0 85 53 76 be be 8a 48 bf 10 9f a7 be 63 c1 a5 3e
       -0.24055298 -0.78336704 -0.32738543 0.32374105
0000e0 85 8b e3 3e 6e 63 d5 3d 79 3c 0f 3e a8 c5 a2 3e
       0.44442382 0.10419355 0.13987912 0.31791425
0000f0 64 1a 84 be d6 31 82 bd 80 17 08 3e b1 4e bb be
       -0.25801384 -0.06357162 0.13290215 -0.36583474
000100 b1 7f d9 be d0 a8 bb 3d 77 79 0e be b4 53 03 3e
       -0.42480233 0.09163058 -0.13913523 0.12824899
000110 57 05 a8 bd ed ee d0 3d 9f 68 a0 be 4e ba ad be
       -0.082041435 0.102018215 -0.3132982 -0.33931202
000120 26 2e 1c be d5 39 4a bd 1b 8e 40 3d 2a ea b8 bc
       -0.15251979 -0.04937156 0.047010522 -0.022572596
000130 4b 3b 13 3f 57 0b d8 3d b1 13 10 3e 46 71 b2 3d
       0.5751235 0.10549038 0.14070012 0.087130114
000140 bf ed 9f be b3 5a 18 be 91 47 37 bf 11 df c4 be
       -0.31236073 -0.14878349 -0.71593577 -0.38451436
000150 79 26 87 3e 64 af 8d 3e 59 9e ef bc 20 5c dd bd
       0.2639654 0.27672875 -0.02925031 -0.10808587
000160 c1 e2 02 3e f0 69 0a 3d 1d fd 9a 3e ff 5a 75 3e
       0.12781812 0.033792436 0.30271235 0.23960494
000170 5f a9 de bd f9 b4 67 bf 4a 47 f6 bd da f5 85 be
       -0.10872149 -0.9051052 -0.12025316 -0.26164132
000180 3a d3 83 3e dc 41 81 bd 33 a1 97 bd 3f 2d 90 3e
       0.2574709 -0.0631139 -0.07403793 0.2815952
000190 26 9e 8a be 45 ef c0 3e 56 52 c5 3e bd af 00 be
       -0.27073783 0.37682548 0.3853938 -0.12567039
0001a0 ca 31 99 bd 4b 1c 85 3d 99 af 0b 3f cf 47 e6 3e
       -0.074802 0.06499537 0.54564816 0.4497666
0001b0 47 07 18 3f 8e f3 87 be d4 c3 44 3e 32 25 3f 3a
       0.59386104 -0.26553005 0.19215328 0.00072916143
0001c0 f9 3b 98 3d ab 2a a5 bd cf f4 17 be f2 e9 1d bd
       0.07433314 -0.08064779 -0.14839481 -0.038553186
0001d0 bc b1 8c be 97 67 1b 3f 58 f8 36 3e 43 ae c7 3e
       -0.2747935 0.6070494 0.17868173 0.3900014
0001e0 ef 5c 25 bf 34 fc b6 bd 07 1f ea be 04 5e cb bd
       -0.6459493 -0.08934823 -0.45726797 -0.099300414
0001f0 fc ca cf 3e 58 12 e0 3d c6 00 d0 bc 7d 4a 31 be
       0.40584552 0.10940999 -0.025390994 -0.17313571
000200 5e 6a df be 0d 54 ea 3e a2 de b5 3e 1e e4 0a 3e
       -0.4363584 0.4576725 0.35521418 0.13563582
000210 55 4a 22 3f 06 fe d2 be fa ea 8b 3e 0d 21 93 be
       0.6339467 -0.4120943 0.2732771 -0.28736153
000220 70 92 35 3d 64 4c c3 be 3c 01 e0 bd fc fd 7f 3e
       0.044329107 -0.3814422 -0.109377354 0.24999231
000230 40 fb 0e 3e 48 f6 16 3e f2 48 c9 3c 81 7d fe 3d
       0.13963032 0.14742386 0.024570916 0.12426282
000240 01 69 ca 3d 16 26 48 3e 9e 0f 87 3e a9 b3 ae ba
       0.09883309 0.19545779 0.26379102 -0.0013328689
000250 d7 74 15 be 9d 16 a5 3e 42 fe c8 be e6 bb a2 3e
       -0.14595352 0.32243815 -0.39256483 0.3178398
000260 29 6a ad be 9d 6d 9d 3e 9e 78 15 bc 68 c1 c9 3e
       -0.33870056 0.3074769 -0.009122996 0.3940537
000270 3f b0 c9 3e 53 6e 2c 3e 57 9d 84 3e 5d a1 b2 3e
       0.39392278 0.1683896 0.2590129 0.34888735
000280 5c 78 c5 be d2 df b9 3e a4 19 57 be 43 0d 80 be
       -0.3856839 0.36303574 -0.21005875 -0.25010118
000290 62 dd 63 3e 4a db da 3e 72 99 f6 3c 9a 23 31 3e
       0.2225242 0.4274543 0.030102465 0.17298737
0002a0 2d de 48 3e f2 1b 99 3e 65 45 47 bd 15 d2 c1 bc
       0.19616003 0.29904133 -0.048650164 -0.023659745
0002b0 ee 9b 2a be 62 bd 5a 3e c9 27 54 be b1 39 43 3c
       -0.16661045 0.21361306 -0.20718302 0.01191561
0002c0 95 5f 22 3e e5 95 0f 3f 4d 5c 9e 3e 2f ce 19 3e
       0.15856774 0.56088096 0.30929795 0.15020059
0002d0 d8 2e bc 3e be 99 b0 bd b2 18 87 3d 2c 11 15 be
       0.3675449 -0.08623074 0.06596507 -0.14557332
0002e0 c0 8e 25 be 64 5e 1b 3f 94 6d f0 3e a0 45 13 3c
       -0.16167736 0.60690904 0.469586 0.008988768
0002f0 47 4f 03 3e 3e 04 a7 3d 6d 8f 31 3e a9 fb 27 bf
       0.1282321 0.08155106 0.17339869 -0.6561838
000300 7b c6 84 3d 28 10 99 be 33 38 91 3d 2f c7 10 3f
       0.0648317 -0.2989514 0.07090797 0.5655393
000310 f0 4e dd 3d 89 3a 12 3e 4f bb 08 bd 95 0c e3 be
       0.10806072 0.14280142 -0.033381756 -0.44345537
000320 38 51 f2 3d db 45 a2 be 07 89 ca bd 7d 7d f7 3d
       0.118318975 -0.3169392 -0.09889417 0.12084482
000330 eb 84 60 3d 71 24 ac bd 96 d4 0d be 36 ba d4 be
       0.05481426 -0.08405388 -0.13850626 -0.41548318
000340 59 7b a4 3e 0f e7 e8 3c 59 d8 0a 3e 15 90 d2 3e
       0.32125357 0.02843049 0.13559093 0.4112555
000350 25 f5 5f 3e a9 e4 49 bc 4b 64 1c bf 1a 12 c4 3e
       0.21870859 -0.012322583 -0.61090535 0.3829506
000360 b1 78 38 3e 56 8a a8 3b 33 07 de bd 67 92 da 3e
       0.1801479 0.005143444 -0.10841217 0.4268982
000370 d1 fa 27 3e a0 52 20 bf 3d 54 6b bd 20 5c ba be
       0.16404273 -0.62626076 -0.057453383 -0.3639841
000380 08 73 92 bd b4 7b 05 3e 7e 6b c7 be 07 0c 87 3e
       -0.07150847 0.1303547 -0.38949198 0.26376364
000390 a9 a2 fd be c0 71 7a 3e 07 6d 96 be 0f 1f 99 3e
       -0.49538162 0.24457455 -0.29380056 0.29906508
0003a0 76 7c 3f be 01 c8 02 3e bb 5c a1 3c 17 a2 a2 3e
       -0.18699822 0.12771608 0.019697538 0.3176429
0003b0 82 60 84 be ab d9 9a bd 09 bd 8d bd dd a4 88 be
       -0.2585488 -0.07561048 -0.06920821 -0.2668828
0003c0 7c c1 e1 3e f9 a3 11 3e f8 89 bf 3e 83 ed af 3e
       0.4409293 0.14222707 0.3740995 0.34360895
0003d0 59 07 77 3e 01 40 94 bd 1f 03 c7 3e 6c 9c 1a be
       0.24123897 -0.0723877 0.3886957 -0.15098733
0003e0 dc 91 a1 3d 7b 08 29 3e bd 01 c7 3e 57 a3 ca 3e
       0.078891486 0.16507141 0.38868514 0.39577743
0003f0 dd b0 c1 3d 88 ff 98 bd 3e 5f 13 bd c8 e5 75 be
       0.09457562 -0.07470614 -0.035979502 -0.24013436

network_body._body_endoder.seq_layers.0.bias f4 [256]
000000 00 00 00 00 00 00 00 00 00 00 00 00 00 00 00 00
       0.0 0.0 0.0 0.0
000010 00 00 00 00 00 00 00 00 00 00 00 00 00 00 00 00
       0.0 0.0 0.0 0.0
000020 00 00 00 00 00 00 00 00 00 00 00 00 00 00 00 00
       0.0 0.0 0.0 0.0
000030 00 00 00 00 00 00 00 00 00 00 00 00 00 00 00 00
       0.0 0.0 0.0 0.0
000040 00 00 00 00 00 00 00 00 00 00 00 00 00 00 00 00
       0.0 0.0 0.0 0.0
000050 00 00 00 00 00 00 00 00 00 00 00 00 00 00 00 00
       0.0 0.0 0.0 0.0
000060 00 00 00 00 00 00 00 00 00 00 00 00 00 00 00 00
       0.0 0.0 0.0 0.0
000070 00 00 00 00 00 00 00 00 00 00 00 00 00 00 00 00
       0.0 0.0 0.0 0.0
000080 00 00 00 00 00 00 00 00 00 00 00 00 00 00 00 00
       0.0 0.0 0.0 0.0
000090 00 00 00 00 00 00 00 00 00 00 00 00 00 00 00 00
       0.0 0.0 0.0 0.0
0000a0 00 00 00 00 00 00 00 00 00 00 00 00 00 00 00 00
       0.0 0.0 0.0 0.0
0000b0 00 00 00 00 00 00 00 00 00 00 00 00 00 00 00 00
       0.0 0.0 0.0 0.0
0000c0 00 00 00 00 00 00 00 00 00 00 00 00 00 00 00 00
       0.0 0.0 0.0 0.0
0000d0 00 00 00 00 00 00 00 00 00 00 00 00 00 00 00 00
       0.0 0.0 0.0 0.0
0000e0 00 00 00 00 00 00 00 00 00 00 00 00 00 00 00 00
       0.0 0.0 0.0 0.0
0000f0 00 00 00 00 00 00 00 00 00 00 00 00 00 00 00 00
       0.0 0.0 0.0 0.0
000100 00 00 00 00 00 00 00 00 00 00 00 00 00 00 00 00
       0.0 0.0 0.0 0.0
000110 00 00 00 00 00 00 00 00 00 00 00 00 00 00 00 00
       0.0 0.0 0.0 0.0
000120 00 00 00 00 00 00 00 00 00 00 00 00 00 00 00 00
       0.0 0.0 0.0 0.0
000130 00 00 00 00 00 00 00 00 00 00 00 00 00 00 00 00
       0.0 0.0 0.0 0.0
000140 00 00 00 00 00 00 00 00 00 00 00 00 00 00 00 00
       0.0 0.0 0.0 0.0
000150 00 00 00 00 00 00 00 00 00 00 00 00 00 00 00 00
       0.0 0.0 0.0 0.0
000160 00 00 00 00 00 00 00 00 00 00 00 00 00 00 00 00
       0.0 0.0 0.0 0.0
000170 00 00 00 00 00 00 00 00 00 00 00 00 00 00 00 00
       0.0 0.0 0.0 0.0
000180 00 00 00 00 00 00 00 00 00 00 00 00 00 00 00 00
       0.0 0.0 0.0 0.0
000190 00 00 00 00 00 00 00 00 00 00 00 00 00 00 00 00
       0.0 0.0 0.0 0.0
0001a0 00 00 00 00 00 00 00 00 00 00 00 00 00 00 00 00
       0.0 0.0 0.0 0.0
0001b0 00 00 00 00 00 00 00 00 00 00 00 00 00 00 00 00
       0.0 0.0 0.0 0.0
0001c0 00 00 00 00 00 00 00 00 00 00 00 00 00 00 00 00
       0.0 0.0 0.0 0.0
0001d0 00 00 00 00 00 00 00 00 00 00 00 00 00 00 00 00
       0.0 0.0 0.0 0.0
0001e0 00 00 00 00 00 00 00 00 00 00 00 00 00 00 00 00
       0.0 0.0 0.0 0.0
0001f0 00 00 00 00 00 00 00 00 00 00 00 00 00 00 00 00
       0.0 0.0 0.0 0.0
000200 00 00 00 00 00 00 00 00 00 00 00 00 00 00 00 00
       0.0 0.0 0.0 0.0
000210 00 00 00 00 00 00 00 00 00 00 00 00 00 00 00 00
       0.0 0.0 0.0 0.0
000220 00 00 00 00 00 00 00 00 00 00 00 00 00 00 00 00
       0.0 0.0 0.0 0.0
000230 00 00 00 00 00 00 00 00 00 00 00 00 00 00 00 00
       0.0 0.0 0.0 0.0
000240 00 00 00 00 00 00 00 00 00 00 00 00 00 00 00 00
       0.0 0.0 0.0 0.0
000250 00 00 00 00 00 00 00 00 00 00 00 00 00 00 00 00
       0.0 0.0 0.0 0.0
000260 00 00 00 00 00 00 00 00 00 00 00 00 00 00 00 00
       0.0 0.0 0.0 0.0
000270 00 00 00 00 00 00 00 00 00 00 00 00 00 00 00 00
       0.0 0.0 0.0 0.0
000280 00 00 00 00 00 00 00 00 00 00 00 00 00 00 00 00
       0.0 0.0 0.0 0.0
000290 00 00 00 00 00 00 00 00 00 00 00 00 00 00 00 00
       0.0 0.0 0.0 0.0
0002a0 00 00 00 00 00 00 00 00 00 00 00 00 00 00 00 00
       0.0 0.0 0.0 0.0
0002b0 00 00 00 00 00 00 00 00 00 00 00 00 00 00 00 00
       0.0 0.0 0.0 0.0
0002c0 00 00 00 00 00 00 00 00 00 00 00 00 00 00 00 00
       0.0 0.0 0.0 0.0
0002d0 00 00 00 00 00 00 00 00 00 00 00 00 00 00 00 00
       0.0 0.0 0.0 0.0
0002e0 00 00 00 00 00 00 00 00 00 00 00 00 00 00 00 00
       0.0 0.0 0.0 0.0
0002f0 00 00 00 00 00 00 00 00 00 00 00 00 00 00 00 00
       0.0 0.0 0.0 0.0
000300 00 00 00 00 00 00 00 00 00 00 00 00 00 00 00 00
       0.0 0.0 0.0 0.0
000310 00 00 00 00 00 00 00 00 00 00 00 00 00 00 00 00
       0.0 0.0 0.0 0.0
000320 00 00 00 00 00 00 00 00 00 00 00 00 00 00 00 00
       0.0 0.0 0.0 0.0
000330 00 00 00 00 00 00 00 00 00 00 00 00 00 00 00 00
       0.0 0.0 0.0 0.0
000340 00 00 00 00 00 00 00 00 00 00 00 00 00 00 00 00
       0.0 0.0 0.0 0.0
000350 00 00 00 00 00 00 00 00 00 00 00 00 00 00 00 00
       0.0 0.0 0.0 0.0
000360 00 00 00 00 00 00 00 00 00 00 00 00 00 00 00 00
       0.0 0.0 0.0 0.0
000370 00 00 00 00 00 00 00 00 00 00 00 00 00 00 00 00
       0.0 0.0 0.0 0.0
000380 00 00 00 00 00 00 00 00 00 00 00 00 00 00 00 00
       0.0 0.0 0.0 0.0
000390 00 00 00 00 00 00 00 00 00 00 00 00 00 00 00 00
       0.0 0.0 0.0 0.0
0003a0 00 00 00 00 00 00 00 00 00 00 00 00 00 00 00 00
       0.0 0.0 0.0 0.0
0003b0 00 00 00 00 00 00 00 00 00 00 00 00 00 00 00 00
       0.0 0.0 0.0 0.0
0003c0 00 00 00 00 00 00 00 00 00 00 00 00 00 00 00 00
       0.0 0.0 0.0 0.0
0003d0 00 00 00 00 00 00 00 00 00 00 00 00 00 00 00 00
       0.0 0.0 0.0 0.0
0003e0 00 00 00 00 00 00 00 00 00 00 00 00 00 00 00 00
       0.0 0.0 0.0 0.0
0003f0 00 00 00 00 00 00 00 00 00 00 00 00 00 00 00 00
       0.0 0.0 0.0 0.0

network_body._body_endoder.seq_layers.2.weight f4 [256, 256]
000000 91 8e b5 bd 93 42 a3 bc 5b dc b8 bc 24 9d 10 bd
       -0.08865083 -0.019929206 -0.022566011 -0.03530611
000010 5d 46 a8 3d 14 ae 13 be eb 5e 16 bb 75 f6 be 3c
       0.08216546 -0.14421874 -0.002294476 0.02331088
000020 c5 0b 2e bd e7 ba b9 3c 63 c6 70 bd f5 13 49 3d
       -0.042491693 0.02267213 -0.058782946 0.049091298
000030 75 2b 97 3d 6f da 86 bd 6d df d9 bc 2a 88 55 bc
       0.07381336 -0.06584632 -0.026595796 -0.013032952
000040 80 68 13 3d bb d0 b4 3d 81 30 c0 bd 34 6e f7 3b
       0.03598833 0.08828875 -0.093842514 0.007550979
000050 4e 9f be 3c 0f 58 92 3d e4 30 04 3c fa 6b 1b 3d
       0.023269322 0.07145702 0.008068297 0.03794477
000060 df e2 7c 3d 88 f6 a5 3b ff 7c ba bc c8 ab c7 bb
       0.0617398 0.005064789 -0.02276468 -0.006093476
000070 5d 9d b6 bc 33 0e 79 3d b3 67 42 3d 9e f2 1d 3c
       -0.022291834 0.060804557 0.047462177 0.009640364
000080 71 04 21 3d 1c c7 33 bd 27 a0 29 bd 50 31 8a 3c
       0.039310876 -0.043891057 -0.0414125 0.016869217
000090 31 93 40 3b 60 3f 63 bc b2 b5 96 3c 2e e5 06 3c
       0.0029384608 -0.01387009 0.018397186 0.008233352
0000a0 f7 45 eb 3c ae 5e 53 3d 05 81 df 3d ec 71 78 bd
       0.028719885 0.051603965 0.109132804 -0.06065552
0000b0 70 2b 63 bb 8a 5f b6 3c 9b 94 cb 3c 8b 89 e1 3b
       -0.0034663342 0.022262353 0.024851134 0.0068828515
0000c0 e9 a3 bf 3d bf 96 2c bd a8 6b 9a 3d 77 a5 20 bc
       0.09357435 -0.04213595 0.07540065 -0.009805075
0000d0 35 f5 ce bd 7a 9f 57 3d dc 93 9b 3d c1 89 7b 3c
       -0.10105363 0.052642323 0.07596561 0.015352667
0000e0 87 6c 7e bd 92 4f c4 3d d5 b8 81 3d 1c ab 1d bd
       -0.06211522 0.09585489 0.06334082 -0.03849326
0000f0 34 da 56 bc f5 58 f1 3d 93 27 c6 bd 34 1e 28 bd
       -0.013113547 0.11784545 -0.09675517 -0.04104443
000100 21 d4 e9 bd 89 87 52 bc 7f 2d fc bc ab e0 b1 3d
       -0.114174135 -0.012849697 -0.030783413 0.0868543
000110 fa d7 12 3c 93 19 13 bc 2a 93 bf 3d ec a3 a8 3d
       0.008962626 -0.008978265 0.09354241 0.082343906
000120 69 1e af 3c 9d 04 af 3c 1c 45 4c 3c d1 c8 40 bd
       0.021376805 0.021364504 0.012467649 -0.047066513
000130 1f 56 50 bd 7e 3c 27 3c d3 32 9c 3d 8b 9d 02 3e
       -0.05086338 0.010207294 0.076268815 0.1275541
000140 d4 93 78 3d 32 e3 21 3d e3 91 76 3d 80 9b ee 3b
       0.060687855 0.03952331 0.060197722 0.0072817206
000150 65 98 e3 bc a4 50 86 3c 94 49 ce 3c f6 2a 54 bc
       -0.027782628 0.016395874 0.02518157 -0.012949696
000160 3e 6d 08 bd 16 2b 50 bd 51 7b 4f bc 71 99 6b bc
       -0.033307306 -0.05082234 -0.012663678 -0.014379845
000170 b8 f4 c6 bd 97 78 f2 3d 95 f1 df 3d 89 2f 05 3d
       -0.09714645 0.11839407 0.1093475 0.032516036
000180 d9 d0 cb bc b6 6f 60 bd 76 63 7b bb b8 96 f6 3d
       -0.02487986 -0.054794036 -0.0038358844 0.12040466
000190 ad 67 d0 3c b0 c4 ec 3d bd ba ba bd 17 e8 43 bc
       0.025440061 0.11560953 -0.09117649 -0.01195719
0001a0 1d 58 b7 3b 87 37 88 3d 4b 08 e0 3d 5d 86 88 bd
       0.0055952207 0.06651216 0.10939082 -0.06666253
0001b0 fd 86 fd 3b 6e 35 92 3a 0c 1d 68 3c f9 2f f0 3d
       0.007737039 0.0011154839 0.014167082 0.117279
0001c0 40 1c 46 3c 67 11 27 3d bb cf 98 3d b3 f3 d0 3d
       0.012091696 0.04078808 0.074614964 0.10202732
0001d0 60 15 24 bd a9 54 ac 3c 90 2a 3a 3d 9d c2 09 bd
       -0.040059447 0.021036463 0.045450747 -0.033632863
0001e0 02 9d 96 bc 8d 7b bb bd f2 8b 3b bd 92 34 b1 3c
       -0.018385414 -0.09154425 -0.04578776 0.021631513
0001f0 e7 ef 73 bc e1 b7 10 be 1a 4f 25 3d 52 d9 15 3e
       -0.01488874 -0.14132644 0.04035864 0.14633682
000200 8a 10 30 bd 7e f8 ac bd ca 09 b9 bb ca 0a 59 ba
       -0.042984523 -0.084458336 -0.005646919 -0.0008279501
000210 49 07 97 bd 1f cd 94 3c cc 63 be 3c 67 88 cc bb
       -0.073744364 0.018164216 0.023240946 -0.0062418464
000220 5f e9 4b 3d 46 c8 ed bb fa 88 83 bd 6c e9 c6 3d
       0.049783107 -0.0072565405 -0.064226106 0.097124904
000230 d2 24 e4 bc 17 e4 a1 bd 78 6c b4 bd a3 5f 3b 3d
       -0.027849589 -0.07904833 -0.08809751 0.045745503
000240 b7 85 a1 bd 19 7d ca bc d7 17 94 3d d9 75 88 3d
       -0.07886832 -0.024717854 0.072311096 0.06663103
000250 d5 54 33 3d 02 72 0d bd 46 9d 2e bd 9a d5 a6 bc
       0.043782074 -0.034532554 -0.042630456 -0.020365525
000260 af fc 38 bd d1 7b 78 3d 04 04 98 3c d1 27 80 bd
       -0.045162853 0.060664956 0.018556602 -0.062575944
000270 03 e0 fd bd 28 e8 87 3c 3b ec 84 3d 35 56 84 bc
       -0.123962425 0.016590193 0.0649037 -0.016154388
000280 ff 50 0d 3d 48 ee 82 3d 7a 25 07 bd 88 78 b0 3c
       0.034501072 0.06393105 -0.032994725 0.021541849
000290 8d 92 e4 bc aa a0 8b 3d 4d 23 33 bd 42 49 9b bd
       -0.027901912 0.068177536 -0.043734837 -0.07582332
0002a0 da 97 83 bd fc cc 83 bd 24 18 4e 3b d3 43 21 3d
       -0.06425448 -0.06435582 0.0031447494 0.039371323
0002b0 65 4a 65 3d 20 6e aa bd 7e fe 1a bd 53 5a 0a 3e
       0.05597915 -0.08321786 -0.03784036 0.13511018
0002c0 68 ef 95 bd 3a c4 e2 3c 1c 4f b3 bd ca 17 02 bd
       -0.07321054 0.027681459 -0.08755323 -0.03176097
0002d0 85 18 e6 bd a0 3b 9c bd 6e e7 62 3d ba cf 5c bd
       -0.112351455 -0.0762856 0.05539649 -0.05390904
0002e0 0f 7c 09 bd 9a 5c 9e bc ec df ea bd 32 e1 ef bc
       -0.033565577 -0.019331265 -0.11468491 -0.029282186
0002f0 6b d5 4b bd 05 44 a9 3c c9 a8 e8 bc a2 f2 8b 3d
       -0.049764078 0.020662317 -0.028400796 0.06833388
000300 ad fe 0a bc ed 98 05 bd cd f5 53 bc f0 1d e7 bc
       -0.008483571 -0.032616545 -0.012937021 -0.028212517
000310 7b eb 2b 3d 1d 24 89 bd c9 3d 28 3c 46 4e 6f 3d
       0.04197262 -0.06696341 0.010268637 0.058424257
000320 4a 33 ed 3c b6 53 d2 3c ff 92 94 3b 40 38 37 3d
       0.02895512 0.025674682 0.004534125 0.04473138
000330 cf 23 4e 3d 3c 47 f8 3d 96 ba 03 be f2 08 35 be
       0.05032712 0.12122962 -0.12864146 -0.17679194
000340 a0 39 24 3e fb 29 92 3c 8f 45 67 bd 30 93 d9 3c
       0.16037607 0.017842283 -0.05646282 0.026559442
000350 cd 96 a5 3d 74 a5 16 be 14 93 99 3d a3 6c f2 bc
       0.080854036 -0.14711553 0.07498756 -0.029592818
000360 a9 9d c6 3d e7 0e cf bb 06 ec 21 bd 6a 1c fe 3b
       0.0969804 -0.006318915 -0.03953173 0.007754852
000370 00 6d 50 bc 6e f7 2f bd 65 69 bf 3b 63 05 dc bc
       -0.0127213 -0.042960577 0.0058414214 -0.026858037
000380 da 06 97 3d c9 1a 2c bd 6b a7 d3 3c 35 3c 15 3d
       0.07374354 -0.04201773 0.025836667 0.03643437
000390 27 b5 03 3e a5 f6 8a bc 67 33 77 3d 6e ac bc 3c
       0.12862073 -0.016963312 0.060351755 0.02303144
0003a0 25 02 c7 3d 68 bf 03 bd e6 9d 18 3c 20 62 10 3d
       0.09717206 -0.03216496 0.00931499 0.03524983
0003b0 d3 dd 4e bc 2e 0f c2 3d ab d4 fe bb 26 90 8f 3d
       -0.012626129 0.094755515 -0.007776817 0.07009916
0003c0 66 01 0b be 38 52 31 bc 18 3d f4 3d 05 22 84 3c
       -0.13574752 -0.010822825 0.11925715 0.016129503
0003d0 33 26 16 3b 13 2d 2a bb 50 03 8b 3d a5 74 04 3e
       0.0022910952 -0.0025966808 0.06787741 0.12935121
0003e0 f2 98 18 3d 30 25 ad 38 96 b4 68 bd f8 df 01 be
       0.037255235 8.2562095e-05 -0.056812845 -0.12683094
0003f0 f9 16 13 be d5 7f f9 3c e2 b2 87 bd 1d a0 3a 3d
       -0.14364232 0.030456463 -0.06625916 0.045562852

action_model._continuous_distribution.log_sigma f4 [1, 2]
000000 00 00 00 00 00 00 00 00
       0.0 0.0

action_model._continuous_distribution.mu.weight f4 [2, 256]
000000 80 65 2b b8 17 ff a7 ba 6b f2 08 bb 1f dc 08 3c
       -4.0864106e-05 -0.0012817112 -0.0020896445 0.008353262
000010 af 94 16 bc 66 68 ab ba 1c 61 00 bb 23 a2 b2 3b
       -0.009190722 -0.0013077378 -0.0019589132 0.005451457
000020 8a 64 20 bc 6b c8 bd 3c ad 87 11 3c d5 e3 eb 3b
       -0.009789595 0.023166856 0.008882445 0.0071987906
000030 b5 0b 8a 3c e3 ba 00 bc 8f 98 c2 3b 36 e1 3c ba
       0.016851285 -0.007857057 0.0059385966 -0.000720519
000040 fe a6 83 bc e7 82 6d 3c 0a 41 cb bb 5e 1d 29 bb
       -0.016070839 0.014496542 -0.0062028216 -0.0025804858
000050 10 3e 14 bb ab aa f4 bb d9 48 ad 3a 85 d0 a0 3b
       -0.002262 -0.0074666343 0.0013220563 0.00490767
000060 38 31 4e 3c f4 3e 3d bb 33 58 9e 3a 97 a9 7a bc
       0.012584977 -0.0028876634 0.0012080729 -0.015299222
000070 63 58 b4 3b c3 79 b1 bc ae b2 a5 bb bd 70 bb bc
       0.0055037006 -0.021664506 -0.0050567007 -0.022880906
000080 27 9e e5 3a 80 9b fd ba a3 79 3a 3c d3 e5 cb ba
       0.0017518447 -0.0019348711 0.0113815395 -0.0015556164
000090 06 5a a6 bb 77 8d 9b 3c 07 12 ae 3c b8 a7 0d bb
       -0.0050766496 0.018988354 0.02124883 -0.002161486
0000a0 41 7b 9b 3c 84 93 95 ba d9 bb c2 3b 67 b2 fe 3b
       0.01897967 -0.0011411761 0.0059428033 0.007772732
0000b0 97 ba 9d 3c 9e 71 b7 3a 93 24 96 3c bf cf ca bb
       0.019254012 0.0013995653 0.018327987 -0.006189316
0000c0 dd 2f 8d bc 7a 48 06 3c 7a b7 b6 bb 68 02 e4 bb
       -0.017234737 0.008195991 -0.0055760713 -0.0069582947
0000d0 ff b4 b2 bb 4c db 49 3b 57 70 fe b9 96 97 c9 bc
       -0.0054537053 0.0030800877 -0.00048530355 -0.024608415
0000e0 fe 3f a3 bb b7 ef 32 3c e1 69 47 bb c4 7d 18 3b
       -0.0049819937 0.01092141 -0.00304281 0.0023268322
0000f0 4a ad 4f 3c 38 b5 d4 3c 47 38 6a ba b2 88 b3 3b
       0.012675593 0.025965318 -0.00089347776 0.005478942
000100 a8 46 47 bc 98 59 80 bc 00 f3 63 3c c3 5c 68 bb
       -0.012162842 -0.015667722 0.013912916 -0.003545568
000110 c6 23 a6 bc 43 d3 bf 3c 17 60 1c 3b 1c 8b 90 bc
       -0.02028073 0.023416167 0.0023860985 -0.017644458
000120 33 77 74 3c d3 3c 9f bb 83 d2 59 bb cf e8 b0 ba
       0.014920997 -0.0048595457 -0.0033237047 -0.0013497117
000130 73 79 45 3a 04 d2 46 3a 22 b2 10 3c 3f 36 a0 bb
       0.0007533051 0.00075843954 0.008831533 -0.004889279
000140 73 73 54 bc bb 1e 98 3c 63 2b c1 bc 1c 0d 35 bc
       -0.012966978 0.01856934 -0.023580259 -0.011050489
000150 fb 86 19 3c 46 48 38 3c 6b e7 d9 bb 2d 01 ae bb
       0.009370561 0.0112477 -0.0066499016 -0.0053101988
000160 af f5 ae bb 10 fa 8e 3c ab 50 fc 3b 46 6e 8d bc
       -0.0053393464 0.017453223 0.007700046 -0.017264497
000170 3a 59 9a 3b af 53 30 3c b2 36 9a ba fa 3a 8e 3b
       0.0047103437 0.010762139 -0.0011765568 0.0043405266
000180 0a ff b5 3c 72 f0 1f bc 23 15 47 bc 96 01 c4 bb
       0.022216339 -0.0097619165 -0.0121510355 -0.0059816344
000190 11 62 b9 3c 0d 34 15 3c a6 bc 2d 3a 2c 5d 9f bc
       0.02262977 0.009106648 0.0006627537 -0.019453607
0001a0 47 04 aa bb dd 74 0a b9 28 5e 1d 3c 1d 3c 8c 3c
       -0.005188498 -0.0001320424 0.009604968 0.017118508
0001b0 ae 30 a9 3a 0b 57 69 bc 92 21 55 bc f7 c8 97 3c
       0.0012908184 -0.014241944 -0.013008492 0.018528445
0001c0 b3 ab b3 3c de 63 06 bc b9 9f 91 3c c7 8e 44 3b
       0.021932459 -0.008202521 0.017776357 0.0029992328
0001d0 f7 4a a7 3b c8 61 d1 bc ee 53 3a 3c 62 2a 7f bb
       0.005105372 -0.025559321 0.011372549 -0.0038935174
0001e0 f5 94 03 bd dc 38 18 3a e8 4f 40 bc 43 f4 9f bb
       -0.03212448 0.00058068126 -0.011737801 -0.004881413
0001f0 5b 89 3f bc 1a 51 da ba ff 80 73 3c 1d 8c 45 3c
       -0.011690463 -0.001665625 0.014862298 0.012057331
000200 01 58 a2 bc 26 d5 1c 3c 95 be 0c 3c 13 af 4a bc
       -0.019817354 0.009572303 0.00859036 -0.0123708425
000210 16 aa 03 3b 0e 53 41 bc 33 52 ee ba 39 13 b7 3c
       0.0020090393 -0.011799587 -0.0018182456 0.022348033
000220 24 01 88 bc 12 91 6f 3b 7e 4d 87 bc a9 0f 9c 3b
       -0.016602106 0.0036554975 -0.016516443 0.004762609
000230 db 09 02 3b 77 92 ab 3c f4 95 b4 3b ce d9 a8 3a
       0.00198423 0.020943863 0.00551104 0.0012882294
000240 ad 53 53 bc db 4c e4 3b 8b 7a ae 3c 32 d9 43 bc
       -0.012898368 0.0069671697 0.021298667 -0.011953639
000250 13 11 5d bc f3 e5 3b 3c 57 c1 6b 3c 83 46 3c 3b
       -0.01349284 0.011468398 0.0143893575 0.0028728552
000260 a6 c4 af 3c a4 42 25 bc 0e ec 9b 3c c6 21 bb bb
       0.021456074 -0.010086689 0.019033458 -0.005710813
000270 26 0f 2c bc aa 92 1b bb c0 41 7e bc 0b 17 4b bc
       -0.010501659 -0.0023738542 -0.015518606 -0.012395631
000280 13 cd 8e bb 83 04 2d 3c 15 4e 66 b8 6f 46 62 3c
       -0.004357943 0.010560158 -5.4908993e-05 0.013810738
000290 1c ae b4 39 01 f3 47 bc 87 45 83 bb 94 5d a7 3c
       0.00034461997 -0.012203933 -0.004006091 0.020430364
0002a0 73 bc 27 bc f8 93 8c bc e7 a3 5c bc ce dd 42 b9
       -0.010237801 -0.0171604 -0.013466812 -0.0001858391
0002b0 1a 62 ba 3b bd 07 99 bc 67 d5 00 bc 03 fd 8f bc
       0.005687964 -0.018680448 -0.007863379 -0.0175767
0002c0 c4 97 c5 3a c7 36 02 3c 02 83 81 bc 1e 09 14 bc
       0.0015075137 0.00794763 -0.01580954 -0.009035377
0002d0 d4 32 11 bc 4a 0b 90 b9 2a 41 dc bc a6 44 b5 3b
       -0.008862216 -0.0002747423 -0.026886541 0.005531865
0002e0 2a 06 6b 3c 6d fe 42 3a 4a de 35 bb 3f ae 3e 3c
       0.014344731 0.0007438425 -0.0027750903 0.011638223
0002f0 3b 4e a4 bb fc fa 99 3b e7 35 27 3b ea 76 7f 3b
       -0.0050142086 0.004699109 0.0025514306 0.003898079
000300 53 d9 b5 3c 5b c4 61 bc 93 ff 95 bb fb a4 11 3c
       0.022198355 -0.013779725 -0.004577586 0.008889432
000310 da 61 fb 3b c8 84 3d 3b 40 f4 8b 3c 4f 63 a9 bc
       0.007671577 0.0028918255 0.01708424 -0.020677237
000320 24 5a 06 bc a7 64 91 bb 16 20 bd bb fd 0e 5f bc
       -0.008200202 -0.0044370475 -0.005771647 -0.013614413
000330 4e f0 99 ba 2d d1 cc 3b b0 e8 c7 37 0e 1f 06 3b
       -0.001174459 0.0062505216 2.3831002e-05 0.0020465287
000340 bc 3d 10 bb 15 0f 78 bc 13 77 bf 3b 4a bc 59 bc
       -0.0022009453 -0.015140315 0.005843052 -0.0132895205
000350 73 2b 60 bc 2b 7b 42 3c b4 68 c8 3b a8 a1 b7 3c
       -0.013682234 0.011870186 0.006115997 0.02241595
000360 e0 66 3e 3c 19 76 8b 3c 82 04 89 bc ea 66 8f 3c
       0.011621207 0.017024087 -0.016725782 0.017505128
000370 92 97 8c 3c 9d fc 9d 3c 45 98 b3 3b 6b b7 96 bc
       0.017162118 0.019285494 0.0054807984 -0.018398007
000380 bc c2 41 3c 7a f1 d6 3a 97 92 71 bc d5 a4 dc bc
       0.011826213 0.001639887 -0.014744422 -0.026934067
000390 90 28 d4 bb 25 c2 d1 3b 13 c3 0f bc 27 41 3d 3b
       -0.006474562 0.0064013177 -0.008774537 0.0028877945
0003a0 40 d6 cf 3c 5f 05 b2 bc 79 3a 01 3b a4 de bf 3b
       0.025370717 -0.021731077 0.001971869 0.0058553983
0003b0 c3 af 08 3c 1b d4 10 3a 82 e2 c2 bc d7 f2 d8 ba
       0.008342686 0.000552477 -0.023789648 -0.0016551864
0003c0 cf 77 48 3c fb a9 d5 bc 8f f2 b9 3c b1 b5 ab bc
       0.012235596 -0.02608203 0.022698669 -0.02096066
0003d0 36 a9 3a 3c 46 c1 46 bc e5 37 a6 3b 68 c1 d3 3c
       0.011392882 -0.012131041 0.005072581 0.02584906
0003e0 30 4c 74 39 fb f3 d1 3c d5 7e 8b bb 0b 60 44 bc
       0.00023298035 0.025629034 -0.004257063 -0.011985789
0003f0 08 ab 1c bc 07 7f ab 3c c1 e9 bd bb a7 b3 8a ba
       -0.009562261 0.020934595 -0.005795688 -0.0010582105

action_model._continuous_distribution.mu.bias f4 [2]
000000 00 00 00 00 00 00 00 00
       0.0 0.0

action_model._discrete_distribution.branches.0.weight f4 [2, 256]
000000 c7 3f 86 bb 1e 78 35 3a d3 e4 1d bc 6a 3b fb bb
       -0.0040969583 0.0006922501 -0.0096370755 -0.007666995
000010 7f 0d 6f 3b 70 35 29 bb da 2d cc bb 7f 4d 08 3c
       0.003647655 -0.0025819205 -0.006231052 0.008319258
000020 cd e3 4c bc 3e a9 82 3a 91 a5 08 3c b6 24 cc bb
       -0.012505484 0.0009968651 0.008340255 -0.006229962
000030 6f 8f 94 bc 48 29 18 bc 65 02 6a 3c 73 6b f7 39
       -0.0181348 -0.009287186 0.014282797 0.00047191567
000040 70 1d 47 3b 03 df 53 bc 0a 4b c2 ba 6c 4f 92 3b
       0.0030382536 -0.012931588 -0.0014823389 0.004465034
000050 7a b4 8a 3b 8f d6 cc 3a 94 96 c2 3b 7a a1 4e 3b
       0.0042329403 0.0015627908 0.0059383605 0.0031529353
000060 28 af 7e b9 55 8c f9 ba 11 99 06 bc c5 c7 56 bb
       -0.00024288578 -0.0019039015 -0.008215205 -0.003277288
000070 bb 75 b0 3b 2f 0b 37 bb d2 3e 62 3b 8b 99 5b bb
       0.0053851283 -0.002793025 0.0034522307 -0.0033508267
000080 2f 15 b6 3b 65 29 a1 bb a6 68 2f 3c cd 5b 8b b6
       0.0055567245 -0.0049182647 0.0107061025 -4.15321e-06
000090 5b 06 16 bb d7 5a cf ba 44 bc 1a bc eb 57 d1 bb
       -0.0022891972 -0.0015819919 -0.0094443 -0.0063886545
0000a0 81 ac b5 ba cb b5 cd 3a 57 80 d7 3b 5b f6 5b bc
       -0.0013860614 0.0015694437 0.0065765786 -0.013425435
0000b0 8b aa f8 3a cd 66 48 bb 83 d5 f7 bb 5d 13 dc 3b
       0.0018971724 -0.0030578852 -0.0075632944 0.0067161755
0000c0 5f 32 3d bb a6 5d 08 bc e3 61 79 b9 1a bd 67 bb
       -0.0028869135 -0.008323109 -0.00023782956 -0.0035360516
0000d0 33 73 47 bb ad 53 03 bb 58 3c 21 bb ba 80 8a bb
       -0.0030433654 -0.0020038888 -0.0024602618 -0.004226771
0000e0 db 45 f7 3a 34 e6 a6 bb 57 6f 72 3a c9 95 a1 ba
       0.0018865423 -0.0050933603 0.00092481583 -0.0012327965
0000f0 a5 44 19 3c 78 ef 57 ba 00 21 12 bb 2d e9 92 ba
       0.009354745 -0.0008237283 -0.0022297502 -0.0011208408
000100 d8 89 fe 3a ac db 97 3b 52 8e 9d 3a 7d de ab bb
       0.0019419743 0.004634341 0.0012020564 -0.0052450285
000110 b7 53 63 bc 5f 67 99 39 8b a7 b5 bb 83 5c db 3b
       -0.01387494 0.00029259452 -0.0055436543 0.006694378
000120 44 ff 11 3a 95 f6 ac bb 12 db 48 bc 50 84 df 3b
       0.00055693486 -0.0052784183 -0.012259262 0.006821193
000130 ef fa 51 3c 25 ca 42 3b 6d 3c df b9 f3 5d e8 3a
       0.012816175 0.0029722538 -0.00042578895 0.0017728194
000140 63 11 4d 3b ef 28 6b bb f3 d5 35 bc b3 dd a4 bb
       0.003129088 -0.0035882553 -0.011098373 -0.0050313114
000150 b0 9c 5d bb dc 43 1a bb 77 f8 ae b9 f9 a2 38 bb
       -0.0033815317 -0.0023538982 -0.00033372987 -0.002817331
000160 a3 78 f6 3a d7 8c ab 3a 26 92 aa ba e5 e5 80 3a
       0.0018804263 0.0013088238 -0.0013013526 0.0009834139
000170 47 9b bb ba 97 7a c6 3b 1b c7 1a bc 39 b2 48 bc
       -0.0014313244 0.0060570943 -0.0094468845 -0.012249523
000180 07 64 97 3b 28 71 78 bb 4c 6a 19 bc 6b 18 d2 bb
       0.0046200785 -0.0037909243 -0.009363722 -0.0064116023
000190 3c b1 ab b9 8c 71 96 bb 83 c7 bb 3b 92 5d 72 ba
       -0.00032747712 -0.0045911726 0.0057305708 -0.00092455104
0001a0 72 17 cd bb b8 e8 08 ba e2 ab 57 3b c8 0c 11 3c
       -0.0062588984 -0.0005222666 0.0032908847 0.008853145
0001b0 d7 31 97 3a 86 f2 0b 3b af c0 09 3a 3e 0e ca b9
       0.0011535239 0.0021354272 0.00052548473 -0.00038539054
0001c0 d2 8a 25 bc 6a 53 12 bc 03 a4 4f bc 88 e5 fe ba
       -0.010103898 -0.00893102 -0.012673381 -0.0019447068
0001d0 7a 60 d9 bb 0b 4d 1b bc 1a 69 b2 39 15 13 eb 38
       -0.0066338154 -0.009478818 0.00034029112 0.000112092275
0001e0 30 8e f6 39 5f 5a a2 bb 4e 1b 81 3c 51 fd c0 ba
       0.00047026714 -0.0049546207 0.01576009 -0.0014723932
0001f0 9a 34 32 bb 33 ad 53 3c fb ca 19 3c 5a ec 54 bb
       -0.0027191998 0.012919712 0.009386773 -0.003248951
000200 86 5e 87 3a ff 63 8e bb 61 08 33 bc 32 51 01 3c
       0.0010327853 -0.0043454166 -0.010927291 0.007892894
000210 98 83 2f 3b 27 60 80 bb 95 3b 20 bc 4a dc 57 3a
       0.0026781317 -0.0039177123 -0.00977983 0.0008234425
000220 f3 08 a4 bb 1c de 96 3b 7f 4b 92 bb 1e 34 46 3b
       -0.0050059496 0.004604114 -0.0044645662 0.0030243467
000230 10 5e e0 3b ef 45 23 bc e9 2d 0b 3c d3 ea a6 3b
       0.0068471506 -0.009965404 0.008494833 0.005093911
000240 b1 71 07 3c d0 44 4d bb 5a df 2d bc 38 2a b6 3b
       0.008266852 -0.0031321533 -0.010612333 0.005559232
000250 71 37 01 bc 57 e0 20 bc 32 18 14 bc 4c f8 01 bb
       -0.007886753 -0.009819112 -0.009038972 -0.0019831834
000260 e7 45 20 bc 85 1e be bb 26 ff 0f bb 62 76 88 3a
       -0.009782291 -0.005801978 -0.0021972149 0.0010411257
000270 9b 77 df 3b 23 b9 2d bc 70 76 5c 3c 19 fe 0d 39
       0.006819678 -0.010603222 0.013455972 0.00013541467
000280 c6 4b 89 bb 0b 9b 24 3c c8 4d 76 3a 1d 88 fd bb
       -0.004189941 0.010046731 0.00093957456 -0.0077371732
000290 2f 1b 3d 39 fe 3c 39 bc 5b e3 a8 3a 28 ce bf ba
       0.00018034571 -0.011306046 0.001288514 -0.0014633583
0002a0 dd 90 51 3b a5 07 e6 3b a8 96 29 bc 63 95 21 3c
       0.0031977214 0.0070199543 -0.010350861 0.009862277
0002b0 83 d0 58 3b 1f f5 82 bb 38 f1 5e bb c5 24 73 bc
       0.0033083267 -0.003996506 -0.003401829 -0.0148403095
0002c0 ee 8e 2a bb 5d 5f 05 bc 86 41 2e 3c bb 2c 2d 3b
       -0.0026025134 -0.008140412 0.010635739 0.0026424367
0002d0 60 95 c7 b9 85 8a 58 3b ba 99 4b 3c 18 59 6d 3a
       -0.0003806753 0.0033041548 0.012426788 0.00090541085
0002e0 53 58 9a bb 58 dd ba bb 26 6f 39 bc ef cb 0e 3b
       -0.004710236 -0.0057026558 -0.011318004 0.0021789034
0002f0 48 9a be bb 53 45 da 3a ed 08 5b bc 90 49 2f bc
       -0.0058167316 0.001665274 -0.013368827 -0.010698691
000300 12 21 0f 3c 9d b7 7d bb f0 99 d9 ba ad 20 eb 3a
       0.008735912 -0.0038714178 -0.0016601663 0.0017938815
000310 aa cc de 3b 5f 77 04 bc 1b b0 ff bb c7 e0 9a 3b
       0.0067993 -0.008085101 -0.007802976 0.0047265026
000320 86 21 c7 3a d3 6e df ba d0 8a 98 39 38 fb 7d 38
       0.0015192486 -0.0017046578 0.00029095123 6.0553866e-05
000330 64 c2 af 3b ee 46 c5 3b 1a 76 69 b9 3b 39 ed 3b
       0.0053637493 0.0060204184 -0.00022264608 0.0072394884
000340 5b 9f 05 bc db 3f 89 bb 69 b6 b7 b9 d3 66 c0 bb
       -0.008155669 -0.0041885204 -0.00035040386 -0.0058716326
000350 7a b2 d5 3b 41 33 17 bc f3 bb bf 3b 71 02 12 3c
       0.00652152 -0.0092285285 0.0058512627 0.008911715
000360 cc f3 c6 b8 e5 ed a2 ba 8b 5c 16 bc 4c 60 b2 bb
       -9.4867864e-05 -0.0012430517 -0.009177337 -0.0054436084
000370 1f ae 78 3b 98 d1 63 bc 22 dc f4 bb 55 ee 86 3b
       0.003794558 -0.0139049515 -0.007472531 0.004117767
000380 29 a7 0c bc 90 74 01 3b 2a 0a e5 bb b3 03 94 39
       -0.008584776 0.0019753315 -0.006989737 0.00028231516
000390 43 6a f0 3b 21 12 b0 bb cc b1 b2 b8 d7 ba 38 3b
       0.007336886 -0.005373255 -8.520819e-05 0.0028187537
0003a0 37 2c c1 ba 93 e3 d0 bb 03 29 37 bc 77 da 89 39
       -0.0014737908 -0.006374785 -0.011179212 0.00026293445
0003b0 53 fc c1 3b f7 08 4b 3b 32 af 59 bb c3 26 f7 3b
       0.005919972 0.0030980685 -0.0033215997 0.0075424626
0003c0 40 94 ce bb 0e 61 0a bc 5d 2c 90 bb 66 78 88 ba
       -0.006304294 -0.008445991 -0.0043998198 -0.0010411858
0003d0 78 73 4e 3a 1f 49 0c bc f1 22 c1 bb f3 c2 1b ba
       0.00078754826 -0.008562355 -0.005894058 -0.00059418305
0003e0 d1 1c 02 bb 58 14 09 b9 62 aa c6 3b 32 24 0f bc
       -0.0019853602 -0.00013072917 0.0060627917 -0.008736657
0003f0 75 ed fb ba 1c 8e 4b ba 6b 62 d5 3a 31 bf 93 3a
       -0.0019220548 -0.00077650114 0.0016279941 0.001127219
