results/turret_train_1/TurretShoot/TurretShoot-3350.onnx (onnx, 7427 bytes, 7 tensors)

network_body._body_endoder.seq_layers.0.weight f4 [20, 11]
-0.32478288 -0.13789801 -0.13217478 -0.172917 0.28209576 -0.61242634 0.07464458 0.14802356
-0.12979954 -0.31376213 0.27866504 0.729247 -0.47091538 -0.38430074 -0.19379808 0.19722259
0.045573145 0.5642081 0.1413668 0.17271037 0.09882674 0.016410468 -0.42239448 0.34773785
0.33482447 -0.35322526 -0.26481694 0.28952447 0.38898572 -0.14622319 -0.30957243 -0.23035784
-0.02080837 0.1633662 -0.19911572 0.14258672 -0.03273427 0.045982745 0.5929087 -0.3349767
-0.045313254 0.4632598 0.23505737 -0.20244518 0.25952673 0.23259789 0.027631743 -0.30625367
-0.22162339 -0.69393027 -0.12584949 -0.378377 -0.31781748 -0.0038668395 -0.3105774 0.060689513
-0.1951548 -0.19825006 0.20088056 -0.063136466 0.004927944 -0.34981856 0.2991387 -0.1484474
-0.23786391 0.26057836 -0.16972508 -0.11244452 0.33084223 0.2584096 0.16230176 -0.026989441
-0.34231457 -0.45225263 0.19531581 0.17556247 -0.020310797 0.11509406 -0.2453079 -0.21235168
-0.075240016 -0.018081777 -0.031352773 -0.26270962 -0.028485158 -0.8423631 -0.08921277 -0.11282022
0.26462802 0.3265026 -0.5760474 -0.13023126 0.023742272 -0.32039574 0.05263524 -0.3361429
-0.57099235 -0.28386343 0.18702513 0.24886781 0.36514565 0.44815576 0.0011266619 -0.3266963
0.1625449 -0.04026611 0.09249737 -0.27896622 -0.4213922 0.005361397 -0.5106275 -0.5514047
-0.41547793 -0.03215602 -0.10411493 0.072279215 0.07288767 0.64118433 0.41776457 0.22773539
0.24857864 0.3128127 -0.2932142 -0.6161859 0.59673643 -0.7954226 -0.28731138 0.12114333
0.055775765 -0.21091442 0.5671925 0.0074950494 0.0014439216 0.51198524 -0.28202787 0.32297447
-0.18175247 -0.3961151 -0.09589216 0.047460426 0.3136225 0.28354558 -0.19340904 -0.18907563
-0.43433547 0.0073145544 -0.37776974 0.10140686 0.09027637 -0.38526788 0.46352744 0.069414064
0.25452262 -0.41833267 -0.16410892 -0.47354245 -0.17191222 -0.3091228 0.37620568 -0.29479712
0.30970544 0.42155606 0.018388709 0.30083913 0.17904712 0.38089648 0.07722261 0.017852094
-0.14803135 -0.36046615 -0.30913088 0.18270719 -0.45428425 -0.12552382 0.63051015 0.22913748
0.13592409 0.33556342 -0.47221503 -0.44103557 0.8644428 0.24224691 -0.22019641 0.02259906
-0.068026155 0.25841063 -0.20541432 0.23264661 0.05242613 0.33667755 -0.33997837 0.028197987
-0.29580978 -0.00954898 -0.17149067 -0.09455231 -0.47433716 0.33062506 -0.27571985 0.11001658
0.13150984 0.17888229 0.08832353 0.06855008 -0.10007904 0.008652062 0.09395917 0.013391827
-0.13336435 -0.67363244 0.35996404 0.12983039 -0.24531327 0.21211018 0.34586066 0.28922424
0.5182803 -0.044441845 0.30712837 0.36604312
00000000: f149 a6be 2335 0dbe d358 07be 2711 31be
00000010: db6e 903e f9c7 1cbf 42df 983d 7d93 173e
00000020: 2cea 04be 6ea5 a0be 2fad 8e3e eeaf 3a3f
00000030: d21b f1be 11c3 c4be 0173 46be b8f4 493e
00000040: e8aa 3a3d f16f 103f 75c2 103e fdda 303e
00000050: ad65 ca3d 3f6f 863c 1744 d8be b20a b23e
00000060: 1d6e ab3e f1d9 b4be 1696 87be 8d3c 943e
00000070: 2329 c73e 88bb 15be 4780 9ebe ede2 6bbe
00000080: 5176 aabc 7849 273e fee4 4bbe 4102 123e
00000090: 5f14 06bd 6758 3c3d ddc8 173f 1182 abbe
000000a0: 649a 39bd 6330 ed3e e1b2 703e ca4d 4fbe
000000b0: b0e0 843e 242e 6e3e f75b e23c 48cd 9cbe
000000c0: 3ef1 62be 6aa5 31bf b0de 00be a1ba c1be
000000d0: f9b8 a2be cd6a 7dbb 0004 9fbe 9195 783d
000000e0: a9d6 47be 1002 4bbe a2b3 4d3e b14d 81bd
000000f0: 977a a13b 6b1b b3be b528 993e 9802 18be
00000100: 9992 73be 876a 853e 69cc 2dbe 5049 e6bd
00000110: 2764 a93e 434e 843e 6f32 263e f618 ddbc
00000120: db43 afbe a88d e7be de00 483e a6c6 333e
00000130: d462 a6bc 6fb6 eb3d fe31 7bbe b872 59be
00000140: 7017 9abd 3c20 94bc c46b 00bd e081 86be
00000150: b559 e9bc 1ca5 57bf 2fb5 b6bd 4a0e e7bd
00000160: 537d 873e 592b a73e d877 13bf 585b 05be
00000170: 277f c23c e90a a4be 0d98 573d ec1a acbe
00000180: 8e2c 12bf 8c56 91be 8483 3f3e 34d7 7e3e
00000190: 5ff4 ba3e ac74 e53e 80ac 933a bd44 a7be
000001a0: 2c72 263e 14ee 24bd 436f bd3d a9d4 8ebe
000001b0: b8c0 d7be a8ae af3b 7cb8 02bf dc28 0dbf
000001c0: 86b9 d4be 08b6 03bd 353a d5bd 2007 943d
000001d0: 2146 953d a824 243f 3de5 d53e 7733 693e
000001e0: 668b 7e3e fc28 a03e 2c20 96be 5cbe 1dbf
000001f0: b8c3 183f d1a0 4bbf 7a1a 93be ff19 f83d
00000200: 2175 643d f3f9 57be 8733 113f 0899 f53b
00000210: f841 bd3a 7711 033f f565 90be e95c a53e
00000220: 521d 3abe 99cf cabe 1c63 c4bd dd65 423d
00000230: 2193 a03e e32c 913e 050d 46be 0b9d 41be
00000240: 3861 debe eeae ef3b 096b c1be 66ae cf3d
00000250: d1e2 b83d d541 c5be 7853 ed3e f628 8e3d
00000260: ca50 823e b32f d6be 2b0c 28be 2874 f2be
00000270: c209 30be 5845 9ebe 089e c03e a6ef 96be
00000280: b691 9e3e 32d6 d73e eba3 963c 9607 9a3e
00000290: 2158 373e dd04 c33e e326 9e3d 8e3e 923c
000002a0: 8895 17be 058f b8be 6746 9ebe 9817 3b3e
000002b0: f297 e8be 5189 00be 1d69 213f 04a3 6a3e
000002c0: af2f 0b3e f8ce ab3e 2bc6 f1be 6acf e1be
000002d0: 204c 5d3f 930f 783e 2b7b 61be aa21 b93c
000002e0: 4c51 8bbd 664e 843e 2258 52be ea3a 6e3e
000002f0: c8bc 563d 0061 ac3e a511 aebe 77ff e63c
00000300: 6174 97be 5373 1cbc 409b 2fbe a4a4 c1bd
00000310: 52dc f2be b047 a93e 272b 8dbe 5f50 e13d
00000320: 84aa 063e eb2c 373e f8e2 b43d fc63 8c3d
00000330: 3df6 ccbd 61c1 0d3c aa6d c03d 6569 5b3c
00000340: aa90 08be 2d73 2cbf 354d b83e 42f2 043e
00000350: 6733 7bbe 6933 593e a614 b13e 3315 943e
00000360: 05ae 043f a708 36bd ee3f 9d3e 016a bb3e

network_body._body_endoder.seq_layers.0.bias f4 [20]
0.044889886 -0.060001176 0.08120854 0.047055054 0.054940823 0.02536484 -0.05846293 0.025535544
-0.02629914 -0.016097024 0.08196105 0.008103376 -0.05690214 -0.02390373 0.06889058 -0.002291513
0.0364572 -0.00853873 0.052700292 0.06462458
00000000: 75de 373d cbc3 75bd aa50 a63d cdbc 403d
00000010: a109 613d edc9 cf3c d376 6fbd eb2f d13c
00000020: 4b71 d7bc e8dd 83bc 32db a73d 06c4 043c
00000030: 3812 69bd c1d1 c3bc 8116 8d3d 352d 16bb
00000040: 2554 153d 08e6 0bbc 43dc 573d e459 843d

action_model._continuous_distribution.log_sigma f4 [1, 2]
0.014408479 0.01670716
00000000: 8b11 6c3c 74dd 883c

action_model._continuous_distribution.mu.weight f4 [2, 20]
0.054230075 0.011717759 0.01787861 0.032242056 -0.050934914 0.08204086 0.007916408 0.019514699
-0.028651899 0.0021382233 -0.0062885494 -0.065061115 0.035623595 -0.030531157 -0.066700615 0.059808463
0.033881098 -0.036962405 0.09323385 -0.05252733 -0.051592883 -0.0987522 0.06577938 0.011653443
0.06985261 0.031914826 0.012694738 0.006996032 -0.015578796 -0.01805188 -0.013057068 0.015564333
-0.023194417 -0.057178363 0.06502062 0.02080165 0.06088437 -0.018606711 0.030088063 0.02300227
00000000: 5b20 5e3d d8fb 3f3c 2a76 923c 3f10 043d
00000010: 21a1 50bd 0a05 a83d d2b3 013c 4add 9f3c
00000020: 63b7 eabc 6f21 0c3b 2d10 cebb c33e 85bd
00000030: 0cea 113d 7a1c fabc 559a 88bd b8f9 743d
00000040: e8c6 0a3d e465 17bd 64f1 be3d e626 57bd
00000050: 0f53 53bd 983e cabd 57b7 863d 15ee 3e3c
00000060: e30e 8f3d 1fb9 023d 97fd 4f3c f83e e53b
00000070: 353e 7fbc 89e1 93bc 50ed 55bc 8b01 7f3c
00000080: 3802 bebc dc33 6abd 8829 853d 3968 aa3c
00000090: e461 793d 1a6d 98bc 3e7b f63c 426f bc3c

action_model._continuous_distribution.mu.bias f4 [2]
-0.0006430984 0.013603498
00000000: 9a95 28ba 35e1 5e3c

action_model._discrete_distribution.branches.0.weight f4 [2, 20]
-0.06494491 0.11245381 -0.06715629 0.044400588 0.05108241 0.040298175 0.13520041 0.034778092
0.061709404 0.071490295 -0.066778764 0.05117875 0.06788015 0.060169827 -0.086134404 0.040039208
0.06265427 0.08871601 -0.103597976 -0.08262006 0.078959405 -0.12388466 0.10441545 -0.0601635
-0.11117874 -0.06266036 -0.07634881 -0.047946714 -0.10301595 -0.062847495 0.06969809 -0.051884644
-0.07406947 -0.042468645 0.07505808 -0.04401688 -0.05693522 -0.06565245 0.076533385 0.035888504
00000000: d601 85bd 2f4e e63d 3d89 89bd 64dd 353d
00000010: ca3b 513d b30f 253d fa71 0a3e 7973 0e3d
00000020: 00c3 7c3d 8169 923d 4ec3 88bd cfa0 513d
00000030: c004 8b3d a374 763d 3c67 b0bd 2700 243d
00000040: e250 803d bdb0 b53d 2d2b d4bd b534 a9bd
00000050: 78b5 a13d 3eb7 fdbd c4d7 d53d 016e 76bd
00000060: aeb1 e3bd 1354 80bd c45c 9cbd c663 44bd
00000070: 07fa d2bd 30b6 80bd dfbd 8e3d fe84 54bd
00000080: bcb1 97bd 9af3 2dbd 0db8 993d 0b4b 34bd
00000090: e834 69bd cb74 86bd 89bd 9c3d d3ff 123d

action_model._discrete_distribution.branches.0.bias f4 [2]
-0.061905403 0.0619054
00000000: 8590 7dbd 8490 7d3d
