results/TestCurriculum1.2/SuperTank/SuperTank-7951.onnx (onnx, 79290 bytes, 9 tensors)

network_body.observation_encoder.processors.0.normalizer.running_mean f4 [6]
-2.131212 0.21966933 -1.0888518 0.59992456 0.21997225 -1.2298456
00000000: c765 08c0 fff0 603e 7f5f 8bbf a894 193f
00000010: 6840 613e 956b 9dbf

network_body._body_endoder.seq_layers.0.weight f4 [128, 6]
-0.61902416 0.5686638 0.16049537 -0.70808303 0.67684454 -0.12593764 0.06571783 0.8850395
0.19377074 -0.7697351 -0.14871433 -0.5898337 0.007373046 -0.17877325 0.19803087 0.28806493
0.26428664 -0.1522885 -0.46724516 -0.5479928 0.098648205 -0.028854918 0.1859159 -0.12823386
-0.43362263 -0.653206 0.47670913 0.24366163 0.40524217 -0.3082863 -0.026110938 -0.09136278
-0.24672127 0.5810035 0.22135577 -0.46853414 -0.1762495 -0.6564044 0.0018593819 0.34521842
-0.26550537 0.028304305 -0.36604032 -0.14749914 0.3653397 0.15661204 -0.093850166 -0.4350146
-0.08381138 0.50284386 -0.04470477 0.60762763 0.40767497 0.73070335 0.36234567 0.40674552
-0.45345134 0.7662432 0.26842964 -0.19203186 -0.103728436 -0.821699 -0.26631284 0.3085631
0.13930367 0.19742996 0.2230652 0.36880466 -0.6842109 -0.06323221 0.034578525 -0.101639815
0.4923221 -0.56018186 -0.5682042 0.1177891 0.31826636 -0.5125772 1.0663409 -0.008465151
-0.80305153 -0.04309065 -0.20056957 0.34925646 0.3836569 -0.02815654 0.32380974 0.2573321
-0.17874104 0.42309996 -0.45344466 0.009417375 0.68034655 0.40975338 -0.24348429 -0.14713797
-0.6342151 -0.29965556 -0.98310435 -0.24780358 0.284618 -0.16468866 0.2761862 0.173399
-0.02773186 0.20255286 -0.2158022 0.51675326 -0.15629245 0.047414973 0.19881546 -0.30002704
0.37677652 0.400614 0.1660054 0.0345903 -0.3242381 -0.24763148 -0.043415654 0.2985206
-0.6810811 0.009148025 -0.64775664 0.1975721 0.27377036 0.34759563 0.6003241 0.08094891
0.73091805 0.40338063 -0.43636715 0.30591658 0.04262617 -0.1791492 1.4090713 -0.01568126
-0.5739381 0.40551975 -0.31860477 -0.69093436 0.18053493 0.3894879 0.27765453 -0.4786645
0.34023246 0.55382603 0.17270553 -0.059446517 7.8313074e-05 -0.079433404 -0.13095216 0.3518787
0.11870957 0.14532046 -0.36833453 -0.56121373 -0.93987805 -0.39556733 0.68447506 -0.39428812
-0.207065 -0.02928655 0.10677077 -0.43543163 -0.064885095 -0.22783406 0.5313022 0.49888912
-0.94994694 0.49584922 -0.28157106 -0.1429117 -0.5211491 0.2327237 -0.25050512 0.42686352
-0.9274001 1.2119961 0.7119299 -0.4808497 -0.656053 -0.46801418 -0.011721931 -0.30402625
-0.24929252 0.15117468 0.023876118 0.32963327 -0.36698744 -0.11295024 0.13507095 -0.40559676
-0.58028376 -0.40186068 -0.39280823 -0.4050238 -0.14753477 -0.07206402 0.01739718 0.43822157
-0.019146755 0.0769718 0.4664606 0.18752699 0.09160761 -0.10485852 -0.47900358 -0.2073826
0.13179079 -0.71859854 0.48773575 -0.22233279 0.33837202 -0.21385866 0.3825727 0.22741164
-0.33103585 0.47622713 -0.33278438 0.089131266 -0.3508559 -0.59874517 0.10282004 -0.017569259
-0.16664201 0.6117536 0.084362745 0.056862097 0.46415442 0.7193372 -0.2866722 -0.54919785
0.4653049 -1.1412584 -0.067673475 -0.2713674 -0.48749346 0.20398799 -0.10482911 -0.04952725
0.44203877 -0.21310346 -0.77072287 0.58446765 0.35147506 0.31609836 0.4918843 -0.01591312
0.27609044 0.19889258 0.6853402 -0.2901833 0.88634735 -0.070759185 -0.2176674 0.2635152
00000000: 5e78 1ebf f393 113f e658 243e ee44 35bf
00000010: af45 2d3f ccf5 00be 1297 863d f391 623f
00000020: d66b 463e 5c0d 45bf 9248 18be 57ff 16bf
00000030: 9899 f13b 5610 37be 9bc8 4a3e 3f7d 933e
00000040: 9450 873e 84f1 1bbe c23a efbe 4249 0cbf
00000050: 1208 ca3d 2661 ecbc bd60 3e3e bd4f 03be
00000060: c903 debe 8238 27bf 3813 f43e 6f82 793e
00000070: e77b cf3e b4d7 9dbe 9be6 d5bc 691c bbbd
00000080: 80a4 7cbe a5bc 143f 16ab 623e b5e3 efbe
00000090: c07a 34be 1e0a 28bf 81b6 f33a 78c0 b03e
000000a0: 52f0 87be 6ede e73c a369 bbbe 040a 17be
000000b0: ce0d bb3e e85e 203e 8434 c0bd 3cba debe
000000c0: 4da5 abbd 60ba 003f 591c 37bd 7c8d 1b3f
000000d0: c6ba d03e 600f 3b3f 5f85 b93e f340 d03e
000000e0: c62a e8be 8428 443f 9c6f 893e 00a4 44be
000000f0: 936f d4bd de5a 52bf 285a 88be fcfb 9d3e
00000100: 9fa5 0e3e 142b 4a3e 346b 643e f7d3 bc3e
00000110: 7228 2fbf e47f 81bd 36a2 0d3d 8928 d0bd
00000120: a411 fc3e 1468 0fbf d575 11bf 693b f13d
00000130: cff3 a23e 4238 03bf dc7d 883f 6bb1 0abc
00000140: c994 4dbf d27f 30bd 1c62 4dbe bed1 b23e
00000150: ad6e c43e 8ba8 e6bc 64ca a53e 08c1 833e
00000160: e407 37be 8fa0 d83e e629 e8be 554b 1a3c
00000170: 312b 2e3f 32cb d13e f253 79be 56ab 16be
00000180: ec5b 22bf 746c 99be baac 7bbf 39c0 7dbe
00000190: 73b9 913e 25a4 28be 4768 8d3e 828f 313e
000001a0: ed2d e3bc 046a 4f3e 40fb 5cbe f149 043f
000001b0: 210b 20be 3436 423d 4896 4b3e 259d 99be
000001c0: dae8 c03e 471d cd3e 52fd 293e 8fae 0d3d
000001d0: 8902 a6be 1b93 7dbe 9dd4 31bd b1d7 983e
000001e0: 555b 2ebf 99e1 153c 61d3 25bf 5750 4a3e
000001f0: a12b 8c3e 0ef8 b13e d7ae 193f 8bc8 a53d
00000200: 721d 3b3f e887 ce3e 846b dfbe 19a1 9c3e
00000210: c798 2e3d e372 37be 735c b43f fc75 80bc
00000220: 9bed 12bf 49a0 cf3e 2a20 a3be 13e1 30bf
00000230: 26de 383e f56a c73e bc28 8e3e 8313 f5be
00000240: f332 ae3e 8bc7 0d3f b8d9 303e 317e 73bd
00000250: 033c a438 fbad a2bd 5318 06be 7229 b43e
00000260: 011e f33d e3ce 143e 5896 bcbe b4ab 0fbf
00000270: d99b 70bf cd87 cabe c239 2f3f 22e0 c9be
00000280: d908 54be 59ea efbc a2aa da3d e5f0 debe
00000290: 7ae2 84bd 554d 69be 6c03 083f 656e ff3e
000002a0: b92f 73bf f3df fd3e 152a 90be 7257 12be
000002b0: 076a 05bf 1f4f 6e3e 3542 80be db8d da3e
000002c0: 186a 6dbf b022 9b3f 0a41 363f ef31 f6be
000002d0: 17f3 27bf 8e9f efbe 580d 40bc 54a9 9bbe
000002e0: 8a46 7fbe 89cd 1a3e d997 c33c b1c5 a83e
000002f0: c7e5 bbbe 7552 e7bd 0a50 0a3e 61aa cfbe
00000300: 7a8d 14bf afc0 cdbe 291e c9be 485f cfbe
00000310: 5b13 17be 4d96 93bd 8884 8e3c 945e e03e
00000320: a8d9 9cbc 64a3 9d3d ecd3 ee3e 1307 403e
00000330: c59c bb3d 10c0 d6bd f53f f5be 1b5c 54be
00000340: 2af4 063e 13f6 37bf 80b8 f93e 35ab 63be
00000350: 193f ad3e c4fd 5abe 92e0 c33e 99de 683e
00000360: 887d a9be 0bd4 f33e b762 aabe 748a b63d
00000370: 62a3 b3be 5d47 19bf 5093 d23d 68ed 8fbc
00000380: 34a4 2abe e29b 1c3f 60c6 ac3d 3be8 683d
00000390: a6a5 ed3e 7c26 383f b3c6 92be 3b98 0cbf
000003a0: 723c ee3e c114 92bf 6498 8abd abf0 8abe
000003b0: be98 f9be 3ae2 503e a5b0 d6bd 16dd 4abd
000003c0: e852 e23e cb37 5abe 184e 45bf ac9f 153f
000003d0: 8af4 b33e a5d7 a13e 42d8 fb3e 3b5c 82bc
000003e0: ba5b 8d3e 7faa 4b3e 7572 2f3f e892 94be
000003f0: a9e7 623f 31ea 90bd 34e4 5ebe 77eb 863e

network_body._body_endoder.seq_layers.0.bias f4 [128]
0.0 0.0 0.0 0.0 0.0 0.0 0.0 0.0
0.0 0.0 0.0 0.0 0.0 0.0 0.0 0.0
0.0 0.0 0.0 0.0 0.0 0.0 0.0 0.0
0.0 0.0 0.0 0.0 0.0 0.0 0.0 0.0
0.0 0.0 0.0 0.0 0.0 0.0 0.0 0.0
0.0 0.0 0.0 0.0 0.0 0.0 0.0 0.0
0.0 0.0 0.0 0.0 0.0 0.0 0.0 0.0
0.0 0.0 0.0 0.0 0.0 0.0 0.0 0.0
0.0 0.0 0.0 0.0 0.0 0.0 0.0 0.0
0.0 0.0 0.0 0.0 0.0 0.0 0.0 0.0
0.0 0.0 0.0 0.0 0.0 0.0 0.0 0.0
0.0 0.0 0.0 0.0 0.0 0.0 0.0 0.0
0.0 0.0 0.0 0.0 0.0 0.0 0.0 0.0
0.0 0.0 0.0 0.0 0.0 0.0 0.0 0.0
0.0 0.0 0.0 0.0 0.0 0.0 0.0 0.0
0.0 0.0 0.0 0.0 0.0 0.0 0.0 0.0
00000000: 0000 0000 0000 0000 0000 0000 0000 0000
00000010: 0000 0000 0000 0000 0000 0000 0000 0000
00000020: 0000 0000 0000 0000 0000 0000 0000 0000
00000030: 0000 0000 0000 0000 0000 0000 0000 0000
00000040: 0000 0000 0000 0000 0000 0000 0000 0000
00000050: 0000 0000 0000 0000 0000 0000 0000 0000
00000060: 0000 0000 0000 0000 0000 0000 0000 0000
00000070: 0000 0000 0000 0000 0000 0000 0000 0000
00000080: 0000 0000 0000 0000 0000 0000 0000 0000
00000090: 0000 0000 0000 0000 0000 0000 0000 0000
000000a0: 0000 0000 0000 0000 0000 0000 0000 0000
000000b0: 0000 0000 0000 0000 0000 0000 0000 0000
000000c0: 0000 0000 0000 0000 0000 0000 0000 0000
000000d0: 0000 0000 0000 0000 0000 0000 0000 0000
000000e0: 0000 0000 0000 0000 0000 0000 0000 0000
000000f0: 0000 0000 0000 0000 0000 0000 0000 0000
00000100: 0000 0000 0000 0000 0000 0000 0000 0000
00000110: 0000 0000 0000 0000 0000 0000 0000 0000
00000120: 0000 0000 0000 0000 0000 0000 0000 0000
00000130: 0000 0000 0000 0000 0000 0000 0000 0000
00000140: 0000 0000 0000 0000 0000 0000 0000 0000
00000150: 0000 0000 0000 0000 0000 0000 0000 0000
00000160: 0000 0000 0000 0000 0000 0000 0000 0000
00000170: 0000 0000 0000 0000 0000 0000 0000 0000
00000180: 0000 0000 0000 0000 0000 0000 0000 0000
00000190: 0000 0000 0000 0000 0000 0000 0000 0000
000001a0: 0000 0000 0000 0000 0000 0000 0000 0000
000001b0: 0000 0000 0000 0000 0000 0000 0000 0000
000001c0: 0000 0000 0000 0000 0000 0000 0000 0000
000001d0: 0000 0000 0000 0000 0000 0000 0000 0000
000001e0: 0000 0000 0000 0000 0000 0000 0000 0000
000001f0: 0000 0000 0000 0000 0000 0000 0000 0000

network_body._body_endoder.seq_layers.2.weight f4 [128, 128]
-0.023732424 -0.008473619 0.008643275 0.06068686 -0.01936077 -0.004238156 -0.107864834 -0.0522317
-0.085627235 0.10544545 -0.12582383 0.08008662 -0.077048704 -0.06104287 0.11613801 -0.048760563
0.04436772 0.034048244 -0.03057209 0.048586514 -0.081376486 0.046037197 -0.095944025 -0.019757306
0.05111743 -0.027346253 -0.10863158 0.052559618 0.07174625 0.04571986 0.11209843 0.010764024
-0.07649514 0.0013665538 -0.03241055 -0.01773929 -0.030261304 -0.039229866 -0.19084716 0.0003847259
-0.11184621 -0.1840705 0.091426216 -0.04820995 0.052770637 -0.06287043 -0.045098998 -0.054196388
0.063667916 0.059445653 -0.074903056 0.020756062 -0.11260345 -0.13786317 0.033763554 0.062215682
0.09173313 -0.022205403 0.16484146 -0.04879085 -0.046142884 -0.04024496 -0.07425891 -0.050463423
0.05103027 0.08582338 0.03322078 -0.012298416 0.014402161 0.09528847 0.022172108 0.048966777
-0.18982613 0.07749187 0.10552221 -0.009921643 -0.0542939 0.07256355 -0.04348279 -0.06526643
-0.1147296 0.12653616 0.04369995 -0.05563674 0.027987024 0.06369236 -0.07644274 0.110228814
0.040422875 -0.12287981 -0.08584917 0.025598336 0.08427806 -0.01580407 -0.100266665 0.0015538451
-0.15245782 -0.13279541 0.09098769 -0.116270885 0.07918669 -0.04274048 -0.08161175 0.045447208
-0.06267939 0.045172136 0.13808414 0.054434117 -0.15036939 0.03260983 0.14162123 -0.06603187
0.034965724 0.015496544 0.0938895 0.07030366 -0.043039415 -0.05509774 -0.010662549 -0.017832221
-0.028562082 -0.23405287 0.17800233 0.040851813 -0.014319635 -0.012186236 0.061636657 -0.014953799
-0.03729874 0.071358345 -0.012216996 -0.0074263695 -0.09403728 -0.11281903 0.1895835 -0.15742888
-0.047572386 -0.00988071 -0.09657517 -0.08149137 0.030783763 0.10856795 -0.02199643 0.08549426
-0.037964664 -0.087553106 0.032789096 -0.0023909344 0.08580324 0.040780853 0.042253595 -0.10188246
-0.25762138 0.031551056 -0.060998823 0.006050712 0.21332821 -0.042898152 0.108664274 -0.09522248
0.0068038306 0.049397934 -0.0974455 -0.11394232 -0.01353306 -0.034545094 0.014294207 -0.10489135
-0.056688968 -0.103004515 0.034874063 0.08203787 0.060259886 -0.16476287 0.07357877 0.08162515
-0.014648657 -0.06207413 0.008532527 -0.027405048 -0.05468515 0.004068511 0.16578028 0.16272023
-0.15577011 -0.036591776 -0.28159633 0.0780376 -0.0063495636 -0.050548997 -0.0259619 0.043853633
-0.0690101 -0.0462892 0.06823779 -0.009531522 -0.1843912 -0.07117156 -0.19995086 0.091306075
0.016367603 -0.1396254 0.06641832 0.011649448 0.0057853535 -0.07115208 -0.07758658 0.024272839
-0.02932663 -0.04680363 -0.056453474 -0.14294875 0.0026485035 0.06757926 0.0336566 -0.111882634
-0.07918446 0.008314418 -0.052470375 -0.004319599 0.06282613 0.06734336 0.01593656 0.1297305
0.14032395 -0.06147387 0.04136873 0.066635326 0.01503929 -0.029902825 0.022613315 0.044050895
0.06281933 -0.029695429 -0.026517281 0.0012969817 0.16169296 0.07804412 0.079050995 -0.086477116
-0.017051177 -0.14300206 -0.17308505 0.14816937 -0.02432508 0.1190299 0.02163719 0.12421447
-0.043159124 -0.07459309 0.06770703 -0.0017817221 -0.1019928 0.14012471 0.104204886 0.03973545
00000000: 806a c2bc efd4 0abc 869c 0d3c c992 783d
00000010: 7a9a 9ebc 3be0 8abb 3de8 dcbd e8f0 55bd
00000020: 555d afbd c9f3 d73d f6d7 00be 7404 a43d
00000030: b6cb 9dbd 1708 7abd c4d9 ed3d 28b9 47bd
00000040: edba 353d 2c76 0b3d 5272 fabc a702 473d
00000050: b7a8 a6bd 8091 3c3d 4d7e c4bd 13da a1bc
00000060: 8360 513d 4005 e0bc 3c7a debd c148 573d
00000070: b3ef 923d bf44 3b3d dd93 e53d 975b 303c
00000080: 7ca9 9cbd f01d b33a edc0 04bd fd51 91bc
00000090: 8ee6 f7bc 7faf 20bd 706d 43be 09b5 c939
000000a0: a00f e5bd fa7c 3cbe ab3d bb3d cc77 45bd
000000b0: 0626 583d 36c2 80bd bab9 38bd 08fd 5dbd
000000c0: 5364 823d 497d 733d c666 99bd 9e08 aa3c
000000d0: a39c e6bd 012c 0dbe a74b 0a3d dfd5 7e3d
000000e0: 94de bb3d 1be8 b5bc 33cc 283e ead8 47bd
000000f0: 5200 3dbd e6d7 24bd 0e15 98bd bcb2 4ebd
00000100: 1e05 513d 2bc4 af3d 8312 083d 4c7f 49bc
00000110: 0bf7 6b3c 9a26 c33d 48a2 b53c 6391 483d
00000120: c861 42be 0fb4 9e3d 071c d83d 638e 22bc
00000130: 4863 5ebd 339c 943d 031b 32bd 68aa 85bd
00000140: 5af7 eabd b292 013e b8fe 323d 5ae3 63bd
00000150: 0b45 e53c 2471 823d 038e 9cbd a5bf e13d
00000160: 7592 253d 69a8 fbbd b1d1 afbd 9ab3 d13c
00000170: fa99 ac3d 8977 81bc 9c58 cdbd 64aa cb3a
00000180: e71d 1cbe 85fb 07be c157 ba3d 6e1f eebd
00000190: a22c a23d a410 2fbd 1024 a7bd da26 3a3d
000001a0: 0d5e 80bd 6b06 393d ee65 0d3e 4ff6 5e3d
000001b0: 6ffa 19be e391 053d 2805 113e b83b 87bd
000001c0: 3838 0f3d 37e5 7d3c 2349 c03d 5efb 8f3d
000001d0: 194a 30bd 2bae 61bd f9b1 2ebc e114 92bc
000001e0: 07fb e9bc 8eab 6fbe 3e46 363e 3b54 273d
000001f0: e79c 6abc c7a8 47bc b876 7c3d c700 75bc
00000200: 90c6 18bd 5324 923d cc29 48bc e758 f3bb
00000210: 9e96 c0bd aa0d e7bd 2d22 423e 0935 21be
00000220: 43db 42bd b4e2 21bc 34c9 c5bd f3e4 a6bd
00000230: 3b2e fc3c e058 de3d db31 b4bc 9d17 af3d
00000240: d680 1bbd 0b4f b3bd dc4d 063d 39b1 1cbb
00000250: 9cb9 af3d d309 273d 1b12 2d3d c0a7 d0bd
00000260: f3e6 83be ae3b 013d e7d9 79bd 0d45 c63b
00000270: b672 5a3e f9b5 2fbd 608b de3d 0104 c3bd
00000280: abf2 de3b 7d55 4a3d 8291 c7bd 975a e9bd
00000290: c5b9 5dbc 287f 0dbd 4032 6a3c 47d1 d6bd
000002a0: b132 68bd 08f4 d2bd 1bd8 0e3d 7903 a83d
000002b0: 12d3 763d 99b7 28be 77b0 963d 162b a73d
000002c0: ec00 70bc 7141 7ebd 03cc 0b3c 8d80 e0bc
000002d0: 89fd 5fbd 2551 853b 4ec2 293e 22a0 263e
000002e0: 3382 1fbe 42e1 15bd 652d 90be 2dd2 9f3d
000002f0: 0010 d0bb 770c 4fbd 0dae d4bc de9f 333d
00000300: 2b55 8dbd bf99 3dbd 41c0 8b3d 1a2a 1cbc
00000310: 0cd1 3cbe 65c2 91bd ebbf 4cbe aefe ba3d
00000320: 5a15 863c f6f9 0ebe 5406 883d 54dd 3e3c
00000330: 1093 bd3b 2fb8 91bd b6e5 9ebd d5d7 c63c
00000340: 673e f0bc 2ab5 3fbd c23b 67bd 2861 12be
00000350: 8492 2d3b ff66 8a3d 81db 093d b922 e5bd
00000360: 762b a2bd 3239 083c 2deb 56bd 6c8b 8dbb
00000370: fcaa 803d 51eb 893d 648d 823c 12d8 043e
00000380: 15b1 0f3e 06cc 7bbd 4272 293d 1a78 883d
00000390: 5b67 763c c5f6 f4bc 8f3f b93c b66e 343d
000003a0: 6ca7 803d d443 f3bc c53a d9bc 7cff a93a
000003b0: d792 253e 98d5 9f3d 7de5 a13d ea1a b1bd
000003c0: e9ae 8bbc 226f 12be 353d 31be b6b9 173e
000003d0: 6445 c7bc f3c5 f33d 7a40 b13c 2864 fe3d
000003e0: 9fc7 30bd 43c4 98bd fca9 8a3d ac88 e9ba
000003f0: 9ae1 d0bd da7c 0f3e 5f69 d53d a4c1 223d

action_model._continuous_distribution.log_sigma f4 [1, 2]
0.0 0.0
00000000: 0000 0000 0000 0000

action_model._continuous_distribution.mu.weight f4 [2, 128]
0.00061616336 -0.006959162 -0.026893808 0.03420153 0.02767092 0.02312234 0.018505435 -0.012513491
-0.0034980779 -0.008399894 -0.016586563 -0.020921262 -0.024924038 0.0017415815 0.0036221426 -0.015351631
-0.030524129 -0.03147477 0.0012494989 -0.014237641 -0.019068 0.031216726 -0.011628277 0.019944733
-0.038646627 -0.0028038502 0.0060600857 0.010689881 0.017292432 -0.008572494 -0.01982347 0.0072857463
0.0019565271 -0.004931498 -0.017591799 0.004683343 0.0037131887 0.008111283 0.006558725 -0.002027909
-0.013476131 -0.028118754 0.0041033435 -0.005051886 0.03587357 0.013466144 -0.021324275 0.058408976
-0.015391498 0.0042200326 0.013932655 -0.00215157 -0.013002822 0.019919582 0.031098787 0.034198504
0.0007216265 -0.012790698 0.035218503 -0.0068801865 -0.0039133425 -0.024835538 0.0062758336 0.004990715
-0.01308802 0.027608028 0.00047550816 -0.0010947741 -0.020028373 0.013114325 0.002547625 0.0044195615
-0.026053602 -0.011572956 0.027042994 0.011389522 -0.0135263195 -0.00979518 0.010153515 0.007923417
0.009094757 -0.019629834 -0.0037655297 -0.02403537 0.033394113 -0.0033624656 0.0149172265 0.019512849
0.031115696 -0.008408899 -0.0018987829 -0.021205364 0.032629844 -0.027362553 -0.020399407 0.0002459059
-0.017331908 0.016038716 -0.004733374 0.0072215497 0.020148624 -0.02718922 -0.03050742 0.023686334
-0.012688798 -0.013408169 0.025857782 0.0119354455 -0.017631432 0.010342935 0.0105396975 -0.0029856376
0.001203608 -0.016845142 -0.022052338 0.0323915 -0.024830006 0.00938151 0.006896566 0.012064739
-0.013371386 -0.03890032 0.003218414 0.022450365 0.0048604044 -0.007637549 0.0030573348 -0.023339577
0.004440985 0.024380391 -0.0334764 0.0001359846 -0.020361345 -0.008916018 -0.024380244 0.013956897
0.029603763 0.025991747 0.015614661 -0.025366664 -0.015355656 0.04702957 -0.016226139 -0.0017824725
0.022381704 -0.013534377 -0.015149325 0.004736965 0.00678035 0.02677018 0.0045123114 -0.002068727
-0.024165224 -0.00020988243 -0.015940709 -0.02857097 -0.035275068 -0.0065573975 -0.043121766 0.008707205
-0.0016395831 0.0014200802 0.013379293 -0.024794517 0.014609957 0.014865495 -0.01353731 8.590877e-06
0.001349753 0.032338537 0.0135625275 0.00032465078 0.012668498 0.0015685093 0.015642243 -0.0036603396
0.005764684 -0.03614929 0.0054491437 0.008125327 0.024840068 -0.021590732 -0.019374441 0.024036206
0.011275216 -0.029987449 -0.0057631047 0.011937532 -0.03914601 -0.0016270254 0.014059936 -0.013010754
0.00984406 0.018411946 -0.014820381 -0.024376424 0.017012967 -0.0038100153 0.012748945 -0.0007387513
0.0051854164 0.019417316 -0.014498802 -0.0037547082 -0.02786398 -0.00020202524 -0.011700097 0.026508594
0.033454094 0.0074601355 -0.0117484825 -0.009841359 -0.019289581 0.009309648 -0.015440814 -0.022060623
0.019384388 0.021488776 -0.031538498 0.017165942 0.026452526 0.013637903 0.021812774 -0.031372618
-0.0024649047 -0.009232023 -0.022659745 -0.033430915 -0.017996468 -0.009352238 0.017581915 0.0051994645
0.008878731 0.019702768 -0.033413146 0.012275812 -0.007519229 0.027221585 -0.0225448 -0.0053136568
0.02934297 0.021017728 -0.0032987779 -0.016743014 -0.013686922 -0.02374275 0.0044978866 -0.029282942
-0.017595427 -0.04041122 -0.012061195 0.0058804047 -0.0023868792 0.0002938701 -0.005634835 -0.01452367
00000000: 0686 213a af09 e4bb 6750 dcbc e716 0c3d
00000010: 20ae e23c 106b bd3c b698 973c 6305 4dbc
00000020: 0240 65bb b69f 09bc 8be0 87bc 1163 abbc
00000030: 7f2d ccbc c745 e43a 7861 6d3b 6885 7bbc
00000040: bd0d fabc b0eb 00bd 3ac6 a33a ff44 69bc
00000050: 7f34 9cbc 38ba ff3c 8784 3ebc 2363 a33c
00000060: ed4b 1ebd cdc0 37bb af93 c63b 9c24 2f3c
00000070: dca8 8d3c a573 0cbc d464 a2bc 45bd ee3b
00000080: 1439 003b 6798 a1bb ad1c 90bc bb76 993b
00000090: f858 733b 30e5 043c 93ea d63b abe6 04bb
000000a0: fdca 5cbc 4d59 e6bc 5775 863b 4b8a a5bb
000000b0: 2af0 123d 1aa1 5c3c 3fb0 aebc 403e 6f3d
000000c0: 9f2c 7cbc 3348 8a3b ca45 643c 5b01 0dbb
000000d0: ca09 55bc 642e a33c e2c2 fe3c bb13 0c3d
000000e0: 892b 3d3a 1390 51bc 4741 103d 3073 e1bb
000000f0: 7f3b 80bb e673 cbbc 82a5 cd3b 2789 a33b
00000100: 226f 56bc 3b2a e23c a04d f939 867e 8fba
00000110: 8b12 a4bc 77dd 563c 0ef6 263b f8d1 903b
00000120: 5d6e d5bc 7f9c 3dbc 4589 dd3c 1e9b 3a3c
00000130: 7f9d 5dbc f67b 20bc ee5a 263c 38d1 013c
00000140: 2d02 153c bfce a0bc 1bc7 76bb d3e5 c4bc
00000150: 44c8 083d d05c 5cbb 6267 743c 69d9 9f3c
00000160: 58e6 fe3c 7bc5 09bc 95e0 f8ba dfb6 adbc
00000170: dfa6 053d 6f27 e0bc a81c a7bc eeec 8039
00000180: a5fb 8dbc a063 833c 6b1a 9bbb c0a2 ec3b
00000190: ba0e a53c edbb debc b2ea f9bc d809 c23c
000001a0: ade4 4fbc f0ad 5bbc b3d3 d33c e38c 433c
000001b0: cb6f 90bc 6a75 293c b2ae 2c3c b0aa 43bb
000001c0: 62c2 9d3a d3fe 89bc 1ba7 b4bc f3ac 043d
000001d0: 4c68 cbbc e8b4 193c 97fc e13b 2fab 453c
000001e0: a813 5bbc f155 1fbd 07ec 523b d4e9 b73c
000001f0: 0744 9f3b 6844 fabb 915d 483b a432 bfbc
00000200: af85 913b 63b9 c73c 8d1e 09bd 1797 0e39
00000210: d6cc a6bc 7d14 12bc 14b9 c7bc 78ab 643c
00000220: 9783 f23c a5ec d43c a3d4 7f3c c0cd cfbc
00000230: 4a96 7bbc 14a2 403d aeec 84bc daa1 e9ba
00000240: d659 b73c 4bbf 5dbc e034 78bc 8b38 9b3b
00000250: b32d de3b 234d db3c 03dc 933b 7b93 07bb
00000260: 26f6 c5bc e313 5cb9 1796 82bc ab0d eabc
00000270: 977c 10bd 70df d6bb 73a0 30bd aaa8 0e3c
00000280: 48e7 d6ba fc21 ba3a d234 5b3c df1d cbbc
00000290: 9a5e 6f3c 688e 733c 98cb 5dbc 8921 1037
000002a0: 32ea b03a 6a75 043d 5d35 5e3c e435 aa39
000002b0: 888f 4f3c 7096 cd3a 2924 803c 4fe2 6fbb
000002c0: ade5 bc3b 4711 14bd bb8e b23b 1720 053c
000002d0: 667d cb3c 0cdf b0bc 26b7 9ebc 94e7 c43c
000002e0: afbb 383c 3da8 f5bc 6dd8 bcbb a395 433c
000002f0: 9157 20bd ea41 d5ba a55b 663c 0f2b 55bc
00000300: fb48 213c a6d4 963c 2fd1 72bc 11b1 c7bc
00000310: c75e 8b3c 73b1 79bb f3e0 503c c3a8 41ba
00000320: 6dea a93b 1011 9f3c 628c 6dbc 8d11 76bb
00000330: 0043 e4bc bdd6 53b9 c3b1 3fbc 8d28 d93c
00000340: 2907 093d 2774 f43b b57c 40bc a73d 21bc
00000350: 2f05 9ebc 7e87 183c 78fb 7cbc 7bb8 b4bc
00000360: 02cc 9e3c 3b09 b03c 832e 01bd 979f 8c3c
00000370: f8b2 d83c 8371 5f3c b4b0 b23c 9380 00bd
00000380: 3d8a 21bb e941 17bc eea0 b9bc dbee 08bd
00000390: 546d 93bc 213a 19bc f307 903c 4560 aa3b
000003a0: 1978 113c b367 a13c 39dc 08bd 7d20 493c
000003b0: dd63 f6bb cdff de3c dfaf b8bc 2f1e aebb
000003c0: ab60 f03c 5f2d ac3c 4f30 58bb a528 89bc
000003d0: 1d3f 60bc 2880 c2bc 0263 933b c8e2 efbc
000003e0: 4924 90bc 3c86 25bd 529c 45bc 69b0 c03b
000003f0: 306d 1cbb 9412 9a39 6ca4 b8bb b0f4 6dbc

action_model._continuous_distribution.mu.bias f4 [2]
0.0 0.0
00000000: 0000 0000 0000 0000

action_model._discrete_distribution.branches.0.weight f4 [2, 128]
0.019208258 -0.01964218 -0.0019984501 0.004801943 0.008728989 -0.011112018 0.009823669 0.0024027003
0.009076259 0.011462091 -0.0031211 0.00091256 -0.010107279 0.00052723027 -0.020581763 0.016538955
-0.01316902 0.010509672 0.0013589627 -0.008344684 0.0058475477 0.008445073 -0.0030421687 0.0065519735
-0.0063979565 -0.0036739383 -0.011346455 0.002143633 0.011085111 -0.009090944 0.00015478143 0.0054879463
0.011157154 0.010501956 -0.003830174 0.016242053 0.011094625 0.01530699 0.0067389742 -0.0015513129
-0.004018812 0.008131344 -0.0048328657 0.017301282 0.0023117082 0.008025804 0.009581094 0.0076222583
0.0036521354 -0.011443914 -0.0002563175 0.009913831 -0.0035275617 -0.0034892627 -0.0041039772 0.0059986785
0.0015466779 0.0028401993 0.0011146254 0.002639966 0.009198292 0.001121831 -0.0024909095 -0.01027514
-0.0052381037 0.00907166 0.0140345665 0.009365112 -0.003079392 -0.0023542384 0.0061233547 0.01284604
0.0047731805 0.011132504 0.012279897 0.017370164 0.016655967 -0.003013258 0.013894369 0.004740426
0.0051265787 0.0037107493 0.0034712062 0.0055632023 -0.0057115476 0.0018369278 0.013666726 -0.007623078
-0.0062533855 -0.004804593 0.0026023183 -0.009696761 0.0048338594 0.012838706 0.004393651 0.0018681685
0.019688485 0.004794722 -0.0003287317 -0.004609746 -0.0072506675 0.0062450375 -0.000508475 -0.0022416369
-0.00024321042 0.0034395636 0.0024826108 -0.0009499363 0.00049479044 0.014542006 0.002954302 -0.0017365365
0.016791971 0.008963625 0.012358134 0.0107962405 -0.022379342 0.012101791 -0.013060405 0.0028158713
0.0016999083 0.008404857 0.0031115725 0.0041853897 -0.004833288 0.0003023132 0.0051576523 0.00016517278
-0.002802635 0.0031437657 0.0027342013 -0.008610361 -0.0063408464 0.0050558425 -0.0052691363 0.00013145941
-0.011315859 0.0053633135 -0.009792087 0.0046587815 0.011520213 -0.015055828 0.0044898107 -0.003347563
-0.004515871 -0.0122102415 0.016845746 0.009930231 0.008380246 0.0039093117 -0.00024268896 0.026033962
0.0072259293 0.0005600289 -0.01048075 0.0012236891 0.0017750303 -0.0016996311 0.008744422 -0.0013282703
0.008875055 -0.018342098 0.002301743 0.00997019 -0.004179835 -0.0124950465 0.010592461 0.004946069
0.0027645119 -0.0077707036 -0.006424483 -0.016699342 0.01469248 -0.0043531237 -0.00089078787 -0.004323862
0.008982591 0.007133223 -0.009181191 -0.014048661 0.0032149453 0.0035960455 -0.006499623 -0.0027164815
-0.0023872694 0.0042974004 -0.0074693463 -0.008051989 0.022175152 -0.004789255 0.008722771 -0.0006783442
-0.00649167 -0.004084453 -0.0015683845 -0.003685083 0.013533224 0.009255372 -0.0039583836 -0.00034262225
0.013321459 -4.329533e-05 0.0031781073 -0.0055565746 -0.0050400845 -0.0040278505 -0.0073078596 0.0041083694
0.013510737 -0.015522462 0.0012409575 0.020438783 -0.016981227 0.019163938 -0.0044358084 0.00982454
0.0042342 0.0052887313 -0.0149911735 0.002598916 -0.002396517 0.0030913753 -0.00039158194 0.003411489
0.010604768 0.005692337 -0.0034608783 -0.011128246 0.0032580234 -0.010427932 0.0017023663 -0.0050396635
-0.00929934 0.0012330164 0.0058395043 -0.002307328 0.006455086 -0.0017352569 0.004296263 0.0005016502
-0.007888914 0.0017582843 0.00850547 -0.0025994543 -0.01196074 -0.0001955378 -0.0067739733 0.0073053255
0.0026966645 0.006214545 0.0041484884 -0.0057411995 -0.016718822 0.0072912215 -0.014376025 0.010975227
00000000: a35a 9d3c a3e8 a0bc 6ef8 02bb 9e59 9d3b
00000010: 0904 0f3c 2e0f 36bc 74f3 203c 9f76 1d3b
00000020: 97b4 143c 7ecb 3b3c 5e8b 4cbb dd38 6f3a
00000030: 0099 25bc d335 0a3a 169b a8bc b47c 873c
00000040: e0c2 57bc c230 2c3c 391f b23a 24b8 08bc
00000050: c99c bf3b 345d 0a3c 1f5f 47bb f0b1 d63b
00000060: f3a5 d1bb 75c6 70bb 7be6 39bc 327c 0c3b
00000070: 539e 353c 2ff2 14bc d34c 2239 3bd4 b33b
00000080: 7fcc 363c 6510 2c3c a803 7bbb 0e0e 853c
00000090: 3bc6 353c 2bca 7a3c 9dd2 dc3b 6c55 cbba
000000a0: 3db0 83bb 5439 053c 045d 9ebb 6bbb 8d3c
000000b0: 0780 173b a97e 033c 05fa 1c3c 23c4 f93b
000000c0: aa58 6f3b 417f 3bbc 5a62 86b9 9f6d 223c
000000d0: aa2e 67bb 1dac 64bb a87a 86bb 9090 c43b
000000e0: e6b9 ca3a a322 3a3b 9f18 923a 4803 2d3b
000000f0: 6fb4 163c 670a 933a 873e 23bb 1059 28bc
00000100: 66a4 abbb 4da1 143c 3df1 653c 2070 193c
00000110: a0cf 49bb 9149 1abb 6ca6 c83b 3278 523c
00000120: 5768 9c3b 1b65 363c 9f31 493c e04b 8e3c
00000130: 1872 883c 157a 45bb 35a5 633c 9355 9b3b
00000140: dcfc a73b 0b30 733b 2d7d 633b 864b b63b
00000150: ef27 bbbb 12c5 f03a 67ea 5f3c 03cb f9bb
00000160: 33e9 ccbb d96f 9dbb a88b 2a3b 2adf 1ebc
00000170: 5a65 9e3b 7059 523c 9ef8 8f3b 55dd f43a
00000180: bf49 a13c 0b1d 9d3b 9f59 acb9 5a0d 97bb
00000190: 0297 edbb 2ca3 cc3b 2e4b 05ba 6de8 12bb
000001a0: 4d06 7fb9 4d6a 613b 4cb3 223b 2505 79ba
000001b0: d3b4 013a 9841 6e3c f69c 413b 7f9c e3ba
000001c0: 518f 893c 2bdc 123c c579 4a3c b7e2 303c
000001d0: e254 b7bc 9746 463c 4ffb 55bc 7b8a 383b
000001e0: 75cf de3a 86b4 093c 86eb 4b3b 9825 893b
000001f0: 8f60 9ebb ca7f 9e39 8601 a93b 3b32 2d39
00000200: 6aac 37bb a307 4e3b 4930 333b 7912 0dbc
00000210: e0c6 cfbb 7bab a53b b8a8 acbb 5ed8 0939
00000220: 2766 39bc bcbe af3b fd6e 20bc b1a8 983b
00000230: 47bf 3c3c b8ac 76bc 431f 933b ca62 5bbb
00000240: dff9 93bb 770d 48bc 1700 8a3c 68b2 223c
00000250: 4d4d 093c af19 803b 527a 7eb9 2d45 d53c
00000260: 7dc7 ec3b e7ce 123a 74b7 2bbc 3164 a03a
00000270: 22a8 e83a 28c6 deba c444 0f3c 5b19 aeba
00000280: ae68 113c 2b42 96bc d7d8 163b 025a 233c
00000290: fff6 88bb 06b8 4cbc 008c 2d3c a212 a23b
000002a0: d02c 353b 63a1 febb 7884 d2bb 0fcd 88bc
000002b0: bab8 703c a6a4 8ebb c383 69ba 2faf 8dbb
000002c0: b82b 133c d0bd e93b b56c 16bc 5b2c 66bc
000002d0: d5b1 523b a2ab 6b3b cafa d4bb ff06 32bb
000002e0: bc73 1cbb 35d1 8c3b 6bc1 f4bb 7dec 03bc
000002f0: aaa8 b53c 2fef 9cbb f4e9 0e3c e9d2 31ba
00000300: 13b8 d4bb e0d6 85bb 4092 cdba 6f81 71bb
00000310: 75ba 5d3c d8a3 173c 54b5 81bb fba1 b3b9
00000320: 4042 5a3c 0298 35b8 cb47 503b ed13 b6bb
00000330: 4b27 a5bb 0ffc 83bb c576 efbb 809f 863b
00000340: 235c 5d3c ed51 7ebc a0a7 a23a 3c6f a73c
00000350: 371c 8bbc b1fd 9c3c 425a 91bb 1bf7 203c
00000360: 0bbf 8a3b 184d ad3b 8a9d 75bc 9352 2a3b
00000370: e20e 1dbb ac98 4a3b 3d4d cdb9 4a93 5f3b
00000380: 9fbf 2d3c c986 ba3b e7cf 62bb 3f53 36bc
00000390: 9084 553b ebd9 2abc ef21 df3a c323 a5bb
000003a0: 425c 18bc 2a9d a13a 5059 bf3b 8a36 17bb
000003b0: 3085 d33b 8f71 e3ba abc7 8c3b 2d81 033a
000003c0: 8140 01bc 3b76 e63a 875a 0b3c 9b5b 2abb
000003d0: fbf6 43bc 4709 4db9 35f8 ddbb 8361 ef3b
000003e0: 86ba 303b 62a3 cb3b 0bf0 873b ac20 bcbb
000003f0: e9f5 88bc 33eb ee3b 6b89 6bbc 70d1 333c

onnx::Div_70 f4 [6]
0.3224472 0.05780524 0.2965678 0.013077491 0.01148217 0.017775975
00000000: cd17 a53e 30c5 6c3d bcd7 973e f942 563c
00000010: b61f 3c3c ec9e 913c
