results/turret_train_2/TurretShoot/TurretShoot-174400.onnx (onnx, 287600 bytes, 11 tensors)

network_body.observation_encoder.processors.0.normalizer.running_mean f4 [11]
-4.9998674 -0.007321171 0.0 -0.003674849 0.02454804 0.7889291 4.999874 -7.951947e-10
-0.0010876919 8.589135e-11 0.67664856
00000000: eafe 9fc0 6fe6 efbb 0000 0000 bcd5 70bb
00000010: f918 c93c 42f7 493f f8fe 9f40 da94 5ab0
00000020: e290 8eba 88e0 bc2e d738 2d3f

network_body._body_endoder.seq_layers.0.weight f4 [256, 11]
0.2646899 0.757143 -0.045617472 0.1390277 -0.25346676 -0.7136295 -0.89938587 -0.07584677
-0.09019471 0.187609 0.16237117 0.21962468 0.016688472 -0.2634472 -0.15123034 -0.0015975398
0.34015194 0.2742134 -0.036975425 -0.19189535 0.25042173 -0.11011758 0.028701175 -0.27694663
-0.13220955 0.67054105 0.0482398 0.161802 0.25111663 -0.14139569 0.22313997 0.6846186
-0.13207728 -0.04586606 0.2379574 -0.177297 -0.27868888 0.49849278 -0.05887557 -0.062063657
-0.058036353 -0.1628792 0.37404594 -0.32132033 0.47630778 0.033101864 -0.31308728 0.18393488
0.061836917 -0.42337883 0.1559708 -0.18898693 -0.08345513 -0.018791558 0.020009356 0.21463613
0.47012132 0.47855905 0.23581457 -0.3332696 -0.4803058 0.25358838 0.28089362 0.45452908
-0.0836698 0.06747838 0.16295058 0.018732429 0.4757327 0.23836555 0.15368417 0.17240773
0.64418447 0.13721061 -0.2211759 0.27516165 -0.42615047 0.35233524 0.13798709 -0.10478373
0.1668416 0.260924 0.29155862 -0.11540169 -0.13496654 -0.69815123 0.18911725 0.009958977
-0.10163142 0.6115238 0.007607087 0.107470356 0.14066094 -0.33167544 -0.2888244 0.19630262
-0.05378112 0.24099219 -0.34486133 0.053786255 -0.31020653 0.016433613 -0.15101828 0.062942296
0.50191694 0.48311064 0.4738399 0.73703134 -0.5451176 -0.011586957 -0.0626854 0.56223506
-0.21878958 0.2129839 -0.56417114 -0.26450226 -0.010982424 -0.14536987 -0.18806192 -0.9323483
-0.24297494 -0.19105794 -0.31728107 0.022840038 0.13659844 0.56187373 -0.47317377 0.367209
0.47875327 -0.2759954 0.024748849 -0.10062372 -0.09021496 0.7072421 0.40620774 0.11704854
0.18545489 0.059935793 0.19554076 0.18046422 0.14226201 -0.2378294 -0.22435984 -0.135949
0.10897876 0.08993572 0.09307529 -0.2959086 -0.08881492 0.30269587 -0.53026336 0.0027187266
-0.3252014 -0.19092278 0.6366025 -0.09258974 0.09661044 -0.008833299 -0.100943744 0.5875459
-0.12877922 0.3183558 -0.45737758 0.066538505 0.7242705 0.10862903 0.14496702 0.16385294
0.2422267 -0.42959702 -0.31284162 0.20010729 0.18464682 0.48685375 -0.28266177 -0.10265569
0.0167284 0.0076910006 -0.19098401 -0.17707878 0.05856293 0.22480513 0.20669194 -0.2426623
-0.3299657 -0.35745215 0.1705952 0.3432789 -0.19319175 -0.107863866 0.28917396 0.33053553
0.0031552622 0.30213764 -0.08024778 -0.023040589 0.56847847 0.124932826 0.09046103 -0.22194587
-0.28936496 -0.18365297 -0.04704554 -0.34667486 -0.14587037 -0.6358158 -0.19490877 -0.34701324
0.036531597 0.2079821 0.051731143 0.30944622 -0.016722023 0.105843246 -0.40469158 0.5457466
-0.026242428 0.0433849 -0.37944824 -0.05217314 -0.09182231 0.75011957 0.18237577 -0.033144232
-0.09287094 0.15164113 -0.09808267 -0.055316698 -0.2946405 0.13831991 0.087139085 0.5606907
0.20664015 0.5826631 0.28523389 -0.2509387 0.4655612 0.6235322 0.2122104 0.2703044
0.07029598 0.20789368 -0.38643304 0.10831702 0.33718884 -0.2785474 0.8494894 0.068565205
0.44414562 -0.22447322 -0.3310656 -0.18793431 -0.19628014 -0.089240305 0.63299334 0.13636114
00000000: 6f85 873e 20d4 413f 63d9 3abd 475d 0e3e
00000010: 65c6 81be 6cb0 36bf 273e 66bf 8d55 9bbd
00000020: 01b8 b8bd 931c 403e a144 263e 4be5 603e
00000030: 43b6 883c 8de2 86be 20dc 1abe 8a64 d1ba
00000040: 6528 ae3e b365 8c3e 8b73 17bd 3780 44be
00000050: 4737 803e 5385 e1bd ba1e eb3c f3cb 8dbe
00000060: f161 07be 94a8 2b3f 1997 453d 6caf 253e
00000070: 5c92 803e 08ca 10be ce7e 643e 2a43 2f3f
00000080: 443f 07be 0dde 3bbd 1bab 733e 588d 35be
00000090: 4fb0 8ebe 723a ff3e 8227 71bd 7636 7ebd
000000a0: 87b7 6dbd cec9 26be f382 bf3e 1984 a4be
000000b0: 9dde f33e d295 073d fa4c a0be 6d59 3c3e
000000c0: b548 7d3d 1cc5 d8be cfb6 1f3e ca85 41be
000000d0: 86ea aabd c1f0 99bc a9ea a33c 93c9 5b3e
000000e0: beb3 f03e b105 f53e 6079 713e 50a2 aabe
000000f0: a4ea f5be 56d6 813e 4ad1 8f3e 09b8 e83e
00000100: 125b abbd 1b32 8a3d 84dc 263e c074 993c
00000110: 3d93 f33e 1916 743e 625f 1d3e a78b 303e
00000120: 46e9 243f f080 0c3e ef7b 62be fde1 8c3e
00000130: 6530 dabe 4965 b43e 7d4c 0d3e da98 d6bd
00000140: 86d8 2a3e d597 853e 2c47 953e b957 ecbd
00000150: ab34 0abe 0aba 32bf f4a7 413e fa2a 233c
00000160: 2224 d0bd d38c 1c3f df44 f93b 6b19 dc3d
00000170: 6c09 103e 5dd1 a9be cbe0 93be 8e03 493e
00000180: 9749 5cbd a8c6 763e aa91 b0be fa4e 5c3d
00000190: 64d3 9ebe c99f 863c 89a4 1abe e4e7 803d
000001a0: a17d 003f 475a f73e 259b f23e 16ae 3c3f
000001b0: d48c 0bbf 38d7 3dbc 3461 80bd a3ee 0f3f
000001c0: 600a 60be 7418 5a3e 856d 10bf d76c 87be
000001d0: a0ef 33bc d7db 14be 4e93 40be 61ae 6ebf
000001e0: 6cce 78be b1a4 43be aa72 a2be 081b bb3c
000001f0: 76e0 0b3e f5d6 0f3f d543 f2be d102 bc3e
00000200: 261f f53e 454f 8dbe 19be ca3c cf13 cebd
00000210: 9fc2 b8bd d10d 353f 76fa cf3e 25b7 ef3d
00000220: e3e7 3d3e 3c7f 753d d63b 483e 9dcb 383e
00000230: 22ad 113e 8d89 73be 96be 65be 3736 0bbe
00000240: 4230 df3d 3830 b83d 429e be3d 5581 97be
00000250: 99e4 b5bd f4fa 9a3e 57bf 07bf aa2c 323b
00000260: cc80 a6be 4381 43be 62f8 223f b19f bdbd
00000270: b2db c53d 8bb9 10bc 98bb cebd 6869 163f
00000280: b3de 03be 88ff a23e 652d eabe 5745 883d
00000290: cb69 393f e678 de3d 3c72 143e 11c9 273e
000002a0: 470a 783e 24f4 dbbe c72c a0be ede8 4c3e
000002b0: 0e14 3d3e e544 f93e 0bb9 90be 253d d2bd
000002c0: ff09 893c ca04 fc3b 5091 43be 2454 35be
000002d0: afdf 6f3d 5133 663e 0da7 533e 777c 78be
000002e0: 44f1 a8be f803 b7be 82b0 2e3e 41c2 af3e
000002f0: 0fd4 45be bbe7 dcbd 9c0e 943e f43b a93e
00000300: 84c8 4e3b c9b1 9a3e f358 a4bd 9ebf bcbc
00000310: ce87 113f c8dc ff3d a243 b93d c745 63be
00000320: a527 94be 860f 3cbe d3b2 40bd 5e7f b1be
00000330: 0b5f 15be d3c4 22bf 2a96 47be b8ab b1be
00000340: 28a2 153d 42f9 543e 09e4 533d bc6f 9e3e
00000350: a0fc 88bc 58c4 d83d bc33 cfbe 0db6 0b3f
00000360: 5cfa d6bc 5db4 313d 0a47 c2be 81b3 55bd
00000370: 560d bcbd d607 403f b7c0 3a3e 3fc2 07bd
00000380: 1f33 bebd d047 1b3e 91df c8bd c393 62bd
00000390: 1fdb 96be bca3 0d3e fa75 b23d 6d89 0f3f
000003a0: 7a99 533e 6929 153f 2d0a 923e 0a7b 80be
000003b0: 0a5e ee3e ce9f 1f3f af4d 593e 5765 8a3e
000003c0: 57f7 8f3d 15e2 543e 8dda c5be 50d5 dd3d
000003d0: 04a4 ac3e c49d 8ebe 2378 593f ea6b 8c3d
000003e0: 0e67 e33e 4fdc 65be 6e81 a9be da71 40be
000003f0: a9fd 48be 9fc3 b6bd da0b 223f 41a2 0b3e

network_body._body_endoder.seq_layers.0.bias f4 [256]
-0.0069417455 0.038386848 -0.033751585 0.0099593485 -0.014923221 -0.016541706 -0.026975265 0.029693311
-0.015678229 0.043441296 -0.027609618 -0.020140491 -0.032618307 -0.011620014 0.0332755 -0.04807627
0.045797728 -0.010597366 -0.0046938807 -0.01873073 0.037047084 0.02435199 0.007929406 0.028966645
-0.040139712 0.023588253 -0.035363622 -0.016985212 0.03911227 -0.018337518 0.019971324 -0.03311846
0.031427078 -0.006238015 -0.011066572 0.046482813 -0.03133355 -0.027855303 0.012841052 0.008331778
-0.023026712 0.03451765 -0.0015563021 0.025483321 -0.023935216 -0.006407559 0.014727797 -0.012016785
0.006023278 0.042831216 -0.018120494 -0.030104518 -0.015133713 0.04614872 -0.026126958 -0.00765067
0.038758405 0.053422645 -0.012004674 -0.0012788088 -0.004481391 -0.0155164525 -0.010567309 -4.0512976e-05
0.03557291 -0.0261388 0.0264163 -0.03714727 0.019808829 0.040584583 -0.037076727 0.031872157
-0.029430034 0.019526524 0.009048474 -0.010747583 -0.01812478 0.002981778 -0.012025681 -0.022285607
0.021858444 0.009491712 0.011835518 -0.03518997 -0.0029322272 -0.0035153748 0.037088238 -0.04162817
-0.04431272 0.035409234 -0.023304803 -0.027922336 0.028596442 -0.026886052 0.02677884 0.028487222
-0.01185757 -0.035207372 -0.032409675 -0.03749485 0.024501111 0.037419304 -0.029760275 0.02930476
0.03852939 -0.0074692573 0.013300711 0.0026509115 0.024700297 0.00230564 0.025844585 -0.014864689
0.01047052 -0.010924409 0.033735506 0.042037256 0.029302644 0.004427513 0.033292092 -0.0013404954
0.018806785 -0.027197625 0.030642167 -0.003737343 0.029882485 -0.0019319832 -0.0028937014 0.014798994
-0.013969189 0.00022307657 0.03524858 0.019688647 -0.010732858 0.019023692 -0.0048755105 0.02516407
0.038464554 -0.018622838 0.031876862 -0.023428837 0.008148006 -0.036885053 0.03763801 -0.02869177
-0.026036102 0.024255196 -0.022417687 -0.022248115 -0.008545215 0.03844131 0.03595421 -0.019034443
0.019475283 0.0032513498 0.042332172 -0.0064860866 0.029383635 0.016077219 -0.015677247 0.025129963
-0.03886105 0.039975636 0.01231925 -0.041113984 -0.009710584 0.0151155135 -0.03162224 0.028813744
-0.032869104 0.0043134424 0.012029776 -0.002653679 -0.018396065 0.030551573 0.04593401 0.032863185
-0.01789096 -0.031863082 -0.017076558 -0.019071681 0.012485152 -0.0029083085 -0.028444894 -0.04098667
-0.0017450732 0.047433525 0.038016576 0.03422986 0.036429096 -0.030585025 0.018591926 0.016560445
0.035445075 -0.019317398 0.009941499 -0.023596482 -9.968468e-05 0.023108123 -0.034756597 0.032501586
-0.0006613433 -0.031487323 -0.03687625 -0.011215927 0.031156296 0.022281047 0.010001817 -0.02354559
-0.023714622 0.0232427 -0.019071369 0.029417902 -0.0045708143 0.04256738 0.036953375 0.028327003
0.0028425988 -0.02469796 0.042709243 -0.035537984 -0.015806789 0.034280438 -0.023367327 0.03318623
-0.041434884 -0.027452242 -0.02940518 -0.009207703 -0.030608501 0.00614011 -0.038193185 -0.0280043
0.008356363 0.036293935 0.035422917 0.03794471 -0.002340409 -0.022870518 0.016130898 0.04073745
0.030640261 0.040410545 0.023826156 -0.039598458 -0.03467395 0.034711216 0.024635183 0.006202995
-0.015287493 -0.0053273276 -0.022066943 -0.012791474 -0.015193462 -0.029826524 -0.023755627 -0.017991932
00000000: 9577 e3bb 873b 1d3d 1a3f 0abd 892c 233c
00000010: 8780 74bc 7982 87bc 3bfb dcbc 633f f33c
00000020: a16f 80bc 80ef 313d 912d e2bc acfd a4bc
00000030: c69a 05bd df61 3ebc e44b 083d 9feb 44bd
00000040: 6696 3b3d 93a0 2dbc 20cf 99bb 3071 99bc
00000050: afbe 173d d37d c73c 57ea 013c 754b ed3c
00000060: 8a69 24bd 273c c13c 72d9 10bd 9224 8bbc
00000070: 3034 203d 9038 96bc e79a a33c 39a7 07bd
00000080: aeb9 003d 4368 ccbb 9150 35bc c364 3e3d
00000090: 9c57 00bd ce30 e4bc 4763 523c 0382 083c
000000a0: 84a2 bcbc 6162 0d3d d5fc cbba 66c2 d03c
000000b0: c913 c4bc 80f6 d1bb dc4c 713c 0de2 44bc
000000c0: eb5e c53b c96f 2f3d 6e71 94bc c09d f6bc
000000d0: 65f3 77bc 7106 3d3d 3408 d6bc 79b2 fabb
000000e0: 22c1 1e3d b4d1 5a3d 41af 44bc b49d a7ba
000000f0: a2d8 92bb b838 7ebc 8222 2dbc 7aec 29b8
00000100: e6b4 113d 0921 d6bc ff66 d83c bc27 18bd
00000110: 2046 a23c 053c 263d c4dd 17bd 618c 023d
00000120: 4117 f1bc 17f6 9f3c 0d40 143c a116 30bc
00000130: 6b7a 94bc ef69 433b 5d07 45bc 4e90 b6bc
00000140: 7b10 b33c 2083 1b3c c3e9 413c 5c23 10bd
00000150: 9c2a 40bb 3462 66bb d6e9 173d 4d82 2abd
00000160: 4181 35bd 4609 113d b7e9 bebc 62bd e4bc
00000170: 1643 ea3c 2340 dcbc 4c5f db3c 095e e93c
00000180: 4146 42bc 9b35 10bd 02c0 04bd 3394 19bd
00000190: 8eb6 c83c fc44 193d d2cb f3bc 8910 f03c
000001a0: fed0 1d3d acc0 f4bb 3aeb 593c eaba 2d3b
000001b0: 4758 ca3c 381a 173b 06b8 d33c 068b 73bc
000001c0: 8b8c 2b3c 4bfc 32bc 3e2e 0a3d 422f 2c3d
000001d0: 190c f03c ac14 913b 4a5d 083d 90b3 afba
000001e0: b010 9a3c 8ecd debc 4805 fb3c 36ee 74bb
000001f0: 1dcc f43c 993a fdba 41a4 3dbb 7b77 723c
00000200: 06df 64bc a9e9 6939 d160 103d 164a a13c
00000210: dfd8 2fbc 93d7 9b3c bfc2 9fbb e124 ce3c
00000220: 028d 1d3d ec8e 98bc 5091 023d d5ed bfbc
00000230: 377f 053c c814 17bd 502a 1a3d 010b ebbc
00000240: aa49 d5bc d5b2 c63c 4ca5 b7bc ae41 b6bc
00000250: 3b01 0cbc a374 1d3d b944 133d 1fee 9bbc
00000260: a18a 9f3c 9914 553b 8064 2d3d 3d89 d4bb
00000270: f3b5 f03c 5fb4 833c 926d 80bc 5add cd3c
00000280: c42c 1fbd 7ebd 233d aed6 493c 2367 28bd
00000290: 2419 1fbc 0fa7 773c 5286 01bd cd0a ec3c
000002a0: c1a1 06bd c757 8d3b 8a18 453c 59e9 2dbb
000002b0: 58b3 96bc 4b47 fa3c 4d25 3c3d 8c9b 063d
000002c0: 1090 92bc dd82 02bd 23e4 8bbc 373c 9cbc
000002d0: 868e 4c3c 5299 3ebb 4405 e9bc a3e1 27bd
000002e0: f1ba e4ba a849 423d 45b7 1b3d 9c34 0c3d
000002f0: ad36 153d 728d fabc 184e 983c c5a9 873c
00000300: db2e 113d 853f 9ebc abe1 223c 694d c1bc
00000310: ce0d d1b8 3f4d bd3c ef5c 0ebd 6220 053d
00000320: ff5d 2dba daf8 00bd 8d0b 17bd 02c3 37bc
00000330: 7d3b ff3c be86 b63c a9de 233c aee2 c0bc
00000340: 2b45 c2bc 7a67 be3c 8f3b 9cbc d0fd f03c
00000350: c5c6 95bb 225b 2e3d 6c5c 173d 080e e83c
00000360: e54a 3a3b 6053 cabc e3ef 2e3d 4790 11bd
00000370: 3d7d 81bc a569 0c3d d66c bfbc 49ee 073d
00000380: a0b7 29bd 86e3 e0bc 22e3 f0bc e8db 16bc
00000390: aebe fabc fa32 c93b 7570 1cbd 4669 e5bc
000003a0: 20e9 083c f3a8 143d 9f17 113d ea6b 1b3d
000003b0: 8c61 19bb f45a bbbc f224 843c 50dc 263d
000003c0: 4901 fb3c 8785 253d 122f c33c fe31 22bd
000003d0: 4606 0ebd 592d 0e3d b9cf c93c 7e42 cb3b
000003e0: 6578 7abc dd90 aebb bcc5 b4bc 5593 51bc
000003f0: 00ee 78bc c156 f4bc 299b c2bc d163 93bc

network_body._body_endoder.seq_layers.2.weight f4 [256, 256]
-0.13261074 0.11648745 -0.010159821 0.011139984 -0.047077674 -0.0780913 0.062375847 -0.038136076
-0.0319328 0.052391537 -0.06781284 0.16999668 -0.00065019407 -0.023695141 -0.09073813 0.060656767
0.056827843 0.027402434 -0.01517631 -0.005929132 -0.049199328 0.030706294 0.05981692 -0.0759669
-0.09813686 -0.031234676 0.05662102 0.025766559 -0.016492823 0.009275321 -0.030818315 0.023131475
0.030841086 0.08047014 -0.0121927215 -0.0026796688 0.04420043 0.059256263 0.034858875 0.086506486
-0.11215719 -0.023747265 -0.072755925 -0.0695696 -0.13580376 -0.022142999 0.05677749 0.050694294
0.036624517 0.068729855 0.049013592 0.02785425 -0.02516892 -0.03753618 0.043515127 0.052154902
-0.014932058 -0.0004332876 -0.0056461324 -0.041284516 -0.12457556 0.07267882 0.10307718 0.0067771287
0.11307423 -0.017198924 -0.06795119 0.026755642 -0.012502361 -0.06822149 -0.06995057 0.041190866
-0.08337446 0.037262384 -0.032015044 -0.03946101 -0.15657999 0.091328084 0.0006001491 0.03744407
-0.0539038 0.063364305 0.040888272 -0.058095448 -0.034469146 0.14730956 0.04820943 0.08440996
0.008256378 -0.005304972 -0.09359506 0.038284563 -0.080774195 0.023946598 0.046917014 0.025715206
0.013049929 0.040284388 -0.05339208 0.035750072 0.01630468 -0.060323276 -0.024242505 0.029688798
-0.066705175 -0.047526237 0.08904381 -0.08550203 0.013769668 0.07356106 0.13122892 -0.0009585335
0.013170057 -0.0368784 0.030564547 0.025240276 0.013854177 -0.029439015 0.016626723 0.037584696
-0.014334873 0.08320017 0.08245464 0.10458834 -0.0502404 -0.028905936 0.06308303 0.022287209
0.004565964 -0.005051318 0.05212221 -0.071274444 -0.09504819 0.12709817 0.014078752 0.10124187
0.007041497 -0.0033999116 0.0063308426 0.01900684 0.014970085 0.012538048 0.1365559 0.13366328
-0.012996311 -0.004376511 -0.057305917 -0.012313703 -0.03726813 0.12226063 0.013277556 -0.026391497
-0.07767806 0.028790707 0.08072145 0.12761158 0.03212408 -0.10946718 -0.07214642 0.01904567
-0.10152343 -0.028899234 -0.06761963 -0.0040271366 0.013048312 0.03352105 -0.077316806 0.025111284
0.061411563 -0.029318547 0.115628935 0.106176056 0.029300466 0.05647071 0.048074946 0.1072761
-0.038658425 0.18054101 -0.08089763 0.01301221 -0.06883555 0.08116494 0.015576537 0.036560204
0.032513212 -0.058346625 -0.09536635 -0.038336392 -0.059554 0.037269834 0.06295128 -0.025679441
-0.0013206637 -0.097576596 0.04916675 0.09377549 0.0030508793 0.080428354 0.09166063 0.10387552
-0.048751425 -0.0028588416 -0.091082245 0.010714668 -0.03631615 0.026857238 -0.013692159 0.12026109
0.07613782 -0.0455266 0.14042266 -0.06214198 0.067629434 0.054038227 -0.072149955 0.059924643
0.013523881 0.14908685 -0.124832064 0.016198082 -0.017995948 -0.044052664 -0.044728234 0.11785901
0.018824328 0.0922155 -0.05200483 -0.0263878 0.049838845 -0.08619669 0.095108405 0.005065879
0.047084928 0.00031136363 -0.060883816 -0.009188932 0.009686919 0.010453825 0.08564449 -0.04084844
-0.14832321 0.017945057 -0.13976215 -0.003010706 0.08085532 -0.058223825 0.106065586 0.002613549
-0.08189233 0.01851991 0.023966692 0.02937897 -0.0021310921 0.0554132 -0.035393246 0.012128601
00000000: 1ccb 07be f990 ee3d 6175 26bc 7b84 363c
00000010: 85d4 40bd 55ee 9fbd d17d 7f3d 9334 1cbd
00000020: f8cb 02bd 8298 563d 75e1 8abd 9c13 2e3e
00000030: c971 2aba 501c c2bc ead4 b9bd 3b73 783d
00000040: 50c4 683d 127b e03c 0fa6 78bc 2a49 c2bb
00000050: 3c85 49bd c48b fb3c 9602 753d 8994 9bbd
00000060: fafb c8bd dddf ffbc 71eb 673d 6414 d33c
00000070: f51b 87bc 84f7 173c b176 fcbc 387e bd3c
00000080: 72a6 fc3c 87cd a43d fbc3 47bc 629d 2fbb
00000090: 830b 353d b2b6 723d 2ec8 0e3d 502a b13d
000000a0: abb2 e5bd a089 c2bc 0f01 95bd 827a 8ebd
000000b0: 2410 0bbe 3c65 b5bc 838f 683d d2a4 4f3d
000000c0: 9703 163d 3dc2 8c3d 7ac2 483d 992e e43c
000000d0: 0d2f cebc 8abf 19bd eb3c 323d 61a0 553d
000000e0: 97a5 74bc e12a e3b9 3103 b9bb f419 29bd
000000f0: 7921 ffbd a2d8 943d 211a d33d ad12 de3b
00000100: 7693 e73d c2e4 8cbc fe29 8bbd a62e db3c
00000110: b4d6 4cbc b5b7 8bbd 3f42 8fbd c1b7 283d
00000120: 3bc0 aabd 71a0 183d 3522 03bd dea1 21bd
00000130: 8156 20be 380a bb3d 5353 1d3a f45e 193d
00000140: 3bca 5cbd 25c5 813d 767a 273d 7ef5 6dbd
00000150: 852f 0dbd 51d8 163e 4077 453d 21df ac3d
00000160: c245 073c 55d5 adbb c4ae bfbd 46d0 1c3d
00000170: f16c a5bd a82b c43c 0e2c 403d b2a8 d23c
00000180: 5fcf 553c 3e01 253d a7b1 5abd ab6e 123d
00000190: 6491 853c 8a15 77bd 3898 c6bc ec35 f33c
000001a0: b99c 88bd dfaa 42bd 9a5c b63d b01b afbd
000001b0: 2c9a 613c 2ea7 963d e060 063e 1846 7bba
000001c0: 39c7 573c ce0d 17bd 8062 fa3c b2c4 ce3c
000001d0: a1fc 623c 172a f1bc c434 883c 69f2 193d
000001e0: d1dc 6abc da64 aa3d fadd a83d 6932 d63d
000001f0: e1c8 4dbd 24cc ecbc ad31 813d aa93 b63c
00000200: 159e 953b 8785 a5bb 197e 553d 56f8 91bd
00000210: a0a8 c2bd 0626 023e 91aa 663c e657 cf3d
00000220: 5cbc e63b 0dd1 5ebb f572 cf3b 3cb4 9b3c
00000230: 1645 753c 636c 4d3c 4fd5 0b3e 07df 083e
00000240: 7bee 54bc d668 8fbb 9cb9 6abd 6abf 49bc
00000250: 77a6 18bd c863 fa3d 1b8a 593c fb32 d8bc
00000260: ad15 9fbd 7dda eb3c 4a51 a53d 9cac 023e
00000270: 8a94 033d 5430 e0bd 81c1 93bd aa05 9c3c
00000280: 84eb cfbd 16be ecbc 297c 8abd 12f6 83bb
00000290: 96c8 553c 5e4d 093d 4658 9ebd 2eb6 cd3c
000002a0: b18a 7b3d 732d f0bc ddce ec3d d572 d93d
000002b0: 8807 f03c d54d 673d 3cea 443d 92b3 db3d
000002c0: 4c58 1ebd bedf 383e a8ad a5bd 2a31 553c
000002d0: a7f9 8cbd ce39 a63d bb34 7f3c 27c0 153d
000002e0: 932c 053d dffc 6ebd 6f4f c3bd 9f06 1dbd
000002f0: e5ee 73bd 41a8 183d 9aec 803d b15d d2bc
00000300: 1f1a adba 3dd6 c7bd 1363 493d 5d0d c03d
00000310: 43f1 473b 9fb7 a43d 92b8 bb3d b0bc d43d
00000320: 93af 47bd 675b 3bbb 5489 babd 938c 2f3c
00000330: 3ec0 14bd b603 dc3c 1455 60bc 724b f63d
00000340: 25ee 9b3d 1a7a 3abd f5ca 0f3e 9788 7ebd
00000350: 4d81 8a3d 3057 5d3d 5bc3 93bd 8b73 753d
00000360: 4593 5d3c 39aa 183e f4a7 ffbd d7b1 843c
00000370: 3d6c 93bc 9170 34bd f434 37bd 1160 f13d
00000380: 7a35 9a3c 7bdb bc3d 0403 55bd 3a2b d8bc
00000390: d123 4c3d e487 b0bd 32c8 c23d acff a53b
000003a0: 20dc 403d 853e a339 4f61 79bd 2d8d 16bc
000003b0: e2b5 1e3c 8546 2b3c 6166 af3d b250 27bd
000003c0: 0ae2 17be 8301 933c cf1d 0fbe 444f 45bb
000003d0: 7997 a53d 1b7c 6ebd ea38 d93d 1348 2b3b
000003e0: 2ab7 a7bd 11b7 973c cc55 c43c 2aac f03c
000003f0: cba9 0bbb f4f8 623d 82f8 10bd 0ab7 463c

network_body._body_endoder.seq_layers.2.bias f4 [256]
-0.0002937745 -0.00051528664 -0.008082659 0.008391591 0.034563094 -0.022435717 0.032157365 0.015782664
-0.01945749 -0.013647029 -0.013380258 -0.016998025 0.010080645 0.032615725 0.038705155 0.033892184
0.024596458 -0.030027544 0.038239777 -0.0029904714 0.020961894 -0.0008836019 -0.017133823 0.026848512
-0.026067171 -0.01818816 1.2712394e-05 0.012888501 0.016277824 0.029966472 -0.005984517 0.008117647
-0.031219384 0.014149382 -0.008467748 -0.02649247 0.022760324 0.019288117 -0.029757138 -0.026188163
-0.015251363 0.036763743 0.008200152 0.0021221223 0.034952752 0.024052644 -0.0014469372 0.035413317
-0.011404583 0.014952631 0.04000746 0.021701965 0.03467443 0.03520264 0.032736488 0.015326132
0.026910635 -0.016866772 -0.016408639 0.029942542 4.197453e-06 0.0153594045 0.014998607 0.034620628
0.02424389 0.003995363 -0.010130806 -0.015434568 -0.0102703 -0.027097316 0.029396774 -0.015615073
0.0050472943 -0.016636804 -0.010663894 0.03800585 0.0398994 0.0011483305 0.037981965 0.02265172
-0.0059018685 0.016385444 -0.039777305 0.008226167 0.03159249 -0.01900619 -0.0034228545 -0.005687381
-0.030854499 -0.007045791 0.0097543495 -0.0142875025 0.018811956 -0.020231785 0.022820123 -0.017660165
0.012463494 -0.02474411 0.01533559 -0.0065226294 0.03435518 0.002161113 0.03804415 0.0068782875
0.0030077319 -0.004512424 0.0018829069 0.03107622 -0.022193022 0.035427693 -0.010612206 -0.006920603
0.020253748 0.014753255 0.023418251 0.0343655 -0.021609308 0.02057794 -0.028599083 -0.02649925
0.016565101 -0.031059168 -0.0039566723 0.030129854 0.03065115 6.8140853e-06 0.025864981 -0.025273168
-0.02518132 -0.036053397 0.0023927696 -0.023268746 0.040392783 0.009106783 -0.004413838 -0.017325241
0.032623123 0.008065605 0.03120137 0.029460365 -0.0076998076 -0.009325263 0.0028052456 -0.017481377
0.03395748 0.020235818 -0.0059530875 0.01320979 -0.0213853 -0.0020662877 0.0023903167 -0.016082795
-1.5160015e-05 -0.017718075 0.023024624 0.0030462395 -0.0066942745 0.008142584 -0.009020706 -0.007329929
-0.025578761 0.0013506415 -0.017490285 -0.013445061 -0.026288638 -0.027814511 0.041688144 -0.024692839
0.028877696 -0.028644428 -0.024330901 0.033161763 0.037183333 -0.00078047946 0.0017258195 -0.020522201
0.005833189 0.014653051 0.043437306 -0.025504608 -0.02338353 -0.025290392 -0.02523551 -0.000718132
-0.0015094412 -0.011455732 0.028326998 -0.014355877 -0.040495902 0.03687497 -0.021074757 -0.024963778
0.023695797 0.036120307 -0.025914948 0.007829325 0.018594433 0.013469082 0.019566359 0.0016030951
0.0040976726 0.040097926 -0.017589761 -0.01310769 0.036332197 0.039002758 -0.025190543 0.029273976
-0.021988917 0.03189564 -0.015293391 9.418482e-05 0.02774586 0.034362204 -0.00631289 -0.01745908
0.019294914 -0.035282306 0.04408699 0.030162161 0.01475731 -0.017045168 -0.02760396 0.00067976763
0.045766704 -0.024530228 0.008783225 0.01655235 0.035336502 0.030715527 0.010697919 -0.003557764
-0.020424595 -0.024458667 -0.031067535 0.010713018 -0.0033633218 0.025951691 -0.017253976 0.031465374
-0.0306589 -0.031029139 -0.024470506 0.007334902 -0.011712955 -0.01929277 -0.011782233 -0.009679525
0.0060226494 -0.032620296 0.026009077 0.034992676 0.004300763 0.008752208 0.015219398 -0.0067496155
00000000: bf05 9ab9 4d14 07ba 216d 04bc e27c 093c
00000010: 0892 0d3d 1ccb b7bc 71b7 033d a54a 813c
00000020: 5065 9fbc ca97 5fbc df38 5bbc 713f 8bbc
00000030: 4a29 253c 1198 053d 4c89 1e3d 88d2 0a3d
00000040: 837e c93c 53fc f5bc 50a1 1c3d c9fb 43bb
00000050: 47b8 ab3c 85a1 67ba 3b5c 8cbc 69f1 db3c
00000060: d28a d5bc 56ff 94bc 5147 5537 4b2a 533c
00000070: 1259 853c 3f7c f53c c419 c4bb e1ff 043c
00000080: cbbf ffbc cfd2 673c 4fbc 0abc bd06 d9bc
00000090: dc73 ba3c 1d02 9e3c 3ec5 f3bc 8f88 d6bc
000000a0: dae0 79bc 9495 163d ee59 063c 4e13 0b3b
000000b0: 9e2a 0f3d 0d0a c53c 28a7 bdba 8e0d 113d
000000c0: 4ada 3abc e1fb 743c ddde 233d 52c8 b13c
000000d0: c606 0e3d a530 103d b216 063d 751a 7b3c
000000e0: b173 dc3c 2f2c 8abc 696b 86bc 104a f53c
000000f0: d9d7 8c36 03a6 7b3c b8bc 753c 5cce 0d3d
00000100: 1f9b c63c 89eb 823b aefb 25bc 45e1 7cbc
00000110: c344 28bc 31fb ddbc 81d1 f03c 5dd6 7fbc
00000120: c663 a53b e849 88bc 9db7 2ebc 06ac 1b3d
00000130: 8e6d 233d 9483 963a fa92 1b3d 1a90 b93c
00000140: 7664 c1bb c43a 863c 87ed 22bd 0cc7 063c
00000150: 2067 013d dfb2 9bbc f851 60bb 365d babb
00000160: 93c2 fcbc 61e0 e6bb b5d0 1f3c 2116 6abc
00000170: 881b 9a3c 21bd a5bc 44f1 ba3c 0dac 90bc
00000180: af33 4c3c 29b4 cabc 2042 7b3c c8bb d5bb
00000190: 04b8 0c3d 76a1 0d3b 2fd4 1b3d 4263 e13b
000001a0: 5e1d 453b f5dc 93bb dfcb f63a 8f93 fe3c
000001b0: 24ce b5bc a11c 113d d1de 2dbc 3ac6 e2bb
000001c0: 30eb a53c a3b7 713c a2d7 bf3c d7c2 0c3d
000001d0: 0106 b1bc 1193 a83c a048 eabc f514 d9bc
000001e0: 89b3 873c cc6f febc f9a6 81bb e2d2 f63c
000001f0: 1f18 fb3c 8ca4 e436 cce2 d33c ad09 cfbc
00000200: 0e49 cebc baac 13bd 03d0 1c3b 199e bebc
00000210: e772 253d 9e34 153c f5a1 90bb aaed 8dbc
00000220: d39f 053d 9925 043c 049a ff3c dd56 f13c
00000230: ab4e fcbb fdc8 18bc 36d8 373b 1b35 8fbc
00000240: 0017 0b3d 96c5 a53c 1e12 c3bb e06d 583c
00000250: 3a30 afbc 8e6a 07bb dca6 1c3b 11c0 83bc
00000260: c557 7eb7 7f25 91bc 239e bc3c 6ba3 473b
00000270: a55b dbbb 7968 053c 95cb 13bc e72f f0bb
00000280: 8d8a d1bc 0208 b13a c947 8fbc ac48 5cbc
00000290: 455b d7bc 42db e3bc 30c1 2a3d a348 cabc
000002a0: eb90 ec3c b8a7 eabc 9951 c7bc a1d4 073d
000002b0: 8d4d 183d 1799 4cba e534 e23a 2d1e a8bc
000002c0: 5624 bf3b 5a13 703c 51eb 313d 0aef d0bc
000002d0: d18e bfbc cc2d cfbc b3ba cebc 0641 3cba
000002e0: 71d8 c5ba d3b0 3bbc 050e e83c ea34 6bbc
000002f0: 08df 25bd 350a 173d f8a4 acbc d680 ccbc
00000300: b01d c23c e3f2 133d 964b d4bc 9246 003c
00000310: 5a53 983c 6dad 5c3c a149 a03c f21e d23a
00000320: c545 863b b93d 243d 6718 90bc a3c1 56bc
00000330: 12d1 143d 5bc1 1f3d 665c cebc facf ef3c
00000340: 1a22 b4bc 01a5 023d 2291 7abc 1785 c538
00000350: 494b e33c 62bf 0c3d 5cdc cebb 5806 8fbc
00000360: 5e10 9e3c 2e84 10bd 8f94 343d a316 f73c
00000370: a5c8 713c 4fa2 8bbc b321 e2bc 6f32 323a
00000380: de75 3b3d 9ef3 c8bc 84e7 0f3c cb98 873c
00000390: 02bd 103d 219f fb3c 5346 2f3c 6029 69bb
000003a0: 7b51 a7bc 8b5d c8bc 5881 febc a785 2f3c
000003b0: 2d6b 5cbb a498 d43c 3658 8dbc d6e1 003d
000003c0: 6028 fbbc d230 febc 5f76 c8bc 9e59 f03b
000003d0: b2e7 3fbc df0b 9ebc 440a 41bc df96 1ebc
000003e0: a559 c53b dc9c 05bd fd10 d53c 7b54 0f3d
000003f0: 6aed 8c3b 6c65 0f3c c85a 793c e12b ddbb

action_model._continuous_distribution.log_sigma f4 [1, 2]
-0.066991955 -0.01788726
00000000: 1433 89bd 4e88 92bc

action_model._continuous_distribution.mu.weight f4 [2, 256]
-0.0029673206 -0.031737965 0.016836556 0.01569515 0.019882593 -0.006011876 0.05914173 -0.0030139668
-0.037790697 -0.014501141 -0.0080273 -0.011392985 0.020085925 0.033062767 0.039628576 0.02798149
0.009225923 -0.022089047 0.04135735 -0.028219778 0.02285678 0.0076196063 -0.014197944 0.01379954
-0.05022298 -0.011905715 -0.024902727 0.016703362 0.008152816 0.041722275 0.005996204 0.011072801
-0.032319892 0.029764988 0.0053697526 -0.054432146 -0.0054204804 0.016158918 -0.006962072 -0.025886284
0.00065769226 0.015561606 0.016821817 -0.052168086 0.025199285 0.021515112 -0.010529723 0.039428566
-0.017040828 -0.0049302964 0.049986403 -0.013575347 0.017990487 0.027806789 0.034260545 0.034846585
0.023689043 -0.027409045 0.002761621 0.0069485325 0.012206897 0.008028649 0.016799398 0.037520986
-0.004261399 0.011631053 -0.042405788 0.0024026046 -0.008433849 -0.0031591859 0.013430974 -0.051892504
0.0068772887 -0.0116282925 0.011962055 0.030399617 0.021857174 -0.011199754 0.05752189 -0.00082005706
-0.0059674107 -0.0056129745 -0.02654808 0.0079612965 0.021767851 -0.003751356 -0.006327371 -0.017842568
-0.024584187 0.00867515 -0.00063670904 -0.01935741 0.013493921 -0.009768434 0.034163248 0.0072040656
0.023666916 -0.038559794 -0.009424576 -0.035186153 0.040865764 0.014993413 0.023021422 0.018497692
-0.034086905 -0.034572862 -0.004408859 0.04108504 -0.010966937 0.015241605 -0.0025474576 -0.010548352
0.008935287 -0.0066821896 0.033582292 0.025712665 -0.022341905 -0.0067697316 -0.026747527 0.0023794046
0.002564578 -0.02885112 0.0042448784 0.0121024065 0.015193957 -0.008829825 0.021949597 -0.01310149
-0.018956909 -0.012031551 0.009460611 -0.004711171 0.015223181 -0.025158448 -0.07821392 0.0064916345
0.032336242 -0.024902007 0.014583096 0.012619416 0.0013138935 -0.0064289137 0.008177679 -0.050928656
0.017644178 0.01971771 -0.016902817 0.005303894 0.0068387776 0.0011075425 -0.025795184 -0.018518511
-0.012769141 -0.0022276891 0.040963326 0.00073693006 0.01896546 0.024240859 0.014682562 0.014393143
-0.05615576 -0.029739471 0.0057717543 -0.01326962 -0.02336208 -0.032074783 0.057014193 -0.045999218
0.01059772 -0.045005094 -0.039306335 0.033413816 0.040752463 0.0073798234 -0.026815722 -0.04548475
0.01468828 0.018664846 0.012289461 -0.005739145 -0.0110891955 0.0006576891 -0.043883834 -0.048745323
-0.0040941522 0.0074664117 0.016499149 0.0041093696 -0.019553864 0.026219625 -0.020506386 -0.02990492
0.021040408 0.026381083 -0.017493038 0.028264603 -0.00922321 0.0129726 0.01026414 0.00083016517
0.0018907612 0.035888933 0.002812712 -0.037606966 0.03581601 0.026987676 -0.0073762643 0.02609379
-0.006372561 0.03875596 -0.0055419076 0.01647156 0.019353908 0.023769384 -0.047211513 -0.04552723
0.008199018 -0.021298181 0.033760477 0.034869675 0.018424623 -0.036640655 -0.0023903388 0.009678375
0.036862556 -0.050018504 -0.025085554 0.010971972 0.010706488 0.025785992 0.017272078 0.0063202204
-0.032931436 -0.015561506 -0.037421286 0.014340535 0.0059311767 0.0088607045 -0.002338602 0.019662261
-0.04312572 -0.010161418 -0.041311227 -0.017670693 -0.0033149284 -0.026919404 -0.0151772965 -0.038492255
0.008385205 -0.028062262 0.021797013 0.02158011 -0.020687742 -0.018710116 0.027446413 0.007660657
00000000: 6177 42bb abff 01bd d1ec 893c 1d93 803c
00000010: d2e0 a23c 45ff c4bb 993e 723d f985 45bb
00000020: 6bca 1abd 3296 6dbc f084 03bc a4a9 3abc
00000030: 3d8b a43c d36c 073d 9351 223d 7039 e53c
00000040: 5328 173c 17f4 b4bc 5366 293d 2a2d e7bc
00000050: 243e bb3c e4ad f93b 7e9e 68bc 7717 623c
00000060: 9db6 4dbd 3010 43bc ce00 ccbc 7dd5 883c
00000070: 6493 053c fae4 2a3d ce7b c43b b26a 353c
00000080: dd61 04bd b4d5 f33c c0f4 af3b 3ef4 5ebd
00000090: 499e b1bb b55f 843c 1822 e4bb 790f d4bc
000000a0: fb68 2c3a 1bf6 7e3c e8cd 893c 34ae 55bd
000000b0: bb6e ce3c 7640 b03c dc84 2cbc d97f 213d
000000c0: 3599 8bbc 538e a1bb 8bbe 4c3d 226b 5ebc
000000d0: c960 933c 10cb e33c c954 0c3d 4bbb 0e3d
000000e0: 860f c23c ef88 e0bc 50fc 343b 84b0 e33b
000000f0: 70ff 473c 988a 033c e49e 893c 9baf 193d
00000100: 35a3 8bbb 2c90 3e3c b1b1 2dbd 0475 1d3b
00000110: 202e 0abc 580a 4fbb 970d 5c3c 3c8d 54bd
00000120: e15a e13b 9884 3ebc 7ffc 433c 9e08 f93c
00000130: d10d b33c 2c7f 37bc 139c 6b3d 19f9 56ba
00000140: 458a c3bb 0bed b7bb 5c7b d9bc 1970 023c
00000150: 7e52 b23c 4fd9 75bb d655 cfbb 942a 92bc
00000160: c764 c9bc 3722 0e3c d2e8 26ba 6e93 9ebc
00000170: 9b15 5d3c c80b 20bc c3ee 0b3d 1510 ec3b
00000180: 1fe1 c13c e0f0 1dbd 8969 1abc 5b1f 10bd
00000190: dc62 273d efa6 753c 6c97 bc3c 7988 973c
000001a0: b69e 0bbd 469c 0dbd 3178 90bb c948 283d
000001b0: abae 33bc edb7 793c 3ff3 26bb ffd2 2cbc
000001c0: 4f65 123c 45f6 dabb 968d 093d 5ea3 d23c
000001d0: 5f06 b7bc a0d4 ddbb a11d dbbc c9ef 1b3b
000001e0: 7b12 283b 2f59 ecbc 9f18 8b3b 2c49 463c
000001f0: 13f0 783c f8aa 10bc a4cf b33c a2a7 56bc
00000200: 854b 9bbc fc1f 45bc ae00 1b3c 2b60 9abb
00000210: a66a 793c 1719 cebc 9f2e a0bd c7b7 d43b
00000220: 0273 043d 4bff cbbc f0ed 6e3c abc1 4e3c
00000230: f336 ac3a a3a9 d2bb acfb 053c 919a 50bd
00000240: 868a 903c 0987 a13c c777 8abc 4acc ad3b
00000250: d317 e03b f62a 913a 6c50 d3bc 22b4 97bc
00000260: a935 51bc 6cfe 11bb 29c9 273d 8a2e 413a
00000270: 745d 9b3c c494 c63c 218f 703c 38d1 6b3c
00000280: 9503 66bd 31a0 f3bc fc20 bd3b d268 59bc
00000290: d561 bfbc d960 03bd b787 693d ad69 3cbd
000002a0: 0fa2 2d3c 4357 38bd aeff 20bd eddc 083d
000002b0: 0eec 263d 72d2 f13b a5ac dbbc 384e 3abd
000002c0: 1da7 703c 05e7 983c bc59 493c 700f bcbb
000002d0: 75af 35bc c568 2c3a 89bf 33bd 2da9 47bd
000002e0: 3d28 86bb cda8 f43b 3929 873c e4a7 863b
000002f0: 6d2f a0bc 8aca d63c 02fd a7bc 2afb f4bc
00000300: ef5c ac3c 241d d83c 8f4d 8fbc 2b8b e73c
00000310: f21c 17bc 078b 543c ec2a 283c 719f 593a
00000320: 6bd3 f73a 4600 133d 7a55 383b c309 1abd
00000330: cfb3 123d 4215 dd3c 97b4 f1bb a5c2 d53c
00000340: ebd0 d0bb 92be 1e3d e498 b5bb 5def 863c
00000350: 168c 9e3c 03b8 c23c dc60 41bd c37a 3abd
00000360: 2d55 063c 8679 aebc 6d48 0a3d 81d3 0e3d
00000370: 3cef 963c 8314 16bd 3ba7 1cbb 0c92 1e3c
00000380: 31fd 163d 34e0 4cbd 3880 cdbc c9c3 333c
00000390: 446a 2f3c 253d d33c 2c7e 8d3c da19 cf3b
000003a0: 1de3 06bd b0f5 7ebc 1047 19bd 90f4 6a3c
000003b0: 515a c23b 7d2c 113c 3b43 19bb c012 a13c
000003c0: 98a4 30bd 137c 26bc f635 29bd 21c2 90bc
000003d0: 453f 59bb 1586 dcbc 32aa 78bc 0eaa 1dbd
000003e0: 1962 093c d4e2 e5bc a68f b23c c5c8 b03c
000003f0: 5779 a9bc f545 99bc 4dd7 e03c 4006 fb3b

action_model._continuous_distribution.mu.bias f4 [2]
0.026027897 0.015888443
00000000: 7538 d53c 7b28 823c

action_model._discrete_distribution.branches.0.weight f4 [2, 256]
-0.02872505 -0.021750245 0.02276785 0.026105369 -0.029716676 0.02515787 -0.024009746 -0.027234595
-0.0046341745 -0.011234805 0.025207039 0.023632526 0.024787832 -0.026673803 -0.021800974 -0.011794191
-0.032712188 0.029560983 -0.027373763 -0.02266119 -0.024014585 0.023963943 0.013425667 -0.010471489
0.0051499447 0.04783244 -0.0066076284 0.009246896 -0.02103823 0.012395034 0.016003897 0.020040156
0.013923406 0.030817375 0.03740728 0.007404092 -0.034286328 -0.02143544 -0.0015492425 0.032873098
0.02307422 -0.017120346 0.027719526 -0.0028083646 -0.033404034 -0.0015257816 -0.014997075 0.021336826
0.030386532 -0.026094047 -0.047405116 -0.01589089 -0.03922484 -0.017527182 -0.012390671 -0.0017120688
0.0133114 -0.018098764 0.034857456 0.014981735 0.04334832 -0.023240073 0.013949446 -0.0034967177
-0.024195451 0.018069044 0.0037868721 0.025503064 0.0214101 0.0059917653 -0.012547789 0.011445325
0.01008566 0.0198283 0.027496044 -0.024813516 -0.026560478 -0.016647642 -0.041298367 -0.02466085
0.029681627 -0.029650973 0.02039771 0.025557667 -0.020441161 0.0021538439 -0.011646683 -0.003317532
0.017874453 0.023284443 -0.014996783 -0.019637847 0.006983604 0.038507145 0.016440492 0.03080185
0.022869762 0.0027770475 -0.034842703 -0.013943166 -0.03580961 0.027481075 -0.03125025 0.028908443
-0.025572881 -0.013201017 -0.020748353 -0.004178854 -0.0073868954 -0.026110902 0.036127813 -0.00921552
-0.03155235 -0.023502221 0.024706066 -0.038631182 -0.0035995995 -0.026331913 -0.0030684879 0.00878436
-0.049851615 0.0020950316 0.023765493 -0.034210876 -0.013089376 0.020369949 0.020944716 -0.00015858276
0.00784681 0.018786767 0.03147566 0.025842376 -0.024343994 -0.020406572 -0.014502358 0.01478509
-0.025088534 -0.024434224 -0.024776524 -0.0025872404 0.017276004 0.000538923 0.020092303 -0.0031383503
-0.046035703 0.012517131 -0.009672698 0.001396031 0.01687589 0.02100023 -0.032553375 -0.011561785
-0.018768165 -0.007941935 0.00964837 -0.010186952 0.019393673 0.027794734 0.0269166 0.019956294
0.01876124 -0.02324888 0.013558116 -0.012805526 -0.012241278 0.005702864 -0.0070580537 0.010545329
-0.033487912 0.0064047244 0.020969704 0.011017722 -0.025107807 0.015991809 -0.031948168 -0.0037309194
0.023695221 -0.007679331 -0.012654062 0.008291852 0.026751814 0.013597391 -0.00022434977 -0.012018016
-0.023858069 0.028574256 -0.02091076 0.021449583 0.0074056694 -0.036022797 -0.0009804076 0.013830546
-0.008338707 -0.030998185 0.03135786 0.009688502 -0.025743349 0.02022868 0.01511072 -0.019856464
-0.01776181 -0.027261723 0.025153594 -0.012211899 -0.00013690286 -0.024902374 0.005748775 -0.02700435
0.023893608 -0.020042278 0.02769563 0.030292217 -0.03385437 -0.036986046 -0.011856147 -0.0017328963
-0.010208093 0.009367017 -0.04191066 -0.028196765 -0.027933573 0.0261431 0.02387935 0.032533433
-0.01828029 -0.003958856 -0.030713992 -0.02823434 -0.02102099 -0.029854817 -0.02142033 -0.0038740176
0.014062148 0.019354386 0.011720502 0.021393431 0.041575648 -0.021098975 0.015235597 -0.02905479
0.026098188 0.02535389 -0.010072206 -0.01978667 -0.010120466 -0.0022591862 -0.02473269 -0.011406102
0.032988038 0.023359835 -0.019396894 -0.040585253 -0.031379893 -0.031862114 0.03620271 0.03035355
00000000: cc50 ebbc 922d b2bc a483 ba3c edda d53c
00000010: 6370 f3bc e117 ce3c 16b0 c4bc 161b dfbc
00000020: 46da 97bb 3012 38bc fe7e ce3c 0099 c13c
00000030: da0f cb3c 0583 dabc f597 b2bc 6c3c 41bc
00000040: 37fd 05bd e029 f23c f13e e0bc f6a3 b9bc
00000050: 3cba c4bc 0850 c43c 54f7 5b3c 9c90 2bbc
00000060: dec0 a83b f3eb 433d ce84 d8bb 4b80 173c
00000070: 5e58 acbc 8a14 4b3c 9b1a 833c 412b a43c
00000080: ff1e 643c b874 fc3c 6038 193d 069e f23b
00000090: d26f 0cbd 6099 afbc f40f cbba f1a5 063d
000000a0: 2606 bd3c f83f 8cbc 0f14 e33c 8a0c 38bb
000000b0: abd2 08bd bcfc c7ba 4bb6 75bc 91ca ae3c
000000c0: 2ded f83c 2fc3 d5bc de2b 42bd 9d2d 82bc
000000d0: 3aaa 20bd 2a95 8fbc 3e02 4bbc 7f67 e0ba
000000e0: 0f18 5a3c dc43 94bc b1c6 0e3d f375 753c
000000f0: 028e 313d f761 bebc 388c 643c 3029 65bb
00000100: 8a35 c6bc 8805 943c 2c2d 783b cdeb d03c
00000110: 3c64 af3c 9256 c43b 3e95 4dbc 2c85 3b3c
00000120: 533e 253c f66e a23c 623f e13c b745 cbbc
00000130: 5c95 d9bc a360 88bc 7a28 29bd 8d05 cabc
00000140: e226 f33c 99e6 f2bc 1919 a73c 505e d13c
00000150: 3974 a7bc 8127 0d3b bbd1 3ebc f36a 59bb
00000160: 726d 923c 04bf be3c 11b5 75bc 8ddf a0bc
00000170: b7d6 e43b abb9 1d3d 36ae 863c 2954 fc3c
00000180: 5e59 bb3c 20ff 353b 39b7 0ebd e071 64bc
00000190: 19ad 12bd fe1f e13c 4300 00bd 66d1 ec3c
000001a0: 387e d1bc 1449 58bc 73f8 a9bc c5ee 88bb
000001b0: c50d f2bb 88e6 d5bc c2fa 133d b1fc 16bc
000001c0: 093d 01bd bb87 c0bc 6064 ca3c bb3b 1ebd
000001d0: 42e7 6bbb 06b6 d7bc af18 49bb 47ec 0f3c
000001e0: 3531 4cbd cc4c 093b daaf c23c b420 0cbd
000001f0: d274 56bc e1de a63c 4194 ab3c 3c49 26b9
00000200: e88f 003c b5e6 993c 9fec 003d 64b3 d33c
00000210: 0e6d c7bc af2b a7bc 4c9b 6dbc 2a3d 723c
00000220: 7886 cdbc 482a c8bc 23f8 cabc b18e 29bb
00000230: 6886 8d3c 8346 0d3a 9d98 a43c c8ac 4dbb
00000240: ef8f 3cbd a714 4d3c 3c7a 1ebc 07fb b63a
00000250: 4e3f 8a3c ad08 ac3c b056 05bd a46d 3dbc
00000260: b2bf 99bc e41e 02bc 3214 1e3c 2ce7 26bc
00000270: 7bdf 9e3c c8b1 e33c 3480 dc3c 627b a33c
00000280: 2cb1 993c 6f74 bebc dc22 5e3c 45ce 51bc
00000290: a48f 48bc 17df ba3b 3f47 e7bb 51c6 2c3c
000002a0: 9f2a 09bd b9de d13b a8c8 ab3c ad83 343c
000002b0: e3ae cdbc 4101 833c 15dc 02bd 7182 74bb
000002c0: 7b1c c23c e6a2 fbbb fc52 4fbc 8cda 073c
000002d0: 9f26 db3c 97c7 5e3c 6f3f 6bb9 36e7 44bc
000002e0: ff71 c3bc 8f14 ea3c 0b4d abbc 09b7 af3c
000002f0: 42ab f23b a48c 13bd 0581 80ba 8499 623c
00000300: 129f 08bc e8ef fdbc 1971 003d 86bc 1e3c
00000310: b7e3 d2bc 9eb6 a53c f492 773c 06aa a2bc
00000320: 3781 91bc fa53 dfbc e90e ce3c 6b14 48bc
00000330: 958d 0fb9 1000 ccbc 3860 bc3b 3a38 ddbc
00000340: 87bc c33c b42f a4bc f2e1 e23c 6227 f83c
00000350: e1aa 0abd ae7e 17bd 4940 42bc 5a22 e3ba
00000360: d83f 27bc 1e78 193c 83aa 2bbd e7fc e6bc
00000370: f3d4 e4bc 0e2a d63c a09e c33c c741 053d
00000380: 8cc0 95bc 4bb9 81bb e99b fbbc b44b e7bc
00000390: 3634 acbc 1792 f4bc b079 afbc 3be3 7dbb
000003a0: ec64 663c 178d 9e3c 5907 403c 4741 af3c
000003b0: 3a4b 2a3d c2d7 acbc ba9e 793c 5004 eebc
000003c0: decb d53c f6b2 cf3c e505 25bc a817 a2bc
000003d0: 50d0 25bc db0e 14bb 369c cabc a9e0 3abc
000003e0: 771e 073d 205d bf3c 3ce6 9ebc b93c 26bd
000003f0: 3488 00bd d981 02bd 4b49 143d 02a8 f83c

action_model._discrete_distribution.branches.0.bias f4 [2]
-0.017305631 0.017305633
00000000: 8ac4 8dbc 8bc4 8d3c

onnx::Div_70 f4 [11]
0.01221063 0.0033693044 0.0023945589 0.041718185 0.024035512 0.40807554 0.012210772 0.0023945589
0.0140817305 0.0023945589 0.44325745
00000000: 180f 483c 8ccf 5c3b 08ee 1c3b b0e0 2a3d
00000010: 1fe6 c43c 47ef d03e b10f 483c 08ee 1c3b
00000020: 0fb7 663c 08ee 1c3b a4f2 e23e
