results/TestCurriculum2.4/SuperTank/SuperTank-0.pt (torch, 154370 bytes, 22 tensors)

network_body.observation_encoder.processors.0.normalizer.running_mean f4 [6]
0	0x00000000	0.0
1	0x00000000	0.0
2	0x00000000	0.0
3	0x00000000	0.0
4	0x00000000	0.0
5	0x00000000	0.0

network_body.observation_encoder.processors.0.normalizer.running_variance f4 [6]
0	0x3f800000	1.0
1	0x3f800000	1.0
2	0x3f800000	1.0
3	0x3f800000	1.0
4	0x3f800000	1.0
5	0x3f800000	1.0

network_body.processors.0.normalizer.running_mean f4 [6]
0	0x00000000	0.0
1	0x00000000	0.0
2	0x00000000	0.0
3	0x00000000	0.0
4	0x00000000	0.0
5	0x00000000	0.0

network_body.processors.0.normalizer.running_variance f4 [6]
0	0x3f800000	1.0
1	0x3f800000	1.0
2	0x3f800000	1.0
3	0x3f800000	1.0
4	0x3f800000	1.0
5	0x3f800000	1.0

network_body._body_endoder.seq_layers.0.weight f4 [128, 6]
0	0x3f5798d4	0.8421757
1	0xbd9c04b9	-0.07618088
2	0xbe9d3ea3	-0.3071185
3	0xbe8830df	-0.26599786
4	0x3e477fd1	0.19482352
5	0xbf0b4cfd	-0.5441435
6	0xbf133e5d	-0.57517034
7	0x3ec2d211	0.38050893
8	0xbe270297	-0.16309582
9	0x3e252543	0.16127495
10	0x3e8958af	0.26825473
11	0x3ebe7584	0.37199032
12	0x3f074d83	0.5285265
13	0xbcb23113	-0.021751916
14	0x3d8ffbaa	0.07030423
15	0x3da1e173	0.07904329
16	0x3d818f7c	0.063261956
17	0xbe1f075d	-0.15530153
18	0xbb199afd	-0.0023438327
19	0x3e827632	0.254808
20	0x3e7aef0f	0.24505256
21	0x3ec286c4	0.37993443
22	0xbe892383	-0.26784906
23	0x3eb7b433	0.3587967
24	0xbd7afb20	-0.061274648
25	0xbeb1dbeb	-0.34738097
26	0x3e21e32e	0.15809318
27	0xbe8ce8ca	-0.27521354
28	0xbf01b43f	-0.5066566
29	0x3ec293d2	0.38003403
30	0xbe0137b0	-0.126189
31	0xbe9dbc0f	-0.3080754
32	0xbeee6f5e	-0.4656934
33	0xbec4ec42	-0.384615
34	0x3ee0f602	0.4393769
35	0xbf1e5b0f	-0.61857694
36	0xbc840d11	-0.016119512
37	0xbe5fea6e	-0.21866772
38	0x3ef71d99	0.4826477
39	0x3eb9c609	0.362839
40	0x3e899812	0.26873833
41	0xbe8f66e6	-0.28008193
42	0x3ed49cc8	0.41525865
43	0x3f715dca	0.94283736
44	0xbf868648	-1.0509729
45	0xbed170b3	-0.40906295
46	0x3f055629	0.52084595
47	0xbdf63a2b	-0.120228134
48	0xbe9524bc	-0.2912959
49	0x3eb03ab3	0.34419784
50	0xbf25a478	-0.64704084
51	0xbf089cf5	-0.533645
52	0x3e9c0b5a	0.3047741
53	0xbf16e537	-0.58943504
54	0xbf33c0f6	-0.7021631
55	0x3eb0b570	0.34513426
56	0x3c0e0a4e	0.008669449
57	0x3d1160e3	0.03549279
58	0xbc34a57c	-0.011025783
59	0xbe872052	-0.26391846
60	0xbdb4113d	-0.087923504
61	0x3f4c0168	0.79689646
62	0x3ecd1da3	0.40061674
63	0xbe527502	-0.20552447
64	0x3e8f3738	0.27971816
65	0x3f884c13	1.0648216
66	0x3e6e8d1b	0.23296015
67	0xbea9b299	-0.33144072
68	0xbe9d8903	-0.30768594
69	0x3d02e9e3	0.031961333
70	0x3dcc8811	0.0998689
71	0xbe471ac4	-0.19443804
72	0xbd5a083e	-0.053230517
73	0xbe809b5b	-0.25118527
74	0xbed4940f	-0.4151921
75	0x3f8ecabe	1.1155622
76	0x3dec389c	0.11534235
77	0xbe70ac3c	-0.23503202
78	0xbdc593f5	-0.09647361
79	0x3f41dd4f	0.75728315
80	0x3e50bc6d	0.20384379
81	0xbf8111c9	-1.0083553
82	0xbda9200a	-0.08258064
83	0x3e9cd25a	0.30629236
84	0xbe54e3df	-0.20790051
85	0xbed239c9	-0.41059712
86	0xbe36bd16	-0.17845568
87	0xbeccc6ba	-0.39995366
88	0x3ec8950f	0.39176223
89	0x3e2aa9c0	0.16666317
90	0x3e8cba10	0.27485704
91	0xbf973b4c	-1.1814971
92	0x3f2e6238	0.6811862
93	0x3e35245a	0.17689648
94	0xbeebf830	-0.4608779
95	0x3e8aa006	0.27075213
96	0xbf13f812	-0.578004
97	0xbeda223a	-0.42604238
98	0xbd87b521	-0.066263445
99	0x3e97d3b3	0.296537
100	0xbeb58ac5	-0.35457435
101	0xbe6eb167	-0.23309861
102	0xbd1e5a9d	-0.038660634
103	0x3e51e767	0.20498429
104	0x3e8e0176	0.2773549
105	0x3e7f2492	0.24916294
106	0x3e0d2494	0.13783485
107	0x3e63c3aa	0.22242609
108	0x3d3029f4	0.04300876
109	0x3f05dcd9	0.5229011
110	0xbe08e8c0	-0.13370037
111	0x3dd27422	0.10276057
112	0xbc7d816e	-0.015472753
113	0x3d5a692c	0.053322956
114	0xbeea1c6d	-0.45724812
115	0xbea8db79	-0.32979944
116	0x3e6b59d7	0.2298349
117	0x3c36b304	0.011151079
118	0x3e63aa26	0.22232875
119	0xbd79e360	-0.061007857
120	0xbedd7222	-0.4325114
121	0x3db0cf45	0.086332835
122	0xbe409861	-0.18808128
123	0x3ea5ec5d	0.32406893
124	0xbe52dbb5	-0.20591624
125	0xbcf4f8fd	-0.029903883
126	0x3e4c0ab2	0.19925955
127	0xbde3bae1	-0.11119629
128	0x3f7377e8	0.9510484
129	0xbfa7b42f	-1.3101863
130	0xbeeb24d8	-0.45926547
131	0xbf59c041	-0.8505898
132	0xbcf48aeb	-0.029851397
133	0x3bba76e4	0.0056904424
134	0xbed03185	-0.4066278
135	0xbebf0c88	-0.37314248
136	0x3e6291a6	0.22125873
137	0xbecfd820	-0.40594578
138	0x3f481000	0.78149414
139	0xbf31eec4	-0.6950495
140	0x3e48e089	0.19616903
141	0xbeb8e2cd	-0.36110535
142	0xbf11b097	-0.5691008
143	0x3dc892eb	0.097936474
144	0xbe84e92e	-0.25959152
145	0xbe537eae	-0.20653793
146	0x3e6bd90e	0.23032019
147	0x3d586cb1	0.05283803
148	0xbe5475e0	-0.2074809
149	0x3df3de26	0.11907606
150	0x3e05a3e4	0.130508
151	0x3da62fa9	0.08114559
152	0x3f15e42e	0.585513
153	0x3d4d1364	0.05006732
154	0x3e2e40d9	0.17016925
155	0x3e98cbb1	0.29842904
156	0xbe9313d0	-0.28726053
157	0xbe0fc720	-0.14040804
158	0xbe005cac	-0.12535352
159	0x3e0e9848	0.13925278
160	0x3f197ed4	0.5995915
161	0xbd762445	-0.060093183
162	0x3e6b707c	0.22992128
163	0xbeb4e772	-0.3533283
164	0x3e3f4ed4	0.18682414
165	0x3f252192	0.6450435
166	0xbeae221b	-0.34010395
167	0x3eeb4bd0	0.45956278
168	0x3cbb413b	0.022858253
169	0xbea641e0	-0.32472134
170	0xbdceb559	-0.10093183
171	0xbed0492b	-0.40680823
172	0x3c2cbc9d	0.010543016
173	0x3e6565ef	0.22402166
174	0x3e25e0eb	0.1619908
175	0xbe8c51e8	-0.2740624
176	0x3f3087ee	0.6895741
177	0x3e09be8e	0.13451597
178	0xbca4e13b	-0.02012693
179	0xbdc46c8f	-0.095910184
180	0x3e6c75d4	0.23091823
181	0x3ebfc670	0.37456083
182	0xbf350067	-0.7070374
183	0xbd98f49b	-0.0746853
184	0x3f5251ec	0.8215625
185	0x3afa9a26	0.0019119426
186	0xbc9a961a	-0.018870402
187	0x3e6aefbf	0.22943018
188	0xbeb866d9	-0.36015967
189	0x3f0a1ece	0.53953254
190	0x3e060424	0.13087517
191	0xbf0060f0	-0.50147915
192	0xbf0ddcb0	-0.5541487
193	0xbef8b49d	-0.48575297
194	0x3dbc4f7d	0.09194849
195	0x3d404f4d	0.046950627
196	0x3e3aee23	0.18254904
197	0xbde212e6	-0.11038761
198	0xbea4826b	-0.3213075
199	0xbe8b3ebc	-0.271963
200	0xbc2e83a1	-0.0106515
201	0xbe33ecc6	-0.1757079
202	0x3e2a0529	0.16603531
203	0x3e9aa67c	0.30205142
204	0xbe065ac7	-0.13120566
205	0x3eadb29e	0.33925337
206	0xbe9f2b1c	-0.31087577
207	0xbcc2f9f0	-0.02380082
208	0xbe5b7825	-0.2143255
209	0xbf25a328	-0.6470208
210	0x3eea9d0b	0.4582294
211	0x3e46bc3e	0.19407746
212	0xbbf97024	-0.007612245
213	0xbdaed4ff	-0.085367195
214	0x3e8bd3ae	0.27309936
215	0xbed88d19	-0.4229515
216	0xbf28fd08	-0.66011095
217	0xbe823af3	-0.254356
218	0xbd254ab7	-0.040354457
219	0x3dc4fd8c	0.09618673
220	0xbf1bc32f	-0.608447
221	0x3d992c4b	0.07479151
222	0x3dd6aa85	0.10481743
223	0x3ae65f73	0.0017576054
224	0x3ef9c938	0.4878633
225	0x3ea5f213	0.3241125
226	0xbecdac21	-0.40170386
227	0x3f9eed8b	1.2416242
228	0xbf1849f1	-0.59487826
229	0x3f24cf8c	0.6437919
230	0x3f2a0777	0.6641764
231	0xbf0778cb	-0.5291869
232	0xbe2285c5	-0.15871342
233	0xbcb48ef0	-0.022040814
234	0xbce50d03	-0.027960306
235	0x3e84778e	0.25872463
236	0xbd883581	-0.0665083
237	0x3efc8305	0.4931871
238	0x3f82b6d4	1.0212045
239	0xbed03252	-0.4066339
240	0xbf516ef3	-0.8180992
241	0x3d51401e	0.051086538
242	0xbee273a4	-0.44228852
243	0x3f2249f8	0.6339412
244	0x3f3c0b15	0.7345441
245	0x3f2d2a42	0.67642605
246	0x3e844be6	0.25839156
247	0x3d670b85	0.05640747
248	0x3f624dde	0.88400066
249	0xbe38a350	-0.18031049
250	0xbcd536fa	-0.026027191
251	0x3f1ce0de	0.6128062
252	0xbe38a4ee	-0.18031666
253	0xbe36e5d4	-0.1786111
254	0x3ef5b78d	0.479916
255	0xbdeb2930	-0.11482465

network_body._body_endoder.seq_layers.0.bias f4 [128]
0	0x00000000	0.0
1	0x00000000	0.0
2	0x00000000	0.0
3	0x00000000	0.0
4	0x00000000	0.0
5	0x00000000	0.0
6	0x00000000	0.0
7	0x00000000	0.0
8	0x00000000	0.0
9	0x00000000	0.0
10	0x00000000	0.0
11	0x00000000	0.0
12	0x00000000	0.0
13	0x00000000	0.0
14	0x00000000	0.0
15	0x00000000	0.0
16	0x00000000	0.0
17	0x00000000	0.0
18	0x00000000	0.0
19	0x00000000	0.0
20	0x00000000	0.0
21	0x00000000	0.0
22	0x00000000	0.0
23	0x00000000	0.0
24	0x00000000	0.0
25	0x00000000	0.0
26	0x00000000	0.0
27	0x00000000	0.0
28	0x00000000	0.0
29	0x00000000	0.0
30	0x00000000	0.0
31	0x00000000	0.0
32	0x00000000	0.0
33	0x00000000	0.0
34	0x00000000	0.0
35	0x00000000	0.0
36	0x00000000	0.0
37	0x00000000	0.0
38	0x00000000	0.0
39	0x00000000	0.0
40	0x00000000	0.0
41	0x00000000	0.0
42	0x00000000	0.0
43	0x00000000	0.0
44	0x00000000	0.0
45	0x00000000	0.0
46	0x00000000	0.0
47	0x00000000	0.0
48	0x00000000	0.0
49	0x00000000	0.0
50	0x00000000	0.0
51	0x00000000	0.0
52	0x00000000	0.0
53	0x00000000	0.0
54	0x00000000	0.0
55	0x00000000	0.0
56	0x00000000	0.0
57	0x00000000	0.0
58	0x00000000	0.0
59	0x00000000	0.0
60	0x00000000	0.0
61	0x00000000	0.0
62	0x00000000	0.0
63	0x00000000	0.0
64	0x00000000	0.0
65	0x00000000	0.0
66	0x00000000	0.0
67	0x00000000	0.0
68	0x00000000	0.0
69	0x00000000	0.0
70	0x00000000	0.0
71	0x00000000	0.0
72	0x00000000	0.0
73	0x00000000	0.0
74	0x00000000	0.0
75	0x00000000	0.0
76	0x00000000	0.0
77	0x00000000	0.0
78	0x00000000	0.0
79	0x00000000	0.0
80	0x00000000	0.0
81	0x00000000	0.0
82	0x00000000	0.0
83	0x00000000	0.0
84	0x00000000	0.0
85	0x00000000	0.0
86	0x00000000	0.0
87	0x00000000	0.0
88	0x00000000	0.0
89	0x00000000	0.0
90	0x00000000	0.0
91	0x00000000	0.0
92	0x00000000	0.0
93	0x00000000	0.0
94	0x00000000	0.0
95	0x00000000	0.0
96	0x00000000	0.0
97	0x00000000	0.0
98	0x00000000	0.0
99	0x00000000	0.0
100	0x00000000	0.0
101	0x00000000	0.0
102	0x00000000	0.0
103	0x00000000	0.0
104	0x00000000	0.0
105	0x00000000	0.0
106	0x00000000	0.0
107	0x00000000	0.0
108	0x00000000	0.0
109	0x00000000	0.0
110	0x00000000	0.0
111	0x00000000	0.0
112	0x00000000	0.0
113	0x00000000	0.0
114	0x00000000	0.0
115	0x00000000	0.0
116	0x00000000	0.0
117	0x00000000	0.0
118	0x00000000	0.0
119	0x00000000	0.0
120	0x00000000	0.0
121	0x00000000	0.0
122	0x00000000	0.0
123	0x00000000	0.0
124	0x00000000	0.0
125	0x00000000	0.0
126	0x00000000	0.0
127	0x00000000	0.0

network_body._body_endoder.seq_layers.2.weight f4 [128, 128]
0	0x3e2f99d7	0.17148529
1	0xbde93a25	-0.11388043
2	0x3d5a773b	0.053336363
3	0xbd84e94e	-0.06489812
4	0xbdd13381	-0.10214902
5	0xbd002633	-0.03128643
6	0xbcc81acb	-0.024426838
7	0xbe143541	-0.1447344
8	0xbe0c1aa6	-0.1368204
9	0xbcd974b3	-0.026544904
10	0x3dc34858	0.09535283
11	0xbdf1d9f0	-0.118091464
12	0x3e60c299	0.21949233
13	0xbe17fc98	-0.1484245
14	0xbd2541ac	-0.040345833
15	0x3e0856a0	0.13314295
16	0xbd4ec9d0	-0.050485432
17	0x3ae47069	0.001742852
18	0xbcae6353	-0.021287596
19	0x3dab2a43	0.0835767
20	0xbe05b591	-0.13057543
21	0xbd0c97a1	-0.034324292
22	0xbdc44807	-0.095840506
23	0x3cb33e58	0.021880314
24	0xbdec6275	-0.11542217
25	0xbd9821b3	-0.074283026
26	0xbcac261e	-0.02101427
27	0x3c418889	0.011812338
28	0x3e5e70df	0.21722744
29	0xba102526	-0.00054986996
30	0xbd4ceeaa	-0.050032295
31	0x3ddcc3f3	0.10779562
32	0xbd09b9ca	-0.033624448
33	0x3a3caf99	0.0007197797
34	0x3bc93b35	0.006141091
35	0xbd1cd792	-0.03829152
36	0xbdcc119d	-0.09964297
37	0x3d960c4a	0.07326563
38	0x3d87bf45	0.06628279
39	0x3d60be4a	0.054868974
40	0xbb946960	-0.0045291632
41	0x3dd369f4	0.10322943
42	0x3bdfb74c	0.0068272706
43	0x3d44fc5e	0.04809224
44	0xbdb916fd	-0.09037588
45	0xbd959ffc	-0.07305905
46	0x3e2c620a	0.16834274
47	0xbc1bcb26	-0.009508884
48	0x3e12f94b	0.1435291
49	0xbd80bbeb	-0.062858425
50	0x3d8ac9d1	0.06776775
51	0xbcd17563	-0.02556867
52	0x3cb15db7	0.021651132
53	0x3e0f482f	0.1399238
54	0xbc31218a	-0.010811219
55	0xbceaab4a	-0.02864613
56	0x3d7b0b6a	0.061290182
57	0xbc852e59	-0.016257452
58	0xbdb66844	-0.08906606
59	0xbde1b4df	-0.110208265
60	0xbd6c7ae5	-0.05773439
61	0x3d6d96c7	0.05800512
62	0xbd9844f4	-0.07435027
63	0x3db2580f	0.08708202
64	0x3e249b97	0.16074978
65	0xbd7d8341	-0.06189275
66	0x3e28606d	0.16443034
67	0x3d4fad64	0.050702468
68	0x3d1a1904	0.037621513
69	0x3c2d5b52	0.0105808545
70	0xbbad9ad8	-0.005298
71	0xbd0002f8	-0.03125283
72	0xbd8b805d	-0.06811593
73	0x3d8f3a11	0.06993497
74	0x3d2dc087	0.042419937
75	0x3d329361	0.043597583
76	0x3c9ef0ef	0.019401995
77	0x3d2a8d43	0.041638624
78	0xbc481e5f	-0.012214272
79	0x3b7ea78a	0.0038857185
80	0x3d5d6d45	0.054059286
81	0xbb0041ad	-0.0019570396
82	0xbcfcb0ec	-0.030846082
83	0x3d81294a	0.063067034
84	0x3c980cad	0.018560732
85	0x3ccacc58	0.024755642
86	0x3dda736e	0.10666548
87	0x3d578d89	0.052625213
88	0xbd9ab78c	-0.0755454
89	0x3d541db6	0.051786147
90	0xbdf4c62b	-0.1195186
91	0xbe436f95	-0.19085534
92	0xbd55f4b5	-0.052235324
93	0x3d716703	0.05893613
94	0xbbf98859	-0.007615131
95	0xbd802e3d	-0.06258819
96	0x3dc522a8	0.09625751
97	0x3c856760	0.016284645
98	0xbc5d9b05	-0.013525729
99	0x3c498e6a	0.012302021
100	0xbcbb131d	-0.022836262
101	0xbdb8e227	-0.0902751
102	0x3e4baa01	0.1988907
103	0xbb365f62	-0.0027827849
104	0x3d3b5448	0.045734674
105	0x3d1ca876	0.038246594
106	0xbbba9ae3	-0.0056947335
107	0xbd9f78da	-0.077867225
108	0x3d847e4e	0.06469403
109	0x3db211be	0.0869479
110	0xbd18d9d7	-0.037317123
111	0x3c92caa7	0.017918898
112	0x3cdf113e	0.027229901
113	0x3e08d733	0.13363342
114	0x3d14f63b	0.036367636
115	0xbe056f08	-0.13030636
116	0x3e7aed37	0.24504553
117	0xbe07f3b3	-0.13276558
118	0xbd6c8456	-0.057743393
119	0xbc3ba97a	-0.011453981
120	0x3d65fe94	0.056150988
121	0x3d599b0b	0.053126376
122	0x3d0136ad	0.031546284
123	0xbd66623b	-0.056246024
124	0x3d1a2f6c	0.03764288
125	0x3e01c3fe	0.12672421
126	0x3e0d45d6	0.13796172
127	0x3d0483a6	0.032352112
128	0xbced7d11	-0.0289903
129	0x3d86237d	0.065497376
130	0x3e523e51	0.20531584
131	0xbd7a44b8	-0.06110069
132	0x3e2a9e7e	0.16662022
133	0x3d994326	0.07483511
134	0x3decef00	0.11569023
135	0xbdd04522	-0.10169436
136	0xbd1cae6f	-0.03825229
137	0xbda93c9f	-0.08263516
138	0x3d2fff63	0.042968165
139	0xbdf6b5fa	-0.12046428
140	0x3dd13d37	0.10216754
141	0x3e829819	0.25506666
142	0xbd3758f4	-0.044762567
143	0x3d8e6883	0.06953528
144	0xbce601bb	-0.028076997
145	0x3d51405b	0.051086765
146	0x3bdcb5d5	0.0067355433
147	0xbb1b604b	-0.0023708518
148	0xbdeca6c1	-0.11555243
149	0xbd04d7ac	-0.032432243
150	0xbce140e2	-0.027496759
151	0x3da6f980	0.08153057
152	0x3c54a9f8	0.012979977
153	0x3dd24da8	0.10268718
154	0x3c3ff060	0.011715025
155	0x3d8f4536	0.06995623
156	0x3d391eb2	0.04519529
157	0xbc6e9d90	-0.014563933
158	0x3b5e32fd	0.0033904903
159	0x3dfd3c96	0.123650715
160	0x3e657e37	0.22411428
161	0x3c7c383f	0.0153942695
162	0xbd8c056d	-0.068369724
163	0x3e25e776	0.16201577
164	0xbd9352a1	-0.071934946
165	0xbdceffb5	-0.10107366
166	0xbd81bfe0	-0.063354254
167	0x3dc81455	0.09769503
168	0xbc2f81ec	-0.010712128
169	0xbd64239e	-0.05569803
170	0xbc70ada0	-0.014689833
171	0x3d46a7b4	0.048499778
172	0x3d891269	0.066929646
173	0x3cd454ab	0.02591928
174	0xbe230a79	-0.15921964
175	0x3d8fe291	0.07025636
176	0xbb625939	-0.0034538044
177	0x3d59ea28	0.053201824
178	0x3c7050cc	0.014667701
179	0xbde4b5b5	-0.1116747
180	0xbd1d3e36	-0.038389407
181	0x3ab0c0f7	0.0013485242
182	0x3c855f62	0.016280834
183	0xbd06dd63	-0.032925975
184	0xbccaf074	-0.02477286
185	0x3d52dd1f	0.05148041
186	0x3d4f5b5d	0.05062424
187	0x3d5db68d	0.054129172
188	0xbe111abd	-0.14170356
189	0x3d968d77	0.07351201
190	0x3d884aa1	0.06654859
191	0xbdd64ec6	-0.104642436
192	0x3d4cdbcb	0.0500143
193	0xbde6779c	-0.112532824
194	0xbdf8eaa1	-0.12154127
195	0x3e1ada70	0.1512239
196	0xbca7664d	-0.020434523
197	0x3d0cfab7	0.034418788
198	0xbd11fc66	-0.035641097
199	0xbcff797a	-0.031185854
200	0xbcd8d2d2	-0.026467714
201	0x3bd835b2	0.006598198
202	0xbc987a04	-0.01861287
203	0xbcb6d6b1	-0.02231917
204	0xbd1777ff	-0.03697967
205	0x3cd02962	0.025410358
206	0xbd6eab43	-0.058268797
207	0x3c918128	0.017761782
208	0xbd2f1850	-0.042747796
209	0xbdd6760d	-0.10471735
210	0xbd1e4eb0	-0.03864926
211	0x3d9fd667	0.07804566
212	0xbd0b8079	-0.034058068
213	0x3e0a7556	0.13521323
214	0xbba5aec8	-0.005056236
215	0xbc7c4914	-0.015398283
216	0x3de535e5	0.1119192
217	0x3d6d8162	0.057984717
218	0xbe0c90dd	-0.13727136
219	0xbcbe3b55	-0.023221651
220	0x3d1a3a50	0.037653267
221	0xbdd29ab4	-0.102834135
222	0x3c15d473	0.00914489
223	0xbcf263dd	-0.029588634
224	0xbd918a4d	-0.07106457
225	0x3d0a9240	0.03383088
226	0xbc8806c4	-0.016604789
227	0x3d4ea65f	0.050451633
228	0xbcec1563	-0.028818792
229	0x3db74d04	0.089502364
230	0xbca8a407	-0.020586027
231	0x3db5fe93	0.08886447
232	0xbd18e2ff	-0.037325855
233	0xbdcf3ddf	-0.10119223
234	0xbcc002b7	-0.023438795
235	0xbcad468f	-0.021151809
236	0x3d63f828	0.055656582
237	0x3d88b578	0.066752374
238	0x3ba44dc3	0.0050141527
239	0x3cde6043	0.02714551
240	0x3c4b2e6e	0.012401206
241	0x3dbb15f6	0.09135048
242	0x3d03ff32	0.032225795
243	0xbc935878	-0.017986521
244	0x3d9cf1aa	0.07663281
245	0x3bc75047	0.006082568
246	0xbc3b1545	-0.011418645
247	0xbceed059	-0.029152082
248	0xbce7ad1c	-0.028280787
249	0x3d930659	0.07178945
250	0x3e16f2ed	0.14741106
251	0xbd02d919	-0.03194532
252	0xbceaa331	-0.028642269
253	0x3d744823	0.059639107
254	0xbdb7e09d	-0.089783885
255	0xbdc262ce	-0.09491502

network_body._body_endoder.seq_layers.2.bias f4 [128]
0	0x00000000	0.0
1	0x00000000	0.0
2	0x00000000	0.0
3	0x00000000	0.0
4	0x00000000	0.0
5	0x00000000	0.0
6	0x00000000	0.0
7	0x00000000	0.0
8	0x00000000	0.0
9	0x00000000	0.0
10	0x00000000	0.0
11	0x00000000	0.0
12	0x00000000	0.0
13	0x00000000	0.0
14	0x00000000	0.0
15	0x00000000	0.0
16	0x00000000	0.0
17	0x00000000	0.0
18	0x00000000	0.0
19	0x00000000	0.0
20	0x00000000	0.0
21	0x00000000	0.0
22	0x00000000	0.0
23	0x00000000	0.0
24	0x00000000	0.0
25	0x00000000	0.0
26	0x00000000	0.0
27	0x00000000	0.0
28	0x00000000	0.0
29	0x00000000	0.0
30	0x00000000	0.0
31	0x00000000	0.0
32	0x00000000	0.0
33	0x00000000	0.0
34	0x00000000	0.0
35	0x00000000	0.0
36	0x00000000	0.0
37	0x00000000	0.0
38	0x00000000	0.0
39	0x00000000	0.0
40	0x00000000	0.0
41	0x00000000	0.0
42	0x00000000	0.0
43	0x00000000	0.0
44	0x00000000	0.0
45	0x00000000	0.0
46	0x00000000	0.0
47	0x00000000	0.0
48	0x00000000	0.0
49	0x00000000	0.0
50	0x00000000	0.0
51	0x00000000	0.0
52	0x00000000	0.0
53	0x00000000	0.0
54	0x00000000	0.0
55	0x00000000	0.0
56	0x00000000	0.0
57	0x00000000	0.0
58	0x00000000	0.0
59	0x00000000	0.0
60	0x00000000	0.0
61	0x00000000	0.0
62	0x00000000	0.0
63	0x00000000	0.0
64	0x00000000	0.0
65	0x00000000	0.0
66	0x00000000	0.0
67	0x00000000	0.0
68	0x00000000	0.0
69	0x00000000	0.0
70	0x00000000	0.0
71	0x00000000	0.0
72	0x00000000	0.0
73	0x00000000	0.0
74	0x00000000	0.0
75	0x00000000	0.0
76	0x00000000	0.0
77	0x00000000	0.0
78	0x00000000	0.0
79	0x00000000	0.0
80	0x00000000	0.0
81	0x00000000	0.0
82	0x00000000	0.0
83	0x00000000	0.0
84	0x00000000	0.0
85	0x00000000	0.0
86	0x00000000	0.0
87	0x00000000	0.0
88	0x00000000	0.0
89	0x00000000	0.0
90	0x00000000	0.0
91	0x00000000	0.0
92	0x00000000	0.0
93	0x00000000	0.0
94	0x00000000	0.0
95	0x00000000	0.0
96	0x00000000	0.0
97	0x00000000	0.0
98	0x00000000	0.0
99	0x00000000	0.0
100	0x00000000	0.0
101	0x00000000	0.0
102	0x00000000	0.0
103	0x00000000	0.0
104	0x00000000	0.0
105	0x00000000	0.0
106	0x00000000	0.0
107	0x00000000	0.0
108	0x00000000	0.0
109	0x00000000	0.0
110	0x00000000	0.0
111	0x00000000	0.0
112	0x00000000	0.0
113	0x00000000	0.0
114	0x00000000	0.0
115	0x00000000	0.0
116	0x00000000	0.0
117	0x00000000	0.0
118	0x00000000	0.0
119	0x00000000	0.0
120	0x00000000	0.0
121	0x00000000	0.0
122	0x00000000	0.0
123	0x00000000	0.0
124	0x00000000	0.0
125	0x00000000	0.0
126	0x00000000	0.0
127	0x00000000	0.0

action_model._continuous_distribution.log_sigma f4 [1, 2]
0	0x00000000	0.0
1	0x00000000	0.0

action_model._continuous_distribution.mu.weight f4 [2, 128]
0	0x3c6330b0	0.0138665885
1	0x3cd669dd	0.026173526
2	0x3cb9fa87	0.022702469
3	0x3b594595	0.0033153046
4	0xbcb8d8d6	-0.022564333
5	0xbd092d7d	-0.033490647
6	0xbba0dcf4	-0.004909152
7	0xbc19cb63	-0.00938687
8	0xbc525782	-0.012838246
9	0x3c05d54f	0.0081685325
10	0x3c62efba	0.013851101
11	0xbcb60820	-0.022220671
12	0xbb164e47	-0.002293484
13	0xbd0a0b81	-0.033702377
14	0x3c0698fc	0.008215185
15	0x3d10cdeb	0.03535263
16	0xbc48b450	-0.012250021
17	0xbbaa82f3	-0.0052035986
18	0xbc23bcc8	-0.009993739
19	0xbd0517de	-0.032493465
20	0x3cd90cc8	0.026495352
21	0x3cd6d0a7	0.02622254
22	0x3d013e97	0.03155383
23	0x3bd49090	0.0064869598
24	0xbb66d44a	-0.003522175
25	0xbab018a0	-0.0013435073
26	0x3b348d18	0.0027549919
27	0xbd116f52	-0.035506554
28	0xbb254b7f	-0.0025222
29	0xbced925d	-0.029000456
30	0x3c71c007	0.014755256
31	0xbd22c024	-0.03973402
32	0x3d047637	0.0323393
33	0xbc2208d2	-0.009889798
34	0x3bae0017	0.0053100693
35	0x3c50aaa2	0.0127359945
36	0x3844d502	4.692842e-05
37	0x3c79a3bd	0.015236792
38	0x3d399707	0.045310047
39	0xbbd8ec48	-0.006619964
40	0x3a75309f	0.00093532534
41	0xbc37007b	-0.011169548
42	0xbb61e403	-0.003446818
43	0xbccb31bc	-0.024803989
44	0xbbed6677	-0.007244881
45	0x3abce2b6	0.0014410827
46	0x3b596bcf	0.0033175831
47	0xbb628f75	-0.003457037
48	0xbcb94ad0	-0.022618681
49	0xbc38c0ee	-0.011276467
50	0xbcae8d60	-0.021307647
51	0x3c196770	0.00936304
52	0xbb23aceb	-0.0024974893
53	0x3c3405e1	0.01098773
54	0x3c6033d7	0.013684235
55	0xbc3f94c0	-0.01169318
56	0xbcb1e739	-0.0217167
57	0x3c0edbc3	0.008719387
58	0xbd1837bf	-0.03716254
59	0x3c6a88ed	0.014314872
60	0x3bb8e11a	0.0056420686
61	0xbc71069d	-0.014711049
62	0xbc24ea32	-0.010065602
63	0xbbbb2afd	-0.0057119117
64	0x3d09f82e	0.03368395
65	0xbb4af837	-0.0030970701
66	0xbbf22f2f	-0.0073908786
67	0xbd266bd7	-0.040630188
68	0xbc9bb973	-0.019009328
69	0xbb625fea	-0.0034542033
70	0x3c0c54c6	0.008565133
71	0xbb6505c3	-0.0034946061
72	0xbba02c76	-0.0048881127
73	0x3cbe56c7	0.023234738
74	0xbcc8abb7	-0.024495943
75	0xbbf89ec7	-0.007587287
76	0xbcdecd0a	-0.02719738
77	0xbc7140b2	-0.014724897
78	0xbc4a2a13	-0.012339133
79	0x3c999df8	0.018752083
80	0xbc4c6467	-0.01247511
81	0xbc643913	-0.013929623
82	0x3cea92dd	0.028634483
83	0x3c7883b5	0.01516812
84	0x3bb2934b	0.0054496876
85	0xbb369d93	-0.0027864918
86	0x3b3cedc6	0.0028828247
87	0xbb1afc8b	-0.0023649062
88	0xbaa7bbbc	-0.0012797038
89	0xbc921fc4	-0.017837413
90	0x3c7204a8	0.014771618
91	0x3bcfafa5	0.006338077
92	0x3bdaf160	0.006681606
93	0x3d0f705b	0.03501926
94	0x3cd5b4f7	0.026087267
95	0x3c3a0747	0.011354274
96	0x3c9906a9	0.018679934
97	0x3cbf3b8b	0.023343822
98	0xbbd111d7	-0.0063803005
99	0x3abb6be8	0.0014299126
100	0xbcb0ec30	-0.021596998
101	0xbc8fccc3	-0.017553693
102	0xbb9f1a3b	-0.004855422
103	0x3c0a19ab	0.008428971
104	0xbccecd3b	-0.025244346
105	0x3c8fa64e	0.017535355
106	0x3cee1e28	0.029067114
107	0xbb20c7c9	-0.0024533144
108	0xbd384a76	-0.044992886
109	0x3c806ae7	0.015675975
110	0xbceac047	-0.028656138
111	0xbc24b347	-0.010052509
112	0xbba3aa4d	-0.0049946667
113	0x3c0e501d	0.008686093
114	0x3d28ed23	0.041241776
115	0x3cadfed9	0.021239685
116	0x3c28fa68	0.010313608
117	0xbc5682b7	-0.013092688
118	0xbc878263	-0.016541665
119	0xbbcdd577	-0.0062815505
120	0x3c40228d	0.011726988
121	0xbaedea4b	-0.001815149
122	0xbd269d1d	-0.04067718
123	0x3c499bf4	0.0123052485
124	0xbc96dfe7	-0.018417312
125	0x3b645f93	0.0034847006
126	0x3c35ad5b	0.011088694
127	0xbd10be02	-0.035337456
128	0xbc50a70a	-0.012735138
129	0x3cb19e87	0.021682037
130	0x3d01eabc	0.031718
131	0xbc6157a7	-0.013753808
132	0xbb2f3272	-0.0026732949
133	0x3a5c86cb	0.00084124197
134	0x3c93c72c	0.018039308
135	0xbc4cdbf0	-0.012503609
136	0xbd171f0f	-0.036894854
137	0x3c6c7a85	0.014433508
138	0x3c5375a5	0.012906467
139	0x3cc9ab02	0.024617676
140	0x3c9513b8	0.01819788
141	0x3c4ca57d	0.012490627
142	0xbc03a3a8	-0.008034624
143	0x3ccc7e9e	0.02496272
144	0xbcd37653	-0.025813257
145	0xbc1b40fd	-0.009475944
146	0xbcb0fac4	-0.02160395
147	0xbcb0eec7	-0.021598233
148	0x3c81a627	0.015826298
149	0x3c8fc51c	0.017550044
150	0x3c222b77	0.009898058
151	0xbcf6c152	-0.03012148
152	0xbbe9c347	-0.0071338746
153	0xbc52ff3d	-0.012878236
154	0xbc9fd1b3	-0.019509172
155	0xbab46f46	-0.0013766072
156	0x3a9332d7	0.0011230361
157	0xbc6ae43d	-0.014336643
158	0x3c817e93	0.015807426
159	0xbc0cffc7	-0.008605904
160	0xbac91fdf	-0.0015344581
161	0x3bba0fec	0.0056781676
162	0x3d05c563	0.032658946
163	0xbac1339a	-0.001474011
164	0xbc8948ad	-0.016758287
165	0x3c1163fc	0.008873936
166	0xbaa5b513	-0.0012642465
167	0x3ccba76d	0.024860108
168	0xbc3ec12d	-0.011642736
169	0x3c51323f	0.012768327
170	0xbc234cd9	-0.009967052
171	0xba02943c	-0.0004981195
172	0xbc4bb252	-0.012432652
173	0x3be01807	0.006838802
174	0xbcac83c8	-0.021058932
175	0x3d323e5e	0.04351651
176	0x3c0da309	0.008644828
177	0xba544198	-0.00080969324
178	0x3be1758b	0.0068804673
179	0xbcbd9da3	-0.023146456
180	0x3c855eed	0.016280616
181	0x3a4282cb	0.00074200024
182	0x3cc818cb	0.024425885
183	0xbc221ebe	-0.009895025
184	0x3d155bd5	0.03646453
185	0x3cbac8fd	0.022800917
186	0x3c178f9e	0.00925055
187	0x3c389ea1	0.011268289
188	0x3b89e4ea	0.004208197
189	0x3cb13d96	0.021635812
190	0x3b8a420c	0.004219299
191	0xba6d56ed	-0.00090537855
192	0xbceb4e7d	-0.02872395
193	0x3a0da463	0.00054032187
194	0xbb981ed4	-0.004642347
195	0x3b4c7973	0.003120032
196	0x3d04c01d	0.032409776
197	0x3be7756a	0.0070635574
198	0x3c5731a2	0.013134392
199	0x3d10f684	0.035391346
200	0x3cd87970	0.026425093
201	0x3bc4aeed	0.006002298
202	0x3c5d1887	0.013494617
203	0xbc76891d	-0.015047339
204	0x3c58aaed	0.013224346
205	0xbcc43f65	-0.02395601
206	0xbccbfb18	-0.024900004
207	0xbcdabcd7	-0.026701374
208	0xbb83453a	-0.004006055
209	0x3c1ea26c	0.009682279
210	0xbca9d9f3	-0.02073381
211	0x3d072e5d	0.0330032
212	0xbb27e22b	-0.0025616984
213	0xbb117a16	-0.0022198013
214	0xbc40f87b	-0.011777992
215	0x3c3e35ef	0.011609538
216	0xbcd50c77	-0.02600692
217	0x3bb5799c	0.0055381786
218	0xbb48d283	-0.0030643053
219	0x3c391cb7	0.01129835
220	0xbc5924c0	-0.013253391
221	0xbc451d37	-0.012030891
222	0x3bc35992	0.0059616053
223	0x3cdcc735	0.026950458
224	0x3c352adb	0.011057581
225	0xbbb067f7	-0.0053834873
226	0x3c605030	0.013690993
227	0x3c59fcaa	0.013304869
228	0xbc082a7e	-0.008310912
229	0x3c88e590	0.016711026
230	0xbc25ca39	-0.010119014
231	0xbbe32ae7	-0.0069326046
232	0xbc75def5	-0.01500677
233	0x3cb1c89c	0.021702103
234	0xbc0343bf	-0.008011757
235	0xbcc403a3	-0.023927515
236	0x3bf78f7f	0.007554948
237	0xbcb38c82	-0.021917585
238	0x3adaf00a	0.0016703617
239	0xbc9ae5d4	-0.018908419
240	0xbb482aaa	-0.0030543008
241	0x3c8b9177	0.017037136
242	0xbbc91a75	-0.006137187
243	0xbd2c6309	-0.042086635
244	0xbccd0d15	-0.025030652
245	0x3d51a53d	0.051182974
246	0x3bf6b592	0.007528969
247	0xbca52eb9	-0.02016388
248	0x3bfe5e6f	0.007762722
249	0x3b020eea	0.0019845315
250	0xbc153b8f	-0.009108438
251	0xbb7613dd	-0.003754846
252	0x3c6e4a53	0.014544087
253	0x39daaada	0.00041707495
254	0xbc0c90eb	-0.008579473
255	0x39af6d02	0.00033459818

action_model._continuous_distribution.mu.bias f4 [2]
0	0x00000000	0.0
1	0x00000000	0.0

action_model._discrete_distribution.branches.0.weight f4 [2, 128]
0	0xbac08b9f	-0.0014690048
1	0xbb2111f8	-0.002457736
2	0xba68aea7	-0.0008876123
3	0xbcc67c07	-0.024229063
4	0xbbbfdbed	-0.0058550746
5	0x3c78733b	0.015164192
6	0xbb4b81a3	-0.0031052611
7	0xbc6105da	-0.013734305
8	0x3be735c5	0.0070559704
9	0xba7083a0	-0.0009174887
10	0x3b0136ab	0.0019716423
11	0xbbbe6da0	-0.005811408
12	0xbb4f6d25	-0.0031650749
13	0xbad6b32f	-0.0016380305
14	0xba0fde73	-0.00054881646
15	0xbcc0abb5	-0.023519376
16	0x3927b046	0.00015992028
17	0xbb7caedd	-0.0038556375
18	0xbbf26268	-0.007396985
19	0xbc98fef5	-0.01867626
20	0xbb61b987	-0.0034442858
21	0x3bed9762	0.0072507123
22	0x3bc2b298	0.0059417
23	0x3b37a41d	0.0028021403
24	0xbc2ad707	-0.010427243
25	0xbb4723ec	-0.0030386401
26	0xbb8dd381	-0.0043281917
27	0x3a1460af	0.0005660159
28	0xbc9bbfdf	-0.01901239
29	0x3b8fd9f9	0.004389998
30	0x3c9369b8	0.017994747
31	0xbb92d21b	-0.004480613
32	0x3c98ee75	0.018668393
33	0x3b5b8453	0.003349562
34	0xbc0ecb89	-0.008715519
35	0x3bee68d3	0.0072756796
36	0xbc55a1dd	-0.0130390795
37	0x3cbee3e5	0.023302028
38	0xbc5e6b57	-0.0135753965
39	0xbb316823	-0.0027070127
40	0x3bf769d2	0.0075504566
41	0x3bd94cfa	0.006631491
42	0xbbb8c6d7	-0.005638938
43	0xbbdc82bb	-0.0067294515
44	0xbb177d41	-0.0023115429
45	0xbc174954	-0.009233791
46	0xbc81d5a3	-0.01584894
47	0xbc30b77b	-0.010785933
48	0xbc2159e8	-0.0098480955
49	0x3b932789	0.004490797
50	0xbc1dad4d	-0.009623838
51	0x3c3d5df2	0.011558043
52	0xbc955db3	-0.018233156
53	0x3be71a35	0.0070526847
54	0x3a64ab28	0.0008723014
55	0x3ada2e8f	0.0016645956
56	0xbb151ef7	-0.0022754052
57	0x3c0ee619	0.008721852
58	0xbb3590a5	-0.0027704623
59	0x3aef7382	0.0018268677
60	0x3b646dbf	0.0034855453
61	0xbb6c559b	-0.0036061767
62	0x3aa6d0aa	0.0012726982
63	0xbb0d0891	-0.0021519999
64	0x3c5c23d2	0.013436275
65	0x3c08d115	0.00835063
66	0xbbae5113	-0.0053197234
67	0xbc1c6ebc	-0.0095478855
68	0x3c8379ac	0.016049229
69	0xbbeec477	-0.007286604
70	0x3c3e2c27	0.011607206
71	0x3c680f72	0.014163839
72	0xbc2f15b9	-0.010686331
73	0xbc1733b3	-0.009228635
74	0xba2faa2e	-0.0006701079
75	0x3b87b4ca	0.004141425
76	0xbbff3e2a	-0.007789393
77	0xb8fca3d7	-0.00012046814
78	0xbb1c5bc8	-0.0023858417
79	0x3c901873	0.017589783
80	0x3c0371d7	0.008022747
81	0xbc246826	-0.010034597
82	0x3bcb0c47	0.006196532
83	0x3bb08393	0.0053867786
84	0x3b87691b	0.0041324026
85	0xbca1eefe	-0.01976728
86	0xbc78c853	-0.01518448
87	0xbb9bed87	-0.00475854
88	0xbc174f47	-0.00923521
89	0xba9a53db	-0.0011774258
90	0xbc8ac5e2	-0.016940061
91	0x3bb25357	0.005442064
92	0xbc056e68	-0.008143999
93	0x3c0389db	0.008028473
94	0xbc1d92a7	-0.009617484
95	0xbb03a4d7	-0.0020087266
96	0x3c14aa8a	0.009073863
97	0xbc2cc628	-0.010545291
98	0xbad7dc33	-0.0016468823
99	0xbc2f8a2b	-0.010714094
100	0xbc224427	-0.009903944
101	0x3c592efa	0.013255829
102	0x3b2f8240	0.0026780516
103	0xbc669ca5	-0.014075433
104	0x3b153eb8	0.002277298
105	0xbb96a04b	-0.004596745
106	0xba0f90ed	-0.0005476613
107	0x3857eb3d	5.1479077e-05
108	0xbb9997d8	-0.0046872906
109	0x3c01b7f7	0.007917396
110	0xbca93801	-0.020656588
111	0x3c2a50e5	0.010395263
112	0x3c1d80bf	0.009613215
113	0xbb694ed5	-0.0035599966
114	0xbc5a388d	-0.013319147
115	0xbaefdbf5	-0.0018299805
116	0xbb540ea8	-0.0032357369
117	0xbc43297b	-0.011911745
118	0x3c73ca58	0.0148797855
119	0x3bfcc59b	0.007713986
120	0xbbb8b902	-0.005637289
121	0xbbf7f5cf	-0.0075671445
122	0xbbbf98f2	-0.00584709
123	0xbbe8a087	-0.0070992145
124	0x3bc47dc8	0.0059964396
125	0xbc19c314	-0.009384889
126	0x3bec78fd	0.0072165714
127	0xbbe91118	-0.0071126334
128	0xbb82b0e8	-0.003988374
129	0x3c9307f2	0.017948125
130	0xbaecfa62	-0.0018079991
131	0x3bd2724b	0.006422316
132	0xbaaa00d2	-0.0012970215
133	0x3c17e574	0.0092710145
134	0x3b858a4d	0.0040753246
135	0x3be47875	0.0069723674
136	0xbc2f1445	-0.010685985
137	0x3a920177	0.0011139353
138	0x3bb40bd6	0.005494575
139	0x391469c4	0.0001415378
140	0xbc83ac5f	-0.016073404
141	0x3b5bb83a	0.0033526556
142	0xbc65f5e0	-0.014035672
143	0x3c3ce550	0.011529282
144	0x3b66f0ca	0.0035238736
145	0x3b1a8f7e	0.0023584063
146	0xbc3381b7	-0.010956219
147	0xbc3e23ea	-0.011605242
148	0xbc13f09b	-0.009029533
149	0x3acd1a72	0.001564814
150	0xbc05b186	-0.008160001
151	0xbb93e2eb	-0.0045131347
152	0xbba7f85f	-0.0051260437
153	0xb98ca9b7	-0.00026829328
154	0x3b462f65	0.0030240652
155	0x3c0bd7ff	0.008535384
156	0x3b5661f2	0.0032712189
157	0x3c06835f	0.008210032
158	0xbbf0b285	-0.0073455
159	0x3bf29183	0.0074026003
160	0xbbc39895	-0.005969117
161	0xbc18ad8f	-0.009318723
162	0x3ba2d288	0.004968945
163	0x3be183cf	0.006882168
164	0xbba1b976	-0.0049354387
165	0xbbc23162	-0.005926297
166	0x3c870a8a	0.016484518
167	0x3b86b4e3	0.004110919
168	0xbc4f36d0	-0.012647346
169	0xbc103ae3	-0.008803102
170	0xbc0701a7	-0.00824014
171	0xbaf0d1ef	-0.0018373112
172	0x3ba778ae	0.0051108217
173	0x3c0e258f	0.008675947
174	0x3b82a381	0.0039867763
175	0x3b8fce43	0.004388602
176	0x399116d8	0.00027673575
177	0xbc3a324b	-0.01136453
178	0xbc774b50	-0.0150936395
179	0xbbc17016	-0.0059032543
180	0x3c4156d4	0.011800487
181	0x3b9c9faf	0.004779778
182	0xbbd1548f	-0.006388254
183	0xba27be93	-0.0006398942
184	0xba436603	-0.00074538606
185	0x3a6c969f	0.000902513
186	0xbbfac6db	-0.0076531
187	0x3b067c27	0.0020520778
188	0xbc27b3a5	-0.010235702
189	0x3b9d578d	0.0048016966
190	0xbb640c03	-0.0034797199
191	0xbc21ee23	-0.009883436
192	0x3b81c4e7	0.00396024
193	0xbc8c1b17	-0.017102761
194	0x3c80fc88	0.015745416
195	0x3c06b60e	0.008222116
196	0xbb4f1b9f	-0.0031602157
197	0xbbe864c2	-0.0070920894
198	0x3babfc64	0.005248593
199	0xbc66aef0	-0.014079794
200	0xbb329d29	-0.002725432
201	0xbcb14c4e	-0.02164283
202	0xbbb60218	-0.005554449
203	0x39ef1213	0.000455991
204	0x3c9607f3	0.018314337
205	0x3aa216c2	0.0012366401
206	0xbb95a8f2	-0.004567259
207	0x3bbb225a	0.005710882
208	0xbb7cdf42	-0.003858522
209	0xbbf02a18	-0.0073292367
210	0x398543fb	0.00025418386
211	0xbb8ba3ff	-0.004261493
212	0xba271c21	-0.0006374736
213	0xbc8dd95b	-0.017315557
214	0x3c072510	0.0082485825
215	0xbbc92a0a	-0.0061390446
216	0x3aece108	0.0018072436
217	0x3c2ecde0	0.010669202
218	0x3b8eae3e	0.0043542674
219	0x3b53a10f	0.0032292043
220	0x3c10ca6f	0.008837326
221	0xbc508d90	-0.012729064
222	0x3b3a06f3	0.002838549
223	0x39228b93	0.0001550152
224	0xbbc6d5a4	-0.0060679484
225	0x3c7baa17	0.015360377
226	0x3b9094bc	0.004412262
227	0x3b6531c5	0.0034972292
228	0x3ac14e5a	0.0014748082
229	0x3b889bf9	0.004168984
230	0xbb024c91	-0.0019882063
231	0xbbae995d	-0.005328341
232	0xbb6f648d	-0.0036528439
233	0xbc972c8b	-0.018453857
234	0x3bbe8e9d	0.0058153407
235	0xbb20d700	-0.0024542212
236	0xbb251fc2	-0.002519593
237	0xb9611f7a	-0.00021469398
238	0xbb195117	-0.002339428
239	0xba596a9f	-0.0008293781
240	0x3c0e5c1c	0.008688953
241	0x3b5577f3	0.0032572716
242	0x3c01d33e	0.007923899
243	0x3ba0603b	0.004894284
244	0x3b92c1e1	0.0044786786
245	0x3b8b1287	0.004244152
246	0x3b65d30a	0.0035068416
247	0xbb451301	-0.0030071142
248	0x3b8da349	0.0043224436
249	0x3a884d2f	0.0010398979
250	0x3c59f817	0.013303778
251	0x3c05f605	0.008176331
252	0x3bd91b37	0.0066255587
253	0x3ba124f3	0.004917735
254	0xbca0a78f	-0.019611148
255	0x3cbcbf07	0.023040308

action_model._discrete_distribution.branches.0.bias f4 [2]
0	0x00000000	0.0
1	0x00000000	0.0

network_body.observation_encoder.processors.0.normalizer.running_mean f4 [6]
0	0x00000000	0.0
1	0x00000000	0.0
2	0x00000000	0.0
3	0x00000000	0.0
4	0x00000000	0.0
5	0x00000000	0.0

network_body.observation_encoder.processors.0.normalizer.running_variance f4 [6]
0	0x3f800000	1.0
1	0x3f800000	1.0
2	0x3f800000	1.0
3	0x3f800000	1.0
4	0x3f800000	1.0
5	0x3f800000	1.0

network_body.processors.0.normalizer.running_mean f4 [6]
0	0x00000000	0.0
1	0x00000000	0.0
2	0x00000000	0.0
3	0x00000000	0.0
4	0x00000000	0.0
5	0x00000000	0.0

network_body.processors.0.normalizer.running_variance f4 [6]
0	0x3f800000	1.0
1	0x3f800000	1.0
2	0x3f800000	1.0
3	0x3f800000	1.0
4	0x3f800000	1.0
5	0x3f800000	1.0

network_body._body_endoder.seq_layers.0.weight f4 [128, 6]
0	0x3eb89ebe	0.3605861
1	0xbf32104b	-0.6955611
2	0xbeab9843	-0.33514604
3	0x3f1ed2b7	0.62040275
4	0x3e1fdc9c	0.156115
5	0xbe4a6cfc	-0.19768137
6	0xbd8b84ad	-0.06812415
7	0x3e5f1c93	0.21788244
8	0x3f0a764e	0.5408677
9	0xbe7679da	-0.2406992
10	0x3d34bc4c	0.044124886
11	0x3ee7c9ea	0.45271236
12	0x3edaaec7	0.4271147
13	0xbe57731b	-0.21040003
14	0x3ec6dde4	0.38841164
15	0xbea2d1e2	-0.31800753
16	0xbd2cc314	-0.04217823
17	0x3f50ec8b	0.81610936
18	0x3ee2057c	0.4414481
19	0xbf49c9e4	-0.78823686
20	0x3dcba363	0.09943273
21	0x3dd84dbe	0.10561703
22	0xbf15d380	-0.5852585
23	0x3f014e10	0.5050974
24	0xbe037fd3	-0.1284173
25	0xbe2912e8	-0.16511118
26	0xbdb96ef7	-0.09054368
27	0x3eae69b5	0.34065023
28	0xbf13cafb	-0.577316
29	0x3e62b8fb	0.22140877
30	0x3eab2e45	0.33433738
31	0x3dd252f3	0.102697276
32	0xbce1d05e	-0.027565178
33	0x3f0bee5f	0.546606
34	0xbd07c85a	-0.033150055
35	0xbf063d85	-0.5243762
36	0xbe351cd9	-0.17686786
37	0xbe92474e	-0.28570026
38	0xbe29b73c	-0.16573805
39	0xbede0b76	-0.4336812
40	0xbeae588a	-0.34051925
41	0xbd2d44f0	-0.042302072
42	0x3e48c676	0.19606957
43	0x3dcedef1	0.101011164
44	0xbe89e66a	-0.26933604
45	0x3e743ba1	0.23850872
46	0x3e60dc46	0.21959028
47	0x3f40902a	0.75219977
48	0xbf3be731	-0.73399645
49	0x3de1aed6	0.110196754
50	0xbe8ad59b	-0.27116093
51	0xbee02080	-0.43774796
52	0x3f0eb75d	0.5574854
53	0xbf06b739	-0.52623326
54	0xbe371faf	-0.1788318
55	0xbee2c34d	-0.44289628
56	0x3e4ed6a1	0.20199062
57	0x3f188bb6	0.5958818
58	0xbe84ad7d	-0.2591361
59	0x3e094ce9	0.13408245
60	0xbe8de1af	-0.27711245
61	0x3c2a1433	0.010380792
62	0x3cdea465	0.027177999
63	0xbecae960	-0.39631176
64	0x3eee4d2f	0.4654326
65	0xbe6603bf	-0.22462367
66	0xbddf3d47	-0.109003596
67	0xbf06e987	-0.52700084
68	0xbd91d372	-0.07120408
69	0xbee2f11f	-0.44324586
70	0xbda90d49	-0.08254487
71	0xbd2afdfd	-0.04174613
72	0x3e948592	0.29008156
73	0xbe6ad853	-0.22934084
74	0x3ef11174	0.47083628
75	0x3d2c0ebb	0.042006236
76	0xbdef1a73	-0.11674967
77	0x3e3605ce	0.17775652
78	0xbde74546	-0.1129251
79	0x3f366e1a	0.7126175
80	0x3e0e2661	0.13881828
81	0xbe43ef33	-0.19134216
82	0xbe40ff46	-0.18847379
83	0x3e403610	0.18770623
84	0x3f5ddc36	0.8666414
85	0x3f121e10	0.5707712
86	0xbf44e132	-0.7690612
87	0xbe608ab7	-0.21927916
88	0x3e17ead6	0.14835677
89	0x3f096434	0.5366852
90	0x3e5219d7	0.2051767
91	0x3ef6f5a7	0.48234293
92	0xbeff5f64	-0.49877465
93	0x3f7bdb3b	0.98381394
94	0x3f38b39b	0.72149056
95	0xbe304c64	-0.1721664
96	0x3ddf25de	0.108958945
97	0xbe9ea707	-0.30986807
98	0x3ed119ce	0.4084
99	0xbeebf338	-0.46084
100	0xbc560f42	-0.013065161
101	0xbf4db4ca	-0.8035399
102	0xbd840684	-0.06446555
103	0xbd876130	-0.06610334
104	0x3f09a857	0.5377249
105	0x3e901dd0	0.28147745
106	0xbee9ab97	-0.45638725
107	0xbe82b3ad	-0.25527707
108	0x3e703669	0.23458256
109	0x3e91f8de	0.28510183
110	0xbebb43a0	-0.3657503
111	0x3ed91500	0.42398834
112	0x3e996ea2	0.2996722
113	0xbea542c5	-0.32277504
114	0x3e144f14	0.14483291
115	0x3e97f583	0.29679498
116	0xbe4c9459	-0.19978465
117	0xbe0fd04d	-0.14044304
118	0xbde06c24	-0.10958126
119	0xbf53ce83	-0.82736987
120	0x3edd3812	0.4320684
121	0x3edd6184	0.4323846
122	0xbf05dde2	-0.5229169
123	0x3f70cc74	0.9406197
124	0xbea1ae94	-0.31578505
125	0xbee094ce	-0.4386353
126	0x3f1f4c74	0.62226033
127	0xbef28619	-0.47367933
128	0xbf0c9b13	-0.54924124
129	0xbf2875bb	-0.6580464
130	0xbea529f0	-0.32258558
131	0xbd7fcbfc	-0.062450394
132	0xbe464658	-0.19362772
133	0xbe7bf4cf	-0.24605106
134	0x3f541d08	0.828568
135	0xbc580563	-0.013184878
136	0xbf1910fc	-0.5979154
137	0xbecedccc	-0.4040283
138	0x3f8e2fbf	1.1108321
139	0x3f5fc2ea	0.8740679
140	0xbf0a1411	-0.5393687
141	0x3eb33c15	0.35006776
142	0x3e11ab85	0.14225586
143	0xbe9e3642	-0.3090077
144	0xbdeb9ba5	-0.11504296
145	0x3f0be659	0.5464836
146	0x3e0624e2	0.13100007
147	0x3e436b92	0.19084004
148	0x3eae40d4	0.34033835
149	0xbe81b127	-0.2533047
150	0x3ef139d9	0.47114447
151	0xbf02ec91	-0.5114222
152	0xbe33230e	-0.17493841
153	0xbe130ad6	-0.14359602
154	0x3f44889b	0.76770943
155	0x3f31ab37	0.6940188
156	0x3e2a6dc8	0.1664344
157	0xbebd1f6d	-0.36938038
158	0x3e5640b9	0.20923127
159	0x3f150981	0.58217627
160	0xbf474e1a	-0.7785355
161	0x3dd65221	0.104648836
162	0x3f1ff696	0.62485635
163	0xbef04c63	-0.46933278
164	0x3e94a0cb	0.29028925
165	0xbe118959	-0.1421255
166	0x3d9d6648	0.07685524
167	0x3e642c5f	0.22282551
168	0xbe50a6e5	-0.20376165
169	0x3ef8e9e0	0.48615932
170	0xbe879435	-0.2648026
171	0x3ec6387a	0.38714963
172	0xbc9ef09f	-0.019401846
173	0xbe8a3b79	-0.269985
174	0xbdd1d5d9	-0.10245866
175	0x3f0b68e2	0.54456913
176	0x3eac8159	0.33692434
177	0x3e6c4b2a	0.23075548
178	0xbe853982	-0.26020437
179	0xbefa7bcc	-0.48922575
180	0x3efedd26	0.49778098
181	0x3e06a5ac	0.13149136
182	0x3ed6731a	0.4188469
183	0xbed7d976	-0.42158097
184	0x3eabc84e	0.33551258
185	0x3e9c79e0	0.30561733
186	0xbf0cdc48	-0.5502362
187	0xbd55f4d0	-0.052235425
188	0xbea312e8	-0.31850362
189	0xbe535275	-0.20636924
190	0xbf461d6e	-0.77388656
191	0xbf21f4f4	-0.63264394
192	0xbe9030f2	-0.28162342
193	0x3e07d290	0.13263917
194	0xbe88e682	-0.26738364
195	0xbd80087f	-0.062516205
196	0xbde1a7e5	-0.110183515
197	0xbd7b702a	-0.061386265
198	0xbef04b48	-0.46932435
199	0xbdbd8927	-0.09254675
200	0xbec96886	-0.39337558
201	0x3ea05e24	0.31321824
202	0x3e1038a9	0.14084114
203	0x3e7e2e97	0.2482246
204	0xbf324fda	-0.69653094
205	0xbe70d895	-0.2352012
206	0xbf07b31e	-0.53007686
207	0xbf2fedfb	-0.68722504
208	0x3d4b705a	0.049667694
209	0xbdc1ea1a	-0.094684795
210	0xbd3dbca2	-0.046322472
211	0x3e95c5b4	0.29252398
212	0x3ec43396	0.38320607
213	0x3dbb1c20	0.09136224
214	0x3dd5e941	0.1044488
215	0xbec86ce5	-0.3914558
216	0xbe494a8c	-0.19657344
217	0xbd345152	-0.044022866
218	0xbd30976c	-0.043113157
219	0x3ebadfae	0.3649878
220	0xbfb8228a	-1.438554
221	0x3f00a776	0.50255525
222	0xbef4dfc7	-0.4782698
223	0xbe0d2ba0	-0.13786173
224	0x3f0378e3	0.51356333
225	0x3e8b985c	0.27264678
226	0xbec24c14	-0.37948668
227	0xbe86809c	-0.26269996
228	0xbe9f7a30	-0.3114791
229	0x3f3bce49	0.7336164
230	0xbebaa2a2	-0.36452204
231	0xbe8cc22b	-0.27491888
232	0xbc99c818	-0.01877217
233	0x3ef872f5	0.48525205
234	0xbf27b40d	-0.6550911
235	0xbec58ac7	-0.3858244
236	0x3e1b5464	0.15168911
237	0xbef04ed6	-0.46935147
238	0xbeb220fa	-0.34790784
239	0xbf0322ab	-0.51224774
240	0xbe8a6ee6	-0.27037734
241	0xbe96b16b	-0.29432234
242	0x3f78c26e	0.97171676
243	0x3eef312f	0.46717212
244	0xbf084cc8	-0.5324216
245	0xbda6cf63	-0.081450246
246	0xbebcdb10	-0.3688588
247	0x3f80a578	1.0050497
248	0x3f001a1d	0.50039846
249	0x3e3d4131	0.184819
250	0xbddf43bd	-0.10901592
251	0xbf112643	-0.5669901
252	0xbdfcfe47	-0.12353187
253	0x3ee35d93	0.4440733
254	0xbeeb3dbf	-0.45945546
255	0x3d4ad156	0.049516045

network_body._body_endoder.seq_layers.0.bias f4 [128]
0	0x00000000	0.0
1	0x00000000	0.0
2	0x00000000	0.0
3	0x00000000	0.0
4	0x00000000	0.0
5	0x00000000	0.0
6	0x00000000	0.0
7	0x00000000	0.0
8	0x00000000	0.0
9	0x00000000	0.0
10	0x00000000	0.0
11	0x00000000	0.0
12	0x00000000	0.0
13	0x00000000	0.0
14	0x00000000	0.0
15	0x00000000	0.0
16	0x00000000	0.0
17	0x00000000	0.0
18	0x00000000	0.0
19	0x00000000	0.0
20	0x00000000	0.0
21	0x00000000	0.0
22	0x00000000	0.0
23	0x00000000	0.0
24	0x00000000	0.0
25	0x00000000	0.0
26	0x00000000	0.0
27	0x00000000	0.0
28	0x00000000	0.0
29	0x00000000	0.0
30	0x00000000	0.0
31	0x00000000	0.0
32	0x00000000	0.0
33	0x00000000	0.0
34	0x00000000	0.0
35	0x00000000	0.0
36	0x00000000	0.0
37	0x00000000	0.0
38	0x00000000	0.0
39	0x00000000	0.0
40	0x00000000	0.0
41	0x00000000	0.0
42	0x00000000	0.0
43	0x00000000	0.0
44	0x00000000	0.0
45	0x00000000	0.0
46	0x00000000	0.0
47	0x00000000	0.0
48	0x00000000	0.0
49	0x00000000	0.0
50	0x00000000	0.0
51	0x00000000	0.0
52	0x00000000	0.0
53	0x00000000	0.0
54	0x00000000	0.0
55	0x00000000	0.0
56	0x00000000	0.0
57	0x00000000	0.0
58	0x00000000	0.0
59	0x00000000	0.0
60	0x00000000	0.0
61	0x00000000	0.0
62	0x00000000	0.0
63	0x00000000	0.0
64	0x00000000	0.0
65	0x00000000	0.0
66	0x00000000	0.0
67	0x00000000	0.0
68	0x00000000	0.0
69	0x00000000	0.0
70	0x00000000	0.0
71	0x00000000	0.0
72	0x00000000	0.0
73	0x00000000	0.0
74	0x00000000	0.0
75	0x00000000	0.0
76	0x00000000	0.0
77	0x00000000	0.0
78	0x00000000	0.0
79	0x00000000	0.0
80	0x00000000	0.0
81	0x00000000	0.0
82	0x00000000	0.0
83	0x00000000	0.0
84	0x00000000	0.0
85	0x00000000	0.0
86	0x00000000	0.0
87	0x00000000	0.0
88	0x00000000	0.0
89	0x00000000	0.0
90	0x00000000	0.0
91	0x00000000	0.0
92	0x00000000	0.0
93	0x00000000	0.0
94	0x00000000	0.0
95	0x00000000	0.0
96	0x00000000	0.0
97	0x00000000	0.0
98	0x00000000	0.0
99	0x00000000	0.0
100	0x00000000	0.0
101	0x00000000	0.0
102	0x00000000	0.0
103	0x00000000	0.0
104	0x00000000	0.0
105	0x00000000	0.0
106	0x00000000	0.0
107	0x00000000	0.0
108	0x00000000	0.0
109	0x00000000	0.0
110	0x00000000	0.0
111	0x00000000	0.0
112	0x00000000	0.0
113	0x00000000	0.0
114	0x00000000	0.0
115	0x00000000	0.0
116	0x00000000	0.0
117	0x00000000	0.0
118	0x00000000	0.0
119	0x00000000	0.0
120	0x00000000	0.0
121	0x00000000	0.0
122	0x00000000	0.0
123	0x00000000	0.0
124	0x00000000	0.0
125	0x00000000	0.0
126	0x00000000	0.0
127	0x00000000	0.0

network_body._body_endoder.seq_layers.2.weight f4 [128, 128]
0	0xbc5e7f80	-0.013580203
1	0xbd8b7909	-0.06810195
2	0x3d1b6f49	0.037947927
3	0x3e3c6ebb	0.18401615
4	0xbd909a19	-0.07060642
5	0xbcf22d74	-0.02956269
6	0x3d293b2c	0.041316196
7	0x3cd21a4f	0.02564731
8	0x3db4f560	0.08835864
9	0x3e04a203	0.12952428
10	0x3d29bfcf	0.04144269
11	0xbdbb58bb	-0.09147783
12	0x3dbaac41	0.09114886
13	0xbd24021d	-0.040041078
14	0x3d8b66a2	0.06806685
15	0xbde1672f	-0.11006009
16	0xbc2d01fa	-0.010559553
17	0xbda09325	-0.078405656
18	0xbe2bc459	-0.1677412
19	0xbd63a54e	-0.05557757
20	0xbd233eda	-0.03985486
21	0xbd193221	-0.037401322
22	0xbd968b74	-0.07350817
23	0xbd655a4a	-0.05599431
24	0x3d1b07e4	0.037849322
25	0xbdc4f8e5	-0.09617785
26	0xbd0159cb	-0.031579774
27	0xbde93a1e	-0.11388038
28	0x3e247806	0.1606141
29	0x3e2d88b6	0.16946682
30	0xbdb6030a	-0.088872984
31	0x3d6d8c66	0.057995223
32	0x3d66941c	0.05629359
33	0x3c274dad	0.01021139
34	0xbd7eb929	-0.0621883
35	0xbe1ad8b6	-0.15121731
36	0x3d385843	0.045006048
37	0xbe46b4c4	-0.19404894
38	0xbd6e28eb	-0.05814449
39	0x3d47ae6b	0.048750322
40	0xbe0dd489	-0.13850607
41	0x3c7a34cf	0.01527138
42	0x3c4b4a3c	0.012407836
43	0x3d7b4e66	0.061354063
44	0x3d8096b6	0.06278746
45	0x3cc1e42f	0.023668377
46	0x3cdc2409	0.026872652
47	0x3df4acb3	0.11947002
48	0x3dca6d1c	0.09884092
49	0x3dbe78ca	0.093003824
50	0xbd65bf0c	-0.0560904
51	0x3d867388	0.065650046
52	0xbdadc9ac	-0.084857315
53	0xbd1ec2ae	-0.03875988
54	0xbce73ab3	-0.028226232
55	0x3d43faaf	0.047846492
56	0x3de72120	0.11285615
57	0x3d54eb34	0.05198212
58	0x3d6f9f6e	0.058501653
59	0x3d0e6205	0.034761447
60	0x3d159c96	0.036526285
61	0xbd6b0ce6	-0.057385348
62	0xbd706df1	-0.0586986
63	0x3b88c577	0.0041739303
64	0x3cfdace4	0.03096623
65	0x3c9cede2	0.0191564
66	0x3daafee4	0.08349398
67	0xbd932fb1	-0.07186831
68	0x3df56363	0.11981847
69	0x3dc0708c	0.093964666
70	0xbe04101f	-0.12896775
71	0xbda17102	-0.07882883
72	0x3e68a4cb	0.22719114
73	0xbd2f4ca0	-0.042797685
74	0xbd6107f0	-0.05493921
75	0xbdb6387f	-0.088974945
76	0xbd40edfc	-0.04710196
77	0x3d7f68df	0.062355872
78	0xbc734175	-0.014847149
79	0x3d8f18d9	0.06987161
80	0x3e00a695	0.12563546
81	0xbcae97ba	-0.021312583
82	0xbc483838	-0.012220435
83	0xbde77195	-0.11300961
84	0xbc16120d	-0.009159577
85	0xbd748e8b	-0.059706252
86	0xbd8dc312	-0.06921972
87	0xbd224fe9	-0.03962699
88	0x3e415b54	0.18882495
89	0x3d863290	0.06552613
90	0x3d5b148f	0.053486403
91	0x3e4675e4	0.19380909
92	0x3e203069	0.15643467
93	0x3c7f3351	0.0155762
94	0xbbdc81e4	-0.0067293514
95	0x3e36288e	0.17788908
96	0xbdd8bb3e	-0.105825886
97	0xbc8f5644	-0.01749719
98	0x3bbcb672	0.005759054
99	0xbc7c08e0	-0.015382975
100	0xbe062746	-0.13100919
101	0x3c4f6702	0.012658836
102	0x3c80c25a	0.015717674
103	0x3d83d5a9	0.06437237
104	0x3d20c82f	0.03925341
105	0x3dbebff7	0.09313958
106	0xbe145d3d	-0.14488693
107	0x3c806e0f	0.01567748
108	0x3d8da437	0.06916087
109	0x3bfe69d5	0.007764081
110	0x3d331520	0.04372132
111	0xbd69021b	-0.056886774
112	0x3d9096db	0.070600234
113	0x3e00da6d	0.12583323
114	0xbd129c1f	-0.03579342
115	0xbe1fde62	-0.15612176
116	0xbe5b1eb0	-0.21398425
117	0xbc00ecb1	-0.007868932
118	0xbc97a20a	-0.018509883
119	0x3d44c738	0.048041552
120	0x3d8c42d1	0.06848682
121	0x3e2248c1	0.15848066
122	0x3c9ef568	0.019404128
123	0x3e0945c4	0.1340552
124	0x3e6fb828	0.23410094
125	0x3ce5b9b9	0.028042661
126	0xbe019dd6	-0.12657866
127	0xbe4a2f60	-0.19744635
128	0x3d8b0dc0	0.06789732
129	0xbe3153c1	-0.17317106
130	0x3d77e019	0.06051645
131	0xbdd24bac	-0.102683395
132	0x3e514d9a	0.20439759
133	0x3e274ca0	0.16337824
134	0xbe3d2549	-0.18471254
135	0x3e23ef58	0.16009271
136	0xbd824894	-0.063614994
137	0xbe0644f4	-0.13112241
138	0x3e24bbba	0.16087237
139	0xbc922289	-0.017838733
140	0x3d14de43	0.036344778
141	0x3d9bfaf1	0.07616223
142	0xbdddfee2	-0.10839631
143	0x3d21fa6c	0.03954546
144	0xbd591fb8	-0.053008765
145	0xbd0b4ace	-0.034006886
146	0x3d480d9b	0.0488411
147	0x3e1e6cfc	0.15471262
148	0xbdb4c89c	-0.08827326
149	0xbd60cd06	-0.054883026
150	0x3cd9436f	0.026521413
151	0xbd100d6f	-0.03516906
152	0xbd3b3f8f	-0.04571491
153	0xbc23ae0d	-0.009990227
154	0x3e13fc6a	0.14451757
155	0x3d1e1416	0.038593374
156	0x3de9771d	0.11399672
157	0xbe89e7a4	-0.2693454
158	0x3d16a46a	0.03677789
159	0xbc3bffc6	-0.011474555
160	0xbd8bcc21	-0.06826044
161	0x3d6331c2	0.055467375
162	0x3cf8783d	0.030330772
163	0x3dbd0f84	0.09231475
164	0x3d4b9666	0.049703978
165	0x3acfce73	0.0015854373
166	0xbd2dc2a2	-0.042421944
167	0x3df4e6a9	0.119580574
168	0xbc7e6950	-0.015528038
169	0x3d33cdb1	0.043897334
170	0xbd27d45f	-0.040974017
171	0xbd88e505	-0.06684307
172	0x3cf76e03	0.030203825
173	0xbc565d5c	-0.013083782
174	0x3ce85ee0	0.028365552
175	0xbe025178	-0.1272639
176	0xbd16e474	-0.036838964
177	0xbdf5430b	-0.11975678
178	0xbd49975a	-0.049216606
179	0xba8dc920	-0.0010817386
180	0xbd6ddf46	-0.05807426
181	0xbe32bb55	-0.17454274
182	0x3def6366	0.116888806
183	0xbc7fc025	-0.015609776
184	0xbd9c7e59	-0.076412864
185	0xbbd22b51	-0.006413855
186	0xbd9a0e1d	-0.07522223
187	0x3e047541	0.12935354
188	0x3d183816	0.037162863
189	0x3dec9dea	0.11553557
190	0x3dfac258	0.122440994
191	0x3cbeb5f9	0.02328013
192	0x3e0993c2	0.13435271
193	0x3dcb3937	0.09923022
194	0x3c9c25fc	0.019061081
195	0xbdc3b315	-0.095556416
196	0x3d265694	0.04060991
197	0xbe1b63be	-0.15174767
198	0xbc3002a5	-0.010742818
199	0x3cbbbe98	0.02291803
200	0xbd61e750	-0.055152237
201	0xbd1919e1	-0.037378196
202	0x3de47b67	0.1115635
203	0xbd429705	-0.047507305
204	0x3cfbd291	0.030740054
205	0x3bf54a78	0.007485684
206	0xbdb22bb8	-0.08699745
207	0x3d488a0e	0.048959784
208	0x3cd55789	0.026042717
209	0xbe39bbaf	-0.18138002
210	0xbccb8898	-0.024845406
211	0xbe295c47	-0.16539107
212	0x3d855d56	0.06511943
213	0xbdf853d4	-0.12125364
214	0x3e134f28	0.14385664
215	0xbdc5ceae	-0.09658562
216	0xbd4063ff	-0.046970364
217	0x3d310de6	0.043226145
218	0x3d3bc4ff	0.045842167
219	0x3d5d5774	0.05403848
220	0x3da71fab	0.08160337
221	0x3df103dc	0.11768314
222	0x3cd6fd12	0.02624372
223	0xbcd0084b	-0.02539458
224	0x3e08bf59	0.13354243
225	0x3cebf6d0	0.028804213
226	0xbc84ff7a	-0.016235102
227	0xbc7f56d7	-0.015584669
228	0xbcbfe41c	-0.0234242
229	0xbcd6e3a6	-0.026231598
230	0xbe2042f8	-0.15650547
231	0xbc215164	-0.009846065
232	0xbb2e493a	-0.002659394
233	0xbde71e79	-0.11285109
234	0xbd1d67e0	-0.03842914
235	0x3de3fe8a	0.11132534
236	0x3d449fa5	0.04800381
237	0x3dfd5204	0.12369159
238	0xbd21427f	-0.039370056
239	0xbc0ddd7d	-0.008658764
240	0xbe15d593	-0.14632253
241	0xbc89d7ee	-0.016826596
242	0xbd01d406	-0.031696342
243	0xbc698fbc	-0.01425546
244	0xbab4c7e6	-0.0013792485
245	0x3d5655d1	0.052327935
246	0xbd645ba8	-0.055751473
247	0xbc218268	-0.009857751
248	0x3d2a55f1	0.041585866
249	0x3da3e13e	0.08001946
250	0xbc03a3da	-0.008034671
251	0x3d4551e8	0.048173815
252	0xbe365ba7	-0.178084
253	0xbe10eccf	-0.14152835
254	0x3d150227	0.036379006
255	0xbd9a24c5	-0.075265445
