tankresults/TestA3/SuperTank/SuperTank-2000006.onnx (onnx, 546549 bytes, 13 tensors)

network_body.observation_encoder.processors.0.normalizer.running_mean f4 [6]
000000 2b 88 12 c0 f8 42 3b 3e f4 8f 87 bf 8a 98 19 3f
       -2.289561 0.18287265 -1.0590806 0.5999838
000010 63 46 61 3e 90 6f 9d bf
       0.21999507 -1.2299671

network_body._body_endoder.seq_layers.0.weight f4 [256, 6]
000000 a7 91 8b bd e1 c6 5a bf cb 86 2d bf b8 a6 b6 bb
       -0.0681489 -0.85459715 -0.677838 -0.0055740736
000010 9f fb 71 3f 00 8d 1d be 2b f9 c9 3d cc 46 bd bd
       0.9452457 -0.15385818 0.09861978 -0.09242019
000020 e8 b7 04 3d 4b 08 f1 be 52 98 94 3e d8 35 ab bd
       0.03240195 -0.4707664 0.2902246 -0.08359879
000030 0f db 54 be 67 2f a3 3d b3 e4 34 3d 27 5e 9d 3e
       -0.20786689 0.07968026 0.044163417 0.30735895
000040 3d 84 57 3f 24 cd 36 3e 56 a2 c4 be 63 9b 25 bf
       0.84186155 0.17851692 -0.38405102 -0.64690226
000050 d6 82 15 bf cc ea 9b 3e 58 7b bf be 97 44 4d 3d
       -0.58402765 0.30452573 -0.3739879 0.05011424
000060 58 1d 25 3e 06 4a 83 be ae 06 8f be c7 b1 7c bd
       0.16124475 -0.25642413 -0.27934784 -0.06169298
000070 60 17 22 3e 3c 73 97 bc d0 8a c7 be 0b 69 19 be
       0.1582923 -0.018487565 -0.38973093 -0.14981477
000080 60 eb 3e bd b7 54 a8 bd cc 99 d1 be 4e 8a 3d bf
       -0.04661119 -0.08219283 -0.4093765 -0.7403916
000090 0f aa 20 3f 77 e6 db 3e 3e 92 8a 3e 06 8e a4 3c
       0.6275949 0.42949268 0.270647 0.020087253
0000a0 1e 84 04 3e e2 74 74 be 3c f3 89 3e d0 57 3b bf
       0.12941024 -0.23872712 0.26943386 -0.73180866
0000b0 d5 d6 13 bf 23 cc 64 bf de f9 c5 3e 4c 9d a3 3e
       -0.5774968 -0.8937399 0.38667196 0.31955945
0000c0 95 80 6e 3e 94 e4 29 be 4b 9f 59 3e 95 ce 5e bf
       0.23291238 -0.16591102 0.21252172 -0.8703397
0000d0 f2 75 a8 be df 7d 89 be 38 58 0b 3f 15 19 8c 3e
       -0.32902485 -0.26853845 0.54431486 0.27362886
0000e0 99 1f e8 bd 9a b9 9f 3e de cf 01 bf f9 c9 d4 bd
       -0.11334152 0.3119629 -0.50707805 -0.10390086
0000f0 91 13 e0 be ec 2d 5e 3e ed 60 71 3e 72 9e ab 3f
       -0.43764928 0.21697205 0.2357213 1.3407729
000100 f2 ea dd bc bd f4 9e 3c 67 ba 53 bf 17 07 00 3f
       -0.02708957 0.01940381 -0.827063 0.5001082
000110 73 ba 14 be a9 75 65 bf fc 03 fc 3e 9a be cb be
       -0.1452425 -0.8963266 0.4922179 -0.39793855
000120 08 ae 54 bf 7e 87 f5 be 85 44 9f bb d7 40 f2 be
       -0.8307805 -0.47954935 -0.004860463 -0.47315094
000130 e9 27 97 be f9 76 54 bf 9f bf 60 3f a3 97 b6 3e
       -0.29522637 -0.8299404 0.8779239 0.35662565
000140 88 40 19 3f e6 b5 92 be 84 4a 50 be 6e 5a 13 3e
       0.5986409 -0.28654402 -0.20340925 0.14389965
000150 76 4d cb be 64 4b f8 be cb d2 8b be e5 35 33 3f
       -0.39707536 -0.48495018 -0.2730926 0.7000411
000160 95 d2 b3 3e a7 5d 98 be 45 7a 3e bf 2e a8 a5 bd
       0.351216 -0.2975895 -0.7440532 -0.08088718
000170 f5 61 6f bc ed cc 06 bf ae bc a3 3e 88 71 d4 bd
       -0.014610757 -0.5265644 0.3197989 -0.10373217
000180 64 82 70 be de eb 9d 3e 2a 37 8c 3e bc 56 10 3f
       -0.2348724 0.30844015 0.27385837 0.56382346
000190 77 91 3f 3e 07 3b 8c 3e 66 2d 32 3f 8b d8 dc be
       0.18707834 0.27388784 0.6960052 -0.4313396
0001a0 77 cc 9d bd 09 42 71 be 0a 2c b6 be e9 1c 2a be
       -0.07705014 -0.23560347 -0.35580474 -0.16612591
0001b0 ec 0b 30 bf ab 1f 2c be f7 0a d3 3e e5 3a 1b bf
       -0.6876819 -0.16808955 0.41219303 -0.6063674
0001c0 11 f7 62 3f f6 e1 93 3e cb 0b fd 3e 4e 4f 2d 3f
       0.88658243 0.28883332 0.4942306 0.67699134
0001d0 0a 97 14 bd 10 f4 bb be 27 f5 bc be 5b 9e 58 bc
       -0.036276855 -0.36709642 -0.36905786 -0.013221349
0001e0 bd e3 4a 3f 9c 9c 61 be 46 b6 01 3e 62 12 ff 3e
       0.7925375 -0.22032398 0.12667188 0.49818712
0001f0 d0 5b 17 bc 9d 38 95 3d 65 07 f8 be 93 56 6a 3f
       -0.009238198 0.07286189 -0.48443142 0.9153835
000200 47 22 33 bf 34 28 e8 3d 01 29 da 3e 33 98 42 3e
       -0.6997418 0.11335793 0.42609408 0.19003372
000210 c2 57 11 3d d5 cd 89 bd 42 81 66 3e da 54 8e be
       0.035484083 -0.067287125 0.22510245 -0.27799112
000220 1e 05 93 3d 99 25 f6 3e 53 c5 86 3e 9c f8 62 3e
       0.071787104 0.4807556 0.2632242 0.2216515
000230 5b d8 9e be a7 64 20 be c4 3a dc 3e d8 f4 9e 3e
       -0.3102444 -0.15663396 0.43013585 0.31046176
000240 42 0b 3f bf 3b 08 e1 be 73 91 41 bd ff b1 c2 3e
       -0.74626553 -0.43951592 -0.04725785 0.38026425
000250 c9 01 ac 3e 81 17 10 bc db 54 31 3f da ff 1a 3e
       0.33595112 -0.008794666 0.69270104 0.15136662
000260 3b f5 8f 3a 8a 14 4d 3f 9d 5e b8 be b5 8a 01 3f
       0.0010983119 0.80109465 -0.36009684 0.50602275
000270 d4 9e 18 3f 1d 4a 6c 3e e5 7b 03 3f 47 e5 72 3e
       0.5961735 0.23075147 0.51360923 0.23720275
000280 2b 0b fd 3e 99 b4 75 bf 47 82 83 3e 65 69 2d bf
       0.49422583 -0.95978695 0.2568533 -0.67738944
000290 36 51 45 3b f7 1e 9f 3e a7 7b fe 3e be 55 c2 be
       0.003010822 0.31078312 0.49703714 -0.3795604
0002a0 10 ed 73 3f 7d f3 f4 be d6 b8 bd 3d b7 dc b1 be
       0.95283604 -0.47842017 0.0926377 -0.34738705
0002b0 cf b1 80 3e f6 96 7d 3d bb ab 27 be 09 47 e0 bd
       0.25135657 0.061911546 -0.16374104 -0.10951049
0002c0 fd e3 98 3e 1a 37 3d 3d 23 71 8e 3e ae 26 5a 3e
       0.2986144 0.046195127 0.2782069 0.21303818
0002d0 34 fe 81 be 7b 6e 2a 3e c6 04 3d 3e 8d 61 66 be
       -0.25389254 0.16643707 0.18458852 -0.2249815
0002e0 ea c1 cc 3d 57 53 5b 3f 06 ce a4 3e 37 30 92 3f
       0.09997924 0.8567404 0.32188433 1.1420964
0002f0 42 47 c6 be 92 97 e7 3e 27 80 69 3e a2 3a 21 bf
       -0.3872624 0.45232826 0.22802792 -0.6298009
000300 2c 2f de 3d 25 2a 18 be 7c cc d7 3e 78 70 98 3e
       0.10848841 -0.14859827 0.42148197 0.29773307
000310 49 54 99 3e 0b a4 aa 3d 4b 96 23 bd f4 09 52 bf
       0.29947117 0.0833207 -0.039938252 -0.8204644
000320 ed 1d 13 3d 17 85 9e 3d 54 94 81 3d 42 5e 92 3d
       0.03591721 0.077402286 0.063271195 0.071468845
000330 f5 e5 93 3e 68 78 f9 be 1a fc 36 3d 15 e2 5a 3e
       0.2888638 -0.48724675 0.044674017 0.21375306
000340 5e 24 79 3e 38 c9 d2 3d 3f fe 70 3e d6 5d b2 be
       0.24330279 0.10292286 0.23534487 -0.34837216
000350 f0 fb bc 3d 12 2c 36 3f 88 1f b9 bd 83 71 da be
       0.09227741 0.71160996 -0.09039217 -0.42664728
000360 a2 5c 1e 3f 6a d6 55 be f3 78 68 be 91 17 5a 3f
       0.61860096 -0.20882574 -0.22702388 0.8519221
000370 cd 97 2d bd 1b 74 ad be ef 6b 89 be ac e2 7c 3f
       -0.042381097 -0.33877644 -0.2684016 0.98783374
000380 2d 27 3c be 22 cc 27 3f 67 45 1b 3f e6 24 19 bf
       -0.1837432 0.65545857 0.60652775 -0.5982193
000390 57 51 82 bd 13 f4 b3 be f8 85 0d be 5a 82 a2 3e
       -0.063631706 -0.3514715 -0.13820636 0.31740075
0003a0 f4 fd a3 3e e4 d6 3d bf be 88 98 bf dc 17 89 bf
       0.32029688 -0.7415602 -1.191673 -1.0710406
0003b0 89 ed a6 be 82 78 ea 3d 4c bd 55 be 53 e2 01 bf
       -0.326031 0.11448766 -0.20872992 -0.5073597
0003c0 dd 4e c6 3e dd 59 6e be 35 4b da 3e 97 1c 1a be
       0.38732043 -0.23276468 0.42635503 -0.15049969
0003d0 ef c8 4a 3e 36 2e 46 bd 43 f3 99 3e 51 07 12 bf
       0.19803213 -0.048383914 0.30068406 -0.57042414
0003e0 48 28 90 bf fa a2 a1 3d 90 d1 87 3e 8c 4b f6 3d
       -1.1262293 0.078924134 0.2652707 0.12026128
0003f0 d2 e7 cc 3e 4a fe ab 3e d0 40 a3 3e e2 1b 93 3e
       0.40020615 0.33592445 0.31885386 0.2873221

network_body._body_endoder.seq_layers.0.bias f4 [256]
000000 9d 5c 1a 3d b9 00 b0 3c 7b 51 83 3d eb 82 64 3d
       0.03768598 0.02148472 0.064120255 0.055788916
000010 c5 3c a9 3c 75 ec 0e bd 41 6d a1 3c 01 bd 40 3d
       0.02065886 -0.03489347 0.019705417 0.04705525
000020 b5 12 21 bd 17 1c fa bc 97 1d a8 3c f4 a6 04 bc
       -0.03932448 -0.030530972 0.020521922 -0.008096445
000030 c6 53 20 3d 27 9b 50 3c 36 6d ac 3c 9c df 2a bb
       0.039142393 0.012732304 0.02104817 -0.0026073223
000040 6d 35 90 3a 49 25 35 3d 7f ff 88 3d c5 02 b0 bb
       0.001100225 0.04422501 0.06689357 -0.005371424
000050 03 03 38 3d 4c 24 f4 bc d1 16 93 bb b4 e6 7d bd
       0.044924747 -0.029802464 -0.004488804 -0.061987594
000060 1a 95 12 3d 3e 70 4d 3b c8 f6 02 3d 0a 69 77 3d
       0.035786726 0.003134742 0.03197363 0.060402907
000070 ca ed 2a 3d de 19 84 3d 4a 79 df 3c e5 01 57 bc
       0.04173068 0.06450246 0.027279515 -0.01312301
000080 5d ad 26 3c 4c f2 85 3d bc 04 6f 3d 10 7b 90 3c
       0.010173169 0.06540355 0.058354124 0.017636806
000090 2d 02 b2 3c c2 2d 43 bc f0 56 95 bb a7 24 4e 3d
       0.021729553 -0.011912765 -0.004557483 0.050327923
0000a0 1b 20 8e 3d 9c e9 05 3d 00 63 7f bc b0 2b 8b 3a
       0.069397174 0.03269349 -0.015587568 0.0010617878
0000b0 45 5c 50 bd 3f ae c6 bc f2 04 4a 3c f3 01 48 bc
       -0.050869245 -0.024253009 0.012330281 -0.012207496
0000c0 6f 24 d9 bc 4d 2a 34 3d f2 86 41 3d 3f 54 65 3d
       -0.02650663 0.043985654 0.047247835 0.055988546
0000d0 99 e8 ce bb f2 bf 1f 3d 41 a8 82 bd d5 ec f1 3c
       -0.006314349 0.039001413 -0.06379748 0.029531876
0000e0 e9 58 81 3d f1 9f 24 3d 0a a4 2c bd bc 59 c7 bb
       0.063157864 0.040191595 -0.042148627 -0.006083695
0000f0 7b 3b 1e 3d 91 e1 92 bc 06 e1 b6 bc ec 5c 43 bc
       0.038630944 -0.017929824 -0.022324096 -0.01192401
000100 42 f7 a7 3c 12 5e 01 3d bc b5 9d 3c 4d 82 00 3c
       0.020503644 0.031583853 0.019251697 0.007843566
000110 91 f1 92 ba 9f 49 41 bd f9 4c ac bc 19 99 af 3c
       -0.0011210908 -0.04718935 -0.021032797 0.021435307
000120 a6 b8 c9 bb a9 a7 58 3d 56 bd bc ba 72 d6 33 3d
       -0.006156045 0.05289427 -0.0014399688 0.043905683
000130 53 76 1b 3d 3f 5f cb 3c 9c ef 82 bc 25 e0 57 3d
       0.03795464 0.02482569 -0.015983395 0.052703995
000140 e3 04 8f bb d3 af 21 3d a0 c8 0c bd b3 0a 35 bd
       -0.004364596 0.03947432 -0.03437102 -0.044199657
000150 82 38 36 bd 67 04 85 bc fd dc 6a 3d 1d 9f 5e 3d
       -0.044487484 -0.01623745 0.057339657 0.05435096
000160 34 25 2d bd 75 f7 27 3b 40 b7 81 3d 07 c1 25 bc
       -0.042271808 0.0025629674 0.0633378 -0.010116822
000170 6f 69 b5 3b 00 e9 8a 3d 27 5b 24 3d 9e 23 76 39
       0.0055362503 0.067827225 0.040125992 0.00023473657
000180 ef 6f d7 3c c9 5e 87 bc 3c 01 35 3d e1 5a e7 3c
       0.026298491 -0.01652469 0.04419063 0.028241577
000190 66 64 03 bc 9a 85 db bc 1a e9 08 b9 51 55 df 3c
       -0.008019542 -0.026797105 -0.00013056808 0.027262362
0001a0 e9 0f 13 3b 5e a4 57 bc c5 b2 aa 3a 6a 35 fc bb
       0.0022439903 -0.013161747 0.0013023248 -0.007696797
0001b0 a2 51 27 3d 51 17 0d 3d ac 8c d1 3c 54 cc b1 bb
       0.040849335 0.034446064 0.025579773 -0.005425969
0001c0 96 7a a3 bc 30 6c 06 bd dd 68 76 3d d2 0e 6e 3d
       -0.019955914 -0.03281802 0.0601586 0.058119603
0001d0 d9 94 21 3d 4a 05 c2 3c 82 ec d8 bc 65 74 1e 3d
       0.039448593 0.023684163 -0.026479963 0.03868522
0001e0 15 4f 69 3c 88 17 f9 3c 1a 6a e4 3a 85 d4 e4 3c
       0.014240046 0.030406728 0.001742664 0.027933368
0001f0 e2 af 21 bd 28 8e 0b bb 94 85 54 3d f0 a3 e9 3c
       -0.039474376 -0.0021294449 0.051885203 0.028520554
000200 20 53 c3 3b 9e 2c 11 ba b8 d9 8c bc 87 ac 17 3d
       0.005960837 -0.00055379595 -0.01719366 0.03702977
000210 e7 1c 0d 3b 7a 9f 35 3d 5d 0d 18 3d e1 f5 6a bd
       0.002153212 0.04434154 0.03712212 -0.057363395
000220 61 e8 29 bc c0 5f a9 3c 8e 71 a6 bb 31 19 ac 3d
       -0.010370345 0.02067554 -0.0050794547 0.084032424
000230 70 c8 0c 3d 6d ad 48 3d e8 eb 03 ba d8 59 56 3d
       0.03437084 0.048993517 -0.0005032406 0.052331775
000240 13 91 98 bd ef 85 00 3d 7b 9c 1f 3c 1d 7e 19 3d
       -0.07449546 0.03137773 0.009741898 0.037473787
000250 73 4a ef bc d7 09 b4 3c b4 e7 d2 bc 58 b2 2d 3d
       -0.029210305 0.021977348 -0.02574525 0.04240641
000260 fd be 4e 3d 18 ac 8a 3d 6c 8c 26 bc 6d 24 ab bc
       0.05047511 0.067711055 -0.010165315 -0.020891393
000270 0b 37 52 3b 06 4d db bc ac e0 5f 3c b3 f0 eb bb
       0.0032076265 -0.026770126 0.013664406 -0.0072003244
000280 f9 3a 03 bc 98 03 42 bd 20 f7 87 3d d6 3a 87 3c
       -0.008009666 -0.04736671 0.06638932 0.016507547
000290 67 9e 34 bc fb f4 fa bb eb e6 0e 3d c8 6f 77 3d
       -0.011024094 -0.0076585985 0.03488819 0.060409337
0002a0 e9 06 63 bd 79 7f 4b 3d 14 94 fe 3c 35 ee 0d 3d
       -0.055426512 0.049682114 0.031076469 0.034651
0002b0 d5 76 e4 bc e0 88 64 bc ee 24 0d bd 13 fa 41 3a
       -0.027888695 -0.013948649 -0.034459047 0.00073996297
0002c0 ed 8b 3d bd 80 0b 65 3c 22 ff 76 bd 1d 66 4c bc
       -0.04627602 0.013979793 -0.060301907 -0.012475518
0002d0 12 dc 28 3c 51 e5 0d 3d 67 a4 28 bd 70 bf 82 bc
       0.010306375 0.03464252 -0.04117241 -0.015960425
0002e0 0b 92 fc 3c 37 a1 50 3d aa 6b 39 3c 4c 6c 50 3d
       0.030831357 0.050934996 0.011317173 0.05088453
0002f0 57 49 bb bb 62 fe af 3c a6 5d 8e 3c 31 bb ae 3b
       -0.00571553 0.021483604 0.01737864 0.0053323735
000300 af 26 52 bc 67 1a ac bb bc 61 4b 3d b8 bd 1e bd
       -0.012826606 -0.005252171 0.049653754 -0.03875515
000310 af a6 5d 3d dd dc 18 3b 42 8d 40 3b 0f 2c e0 3c
       0.05411404 0.0023325004 0.0029381071 0.027364759
000320 35 5c 07 3d 04 62 69 bb fa 25 7b bc 14 50 54 bd
       0.03304692 -0.00356114 -0.015328879 -0.05183418
000330 58 74 ae 3c ed 9e e2 3c 10 b5 9a bc 4d 75 36 bd
       0.021295711 0.027663672 -0.018885165 -0.04454546
000340 76 a6 36 3d 7d 4b d8 bc ad 38 a9 3c 94 ed 1f 3d
       0.044592343 -0.026403183 0.020656908 0.03904493
000350 23 ee ce bc 5b 85 8a 3c 6e e9 86 3d 9b 4a 10 bd
       -0.025260037 0.016909292 0.06587492 -0.0352274
000360 6d 5a 8f 3c 12 2d d5 3b f1 d9 30 bb 09 5d d0 3c
       0.017499173 0.006505617 -0.0026985372 0.025434988
000370 dd ee 2f 3d 3e b5 b3 3c 32 1d 08 3d 0b 30 37 bd
       0.042952407 0.021937009 0.033230968 -0.04472355
000380 68 b9 a0 3c a3 03 57 3d 29 64 90 bc da 1f 60 3d
       0.019619659 0.052493703 -0.017625885 0.054717876
000390 47 de 65 3d a8 e5 9e 3b 77 8d 2b bd ef a1 37 bd
       0.056120183 0.0048491545 -0.04188296 -0.044832166
0003a0 95 99 ce bb ac 32 24 3d 46 bf 42 3d dc 62 cb 3c
       -0.0063049295 0.040087387 0.047545694 0.024827413
0003b0 f1 4a b0 3c 77 ba 54 bb de 3b 86 bc 6b 23 e6 3b
       0.02152011 -0.0032459775 -0.016385969 0.007023265
0003c0 b4 21 0a 3c ce e6 c7 3c c0 6c 01 bd af 8d a0 bb
       0.008430887 0.024402048 -0.031597853 -0.0048997025
0003d0 f6 80 1c 3d e0 6a 20 3d 07 ff e8 3b e0 62 e8 3c
       0.038208924 0.039164424 0.0071104798 0.02836746
0003e0 15 6b 04 bd 33 88 3f 3d cf d1 91 3c c0 47 96 bb
       -0.032328684 0.04676075 0.01780024 -0.00458619
0003f0 c4 ee 89 bc e8 f5 21 bc 53 de f5 3b c6 cc 3d bc
       -0.016837485 -0.009885289 0.0075033098 -0.011584466

network_body._body_endoder.seq_layers.2.weight f4 [256, 256]
000000 7d 3e 22 bd e3 12 dc bc 84 8a c7 bd ba 2e b4 bc
       -0.039610375 -0.026864475 -0.09743217 -0.021994937
000010 a6 58 d4 3c 25 13 6c 3d 80 3e 6c 3d b1 f4 5e bd
       0.025921177 0.057635445 0.057676792 -0.054432575
000020 42 41 12 3e 2f 18 26 bc 2c ac 3e bd f2 db 89 bd
       0.14282706 -0.010137602 -0.046550915 -0.06731404
000030 aa a8 59 3c 61 58 77 3d 23 34 66 bc 8b 30 02 be
       0.013284842 0.06038702 -0.014050516 -0.1271383
000040 9c 2a f2 3b 5a 32 b1 bd dc d3 b3 bd 5d ee 2f bd
       0.0073903333 -0.08652182 -0.08780643 -0.04295193
000050 8c 86 0f ba 9d 41 d5 bd 1b bb 89 3c b6 d1 7b 3d
       -0.0005475066 -0.10412905 0.016812852 0.061479293
000060 99 35 56 3d 14 75 34 3d a7 cb eb 3b 85 29 af bc
       0.05229721 0.044056967 0.007195908 -0.021382103
000070 f4 f7 b7 3c b0 27 0e 3c 97 8d a5 bd 9b 5c e2 bd
       0.0224571 0.008676454 -0.08083647 -0.11052819
000080 e8 ee 83 bc 44 82 43 3d aa 11 0e bc 88 90 3b 3d
       -0.01610513 0.047731653 -0.008671204 0.045792133
000090 3f b4 c5 bb cd 40 f5 ba 2a 70 10 bc 6f d8 85 3d
       -0.00603345 -0.0018711329 -0.0088158045 0.06535422
0000a0 c2 46 8d 3d b3 a8 e7 3c 64 2a 36 bd d5 e4 b8 3d
       0.068982616 0.028278684 -0.04447402 0.09028021
0000b0 19 2a 2b bc ca 9f 92 3b dc 52 c2 bd cc d3 ae bc
       -0.010447049 0.0044746147 -0.094884604 -0.021341227
0000c0 4a 66 90 3d a8 c2 48 3c 73 5b 1a bd 43 7d c5 bc
       0.0705076 0.012253441 -0.03768487 -0.024107581
0000d0 c5 4a 22 3c d1 51 2a bc 62 7a 73 3c 96 9e a0 bd
       0.009905522 -0.010395483 0.014860721 -0.07842748
0000e0 19 bd 8c bd 5a f9 4a 3d c9 fa 4e bd 1a f1 b5 bc
       -0.06872005 0.049554206 -0.050532136 -0.022209693
0000f0 0f e7 e7 bc d9 04 aa bd 9a 38 cc 3d dd 3a 58 bd
       -0.02830842 -0.08301706 0.099717334 -0.05279051
000100 57 01 a9 bb dd ee e5 bd cf ab ee 3b 4c 82 71 ba
       -0.0051576304 -0.112272 0.007283665 -0.0009212836
000110 9d 0c 9c bd e2 fc 66 3d ea ee d1 bd 92 24 cd 3d
       -0.07619593 0.05639351 -0.10250647 0.10016741
000120 c5 6a 47 bb b9 bc 06 bb 0a 52 f0 3b ec cf 98 3d
       -0.003042863 -0.0020559265 0.0073339986 0.07461533
000130 0c 91 c2 bd ca 3c 1e bd b7 29 91 bd ca 12 cc 3d
       -0.09500322 -0.03863219 -0.070880346 0.09964521
000140 ac 0b 1f bd 83 bd 48 bd c6 e6 d5 bc 89 d5 a7 bd
       -0.03882949 -0.049008857 -0.026111018 -0.081950255
000150 08 29 b0 bd 30 77 09 3d 65 8c 3f be b9 2d 3e bd
       -0.08601576 0.03356093 -0.187059 -0.046430323
000160 f8 d6 a1 3d 6d 80 4b 3d 27 b5 79 3d d8 a3 bb bd
       0.0790233 0.049683023 0.060963776 -0.0916211
000170 c2 9d 63 3d bc 3e fd bd cc 0e 09 3c 68 d9 9b bc
       0.05557037 -0.12365481 0.008365344 -0.019024566
000180 ee b9 c8 3c a4 92 6f 3d 15 54 9a 3c 7f e9 7c 3c
       0.02450272 0.058489457 0.018838922 0.015436529
000190 73 85 a0 3d 3c d5 42 3d 07 4f 20 be 2a b3 9e bd
       0.078379534 0.047566637 -0.15655147 -0.077490166
0001a0 df 91 c7 3d 6d b5 89 bc e6 aa c6 bd cf 21 c4 ba
       0.097446196 -0.016810143 -0.09700565 -0.0014963689
0001b0 04 ef 3a bd b1 08 7e bc 2f 74 41 bd ea d9 2e bd
       -0.0456381 -0.015505002 -0.047229942 -0.042688288
0001c0 aa e9 84 bd 2e ef 1a bc 95 f6 a3 bc 8b 74 04 3a
       -0.064898804 -0.009456439 -0.02001504 0.00050527666
0001d0 86 df 27 bd bf ec 43 bc 62 7c 85 bc 09 58 c3 3a
       -0.040984653 -0.0119583 -0.016294662 0.0014903556
0001e0 f1 4f 68 3c d7 23 9f 3d f1 26 b6 bd 5f 08 5f 3d
       0.014179216 0.07770508 -0.08894146 0.054451343
0001f0 97 16 67 3d bd 79 6d 3c 09 d7 05 bc 1e 4a df bb
       0.056418028 0.014494357 -0.008168944 -0.0068142554
000200 be a2 78 3c e9 3f b9 3d 21 ff bd bd b4 4a a5 3d
       0.0151755195 0.09045393 -0.092771776 0.08070889
000210 10 ac c1 bd 9e bb 81 3a 49 92 33 bd 36 6d ac 3d
       -0.094566464 0.0009897833 -0.04384068 0.08419268
000220 a2 2f 01 bd 86 ee e4 bc ea 44 b6 bc c3 1b c2 3c
       -0.031539567 -0.027945768 -0.022249658 0.023694878
000230 fd 31 1f 3d d6 0b f5 bd 60 bd a6 3d 9e 4e 3a bd
       0.038866032 -0.11965148 0.08141589 -0.04548513
000240 a2 aa 75 39 55 da 9f bb 9a 95 fa 3c e1 80 91 3d
       0.00023428586 -0.004878322 0.030588914 0.0710466
000250 94 9f 05 3d ab a4 50 3e f5 31 1f bc f4 21 2c bd
       0.03262289 0.20375316 -0.0097165005 -0.042024568
000260 48 f0 6a bb ad e6 71 bc 78 67 34 bd f8 2d ea bc
       -0.0035848785 -0.01476447 -0.044043988 -0.028586373
000270 2e 7e 04 3e ce 53 16 3d 7b 0f 09 be a1 fd 63 bd
       0.12938759 0.036701016 -0.13384812 -0.0556618
000280 e3 7f 4b 3c 10 7f 77 bd 7d cc 1b be be b0 b9 3c
       0.012420627 -0.06042391 -0.15214725 0.022667285
000290 d7 08 95 bd f0 6a b0 3d 20 01 6d 3d 81 87 cf 3d
       -0.07277077 0.08614147 0.0578624 0.10133267
0002a0 81 ed ef 3b 10 10 70 be ba ac 8f 3d 3e d7 0b bd
       0.007322014 -0.23443627 0.07015367 -0.034140818
0002b0 b0 66 5a 3d 6b 0d 8b 3d 4e 5c 99 bd 7c fa 35 bc
       0.053320587 0.06789669 -0.07488309 -0.011107083
0002c0 8e 6e 64 3d 3d fd 4e 3d a5 18 9e bd ce 13 8e bd
       0.055769496 0.050534476 -0.07719544 -0.06937371
0002d0 dd ea 08 be 5e e3 41 bd d2 46 9c bd 57 e6 59 3d
       -0.13370843 -0.047335975 -0.076306954 0.053198185
0002e0 36 c0 c7 3d 4c 4f c6 3d f5 35 e4 3b 07 13 90 3d
       0.09753458 0.096830934 0.00696444 0.07034879
0002f0 bc 49 03 3b 73 0a b2 3d 51 cf aa bc e6 37 77 bd
       0.0020032963 0.08693399 -0.02085081 -0.060356043
000300 be 70 a3 bd 2d b5 1b 3c 0f c5 82 bd ae 13 b8 bc
       -0.07980488 0.009503645 -0.06385242 -0.022470322
000310 db bb 5e bd e4 3c 84 bd a4 5b 14 3d cd d8 be bd
       -0.05437837 -0.064569265 0.036220208 -0.09318695
000320 09 e1 a4 bd f0 4a 15 be c7 cb 29 3c fe 9a 2a 3d
       -0.080507345 -0.14579368 0.010363526 0.04165172
000330 ab e7 d7 3d 97 31 3a 3d 6d d6 83 bc 3b 34 7c bc
       0.10542234 0.04545745 -0.016093457 -0.015393312
000340 a1 f5 da bc d4 de dc 3d f0 55 81 bb 87 ad eb bc
       -0.026728453 0.107846886 -0.003947012 -0.028769268
000350 e8 17 08 3e 85 18 db 3c bd fa e9 bc 45 18 cb bc
       0.1329037 0.02674509 -0.028561944 -0.024791846
000360 02 de 6f 3d 76 3a 64 3d 0d 66 c9 bc dc 0e 9e 3d
       0.058561333 0.055719815 -0.024584794 0.07717678
000370 c3 0f 46 ba 90 a8 03 3d e1 f8 08 bd a6 00 9d 3c
       -0.0007555449 0.032143176 -0.033440474 0.019165348
000380 61 b5 a1 3c 3a 4f e1 3c 5a e1 40 3d 47 1c 87 bd
       0.019739809 0.027503598 0.047089912 -0.0659719
000390 83 24 d0 bc 49 81 06 3b f6 22 52 3c 8c 45 b4 3d
       -0.025408035 0.0020523837 0.012825718 0.088023275
0003a0 aa 63 df 3c 6f 7d cb 3d d0 7f b5 bd 5d 18 4b 3d
       0.027269203 0.09936034 -0.08862269 0.04958378
0003b0 b0 7c f1 3c 1e 46 c3 3c 0c d2 bd 3d 9b ca 72 b9
       0.029478401 0.023837145 0.09268579 -0.00023154395
0003c0 bc 10 b4 bc c9 03 52 3d c2 2d 14 bd f5 43 4a 3c
       -0.021980636 0.05127314 -0.03617645 0.012345304
0003d0 5b 51 ff bd 7e 0c 16 3d 85 b6 b9 3d 3c e3 fa 3d
       -0.12466689 0.036633007 0.09068016 0.12250373
0003e0 ea 40 8e bc e8 86 9f 3c 07 21 92 bd 4e 69 2c bd
       -0.017364938 0.019473508 -0.07135206 -0.042092614
0003f0 2b cd be bb 9a e8 93 3d 07 24 ea b9 ce 94 ee 3c
       -0.005822798 0.072220996 -0.000446588 0.02912369

network_body._body_endoder.seq_layers.2.bias f4 [256]
000000 99 3d 28 bd 47 da 61 bc 40 99 3b 3d 28 47 84 bc
       -0.04107437 -0.0137849515 0.045800447 -0.016147211
000010 02 0d ad bc 06 0c 2c bd 4f 12 46 bd be 57 09 3d
       -0.021124367 -0.042003654 -0.048357304 0.033530943
000020 cc 96 3b bc 5f de 8e b9 8f 6f 4a bd e6 d4 13 3d
       -0.011449527 -0.0002725003 -0.049422797 0.036091708
000030 fe 08 34 bd e2 d9 40 3d b3 cb f9 3c a5 79 4a bd
       -0.043953888 0.04708279 0.03049264 -0.049432416
000040 53 39 68 3d e0 fa e8 3c 4f 8a bc bb 35 0e d1 3c
       0.056695294 0.028439939 -0.0057537924 0.02551947
000050 26 be 98 bc 56 83 c2 3c f9 86 46 3d 92 f3 e6 3c
       -0.018645357 0.023744266 0.048468564 0.028192315
000060 0a a1 51 3c 53 e1 fa 3c 7f 4e 09 3d 47 bb 9b 3d
       0.012794742 0.030625021 0.033522125 0.0760408
000070 71 ad b7 bb 55 ae 07 3d 78 b8 da bc cc e6 1f 3c
       -0.0056053926 0.03312524 -0.02669929 0.009759616
000080 60 ae 56 bc d7 c4 89 bd 69 93 29 bd c4 4e 0a bd
       -0.013103098 -0.06726997 -0.041400347 -0.033766523
000090 94 2e 13 3d 92 6a ed ba ad 35 9a bc 8b 50 2e bd
       0.035933092 -0.0018113425 -0.018824423 -0.04255728
0000a0 38 87 0d bc 3c 1a c8 3b 77 2e e5 bc 38 72 9b 3c
       -0.008638196 0.006106643 -0.027976258 0.018975362
0000b0 e1 bc bd bc a1 7d 8b 3c 6e 92 7f bd 3e 46 00 3d
       -0.023161354 0.017027678 -0.062395506 0.03131699
0000c0 77 25 7f 3c 19 87 78 bc b6 84 3a bc bc 9d 90 3d
       0.015572897 -0.015168929 -0.01138418 0.070613354
0000d0 0d aa 7d 3c b1 2f 97 3c fa 10 6a 3d bc 8a 7c bd
       0.015482438 0.018455358 0.057145096 -0.061655745
0000e0 5c 02 af bc 1b c5 67 3a de 85 b0 3c 02 85 ba bc
       -0.02136343 0.00088413217 0.021548208 -0.022768501
0000f0 80 35 01 bd cb 7a 19 bc 20 24 9e 3c 4e 07 80 3c
       -0.031545162 -0.009367655 0.019304335 0.015628483
000100 76 1e a3 3b 39 7d 4b 3c 91 06 94 bb f3 cf e8 3c
       0.0049779965 0.012419992 -0.0045173843 0.02841947
000110 82 90 27 bc 09 c6 51 bb 71 43 36 bd a7 01 bc bc
       -0.010227324 -0.0032008907 -0.04449791 -0.022950007
000120 56 a7 c7 3b 7a 71 58 3d a6 10 39 bc 46 f7 12 3d
       0.006092946 0.052842595 -0.011295473 0.03588035
000130 8b 78 0d 3d 23 2b 74 3c ce af d2 bc b3 d3 c2 3a
       0.034538787 0.014902863 -0.025718596 0.0014864117
000140 82 65 95 bc f7 d7 8a 3b 69 fb 80 3d 62 fe 4b 3d
       -0.01823688 0.004237171 0.06297953 0.049803145
000150 eb 42 0c bd 2a f1 0a 3d 1c 3f aa 3b a8 27 16 bd
       -0.034243505 0.0339214 0.0051955115 -0.036658913
000160 fd 72 84 3c eb 60 f4 bc 88 27 87 3c f9 ce fe 3c
       0.016168112 -0.02983137 0.016498342 0.031104552
000170 df 5a 2d bc 18 74 f3 bb 47 eb 0f 3d bc 69 58 bd
       -0.010580747 -0.007429611 0.035136487 -0.05283521
000180 1f 01 48 3d 48 72 1c bd ec be ea 3c 94 65 10 bd
       0.048829194 -0.038194925 0.028655492 -0.035253122
000190 6f b4 26 bd a8 f7 84 bc d4 75 95 bd 78 da 43 3c
       -0.04069942 -0.016231373 -0.072978646 0.0119539425
0001a0 78 e5 d0 bc c1 ef 3b 3d 3c b4 11 bd 2f a4 f3 bc
       -0.025500044 0.045882944 -0.035572276 -0.029741375
0001b0 e0 42 f9 3c 03 a5 81 bc 1a 9f bc bc 3c e6 23 bb
       0.030427396 -0.015825754 -0.023025084 -0.0025009057
0001c0 bb 3c 49 3d 44 02 0e bd 2e 09 91 3c b1 02 90 bc
       0.049130183 -0.03467013 0.017704573 -0.017579408
0001d0 e1 87 ff bb 4e 40 a2 bc 9a 7b db bc 9e 84 0e 3d
       -0.0077981804 -0.019806053 -0.026792336 0.034794442
0001e0 58 db af 3c df 51 a1 3b bf 6f 86 3b fb 5a 5a 3d
       0.021466896 0.00492309 0.0041026766 0.053309422
0001f0 57 da 17 3d d1 ba f8 3c 1e ee ec bb 6a d7 f5 bc
       0.03707346 0.030362519 -0.007230534 -0.030009944
000200 a3 d8 17 3c 09 bd 1d 3c 43 8e 48 bd 46 23 37 3d
       0.009267959 0.009627589 -0.048963796 0.044711374
000210 1f ab 82 3d 31 5b 2e 3d da 46 b7 3c 3b d8 3e 3d
       0.06380295 0.042567436 0.022372652 0.046592932
000220 8c 04 46 3d cb 2d 3a 3d 35 6c 69 3d e1 2c 7f 3c
       0.04834418 0.045453828 0.05698796 0.015574665
000230 f5 e1 8d bc 29 a9 5a 3d 6e ae ac bc 69 92 a2 bc
       -0.017319659 0.05338398 -0.021079268 -0.019845204
000240 71 b6 0d 3d 5a 37 cc bc b2 26 34 bd d0 97 5d 3c
       0.034597818 -0.024928737 -0.043982215 0.013524964
000250 2f 5e 00 3d 0d e6 9d 3a 66 97 e0 3c ef f2 e3 bc
       0.03133982 0.001204671 0.027415942 -0.0278258
000260 bb 88 98 3c f6 b1 10 bd bc 63 f8 3c 92 9b dc bc
       0.018619886 -0.035325967 0.030320995 -0.02692965
000270 38 e1 fb bb 6d 15 b0 bc 93 1b c2 3b 47 80 33 3d
       -0.0076867603 -0.021494592 0.0059236973 0.043823507
000280 29 9a 2c bd 82 92 ca bb 39 70 93 bc 2a 81 c2 3c
       -0.042139206 -0.006182016 -0.017997848 0.02374323
000290 4f 32 2d 3d dc b4 02 bd c7 28 1d 3d 9d a5 e4 bc
       0.042284306 -0.031910762 0.038368966 -0.027911002
0002a0 ef db d1 ba 0c d0 a8 3c 4c 50 5b 3a c2 96 31 3d
       -0.001601098 0.020607017 0.0008366152 0.043356664
0002b0 91 65 07 3d 55 49 3d bc 66 e6 1c 3d 80 75 56 3d
       0.033055846 -0.011553128 0.038305663 0.05235815
0002c0 c5 1e ee 3a 71 fa de bc c8 fb 63 bd 2e a0 ec 3b
       0.0018167129 -0.02721903 -0.05566004 0.0072212433
0002d0 9e d8 59 3d 3e 49 30 bb 87 56 a1 3b fd 36 1d 3d
       0.053185098 -0.0026899124 0.004923645 0.03838252
0002e0 e8 3f 3a 3d c5 e0 ab 3c 26 39 ce bc 64 c3 06 bd
       0.045471102 0.020981202 -0.025173735 -0.032901183
0002f0 0c c6 5a bd b2 24 33 3d e1 b5 36 bd cf d8 1f bd
       -0.05341153 0.043736167 -0.044607047 -0.039025124
000300 34 63 a4 bc 73 a9 20 ba dd 7e 94 bb 64 de d9 bc
       -0.020066835 -0.00061287655 -0.004531725 -0.026595302
000310 59 93 a2 bc 04 ea 54 3d 27 52 52 bd 22 11 10 3d
       -0.019845651 0.051980987 -0.051347878 0.03517259
000320 13 f1 7a bd 1d 84 b5 3c c4 64 22 3c a5 46 4c bd
       -0.061265063 0.022157723 0.00991172 -0.04987206
000330 2c 18 95 3c 7e 55 22 3d c1 a4 a2 3c b9 fa 33 3c
       0.018200003 0.039632313 0.019853951 0.01098507
000340 c5 09 ad 3b a2 09 a2 bc 1c 16 05 3d 3d 49 7e bb
       0.0052807056 -0.019779984 0.03249179 -0.0038800978
000350 5c 8a dc 3c 6f d1 db 3c 9f 51 95 bd 58 7f 56 bd
       0.026921444 0.026833264 -0.072909586 -0.05236754
000360 21 06 b4 bc 2f 3c 03 bd c1 73 5e 3d 98 38 ad bc
       -0.021975579 -0.032039817 0.05430961 -0.02114515
000370 8c 47 14 bd a5 5d b2 3b e2 c0 f6 3c bd ab b8 3c
       -0.036201045 0.005443292 0.03012127 0.022542829
000380 0c 36 18 bc 00 af c5 ba ce 8e 42 3b e9 33 ac 3c
       -0.0092902295 -0.0015082061 0.002968717 0.021020846
000390 07 60 d6 bc 54 40 16 bd be 08 d2 bc 4b f2 ce bc
       -0.026168836 -0.03668244 -0.025638934 -0.025262019
0003a0 06 89 76 3d cb e0 ae 3c dd 28 e5 bc 1d 1c b8 bb
       0.06018927 0.021347424 -0.027973587 -0.0056185857
0003b0 cf 1d 6a 3d e5 f0 37 bd 7e a9 24 bc 40 53 99 3b
       0.057157334 -0.04490747 -0.010050176 0.0046791136
0003c0 7e b9 13 bd 09 3f 49 bd ec 76 2b 3b 6b 5a b0 bc
       -0.03606557 -0.04913238 0.0026163412 -0.02152749
0003d0 9a 1f c5 3c 79 ac c5 bc 64 1f 5a 3c 81 1a a1 3c
       0.02406292 -0.024130093 0.013313148 0.019665958
0003e0 8e 3c 1f 3d 3c 5a d3 bb 4a 2f ce 3c a3 8a 00 3d
       0.03887611 -0.0064499658 0.025169034 0.031382214
0003f0 e2 ac 08 3d 12 93 46 3d 7f 61 b1 bc 38 e8 1d bc
       0.033368 0.0484801 -0.021652935 -0.009637885

network_body._body_endoder.seq_layers.4.weight f4 [256, 256]
000000 b9 24 f4 3b 05 d3 ed bd 52 8c 90 3c 50 3b 91 3c
       0.0074506667 -0.116125144 0.017645035 0.017728478
000010 1e e5 28 bd 85 3b 12 3e 2c 4c 47 3c 5c 70 04 be
       -0.04123413 0.14280517 0.012164157 -0.12933487
000020 ac 18 31 3d 72 b8 8f 3b 76 71 ad 3c d9 e7 42 bd
       0.04323642 0.0043860013 0.021172266 -0.04758439
000030 19 8b 1d 3b 7b 06 b2 3d 26 8a d4 bd f3 4d 84 3d
       0.0024039207 0.08692642 -0.10377912 0.0646018
000040 82 0c 2d 3d ad f6 39 bc 7b c7 01 be 51 3f 81 bc
       0.042248257 -0.011350316 -0.12673752 -0.015777262
000050 45 29 e2 bb d8 bd 9d bc fd cf c6 3d 4e 04 09 3d
       -0.0069018924 -0.019255564 0.09707639 0.03345137
000060 cb e2 cf bd ef d0 c9 bc aa f7 6f 3c e9 6b 80 3d
       -0.10150679 -0.02463576 0.01464645 0.06270582
000070 25 98 83 bc 0a d4 ec 3c 9c 7a dd 3c ae 5d 08 be
       -0.01606376 0.028909702 0.027036004 -0.13316986
000080 b9 31 75 bc 12 cc 1e 3d 72 73 86 3d 97 93 6c 3d
       -0.014965468 0.038768835 0.06564988 0.05775794
000090 74 df de bc 80 16 88 3d 95 9c 2f 3d d8 bc 1a 3d
       -0.02720616 0.066449165 0.042873938 0.03777775
0000a0 e0 98 2f bd 09 a3 b0 3c 50 54 b2 bb 9e f9 61 bd
       -0.042870402 0.021562116 -0.0054421797 -0.055169694
0000b0 f0 12 e6 bd 62 ba d7 bc f6 0a 7c 3b 00 95 9b 3c
       -0.11234081 -0.026333991 0.0038458682 0.018991947
0000c0 e7 96 7c bd b4 6c fd 3c 4a 73 84 bd fd b5 b3 bd
       -0.06166735 0.030935623 -0.06467302 -0.08774946
0000d0 dc eb 9a 3c c1 ab 6e 3d 46 c2 63 3d 73 a6 ce 3d
       0.018911295 0.058269266 0.055605195 0.100903414
0000e0 6c 3f 97 bd 9e 1b b4 3d c4 9d 85 bb 22 89 60 3d
       -0.07385144 0.0879433 -0.004077645 0.05481828
0000f0 f0 db 8d bd a3 ec 7d bd 23 dd 92 bd 26 c2 b1 3c
       -0.069267154 -0.061993252 -0.07171085 0.021699023
000100 32 0b aa bd 00 47 f2 bc 2c ae 7d 3d 34 74 b0 bd
       -0.083029166 -0.029574871 0.06193368 -0.08615914
000110 09 4a 51 3d 3d 9b c7 bc 74 18 81 bd 8b 8f f4 3d
       0.051095996 -0.024366016 -0.06303492 0.11941441
000120 58 85 a0 3c b7 28 85 bc 84 d3 b3 3d 3e 29 03 3d
       0.019594833 -0.016254766 0.08780578 0.032021753
000130 84 13 96 bd e0 8b 47 3b ce 48 73 3c 81 1b 24 3d
       -0.07327941 0.0030448362 0.014848901 0.040065292
000140 03 64 35 3e 3a fe d1 3b ce ff 10 3e 28 36 9a bd
       0.17713933 0.00640848 0.14160082 -0.07529861
000150 d1 6e e4 3c b6 4b 8e bc 93 6f 4c 3d f8 3a a0 bd
       0.027884873 -0.017370086 0.049911093 -0.078237474
000160 66 8e 89 bc 19 4c b9 3b dc 4f 99 bd e8 0d 78 bd
       -0.016791534 0.0056548235 -0.07485935 -0.060560137
000170 db 54 07 3d 95 5b b3 bc 20 2b e7 bd a4 0b a0 3c
       0.03303991 -0.021894256 -0.11287522 0.0195368
000180 dd c1 be bc 18 0e 15 3d a4 b2 06 be 10 a1 2c 3d
       -0.0232858 0.036390394 -0.13154083 0.04214579
000190 6f 48 3f bd d3 4f 96 3d 89 fa a4 bd a0 82 2a bc
       -0.046699937 0.07339444 -0.08055598 -0.01040712
0001a0 0e b1 92 bc 68 92 73 3c a0 65 70 bd 75 29 a7 3a
       -0.017906692 0.014866449 -0.058690667 0.0012753444
0001b0 6d 8f 2a 3d 0c 41 b6 3c 82 c9 06 3d b5 83 84 3c
       0.041640688 0.022247814 0.032907017 0.016176084
0001c0 ef 63 7f bd 39 9c be bc 06 59 a0 3d 62 42 6e 3d
       -0.062351163 -0.023267852 0.0782948 0.058168776
0001d0 c7 4d 62 3d 20 a9 58 bd ba 99 0f bd 49 11 10 bd
       0.055249956 -0.052895665 -0.035058714 -0.035172734
0001e0 30 8e c8 bb de 47 0b be 44 99 11 3b 01 cc e8 3d
       -0.0061204657 -0.13601634 0.0022216598 0.11367036
0001f0 8e ba 16 3e 76 fa 26 bd ac 69 62 3d 94 ac 54 bd
       0.14719602 -0.040766202 0.055276558 -0.051922396
000200 ca d7 6c 3d 47 e0 66 3c 61 8d 38 bd 49 9a 37 3d
       0.05782298 0.014091558 -0.045056704 0.044824872
000210 69 86 18 be 91 c6 d9 3d e0 dc 13 3c 93 9f 8c bd
       -0.14895023 0.10633577 0.009024829 -0.06866374
000220 75 33 5e bd be f0 08 bd 6c 8b ca 3c dd 3a b0 bc
       -0.054248292 -0.033432715 0.024724685 -0.021512443
000230 db 4e 83 bd 23 0f d3 3c 83 80 f9 bc 01 20 2c bd
       -0.06411525 0.025764054 -0.030456787 -0.04202271
000240 79 33 03 3e 1c 94 89 bd 1c ac a8 3c a2 6e 89 3d
       0.12812604 -0.06717703 0.02058988 0.06710555
000250 c8 28 2e 3e 4e fb cb 3a 16 9f b4 3c 2b c2 a6 bd
       0.17007744 0.0015562566 0.022048514 -0.08142503
000260 c0 a2 2e 3e 7a d8 29 bd 2e 65 d7 3c 3e cc 1e 3b
       0.17054272 -0.041466214 0.026293363 0.0024230625
000270 c4 3a b7 3c fd 4c 5a bd de 75 28 3d 49 30 24 bd
       0.022366889 -0.053296078 0.041128032 -0.04008511
000280 56 73 cf bc ca 66 98 bd e9 0b 3c bc f9 f1 40 3c
       -0.025323551 -0.074414805 -0.011477449 0.011776441
000290 9d 02 cd 3d 6b e9 86 3d d8 bb 6a ba f6 23 49 bd
       0.10010264 0.0658749 -0.00089543825 -0.04910656
0002a0 cf 1b 0f bd 4e 19 2b 3d da 4f 98 bd 02 8f 31 3d
       -0.03493863 0.04177218 -0.074371055 0.043349274
0002b0 8d b8 18 bd 07 9c c2 bb d1 3f 81 3d d0 a7 af 3b
       -0.037285376 -0.00593901 0.06311 0.005360581
0002c0 ac 5c 73 bd e9 6c d5 3d e3 74 4e 3d 29 7d 37 3d
       -0.05941455 0.104211636 0.05040444 0.044797096
0002d0 bd ce 12 bd e0 5f 20 bd d0 2e 52 bd c4 1a 97 3c
       -0.035841692 -0.039153934 -0.051314175 0.01844538
0002e0 cd 2d 93 3b 15 a0 a0 3d 8b 55 e0 bd 84 2d 87 bd
       0.004491544 0.07843033 -0.10953816 -0.06600478
0002f0 fe e4 d0 bc 1d 0c 58 3d d4 6b fa bd 0b e5 f8 bb
       -0.025499817 0.052745927 -0.12227598 -0.0075956634
000300 c1 3b 30 3d 04 55 b7 3b 27 11 98 bd ea 4f af 3d
       0.043025736 0.0055948514 -0.074251465 0.08560164
000310 17 a4 39 bd 35 5a 68 bd d3 4c 04 3e 9b c4 86 3c
       -0.045322504 -0.056726653 0.12919931 0.01645117
000320 29 11 0c bc 5a 5e 0a 3e f5 2b 73 bd fc 48 69 bd
       -0.008549013 0.13512555 -0.059368093 -0.05695437
000330 ef 8d da 3c 5c 0c f2 bc 50 ed fe bd f0 7e de 3c
       0.026679007 -0.029546909 -0.124476075 0.027160138
000340 df 01 a8 bd 3c 01 83 ba 63 eb 38 3d 0b ce e6 bb
       -0.08203482 -0.0009994875 0.045146357 -0.007043605
000350 77 29 9b bd bc 2a d0 bd 5e 45 21 3d bd 6a 92 bd
       -0.07576268 -0.10164401 0.039372794 -0.07149265
000360 46 f8 aa 3d f7 50 7d bd d2 42 c9 bd 9e 7f 5c 3d
       0.08348136 -0.061844792 -0.09827198 0.053832643
000370 69 01 cf bd 7d c9 85 3d 22 7d 02 bd d2 a9 5d 3d
       -0.10107691 0.065325715 -0.031857617 0.05411703
000380 c9 4e 09 be 6f cf 89 3d 0a 7b 09 3e ac 35 81 3c
       -0.1340896 0.06729018 0.13425842 0.015772663
000390 23 80 71 bc 25 6b b8 3d 58 c4 93 bd 41 e3 73 3d
       -0.014740023 0.09004811 -0.07215184 0.059542898
0003a0 76 c5 91 bd 0c 11 48 3c d7 ee 8d 3d c4 cc 70 3d
       -0.07117741 0.012211096 0.06930321 0.05878903
0003b0 ed cf 03 bd 85 d9 1b 3d a0 ff a2 3c 49 ee c0 3c
       -0.032180715 0.03804924 0.019897282 0.023551123
0003c0 eb a0 a3 3d e4 c7 62 bd 76 9c 6c bc 1c be 0a 3e
       0.07989677 -0.05536641 -0.0144416 0.13549083
0003d0 2b cd a8 bd 9b 82 c9 3c 86 41 db 3d 77 94 88 bd
       -0.08242258 0.02459841 0.10705857 -0.066689424
0003e0 99 a8 e9 bd 23 b6 68 3c 90 72 a8 3b e2 8d 03 bc
       -0.114091106 0.014203581 0.00514061 -0.008029433
0003f0 fd 0c 4a bd 60 e9 4e 3d d7 47 bc bc f8 9f 9f bd
       -0.049328793 0.050515532 -0.022983475 -0.077941835

network_body._body_endoder.seq_layers.4.bias f4 [256]
000000 af b1 c1 bc 2e e8 15 bd 84 91 6b 3d bc 12 fd bc
       -0.023644296 -0.036598377 0.05751182 -0.030892722
000010 ee 6d 10 3c 09 b7 69 3c b1 03 5c 3c d9 c6 39 bb
       0.008815272 0.01426483 0.0134286145 -0.0028347282
000020 30 a6 ce ba 09 f6 29 bd 67 61 08 bd a0 6b 98 3b
       -0.001576608 -0.041494403 -0.033296015 0.004651502
000030 59 6e 49 bd d9 cd 3d bd cc 94 03 bd d9 29 ed bc
       -0.0491775 -0.04633889 -0.032124326 -0.028950619
000040 90 a3 df bc 8b 93 52 3b 66 4e cd 3b f7 46 1c bb
       -0.027299672 0.00321314 0.0062654493 -0.002384601
000050 1d 87 5b bd d4 12 34 3d f1 c4 f6 3c 50 07 52 3d
       -0.05359565 0.04396327 0.030123206 0.051276505
000060 0d fe e4 3c 14 9c 55 bc 18 6f 0b bc ad 80 c1 bc
       0.027953172 -0.0130377 -0.0085103735 -0.023620928
000070 1a 1a 86 bc 08 48 fa 3c d5 a4 3a bd bb 13 e4 bc
       -0.016369868 0.030551925 -0.045567352 -0.02784144
000080 97 e5 42 bc 04 76 8a bc 4d e3 e6 bc 20 0b 42 bd
       -0.011895559 -0.016901977 -0.028184557 -0.04737389
000090 db c2 0f bd dc a6 7e bd 68 73 ad 3a 94 07 00 3d
       -0.035097938 -0.06217085 0.0013233246 0.031257227
0000a0 91 83 31 bd 51 0c 4f 3d 60 4a 17 3d af 8c 4b 3d
       -0.043338362 0.050548855 0.036936164 0.049694713
0000b0 e1 55 28 bd 6c 78 df 3c 2b 32 23 3d 2d 03 17 bd
       -0.041097526 0.027279101 0.039842766 -0.036868263
0000c0 1a c3 02 bd 59 37 b4 bc 2d c7 2d 3c f3 f6 31 bd
       -0.031924345 -0.021999048 0.010606569 -0.0434484
0000d0 33 b3 fb bc d1 08 5e 3d a6 e8 d7 bc 77 52 c7 3c
       -0.030725097 0.054207627 -0.026356053 0.024331314
0000e0 8a 1a 0f 3d 56 27 e3 ba 78 fb 02 3b c7 15 da 3b
       0.03493742 -0.0017330449 0.0019986313 0.006655428
0000f0 ce 8f 2e 3d c9 1c 39 bb e9 02 e5 3c 39 6c 99 3b
       0.04261761 -0.0028245917 0.02795549 0.0046820906
000100 a0 5d 4a 3d 7f ee 19 bd e8 23 29 bd 53 c8 86 3c
       0.049405694 -0.037580963 -0.04129401 0.016452944
000110 d9 e8 bb bc 5f e8 85 bb f5 8e ef 3c 4b 71 c6 3c
       -0.022938179 -0.0040865387 0.029242972 0.024223944
000120 92 42 99 bc 5e d7 17 bd dc 06 43 bc 85 f1 ba bb
       -0.018708501 -0.037070625 -0.011903491 -0.005705061
000130 13 01 11 bd b3 4d 4e bd d7 11 a0 39 f2 e5 e7 3c
       -0.035401415 -0.05036707 0.0003053087 0.028307889
000140 bf 50 17 bb 7b 7d 19 bc a6 16 0d bd f1 88 2a 3d
       -0.00230889 -0.009368296 -0.034445427 0.041634504
000150 c6 d0 25 bb 09 56 0f bc 0b e5 35 bb 51 ab 55 bd
       -0.002530144 -0.00874854 -0.0027754928 -0.052165333
000160 ef 57 61 bc b2 12 32 bb df f0 1c bd e7 79 02 3c
       -0.013753875 -0.0027171788 -0.03831565 0.007963634
000170 32 4d e1 bc 2d d6 2d bb df f9 12 bd 2e 49 a3 3c
       -0.02750263 -0.0026525364 -0.035882827 0.019932356
000180 17 5f f0 3c 2f 26 56 3b 7a fc af 3c cb 93 f8 3b
       0.029342217 0.0032676568 0.021482695 0.0075859777
000190 03 50 58 bc 77 b9 ef bb 42 0e c3 bb 4b 31 09 3d
       -0.01320267 -0.0073158103 -0.0059526274 0.033494275
0001a0 8f 42 9a bc 9b 0c 44 3d 0a 61 10 bc 97 db 4b 3d
       -0.018830566 0.047863584 -0.008812198 0.049769964
0001b0 92 44 b1 bc 58 f8 ba ba f1 e4 19 bd d9 03 9e ba
       -0.021639142 -0.0014264686 -0.03757185 -0.001205559
0001c0 56 be c9 3c 5c e8 a6 3b cc 4f 23 bb 50 c4 e9 bc
       0.024626892 0.0050936174 -0.0024919389 -0.028535992
0001d0 a2 0b 54 3d 4e e0 2e bd 8f 2e 3f bd 67 68 0d bd
       0.051768906 -0.042694382 -0.04667526 -0.034523394
0001e0 17 fb 22 bb 32 bb 8d bc 82 c5 b3 3c 6c 22 13 3d
       -0.00248689 -0.017301176 0.021944765 0.0359215
0001f0 08 54 ac bb 9e eb 81 b8 f2 d2 c0 3c c5 08 4e bd
       -0.0052590407 -6.1950865e-05 0.023538087 -0.050301332
000200 77 f8 55 3c a9 ed 0b bd 40 15 21 bc 7f 9c a5 bb
       0.013059727 -0.034162197 -0.009831727 -0.005054056
000210 c6 a3 c9 3b d6 28 07 3d 81 ef 87 3c 17 20 91 3d
       0.0061535565 0.03299793 0.016593697 0.07086199
000220 f0 96 53 3c 09 15 43 bd 07 08 35 3d b5 96 5c bd
       0.012914404 -0.047627483 0.04419711 -0.053854663
000230 69 27 b2 bb de 12 43 3c 4a 57 01 bd 0b 62 09 bc
       -0.005436827 0.011906354 -0.031577386 -0.008385192
000240 06 f8 14 bc 67 e1 87 3b 9e 87 d7 bc 7d 94 c2 3b
       -0.0090923365 0.004146743 -0.026309785 0.0059381113
000250 e2 14 85 3c c5 14 a5 bc 66 25 f3 bc 4a 4f 62 3c
       0.01624531 -0.020151505 -0.029680919 0.013812849
000260 e7 38 00 3c f3 d5 60 3d bd 8a dc 3b 90 45 cf 3c
       0.007826067 0.054891538 0.006730406 0.025301725
000270 c9 ee 06 bc 69 60 c1 3c 71 6e 87 3d 63 d1 63 bc
       -0.008235642 0.023605542 0.06612862 -0.013904902
000280 b2 c7 37 bd fc 8c 84 3d 02 f0 1d bd 8a bb 9a 3c
       -0.04486818 0.06472203 -0.038558967 0.018888254
000290 7f c4 c4 3c 7f d1 6f bd 2b 4b 12 bd 19 a9 90 bc
       0.024019478 -0.0585494 -0.035716217 -0.017658757
0002a0 7c b9 04 bd 7e b3 68 3c 42 57 2d bd 5c 20 78 bd
       -0.032403454 0.0142029505 -0.042319544 -0.060577735
0002b0 42 62 82 bc 46 2a 4f 3d 8e 17 3d 3d d7 22 97 3c
       -0.015915994 0.050577424 0.04616504 0.01844923
0002c0 46 9f 68 bd cf c9 eb bc e3 84 96 bc 98 f8 1d bc
       -0.05679252 -0.028782753 -0.018373912 -0.009641789
0002d0 a8 d6 11 bd fb 8d 15 bd bc 7f 33 bc d4 d3 0c bd
       -0.035605103 -0.036512356 -0.010955747 -0.034381703
0002e0 42 43 49 3c f3 4f 29 3c 27 0c 37 3c e2 32 a2 3b
       0.012284102 0.010334003 0.011172331 0.0049499134
0002f0 5a cb 02 bd 7f 6c 0e 3d 3e 5e 24 3d 8a 2c 29 3d
       -0.031932212 0.03477144 0.04012894 0.04130224
000300 7d f7 b6 3b 3d 7e ce 3c 8f 63 98 bc 30 50 f7 39
       0.005583702 0.02520668 -0.01860216 0.00047171256
000310 78 ed e8 3c e6 1e 41 3c dc 91 ea bb 1c 3d 81 bc
       0.028433546 0.011787152 -0.007158501 -0.01577621
000320 0a 78 ed bc ba 3b e8 bb 34 c0 bd 3c ac 3d 90 bc
       -0.028987903 -0.007087198 0.023162939 -0.017607532
000330 06 ca 46 3c 31 40 1f bc 8b b7 3d bb 4a 76 f4 3b
       0.012133127 -0.009719894 -0.0028948511 0.00746039
000340 8a 27 17 3d f3 e7 36 3d 12 0b 71 bc 24 4f 12 bd
       0.03690294 0.044654798 -0.014712112 -0.035720006
000350 6e 5e 06 3d d6 34 48 bc 4e 2d 02 3d 50 20 0b bd
       0.0328049 -0.012219628 0.031781487 -0.033966362
000360 75 fe 27 3d 0a 45 14 bd 8c 7f 4d bd 4d d5 ef bc
       0.041014154 -0.036198653 -0.050170466 -0.029276514
000370 73 bc 7c bd db f1 71 3c b5 f6 f9 bc ce c5 e8 3c
       -0.061703157 0.0147671355 -0.030513147 0.028414633
000380 9d 21 11 3c 88 be 28 3c 54 16 fd 3c aa 91 0a 3c
       0.008858112 0.010299332 0.030894436 0.008457581
000390 3b 77 83 bb 5b 2c 3b bd 5e 9f 13 bc 2e 8a 2a 3d
       -0.004012016 -0.045696598 -0.009010164 0.041635685
0003a0 28 2e 90 3b 6b d4 99 3a 60 61 22 bc d3 4b 26 bc
       0.0044000335 0.0011736279 -0.009910911 -0.010149914
0003b0 f8 94 8b 3b ea 8b 58 bd 93 eb 23 3d 37 e6 5a 3d
       0.004259702 -0.052867807 0.040019583 0.053442206
0003c0 5b c5 27 bc ba 9c 17 bd ee 24 b4 bc 88 1e 08 3d
       -0.010239924 -0.0370147 -0.021990266 0.033232242
0003d0 5b f0 0c bd 5b 4c 6e 3d 4d 39 8a bc e7 8c e1 3c
       -0.03440891 0.058178287 -0.016873026 0.027533008
0003e0 56 83 d0 bc 95 67 11 bd f4 10 a2 ba 09 c4 62 bd
       -0.02545325 -0.035499174 -0.0012364672 -0.055362735
0003f0 2c fa ee 3c d8 50 2d 3d 82 de 27 bc da dd b3 bb
       0.029172026 0.042313427 -0.010245921 -0.0054890933

action_model._continuous_distribution.log_sigma f4 [1, 2]
000000 07 46 41 be 06 16 e1 bd
       -0.1887437 -0.10990529

action_model._continuous_distribution.mu.weight f4 [2, 256]
000000 74 d1 62 b8 2b 6e c1 3c 32 ed 0d 3b 20 74 b2 3c
       -5.4077667e-05 0.023612102 0.0021656272 0.021783888
000010 39 62 2e 3d 61 d2 15 bc ab 0f fc 3b 5e b1 7b 3c
       0.04257414 -0.0091443965 0.0076922975 0.015362112
000020 47 7a fd bc 5f 22 af bc 16 d7 a1 bc 7a 9f b0 bd
       -0.030942095 -0.021378694 -0.019755881 -0.08624168
000030 d5 53 30 3c 7a 79 cd 3c 3a 46 87 3b af ec 64 bc
       0.010762175 0.025082339 0.0041282447 -0.013972445
000040 54 6d cc 3c 85 59 42 3c e1 42 06 bc 4a 93 e1 ba
       0.024954475 0.011862163 -0.008194656 -0.0017210033
000050 16 34 ee 3b 4c 69 b4 bc 99 15 cf 37 b5 bc 8e 3b
       0.0072693927 -0.022022866 2.468638e-05 0.0043559917
000060 75 4b e4 ba bc d1 cf ba f0 18 ec 3c 95 50 a1 3c
       -0.0017417507 -0.0015855352 0.028820485 0.019691745
000070 31 40 5d 3d d5 bf 37 3d 4b 77 f0 3c ed c3 59 3c
       0.054016296 0.04486068 0.029353758 0.013291341
000080 21 2d 74 3c 0a 3a 82 3b 70 76 94 3a 9b 8d 0b 3d
       0.014903338 0.003974204 0.0011326801 0.034070592
000090 15 42 40 bc 91 63 22 3b fb dd 03 bc 14 27 ff ba
       -0.011734505 0.0024778584 -0.00804853 -0.0019466602
0000a0 1f a2 d8 3c cb 11 67 bc ab 10 2a bb 7f 10 e7 39
       0.026444493 -0.014103363 -0.0025949876 0.00044072044
0000b0 be d4 4a bc 2c 53 65 3c 1e 97 f9 bc fe a4 91 3a
       -0.012379823 0.0139968805 -0.030467566 0.0011111794
0000c0 35 cf 97 3b 72 ca a8 3c 4f f4 77 3c 62 cc 80 3c
       0.0046328553 0.020604346 0.015133931 0.015722457
0000d0 8c 1a b4 3c 2d 8b 1f 3b e5 91 64 bc b0 7a c5 bc
       0.021985315 0.002434443 -0.0139508 -0.024106354
0000e0 18 56 21 3a 8c 49 3e 3d a9 e8 bb 38 dd f6 82 bd
       0.00061544916 0.04645686 8.960191e-05 -0.06394742
0000f0 56 df b3 bb 48 a5 79 3d b8 56 0d 3c 17 36 e4 b8
       -0.00548927 0.06094864 0.008626632 -0.00010881962
000100 e3 2d 03 3c 2a cc 72 3c 17 f2 d3 3a 59 c7 af 3c
       0.008006546 0.014819184 0.0016170171 0.021457361
000110 ad fc dd bb 44 e0 a3 bd 8e ba 44 3c d9 28 9e 3c
       -0.006774506 -0.0800176 0.012007369 0.019306587
000120 7a 49 23 bd 5f 7e b6 3c 7f 24 6d b9 b7 be b2 3c
       -0.039864995 0.022277055 -0.00022615677 0.021819456
000130 0f 7b 2f bc 8a 08 0f 3c 94 9a 83 bc 69 98 62 ba
       -0.010710492 0.008730063 -0.01606492 -0.00086439267
000140 7a 29 4b bd 40 86 98 bc 83 3c f7 3b 94 66 03 bc
       -0.049600102 -0.018618703 0.0075450554 -0.008020062
000150 35 90 5a bc 3e 81 5f 3c 85 02 ab 3c ef 99 52 3c
       -0.013340046 0.013641654 0.020875225 0.012854083
000160 ff 5f 9c bb 74 e7 19 bb 9c 37 63 3c 0d 49 02 bb
       -0.004772186 -0.0023483904 0.013868239 -0.0019879967
000170 49 7a 69 3d e1 8a ec 39 89 29 00 3d d2 47 06 3d
       0.057001386 0.000451169 0.03128961 0.032783337
000180 f4 c4 0f bc d9 1f d5 bb 57 26 a4 3a 32 a7 1c bd
       -0.008774985 -0.0065040407 0.0012523633 -0.038245387
000190 db d2 47 3c f5 97 18 3c 03 64 31 bd b5 1c 04 bd
       0.012196268 0.009313573 -0.04330827 -0.03225394
0001a0 2a 1e 79 3d d1 f8 31 bb 4e 59 6b bd ac 1d 93 3a
       0.060819782 -0.0027156363 -0.057458214 0.0011224053
0001b0 c7 77 b9 bc 94 fd aa bd c6 49 03 3d 1e 31 f5 bb
       -0.022640122 -0.083491474 0.032052778 -0.007482662
0001c0 ce 6b 9b bd e4 6d ef 3c c6 1e 46 3d ca cc 82 3a
       -0.075889215 0.029227205 0.04836919 0.0009979245
0001d0 43 85 a3 bb 9b 8e c8 ba 48 18 50 3b e5 c7 da ba
       -0.0049902513 -0.0015301289 0.0031752754 -0.0016691653
0001e0 74 c7 78 3c fe 92 61 ba 9b 81 c3 b9 c5 a0 60 bb
       0.015184272 -0.00086049724 -0.00037289862 -0.0034275514
0001f0 6c 0a 22 3c 81 1c a0 3b 2a 82 2e bb 80 27 aa 3b
       0.00989018 0.0048862104 -0.0026627877 0.005192697
000200 eb 6f 08 bd 47 15 44 3d 37 6e 21 3c 97 8b c8 3d
       -0.03330986 0.047871854 0.009852937 0.0979225
000210 77 2f 73 3a 8f ff 4f 3c 08 3e 17 3b fb 2d d7 b9
       0.0009276787 0.012695207 0.0023077745 -0.00041042254
000220 c3 2d a9 3c 92 76 39 3c c7 e5 b8 bc 2c 37 99 3c
       0.020651704 0.011319773 -0.022570504 0.018703066
000230 31 96 63 3d 8e 26 b5 bb 4e d2 41 bc a6 70 e9 bc
       0.055563156 -0.0055282777 -0.011829926 -0.028496098
000240 ab d3 e4 3a 33 0d 0a 3d 87 b7 57 bc 61 24 5c bc
       0.0017458102 0.033703994 -0.013166315 -0.013436408
000250 0b 7e 29 3c d4 43 e2 bb 09 1f 28 bd 8c 25 81 3c
       0.010344992 -0.0069050584 -0.041045222 0.015764974
000260 ab 50 0d 3c e8 87 22 3b 6d 28 b0 bb 12 6f 6b bd
       0.00862519 0.0024800245 -0.005375913 -0.05747897
000270 a0 6d 9b 3d af 14 1a bd 2c 6a 13 bb 0d 3e 76 3d
       0.07589269 -0.03761738 -0.0022493703 0.06011777
000280 f8 5d 6c bb 2e 21 56 3b 67 59 96 3c 2f c1 45 bd
       -0.0036066752 0.0032673585 0.018353177 -0.048279937
000290 73 78 0c 3a f4 1f 86 3c da 4c 83 3c c9 4f c3 3b
       0.00053585245 0.016372658 0.016027857 0.005960439
0002a0 14 af fb bc ba 85 18 3c 51 78 c8 3c f4 16 28 3b
       -0.030723132 0.009309227 0.024471434 0.0025648447
0002b0 5f 38 4c 3d 30 49 ac 3b 98 d0 c6 bc 35 33 e5 bc
       0.049858447 0.005257748 -0.024269387 -0.027978519
0002c0 bf 9c 56 3c db ce eb 3c e0 09 ad 3c e9 12 00 bc
       0.013098895 0.02878516 0.021122873 -0.0078170085
0002d0 ca 61 8d 3a 64 f5 61 3b 3c 24 67 3c 06 90 2e 3c
       0.001078659 0.003447854 0.01410776 0.010654455
0002e0 c8 52 3e 3c 0b 58 40 bb 88 71 c9 3c ee 8c ac ba
       0.011616416 -0.0029349353 0.024590269 -0.0013164559
0002f0 cf 3b e3 b9 23 ec 26 bd 3d f7 0f 3b 80 63 86 3b
       -0.00043341375 -0.04075254 0.0021967434 0.004101217
000300 32 5c 83 3c 22 4c 90 3c 18 e4 e5 bb a5 b6 1c bd
       0.016035173 0.017614428 -0.0070157163 -0.03826012
000310 dd 0c 93 3c 88 4e 4e bb 66 20 6c 3b f6 8b 0e bb
       0.01795047 -0.0031479914 0.0036030053 -0.0021750904
000320 6b db 36 bc 7e cf 2e 3c d2 79 cb 3a 38 33 c4 3c
       -0.011160712 0.010669587 0.0015523976 0.023950204
000330 db ec 9a bd 61 87 f2 ba 4b 14 8c bc 82 d1 5e 3c
       -0.07564708 -0.0018503481 -0.01709952 0.013599755
000340 f1 a0 41 bb e5 71 3c bc 93 89 de 3b d0 ec 82 3c
       -0.0029545391 -0.011501764 0.0067913025 0.015982062
000350 fa 74 fa 3a 06 56 2a bd 11 d1 91 bc a4 0b 9e bc
       0.0019108348 -0.041585945 -0.017799886 -0.01929266
000360 a8 51 28 3c a8 1b a8 3c 36 cb 75 3b 15 35 19 3c
       0.010273375 0.020521 0.0037505156 0.009351035
000370 7b 87 0f 3b 68 2d dd b8 f8 9b c6 ba 1a 5a 1f 3b
       0.002190082 -0.00010546559 -0.0015152683 0.002431518
000380 6a 9c 1a bd fb 6e 07 3d db 0b af bc f8 37 3d 3c
       -0.037746824 0.033064824 -0.021367958 0.0115489885
000390 9a 25 9c bc 39 cd 33 3c c3 59 0c 3c f6 2e 76 3c
       -0.019060899 0.010974222 0.008566323 0.015025845
0003a0 3d d2 0f bc 14 34 05 3d 99 1a 57 3c c9 b5 c5 3a
       -0.008778152 0.03252037 0.0131289 0.0015084083
0003b0 29 04 7c bd 62 e4 2a 3c 33 b4 32 bb 82 92 7b b9
       -0.061527405 0.010430427 -0.0027268052 -0.00023991804
0003c0 27 2d da bc 2a 89 02 3c f2 c4 13 3d 64 66 d1 39
       -0.026632858 0.007967273 0.036076494 0.00039939873
0003d0 fe 24 dd bb 2b 7e 2f bc f9 c1 64 3c ce 8a cc bc
       -0.0067487946 -0.010711233 0.013962262 -0.024968531
0003e0 ac ac 20 3d a7 19 d5 bb 02 1b 30 3d 28 bb 4d 3c
       0.039227173 -0.006503302 0.042994507 0.012556829
0003f0 6a fa 86 bb 36 75 a7 3b b6 49 9c bb 3d 0d 13 bb
       -0.004119207 0.005110408 -0.004769529 -0.002243831

action_model._continuous_distribution.mu.bias f4 [2]
000000 3c 4d dc bc b2 02 b4 3d
       -0.026892297 0.087895766
