tankresults/TestA3/SuperTank/SuperTank-499920.onnx (onnx, 546549 bytes, 13 tensors)

network_body.observation_encoder.processors.0.normalizer.running_mean f4 [6]
000000 0a ff 12 c0 85 aa 41 3e b9 56 88 bf 8a 98 19 3f
       -2.2968163 0.18912704 -1.0651466 0.5999838
000010 63 46 61 3e 90 6f 9d bf
       0.21999507 -1.2299671

network_body._body_endoder.seq_layers.0.weight f4 [256, 6]
000000 b4 3a 59 bd 80 a5 5a bf 72 c4 29 bf 7d 0c 58 3b
       -0.0530345 -0.8540878 -0.66315377 0.0032966428
000010 ea 3e 74 3f a2 a3 26 be 9d 07 c0 3d 89 3e c8 bd
       0.954085 -0.16273358 0.09376452 -0.09777553
000020 7d 34 b4 3c 84 39 f9 be 7f 8e 8c 3e 91 55 8a bd
       0.021997685 -0.48676693 0.27452466 -0.06754602
000030 1e 6e 44 be 53 e6 ae 3d e7 4b bd 3c 2f 2c 9b 3e
       -0.19182631 0.085400246 0.023107482 0.30307147
000040 11 6e 56 3f f1 32 3b 3e d4 fc b9 be db 1b 24 bf
       0.837617 0.18281151 -0.36325705 -0.64105004
000050 de 9b 13 bf 1b ed 9e 3e 7d 7b bc be 8b 2e 35 3d
       -0.5765971 0.31040272 -0.36812964 0.04423384
000060 6c 6b 2b 3e c8 f8 84 be e2 06 81 be d2 bf 3e bd
       0.16740197 -0.25971055 -0.25200564 -0.046569653
000070 50 76 31 3e c8 bf 09 bd 4d 37 b4 be 15 0a 0a be
       0.17330289 -0.033630162 -0.3519844 -0.13480408
000080 35 48 32 bd 3e 55 98 bd 4a b1 cd be 4f 8c 3f bf
       -0.043525893 -0.07438134 -0.40174323 -0.7482347
000090 62 2a 1c 3f bc d6 dd 3e 07 13 7d 3e bf a2 e2 3b
       0.6100217 0.43327892 0.2471429 0.0069163735
0000a0 d5 6c ee 3d 00 f0 66 be 8f 58 91 3e 9f bd 3c bf
       0.11641852 -0.2255249 0.28387877 -0.7372684
0000b0 b0 af 0e bf 5d f3 61 bf 09 a7 cb 3e bc ea 9d 3e
       -0.5573683 -0.8826197 0.39775875 0.3084315
0000c0 72 be 5f 3e 48 0c 2b be fe f9 4c 3e 65 1e 61 bf
       0.21849993 -0.16703904 0.2001724 -0.87937003
0000d0 c3 05 ad be 8a db 84 be 8b 1d fa 3e b5 e8 91 3e
       -0.33793458 -0.25948745 0.48850664 0.28497854
0000e0 92 1e bd bd 3b 81 9e 3e c4 6b 02 bf 05 e8 cf bd
       -0.092343464 0.3095797 -0.5094569 -0.10151676
0000f0 ae d0 db be 48 a1 5f 3e 20 c9 62 3e bb 43 aa 3f
       -0.42932647 0.21838868 0.22147036 1.330192
000100 2a 6c 19 bd e0 f8 f5 3c 0b 32 4e bf 66 22 02 3f
       -0.03745667 0.0300259 -0.8054511 0.5083374
000110 a8 8f 07 be 9a 94 63 bf f6 b7 ff 3e 35 83 cf be
       -0.13238394 -0.88898623 0.4994504 -0.4052979
000120 f3 e7 4a bf 13 56 e9 be a1 74 40 bc 86 0a f4 be
       -0.79260176 -0.45573482 -0.0117465565 -0.4766428
000130 1d ec 98 be 8f 91 53 bf 03 a8 5c 3f c9 51 b6 3e
       -0.2986764 -0.8264398 0.86193866 0.35609272
000140 23 b2 0e 3f 4f 70 9b be ee a7 61 be 04 d3 24 3e
       0.55740565 -0.30359122 -0.22036716 0.16096121
000150 de 97 bb be 65 26 f0 be 6c 03 8d be 7a e6 34 3f
       -0.36639303 -0.46904293 -0.27541673 0.7066418
000160 a7 2e b7 3e d9 bf 9b be 29 51 32 bf e9 12 67 bd
       0.3577778 -0.30419806 -0.6965509 -0.05641452
000170 00 ee 9c bc de a6 04 bf fa f1 a7 3e af b2 e5 bd
       -0.019156456 -0.5181712 0.328018 -0.11215722
000180 93 1a 68 be c2 99 9b 3e 65 dd 77 3e 42 44 0f 3f
       -0.22666387 0.30390745 0.24205549 0.5596353
000190 c8 53 3b 3e e5 60 8e 3e 9c e2 26 3f 14 0c d7 be
       0.18293679 0.278083 0.6518953 -0.42001402
0001a0 33 a5 92 bd f2 5a 7a be 4e aa ba be 1b ff 20 be
       -0.071604155 -0.24448755 -0.36458057 -0.15722315
0001b0 70 8b 28 bf dd 13 1b be f6 35 c4 3e a4 05 21 bf
       -0.65837765 -0.15144296 0.3832242 -0.6289923
0001c0 e3 3a 5d 3f c9 7c 9f 3e 61 a6 ed 3e fa 36 2e 3f
       0.8641798 0.3114989 0.46416 0.6805264
0001d0 b2 35 60 bd 4a 4b c1 be 8a 40 c2 be e3 d2 35 bb
       -0.054738708 -0.37752753 -0.37939864 -0.0027744106
0001e0 5a b3 3e 3f d5 eb 58 be bf 59 f6 3d 96 59 f8 3e
       0.7449242 -0.21183713 0.120288365 0.4850585
0001f0 98 96 b5 bc 73 2e b0 3d 99 af f0 be 28 0b 6c 3f
       -0.022166535 0.086026095 -0.4700897 0.92204523
000200 05 3b 2e bf e0 d8 00 3e 43 77 e0 3e 61 cc 35 3e
       -0.68058807 0.12582731 0.4384099 0.17753746
000210 50 6f 10 3d 11 66 94 bd 56 a9 57 3e e3 97 90 be
       0.035262406 -0.0724603 0.2106069 -0.2824088
000220 57 22 8a 3d 5d 6a f8 3e c2 65 6a 3e 84 42 6b 3e
       0.06744831 0.4851865 0.2289038 0.22974592
000230 e7 47 8d be ae a5 10 be 26 e9 e3 3e 79 0c 97 3e
       -0.2759392 -0.14125702 0.44513816 0.29501703
000240 94 9a 32 bf 82 44 d2 be 5f d5 63 bd e8 48 c0 3e
       -0.6976712 -0.41067892 -0.05562341 0.37555623
000250 3f 9d a9 3e 41 bf 85 bb 6d d7 28 3f 2f 50 21 3e
       0.33127782 -0.004081637 0.65953714 0.15753244
000260 5d 2d 1b bc 2d 03 4a 3f 98 75 be be 06 9d 04 3f
       -0.009471265 0.78911096 -0.37199092 0.518021
000270 68 ec 15 3f a0 a9 65 3e 6b 08 f5 3e e5 da 64 3e
       0.5856385 0.22427988 0.47857985 0.22349127
000280 7d 13 f6 3e b9 30 72 bf 36 6c 8c 3e bb 93 2e bf
       0.48061743 -0.94605595 0.27426308 -0.6819417
000290 a8 69 77 bb e3 13 a2 3e 1f b7 00 3f 05 4b c5 be
       -0.0037752185 0.31655797 0.5027942 -0.38533798
0002a0 7e 04 6b 3f 4c 20 f9 be bb c8 93 3d 74 3e b7 be
       0.9180373 -0.48657453 0.07216021 -0.35789835
0002b0 0d c0 76 3e ee 5d 94 3d 71 62 15 be 93 bb db bd
       0.24096699 0.07244478 -0.14588334 -0.10729136
0002c0 12 93 88 3e b3 1b 07 3d 56 c1 87 3e 6e b4 67 3e
       0.26674706 0.0329854 0.2651469 0.22627422
0002d0 bf 66 68 be 94 9d 33 3e 0c 1b 24 3e 0d a4 73 be
       -0.22695445 0.1754058 0.16025943 -0.23793049
0002e0 3d 96 b2 3d 00 a6 5e 3f 3f 0d 9e 3e 24 f6 92 3f
       0.08720062 0.86972046 0.3086948 1.1481366
0002f0 eb 21 bb be 6d 85 ec 3e 36 3c 73 3e e5 b2 23 bf
       -0.36549315 0.46195546 0.23753437 -0.63944846
000300 a8 47 ea 3d 84 16 1b be bc 7b c1 3e 3b f8 8e 3e
       0.114394486 -0.15145308 0.37789714 0.2792376
000310 b5 eb 8f 3e 64 8f d0 3d 46 ee de bc c0 6d 53 bf
       0.28109518 0.101835996 -0.027213227 -0.8258934
000320 b5 0f f1 3c e4 f9 a7 3d 13 05 8b 3d 03 e9 88 3d
       0.029426435 0.0820196 0.06788077 0.066850685
000330 8d 44 98 3e b8 34 f7 be 6c be 10 3d 4e 74 52 3e
       0.297398 -0.4828241 0.03533785 0.20552179
000340 5e ca 70 3e de ab e3 3d 30 27 80 3e c6 a7 ad be
       0.23514697 0.111167654 0.25029898 -0.33917063
000350 6b 84 b3 3d de c4 35 3f 89 45 bc bd 53 a2 d9 be
       0.08765491 0.7100352 -0.0919295 -0.42506656
000360 31 dd 13 3f f0 22 5a be 90 28 5e be 73 5f 5b 3f
       0.57759386 -0.2130239 -0.21695161 0.8569252
000370 09 31 19 bd dd 04 b0 be f0 bf 87 be cf 89 7c 3f
       -0.03740028 -0.3437871 -0.26513624 0.9864778
000380 3f 7f 3e be 6a cf 27 3f 96 46 1b 3f 92 28 19 bf
       -0.18603228 0.65550864 0.6065458 -0.5982753
000390 4d 1a 6c bd 0b fd b3 be 9c 5d 08 be 1b e2 a1 3e
       -0.05764227 -0.35153994 -0.13316959 0.31617817
0003a0 3b 6a a3 3e 73 85 3d bf 05 81 92 bf 5c cc 86 bf
       0.31916985 -0.7403175 -1.1445624 -1.0531116
0003b0 55 9e a9 be 4b 82 e1 3d 01 32 5a be 47 c3 00 bf
       -0.3312861 0.110111795 -0.21308137 -0.5029797
0003c0 95 45 c5 3e 66 f0 75 be 6e ba cb 3e 75 97 29 be
       0.3852965 -0.24017486 0.39790672 -0.16561683
0003d0 37 6d 3b 3e 37 2d 08 bd 66 ee 98 3e 11 2c 14 bf
       0.18303381 -0.033246245 0.29869384 -0.5787974
0003e0 a7 9c 89 bf dd 38 b3 3d f7 31 8c 3e 3d b2 e4 3d
       -1.0750932 0.0875108 0.2738187 0.11166809
0003f0 83 b0 c0 3e 70 22 ae 3e 71 f7 9c 3e 3a 99 8d 3e
       0.37634668 0.3401065 0.30657533 0.27655965

network_body._body_endoder.seq_layers.0.bias f4 [256]
000000 85 8f 3c 3d ff d7 c8 3b 95 c6 75 3d 92 1c 7b 3d
       0.04603531 0.0061292644 0.060003836 0.061306544
000010 d1 80 0f 3d 41 1f e0 bc 76 8d e6 3b 69 74 6b 3d
       0.03503496 -0.027358653 0.0070359064 0.057484064
000020 fb 00 44 bd c0 6a 06 bd 58 93 29 3c 71 2c 9f ba
       -0.047852498 -0.03281665 0.010350071 -0.0012143982
000030 a6 ae 12 3d 6f d8 65 bb 0b e1 df 3c 06 93 b4 3b
       0.03581109 -0.0035071631 0.027328989 0.0055106906
000040 4e b8 3f bb c9 4b 12 3d 4e e2 39 3d 0e e3 7a bc
       -0.0029254141 0.035716806 0.045381837 -0.015312923
000050 df 12 04 3d 34 f6 93 bc 5d fc 0e bc 82 4a 41 bd
       0.03224456 -0.018061735 -0.00872716 -0.047190197
000060 57 25 00 3d 32 5c 07 bc c8 44 9a 3c 14 99 86 3d
       0.03128561 -0.008261727 0.018831626 0.06572166
000070 a2 d2 01 3d 8b 2c 54 3d 08 33 75 3c 8b a7 80 bb
       0.031695016 0.051800292 0.01496578 -0.0039262227
000080 ee 87 f0 bb 5c a1 8e 3d e6 9a 4e 3d cf e5 84 3c
       -0.007340423 0.069643706 0.05044069 0.016222863
000090 13 eb d8 3c 38 d0 41 bc 0a a7 c1 bb fe fb 3c 3d
       0.02647928 -0.011829428 -0.005909805 0.046138756
0000a0 d4 0b 61 3d b6 31 27 3d 6b 56 d3 bc 4d 80 9c bb
       0.05494292 0.040818892 -0.025798043 -0.004776037
0000b0 db 6c 2f bd 54 28 b2 bc 26 26 df 3b ba 6d 26 bc
       -0.042828422 -0.021747746 0.0068099676 -0.010157997
0000c0 9c 4a 02 bd 26 c8 37 3d d8 78 61 3d f9 0c 27 3d
       -0.031809434 0.04486861 0.055046886 0.040783856
0000d0 2d d7 a1 bc 05 77 3f 3c 2f 9f 5a bd ee cb c9 3c
       -0.019755924 0.011686091 -0.053374466 0.024633374
0000e0 02 17 4e 3d ee d8 f8 3c cf 5d 1e bd a9 a4 06 3c
       0.05031491 0.030376878 -0.03866368 0.008217969
0000f0 1f b9 53 3d 70 cc ec bc 50 e1 04 bd 87 7d 08 bc
       0.051690217 -0.028906077 -0.032441437 -0.008330709
000100 29 4b f6 3b 4d 3d 12 3d 0f 42 b2 3c 8f 8d a0 bb
       0.007516284 0.035702992 0.021760015 -0.0048996876
000110 8a 32 0e bc 3d fe 13 bd 05 b7 11 bc db 8a 09 3d
       -0.008679042 -0.036131132 -0.008893733 0.03357969
000120 f0 a2 85 3b 0d 6c 2c 3d ba 80 d1 bb a9 26 f3 3c
       0.0040782616 0.042095233 -0.006393519 0.02968152
000130 93 61 ce 3c 0e 20 dc 3c bb c8 a2 bc 66 bb 18 3d
       0.025193011 0.026870754 -0.019871106 0.037288092
000140 70 ca 9d bc 4c 96 af 3c 2e 44 b5 bc f7 59 52 bd
       -0.019261569 0.021433972 -0.022127237 -0.05135533
000150 c6 72 61 bd cb 32 2d bb 20 c4 63 3d 80 55 7d 3d
       -0.055041097 -0.002642798 0.05560696 0.061849117
000160 af 7b 2f bd a7 42 04 bb 3a 71 6c 3d 2a 7c 31 bc
       -0.042842563 -0.002018133 0.05772517 -0.010832826
000170 0b 79 34 bb 0e 31 8a 3d 38 31 4b 3c e8 08 44 bc
       -0.0027537968 0.06747638 0.012401871 -0.011965014
000180 ee cd 8a 3c 3c 6b bb bb 1a 00 d3 3c 20 48 9e 3b
       0.016943898 -0.0057195704 0.025756884 0.0048303753
000190 7b 68 c7 bc 9a e9 07 bc 88 57 16 3c 56 1d 06 3d
       -0.024341812 -0.008295441 0.0091761425 0.03274282
0001a0 b1 b3 6b bc 95 c6 51 bc 1a fe 2d 3c 7c 22 a8 3b
       -0.0143861035 -0.012803693 0.010619665 0.005131064
0001b0 7b 79 e8 3c 16 41 c0 3c 36 91 ce 3b 54 50 ce 3b
       0.028378239 0.023468535 0.0063039316 0.006296197
0001c0 91 3a 15 bc 11 ec c7 bc 15 b6 82 3d a5 c6 3c 3d
       -0.009108202 -0.024404557 0.06382386 0.04608788
0001d0 d9 fe 42 3c 7b 3a e4 3c 30 18 a3 bc 61 ed 02 3d
       0.011901581 0.027859917 -0.019908994 0.031964663
0001e0 b9 1a 53 3c 65 76 1f 3d b2 b2 23 3c 68 75 18 3d
       0.012884789 0.03893127 0.009991335 0.037221342
0001f0 35 bc 17 bd 5f 2f 74 bc ab 0d 49 3d 46 fc 89 3c
       -0.037044723 -0.014903872 0.0490853 0.016843926
000200 04 6c 2f bc 1b 82 14 bc 19 d7 06 bc f1 92 0b 3d
       -0.010706905 -0.009064223 -0.008229994 0.03407568
000210 39 c1 1f 3c dd 23 29 3d f8 38 e0 3c 40 75 66 bd
       0.009750658 0.041293968 0.027370915 -0.056264162
000220 72 ec e5 bc 7e c1 a0 3c b1 41 c4 bc 27 26 28 3d
       -0.028066847 0.019623514 -0.023957105 0.04105201
000230 6f 26 d0 3c d3 08 54 3d 17 78 01 bc 02 73 72 3d
       0.025408952 0.051766228 -0.007902167 0.05919171
000240 55 62 85 bd c6 58 1c 3d d6 51 8f 3a a5 76 46 3d
       -0.06512896 0.0381706 0.0010934423 0.048452992
000250 01 8c f5 bc a3 0f ff 3a f1 e6 14 bc ef 74 04 3d
       -0.029973986 0.0019459616 -0.009088264 0.03233808
000260 be 1e 1f 3d 56 5b 6b 3d b8 a4 4e 3b 2f a1 4b bc
       0.038847677 0.05746015 0.0031531285 -0.012428566
000270 8b 5b d8 3b 9f e2 43 bd 3a 28 8d 3c d8 9a 2e 3b
       0.0066027096 -0.047823545 0.017231096 0.0026642587
000280 4d 70 52 38 e1 00 38 bd f5 fc 40 3d 4b 8a 00 bc
       5.017249e-05 -0.044922713 0.04711624 -0.007845472
000290 30 4b 72 bc ee 26 3f bc 03 57 cf 3c 04 8b 4b 3d
       -0.014788434 -0.011666996 0.025310045 0.049693123
0002a0 79 89 3c bd 70 ee 72 3d 6f b9 6f 3c d1 7a e5 3c
       -0.04602954 0.059309423 0.014631613 0.028012665
0002b0 5e 20 bf bc b0 4b aa bb 06 19 e5 bc 79 42 79 3c
       -0.023330864 -0.005197011 -0.027966034 0.015213602
0002c0 73 ce 1b bd 2d c0 6b bb 6f e5 46 bd 03 41 be b9
       -0.038038682 -0.00359727 -0.04855865 -0.00036288062
0002d0 ba ba 2c bb 69 a6 f4 3c da 5d 04 bd 00 71 1a bc
       -0.0026356415 0.029864507 -0.032316066 -0.009426355
0002e0 0f ce 40 3c 11 2b 1c 3d 4e 5e fb 3b 48 89 1f 3d
       0.011767878 0.03812701 0.007671154 0.03894928
0002f0 6e db ca 3b 84 9a 09 3d ba a2 a8 3c ec 0a a8 3c
       0.006190709 0.033594623 0.020585407 0.02051302
000300 21 73 bd 3b 24 93 aa bc 8d cd 57 3d 85 ef 1c bd
       0.0057815467 -0.020822115 0.052686263 -0.03831436
000310 d7 c4 e6 3c c6 2b 5a bc 74 00 83 3c 25 d4 9a 3c
       0.028170032 -0.0133161 0.015991427 0.018899987
000320 a2 d8 af 3c f4 ad c6 3b e3 fc 0f bd 5f e2 27 bd
       0.021465603 0.0060632173 -0.03515328 -0.04098737
000330 ea 3d c9 3b f4 ca 2e 3c 0f 5e 9b bc e1 ec 21 bd
       0.006141414 0.010668505 -0.01896575 -0.039532546
000340 92 d3 1c 3d 6e f3 fb bc 75 e0 35 3c 28 63 31 3d
       0.038287707 -0.030755725 0.011100878 0.043307453
000350 b1 cf ed bc e5 33 97 3c 78 ef 61 3d 7f 3e f5 bc
       -0.029029699 0.018457362 0.055160016 -0.029937027
000360 7b 9f 18 3b 72 55 d8 bb 09 ba 91 bc 17 ae 2a 3c
       0.0023288417 -0.0066019827 -0.017788904 0.010417483
000370 d2 99 c7 3c 3b bf 8e 3c a6 8b 32 3d cc f2 0e bd
       0.02436534 0.01742517 0.04359021 -0.034899518
000380 8e 15 ba 3c 9c 62 ea 3c 63 be 3d bb 47 b5 58 3d
       0.022715356 0.028611474 -0.002895259 0.052907255
000390 da 1e 10 3d 04 ef 70 bc 6b 75 3f bd 6d c3 63 bd
       0.035185672 -0.014705423 -0.046742838 -0.055606294
0003a0 cb 3e 75 3b 46 f9 16 3d 8c 17 55 3d 6e 14 bd 3c
       0.003742146 0.03685882 0.05202441 0.02308103
0003b0 d0 84 97 3c a7 cc fe 3b cb b5 0b bc 5d b4 74 3c
       0.018495947 0.0077758613 -0.00852723 0.01493558
0003c0 b7 4b c2 ba 0b 8c 25 3c 3f 09 e7 bc 9e 9e 1e bc
       -0.001482359 0.01010419 -0.028202651 -0.009681372
0003d0 11 36 fc 3c 5d 71 8f 3c f7 8d 8f 3c 01 52 10 bb
       0.0307875 0.01751011 0.017523749 -0.0022021534
0003e0 62 4f 18 bd 4b 80 19 3d 0b 36 86 3c 17 2e 9c bc
       -0.03718508 0.037475865 0.016383192 -0.019064946
0003f0 d2 c5 78 bc 24 fb 02 bc 6d 02 a4 3b 4b 84 02 3b
       -0.015183883 -0.007994447 0.005005172 0.0019915279

network_body._body_endoder.seq_layers.2.weight f4 [256, 256]
000000 07 c3 35 bd 71 81 f2 bc 07 94 ba bd 46 20 d1 bc
       -0.044375446 -0.029602738 -0.09110265 -0.025528084
000010 f9 af 99 3c 5e 8c 63 3d a3 69 6f 3d 67 da 7d bd
       0.018760668 0.055553786 0.058450352 -0.061975863
000020 cf 67 13 3e 23 5c 44 bc 8d e4 2c bd 61 2f 78 bd
       0.14395069 -0.011984858 -0.04221015 -0.06059206
000030 18 e8 3e 3c db 3c 7e 3d e1 7c 96 bc 7a 9f 02 be
       0.011652015 0.062069755 -0.018370094 -0.12756148
000040 f6 fa 3f 3c 4f 8c bc bd 21 e4 af bd 93 6b 27 bd
       0.011717549 -0.09206449 -0.08588434 -0.040874075
000050 b9 43 7f bb 79 ee be bd 04 80 99 3c 50 dd 80 3d
       -0.0038950278 -0.09322829 0.0187378 0.06292212
000060 d5 9c 4d 3d 21 9d 21 3d 1c 74 18 3c 0a ec b5 bc
       0.050198395 0.03945649 0.009305026 -0.022207279
000070 d4 5d 9a 3c 8c 98 3e 3c f9 84 9c bd 7b 7e d7 bd
       0.018843569 0.01163305 -0.0764255 -0.10522171
000080 3a f3 4e bc 00 bf 45 3d ea fd 20 bc 32 36 38 3d
       -0.012631232 0.048277855 -0.009826163 0.04497356
000090 64 1b 68 bc f9 1a 88 3b 6b 25 60 bc 20 0f 82 3d
       -0.014166687 0.004153606 -0.013680796 0.06350541
0000a0 46 73 94 3d 1b 55 b0 3c 88 49 2f bd bd aa c2 3d
       0.07248549 0.021524956 -0.042794734 0.09505222
0000b0 d5 10 a4 bb 26 49 f3 39 68 61 bc bd df 6c 93 bc
       -0.0050068893 0.00046403072 -0.09198266 -0.01799625
0000c0 e5 9c 83 3d 11 0c 25 3c bd 32 30 bd 12 33 a0 bc
       0.0642641 0.010073678 -0.043017138 -0.019555602
0000d0 ee 13 45 3c 1b 81 ea bb d3 c5 5d 3c 13 d3 9e bd
       0.012028677 -0.007156504 0.0135359345 -0.07755103
0000e0 45 7d 82 bd 65 6d 47 3d e2 44 3b bd c3 0e 91 bc
       -0.063715495 0.04868831 -0.04571999 -0.017707234
0000f0 99 5c 14 bd 25 aa ab bd fe 96 cf 3d 93 f7 53 bd
       -0.03622112 -0.08382062 0.10136221 -0.051749777
000100 0e 5a 16 bc 52 7e d9 bd fb 9c ab 3b 8f 37 9f ba
       -0.009176744 -0.10619797 0.0052372194 -0.0012147295
000110 31 f1 99 bd 63 67 7b 3d 1b 11 cb bd ba 78 c4 3d
       -0.07516707 0.061377894 -0.09915372 0.09593339
000120 4b e2 d7 39 83 7c 62 ba ab 45 33 3c d6 97 99 3d
       0.00041176597 -0.00086397695 0.010941903 0.074996635
000130 5a bc ba bd e5 e5 2d bd 6b c2 8b bd 15 24 d7 3d
       -0.091179565 -0.042455573 -0.06824192 0.10504929
000140 3c 1c 12 bd c0 09 48 bd 25 da f3 bc 1a 98 ab bd
       -0.035671458 -0.048837423 -0.029767105 -0.083786204
000150 1f 7d a9 bd cc 5c 2b 3d e5 52 39 be 1c c8 51 bd
       -0.08275818 0.041836545 -0.18098028 -0.05121623
000160 cd b1 a7 3d ae 09 46 3d b2 78 85 3d 36 fc aa bd
       0.0818821 0.048349075 0.065171614 -0.08348887
000170 b5 2e 32 3d a1 ad f8 bd 9a 4c 4a 3c 4f 4a 7d bc
       0.043501575 -0.12142492 0.012347365 -0.015459611
000180 54 02 d9 3c 9b 91 82 3d bd 34 b4 3c c8 61 ab 3c
       0.026490368 0.06375428 0.021997804 0.02092065
000190 a8 49 9f 3d 29 88 26 3d c9 cb 1b be da bf a2 bd
       0.07777721 0.040657196 -0.15214457 -0.07946749
0001a0 a0 26 cc 3d cf a5 42 bc e6 d7 dc bd 8a 75 e2 3b
       0.09968305 -0.011880352 -0.10783367 0.0069109844
0001b0 0c 7d 2b bd 84 61 5a bc 68 01 38 bd d0 de 15 bd
       -0.0418673 -0.013328914 -0.044923216 -0.036589444
0001c0 a0 43 86 bd ba b3 1b bc ea 10 b4 bc ab fe 82 3b
       -0.06555867 -0.009503299 -0.021980722 0.003997644
0001d0 11 84 1c bd 88 f1 2d bc 6b 05 ab bb 5d 69 e4 3b
       -0.038211886 -0.010616668 -0.0052191517 0.006970568
0001e0 2d 70 ab 3c 30 f0 94 3d f7 61 be bd a5 9f 47 3d
       0.020927513 0.07272375 -0.09296029 0.048736233
0001f0 91 9c 41 3d eb fe 9a 3c cc fc a6 ba 35 82 f2 bb
       0.047268454 0.018920382 -0.0012740134 -0.007400776
000200 76 a6 9e 3c 22 93 b7 3d 19 a5 c6 bd bd 51 a7 3d
       0.019366484 0.0896361 -0.09699459 0.08169887
000210 1d 42 bd bd 77 2f 85 3b af 68 2e bd 1a 3a a6 3d
       -0.09241126 0.004064496 -0.042580303 0.08116551
000220 2f 62 f8 bc fc 8c eb bc ad 38 9d bc 4a 4d e0 3c
       -0.030320255 -0.02875375 -0.019192064 0.027380604
000230 29 58 30 3d d0 68 ff bd d5 ca b0 3d 2c c2 47 bd
       0.043052826 -0.12471163 0.08632437 -0.04876916
000240 5f 13 39 3b 4b 22 cf bb 54 80 0b 3d 81 2d 81 3d
       0.0028240306 -0.0063212267 0.03405793 0.06307507
000250 90 85 13 3d 31 5b 55 3e b7 1d 06 bb 85 1c 23 bd
       0.036016047 0.20835568 -0.0020464489 -0.03982212
000260 9c 02 93 ba 28 44 17 bc 11 df 27 bd 9e df db bc
       -0.0011215988 -0.009232558 -0.040984217 -0.026840027
000270 db 7d 09 3e 95 e7 28 3d d6 e7 0a be 6e 33 51 bd
       0.13426916 0.04123648 -0.13565001 -0.051074438
000280 6a 7b b9 3c be f2 60 bd dd bb 17 be 71 3c dc 3c
       0.022641856 -0.054918997 -0.14817758 0.02688429
000290 49 12 8a bd 38 ea ba 3d ef 1d 5f 3d 83 65 d9 3d
       -0.06741769 0.09126705 0.054471906 0.10615065
0002a0 ef 6d 37 3c 2d c4 76 be 2a 49 99 3d dc 75 fd bc
       0.011195644 -0.24098273 0.07484658 -0.030939989
0002b0 27 92 51 3d d0 08 83 3d 67 b3 8a bd f4 1b ac bb
       0.051164772 0.06398165 -0.067724995 -0.0052523557
0002c0 fd 00 8b 3d 2f 37 4a 3d 61 c2 a8 bd 79 0b 5d bd
       0.06787298 0.049369033 -0.082402 -0.05396602
0002d0 52 46 06 be 71 0d 4f bd 97 34 9d bd 00 23 3d 3d
       -0.13112763 -0.050549928 -0.07676046 0.046175957
0002e0 b9 09 cb 3d f1 90 c6 3d b8 68 3f 3c 21 a1 99 3d
       0.09913964 0.09695614 0.011682682 0.07501436
0002f0 10 07 4a 3a 0e 8b bb 3d 2e ad e8 bc 5e 45 8c bd
       0.0007706741 0.09157382 -0.028402891 -0.06849168
000300 9c 2a a5 bd ba 21 5f 3c 7a b3 88 bd 32 ce b0 bc
       -0.08064768 0.013618881 -0.066748574 -0.021582697
000310 89 a0 4f bd e2 e3 7d bd 13 c5 1d 3d 5f 35 be bd
       -0.050690208 -0.061984904 0.038518023 -0.092875235
000320 f2 ac 9c bd d8 58 06 be 1a 20 65 3c 58 41 20 3d
       -0.07650174 -0.13119829 0.013984704 0.039124817
000330 8d f1 de 3d 5a ea 41 3d 0a 47 74 bc 30 cc b4 bc
       0.10885916 0.047342636 -0.014909515 -0.02207002
000340 1d da e8 bc 8c a8 e4 3d cb c9 1f ba 7c 20 02 bd
       -0.028424317 0.1116496 -0.0006095438 -0.03176926
000350 68 4b 0a 3e 63 69 04 3d 19 81 e5 bc 42 f5 c1 bc
       0.13505328 0.032327067 -0.02801566 -0.023676518
000360 4c dc 71 3d 3d 32 79 3d 2e 31 c7 bc 9f 09 a1 3d
       0.059047982 0.060838927 -0.024315443 0.07863163
000370 99 97 b9 3b 05 37 01 3d 37 b4 34 bd f1 6e 53 3c
       0.005663824 0.03154661 -0.04411718 0.012904868
000380 50 af ca 3c 3e 1d fe 3c be ef 63 3d 04 e8 90 bd
       0.024741799 0.031019803 0.055648558 -0.070755035
000390 e1 be b4 bc 3b d9 b6 3b 82 bb fc 3b d1 c5 b8 3d
       -0.022063674 0.005580095 0.0077127824 0.090221055
0003a0 3a 98 f9 3c d8 4d c1 3d ab d6 c0 bd 74 e0 50 3d
       0.030468095 0.09438676 -0.09415945 0.050995305
0003b0 bc 8d eb 3c 19 e8 06 3d 46 49 a9 3d cb f1 de bb
       0.028754108 0.03293619 0.08265929 -0.0068037263
0003c0 e9 62 a1 bc 40 0d 60 3d cf df ed bc fc 1b fd 3b
       -0.019700484 0.054700136 -0.029037384 0.0077242833
0003d0 65 64 fb bd fd 55 22 3d 9b 38 ab 3d 97 fe 01 3e
       -0.12275008 0.039632786 0.08360406 0.12694775
0003e0 a8 1a 86 bc 54 25 d4 3c 12 60 84 bd ca f8 31 bd
       -0.016370133 0.025896706 -0.064636365 -0.043450154
0003f0 0d a5 61 bc 9c f4 89 3d d3 41 52 3b b7 4d e7 3c
       -0.013772261 0.06736109 0.0032082691 0.0282353

network_body._body_endoder.seq_layers.2.bias f4 [256]
000000 25 51 18 bd ee cb a0 bb b2 1f 18 3d 4c 40 b4 bc
       -0.03718676 -0.004907123 0.037139602 -0.022003315
000010 f0 d2 d1 bb cb 10 1b bd 05 ed 2e bd 70 c3 99 3c
       -0.0064033195 -0.037857812 -0.04270651 0.01876995
000020 a4 9e a8 3b bb 83 25 3c 2f 6b 80 bd c9 cf a2 3c
       0.0051458646 0.010102208 -0.06270444 0.01987447
000030 3d 82 07 bd 71 60 33 3d 56 a8 25 3d 61 76 35 bd
       -0.03308319 0.043793146 0.04044374 -0.044302348
000040 92 a7 7e 3d f7 b0 2f 3c 0e 3d 49 bc a3 16 fa 3c
       0.062171526 0.010723344 -0.012282623 0.030528372
000050 09 68 39 bc 78 d7 8c 3c 92 9e 5d 3d 95 09 d0 3c
       -0.011316308 0.017192587 0.054106303 0.025395194
000060 51 9b b0 3b f9 2a 0b 3d 3e 93 14 3d 0a 32 6f 3d
       0.005389609 0.03397653 0.036273234 0.05839733
000070 d6 07 c8 bb 48 4e 1a 3d 3a 07 ed bc 94 e8 40 3c
       -0.0061044497 0.03767231 -0.02893411 0.011774201
000080 06 02 02 bc 27 ae 48 bd de 37 04 bd 53 e7 63 bc
       -0.007935053 -0.04899421 -0.03227984 -0.013910132
000090 ce 01 19 3d 4f 6a 94 bc 55 f7 14 bd 50 cc 27 bd
       0.037355237 -0.018117098 -0.036368687 -0.040966332
0000a0 ef 76 82 bc 2c 32 cd 3b ba 04 fd bc ea ab e1 3c
       -0.015925853 0.0062620845 -0.030886043 0.027547795
0000b0 e0 18 89 bc 0c b3 37 3c 97 cd 55 bd 5e 6a 91 3c
       -0.016735494 0.011212122 -0.05219802 0.017750915
0000c0 c1 65 32 3c 88 82 c4 bb 50 e5 8d bc 33 2f 96 3d
       0.010888518 -0.005997006 -0.017321259 0.07333221
0000d0 f1 36 04 3c 04 27 82 3c d0 4c 3c 3d a1 9e 6c bd
       0.00806974 0.015887745 0.04597169 -0.057768468
0000e0 4a be f2 bc 70 5d 24 bc f5 85 91 3c b1 cc 3b bc
       -0.029631753 -0.010032043 0.017764071 -0.011462376
0000f0 83 3a b5 bc 9c f5 bd bc 43 4e a2 3b 8d 19 12 bb
       -0.022122627 -0.023188405 0.004953177 -0.0022293061
000100 61 98 5a bb de d1 8a bb 70 b6 9a 3b 93 28 24 3d
       -0.0033354985 -0.004236444 0.0047214553 0.040077757
000110 c4 18 0e 3b 4a 79 f5 3b fc 48 0f bd 5e ef ec bc
       0.0021682242 0.0074912654 -0.034981713 -0.028922733
000120 7c 19 cd bb c3 c8 46 3d dd 8e 53 bb c0 e6 28 3d
       -0.0062591415 0.048531305 -0.0032281198 0.041235685
000130 23 30 2e 3d 32 de d2 3b 0b 4a c1 bc e9 a5 cf bb
       0.042526376 0.006435179 -0.023594877 -0.0063369167
000140 c5 d4 74 bc a4 61 44 bb 48 d0 21 3d 4e 61 6a 3d
       -0.014943306 -0.0029965425 0.039505273 0.057221703
000150 ad 6a cb bc 38 ec 28 3d 6a ac db 3c 2f 7a 33 bd
       -0.02483114 0.0412409 0.026815612 -0.043817695
000160 90 6b a9 3c 6f 81 0d bd 9f a9 ea 3a 28 da 86 3c
       0.020681173 -0.034547266 0.0017903334 0.016461447
000170 ac 92 98 bb bd 52 ef bb b7 65 29 3d 98 00 58 bd
       -0.0046561565 -0.0073035643 0.04135677 -0.05273494
000180 ae d0 5a 3d 30 75 30 bd 35 1a 88 3c 61 98 eb bc
       0.05342167 -0.04308051 0.016614059 -0.028759183
000190 fd bd 1c bd 3c 3c 29 bc ac d5 8e bd 41 cf 52 ba
       -0.038267124 -0.010329302 -0.069743484 -0.00080417475
0001a0 e0 60 be bc 4f 14 4d 3d 14 20 eb bc 24 37 ef bc
       -0.023239553 0.050068196 -0.02870182 -0.029201098
0001b0 de d3 70 3c 6d 32 89 bc 2e 88 0d bd 49 49 70 3c
       0.014698951 -0.016747678 -0.0345537 0.01466591
0001c0 05 08 55 3d 9a f2 30 bd d8 7e 78 3c 97 57 52 bc
       0.0520096 -0.043200113 0.015166961 -0.012838266
0001d0 01 99 03 bc 94 c3 a9 bc 43 fb d0 bc c3 d1 3b 3d
       -0.008032084 -0.020723142 -0.025510436 0.04585434
0001e0 20 34 9e 3b 8c 8f 88 3b 15 2c 87 3c b2 30 42 3d
       0.004827991 0.0041675027 0.016500512 0.04740972
0001f0 bc f6 12 3d 3f 5a 0a 3d 72 50 13 bc 5e d4 46 bd
       0.035879835 0.03377747 -0.008991348 -0.048542373
000200 ed 79 9f 3c 8f 53 01 3d b5 25 31 bd cc 93 2c 3d
       0.019467318 0.03157383 -0.04324885 0.042133138
000210 50 6e 8e 3d ee 7f 16 3d e2 70 b7 3c d1 60 1b 3d
       0.06954634 0.036743097 0.022392694 0.03793413
000220 c1 4e 58 3d 1a 47 39 3d 71 d5 5f 3d 04 bc 3e 3c
       0.05280948 0.045233823 0.054646913 0.011641506
000230 eb e3 f4 bc 86 e4 5e 3d 11 63 8f bc f1 1a 96 bc
       -0.029893836 0.054417156 -0.017503293 -0.018323394
000240 bf ea c2 3c a3 73 92 bc 44 0a 42 bd 6e eb 48 3c
       0.023793576 -0.017877406 -0.04737307 0.012263162
000250 7f 45 1a 3d 42 7f b6 3b 8c f2 74 3c a6 ec a0 bc
       0.037663933 0.0055693695 0.014950406 -0.019644093
000260 6f ca 8f 3c 29 12 28 bd 54 d4 06 3d 27 4e c0 bc
       0.017552583 -0.041032944 0.032917336 -0.023474766
000270 50 da 52 39 28 63 28 bc 78 d3 97 3b cb b2 3a 3d
       0.00020108488 -0.010277547 0.0046333633 0.045580667
000280 c3 16 1f bd 7a d6 7b 3b 49 c6 fb bc 5a 72 85 3c
       -0.038840067 0.0038427399 -0.030734198 0.016289879
000290 78 06 b6 3c fb 40 4c bd f7 17 33 3d da 16 18 bd
       0.022219881 -0.049866658 0.043724027 -0.037131168
0002a0 4f 87 01 3c 5c c7 eb 3c 7e 33 26 bb 91 9b 27 3d
       0.007905795 0.028781585 -0.0025360282 0.040919844
0002b0 af 6f 8c 3c fc 83 d3 bb 7c 27 10 3d 0c d8 31 3d
       0.017143099 -0.0064549427 0.035193905 0.04341893
0002c0 23 f9 c6 3c 3b 46 e6 bc d5 7d 68 bd f4 32 6a 3c
       0.02428872 -0.02810966 -0.056760628 0.014294375
0002d0 f8 89 26 3d df 66 64 3c 67 a7 3a 3c 41 7e 28 3d
       0.04065892 0.013940542 0.011392451 0.04113603
0002e0 c6 be d5 3c 0c f5 65 3c ad de 76 bc 77 f4 0f bd
       0.026091944 0.0140354745 -0.0150677385 -0.03514525
0002f0 dd 39 31 bd 0a 11 4a 3d ea e1 19 bd 47 ac 31 bd
       -0.043268073 0.049332656 -0.037568964 -0.043377187
000300 ff 00 8b bc 44 e1 d2 b9 19 70 e9 bc 4c 7c d1 bc
       -0.016968248 -0.00040222157 -0.028495835 -0.025571965
000310 69 fe 9d bc d5 66 07 3d 7a 87 23 bd 89 0d 14 3d
       -0.019286351 0.033057053 -0.039924122 0.03614572
000320 10 70 59 bd 6c dd bb 3c 1e 88 7c 3c b6 42 3d bd
       -0.053085387 0.02293273 0.015413312 -0.0462062
000330 95 13 e9 3c 99 bd 09 3d a1 32 ac 3c c7 2c 82 3b
       0.02845172 0.03362808 0.021020235 0.003972623
000340 d7 a1 a4 3c 11 45 08 bd 09 32 7f 3c 9b 78 ff bb
       0.020096703 -0.03326899 0.015575894 -0.0077963597
000350 55 7f 05 3c 46 68 c4 3c 50 ae 94 bd 6c ab 79 bd
       0.008148034 0.023975503 -0.0725981 -0.060954496
000360 2b a1 28 bc b7 b4 b6 bc ed d7 30 3d 95 43 28 bc
       -0.010292332 -0.022302968 0.043174673 -0.010270019
000370 67 f8 0d bd 7d 67 87 3c e0 5a 67 3c 27 56 a1 3c
       -0.034660723 0.01652884 0.014120787 0.019694401
000380 d4 6f 16 bc fc d0 98 3b fb 78 f9 3b 30 8b 9b 3c
       -0.009181935 0.0046635848 0.007613299 0.018987268
000390 91 23 a3 bc 3a 26 2c bd 3c de d1 bc f4 e0 b8 bc
       -0.01991442 -0.042028643 -0.025618665 -0.022568204
0003a0 b1 18 89 3d 60 9b 5f 3c 71 9e cb bc 6e f7 81 bb
       0.06694163 0.013647884 -0.024855824 -0.0039662635
0003b0 f9 31 6d 3d 92 26 65 bd 4b a8 06 bc d7 f8 25 bc
       0.057908986 -0.055944987 -0.008218835 -0.010130129
0003c0 43 e0 f8 bc ae f3 18 bd d6 66 50 3b f9 9e 06 bc
       -0.030380374 -0.037341766 0.0031799576 -0.008216613
0003d0 2a a0 94 3c cf a0 f4 bc f8 31 e1 3a 11 4c c7 3c
       0.018142778 -0.029861836 0.001718103 0.024328263
0003e0 8e 18 48 3d 1a 7d ec bb 94 a3 ef 3c 5b cf 1a 3d
       0.048851542 -0.0072170617 0.029252805 0.037795406
0003f0 0a a7 ea 3c e1 59 30 3d f3 29 eb bc 68 69 7a bc
       0.028644104 0.043054465 -0.028706526 -0.01528392

network_body._body_endoder.seq_layers.4.weight f4 [256, 256]
000000 a9 be 40 3c 65 aa e7 bd 4e ca d1 3c 67 90 de 3c
       0.011764207 -0.11311797 0.025609162 0.027168466
000010 12 bc 1b bd a1 b4 0e 3e 5e 77 6c 3c b0 e3 ef bd
       -0.038021155 0.13936092 0.014432756 -0.1171335
000020 cf 7f 22 3d df f1 d8 3b ec 99 a2 3c 6d ce 2c bd
       0.03967267 0.00662063 0.019848786 -0.04218905
000030 ef bd 09 3c d7 a4 a7 3d b9 74 e5 bd d6 ba 80 3d
       0.0084071 0.081857376 -0.11203904 0.06285636
000040 19 c2 23 3d a7 c8 da bb 85 24 ff bd 30 66 95 bc
       0.039980028 -0.0066767517 -0.124581374 -0.018237203
000050 cb 24 f5 ba f8 34 53 bc 64 ea ba 3d 60 7c 26 3d
       -0.0018702982 -0.012891047 0.09126738 0.040645957
000060 f7 f9 c5 bd ca 47 c6 bc fb 07 81 3c fd 03 60 3d
       -0.09666818 -0.024204154 0.015750876 0.054691304
000070 e5 22 9a bc ac 9b bf 3c ba 22 fe 3c 94 5d 05 be
       -0.018815467 0.02338966 0.031022418 -0.13023978
000080 41 21 28 bc 5b c5 0c 3d 23 d2 8b 3d 8f c1 76 3d
       -0.010261835 0.0343679 0.0682719 0.060243186
000090 93 53 cd bc 63 28 98 3d 34 c5 28 3d f5 25 2a 3d
       -0.025064265 0.07429578 0.041203693 0.041540105
0000a0 aa c2 18 bd b2 0e c8 3c c4 a4 02 bb e4 b1 49 bd
       -0.03729502 0.02442107 -0.0019934634 -0.049241915
0000b0 fc 81 dd bd 1d 17 d2 bc 08 cb 38 3b 7c 47 c2 3c
       -0.10815808 -0.025645787 0.0028197188 0.023715727
0000c0 1e d0 4b bd 82 2f 0d 3d 57 7f 67 bd aa 99 ba bd
       -0.049759023 0.034469135 -0.056517925 -0.0911134
0000d0 95 6b e5 3c be 5a 80 3d 34 b7 5c 3d 05 eb d7 3d
       0.0280054 0.06267308 0.053885654 0.10542873
0000e0 1f 9b 95 bd 6d 29 b9 3d 39 d8 eb 3a 64 dc 40 3d
       -0.073049776 0.090411045 0.0017993517 0.04708518
0000f0 b8 18 88 bd 65 10 7f bd 56 3f 98 bd d7 55 e1 3c
       -0.0664534 -0.062271494 -0.07433955 0.027506752
000100 22 ec 9f bd 3d 2d d5 bc 04 2c 7f 3d b0 79 ca bd
       -0.07808711 -0.026022548 0.062297836 -0.09886491
000110 a2 9b 60 3d b9 70 cf bc 78 07 93 bd 01 ee 01 3e
       0.054835923 -0.025322305 -0.07179159 0.12688448
000120 d8 da a8 3c cc 74 98 bc ba 9e b3 3d e3 6e f6 3c
       0.020612165 -0.01861038 0.08770509 0.030082172
000130 de fd a1 bd c3 fd fd 3b f7 b8 a3 3c 5f 17 25 3d
       -0.079097494 0.007751198 0.019985659 0.04030549
000140 1e 29 35 3e 48 e4 1b 3c 2c 88 11 3e 4e 8b 9e bd
       0.17691466 0.009514876 0.14212102 -0.07741414
000150 8b bd cc 3c f7 12 d2 bc 06 26 33 3d e5 53 a2 bd
       0.024992725 -0.025643809 0.043737434 -0.07926158
000160 57 b5 ab bc bb 5a 1c b9 3b 10 86 bd 3c a7 78 bd
       -0.020960493 -0.00014911119 -0.065460645 -0.060706362
000170 e3 7c fd 3c a9 fc 9f bc 6b 63 f5 bd f5 7b 9e 3c
       0.03094334 -0.019529657 -0.11981853 0.019346217
000180 11 bd c4 bc 09 d3 2b 3d 24 86 07 be 1e 67 39 3d
       -0.024015935 0.041949306 -0.13234764 0.045264356
000190 3a 23 4f bd 74 15 9b 3d 4c ae a7 bd 72 f3 5b bc
       -0.050570704 0.07572451 -0.08187541 -0.013424741
0001a0 f6 38 22 bc 90 03 8f 3c 83 8b 72 bd 1d ee 85 3a
       -0.009901276 0.017457753 -0.05921508 0.0010218058
0001b0 9a 0f 31 3d cb b7 a0 3c 4d 7a bb 3c 03 b5 91 3c
       0.04322777 0.01961889 0.022885466 0.017786508
0001c0 54 5f 89 bd da 7b c8 bc 0e 3e ac 3d 95 22 80 3d
       -0.067076355 -0.02447312 0.084102735 0.06256596
0001d0 05 05 80 3d 23 f5 31 bd 94 c0 f7 bc 39 72 19 bd
       0.062509574 -0.04344667 -0.030243196 -0.037462447
0001e0 b4 69 b2 39 d2 83 03 be 92 f1 17 bc a6 ac e5 3d
       0.0003402956 -0.12843254 -0.009273903 0.11214571
0001f0 fa 6d 19 3e fc 1e 36 bd cf fe 6e 3d 27 2b 55 bd
       0.14983359 -0.044463143 0.058348473 -0.052043106
000200 90 ed 67 3d a0 21 8f 3c 24 ab 3e bd 26 3e 49 3d
       0.05662304 0.017472088 -0.04654993 0.049131535
000210 70 d9 1d be b9 db e4 3d 38 33 43 3c 92 3d 6d bd
       -0.15414977 0.11174721 0.011914067 -0.057920046
000220 5e 07 6a bd 20 b5 11 bd 33 a2 97 3c fc 47 b2 bc
       -0.057135932 -0.035573125 0.01850996 -0.02176284
000230 fb a9 84 bd 3d 1f e7 3c 01 8e da bc db 2c 28 bd
       -0.06477734 0.028213138 -0.02667904 -0.041058403
000240 de 9b 05 3e 04 d8 7d bd 83 e1 b4 3c 2d 49 94 3d
       0.1304774 -0.061973587 0.022080189 0.0724052
000250 2a e2 26 3e 56 e8 08 bb e1 61 f6 3c 48 c3 9f bd
       0.16297212 -0.0020890436 0.03007597 -0.07800919
000260 3e 45 24 3e d3 d7 20 bd 3c 4f d7 3c a2 5b 1c 3c
       0.16042039 -0.039268326 0.0262829 0.009543331
000270 09 b3 9d 3c de 56 4e bd f1 09 3d 3d a6 e6 16 bd
       0.01925041 -0.05037581 0.04615206 -0.036841057
000280 01 6d a0 bc f8 30 90 bd 05 c6 36 bc db 99 d7 3c
       -0.019583227 -0.0704059 -0.01115561 0.026318481
000290 39 95 e5 3d 58 6d 86 3d 53 44 e7 ba 0e 77 4e bd
       0.112101026 0.065638244 -0.0017644264 -0.05040651
0002a0 83 08 f2 bc 62 eb 43 3d f5 c1 8c bd b6 d1 34 3d
       -0.029545074 0.0478319 -0.06872932 0.04414531
0002b0 08 be 0b bd 2a 2e 12 bc 0d b8 6b 3d 64 bb 69 3b
       -0.034116775 -0.008922139 0.05754857 0.0035664672
0002c0 c0 99 6b bd d1 e7 d8 3d ec 2d 43 3d 0c 9d 47 3d
       -0.057519674 0.105910905 0.047651216 0.048733756
0002d0 d8 28 07 bd f9 a3 28 bd 0b d2 59 bd 1b 70 83 3c
       -0.032997936 -0.041172 -0.05317883 0.016044667
0002e0 04 57 e0 3b fc c0 a6 3d 29 2a d8 bd 1f 90 71 bd
       0.0068463106 0.081422776 -0.105549164 -0.058975335
0002f0 5a 34 ac bc 45 aa 56 3d b2 6f e9 bd 68 53 52 bb
       -0.021021057 0.052408475 -0.11398257 -0.003209317
000300 a7 52 2a 3d 9c dc ef 3b 33 ea 9d bd 88 b8 b0 3d
       0.04158273 0.00732 -0.077106856 0.086289465
000310 30 04 33 bd b4 d0 4b bd 33 97 07 3e 2a e6 26 3c
       -0.043705165 -0.04975958 0.13241272 0.010186711
000320 53 aa f0 39 30 60 07 3e ca b7 5f bd 53 91 7a bd
       0.0004590327 0.13220286 -0.054618634 -0.06117375
000330 bc 34 02 3d 8b b0 c2 bc 56 29 f8 bd 5a fd 00 3d
       0.031788573 -0.023765823 -0.12117259 0.031491615
000340 ec 41 b6 bd 7f 0a 39 3c 87 70 4e 3d 1f 30 67 bb
       -0.08899292 0.011294006 0.050400283 -0.0035276485
000350 d3 dd 8d bd d8 58 cf bd 27 8e 1d 3d e8 c7 8f bd
       -0.06927075 -0.101243675 0.038465645 -0.07020551
000360 32 2c b1 3d 65 e0 70 bd 86 77 b9 bd f2 39 59 3d
       0.08651008 -0.05880775 -0.090560004 0.053033777
000370 96 30 d4 bd a4 9a 76 3d 97 52 d3 bc 51 20 63 3d
       -0.103608295 0.06020607 -0.025796218 0.05545074
000380 db 24 05 be ad 63 8d 3d 64 a4 06 3e 26 b7 bf 3c
       -0.1300234 0.06903777 0.13148648 0.023402762
000390 36 d7 3a bc 2f 17 bf 3d 02 21 92 bd b8 97 86 3d
       -0.011403849 0.09330594 -0.07135202 0.06571907
0003a0 ba 9e 98 bd a6 90 d8 3c 45 75 93 3d 84 fd 6b 3d
       -0.0745215 0.026436161 0.07200102 0.05761482
0003b0 1b 2a f1 bc 09 22 1c 3d 52 05 db 3c 23 87 07 3d
       -0.029439023 0.038118396 0.026735935 0.03308786
0003c0 e4 6f a4 3d 93 26 54 bd 67 e1 1b bc 1e 1f 0d 3e
       0.08029154 -0.0517946 -0.009514189 0.13781402
0003d0 cb b4 a0 bd 24 87 04 3d 50 1b e9 3d 83 dd 82 bd
       -0.078469835 0.032355443 0.113821626 -0.06389906
0003e0 d5 60 e3 bd a4 39 7e 3c 89 a3 9f 3b 8f a1 b0 bb
       -0.111024536 0.015516672 0.00487179 -0.005390353
0003f0 db f7 45 bd 52 72 6e 3d 8a ed 42 bc d4 0e 9a bd
       -0.048332077 0.058214493 -0.011897454 -0.075223595

network_body._body_endoder.seq_layers.4.bias f4 [256]
000000 95 8c b2 bc 9a a0 0f bd a4 94 78 3d d4 a8 d2 bc
       -0.02179555 -0.03506527 0.06068863 -0.02571527
000010 ab e5 5f 3c d5 77 80 3c 4e d2 4a 3b 91 8b f7 bb
       0.013665597 0.01568214 0.0030948105 -0.0075544794
000020 fb 88 5a bc 54 27 40 bd 08 f8 1d bd b5 ec 21 bc
       -0.013338323 -0.046912506 -0.03856662 -0.0098830955
000030 de 86 31 bd 8c dc 24 bd 57 76 d6 bc 76 e4 cd bc
       -0.04334151 -0.040249392 -0.026179476 -0.025133353
000040 e3 70 bb bc 5e 27 e2 bb 4f d2 e1 bb 29 2a a0 b9
       -0.022880977 -0.0069016656 -0.006891526 -0.0003054899
000050 49 2e 4c bd 56 6c 1d 3d 58 2c ff 3c f1 bd 53 3d
       -0.04984883 0.038433395 0.031149074 0.051694814
000060 48 c8 a8 3c 05 3f 63 bc 39 ab 9f bc 34 e0 66 bc
       0.020603314 -0.0138700055 -0.019490825 -0.01409154
000070 35 12 43 bc 1a e3 14 3d 51 d5 4c bd b0 44 9e bc
       -0.011906196 0.036349393 -0.050008122 -0.019319862
000080 1f 96 3c bc d2 c9 57 bc d0 47 08 bd a1 82 2b bd
       -0.011510401 -0.013170676 -0.03327161 -0.041872624
000090 a6 1e fe bc 03 04 76 bd ab 3d 7a bc b7 6d c9 3c
       -0.031020474 -0.06006242 -0.015273492 0.024588449
0000a0 92 13 20 bd 94 1a 3c 3d 4b 54 06 3d 68 6c 49 3d
       -0.039081164 0.045923784 0.03279523 0.04917565
0000b0 6c f5 29 bd ee d7 0b 3d 44 04 f5 3c c1 5f 00 bd
       -0.04149382 0.034141473 0.02990926 -0.031341318
0000c0 3b 01 c0 bc 3c 33 93 bc d4 91 53 3b 50 e0 18 bd
       -0.023438087 -0.017968766 0.0032282965 -0.037323296
0000d0 29 65 22 bd fd 36 64 3d c8 df ed bc 67 0c 62 3c
       -0.039647255 0.055716503 -0.029037371 0.013796902
0000e0 1f 43 22 3d 75 7b 51 3b 07 79 0d 3c d7 cb 2f ba
       0.039614793 0.0031964455 0.008634812 -0.0006706095
0000f0 1c a7 0d 3d 4e de 08 3a cd a9 dd 3c f9 17 34 3c
       0.034583196 0.0005221114 0.027058506 0.010992044
000100 42 cc 53 3d 8d 8e 28 bd 86 cb 2f bd fc 58 8e 3c
       0.051708467 -0.041151572 -0.042918704 0.017376415
000110 77 a3 b2 bc 94 9d 52 bc 45 d8 f6 3c 36 73 d7 3c
       -0.021806462 -0.012854952 0.030132422 0.026300054
000120 4e b4 ce bc d3 6f 06 bd 87 0a 3a 3a da 78 4d 3a
       -0.02523246 -0.032821488 0.00070969056 0.00078381377
000130 73 42 1c bd 92 a3 37 bd 9d fb cd bc d7 c1 6e 3c
       -0.03814931 -0.044833727 -0.025144393 0.014572582
000140 d3 f1 07 bc ba 59 28 bc ea b1 00 bd 30 ec 23 3d
       -0.0082974015 -0.010275299 -0.031419672 0.040020168
000150 de 07 56 bc 4b f2 ac ba 07 95 7c 3a f7 42 30 bd
       -0.013063399 -0.0013194768 0.0009635244 -0.043032613
000160 5a ea 2c bc 9e 82 dc 3a 3d 58 ef bc 75 0b 45 3c
       -0.010553921 0.0016823595 -0.02921688 0.012026657
000170 c6 23 e7 bc 48 40 c8 3a 0d 40 02 bd e0 2a be 3c
       -0.0282153 0.0015277946 -0.031799365 0.023213804
000180 b7 be 3e 3c 74 43 7e 3b 5d 92 2f 3c 7b 5e 8a 3b
       0.01164215 0.003879753 0.010716048 0.0042226887
000190 bd 33 6e bc f7 f7 d5 38 e5 d1 2f bc 13 ff 00 3d
       -0.014538703 0.000102028185 -0.010731195 0.031493258
0001a0 1b fe 9a bc 2e 72 48 3d 0c 49 a0 bc 41 06 3f 3d
       -0.018919995 0.048937015 -0.019566081 0.046636824
0001b0 01 6c af bc cd 8c 80 bc 53 e9 18 bd 23 75 90 3a
       -0.021413805 -0.015692139 -0.03733189 0.0011021238
0001c0 9d 62 49 3c 3f ca 49 3c 40 fa c2 b9 ce 66 d2 bc
       0.012291578 0.012316286 -0.00037189014 -0.025683787
0001d0 f0 1e 36 3d 40 8c 3a bd 54 f2 36 bd 99 02 cc bc
       0.044463098 -0.04554391 -0.044664696 -0.024903582
0001e0 ef de 60 3b 63 d3 a6 bc db 90 9a 3c 34 d7 3c 3d
       0.0034312566 -0.020364469 0.0188679 0.04610367
0001f0 fb 54 f2 3a aa 31 02 3c dd c0 4e 3c 60 30 4f bd
       0.0018488461 0.007946411 0.012619224 -0.050583243
000200 2e a3 2d 3c 9c 5f 1e bd 6c f3 2b bc 62 72 0c 3b
       0.010597987 -0.0386654 -0.010495048 0.0021430482
000210 88 92 d8 ba a7 06 1b 3d b8 87 13 3c ea 22 98 3d
       -0.0016523162 0.03784814 0.009004526 0.07428534
000220 5d 23 8b 3c 5e 9c 4e bd ab 16 1c 3d 03 5c 70 bd
       0.016984636 -0.050442092 0.038107555 -0.0586815
000230 31 eb d1 ba 1e 42 f4 39 ee 9d 44 bd ce 74 34 bc
       -0.0016015527 0.00046588568 -0.048002176 -0.0110141765
000240 20 88 d7 bb ca 6e 85 3b 04 c4 0c bd 72 ca 08 3c
       -0.0065775067 0.004072045 -0.034366623 0.008349048
000250 74 ba 9f 3c dc 64 0c bd 0e f9 2b bd 88 21 98 3c
       0.019498087 -0.034275874 -0.041985564 0.018570676
000260 ca 8f fd 3b 2a 78 68 3d 62 77 c1 bb e8 d5 73 3c
       0.0077380883 0.056755222 -0.005904124 0.014882542
000270 7c 4e 99 bb 7e cb 41 3c d5 bc 8a 3d 39 27 aa bb
       -0.0046785455 0.0118283015 0.06774298 -0.005192664
000280 30 d0 1f bd 0d f1 85 3d 28 6e 16 bd 75 c4 dc 3b
       -0.039016902 0.065401174 -0.036726147 0.0067372867
000290 d5 24 0a 3d 25 d8 4f bd e8 fb dc bc db 6d 32 bc
       0.033726532 -0.05074324 -0.026975587 -0.010890449
0002a0 07 00 3d bd 8f ff 6e 3c 06 a5 1f bd ca ac 77 bd
       -0.046142604 0.014587297 -0.038975738 -0.06046752
0002b0 31 4d 41 bc 11 97 56 3d ad 21 1e 3d c2 2a ee b9
       -0.011798189 0.052390162 0.038606334 -0.00045426755
0002c0 2a f4 63 bd c3 f1 dc bc 3d 56 86 bc 2a 53 b7 bc
       -0.055652775 -0.02697075 -0.016398543 -0.022378523
0002d0 4f 9f f7 bc 97 89 f9 bc e1 e1 0c bc 9b 35 02 bd
       -0.030227331 -0.030461116 -0.008598776 -0.031789403
0002e0 be 34 3d 3c aa eb 98 3a 15 eb 2d 3c 34 18 10 3c
       0.011548219 0.0011666913 0.01061513 0.008794833
0002f0 64 f5 c9 bc 07 ad d1 3c 2a 6f 2b 3d 1b 95 36 3d
       -0.024653144 0.025595201 0.04185406 0.04457579
000300 cb 07 13 3c f3 79 d8 3c e2 d3 bf bc 30 e2 ae bb
       0.008974026 0.026425337 -0.023416463 -0.0053370222
000310 fa 38 cd 3c 77 b9 06 bb 0a a7 87 bb e2 5c 3b bc
       0.025051583 -0.0020557323 -0.0041397857 -0.011435719
000320 2d 04 de bc dc ac 0e bc 08 a3 ee 3c 8f ee 30 bc
       -0.0271016 -0.008708205 0.029130474 -0.010799064
000330 8e 48 04 3b 19 2a cc bc 5f b2 b0 b9 7e 44 dc 3b
       0.0020184848 -0.024922417 -0.00033702233 0.006722032
000340 25 f3 cb 3c cf 6b 03 3d 96 18 14 bc 7c 99 f3 bc
       0.024896214 0.032085236 -0.009039065 -0.029736273
000350 d8 19 e9 3c 28 ea 7f bc ab d9 71 3c f9 97 14 bd
       0.028454706 -0.015619792 0.014761369 -0.036277745
000360 77 25 40 3d f8 65 03 bd d2 f9 53 bd c2 2d c1 bc
       0.04691073 -0.032079667 -0.05175192 -0.02358139
000370 48 1f 71 bd f4 2b 8e 3c 1a 0a 1e bd 1e d8 f0 3c
       -0.058867723 0.017354943 -0.038583852 0.029399928
000380 ad 4b 68 ba b9 0b 31 3c 81 54 ea 3c 24 cd 1f 3c
       -0.0008861374 0.010806018 0.028604748 0.009753499
000390 25 8f 12 bb 80 8f 1c bd 4f 1f 7d bc 0a 66 2e 3d
       -0.0022363153 -0.03822279 -0.015449359 0.04257778
0003a0 64 6b dc 3b 52 b1 e7 ba a3 02 1d bb 3e 49 32 ba
       0.006726669 -0.0017676747 -0.002395787 -0.0006801075
0003b0 9b 72 8e bc 0b fa 66 bd 3c 07 17 3d ca 9b 5f 3d
       -0.017388633 -0.056390803 0.036872134 0.05459193
0003c0 41 93 ca bc 13 51 e6 bc f9 ba 8a bc e9 38 24 3d
       -0.02472842 -0.028114831 -0.016934859 0.040093336
0003d0 d3 c9 ea bc e6 51 66 3d 66 74 82 bc eb aa 87 3c
       -0.02866069 0.05623045 -0.015924644 0.016560992
0003e0 24 36 92 bc 30 f6 3a bd 73 f7 e4 b9 47 d6 49 bd
       -0.017848082 -0.04564494 -0.00043671913 -0.049276616
0003f0 64 c3 fe 3c 0e 13 29 3d d6 2d c5 bc 04 ef 01 bb
       0.031099029 0.041277938 -0.024069708 -0.0019826302

action_model._continuous_distribution.log_sigma f4 [1, 2]
000000 93 88 fa bd 0c 3c 3b bd
       -0.12233081 -0.045711562

action_model._continuous_distribution.mu.weight f4 [2, 256]
000000 5e 04 18 ba d1 1a a0 3c 1e c9 7b 3b 4a 6a 9d 3c
       -0.00057989906 0.019544037 0.0038419436 0.019215722
000010 20 a9 0c 3d 7d af 73 bc 6d bc ba 3b ed a5 4f 3c
       0.034340978 -0.014873383 0.0056987316 0.012673837
000020 97 ff 95 bc 11 1f 89 bc 98 19 6e bc 5d dc 50 bd
       -0.018310351 -0.016738446 -0.014532469 -0.050991405
000030 ef c5 ae 3b e7 80 b1 3c 51 5b 86 ba b4 78 65 bc
       0.005333654 0.02166791 -0.0010250603 -0.014005829
000040 de 18 a7 3c 73 39 27 3c 5d e4 02 bc 73 de f8 3a
       0.0203976 0.010206568 -0.007989016 0.0018987193
000050 13 e9 ee 3b 43 ba c8 bc 65 44 56 bb e7 c8 d5 3b
       0.007290968 -0.024502879 -0.0032694575 0.0065241936
000060 70 f1 9a bb 3a 65 ce ba 99 f9 96 3c 1e a6 a2 3c
       -0.0047284886 -0.0015746721 0.018429564 0.019854601
000070 cb a3 1d 3d cc a3 0c 3d de 60 90 3c 6c b9 79 3c
       0.038486283 0.034335896 0.017624315 0.015241962
000080 c7 d8 56 3c 44 d4 f4 ba a0 7f 4f 3b 9a 79 d3 3c
       0.013113207 -0.0018678983 0.0031661764 0.02581482
000090 1f ca 1c bc f4 e8 ce b8 28 1e a9 bb c0 05 83 bb
       -0.009569674 -9.866236e-05 -0.0051610656 -0.003998488
0000a0 fe a3 a7 3c 04 59 84 bc e2 6b bd bb 0f 8a 34 3b
       0.02046394 -0.016155727 -0.005780683 0.002754811
0000b0 67 7f 4a bc 49 72 0c 3c d2 dc bd bc b3 bd 61 b9
       -0.012359477 0.00857217 -0.023176584 -0.0002152834
0000c0 88 ad 16 bb 30 30 5a 3c 89 f3 dd 3b 35 16 bf 3b
       -0.0022991616 0.013317153 0.0067734164 0.0058315047
0000d0 98 02 72 3c 23 a1 7a 3b 88 b8 3f bc fd 87 c1 bc
       0.014771126 0.0038243018 -0.0117017105 -0.023624415
0000e0 f8 3d 88 3b d7 bf 0c 3d db 76 12 3a f3 eb fb bc
       0.004157778 0.03436264 0.0005587169 -0.030752158
0000f0 c9 58 83 bb 9d d8 2b 3d af 02 be 3b 36 32 d2 ba
       -0.0040083867 0.041954625 0.0057986598 -0.0016036693
000100 6b 2c 18 3c bb 72 1f 3c 83 63 70 bb 59 7e ca 3c
       0.009287934 0.009731944 -0.0036680407 0.02471845
000110 b4 fa 3b ba 6d 50 5c bd 57 d9 53 3c 49 d0 21 3c
       -0.00071708416 -0.053787638 0.012930236 0.009876319
000120 cc 5c 8d bc c7 4f 84 3c 2a 61 92 3b 14 44 cf 3c
       -0.017256163 0.016151322 0.0044671493 0.025301017
000130 90 36 0f bc 3b 3e 38 3b d7 d1 22 bc a0 01 6d 3b
       -0.008741036 0.0028113264 -0.009937725 0.0036164299
000140 d1 b4 13 bd 40 de bc bc 5a dc bb 3b 2f a4 e3 bb
       -0.03606111 -0.023055196 0.005733055 -0.0069470624
000150 f4 11 0f bc d6 79 ba 3c d4 d7 a7 3c 6e a0 36 3c
       -0.008732308 0.022763174 0.020488657 0.011146648
000160 6b 60 e3 bb 7f 75 58 bb 83 f1 5e 3c 9d 28 a3 bb
       -0.006938984 -0.0033029018 0.013607386 -0.0049792067
000170 02 5a 29 3d 32 0a 06 39 8c ef d4 3c 8a 6c fa 3c
       0.041345604 0.00012783034 0.025993131 0.030569334
000180 a9 f8 f8 bb dc a4 a3 bb 8a 94 d0 b9 db 6d e7 bc
       -0.007598002 -0.004994018 -0.00039783522 -0.028250625
000190 90 01 0f 3c 81 7f 0b 3c ab 89 fc bc e3 e7 0d bd
       0.0087284 0.008514286 -0.030827364 -0.034644973
0001a0 6e 56 f3 3c 3f ec 8e bb 3a 53 05 bd 49 af ad 3a
       0.029704299 -0.004361659 -0.032550074 0.0013251092
0001b0 89 92 a1 bc ee b0 54 bd 60 5d be 3c 32 a8 11 bc
       -0.019723194 -0.051926546 0.023237884 -0.008890199
0001c0 6c 1d 33 bd 32 8b f1 3c 77 03 15 3d 4a db 84 bb
       -0.04372923 0.029485319 0.036380257 -0.0040544616
0001d0 b6 54 06 bb 0c a5 82 ba ed 4b 94 3b 8b 21 1b bb
       -0.002049727 -0.0009967401 0.0045256526 -0.0023671116
0001e0 2d e6 18 3c c5 85 81 ba 17 e5 2f 3b bb 6d 47 3b
       0.009332222 -0.0009881785 0.002683943 0.0030430395
0001f0 09 c0 5a 3c 96 68 86 3b 99 92 a1 bb 4a c3 52 3b
       0.013351449 0.004101823 -0.004930806 0.0032159858
000200 75 85 1a bd cf 0c 0d 3d 01 b7 08 3c 24 0c 93 3d
       -0.03772493 0.034436043 0.008344413 0.0718005
000210 ef 8c 2b ba 46 a3 3b 3c a2 cd a3 3b 8c ce 64 b9
       -0.0006544133 0.011452502 0.0049988786 -0.00021820719
000220 b2 f7 a4 3c 02 95 a7 3b 3e ae b3 bc 9f da 4c 3c
       0.020137642 0.0051141987 -0.021933671 0.012503295
000230 c1 e1 22 3d b7 e4 07 bc 23 74 83 bb 54 14 c6 bc
       0.039766077 -0.008294276 -0.0040116473 -0.024179615
000240 06 d8 55 3a a7 ad 00 3d 7a 6f 2d bc 5b 5d 4f bc
       0.0008157495 0.031415608 -0.01058566 -0.012656535
000250 24 0e 37 3c 08 ce b8 bb 1b 33 bf bc b2 04 3a 3c
       0.011172805 -0.005639795 -0.023339799 0.0113536585
000260 69 37 28 3c 8d d0 53 3b cc 32 98 bb 93 db 0a bd
       0.010267117 0.003232035 -0.0046447273 -0.03390081
000270 d8 b3 3a 3d b4 11 fc bc 6a a8 19 ba 9f 91 41 3d
       0.04558167 -0.03077016 -0.00058615825 0.047258016
000280 f9 63 12 bb 1f 25 82 3b 4e 4b 5c 3c 37 c7 23 bd
       -0.002233742 0.0039717103 0.013445688 -0.039984908
000290 ba 94 96 3a dc 47 2d 3c 29 31 68 3c 8d c6 db 3b
       0.0011488416 0.010576215 0.014171877 0.0067070187
0002a0 b8 f5 8d bc dc 09 c5 3b 96 04 94 3c bd 5c 2b 3a
       -0.017329082 0.006013138 0.018068593 0.00065369514
0002b0 e0 06 23 3d 93 a8 13 3c 1b 3e b1 bc 0b 86 b5 bc
       0.03980148 0.009012359 -0.02163606 -0.022158643
0002c0 20 32 e3 3b ae fb db 3c 58 a4 c8 3c 23 01 10 bc
       0.0069334656 0.026853409 0.024492428 -0.0087893335
0002d0 be 7b 08 ba c4 56 bf 3a d6 06 78 3c c1 e4 42 3b
       -0.00052064273 0.0014598002 0.015138349 0.0029738399
0002e0 bd fc 85 3c 64 69 9d 3a 3e 73 86 3c ba b0 8e bb
       0.016355867 0.0012009558 0.016412374 -0.0043545635
0002f0 83 a2 79 bb 23 12 16 bd a6 c9 90 3b 93 2a c4 3b
       -0.003809125 -0.03663839 0.0044185696 0.0059865206
000300 91 26 76 3c ba 12 a2 3c 1c 8c f9 bb ff 0c ed bc
       0.015023843 0.01978432 -0.0076155793 -0.028936861
000310 b3 59 02 3c 12 78 63 bb 41 97 7a 3a 67 af c7 bb
       0.007955956 -0.0034709019 0.0009559282 -0.0060939076
000320 b9 16 ee bb 81 d2 1d 3c ff 66 60 3b 44 fe d9 3c
       -0.0072658923 0.009632708 0.0034241078 0.026610501
000330 9e b5 2a bd ce 54 13 bb e2 10 ce bc a4 4d 67 3c
       -0.04167711 -0.0022480967 -0.025154535 0.014117632
000340 d7 24 0f 3a 3b ca 06 bc 5e cd 1a 3c 6b 1d 36 3c
       0.00054605067 -0.008226926 0.009448377 0.011115412
000350 4e 03 1b bb b4 01 d2 bc ed ff 75 bc f3 47 7c bc
       -0.0023653093 -0.025635578 -0.015014631 -0.015398013
000360 d9 75 3f 3c 28 c0 99 3c 74 1c 4f 3a f7 6f 00 3c
       0.011685812 0.018768385 0.0007900663 0.0078391945
000370 1e aa 34 39 80 86 54 bb d0 a6 35 3a 8a 07 7a 3b
       0.00017229511 -0.00324288 0.0006929459 0.0038151466
000380 e3 0b f3 bc 4d a3 8e 3c 97 1c bb bc a2 2d 3f 3c
       -0.029668754 0.017411852 -0.022840781 0.011668595
000390 82 a0 b9 bc 3b 0a fe 3b 66 74 21 3c bd 04 82 3c
       -0.022659544 0.0077526844 0.009854412 0.0158714
0003a0 8c dc 50 bc b9 d6 95 3c 73 9f 51 3c bf c3 49 39
       -0.012747895 0.018290864 0.012794363 0.00019241775
0003b0 32 1b 35 bd 99 51 c2 3b d0 47 be ba fa a0 61 ba
       -0.04421539 0.0059301374 -0.0014517251 -0.0008607056
0003c0 72 e1 a9 bc d5 b9 98 3b 13 ea e4 3c 5a be 12 3b
       -0.020737384 0.004660825 0.027943647 0.002239129
0003d0 8e f2 4c bc f9 bb 46 bc d6 db a1 3b 38 43 d8 bc
       -0.012509001 -0.012129777 0.0049395366 -0.02639924
0003e0 e7 a1 16 3d 72 a5 68 bb 52 50 d5 3c f6 57 ed 3b
       0.036775496 -0.0035499004 0.026039276 0.007243152
0003f0 25 05 3b bb 0e 3d be 3b d0 43 9b bb 1b 61 ac 3a
       -0.0028537002 0.005805618 -0.0047383085 0.0013151498

action_model._continuous_distribution.mu.bias f4 [2]
000000 61 89 ae bc 8a ec a7 3d
       -0.021305742 0.08199413
