results/turret_train_11/TurretShoot/TurretShoot-500049.onnx (onnx, 287600 bytes, 11 tensors)

network_body.observation_encoder.processors.0.normalizer.running_mean f4 [11]
0	0x3d0d0cd7	0.034436073
1	0xbbf03b82	-0.0073313126
2	0x3e09c161	0.13452674
3	0xbe27e567	-0.16396104
4	0x3caba11b	0.020950845
5	0x3e1640c4	0.14673144
6	0x40a7ee88	5.2478676
7	0x2cb42998	5.1205255e-12
8	0xbb29201f	-0.00258065
9	0xada6791c	-1.8925798e-11
10	0x3eba14e1	0.36344054

network_body._body_endoder.seq_layers.0.weight f4 [256, 11]
0	0x3f06c91b	0.5265061
1	0x3ebb152d	0.36539593
2	0x3f4bbd85	0.7958606
3	0xbee0862f	-0.43852374
4	0x3f2ca85a	0.67444384
5	0xbe9c6e16	-0.3055274
6	0x3e408456	0.18800482
7	0x3e23387b	0.15939514
8	0x3e30d9e7	0.17270623
9	0xbf0e4584	-0.5557482
10	0xbf0b5c18	-0.544374
11	0x3ea0fe04	0.314438
12	0x3e7138e2	0.23556855
13	0xbf18b6e3	-0.59654063
14	0xbee34841	-0.44391063
15	0x3e1ca5fd	0.15297695
16	0xbeddfb24	-0.43355668
17	0xbecdc6a8	-0.40190625
18	0x3dc4a29f	0.0960133
19	0xbee785fb	-0.45219406
20	0xbe28dda3	-0.16490798
21	0x3f3a8fc8	0.7287564
22	0x3f072fa3	0.5280706
23	0x3e64419c	0.22290653
24	0x3cefc7a2	0.029269997
25	0x3ece4b59	0.4029186
26	0xbcfef466	-0.031122398
27	0xbeae5dc5	-0.34055915
28	0x3d90a676	0.07063
29	0x3e280c8a	0.16411033
30	0x3e004644	0.12526804
31	0xbe962126	-0.29322165
32	0x3eed27fc	0.46319568
33	0x3e8fa85d	0.28058138
34	0xbd5abebc	-0.053404555
35	0x3d4577b4	0.04820986
36	0x3ef1ae96	0.4720351
37	0xbe27e90c	-0.16397494
38	0x3d75bc12	0.05999381
39	0xbd56cafb	-0.05243967
40	0x3d3e83cc	0.04651241
41	0xbe8de1a3	-0.2771121
42	0x3f2f18c5	0.6839717
43	0xbc938250	-0.018006474
44	0xbd3c7776	-0.046012364
45	0x3ecb14a3	0.39664182
46	0xbc96e5a2	-0.018420044
47	0xbe2ecc0b	-0.17070024
48	0xbe4ad519	-0.19807853
49	0x3f242705	0.6412204
50	0xbf23d4d1	-0.6399661
51	0x3d791d24	0.060818806
52	0xbe4ddb3a	-0.2010316
53	0x3de3fd2a	0.111322716
54	0x3ed4c16f	0.41553828
55	0x3ddd27ce	0.10798608
56	0x3e86e1f5	0.26344267
57	0xbb7e42c4	-0.003879712
58	0x3e8e2348	0.27761292
59	0xbed562fa	-0.41677076
60	0x3e0867b9	0.13320817
61	0x3e6ba377	0.23011576
62	0x3ea0ae34	0.31382906
63	0x3e4a990b	0.19784944
64	0x3f4598df	0.7718639
65	0x3efddbba	0.495817
66	0x3f2976fc	0.6619718
67	0x3d382d2d	0.044964958
68	0x3e81d6e9	0.25359276
69	0x3e21892c	0.15774983
70	0x3c2073fb	0.009793277
71	0xbef67fc9	-0.48144367
72	0x3e929866	0.28631896
73	0x3ef31df6	0.47483796
74	0x3f085cc6	0.5326656
75	0xbe851e72	-0.2599979
76	0xbd3fc5ce	-0.0468195
77	0x3e332695	0.17495187
78	0xbd72ed91	-0.059308592
79	0xbdd97972	-0.10618867
80	0xbdab3f63	-0.083616994
81	0xbe1c1e56	-0.15245947
82	0x3daa163c	0.08305022
83	0x3ed5f0f5	0.41785398
84	0x3e0af9ef	0.13571905
85	0xbc804da5	-0.015662024
86	0x3f2b93b3	0.67022246
87	0x3ebd5cc4	0.36984837
88	0xbe9110df	-0.28333184
89	0xbe97db83	-0.29659662
90	0xbdd47a84	-0.103749305
91	0xbdd6f2ce	-0.1049553
92	0xbeea0869	-0.4570954
93	0xbe3ea64a	-0.18618122
94	0xbe368b6a	-0.1782662
95	0xbe2447d6	-0.16043028
96	0xbeba299e	-0.36359876
97	0x3e2caeea	0.168636
98	0x3e2599c6	0.16171941
99	0xbeb050ce	-0.3443665
100	0x3e528b78	0.20561016
101	0xbedb64cf	-0.42850348
102	0x3ec69832	0.3878799
103	0xbde63c13	-0.11241927
104	0xbee2d9c6	-0.44306773
105	0xbd8371a5	-0.0641816
106	0xbd8f6bc0	-0.070029736
107	0x3e9d1e08	0.30686975
108	0x3ee38ef5	0.44445005
109	0x3dc51a62	0.09624173
110	0x3cd7f162	0.026360217
111	0xbe1457e4	-0.14486653
112	0xbeecf4b3	-0.4628044
113	0xbf0052c5	-0.50126296
114	0xbd555a4e	-0.052088074
115	0x3db3dcdd	0.08782361
116	0x3db5d3e1	0.08878303
117	0xbd0946ac	-0.033514664
118	0x3e8d866b	0.27641615
119	0xbea1df48	-0.31615663
120	0xbe7a7253	-0.24457674
121	0xbe4f71c0	-0.20258236
122	0xbe161c02	-0.14659122
123	0xbe7b4ab3	-0.24540214
124	0xbe8435e7	-0.25822374
125	0xbee54727	-0.44780847
126	0x3d8c5928	0.06852943
127	0xbed85698	-0.42253566
128	0xbe2a9028	-0.16656554
129	0xbd53c696	-0.05170306
130	0xbec98606	-0.39360064
131	0x3e550281	0.20801736
132	0xbf12802e	-0.57226837
133	0xbaa890ce	-0.0012860538
134	0x3e5c4ae3	0.21512942
135	0x3f87d9ea	1.0613377
136	0xbeefbd40	-0.46824074
137	0x3e8b5d0e	0.27219433
138	0x3e909439	0.28238085
139	0x3f04c6f6	0.5186609
140	0x3eb3ce1e	0.35118192
141	0xbc31b7a9	-0.010847011
142	0x3e11125e	0.14167163
143	0xbeb412b0	-0.35170507
144	0xbea0e2d2	-0.3142305
145	0xbe77f067	-0.242128
146	0xbd580696	-0.052740656
147	0xbd83af68	-0.064299405
148	0xbd091413	-0.03346641
149	0x3eb574ce	0.35440677
150	0x3eecadd8	0.46226382
151	0xbeef906f	-0.46789882
152	0x3eb0fe6f	0.34569117
153	0x3ef2f4f3	0.47452506
154	0xbd2cfc76	-0.042232953
155	0xbefc79af	-0.49311587
156	0xbee351d3	-0.44398364
157	0x3e36851f	0.17824219
158	0x3c1345ca	0.008988807
159	0x3f210b10	0.62907505
160	0xbeb7177a	-0.357601
161	0x3f063d83	0.5243761
162	0xbe6fde4d	-0.23424645
163	0x3cc51f4a	0.024062771
164	0xbe249a43	-0.16074471
165	0x3db707c3	0.08937027
166	0xbe03816d	-0.12842341
167	0x3e54d5b4	0.20784646
168	0x3da1d857	0.07902592
169	0xbda9e2b8	-0.08295196
170	0xbccae492	-0.024767194
171	0x3e75a4df	0.23988675
172	0x3e13f69a	0.1444954
173	0xbea18cd2	-0.3155275
174	0xbe8d867b	-0.27641663
175	0x3c611dc5	0.013740008
176	0xbe29aa61	-0.165689
177	0x3d1e334e	0.038623147
178	0x3aae422c	0.0013294867
179	0x3ddad60e	0.10685359
180	0x3e9fcd28	0.3121121
181	0xbceb0491	-0.0286887
182	0x3ecf0674	0.4043461
183	0x3ec5f752	0.38665253
184	0x3d4575ee	0.04820817
185	0xbd20e7f2	-0.0392837
186	0xbe26718b	-0.1625425
187	0x3f09dcad	0.5385235
188	0x3eb40ab8	0.35164428
189	0x3eb32fda	0.34997445
190	0x3f052262	0.5200559
191	0xbda862e4	-0.08221987
192	0xbf3fcba6	-0.7492012
193	0x3f0e703e	0.5564002
194	0x3e0d6beb	0.13810699
195	0xbcce9cff	-0.025221346
196	0xbe3c7572	-0.18404177
197	0x3e9bb302	0.3041001
198	0xbeff0f39	-0.498163
199	0x3e87efc8	0.26550126
200	0x3dd41ccb	0.10357054
201	0xbddff739	-0.10935826
202	0xbe0f082f	-0.13967966
203	0x3b5207c0	0.0032048076
204	0xbcd26b4e	-0.025685932
205	0x3dbb9849	0.091599055
206	0x3f0948bc	0.5362661
207	0xbe8fe6f1	-0.28105882
208	0xbf20205f	-0.62549394
209	0x3e821997	0.25410149
210	0xbe65c863	-0.22439723
211	0xbf028174	-0.5097878
212	0x3eb6d03d	0.35705748
213	0xbeb288bb	-0.34869942
214	0xbced910b	-0.028999826
215	0x3edaab5b	0.4270886
216	0x3d760e80	0.060072422
217	0x3df97220	0.12179971
218	0xbe1ab64b	-0.15108602
219	0xbe57f53a	-0.2108964
220	0xbdbd76ec	-0.09251198
221	0x3d9292a5	0.071568765
222	0x3eea765c	0.45793426
223	0xbe003084	-0.12518507
224	0xbf371f4b	-0.71532124
225	0x3e7aa448	0.24476731
226	0xbdfd64c3	-0.123727344
227	0x397d8bba	0.00024180012
228	0xbed22a1a	-0.41047746
229	0xbdf61976	-0.12016575
230	0xbe6e8571	-0.23293091
231	0xbe1a6415	-0.15077241
232	0xbea6c4f7	-0.32572147
233	0xbd196483	-0.03744937
234	0x3ea5c471	0.32376435
235	0x3ec333c6	0.38125437
236	0x3ef041cd	0.46925202
237	0x3dec9b25	0.11553029
238	0x3e117431	0.1420448
239	0xbda8be13	-0.08239379
240	0xbf1c3b5a	-0.61028063
241	0xbea31551	-0.318522
242	0xbc5d30ee	-0.013500435
243	0xbec26185	-0.37965026
244	0x3eb02dc6	0.34409922
245	0x3e6439a8	0.22287619
246	0xbddba884	-0.10725501
247	0x3ef473f2	0.4774471
248	0x3eab4462	0.3345061
249	0xbe1ccac1	-0.1531172
250	0x3df5c735	0.12000886
251	0xbca811df	-0.020516334
252	0x3e771e7d	0.24132724
253	0x3de0d5a1	0.109782465
254	0x3d7a6534	0.06113167
255	0xbe6efbef	-0.23338293

network_body._body_endoder.seq_layers.0.bias f4 [256]
0	0x3d719563	0.058980357
1	0x3d735e4d	0.059416104
2	0x3d61d38e	0.055133395
3	0xbb7ee041	-0.003889099
4	0xbd3b26aa	-0.04569117
5	0xbd346792	-0.044044085
6	0x3d658667	0.05603638
7	0x3d2ef33a	0.042712428
8	0x3cc52418	0.024065062
9	0x3d6a49b6	0.057199202
10	0x3d2913c1	0.041278604
11	0xbb8de605	-0.004330399
12	0x3bfc67bb	0.0077027953
13	0x3d42ca14	0.047555998
14	0xbaad7df3	-0.0013236388
15	0x3cc98144	0.024597771
16	0x3d763855	0.060112316
17	0x3d59059a	0.052983858
18	0x3d27fe15	0.041013796
19	0x3d4cba32	0.049982257
20	0x3cec0340	0.028810143
21	0xbcea2a5d	-0.028584654
22	0xbd34f1c6	-0.044175886
23	0xbc06fbce	-0.008238746
24	0x3cd36f99	0.02581005
25	0xbc28816a	-0.010284761
26	0x3d549b4d	0.05190592
27	0x3d2331ac	0.039842293
28	0xbd043224	-0.03227438
29	0x3c80a7b7	0.015704973
30	0x3d4af2b4	0.049547866
31	0x3d95fb31	0.073233016
32	0xbce6c960	-0.028172195
33	0x3d86fd5a	0.06591292
34	0x3cbcc9d4	0.023045458
35	0x3cc8afd6	0.024497908
36	0x3d3f9b7f	0.046779152
37	0x3d3493f5	0.044086415
38	0x3c10a4ef	0.008828386
39	0x3d0688b5	0.032845218
40	0xbc249962	-0.010046335
41	0x3d83b127	0.064302735
42	0x3d419054	0.047256783
43	0x3d34e5ff	0.044164654
44	0x3d80bdd7	0.06286209
45	0x3d636175	0.055512864
46	0xbcc4959f	-0.023997126
47	0x3caf9da8	0.021437481
48	0x3d164f78	0.03669688
49	0x3d5d0eb7	0.05396911
50	0x3d27d633	0.04097576
51	0x3b84ac23	0.0040488406
52	0x3cc4f77f	0.024043797
53	0x3beff68d	0.0073230923
54	0xbcb9fb42	-0.022702817
55	0x3d7452b3	0.05964918
56	0xbcf59d45	-0.029982219
57	0xbc9db497	-0.019251151
58	0xbce01616	-0.027354281
59	0x3c71d342	0.01475984
60	0xbcbd5dd4	-0.02311603
61	0x3d6e3f7f	0.058166023
62	0xbc5f90c0	-0.013645351
63	0x3d2caf0a	0.042159118
64	0x3d5ee879	0.054420922
65	0x3c6db7ef	0.014509185
66	0xbd058573	-0.03259797
67	0x3cb41d45	0.021986613
68	0x3d333d2f	0.04375952
69	0xbd041013	-0.032241892
70	0x3c81125e	0.015755828
71	0x3d6d7706	0.057974838
72	0x3cf1e8e7	0.029530002
73	0x3d5afb23	0.05346216
74	0x3d3bb737	0.045829024
75	0x3c90e070	0.017685145
76	0x3d51d3dc	0.051227435
77	0xbcb16703	-0.021655565
78	0x3d5ddaae	0.054163627
79	0x3c2798ba	0.010229284
80	0x3c823753	0.015895521
81	0xb99ebb07	-0.00030275455
82	0xbb33a57b	-0.0027411866
83	0x3b8abd61	0.0042340015
84	0x3c83697b	0.016041508
85	0x3d693097	0.056931105
86	0x3c42e90d	0.011896384
87	0x3d42f6e3	0.04759873
88	0x3d3bf7f1	0.045890752
89	0x3bb64a9e	0.0055630943
90	0x3cbfa160	0.02339238
91	0xbcfc2bf7	-0.030782683
92	0x3ce7118c	0.02820661
93	0x3bd41120	0.006471768
94	0x3d242830	0.04007739
95	0x3d15d0b8	0.036576003
96	0x3c5c3851	0.013441161
97	0x3c8071f3	0.015679335
98	0x3c930c06	0.01795007
99	0xbad45a21	-0.0016201177
100	0x3d624730	0.05524367
101	0x3d8b3a10	0.06798184
102	0x3cd49fdb	0.025955131
103	0xbcc88c69	-0.024481015
104	0x3d50a495	0.050938208
105	0x3d4e69b4	0.050393775
106	0xbd056c1a	-0.032573797
107	0x3c945c26	0.018110346
108	0x3d01717d	0.03160237
109	0x3d87ea77	0.066365175
110	0x3d3babef	0.045818266
111	0x3cc3fca6	0.023924183
112	0x3d57895c	0.05262123
113	0xbc6a9416	-0.014317533
114	0x3d45c588	0.048284084
115	0x3d1bcc2f	0.03803652
116	0x3d757d0c	0.059933707
117	0xbb9ada21	-0.00472571
118	0xbcbd7eef	-0.023131816
119	0x3d48e948	0.0490506
120	0x3d2ed450	0.042682946
121	0xbd1dded7	-0.038542595
122	0xbd0574fe	-0.032582276
123	0x3b928754	0.004471699
124	0xbc2ae662	-0.010430904
125	0x3d44e676	0.048071347
126	0x3ce16227	0.027512623
127	0xbd33dbe8	-0.04391089
128	0x3d0d4207	0.034486797
129	0x3c593fb5	0.013259818
130	0xbc019fab	-0.007911603
131	0x3ce56e05	0.028006563
132	0x3c84eb31	0.01622543
133	0x3d3352dd	0.043780196
134	0x3bbc848d	0.005753106
135	0xbd24a57f	-0.040196892
136	0x3d3a54fc	0.045491204
137	0x3d93bb0b	0.0721341
138	0x3d42776c	0.04747717
139	0x3d01ea3a	0.031717516
140	0x3d4b3677	0.04961249
141	0x3d27229d	0.040804494
142	0x3c04014a	0.008056948
143	0xbc1824ff	-0.009286164
144	0x3d393e57	0.045225468
145	0x3c8f38fd	0.017483229
146	0x3d79f90f	0.061028536
147	0xbd093274	-0.03349538
148	0x3bb5a674	0.0055435244
149	0x3d6e7a01	0.05822182
150	0x3d35cf1a	0.04438696
151	0x3d72ca1f	0.05927479
152	0x3d5a5df2	0.05331225
153	0x3d565134	0.052323535
154	0x3d08b5ec	0.03337662
155	0x3c0716dc	0.008245196
156	0xbc3c675c	-0.011499252
157	0xbb5dec2e	-0.0033862698
158	0x3c546e59	0.012965762
159	0x3c2981e7	0.010345913
160	0x3ce4b718	0.027919337
161	0x3d337c67	0.04381981
162	0x3d0e1f10	0.034697592
163	0xbc3b573e	-0.011434374
164	0x3d08171e	0.03322517
165	0xbd48f584	-0.049062267
166	0x3d45cd9b	0.048291784
167	0x3d42ed8b	0.04758982
168	0x3d6b240f	0.057407435
169	0x3d5d66a4	0.054052964
170	0x3d93ce36	0.07217066
171	0x3d459a4a	0.048242845
172	0x3d201e75	0.039091546
173	0x3d0a2cdc	0.033734187
174	0x3d2da4c4	0.04239346
175	0x3ca8b998	0.02059631
176	0x3d561379	0.052264664
177	0xbcacfb07	-0.021115793
178	0x3d6b2ce1	0.057415847
179	0x3d2680d7	0.040650215
180	0x3d34364a	0.043997087
181	0x3d36cb07	0.044627216
182	0x3d2dc9db	0.042428833
183	0xbc2d2c46	-0.010569638
184	0x3d0c34a9	0.03422991
185	0x3c8bbc09	0.017057436
186	0x3d6522e5	0.05594148
187	0x3d5a2cfb	0.053265553
188	0x3a52fb9f	0.0008048359
189	0x3d973032	0.073822394
190	0x3af60d52	0.001877228
191	0x3cb84e77	0.022498352
192	0xbc78e39c	-0.015190985
193	0x3c99bc87	0.018766655
194	0x3d5bf4c6	0.05370023
195	0xbccde1f5	-0.025132159
196	0x3d5ca363	0.053866755
197	0x3cc63b52	0.024198208
198	0x3c57331d	0.013134745
199	0x3d24bf65	0.04022159
200	0xbce4b58e	-0.027918603
201	0x3d669eeb	0.0563039
202	0x3d1f8cd3	0.03895266
203	0xbc91aa22	-0.017781321
204	0x3d21dca7	0.03951707
205	0xbd5fdcd5	-0.05465396
206	0x3bb5591e	0.0055343052
207	0x3d5f79d2	0.054559536
208	0x3d46ebd0	0.048564732
209	0x3c03fc77	0.008055798
210	0x3d3f7482	0.04674197
211	0x3c59b91b	0.0132887615
212	0xbcea51b3	-0.02860341
213	0x3d4f9ea9	0.05068842
214	0x3d71c050	0.059021294
215	0xbd052646	-0.032507204
216	0x3cde1845	0.027111182
217	0xbccb153f	-0.024790404
218	0x3d490602	0.049077995
219	0x3d025467	0.031818774
220	0x3d8cd50c	0.06876573
221	0xbccd7379	-0.025079476
222	0x3ccb0ea3	0.024787253
223	0xbd3103a3	-0.04321636
224	0x3d6d589c	0.057945833
225	0x3ca671b2	0.020317886
226	0x3d5a2b44	0.053263918
227	0xbd092dbb	-0.033490878
228	0x3d4c95cf	0.049947556
229	0xbc9992d7	-0.018746777
230	0x3cf0f742	0.029414777
231	0x3cdc721c	0.02690988
232	0x3d89810b	0.06714066
233	0x3b85251d	0.004063262
234	0x3cb5b453	0.022180712
235	0x3d8a217d	0.06744669
236	0x3d3a0047	0.04541042
237	0x3d112758	0.03543791
238	0x3c9ba15c	0.01899784
239	0x3d899ce3	0.06719377
240	0xbd5522ca	-0.05203513
241	0x3d3a7a73	0.045526933
242	0xbc10d97f	-0.008840918
243	0x3cfb93d7	0.030710144
244	0x3d8eb5eb	0.06968292
245	0x3d5c2163	0.053742778
246	0x3d62b9db	0.055353027
247	0x3d2f1368	0.042743117
248	0x3c5c12cf	0.013432219
249	0xbd124a75	-0.03571554
250	0xbcdda364	-0.02705545
251	0xbb984e7a	-0.004648027
252	0x3d81f636	0.06345789
253	0x3d766888	0.060158283
254	0x3d1d920b	0.038469356
255	0x3d1ce0f7	0.03830048

network_body._body_endoder.seq_layers.2.weight f4 [256, 256]
0	0xbd0fef73	-0.035140466
1	0xbdf80309	-0.12109954
2	0xba930649	-0.0011217083
3	0xbcf997cd	-0.030467892
4	0xbdaf05b7	-0.08546012
5	0xbc715d48	-0.014731713
6	0xbdad6577	-0.084666185
7	0xbc514ab6	-0.01277416
8	0xbdbd4efb	-0.0924358
9	0xbc934de5	-0.017981479
10	0x3ba73862	0.005103157
11	0x3cd4ca8c	0.025975488
12	0xbd03436e	-0.032046728
13	0x3d8b3f24	0.067991525
14	0x3b728964	0.003700816
15	0x3c4206f4	0.011842478
16	0xbe02018f	-0.12695907
17	0xbc874a38	-0.016514882
18	0xbd892a12	-0.066974774
19	0xbd89cef0	-0.06728923
20	0xbde4822e	-0.11157642
21	0xbd90ef79	-0.07076926
22	0xbd0a5e67	-0.033781435
23	0xbd40bb77	-0.04705378
24	0xbdc11d96	-0.09429471
25	0xbd50dbee	-0.05099099
26	0x3bdfda39	0.006831434
27	0x3d002196	0.03128203
28	0xbd12bfc6	-0.03582742
29	0x3d7286ae	0.05921047
30	0xbc219d8a	-0.00986422
31	0xbc8c7497	-0.017145438
32	0x3c892d71	0.016745301
33	0x3dcd08a9	0.100114174
34	0xbd7d477e	-0.06183576
35	0xbd2741ac	-0.040834114
36	0xbdea85ec	-0.11451325
37	0xbcb16385	-0.0216539
38	0xbd113645	-0.035452146
39	0xbce389c4	-0.027775653
40	0x3dc05e86	0.09393029
41	0x3c238d5c	0.009982433
42	0xbd81a0b2	-0.06329478
43	0x3d749bcb	0.05971889
44	0x3d356485	0.044285316
45	0x3ce62de9	0.028098064
46	0x3d8aef99	0.06783981
47	0xbde71436	-0.11283152
48	0xbd024203	-0.031801235
49	0x3ca17cef	0.019712893
50	0x3d50e31d	0.050997842
51	0x3db4dca7	0.088311486
52	0x3dfc1131	0.123079665
53	0x3c14156d	0.009038311
54	0x3d18a49c	0.03726636
55	0x3a5539e7	0.00081339333
56	0xbcbbd3f4	-0.022928216
57	0xbd454ee2	-0.04817093
58	0xb90d5c60	-0.0001348122
59	0x3c9d0258	0.019166157
60	0xbdf876d1	-0.121320374
61	0xbd03fe80	-0.032225132
62	0xbdf5cd0f	-0.120020024
63	0xbdf39f87	-0.11895662
64	0x3c376017	0.011192343
65	0xbc17ccb3	-0.009265113
66	0x3db85a45	0.090015925
67	0x3ca37a95	0.019955913
68	0x3d6def67	0.05808964
69	0x3da3af07	0.07992368
70	0xbd540a02	-0.051767357
71	0xbd42d909	-0.047570262
72	0x3d12eda7	0.035871174
73	0xbdda2db9	-0.10653252
74	0x3cac7da6	0.021056008
75	0xbb3e9203	-0.002907873
76	0x3d88ec59	0.06685705
77	0x3d96fbbc	0.07372233
78	0xbdbb8905	-0.09156994
79	0x3e1a741f	0.15083359
80	0xbcc882b7	-0.024476392
81	0xbcccf45b	-0.025018862
82	0xbd952ff1	-0.07284535
83	0xbe09c5a8	-0.13454306
84	0x3cb2c6f0	0.021823376
85	0xbde82f71	-0.11337174
86	0xbd702936	-0.05863305
87	0x3d188be3	0.03724278
88	0x3d7eff33	0.062255096
89	0xbcefa8e7	-0.029255344
90	0x3d118abd	0.0355327
91	0x3d09db86	0.03365662
92	0x3d7a799b	0.06115113
93	0x3d23a44b	0.039951604
94	0xbe3b90e4	-0.1831699
95	0xbd233462	-0.039844878
96	0x3d6a83bf	0.05725455
97	0x3c56b68f	0.013105049
98	0x3cd143a7	0.025544954
99	0x3c74f3bb	0.014950688
100	0xbd1f155a	-0.03883872
101	0xbd84dde7	-0.06487637
102	0xbcd4d4f8	-0.025980458
103	0x3d6ce743	0.057837736
104	0xbd7f3629	-0.06230751
105	0xbbba7c8b	-0.005691116
106	0xbc45e4ad	-0.012078446
107	0x3c9a3f39	0.018828975
108	0x3c261916	0.010137817
109	0xbd7649a4	-0.060128823
110	0xbdc81955	-0.09770457
111	0xbdd383c7	-0.10327869
112	0xbc1e261a	-0.009652639
113	0x3de1e19e	0.11029361
114	0xbe059fb7	-0.13049208
115	0xbe4b885d	-0.19876237
116	0xbd98e67a	-0.07465835
117	0x3d169c17	0.036769953
118	0xbd46abbb	-0.04850362
119	0xbd9db758	-0.07700986
120	0xbd422c6f	-0.047405656
121	0x3d2c36f5	0.0420446
122	0xbd0015fe	-0.031270973
123	0x3c844501	0.016146185
124	0x3ae79536	0.001766837
125	0x3dac820a	0.084232405
126	0xbc450dec	-0.012027245
127	0xbcc7f319	-0.02440791
128	0x3d6c03ad	0.057620693
129	0x3c3e5a42	0.011618199
130	0x3d1d01ae	0.03833168
131	0xbda333a6	-0.079688355
132	0x3d29ea08	0.041482955
133	0x3d143693	0.03618486
134	0xbd6e514e	-0.058183007
135	0x3c60b080	0.013713956
136	0x3dd8b96b	0.10582241
137	0xbde9b16b	-0.11410793
138	0xbd6ee4a6	-0.058323525
139	0xbca3e62f	-0.020007221
140	0x3ad3d25d	0.0016160716
141	0x3c20723e	0.009792862
142	0xbd42bc0e	-0.047542624
143	0xbc467c5a	-0.012114609
144	0xbd36deca	-0.044646062
145	0x3d6efc15	0.058345873
146	0xbca2f9d8	-0.019894525
147	0xbc501ed0	-0.012702659
148	0x3daa174c	0.08305225
149	0x3cb76d6e	0.022391047
150	0xbccfcce6	-0.025366258
151	0x39879592	0.00025860645
152	0xbc6df092	-0.014522688
153	0x3cd91e54	0.02650372
154	0x3dc66e08	0.096889555
155	0x3d1ed1cf	0.038774308
156	0xbd0039ed	-0.031305242
157	0xbc2fd830	-0.010732695
158	0x3cc9df18	0.024642512
159	0xbaaabbfd	-0.0013025996
160	0xbdc081cd	-0.093997575
161	0xbdc54efc	-0.09634206
162	0xbc2fb3a4	-0.010723982
163	0xbd37feec	-0.044920847
164	0x3db7296b	0.08943447
165	0xbd820038	-0.06347698
166	0x3d7438d1	0.059624497
167	0xbdc7dde7	-0.097591214
168	0xbd26885f	-0.040657397
169	0xbe618609	-0.22023787
170	0x3c1bbac9	0.009504982
171	0xbd40708e	-0.04698234
172	0x3b166c9f	0.0022952927
173	0xbb97e1c3	-0.004635067
174	0x3c7f1258	0.015568338
175	0xbc10401d	-0.008804348
176	0xbcd5b98a	-0.026089448
177	0x3d28029c	0.041018113
178	0xbe3f5054	-0.18682986
179	0xbb6b92ce	-0.0035945657
180	0xbc27e304	-0.010246996
181	0x3bf9e638	0.007626321
182	0xbd4eb882	-0.05046893
183	0x3c03268b	0.008004795
184	0xbd1c5183	-0.038163673
185	0x3dc8dd0f	0.098077886
186	0xbdcdc138	-0.10046619
187	0x3c8d22bb	0.017228475
188	0x3d85bd23	0.065302156
189	0xbd836aff	-0.06416892
190	0xbd50866e	-0.050909452
191	0x3c84bff5	0.016204813
192	0xbd0c960e	-0.03432279
193	0x3c4af101	0.012386561
194	0x3c988db8	0.018622264
195	0x3d6b139f	0.05739176
196	0xbdabac6b	-0.083824955
197	0x3cce18f9	0.025158392
198	0x3d0ba20a	0.03409008
199	0xbd58b037	-0.052902427
200	0xbd38768f	-0.04503494
201	0x3c6c495c	0.014421787
202	0xbcd172b7	-0.025567396
203	0xbde43072	-0.11142053
204	0xbd9dd2f3	-0.07706251
205	0x3dd92788	0.10603243
206	0x3c746bc8	0.014918275
207	0xbc90ed36	-0.017691236
208	0xbcd6993d	-0.026196117
209	0xbd2189e0	-0.03943813
210	0xbd657d3f	-0.056027647
211	0xbd0ad95b	-0.033898693
212	0x3b165d61	0.0022943842
213	0xbda435d9	-0.08018083
214	0xbe203c2c	-0.15647954
215	0x3dc3e8e8	0.09565908
216	0xbc60fb0b	-0.013731728
217	0xbc0b050c	-0.00848509
218	0xbd8fb6fd	-0.07017324
219	0xbd82aa66	-0.06380157
220	0xbd27fdd1	-0.041013543
221	0x3d8abcff	0.067743294
222	0xbd4c4d31	-0.049878303
223	0x3c8f86d5	0.017520348
224	0xbd05ecc1	-0.03269649
225	0xbd365cf0	-0.044522226
226	0xbd4fdc0f	-0.050746974
227	0xbd09d55a	-0.033650734
228	0xbd4d9b6f	-0.05019706
229	0x3b8bba4a	0.0042641507
230	0xbe3e0bbd	-0.18559165
231	0xbc8713fe	-0.016489025
232	0x3c01d63f	0.007924615
233	0x3d95f52a	0.07322152
234	0xbd878534	-0.06617203
235	0xbdd2b2ad	-0.10287986
236	0x3ccc4cda	0.02493899
237	0xbdc48531	-0.09595717
238	0xbc4621bc	-0.012093004
239	0x3ba83dcb	0.0051343194
240	0x3ca60f48	0.020270959
241	0xbd2c29ce	-0.042032056
242	0xbdd35c73	-0.10320368
243	0x3da63c73	0.081169985
244	0x3d0de552	0.034642525
245	0xbe06f1ee	-0.13178226
246	0x3d52d5bb	0.05147336
247	0xbcd8fa78	-0.02648662
248	0xbde69752	-0.11259331
249	0x3d0ccf41	0.03437734
250	0xbdbef969	-0.09324915
251	0x3d13d5b1	0.036092464
252	0xbcff06a5	-0.031131098
253	0xbdb737db	-0.089462005
254	0xbd37666f	-0.044775423
255	0x3d6ebd79	0.058286164

network_body._body_endoder.seq_layers.2.bias f4 [256]
0	0xbd32b1f7	-0.04362675
1	0x3cba3b37	0.022733314
2	0x3baf0621	0.005341307
3	0x3d484b60	0.04890001
4	0xbd32a72c	-0.04361646
5	0x3d3b2d56	0.045697533
6	0x3d04ad49	0.03239182
7	0x3c3c8355	0.011505921
8	0x3d42cb7b	0.047557335
9	0x3c0517b2	0.008123325
10	0x3c6c9bcf	0.014441445
11	0x3c8af21d	0.016961152
12	0x3d39c5bf	0.0453546
13	0x3cb43062	0.021995727
14	0xbd25732b	-0.040393036
15	0xbaec4850	-0.0018026922
16	0x3c7c5752	0.015401678
17	0xbd0572e6	-0.03258028
18	0xb9b8b1df	-0.0003522774
19	0xbc7a88d0	-0.015291408
20	0x3c92f50c	0.017939113
21	0x3d4342e0	0.0476712
22	0x3d226d8b	0.03965525
23	0x3d72b0a2	0.05925048
24	0x3d4288b6	0.04749366
25	0xbd40149e	-0.046894662
26	0xbb83c90e	-0.0040217703
27	0x3d1cf713	0.038321566
28	0xbc906740	-0.017627358
29	0xbd21b6ef	-0.0394811
30	0xbcd52c3f	-0.026022075
31	0xbb4578bc	-0.0030131778
32	0x3d27430e	0.040835433
33	0x3d035561	0.032063846
34	0x3c61d973	0.013784754
35	0xbd16c626	-0.036810063
36	0x3d495d23	0.049161088
37	0xbabec6c0	-0.0014555082
38	0xbc63c0fe	-0.013900993
39	0xbcdb0447	-0.026735438
40	0x3cbc1c00	0.02296257
41	0x3d252b2d	0.04032438
42	0x3cc9b90a	0.024624366
43	0x3cf6d41a	0.030130435
44	0xbcf7e73b	-0.030261626
45	0x3d3259d6	0.043542705
46	0x3d03ca1a	0.03217516
47	0xbceaa8a5	-0.02864487
48	0xbd0586ec	-0.032599375
49	0x3ce5ddcb	0.02805986
50	0xbd37ea71	-0.044901315
51	0x3cfe45b5	0.031039098
52	0xbd0f5a4d	-0.034998227
53	0x3ccbe879	0.024891125
54	0x3d430029	0.047607575
55	0x3c8b052f	0.016970245
56	0x3ceb64b2	0.028734539
57	0xbc9b673e	-0.018970128
58	0x3d3e4b57	0.04645857
59	0xbd116345	-0.03549506
60	0x3cc86601	0.024462702
61	0x3d34d326	0.04414668
62	0x3c19ab59	0.009379231
63	0x3cf374e8	0.029718831
64	0xbd083ab3	-0.033259105
65	0x3d44fedd	0.04809462
66	0xbcb9ddb2	-0.02268872
67	0x3d62fbcd	0.055415917
68	0x3d5b5d7b	0.053555947
69	0x3d47e444	0.048801675
70	0xbb827bef	-0.003982059
71	0xbd163afb	-0.036677342
72	0x3ce8c690	0.028414994
73	0x3c85514b	0.016274115
74	0x3d6560c5	0.05600049
75	0xbcc190c8	-0.023628607
76	0x3c64e865	0.013971423
77	0x3c137f1f	0.009002476
78	0x3d2677e0	0.040641665
79	0xbd2996b7	-0.0414035
80	0xbd1cd694	-0.038290575
81	0x3d2dc953	0.042428326
82	0xbc912f72	-0.017722819
83	0xbc7f5ee2	-0.015586587
84	0xbb2fd6b9	-0.0026830866
85	0x3d092dea	0.033491053
86	0xbc852041	-0.016250731
87	0x3d5d880e	0.05408483
88	0x3c119fa8	0.008888163
89	0xbc8274cb	-0.015924832
90	0x3d35db1a	0.044398405
91	0x3d1a6eee	0.037703447
92	0xbd440158	-0.047852844
93	0x3d1eef76	0.038802586
94	0x3d48a8fe	0.04898929
95	0x3d1887e9	0.03723899
96	0x3c7318ff	0.0148375025
97	0x3d1a3446	0.037647508
98	0x3d11bfbc	0.035583243
99	0xbd22d788	-0.039756328
100	0xbc890e66	-0.016730499
101	0x3d21bc7d	0.039486397
102	0x3d047a91	0.03234345
103	0xbd1f46b2	-0.03888578
104	0xbbe06e00	-0.0068490505
105	0x3d4bb54a	0.049733438
106	0xbd2856ca	-0.041098393
107	0xbc3798f9	-0.011205905
108	0x3cf9b154	0.030480064
109	0x3cb80259	0.022462057
110	0x3d2bd563	0.04195155
111	0x3d0bd222	0.034135945
112	0xbd134f50	-0.03596431
113	0xba3828fc	-0.000702515
114	0x3d2b78a9	0.041863117
115	0xbd41d43c	-0.047321543
116	0xbd3850c3	-0.044998895
117	0x3d5ba4c0	0.053623915
118	0x3b844c1e	0.004037394
119	0xbd105541	-0.035237554
120	0x3cc6f76c	0.024287902
121	0xbc9bd1e2	-0.019020978
122	0x3ccbf1dd	0.024895603
123	0xbd31d698	-0.043417543
124	0xbc10936b	-0.00882421
125	0x3d2ebc78	0.042660207
126	0xbd37a8d3	-0.044838738
127	0xbc8d4e3f	-0.017249225
128	0x3d70421f	0.058656808
129	0x3cebd238	0.028786764
130	0xbd16a435	-0.036777694
131	0x3d0baa27	0.034097817
132	0x3c28af7a	0.010295743
133	0xbce89a83	-0.02839399
134	0x3b0012d0	0.0019542463
135	0x3d0de4f6	0.034642182
136	0x3d3411ad	0.04396217
137	0x3d49ea54	0.04929574
138	0xbc7adce2	-0.015311452
139	0xbcd37a68	-0.025815204
140	0x3cb8fa9a	0.022580434
141	0xbc5a27fd	-0.013315198
142	0xbb408b77	-0.0029380003
143	0xbc74c614	-0.014939804
144	0x3d4ff75d	0.050773013
145	0xbc38d8dc	-0.011282172
146	0x3d464d5b	0.048413616
147	0x3d4662e1	0.048434142
148	0x3d490f04	0.049086586
149	0xbc9ede21	-0.019393029
150	0x3ccca7cd	0.024982357
151	0xbce1951e	-0.027536925
152	0x3cfd224c	0.030900143
153	0xbd07ae54	-0.033125237
154	0x3c49db6d	0.012320382
155	0x3d146f22	0.036238797
156	0x3c845c05	0.01615716
157	0x3d2645b0	0.040593803
158	0x3d2d0855	0.042244274
159	0x3d08a455	0.033359844
160	0xbc1063b5	-0.0088128345
161	0x3c9903f3	0.018678641
162	0xbd47d588	-0.048787624
163	0x3c9b7b61	0.01897973
164	0xbd29f7d0	-0.041496098
165	0x3c19997b	0.0093749715
166	0x3d3ed9fe	0.046594612
167	0x3d530579	0.05151889
168	0x3ca6d88a	0.020366926
169	0x3cd87594	0.026423253
170	0x3d0c12ef	0.034197744
171	0xbd0e8d9a	-0.03480301
172	0xbca64e34	-0.020300962
173	0x3d45a555	0.048253376
174	0xbd2f6432	-0.042820163
175	0x3d3f9e54	0.046781853
176	0x3d3abf94	0.04559286
177	0xbd0e73b6	-0.03477832
178	0xbb09aeff	-0.0021008847
179	0xbca6d9eb	-0.020367583
180	0xbd09d9c9	-0.03365496
181	0xb9b27657	-0.00034038976
182	0xba2d0d57	-0.0006601414
183	0xb95c979c	-0.00021037314
184	0xbcddb730	-0.02706489
185	0x3b52bc26	0.0032155602
186	0x3c9288cb	0.017887494
187	0x3b1373e4	0.0022499496
188	0xbc459e51	-0.012061671
189	0x3d4183ec	0.04724495
190	0x3d658099	0.056030843
191	0xbd3e312e	-0.04643362
192	0x3d051604	0.0324917
193	0x3d3bb88c	0.045830294
194	0x3cf6d4ce	0.03013077
195	0xbc7f35a1	-0.015576751
196	0x3d1c623e	0.03817963
197	0x3d17a0b4	0.037018493
198	0x3d36bec7	0.044615533
199	0x3ce39759	0.02778213
200	0xbcc832a6	-0.024438214
201	0x3bfe2be9	0.0077566993
202	0x3c96e9a3	0.018421954
203	0x3c4e5e4e	0.012595726
204	0xbce2746d	-0.027643407
205	0x3d46c02f	0.048523124
206	0x3cd100c3	0.025513059
207	0xbc8b3b2d	-0.01699599
208	0x3d3ae25c	0.04562603
209	0x3d392273	0.04519887
210	0x3d1ec979	0.038766358
211	0x3cd201ac	0.025635563
212	0xbd10baf5	-0.035334546
213	0x3c890bd6	0.016729277
214	0x3c9751bc	0.018471591
215	0xbc0aa356	-0.008461794
216	0xbd006bb3	-0.03135271
217	0xbca6bf01	-0.02035475
218	0x3bfdd04a	0.0077457773
219	0x3c0319d9	0.008001768
220	0xbd1f6504	-0.038914695
221	0x3c7f15d4	0.015569169
222	0xbb99cc6f	-0.00469356
223	0xbd0299a0	-0.03188479
224	0xbbf53203	-0.0074827685
225	0xbcaaca6a	-0.020848472
226	0xbbf705da	-0.0075385394
227	0xbd2316d6	-0.0398167
228	0x3d14215e	0.036164634
229	0x3d4c4fdd	0.04988085
230	0xbce1caea	-0.027562577
231	0x3c7366ce	0.0148560535
232	0xbd1ce2e2	-0.03830231
233	0x3d0f507e	0.034988873
234	0x3c84e533	0.016222572
235	0x3d316de1	0.04331768
236	0x3d5551dc	0.05208002
237	0x3cf05cd4	0.029341139
238	0x3d6bf9c6	0.05761125
239	0xbc45011c	-0.01202419
240	0xbccd4d63	-0.025061315
241	0x3d298f45	0.041396398
242	0x3cabc2aa	0.020966846
243	0x3d3f67bd	0.046729792
244	0x3d1f9bee	0.038967066
245	0x3d4ed1f1	0.050493184
246	0xbc868896	-0.016422551
247	0x3d5dcfc3	0.054153215
248	0x3d472205	0.048616428
249	0xba648a50	-0.000871812
250	0xbca3b2d7	-0.019982738
251	0x3cf4a71b	0.029864838
252	0xbcb7e58e	-0.022448327
253	0xbc6ebb5f	-0.01457104
254	0x3c7970df	0.0152246645
255	0xbb2a6c94	-0.002600466

action_model._continuous_distribution.log_sigma f4 [1, 2]
0	0xbd8272a9	-0.06369526
1	0xbd4c26a3	-0.049841534

action_model._continuous_distribution.mu.weight f4 [2, 256]
0	0x3c6405c6	0.013917392
1	0x3bcbc4be	0.006218522
2	0x3b94b32e	0.0045379614
3	0xbcec0807	-0.028812421
4	0x3ca854e4	0.020548292
5	0x3c8f9ffa	0.017532337
6	0x3d0d1c09	0.034450565
7	0x3cd03cfa	0.0254197
8	0xbcc50436	-0.02404986
9	0xbbce2811	-0.0062913974
10	0xbc74447f	-0.014908909
11	0x3a8cbebb	0.0010737994
12	0x3c3b7bcb	0.011443089
13	0xbc100cba	-0.008792097
14	0x3b3cadf1	0.00287902
15	0xbc0ca453	-0.0085841
16	0x3bc4331c	0.005987538
17	0x3c2847ce	0.010271026
18	0xbcf55053	-0.029945528
19	0x3b71802f	0.0036850085
20	0xbd28c300	-0.04120159
21	0xbce4befb	-0.027923098
22	0xbd49e33a	-0.049288966
23	0xbd797111	-0.060898844
24	0xbc25cc5c	-0.010119524
25	0x3c57a0b8	0.013160877
26	0x3c8dbc42	0.017301682
27	0xbccb0d93	-0.024786746
28	0xbc8140e0	-0.015778005
29	0x3cb2a51c	0.021807246
30	0x3ced695d	0.028980905
31	0x3c77e421	0.015130074
32	0xbce14851	-0.027500303
33	0xba172303	-0.000576541
34	0xba21e1a6	-0.0006175287
35	0x3d2ef7fc	0.042716965
36	0xbc54bb3a	-0.012984091
37	0xbc1f839d	-0.009735969
38	0xbc978c5c	-0.018499546
39	0xbc216345	-0.009850328
40	0x3c7c0a82	0.015383365
41	0xbcad3303	-0.021142488
42	0xbce86309	-0.028367536
43	0x3ce7aeeb	0.02828165
44	0xbc339ec5	-0.010963147
45	0xbbd20cc9	-0.0064102155
46	0xbc2883a1	-0.010285289
47	0xbadffa08	-0.0017088065
48	0x3bfc983d	0.007708578
49	0x3cf987e5	0.030460307
50	0x3abd3366	0.0014434874
51	0x3c2c83c8	0.010529466
52	0x3d1f85da	0.03894601
53	0x3cd2b49b	0.025720885
54	0xbcfb313b	-0.030663123
55	0x3a10fd53	0.00055309123
56	0xbc1c3da9	-0.009536185
57	0x3c510971	0.012758599
58	0x3a00a70b	0.0004907704
59	0x3a02b7ff	0.0004986524
60	0xbd5c9257	-0.053850498
61	0xbc16200c	-0.009162914
62	0x3d1d8ab8	0.03846237
63	0x3d21a79f	0.039466497
64	0x3d437852	0.04772217
65	0xbd204595	-0.03912886
66	0x3ac20af3	0.0014804289
67	0x3b2f76f6	0.0026773787
68	0xbb1e9321	-0.0024196582
69	0x39aa82bd	0.00032522334
70	0xbc875dbd	-0.01652419
71	0x3cc47fc0	0.023986697
72	0x3c4a7de4	0.012359116
73	0xbb0b2053	-0.0021228984
74	0xbd3e9083	-0.046524536
75	0x3c33048d	0.010926378
76	0xbcaef3de	-0.02135652
77	0xbd2165bf	-0.039403673
78	0xbcbc0b39	-0.02295457
79	0x3d06d914	0.032921866
80	0x3c591661	0.013249964
81	0x3cd95731	0.026530834
82	0xbbad4bbb	-0.005288569
83	0xbc98493d	-0.01858961
84	0x3cabd42a	0.020975191
85	0x3d073f1b	0.033019166
86	0x3ccace7f	0.024756668
87	0xbc56743c	-0.013089236
88	0xbc842821	-0.016132416
89	0xbc0a9077	-0.008457295
90	0x3c47bc9a	0.012190962
91	0xbcf642e8	-0.0300612
92	0x3cc3a3c1	0.023881795
93	0x3a58bfde	0.00082683365
94	0xbc4e4dca	-0.012591789
95	0xbd04fa14	-0.032465056
96	0x3d5de50f	0.054173525
97	0xbc745e58	-0.014915071
98	0xbc281cd4	-0.010260779
99	0xbc220e0e	-0.009891046
100	0x3b9016c9	0.0043972475
101	0x3bdc7fd7	0.006729107
102	0xbcab2f9e	-0.02089673
103	0x3cab10b6	0.020881992
104	0x3d4b6d6e	0.049664907
105	0xbd2e484e	-0.042549424
106	0x3ccd4e4d	0.02506175
107	0x3c8b8987	0.017033352
108	0x3c3cf7f1	0.011533723
109	0xbb74ae14	-0.0037335204
110	0xb9c0e32a	-0.00036790344
111	0x3cdd7e4f	0.027037768
112	0x3d02dadb	0.031946998
113	0xbcbcf98a	-0.023068208
114	0xbbc1c67e	-0.0059135547
115	0x3c4c7687	0.012479431
116	0x3c2bbd25	0.010482107
117	0x3b98bb55	0.0046610036
118	0xbc8b63bf	-0.017015336
119	0x3c55a268	0.013039209
120	0x3b892f8a	0.0041865753
121	0x3ce1ee5e	0.027579483
122	0x3bc84f55	0.0061129727
123	0x3ca5a76a	0.02022143
124	0xbc308589	-0.010774025
125	0x3b5072fd	0.003180682
126	0x3cecf5c7	0.02892579
127	0x39f2467f	0.0004621036
128	0xbd11ea21	-0.035623673
129	0xbd2ad118	-0.041703314
130	0x3b610763	0.0034336678
131	0xbc1d0988	-0.009584792
132	0x3c2b1660	0.010442346
133	0x3cb80d92	0.022467408
134	0x3b5fe880	0.003416568
135	0xbbb5b2a5	-0.0055449777
136	0x3c1a4a11	0.009417073
137	0xbc37768b	-0.011197696
138	0xbc885ed4	-0.01664678
139	0xbb6bc9c8	-0.0035978425
140	0xbcb73e4c	-0.022368573
141	0x3b0178be	0.0019755806
142	0xbccf84fa	-0.025331963
143	0x3cafce57	0.021460695
144	0xbcf13a27	-0.029446675
145	0xbc32fa81	-0.010923983
146	0xbcd7cdf4	-0.026343323
147	0xbc9e6e35	-0.01933966
148	0x3b328459	0.002723953
149	0xbc415481	-0.011799932
150	0xbb907d81	-0.0044094925
151	0x3cd45483	0.025919205
152	0x3cef7e8b	0.029235145
153	0x3c7a1f89	0.015266308
154	0x3d2672b9	0.04063675
155	0x3b7666a3	0.0037597797
156	0xbd0709f4	-0.032968476
157	0xbc02688a	-0.007959494
158	0xba7ac634	-0.0009566278
159	0xbbc35fba	-0.005962339
160	0xbc3078b8	-0.010770969
161	0x3b79483c	0.003803744
162	0x3c4c7dea	0.012481192
163	0x3aca634c	0.001544097
164	0x3ba987c9	0.0051736576
165	0xbc612209	-0.013741025
166	0x3b222b3d	0.002474501
167	0xbc7dcf23	-0.01549128
168	0xbaa2135c	-0.0012365389
169	0x3cfcfe4d	0.030882979
170	0xbd15b537	-0.036549773
171	0x3c360a98	0.011110924
172	0x3bbffd2a	0.005859037
173	0xbd26a601	-0.040685657
174	0x3c105be5	0.008810972
175	0xb8292077	-4.0322975e-05
176	0xbc75f5ad	-0.015012187
177	0x3c2f3790	0.0106943995
178	0xbb0b878d	-0.0021290511
179	0x3c8b5a98	0.017010972
180	0xbb9c2b1a	-0.0047658803
181	0x3a4f8c68	0.00079173455
182	0xbd0573e0	-0.03258121
183	0x3c601822	0.013677629
184	0x3a714336	0.00092034356
185	0xbc7833c4	-0.015149061
186	0x3c0ec3f2	0.008713709
187	0x3c87176e	0.016490664
188	0xbc273110	-0.0102045685
189	0x3b71df53	0.0036906793
190	0xbcbbf9fb	-0.022946348
191	0x3cd5c1e3	0.026093429
192	0x3a9c91ff	0.0011945366
193	0x3c1e9e76	0.009681335
194	0xbbccc7f8	-0.006249424
195	0x3d83dd80	0.06438732
196	0x3ad67c14	0.0016363882
197	0xbc26daf0	-0.010184035
198	0xbc8b07d3	-0.016971504
199	0xbcd50d98	-0.026007459
200	0x3c451a8f	0.012030258
201	0xbc5f87c0	-0.013643205
202	0xbb892c4a	-0.004186188
203	0xbc0255ab	-0.007954995
204	0x3cc20ad5	0.023686806
205	0xbc790746	-0.015199488
206	0x3c403ee7	0.011733747
207	0x3c6a6ce2	0.014308186
208	0xbd0d3b4b	-0.034480374
209	0xbb3cb02e	-0.0028791535
210	0xbbbff3fd	-0.005857943
211	0x3cfff246	0.031243455
212	0x3d3edfde	0.046600215
213	0xbcab7d87	-0.02093388
214	0xbc9a9de5	-0.018874118
215	0xbbf0ffd7	-0.0073547172
216	0x3d0da74b	0.03458337
217	0xbc46ffeb	-0.012145977
218	0x3aa2d9aa	0.0012424488
219	0x3cfa0d8d	0.03052404
220	0x3c785eab	0.015159289
221	0x3c29d32e	0.010365291
222	0x3c52b9fc	0.012861725
223	0x3c4f4ab0	0.012652084
224	0x3d14127b	0.036150437
225	0xbc251031	-0.010074661
226	0xb91d3d2f	-0.0001499548
227	0xba24af12	-0.0006282191
228	0xbba220ad	-0.004947743
229	0xbbb8961c	-0.005633129
230	0xbc07596d	-0.008261067
231	0xbc920fe8	-0.01782985
232	0x3d1b62d0	0.03793603
233	0xbc8417f6	-0.016124707
234	0x3cb0dd64	0.021589942
235	0xbc447fe1	-0.011993379
236	0x3a9ab0f3	0.0011802003
237	0x3bc64c28	0.006051559
238	0xbcca222c	-0.024674498
239	0x3b696ed2	0.0035619033
240	0x3ca8cf31	0.020606609
241	0xbca6025a	-0.020264793
242	0x3cbfdfda	0.02342217
243	0xbd398361	-0.04529131
244	0x3aabaf2e	0.0013098472
245	0xbcc73f23	-0.024322098
246	0x3d0b60df	0.03402793
247	0xbc85aeec	-0.01631876
248	0x3bcafe72	0.006194883
249	0x397df75f	0.00024220113
250	0x3bc94948	0.006142769
251	0x3d067f58	0.03283629
252	0x3cc3091b	0.023808053
253	0x3bee1551	0.0072657247
254	0x3bbb46a1	0.0057152067
255	0xbbcf6119	-0.0063287136

action_model._continuous_distribution.mu.bias f4 [2]
0	0xbc8762fe	-0.016526695
1	0x3c4d15ff	0.012517451

action_model._discrete_distribution.branches.0.weight f4 [2, 256]
0	0xbd0fbd58	-0.03509268
1	0x3d095c7e	0.033535473
2	0x3c2e0d20	0.010623246
3	0x3d2cb9d1	0.042169396
4	0xbd174f8e	-0.036941104
5	0x3d354103	0.044251453
6	0x3d0b9592	0.03407819
7	0x3c95f245	0.018304
8	0x3d43f4ef	0.04784101
9	0x3c8866d6	0.016650598
10	0x3c77805e	0.015106289
11	0x3c8d929e	0.017281827
12	0x3d18d8c9	0.037316117
13	0x39701072	0.0002289431
14	0xbcf4d1f2	-0.029885266
15	0x3b181283	0.0023204393
16	0x3b4a8812	0.0030903858
17	0xbcc0dbe0	-0.023542345
18	0xbcb2458f	-0.021761684
19	0xbca29231	-0.0198451
20	0x3c367648	0.011136599
21	0x3d2ed2d7	0.04268154
22	0x3d028c0b	0.031871837
23	0x3c749795	0.014928718
24	0x3d10a398	0.035312265
25	0xbcb196e0	-0.021678388
26	0xbbf0e49c	-0.007351471
27	0x3cee280b	0.029071828
28	0xbca099f5	-0.019604662
29	0xbd07b5b3	-0.033132266
30	0x3b9a03dd	0.0047001676
31	0x3c37ebe3	0.011225673
32	0x3c9ecba8	0.01938422
33	0x3bc1115c	0.005891962
34	0x3bed3d83	0.007239999
35	0xbc91a94b	-0.01778092
36	0x3d3c156a	0.04591886
37	0x39f0eb80	0.00045951828
38	0xbc9c6a2b	-0.019093594
39	0xbd0a22b7	-0.033724513
40	0x3cd086f6	0.02545498
41	0x3d081e54	0.03323205
42	0x3ca30743	0.019900924
43	0x3ca94e50	0.020667225
44	0xbcbb2530	-0.02284488
45	0x3cfdcdfd	0.030982012
46	0x3cf21019	0.029548692
47	0xbcab3a08	-0.020901695
48	0xbb9884a6	-0.004654485
49	0x3cc713a2	0.024301354
50	0xbd17d4f7	-0.037068333
51	0x3c8d6570	0.017260283
52	0xbd255f81	-0.040374283
53	0x3d291335	0.041278083
54	0x3c9a8b7c	0.01886534
55	0x3cb38cd1	0.021917732
56	0x3c58da02	0.013235571
57	0xbc7546da	-0.014970506
58	0x3d1d74bd	0.03844141
59	0xbd0a638b	-0.033786338
60	0xbbb5daa7	-0.005549747
61	0x3d2bc82f	0.041938957
62	0x3cf954c7	0.030435933
63	0x3d2c10b7	0.042008128
64	0xbd1375a1	-0.03600085
65	0x3cebb127	0.028770996
66	0xbc490069	-0.012268164
67	0x3cdcb6d6	0.026942652
68	0x3d2dd383	0.04243804
69	0x3d1481e3	0.036256682
70	0xbd07445e	-0.033024184
71	0xbd19126b	-0.03737108
72	0x3cc0701b	0.023490956
73	0x3ca70f1c	0.020392947
74	0x3d21dfdc	0.03952013
75	0xbc90a0d1	-0.017654808
76	0xb9ee1a18	-0.0004541434
77	0xbb3d9652	-0.002892871
78	0x3c7da4d9	0.015481197
79	0xbd296373	-0.041354608
80	0xbca6b245	-0.020348677
81	0x3ce71dfb	0.028212538
82	0xbd3436b8	-0.043997496
83	0xbc56f81a	-0.013120675
84	0xbb2bed63	-0.0026234023
85	0x3d162a9b	0.036661725
86	0xbb8dcf2e	-0.0043276763
87	0x3cd4ce90	0.025977403
88	0x3bd4dc34	0.006495977
89	0xbbc8dcd8	-0.0061298423
90	0x3d04ddfe	0.03243827
91	0x3c6a2c15	0.014292737
92	0xbd2eff8d	-0.04272418
93	0x3d22c58b	0.039739173
94	0x3d30e993	0.043191504
95	0x3cdf2e22	0.027243678
96	0x3cc05ed6	0.023482721
97	0x3cd16dd7	0.025565071
98	0x3cee5613	0.029093778
99	0xbce86805	-0.028369913
100	0xbc063c24	-0.00819305
101	0x3d0cc0a6	0.03436341
102	0x3d39d8d8	0.045372814
103	0xbc7030bf	-0.0146600595
104	0xbb079b67	-0.0020691992
105	0x3cb75746	0.022380482
106	0xbd14f6cc	-0.036368176
107	0x3b096344	0.0020963708
108	0x3ce470ad	0.02788576
109	0x3c0787e7	0.008272148
110	0x3cc92163	0.024552053
111	0x3ce3ea4a	0.027821679
112	0xbd091ba7	-0.033473637
113	0xbca14d2b	-0.019690117
114	0x3cfec889	0.031101482
115	0xbcf56655	-0.029956022
116	0xbd280e17	-0.041029062
117	0x3d1de49f	0.03854811
118	0x3c212c54	0.009837229
119	0xbd291ab7	-0.041285243
120	0x3ca822df	0.02052444
121	0xb884196a	-6.298984e-05
122	0x3d200fb9	0.039077494
123	0xbcafdc06	-0.02146722
124	0xbaae53ce	-0.0013300122
125	0x3d547b58	0.051875442
126	0xbd13b031	-0.0360567
127	0x3b9fa4e0	0.0048719496
128	0x3cc6d5e7	0.024271918
129	0x3c80fefe	0.01574659
130	0xbd1b9c8a	-0.037991084
131	0x3c62b40a	0.01383687
132	0x3bdf7e43	0.0068204715
133	0xbc04119e	-0.008060841
134	0xbc4e682b	-0.012598078
135	0x3cf1a8d8	0.029499456
136	0x3cd0a91c	0.025471263
137	0x3d58424a	0.052797593
138	0xbca5c042	-0.020233277
139	0xbc7509b6	-0.014955929
140	0x3c3188f4	0.010835875
141	0xbc109673	-0.008824932
142	0xbbd4feb3	-0.006500089
143	0x3bffebed	0.007810107
144	0x3d20ae8c	0.03922896
145	0xbc65af0a	-0.014018783
146	0x3d299605	0.041402835
147	0x3ce28abb	0.027654042
148	0x3cdb8f49	0.026801722
149	0xbcf4e903	-0.029896265
150	0x3c4edd90	0.012626067
151	0xbc5002d4	-0.012695987
152	0x3d0e3dba	0.034726836
153	0xbc412480	-0.011788487
154	0x3c9de269	0.019273
155	0x3d322607	0.043493297
156	0xbb102fd6	-0.0022001169
157	0x3d144e3e	0.03620743
158	0x3ce1f1ad	0.02758106
159	0x3d10cb2c	0.03535001
160	0xbb50d18e	-0.0031863186
161	0x3cc31459	0.023813413
162	0xbd006a98	-0.031351656
163	0x3c412152	0.011787729
164	0xbc870c09	-0.016485231
165	0xbb36ef22	-0.002791353
166	0x3d38e577	0.04514071
167	0x3d496892	0.04917199
168	0x3ce0762e	0.027400102
169	0x3c942cd5	0.018087784
170	0x3c5fdc2e	0.013663335
171	0xbca4b976	-0.020107966
172	0xbcabc51d	-0.020968014
173	0x3ca192d0	0.019723326
174	0xbcdfb3f4	-0.027307488
175	0x3d214d6a	0.03938047
176	0x3c31d1b7	0.010853223
177	0xbd001541	-0.03127027
178	0xbb78042c	-0.0037844284
179	0xbcb466ac	-0.022021614
180	0xbcf7ba05	-0.030240068
181	0xbc8852cb	-0.016641041
182	0x3baf9ae3	0.00535904
183	0x3abeed9f	0.0014566666
184	0xbcb07a91	-0.02154282
185	0xbbd2d9d4	-0.0064346585
186	0x3ceb2e85	0.028708706
187	0x3afc7ba3	0.0019262921
188	0xbc300b9d	-0.010744956
189	0x3cfdd527	0.030985428
190	0x3d32fe4d	0.04369955
191	0xbd15ccc3	-0.03657223
192	0x3d371e31	0.044706527
193	0x3d3a571b	0.045493226
194	0x3ceb9b77	0.028760655
195	0x3b940e33	0.0045182942
196	0x3d10dc74	0.03536649
197	0x3d1e7768	0.038688093
198	0x3cce8b93	0.025213039
199	0x3d0abdf5	0.033872563
200	0xbc701f1e	-0.014655856
201	0x3baa64ce	0.005200005
202	0x3bcf1214	0.0063192938
203	0x3ca72e17	0.02040772
204	0xbc500ddb	-0.012698616
205	0x3d102cac	0.035198852
206	0x3d1ad026	0.037796162
207	0xbc3d1e3f	-0.011542856
208	0x3c93c677	0.018038971
209	0x3d2eb265	0.0426506
210	0x3d15efc0	0.036605597
211	0x3d19ff91	0.037597243
212	0xbd00df4f	-0.031462964
213	0x3d199fe2	0.03750599
214	0x3ca78a7b	0.020451775
215	0xbc331462	-0.010930153
216	0xbcf4a0e6	-0.029861879
217	0xbc9bea64	-0.019032665
218	0x3ca2c9d6	0.019871633
219	0x3c278dd1	0.010226683
220	0xbd3288d7	-0.043587532
221	0x3c20cac0	0.009813964
222	0x3c3ede28	0.011649646
223	0xbc335a57	-0.010946832
224	0x3b952844	0.004551919
225	0xbc34aab4	-0.011027027
226	0xbb90ea3f	-0.0044224556
227	0xbd098f35	-0.03358384
228	0x3c7d3951	0.01545556
229	0x3d0cf4ba	0.034413077
230	0xbd0d8c3f	-0.034557577
231	0x3cb5c3a5	0.022188017
232	0xbc76ee10	-0.015071407
233	0x3d1417ef	0.036155637
234	0x3cc6c7e6	0.02426524
235	0x3d0d3f96	0.03448447
236	0x3cda17c8	0.026622668
237	0x3ce3d8e1	0.027813377
238	0x3cbe3be7	0.023221923
239	0xbb101606	-0.0021985783
240	0xbc24f0a3	-0.010067138
241	0x3d20f57b	0.03929661
242	0x3cbc017f	0.022949932
243	0x3d04dd8b	0.032437842
244	0x3d164c15	0.03669365
245	0x3d280533	0.041020583
246	0x3a84f52a	0.0010143865
247	0x3d1b232d	0.037875343
248	0x3d221e09	0.039579425
249	0x3c4d9b76	0.012549272
250	0xbc77e441	-0.015130104
251	0x3ccd5c5b	0.025068453
252	0x3b818971	0.003953152
253	0xbbd6e2c9	-0.0065577966
254	0x3d150e1f	0.03639042
255	0xbbad34b3	-0.0052858233

action_model._discrete_distribution.branches.0.bias f4 [2]
0	0x3d0724f0	0.03299421
1	0xbd0724f0	-0.03299421

onnx::Div_70 f4 [11]
0	0x4078782a	3.8823342
1	0x3b3550ef	0.0027666648
2	0x40736c05	3.803468
3	0x3e125219	0.1428913
4	0x3c2c0f66	0.010501718
5	0x3eb52a8d	0.35384026
6	0x3fb5d611	1.4205953
7	0x3ab95ac3	0.0014141429
8	0x3d19eb1e	0.03757774
9	0x3ab95ac3	0.0014141429
10	0x3eefc2a0	0.46828175
