Assets/ML-Agents/Examples/Basic/MoveToGoal.onnx (onnx, 75098 bytes, 7 tensors)

network_body._body_endoder.seq_layers.0.weight f4 [128, 6]
0	0xbe1a9de8	-0.15099299
1	0xbcb598bc	-0.022167556
2	0x3f21076c	0.6290195
3	0x3ef7bd61	0.48386672
4	0xbf1bd181	-0.6086655
5	0xbe04dbf4	-0.1297453
6	0xbee15e6b	-0.44017348
7	0x3ea0afe2	0.31384188
8	0xbdd484a7	-0.10376864
9	0xbea3564f	-0.31901786
10	0xbed346da	-0.41264993
11	0x3f51e381	0.8198777
12	0xbda4f1b7	-0.08053916
13	0x3e3a9d91	0.1822417
14	0x3f132b66	0.57488096
15	0x3e33576e	0.1751382
16	0x3e8d8ca9	0.27646378
17	0x3eebaf10	0.46032
18	0xbc423786	-0.011854058
19	0xbf27f4ac	-0.65607715
20	0x3c7289cd	0.014803362
21	0xbe4098d0	-0.18808293
22	0xbe9dae56	-0.3079707
23	0xbe2a83a2	-0.16651776
24	0xbef41795	-0.47674242
25	0x3c35a12b	0.011085789
26	0x3ed6a957	0.4192607
27	0xbd847515	-0.06467644
28	0x3ef1e848	0.4724753
29	0xbd0423d2	-0.032260723
30	0xbf1d0838	-0.61340666
31	0xbdf37c06	-0.1188889
32	0xbe2cbee3	-0.16869693
33	0xbdd9807f	-0.10620212
34	0x3dd22b45	0.10262159
35	0x3d643e8a	0.055723704
36	0x3e9f8418	0.31155467
37	0xbef39272	-0.47572666
38	0x3db83f84	0.0899649
39	0xbef72fe5	-0.48278728
40	0x3ef30764	0.47466576
41	0xbe43bc8e	-0.19114897
42	0xbf08ce7e	-0.5344008
43	0xbe736616	-0.23769411
44	0x3e45461e	0.19265029
45	0xbedeea5f	-0.43538186
46	0x3f2c7181	0.67360693
47	0x3ddd921b	0.10818883
48	0x3dc5ae33	0.096523665
49	0x3f13f709	0.5779882
50	0x3ee33bc1	0.44381526
51	0xbef4043f	-0.4765949
52	0xbe6acb85	-0.22929199
53	0xbf136e6b	-0.5759036
54	0xbf535b2d	-0.82561
55	0x3f63c7d9	0.8897682
56	0x3e0e57a2	0.13900617
57	0xbee4b202	-0.4466706
58	0x3eb6b567	0.35685274
59	0xbc038cfa	-0.008029217
60	0xbe8f73f3	-0.2801815
61	0xbdaf7010	-0.08566296
62	0xbf62756b	-0.88460416
63	0xbcd286b3	-0.025698995
64	0x3f622653	0.8833973
65	0xbea072c7	-0.31337568
66	0xbf4c11cd	-0.7971466
67	0x3ec16745	0.377741
68	0xbf1b03c1	-0.60552603
69	0xbe990a4e	-0.29890674
70	0x3ea1d95f	0.31611153
71	0xbf19116d	-0.59792215
72	0x3e06646b	0.13124244
73	0x3ea5741c	0.32315147
74	0x3ead4f86	0.33849734
75	0x3f626bdf	0.8844585
76	0x3db73a3a	0.08946653
77	0xbe80b87e	-0.25140756
78	0x3f3ce597	0.73787826
79	0xbea4dcc3	-0.32199678
80	0x3ed41676	0.41423386
81	0x3eb82307	0.35964224
82	0xbeb4a30e	-0.3528065
83	0x3d2e941a	0.04262171
84	0x3f157445	0.5838054
85	0x3d783ba0	0.060603738
86	0xbe907ae9	-0.28218773
87	0xbe7b7926	-0.24557933
88	0x3e4a7c74	0.19774038
89	0xbdd4a598	-0.10383147
90	0x3e51be69	0.20482792
91	0x3f099e9d	0.5375765
92	0x3f2c40de	0.6728648
93	0xbd947dbe	-0.07250546
94	0x3d9d4f10	0.076810956
95	0xbe915ed7	-0.2839267
96	0x3ec567f3	0.3855587
97	0x3e77438a	0.24146858
98	0x3e4910cc	0.19635314
99	0x3e92cba2	0.28670985
100	0x3e8384fd	0.256874
101	0x3f04ff63	0.5195219
102	0x3e92f531	0.2870269
103	0xbd13f437	-0.036121573
104	0xbdee0f82	-0.11624052
105	0xbf70d386	-0.9407276
106	0xbeb9caf2	-0.36287647
107	0xbd5332fc	-0.051562294
108	0x3ef5636b	0.47927412
109	0xbda8adac	-0.0823625
110	0x3e2fccae	0.17167923
111	0x3d64cd04	0.05585958
112	0xbe46b959	-0.19406642
113	0x3f546c64	0.8297789
114	0x3e9dd97b	0.30829987
115	0x3e814551	0.25248197
116	0xbec9c650	-0.39409113
117	0x3ee31ee8	0.44359517
118	0xbf1628d0	-0.58656025
119	0xbe969990	-0.29414034
120	0x3cf62405	0.030046472
121	0xbb8e39b7	-0.0043403762
122	0xbe783fd9	-0.24243106
123	0xbf598e9c	-0.8498323
124	0xbe7af15a	-0.24506131
125	0x3e307e5a	0.172357
126	0x3d0f9b87	0.03506043
127	0x3e14218f	0.14465927
128	0xbe583abd	-0.21116157
129	0xbea83545	-0.3285314
130	0xbc0b0080	-0.008484006
131	0xbf8124fb	-1.008941
132	0xbecd8090	-0.40137148
133	0xbf2f392d	-0.6844662
134	0xbdbd47ff	-0.09242248
135	0xbf10e3cc	-0.5659759
136	0xbe84537e	-0.2584495
137	0x3f9b0032	1.2109435
138	0x3dd5e713	0.104444645
139	0x3e3b6559	0.1830038
140	0x3f1750ac	0.5910747
141	0x3ebac101	0.36475375
142	0xbe89d248	-0.26918244
143	0x3ea24c3e	0.31698793
144	0xbe277aa2	-0.16355374
145	0xbeb8240b	-0.35965
146	0x3e1a2e4a	0.1505672
147	0x3e0f04dc	0.13966697
148	0x3eb58b57	0.3545787
149	0x3e76e0c9	0.24109186
150	0xbf869497	-1.0514096
151	0xbe90d055	-0.28283945
152	0x3e6dc262	0.23218682
153	0x3e705f7d	0.23473926
154	0xbe8bca20	-0.27302647
155	0xbe9d2f76	-0.30700272
156	0x3f198165	0.59963065
157	0x3e0ebebc	0.13939947
158	0x3f350ac2	0.7071954
159	0xbe818595	-0.25297228
160	0xbeb21e4d	-0.34788743
161	0xbe87e334	-0.2654053
162	0x3eea3ebb	0.45750985
163	0x3e575f6f	0.21032499
164	0xbded93a5	-0.116004266
165	0xbed3065a	-0.41215783
166	0xbf049d41	-0.5180245
167	0x3f051c44	0.51996255
168	0xbe097f88	-0.13427556
169	0x3f2bd581	0.67122656
170	0xbeee318b	-0.46522173
171	0x3eb34273	0.35011634
172	0x3ea8828f	0.32912108
173	0x3d8da716	0.06916635
174	0xbf75377e	-0.957878
175	0x3ef6cd76	0.4820363
176	0xbe4bec12	-0.19914272
177	0xbdc38628	-0.09547073
178	0xbd71f3fa	-0.059070565
179	0xbf1723e1	-0.5903912
180	0x3db2a2da	0.08722468
181	0xbef44bbe	-0.47714037
182	0xbe142b39	-0.14469613
183	0x3eea6736	0.4578187
184	0xbde8710b	-0.11349686
185	0xbca76bb9	-0.020437108
186	0xbe5cbf96	-0.21557459
187	0x3eccdcdf	0.4001226
188	0xbda3b37b	-0.079932176
189	0xbed76e7c	-0.4207648
190	0xbee6b861	-0.45062545
191	0x3f5ffea7	0.87497944
192	0x3ee5b69d	0.44865885
193	0x3dd0f190	0.102023244
194	0x3e8ea39f	0.27859208
195	0xbf121367	-0.57060856
196	0x3e94efeb	0.29089293
197	0x3f22fece	0.6367005
198	0x3c2a3d0b	0.01039053
199	0x3e4172f5	0.18891509
200	0xbee42e7a	-0.4456671
201	0xbe4190d4	-0.18902904
202	0x3e8fb12a	0.28064853
203	0xbedc608c	-0.4304241
204	0xbea4d3e5	-0.32192913
205	0x3e050609	0.12990583
206	0x3e5601b0	0.20899081
207	0xbe187917	-0.14889942
208	0xbf625623	-0.88412684
209	0xbda89628	-0.08231765
210	0x3ed4a513	0.41532192
211	0x3e31cd0c	0.17363375
212	0x3e6d9b6f	0.23203824
213	0xbf01897c	-0.5060041
214	0x3eb90d40	0.3614292
215	0x3e5d9ddd	0.21642251
216	0x3edd2e14	0.43199217
217	0xbe16309f	-0.14666985
218	0x3e7d5aa9	0.24741615
219	0x3f432eac	0.7624309
220	0x3e79c201	0.24390413
221	0xbe66088d	-0.224642
222	0xbe0122fa	-0.12610999
223	0x3e85f368	0.26162267
224	0x3e07e57a	0.13271132
225	0x3e707abc	0.2348432
226	0xbd8041f9	-0.06262583
227	0x3ddaa2cb	0.106755815
228	0xbf05a368	-0.52202463
229	0x3e5309e9	0.20609249
230	0x3f752956	0.957662
231	0x3ef81dde	0.48460287
232	0x3df1c724	0.11805561
233	0xbe96cf1a	-0.2945488
234	0x3eb1edeb	0.3475183
235	0xbdfe33ff	-0.12412261
236	0x3be663b0	0.0070309266
237	0xbf37cf5d	-0.71800786
238	0xbf0c0e57	-0.5470938
239	0xbe62b98c	-0.22141093
240	0xbee9f376	-0.45693558
241	0xbdb56cc8	-0.08858639
242	0xbd5e8273	-0.054323625
243	0xbe70621a	-0.23474923
244	0x3df17dab	0.117915474
245	0xbde0ee5b	-0.10982963
246	0x3e99941f	0.2999582
247	0x3f1c7adc	0.6112497
248	0xbd9db675	-0.077008165
249	0x3e970db4	0.29502642
250	0xbed8fb73	-0.4237934
251	0x3e070dd8	0.13188875
252	0x3f842796	1.0324581
253	0xbf04931d	-0.5178698
254	0x3ce833fe	0.028345104
255	0x3e690049	0.22754015

network_body._body_endoder.seq_layers.0.bias f4 [128]
0	0x3c60c724	0.013719354
1	0xbcaf6798	-0.021411702
2	0xbc459bd4	-0.012061078
3	0xbd1850f5	-0.03718658
4	0x3c104e46	0.008807724
5	0xbc65a007	-0.014015204
6	0x3c04d145	0.008106534
7	0xbcc1e5bb	-0.023669114
8	0xbd095856	-0.03353151
9	0x3c8110e6	0.015755128
10	0x3d00771e	0.0313636
11	0x3aa10fe0	0.0012288056
12	0x3ca740fb	0.020416727
13	0x3c066162	0.008201929
14	0xbcef0848	-0.029178753
15	0x3cd9b317	0.026574655
16	0xbcb72bf7	-0.022359831
17	0xbc7fc293	-0.015610355
18	0xbd057fbd	-0.032592524
19	0x3d178bf9	0.036998723
20	0x3d37d3aa	0.044879593
21	0xbdb56a84	-0.08858207
22	0x3c8563ab	0.016282877
23	0x3bf4c16f	0.007469348
24	0xbcbb9a81	-0.022900822
25	0xbd0cf091	-0.03440911
26	0xbc9002fd	-0.01757955
27	0xbc2fd0ca	-0.010730932
28	0x3ce88128	0.028381899
29	0xbbff1467	-0.0077844146
30	0x3c7c28c2	0.015390577
31	0xbcc8bf64	-0.024505325
32	0x3abe5207	0.0014520296
33	0xbca7b3d1	-0.020471485
34	0xbc72395c	-0.014784183
35	0x3b9c515d	0.0047704414
36	0x3cffc040	0.031219602
37	0x3ce72808	0.02821733
38	0xbc0ce594	-0.008599658
39	0x3c300bc3	0.010744992
40	0xbcdd0d81	-0.026983978
41	0x3c318806	0.010835653
42	0x3d6e0008	0.0581055
43	0xbcafcbf2	-0.021459553
44	0x3c77fa5a	0.015135372
45	0xbd96d103	-0.073640846
46	0x3cf88a21	0.030339302
47	0xbcb5ff34	-0.022216417
48	0x3cbfe4e8	0.02342458
49	0xbb518b09	-0.003197374
50	0xbc4d97b7	-0.012548379
51	0x3ada905b	0.0016675101
52	0x3cf5b9b7	0.029995782
53	0x3cdbbdd0	0.026823908
54	0x3cc3de9e	0.023909863
55	0xbd1280d5	-0.035767395
56	0x3c90993f	0.017651198
57	0xbbaa3144	-0.005193861
58	0x3c9b1d97	0.018935008
59	0x3d13c796	0.03607901
60	0x3d07ed4e	0.033185296
61	0x3cc04b21	0.023473324
62	0xbb3ec824	-0.0029110992
63	0x3bdced2e	0.006742141
64	0x3b53efe5	0.0032339033
65	0xbd194bc7	-0.037425783
66	0x3cede3ae	0.02903923
67	0x3cd4de55	0.025984922
68	0xbc2df175	-0.01061665
69	0xbc7e342d	-0.015515369
70	0x3cb9870f	0.022647409
71	0x3d071a55	0.032984097
72	0x3a9695fb	0.001148879
73	0x3c4bc426	0.012436902
74	0x3b23d48f	0.002499852
75	0xbcdc0a8f	-0.026860503
76	0xbd6c84ba	-0.057743765
77	0xbd101894	-0.03517969
78	0x3d07b104	0.0331278
79	0xbcc5b59e	-0.024134453
80	0x3c1cc981	0.009569527
81	0xbd03423b	-0.032045584
82	0xbbd7d0ae	-0.006586156
83	0x3d0011be	0.03126692
84	0xbd5a83f7	-0.053348508
85	0xbc841f10	-0.016128093
86	0x3c42e159	0.011894547
87	0x3cc252d3	0.023721134
88	0xbc0e44b8	-0.008683376
89	0x3a9a00fe	0.0011749563
90	0x3d2b7238	0.041856974
91	0xbcbeb1a8	-0.023278072
92	0x3caf83ed	0.021425212
93	0xbd02bdb5	-0.0319192
94	0x3d3318e5	0.043724913
95	0x3b50da5d	0.0031868436
96	0x3ce89d31	0.028395267
97	0x3d0d4c4c	0.03449659
98	0xbc58f1b3	-0.013241219
99	0xbc25432b	-0.010086815
100	0xbd59d25d	-0.053179134
101	0xbb27783a	-0.0025553838
102	0xba901764	-0.0010993299
103	0xbd047d68	-0.03234616
104	0xbc820168	-0.015869811
105	0x3cec2fdb	0.028831413
106	0x3d02bea5	0.031920094
107	0x3cc6bde8	0.024260476
108	0xbc8c6dad	-0.017142141
109	0x3cebf55e	0.028803524
110	0x3d2743ab	0.040836018
111	0xbcd0d463	-0.025491899
112	0x3d106fde	0.035262935
113	0xbd06664c	-0.0328124
114	0x3b8a9408	0.0042290725
115	0xbda81b3b	-0.08208319
116	0xbca11ca2	-0.019666974
117	0xbd408bef	-0.04700845
118	0x3cf2537c	0.029580824
119	0x3c10c5c3	0.008836213
120	0x3cf75540	0.030192018
121	0xbb62842d	-0.0034563646
122	0x3ce8bf00	0.028411388
123	0x3ca7f3ce	0.020501997
124	0x3d033552	0.032033272
125	0x3c065c0b	0.008200656
126	0xbc4b195f	-0.012396186
127	0x3cd21d74	0.02564881

network_body._body_endoder.seq_layers.2.weight f4 [128, 128]
0	0xbde5f09c	-0.11227533
1	0xbd9d82d8	-0.07690972
2	0x3c239f32	0.009986686
3	0xbce272ed	-0.027642692
4	0xbdacc427	-0.084358506
5	0xbe8cf795	-0.2753264
6	0xbc989338	-0.018624887
7	0x3daac866	0.08339004
8	0x3d4b2319	0.04959402
9	0xbd467892	-0.04845483
10	0x3c566c82	0.013087394
11	0x3d9f2dd3	0.07772412
12	0xbe83231c	-0.25612724
13	0xbd8ddf94	-0.0692741
14	0x3dbcdad1	0.092214234
15	0x39d043a4	0.00039723248
16	0x3e0ad35d	0.13557191
17	0xbdf48900	-0.11940193
18	0x3d2b4ed0	0.04182321
19	0xbe45f9de	-0.19333598
20	0x3e412b64	0.18864208
21	0xbca9f7c4	-0.020748027
22	0x3d0e48f8	0.034737557
23	0x3c7423b1	0.014901088
24	0x3daa596c	0.08317837
25	0xbc7d962d	-0.015477699
26	0x3d793a9b	0.060846906
27	0xbdc29215	-0.09500519
28	0xbce1bd9d	-0.027556235
29	0x3cacc7ba	0.02109133
30	0x3cdbf7c4	0.026851542
31	0x3e18cb45	0.14921291
32	0x3d9ca526	0.07648687
33	0xbaeccb96	-0.0018066044
34	0x3c74d836	0.014944127
35	0xbe23589c	-0.1595177
36	0xbd294399	-0.04132423
37	0xbd68f209	-0.056871448
38	0xbc56248d	-0.013070238
39	0x3e44d86b	0.19223182
40	0xbd00a070	-0.031403005
41	0x3cb54ae3	0.022130435
42	0xbdb1f6ec	-0.08689675
43	0x3d6bb223	0.05754293
44	0x3c9adc81	0.018903973
45	0xbe42c3b8	-0.19019973
46	0xbdc73a54	-0.09727922
47	0xbdaac86a	-0.08339007
48	0x3c476de2	0.012172194
49	0x3d8070ed	0.06271539
50	0x3db7cb50	0.08974326
51	0xbbaf91d2	-0.0053579593
52	0xbb18ecf3	-0.0023334592
53	0x3dddd417	0.108314686
54	0xbd89f451	-0.06736053
55	0xbdcf6ae4	-0.1012781
56	0x3dd57174	0.1042203
57	0xbd0882d9	-0.03332791
58	0xbd428326	-0.047488354
59	0xbdb9f0de	-0.09079145
60	0x3e46a5f6	0.19399247
61	0xbcc4b6d7	-0.024012966
62	0xbe0c7346	-0.13715848
63	0x3df03c76	0.11730282
64	0x3d857ae1	0.06517578
65	0x3d95f998	0.07322997
66	0xbe1f3888	-0.15548909
67	0xbd1110c9	-0.0354164
68	0xbb90a802	-0.0044145593
69	0x3e4aea8e	0.19816038
70	0xbc6ed562	-0.014577242
71	0x3c9270e4	0.017876096
72	0x3e4b6723	0.19863562
73	0xbd9b7cf1	-0.0759219
74	0xbd9e3684	-0.07725242
75	0x3e693fcd	0.22778244
76	0xbd48c287	-0.04901364
77	0x3cb67fb4	0.02227769
78	0xbe12b2c0	-0.14326
79	0xbc27df21	-0.010246069
80	0x3d6c5edd	0.057707656
81	0xbc65054d	-0.013978315
82	0xbdea85b6	-0.114512846
83	0xbdbd4b49	-0.09242875
84	0x3dabe066	0.0839241
85	0x3c9fea6e	0.019520964
86	0xbc870fcb	-0.016487023
87	0x3d53c547	0.05170181
88	0xbd28634a	-0.041110314
89	0xbccfd208	-0.025368705
90	0xbb6f5040	-0.0036516339
91	0x3cd255a6	0.025675606
92	0xbd42ea52	-0.047586747
93	0x3c05a163	0.008156153
94	0xbd90b5a3	-0.070658945
95	0x3c243a27	0.01002363
96	0xbdd4220d	-0.10358057
97	0x3da3ce19	0.079982944
98	0xbd8608e3	-0.06544664
99	0xbbaec0bb	-0.005333034
100	0x3d52378a	0.051322497
101	0x3da116ee	0.078657016
102	0xbd4cd27c	-0.05000542
103	0x3ceccc49	0.028906005
104	0xbdf8d1fc	-0.12149426
105	0x3d04e7d4	0.03244765
106	0xbe165ca4	-0.14683777
107	0x3d10f193	0.035386633
108	0xbbbdb6a4	-0.0057895947
109	0x3d2928e3	0.04129876
110	0xbcc121a3	-0.02357561
111	0x3b6b2ad1	0.0035883675
112	0xbd5f83cb	-0.054569047
113	0xbe2255b0	-0.15853
114	0x3dce944a	0.10086878
115	0x3d674e44	0.056471124
116	0x3da96fff	0.08273315
117	0xba2c3390	-0.00065689627
118	0x3c803e8c	0.015654825
119	0x3d8b8b06	0.06813626
120	0xbdb8312e	-0.08993755
121	0x39627968	0.00021598267
122	0xbd1b3a34	-0.037897304
123	0x3d815a4d	0.06316052
124	0xbc87054d	-0.01648202
125	0x3c974296	0.018464368
126	0x3d90b557	0.07065838
127	0x3c173786	0.009229546
128	0x3e5aa546	0.2135211
129	0x3de2e8bd	0.110795476
130	0x3e397f16	0.18114886
131	0xbdd03a04	-0.101673156
132	0x3d5fbe3b	0.054624777
133	0x3e0fe69c	0.14052814
134	0xbe199146	-0.14996824
135	0x3e1a76a4	0.1508432
136	0x3d754889	0.059883628
137	0x3e0af907	0.13571559
138	0x3cd4bf72	0.025970194
139	0x3e3d8c0d	0.18510456
140	0x3d7fe38c	0.062472865
141	0x3d3daae7	0.046305563
142	0x3cdb0c19	0.026739167
143	0x3db3f0bb	0.0878615
144	0xbe00c72d	-0.1257598
145	0x3bbef35a	0.0058273496
146	0xbe405ff7	-0.18786608
147	0x3dd494d8	0.10379952
148	0xbe3111ce	-0.17291948
149	0x3dfd9b0f	0.12383091
150	0x3d8c4b3f	0.068502896
151	0x3dd03b49	0.10167558
152	0xbdd52c50	-0.104088426
153	0x3d1214af	0.035664257
154	0xbc4f0c42	-0.0126372
155	0x3d93b596	0.07212369
156	0xbe04e5fb	-0.12978356
157	0xbd1f97cb	-0.03896312
158	0xbca8fdd8	-0.020628855
159	0x3d9e34ec	0.07724938
160	0x3e47adc4	0.1949988
161	0x3d2774a0	0.040882707
162	0x3e4734d6	0.19453749
163	0x3dbb87e8	0.091567814
164	0xbdb956e2	-0.09049775
165	0xbc5e8e43	-0.0135837225
166	0x3d55abe2	0.052165873
167	0x3c61b769	0.013776639
168	0x3c06ec09	0.008234986
169	0x3e2ca246	0.16858777
170	0x3d3702cf	0.044680413
171	0x3d1e5644	0.038656488
172	0x3dae0237	0.08496516
173	0x3d7bb5d5	0.061452705
174	0x3deb29ae	0.11482559
175	0x3d0bf176	0.034165822
176	0xbd6a6a00	-0.057229996
177	0x3d295f18	0.041350454
178	0x3c176247	0.00923974
179	0xbbdc459a	-0.0067221643
180	0xbcff31a2	-0.031151596
181	0xbdd8da25	-0.10588483
182	0xbd3dfb4f	-0.046382245
183	0x3dc5b916	0.09654443
184	0x3d079cc0	0.033108473
185	0x3da17c5b	0.07885047
186	0xbd1ea737	-0.038733687
187	0xbe16f1ea	-0.1474072
188	0xbcaa8da1	-0.020819487
189	0xbdd90306	-0.1059628
190	0x3e9812d6	0.2970187
191	0x3d227513	0.039662432
192	0xbc057479	-0.008145445
193	0xbd8c6d7b	-0.06856819
194	0x3e02faeb	0.1279103
195	0xbd0451b0	-0.032304466
196	0xbc9338e4	-0.017971464
197	0x3d6d1433	0.05788059
198	0x3db789f9	0.08961863
199	0xbc3607bf	-0.011110245
200	0x3e091e52	0.13390473
201	0x3c9979c1	0.018734815
202	0xbdce8813	-0.10084548
203	0x3dbcdd09	0.092218466
204	0xbe1f1cae	-0.15538284
205	0x3d6d8016	0.05798348
206	0xbd87ab7c	-0.06624505
207	0xbe2f324b	-0.17109029
208	0xbe2437ca	-0.16036907
209	0xbd79fdcc	-0.061033055
210	0xbb06c831	-0.00205661
211	0xbe25f32e	-0.16206047
212	0xbd50e019	-0.050994966
213	0x3cf5bb90	0.029996663
214	0x3d2cdd68	0.042203337
215	0x3d8563ac	0.065131515
216	0x3b9c2721	0.0047654067
217	0x3ca4f771	0.02013752
218	0x3cc01de6	0.023451757
219	0xbc944b9d	-0.018102461
220	0x3de20c0f	0.11037456
221	0x3dad3581	0.08457471
222	0xbcdffd1a	-0.027342368
223	0xbdbd2901	-0.092363365
224	0x3d2f95cc	0.042867467
225	0xbba86cea	-0.0051399367
226	0xbc14dc4e	-0.009085728
227	0xbd070ee6	-0.032973193
228	0x3dee3c35	0.11632577
229	0x3d553ec9	0.05206183
230	0x3daf5634	0.08561364
231	0xbcf0a31a	-0.029374648
232	0x3e0e6aaa	0.13907877
233	0xbb6d86bc	-0.0036243638
234	0x3dc1d7e8	0.09465009
235	0xbd0ca09b	-0.034332853
236	0x3b0ca484	0.0021460364
237	0x3c10b036	0.008831074
238	0xbcd934ce	-0.026514437
239	0xbdcdd9c7	-0.10051303
240	0xbd447cd0	-0.047970593
241	0x3d88e233	0.06683769
242	0xbd4a3525	-0.04936709
243	0xbd9cf818	-0.07664508
244	0xbd33511b	-0.04377852
245	0x3da9859f	0.08277439
246	0x3d93c6cd	0.072156526
247	0xbcdf999f	-0.027294932
248	0xbd5cb341	-0.053881887
249	0x3d53885b	0.05164371
250	0x3c3982f0	0.011322722
251	0xbdc7f730	-0.09763944
252	0x3d9f7ba7	0.07787257
253	0x3e00b1cc	0.12567824
254	0xbcb77d1a	-0.02239852
255	0xbd524b54	-0.05134137

network_body._body_endoder.seq_layers.2.bias f4 [128]
0	0x3a40870f	0.0007344344
1	0xbc847847	-0.016170634
2	0xbc13cb8c	-0.009020697
3	0xbbc33fe5	-0.0059585446
4	0xbcd61ee2	-0.026137773
5	0xbcaae53d	-0.020861262
6	0xbb97d741	-0.0046338146
7	0xbc460b64	-0.012087677
8	0x3cd46c57	0.025930567
9	0x3c7acc14	0.015307445
10	0x3ce4a087	0.027908577
11	0x3d076d82	0.03306342
12	0x3d6b9207	0.05751231
13	0xbccf83d3	-0.025331413
14	0x3bfc7edd	0.007705553
15	0xb9c11155	-0.00036824742
16	0xbb155d51	-0.0022791217
17	0xbcad41d6	-0.021149557
18	0xbcb610e6	-0.022224855
19	0xbca6a111	-0.020340474
20	0xbc689fad	-0.014198226
21	0xbc816dbb	-0.015799394
22	0x3b43b2bc	0.0029861173
23	0x3cd1a2fa	0.025590409
24	0x39942a88	0.00028260448
25	0x3ca36a77	0.019948227
26	0xbc480e3c	-0.012210425
27	0xbc808daf	-0.01569256
28	0x3d0a6a47	0.03379276
29	0x3ce071fd	0.027398104
30	0xbce9b32b	-0.028527817
31	0x3ba15394	0.0049232934
32	0xbcb751a8	-0.022377804
33	0x3c81bac9	0.015836136
34	0x3caa9e84	0.02082754
35	0xbc3a64cc	-0.011376571
36	0xbac57447	-0.001506456
37	0xbca0523f	-0.019570468
38	0xbc8429f4	-0.016133286
39	0xbcd2ebf7	-0.025747282
40	0x3cf14802	0.029453281
41	0x3c80cbe9	0.015722232
42	0x3cbe5337	0.02323304
43	0x3af77bfc	0.0018881555
44	0xbcc105cf	-0.02356234
45	0x3cfaf447	0.030634059
46	0x3cf2ade5	0.029623935
47	0xbc1bff9b	-0.00952139
48	0xbc3221e0	-0.010872334
49	0xbc9ef441	-0.019403579
50	0xbc090021	-0.008361847
51	0x3c907744	0.017634995
52	0x3c0e00b3	0.008667159
53	0xbc4726b7	-0.012155226
54	0xbc395a09	-0.01131297
55	0x3cfb0458	0.03064172
56	0x3c0550af	0.008136912
57	0xbc028233	-0.007965612
58	0xbc9b7544	-0.018976815
59	0x3d15d602	0.036581047
60	0xbc75feef	-0.015014394
61	0x3d51ed0d	0.05125146
62	0x3ce5ef44	0.028068192
63	0x3cffa3aa	0.03120597
64	0x3c05aa8e	0.008158339
65	0xbc752434	-0.014962245
66	0x3d1fc57d	0.0390067
67	0x3ce2ce24	0.027686186
68	0x3c77df7d	0.015128967
69	0x3cff48eb	0.0311627
70	0xbd12c5a4	-0.035833016
71	0x3a367948	0.00069608213
72	0xbbf95701	-0.0076092486
73	0x3cc00083	0.023437744
74	0xbc869aca	-0.016431231
75	0x3d016d30	0.03159827
76	0x3d0c0bd8	0.034190983
77	0x3b564859	0.003269693
78	0x3c377778	0.011197917
79	0xbcd4cd4e	-0.025976803
80	0x3cfc785a	0.030819107
81	0x3ce14499	0.02749853
82	0xbc965338	-0.018350229
83	0x3c4d2318	0.012520574
84	0x3d0355b7	0.032064166
85	0xbb6a6599	-0.0035766123
86	0x3b5a5fe1	0.0033321308
87	0xbb9efec2	-0.004852147
88	0x3d46e81f	0.04856121
89	0x3d03c0c7	0.03216627
90	0x3bcbd9e7	0.0062210443
91	0xbc9f65fc	-0.01945781
92	0x3b01b165	0.0019789573
93	0xbbc1dadf	-0.005915984
94	0xbc980c87	-0.018560661
95	0xbcacdca6	-0.021101307
96	0xbc8ba6a0	-0.017047226
97	0xbca70ba7	-0.020391298
98	0x3c378ce7	0.011203027
99	0xbbb1e36e	-0.005428723
100	0x3b715b72	0.0036828187
101	0x3c23d3a5	0.00999919
102	0x3d593ac0	0.053034544
103	0x3cf9cc7e	0.030493017
104	0x3cf9353b	0.03042089
105	0x3ac7ccfd	0.0015243586
106	0x3c15bd89	0.009139427
107	0xbc02bb80	-0.007979274
108	0x3ca5bf09	0.020232694
109	0x3cf45f5e	0.02983063
110	0xbba55fec	-0.005046835
111	0xbcad411c	-0.02114921
112	0xbc7ada8b	-0.015310894
113	0xbc7c64d7	-0.0154049015
114	0x3cf5e21a	0.03001504
115	0x3cc49ec5	0.024001488
116	0x3d06e8cd	0.03293686
117	0x3cffd288	0.031228319
118	0xbc92640a	-0.017869968
119	0x3cf7c7cb	0.030246636
120	0x3bc1ce64	0.0059144963
121	0x3d26dc44	0.040737405
122	0xbd011337	-0.031512465
123	0x3d32c1ef	0.04364198
124	0x3c906105	0.017624388
125	0x3d0f9e8d	0.035063315
126	0xbc5812d8	-0.013188086
127	0xbc593b3a	-0.01325875

action_model._continuous_distribution.log_sigma f4 [1, 2]
0	0xbe3015da	-0.17195836
1	0xbdb6eafb	-0.08931538

action_model._continuous_distribution.mu.weight f4 [2, 128]
0	0xbd60814b	-0.054810803
1	0xbd736f53	-0.05943234
2	0xbc4f8150	-0.012665108
3	0xbc2a7c1a	-0.010405565
4	0xbc880182	-0.016602281
5	0xbd425045	-0.047439832
6	0xbd39ae23	-0.045332085
7	0xbc8d698b	-0.01726224
8	0x3d13589d	0.03597318
9	0x3c9b04a3	0.01892311
10	0x3d410d21	0.04713166
11	0x3d650d36	0.055920802
12	0x3d1111be	0.03541731
13	0xbd1b3d23	-0.0379001
14	0xbcdaf40c	-0.026727699
15	0x3c0f2e57	0.008739076
16	0xbc943061	-0.018089475
17	0xbd126f04	-0.035750404
18	0xbce11f05	-0.027480612
19	0xbd1d60fe	-0.038422577
20	0xbd29401a	-0.041320898
21	0xbd41471a	-0.04718695
22	0xbd32f5b4	-0.043691352
23	0x3d03e720	0.03220284
24	0x3b135f4e	0.0022487226
25	0x3c2312f1	0.009953246
26	0xbc9e8e5f	-0.019354997
27	0xbd2545c5	-0.04034974
28	0x3d55241d	0.052036393
29	0x3d0a3582	0.033742435
30	0xbd274dfd	-0.04084586
31	0xbbd7b771	-0.006583147
32	0xbd740015	-0.05957039
33	0x3ca0b6bb	0.019618383
34	0x3cd2874b	0.025699278
35	0xbd232bfc	-0.03983687
36	0xbcb72a83	-0.022359138
37	0xbc5ce2ed	-0.013481838
38	0xbcd22ba0	-0.025655568
39	0xbcf035c0	-0.029322505
40	0x3cff0bfc	0.031133644
41	0x3c29f14a	0.010372469
42	0x3c8e8a7a	0.017400015
43	0xbc4b41f8	-0.012405865
44	0xbd21d46d	-0.039509226
45	0x3c9b3818	0.018947646
46	0x3d10d97d	0.035363663
47	0xbc8478b3	-0.016170835
48	0xbd15b0a7	-0.036545422
49	0xbc2ee437	-0.010674528
50	0xbca3d673	-0.019999718
51	0x3c21cc69	0.009875395
52	0x3c70e106	0.014702087
53	0xbd3d4aa5	-0.046213765
54	0x3b79a431	0.003809225
55	0x3d515ee0	0.05111587
56	0xbd2f2cbf	-0.042767283
57	0xba457c28	-0.00075334543
58	0xbc81d5b8	-0.01584898
59	0x3d0a9780	0.033835888
60	0xbcce5712	-0.025188003
61	0x3cff7cf7	0.031187518
62	0x3cd9cdd0	0.026587397
63	0x3cc939c3	0.024563676
64	0xbd1018a0	-0.035179734
65	0xbd264b8f	-0.040599402
66	0x3d908cc2	0.070580974
67	0x3d211a05	0.039331455
68	0x3ca0fd0c	0.019651912
69	0x3d1a3b07	0.03765395
70	0xbd3c8016	-0.04602059
71	0xbbbd7700	-0.005782008
72	0xbd20eacb	-0.039286416
73	0x3cdcdf65	0.026961992
74	0xbcf56da4	-0.029959507
75	0x3cd31ccf	0.025770573
76	0x3d78b5be	0.060720198
77	0xbcc1f833	-0.02367792
78	0x3c7db65a	0.0154853705
79	0xbd197ee6	-0.037474535
80	0x3d23b85b	0.039970737
81	0x3d1ea8cc	0.038735196
82	0xbd169eba	-0.036772467
83	0x3c9aed28	0.018911913
84	0x3ce903bd	0.028444165
85	0xbd2654b4	-0.040608123
86	0xbb89f0c2	-0.004209609
87	0xbca9d4ea	-0.020731408
88	0x3c6d5b59	0.014487111
89	0x3d306373	0.043063592
90	0xbd591701	-0.053000454
91	0xbcbf85bb	-0.023379197
92	0xbd7a081a	-0.061042883
93	0xbd1c38c9	-0.038140092
94	0xbd206e46	-0.039167665
95	0xbd29bdcf	-0.04144078
96	0xbd58728d	-0.05284362
97	0xbd1c2a50	-0.03812629
98	0x3c1e9a41	0.009680332
99	0xbc55f2b7	-0.013058356
100	0xbcbc4ac6	-0.022984874
101	0x3c572a5a	0.013132656
102	0x3d49852e	0.049199276
103	0x3d009da2	0.03140033
104	0x3c9ebab6	0.01937614
105	0x3c08c631	0.008348034
106	0x3c8dcdfc	0.017310135
107	0xbc606ee4	-0.013698313
108	0x3c0390d4	0.008030135
109	0x3d3c0633	0.04590435
110	0xbd11a36c	-0.035556242
111	0xbd346acc	-0.044047162
112	0xbc329183	-0.0108989505
113	0xbc1105ce	-0.008851482
114	0x3d24b437	0.04021093
115	0x3cc7fa80	0.02441144
116	0x3d26262f	0.04056376
117	0x3bb20bf5	0.0054335543
118	0xbd4699b6	-0.048486434
119	0x3d1738ae	0.03691929
120	0xbd20ed2d	-0.03928869
121	0x3d323c30	0.04351443
122	0xbd6c2285	-0.057650108
123	0x3cf7d35f	0.030252157
124	0x3cc4ca3e	0.024022218
125	0x3d256bf0	0.04038614
126	0xbd46d92f	-0.048546966
127	0xbc0447e7	-0.0080737835
128	0xbbc8f1ed	-0.0061323554
129	0xbc6dbc2e	-0.014510198
130	0x3ce47598	0.027888104
131	0xbc584057	-0.013198934
132	0xbbe4000f	-0.006958015
133	0xbd4369ea	-0.04770843
134	0xbc62f0c6	-0.01385135
135	0xbbde077a	-0.0067757936
136	0xbc826f7d	-0.015922302
137	0xbd729fa2	-0.05923427
138	0xb873f8bf	-5.8167378e-05
139	0x3c7c5203	0.0154004125
140	0xbbb7b2c3	-0.005606027
141	0xbc15c4e4	-0.009141181
142	0x3c190c07	0.009341246
143	0xbd3d0a33	-0.046152305
144	0x3939aecb	0.0001770809
145	0xbcc93df7	-0.02456568
146	0xbc323d88	-0.010878928
147	0xbb154031	-0.0022773857
148	0xbc759570	-0.014989242
149	0xbc12b76f	-0.008954867
150	0xbcd86c61	-0.026418867
151	0xbbafb6b8	-0.005362358
152	0xbd683bcd	-0.056697655
153	0x3c3a2486	0.011361247
154	0xbcf8c535	-0.030367473
155	0xbb1f4028	-0.0024299715
156	0x3ca9808a	0.020691175
157	0x3bfd871d	0.007737054
158	0x3b0b58f4	0.0021262737
159	0x3d5aa75d	0.053382266
160	0xbc9a2d80	-0.018820524
161	0xbd3007a9	-0.042976055
162	0x3cb17eae	0.02166685
163	0x3c6fec5f	0.014643758
164	0x3c4d28af	0.012521907
165	0xbc5ef9ae	-0.013609333
166	0x3c588278	0.0132147
167	0xbc9cbd2c	-0.019133173
168	0xbd13eb01	-0.03611279
169	0xbab8257f	-0.0014049261
170	0x3dd7dec9	0.1054054
171	0xbca65206	-0.020302784
172	0xbb420336	-0.0029603965
173	0x3d9b0b5b	0.07570525
174	0xbb8f4f1a	-0.0043734433
175	0xbca6ac1f	-0.020345746
176	0x3c1030fd	0.008800742
177	0xbcb8ffba	-0.022582877
178	0x3c3ad71d	0.011403826
179	0xbdd60f07	-0.10452085
180	0xbcef9e61	-0.029250326
181	0x3bf59e8b	0.0074957064
182	0xbbf1792f	-0.0073691825
183	0x3cc94605	0.02456952
184	0x3c2c5604	0.010518555
185	0x3cd1aeb9	0.02559601
186	0xbd00a64a	-0.031408586
187	0x3b13fc94	0.0022580968
188	0xbd37600a	-0.044769324
189	0x3d0ff0b5	0.035141665
190	0x3be87ee1	0.0070952033
191	0x3cb659e7	0.022259666
192	0xbd348c24	-0.04407896
193	0x3cdbc03a	0.02682506
194	0x3d68c4ef	0.056828436
195	0xbc9b42d0	-0.018952757
196	0x3d1cd1a4	0.038285866
197	0xbcbff3d4	-0.023431696
198	0xbc82d6e4	-0.015971608
199	0x3cc84376	0.02444623
200	0x3c2480e6	0.010040497
201	0xbaaebf48	-0.0013332153
202	0xbccb5b0f	-0.024823694
203	0x3cdcd495	0.026956836
204	0xbba6f2dd	-0.0050948695
205	0xbc35fb72	-0.0111073125
206	0xbd020600	-0.031744003
207	0xbca55aef	-0.020184962
208	0xbbd8797e	-0.00660628
209	0xbd625f88	-0.055266887
210	0xbd004af7	-0.031321492
211	0xbd03e0cc	-0.032196805
212	0x3c296ac3	0.010340395
213	0x3d11f839	0.035637114
214	0xba932932	-0.0011227487
215	0x3c5d8d89	0.013522514
216	0x3d7e5999	0.062097166
217	0x3ba5f4cd	0.005064583
218	0x3bbb6f76	0.0057200743
219	0x3bd447b8	0.006478276
220	0x3b6516a3	0.003495612
221	0xba8d98d2	-0.001080299
222	0x3c11e003	0.008903506
223	0xba896771	-0.0010483098
224	0xbc9b24c3	-0.018938428
225	0xbbda4543	-0.0066610887
226	0x3d1ebca4	0.03875412
227	0xbd34eb5c	-0.04416977
228	0x3cbb2def	0.022849051
229	0x3c847283	0.016167885
230	0x3cd634a6	0.026148152
231	0x3c8b3e35	0.016997436
232	0x3d501e24	0.050809994
233	0xbda1df1a	-0.07903881
234	0xbcee7f35	-0.029113391
235	0x3bf8d36b	0.0075935624
236	0x3d8cafdf	0.06869482
237	0xbc2368a3	-0.009973678
238	0x3d89e9d0	0.06734049
239	0xbcbedbef	-0.023298232
240	0xbcb20aa8	-0.021733597
241	0xbd2d5a54	-0.04232247
242	0xbcdbdcd5	-0.0268387
243	0x3bd7652f	0.0065733413
244	0x3c9f9022	0.019477908
245	0x3d88c091	0.06677354
246	0x398254d1	0.00024858725
247	0x3b0739d8	0.0020633843
248	0xbd476e8c	-0.04868941
249	0x3d1dbe64	0.03851165
250	0xbc598967	-0.013277388
251	0x3c65a5b2	0.014016556
252	0xbcfb58e0	-0.030682027
253	0xbc96a851	-0.018390806
254	0x3c877cbb	0.016538968
255	0xbc3f9a5a	-0.011694515

action_model._continuous_distribution.mu.bias f4 [2]
0	0x3cec93cb	0.028879067
1	0x3af7d561	0.0018908196
