tankresults/TestA5/SuperTank/SuperTank-999954.onnx (onnx, 547581 bytes, 13 tensors)

network_body.observation_encoder.processors.0.normalizer.running_mean f4 [6]
00000000: ed07 1ac0 dc25 3e3e 5791 84bf 8a98 193f
00000010: 6346 613e 906f 9dbf
-2.4067338 0.1856913 -1.0356854 0.5999838 0.21999507 -1.2299671

network_body._body_endoder.seq_layers.0.weight f4 [256, 6]
00000000: 5187 aabe 970b 9abe 238a c23e 420b 0c3f
00000010: 2ecc 543e 360d 22be c20c c93c e6ab 2a3f
00000020: 9a25 5e3e f483 40bf 2bac 3b3e f892 b1bc
00000030: a76c 903e 0e5f bb3d 7b81 b73e d61c 0d3f
00000040: 7f8d 6fbe 279d 2dbf 2f3a ecbe 3f96 41be
00000050: 5721 0a3f 43bc a2be 7f54 c1be 61ff 083e
00000060: 0a25 893a 06a7 9ebd 12ef 973e b646 da3e
00000070: f34c 813e e516 43bf fc22 d43e 1f3e ee3e
00000080: 6193 263e 4fcc b73d 2203 91bd 7804 bc3e
00000090: b7bd df3e 6ac6 aa3d d575 38bf 7e3b 363e
000000a0: 9700 343f 530f a63e 32f8 6a3e 5a8a fe3e
000000b0: 1c22 34bf 88ad 89bc 9376 75be d4cb c93e
000000c0: 88ee adbe 930f 893e c224 643f 0aea 5ebd
000000d0: ea5a b9be bbae b13d 3fa0 ba3e 0ac1 b7be
000000e0: 3523 6dbe d3e5 3b3f c122 303f 6ed4 a4be
000000f0: 0a7e d1bd b629 8abe f41f 193d 7cb8 2abd
00000100: 7dba 4fbf 3db1 45bf 439d 383e e38c d83e
00000110: 4ea8 683e e880 973e 0108 3fbf ce1a 9bbe
00000120: e086 2fbf 716a 9e3e 3334 38be e967 963e
00000130: 28fa 513f a877 9c3e 91b5 143f 133e cfbe
00000140: f648 6c3f d81b 8d3d b619 89bc 0b38 c13e
00000150: de9b 843e e9ee 693e 1cce b23e f39f 2a3f
00000160: edef f7be 2aed 273f c1d0 933b 8573 c3be
00000170: 6581 93be 42ae a83e 5fe6 f73c 0e74 503d
00000180: ffb7 e73e 5dc8 a93e e40c 2c3e e9dd 00bf
00000190: 6532 1e3e 36e8 913c e06b 993f 8a8d 75bc
000001a0: ccd5 dd3c e133 a2bd c343 a0bc e9ff a03e
000001b0: 88ea c33e 3ac5 b43e 77f9 213e 885d 1d3d
000001c0: 1b17 2b3e 2d22 c83e bf09 573c 74a6 e13a
000001d0: 57a4 7e3d 91f7 5bbe a118 a7bc 6cd4 d73d
000001e0: ffcf 053e a80d 663e aff0 4dbe 273d 423f
000001f0: 37c4 4a3f de22 7fbe 9e3c 103f 35a7 013f
00000200: 5868 acbe 282c bbbe 0c21 0bbe c1ea 243f
00000210: 257f 713f 257f 9e3d c200 6bbd 62c5 0ebf
00000220: 2d50 763f 14f3 873e f7ce 33bf 9722 a83e
00000230: b71f 07bf aae3 8d3e b84a 6ebc fb17 f63d
00000240: dcfd 25bf ad77 323e 4456 1dbe 2830 0e3d
00000250: 6d6a ebbe 1b93 69be 3129 3c3f 0e6f 8abe
00000260: 2ca3 f8bd c10b 3a3f 5dc3 b23e 4a95 f6bd
00000270: 8bd8 133f a750 04be 8671 893d 61ef 9b3d
00000280: f272 d63e 3e33 33be 6355 803f d68c ee3d
00000290: 522e 4d3e 9973 513e 8c23 26bd 2307 cabe
000002a0: 6545 cfbc aab6 153f e171 9c3d c75c b83e
000002b0: 9ae0 d5be 1c77 383d d5de e6be c906 6e3d
000002c0: 4f40 e6be c953 1ebe ff83 f4bb ce26 62bf
000002d0: 45fb d23e fef1 51bd 409f 953d 8ed8 35be
000002e0: 904e 083f 9594 393f 1bc3 38be 71c7 083f
000002f0: e79c df3d 86bc a9bd cf91 ecbe be6b b13e
00000300: 734f 103f aa9f 97bc 6e21 983e 00d6 843f
00000310: ce5c 7a3e 5c93 abbd ad72 8f3f 2de8 c6be
00000320: e059 34bd 504a dfbd 700a 08bf 5bf3 a6be
00000330: 42ab 3e3e 1e1b 2f3e 5cd6 ef3e 9f39 2cbf
00000340: 3c33 90be 1232 d7bd 45d6 a53e 7b44 b3be
00000350: 4a31 9abe 706a 033f 3142 76bf 9389 663e
00000360: 1bd7 e2bd 6874 1ebe b4ac 87bd 0845 733f
00000370: e07e 0f3d 3ed8 9d3e a13a 22be 24d6 53be
00000380: 4bb6 5c3d c0f7 43bf d745 21bd 3d75 d5bd
00000390: 236b a73e e2b5 683d afab 13be 69e0 e6be
000003a0: 053e 53be 06d4 d5be ccd2 4bbc fa7e 7d3e
000003b0: 8085 9b3e f235 f8bd e832 473f c3ff f3be
000003c0: 079f 583e 882c 5dbf 6d78 b9be 58ee 793e
000003d0: b9fc 02bf ecf5 693e 58eb 52bf a64e 223d
000003e0: 251c ca3e 6384 d4be 297d 0c3f 1ee5 0e3e
000003f0: ea32 0dbf 979c ff3c 2cf4 31bf f098 293f
-0.33306363 -0.30086967 0.37996015 0.5470468 0.20781013 -0.15825352 0.024542216 0.66668546
0.21694031 -0.75201344 0.18327396 -0.021676525 0.28207895 0.091489896 0.35840973 0.55122125
-0.2339382 -0.6781792 -0.4613814 -0.1890497 0.5395712 -0.31784257 -0.37759778 0.1337867
0.0010463309 -0.07746701 0.29674584 0.42632073 0.2525402 -0.7620681 0.4143294 0.4653177
0.16267158 0.08974516 -0.07080676 0.3672216 0.43699428 0.08338626 -0.720548 0.17796132
0.703134 0.32433566 0.22946241 0.4971493 -0.70364547 -0.016806379 -0.23971014 0.3941332
-0.33971047 0.26769695 0.8911859 -0.054422416 -0.36202174 0.08675905 0.36450383 -0.35889465
-0.23157962 0.7339756 0.6880303 -0.3219332 -0.10229118 -0.26984948 0.03738399 -0.041679844
-0.81143934 -0.7722357 0.1802874 0.42294988 0.22720453 0.29590535 -0.7462159 -0.30293888
-0.6856518 0.30940583 -0.17988662 0.29376152 0.82022333 0.3056004 0.5808955 -0.40477046
0.9229883 0.068900764 -0.016735893 0.3773807 0.25900167 0.22845043 0.34922874 0.66650313
-0.48425236 0.6559626 0.0045109694 -0.38174072 -0.28809658 0.32945448 0.030261217 0.05089193
0.45257565 0.33160678 0.16801792 -0.5033861 0.15448911 0.017810922 1.1986046 -0.014987359
0.027079485 -0.07920051 -0.019563561 0.31445244 0.3826487 0.35306722 0.1581782 0.038419276
0.16708033 0.39088574 0.013124882 0.0017215745 0.062168445 -0.21481158 -0.020397486 0.10538563
0.13067625 0.22466147 -0.20111345 0.7587456 0.7920565 -0.24915645 0.56342494 0.5064576
-0.33673358 -0.36557126 -0.13586825 0.64420706 0.9433463 0.07739095 -0.05737377 -0.5576993
0.9621609 0.2655264 -0.7023768 0.3283889 -0.5278277 0.27712756 -0.0145441815 0.12016293
-0.64840484 0.17428465 -0.15364939 0.034713894 -0.45979634 -0.22810023 0.73500353 -0.27037853
-0.121404976 0.72674185 0.34914675 -0.120401934 0.57752293 -0.12921391 0.06711106 0.07614017
0.4188457 -0.17500016 1.0026058 0.11647956 0.20037201 0.20454253 -0.040561244 -0.3945857
-0.025301645 0.5848185 0.07638908 0.36008283 -0.4177292 0.045035467 -0.45091882 0.05811194
-0.4497094 -0.15461649 -0.007462024 -0.8834046 0.41207328 -0.051256172 0.07305765 -0.1775839
0.53244877 0.72492343 -0.18043177 0.53429323 0.109185986 -0.08287911 -0.46204993 0.34652513
0.5637123 -0.018508751 0.29713005 1.0377808 0.24449465 -0.08377716 1.1206871 -0.3884901
-0.044031024 -0.10902846 -0.53140926 -0.3260754 0.18620017 0.17100188 0.4684323 -0.6727542
-0.2816409 -0.10507597 0.32390037 -0.35013184 -0.3011573 0.51334286 -0.9619475 0.22513418
-0.11076184 -0.15474093 -0.066247374 0.9502721 0.035033107 0.30829042 -0.15842678 -0.20687157
0.053884786 -0.7654991 -0.039373245 -0.10422752 0.32698926 0.056814082 -0.14420961 -0.45093086
-0.20629127 -0.41763324 -0.012440395 0.24755469 0.3037529 -0.12119664 0.7781205 -0.47656068
0.21154414 -0.86396074 -0.3622469 0.24407327 -0.51166874 0.22847718 -0.82390356 0.039625786
0.39474598 -0.41507253 0.5487848 0.13954589 -0.55155814 0.031202598 -0.695132 0.6624899

network_body._body_endoder.seq_layers.0.bias f4 [256]
00000000: 6c54 8dba e944 8c3c 5b24 c4bc 4f74 013d
00000010: 1ac8 2e3d 6101 aa3c b516 4e3b a19e 8fbc
00000020: 8c8e 1e3d 2266 973d 7539 bd3d f33f 703c
00000030: e0f9 98bc debf 863d 654e 6abd fc23 873a
00000040: 9861 4abd 0352 98bc 3cab e6bc bde0 cabd
00000050: eed7 a2bc da4c 33bc 6760 c5bc 61e6 633d
00000060: c41f 863c 3ccf a6bc 35fe 883d 1af6 693c
00000070: a221 b2bc 63ca 8e3d 0f02 94bc 4bd5 483c
00000080: 9c1d 01bd 46d7 fd3c d37f 8dbc 704c 283c
00000090: 6fef 843d c498 07bd a743 0b3b f381 b8bc
000000a0: 603b 8c3d baf7 aa3c 2d96 093d fccd b73d
000000b0: 366b 163d 8973 993c f0cf 873c aeb7 f8bc
000000c0: 9e07 a03d f164 223b 7d1b 30bd b72a 7abd
000000d0: 93cb 5fbc 875b 98bc f20a d33d 5b91 9b3d
000000e0: 097e b038 f285 afbc 2116 d9bc bd0f 583d
000000f0: 5a24 da3a d846 53bd 392e 13bd edcf d63c
00000100: 6bab 80bb 8afc a33c f363 013d 149e 9d3b
00000110: 126f 323d 3434 b0bc 7965 623c 2369 09bd
00000120: 47ad d33c e9da d73c 3044 253d 5cef e9bc
00000130: ec5e 7abd 462a 28bd 9093 70bd c9c7 28bd
00000140: 91e4 47bc 54e8 843c 2c23 87bd 0de1 993d
00000150: c283 683c 083f 1cbd 2103 c73d d2fd 15bc
00000160: bed0 0d3d 47a6 06bd d723 70bc 6d6e 693d
00000170: fed2 de3d 1f44 5c3d 9169 d13d affe e43b
00000180: 0bb3 403c c84e 99bd 3059 4139 ac8e c0bc
00000190: 9c0c a93d 9a86 733d be2f 843d 0200 a03a
000001a0: e2c1 32bd df10 c8bb 9a85 8d3d 60ca dd3d
000001b0: f932 ee3c e49d 86bc d746 c83c f9dd 25bc
000001c0: d49d a03d 7992 323b 21c9 78bd 2aa6 263d
000001d0: b586 da3c 0512 263c b060 bf3d 7881 a3bb
000001e0: 6386 163d 0df5 8d3d 45a4 43bc 4f81 b13d
000001f0: 5793 c33d 369b b03d 7d75 823d 045c 8c3c
00000200: c722 36bc bc37 403d dbbd 083d edd5 52bb
00000210: c37b 863d 4611 123d e6e9 4bbc 4858 d53c
00000220: 6c30 383d 5b7a 21bc 5256 68ba 087c 11bc
00000230: da5e debc 07c8 44bc e5e9 46bd f055 0cbd
00000240: 9bbc 983c 2ba5 68bc 4085 9e3b af13 9e3c
00000250: 970f 453c 718d 7dbd 4299 033d fd6c 953c
00000260: a13e 373c 1e9b 1bbd eec6 d43c db16 a63d
00000270: 3b8a 753d 388c 573c 52ea 53bd ac44 38bb
00000280: d31e 003e 9e8e a73c 5de7 9c3b 122d c43b
00000290: 606c c73c 2996 3b3d d638 71bb fed1 323d
000002a0: d3de 2cbd 8e52 2a3c 7f84 563d 3daa 743c
000002b0: 0f51 9b3d 4cfc 1d3d e6d2 2f3d f03b 823d
000002c0: d7db af3d a27c cd3d 36c8 2d3b b9da c83b
000002d0: bd7c 573d 6027 5d3d ecb5 41bd d339 2fbc
000002e0: 9bc0 c33d 4c2f f4bb d03d e23d 61fb 9b3d
000002f0: 4c9f 833d 4c74 30bc 9016 8fbc 1480 433d
00000300: 7345 673d 6107 6a3d 2a3c 32bd dd1f 023e
00000310: add7 da3c de89 723d 347e 023c 2606 4fbb
00000320: daf0 923c 72a9 17bd 4fa6 bb3d b0d5 193c
00000330: 5dcb b23d 7721 5fbc f531 713b c8d0 7d3d
00000340: 4adb a1bd ff81 ac3c 8323 86bc 6521 fc3c
00000350: f401 82bd 62f7 02bd 0bfa d23b bb48 26bd
00000360: ce55 42bd 1c4d a83c b2b3 4d3d cbee 06bd
00000370: 68c6 17bd ea0b 2a3d 08d0 123c 9901 db3c
00000380: 4994 76bd fe27 19bc 21bb 6fbc 2c81 113c
00000390: bee6 093d 278d 17bd c1f3 b93c 32a7 543d
000003a0: c29a 7dbb 2bee a7bc ca94 463d 7b15 2abd
000003b0: b0e0 86bc a8c8 bc3c 3758 8ebd 3762 433d
000003c0: 09d6 883d 1627 a3bc e04f b43c c53c b3bd
000003d0: 3611 683c d3f7 c43c 92ce 63bd 986b a43d
000003e0: 476c ae3c c791 6b3d 7fea 3c3d b623 0f3d
000003f0: ca9a d2bc 9d94 073b 138e d03c ff55 9f3d
-0.0010782606 0.017122703 -0.023943117 0.03160506 0.0426713 0.02075261 0.003144664 -0.017531695
0.038710162 0.07392527 0.09239475 0.014663684 -0.018673837 0.065795645 -0.05720367 0.0010310407
-0.04940948 -0.018593794 -0.028157823 -0.09906147 -0.019878354 -0.010943616 -0.02409382 0.05563963
0.016372569 -0.020362489 0.06689111 0.014279867 -0.021744553 0.06972196 -0.018067388 0.012257884
-0.03152238 0.03098644 -0.017272865 0.01027213 0.06490981 -0.033104673 0.002125004 -0.022522902
0.068472624 0.020870078 0.033590484 0.08974835 0.036723338 0.01873185 0.016578645 -0.030361023
0.07813953 0.0024779404 -0.042994965 -0.061075892 -0.013659376 -0.018598331 0.10304822 0.07596084
8.41581e-05 -0.021426175 -0.02649981 0.052749384 0.0016642914 -0.051581234 -0.035932753 0.026222194
-0.0039266846 0.020017881 0.03158946 0.004810104 0.043562956 -0.021509267 0.013818138 -0.03354753
0.025839461 0.026349502 0.04034823 -0.028556518 -0.06112568 -0.04105594 -0.058734477 -0.041206155
-0.012200491 0.016224064 -0.065985054 0.07513628 0.01419157 -0.03814605 0.09717394 -0.009154754
0.0346229 -0.03287342 -0.014656982 0.056990076 0.10880087 0.053775903 0.10225213 0.0069883685
0.011761437 -0.074857295 0.00018439139 -0.023505531 0.08254358 0.059454538 0.064544186 0.0012207034
-0.043641932 -0.006105527 0.06910248 0.108296156 0.02907704 -0.01643271 0.024447842 -0.010123723
0.07842603 0.002724795 -0.060738686 0.04068581 0.026675561 0.010136132 0.093446136 -0.004989799
0.036749255 0.06931505 -0.01194102 0.08667242 0.09549587 0.08623354 0.06370065 0.01713372
-0.01111669 0.046928152 0.033384185 -0.0032170967 0.065665744 0.035661004 -0.012445902 0.026043072
0.044968054 -0.009855832 -0.00088629604 -0.008879669 -0.027144838 -0.012010581 -0.048562903 -0.034261644
0.018644622 -0.014199535 0.004837662 0.019296495 0.012027643 -0.061902467 0.03212858 0.018240446
0.0111843655 -0.03798973 0.025973763 0.08109828 0.05994628 0.013155989 -0.051737137 -0.0028117104
0.12511759 0.020453747 0.004788323 0.005986818 0.02434367 0.0457975 -0.0036807558 0.043657295
-0.04220469 0.010395659 0.052372452 0.014933166 0.0758382 0.038570687 0.042925738 0.063590884
0.08586853 0.100335374 0.002651704 0.0061295894 0.052609194 0.05399263 -0.047292635 -0.010694939
0.09558221 -0.0074519273 0.11046946 0.07616306 0.06426868 -0.010769915 -0.017466813 0.047729567
0.056462716 0.057135943 -0.04351441 0.12707467 0.02671417 0.05921351 0.0079646595 -0.0031589358
0.017937113 -0.03702683 0.0916258 0.009389326 0.08730195 -0.0136188185 0.0036803458 0.061966687
-0.07903154 0.02105808 -0.016374355 0.030777643 -0.06348029 -0.031974204 0.006438499 -0.040596705
-0.04744511 0.020544581 0.0502202 -0.032942574 -0.03705445 0.04151527 0.008960731 0.02673416
-0.06020001 -0.009347914 -0.014632017 0.008880895 0.03366732 -0.036999848 0.022699239 0.051917262
-0.003869698 -0.02049931 0.04848174 -0.04152439 -0.016464561 0.0230449 -0.069504194 0.047701087
0.06681449 -0.019916099 0.022010744 -0.08751825 0.01416426 0.024043953 -0.055616923 0.080283344
0.021291865 0.05751207 0.04612207 0.034946166 -0.025708575 0.0020687946 0.025458371 0.07780074

network_body._body_endoder.seq_layers.2.weight f4 [256, 256]
00000000: 8b10 d03c 02a2 0bbd 7fe0 e33c 41f2 f6ba
00000010: eed0 f8bd 3b8f 43bd 93c6 bf3c 2968 66bd
00000020: 96ba 7abc c82e 883d f762 c2bb 258f 7fbd
00000030: db91 1d3a b395 b6bd 6e0d 89bd c26b 213e
00000040: bdeb be3d eb9a 05be 1300 a3bd c1e9 82bd
00000050: e238 bb3b b1cc b9bd ea73 b53d 3ed0 8b3d
00000060: 11f6 6a3d d9ea 6e3d f5a0 42ba 3a91 a33d
00000070: b8a8 ca3c ea8f 6d3d 595d 4dbd c5d2 90bd
00000080: 2ad2 08bd 8c34 8cbb 5403 abbd 3827 a2bd
00000090: be78 90bd f716 09bd 2ef6 80bd 0370 4a3e
000000a0: 6e96 1abd ab9a 23bd 3c14 aa3c 4b2d c43c
000000b0: 3df3 bebd 9eec 54bd b9bf e13d d0b2 203d
000000c0: 0d13 883c d1c1 61bd faba 713d 967e fc39
000000d0: 59cd b6bb 4640 a63d dc4b 9cbd 69dc 223e
000000e0: 60e6 37bd 4e99 853c 3429 0ebd c9b8 7f3d
000000f0: dd15 43bb c059 273d df65 8ebd 4567 56bc
00000100: bc7c 9fbd 1153 903d 8212 053d f8d6 643c
00000110: 090c 023d 5b6f 32bc 1bb1 fdbc 3887 c83b
00000120: cf44 2fbd 731e 9f3d 8f15 c1bd 1dd2 0e3c
00000130: 7d96 bcbd ba8f 03be 21ec 43bd 8d7d 8a3d
00000140: 79b2 abbd 06d5 9ebb a8ff 29bd 0da6 c7bd
00000150: e63f 6ebd 26fb 81bc e496 54bc 2a82 c83c
00000160: dd21 0f3d c213 0a3d fa83 4abc ffb5 f43c
00000170: 15cc 02bd 567b c6bc cce1 093c 8095 2b3d
00000180: a362 b93b 6af1 c53d 2d24 b33d decd 7ebd
00000190: b5b5 84bd f523 49bc 2e88 89bc dd22 44bd
000001a0: 07a3 1dbd 0807 053e 820d 95bd 34d5 88bc
000001b0: eb84 85bd 1a87 ec3c 6aa6 c2bc e37d ab3d
000001c0: 518f 12bd 6aec 57bd 9aaf 223d 13fd f83b
000001d0: 5ab5 00bc eadc 67bd 10a5 3b3d 025d 8e3c
000001e0: 3a35 a33c 32f6 9f3d 9bbe 5bbd 7b64 d03a
000001f0: fdd0 06be 57ef 133c fa79 e23c c532 0a3d
00000200: f577 1bbc 892f a4bd 6460 2bbc 3661 eabd
00000210: a254 a23c 4d3d c1bd 2665 72bd bc11 19be
00000220: bda7 01be 7cce 8c3d 8270 ab3c 1518 d1bb
00000230: ebd5 0c3d 3944 e9bc 3748 863d ba5e 0d3d
00000240: 4874 c2bc e22d ec3c 7666 2fbd 6798 88bd
00000250: db57 eebd e271 8cbd 747b c43c 7099 613c
00000260: a021 863d 040d 7abd e8de 6c3c d332 89bd
00000270: 7e93 aabd 97e9 18be c072 b73c 9c3f 343d
00000280: 4934 6cbd 97c5 f2bd 5c8f 4bbd 0397 a23d
00000290: af65 ba3d 9c8f b43c da79 45bd ddf3 11bc
000002a0: d8fa d73d 46f6 7d3d 9267 acbd 4aa3 55bd
000002b0: e5ca 3d3d 7f48 973d 9b8f d6bc 7b0a b23c
000002c0: b03c f0bc 1127 e0bb 44c6 33bd cdea 393d
000002d0: 3735 433c faad c8bd 6441 8cbd 6d99 debc
000002e0: 6c50 a9bc 87d7 e83c ed0e b3bc 731d 813d
000002f0: 0e8c 0a3c d27b 2ebc 6c3d 9c3d b603 9b3c
00000300: 8a5d 24bd ee8e 0c3d 4c01 143e 16bf afbd
00000310: e0ae ac3d 46c1 6cbb 65a7 533d 436a d53b
00000320: 1a3f 133d 900c dfbd 052e fe3c 6db0 87bc
00000330: dc41 eebc 8ec5 bbbd dde8 cb3b 08ce 013d
00000340: 9ce7 efbd 2d2f ab3d cc3b 81bc ca9b 30bd
00000350: 8f58 88bd 1953 a8bd 9410 eebc dbd1 0abe
00000360: 28a7 733c 4940 19bd 8a04 863d 00e6 9c3b
00000370: 7797 b0bd dab6 713d dfc1 d03c 5ed8 373c
00000380: 6c58 86bd 9873 3fbd 0af5 91bd 2dfe 433b
00000390: cd0c 65bd 5ade f13c 38dd a23c abbb 653d
000003a0: 0acf 3dbd fbf5 963c 2058 223d 7e57 0dbd
000003b0: 18f2 1bb9 91ae 2abd f96b d7bc 2573 fc3b
000003c0: d738 42bd d7eb 82bc 9d19 933d 6a6e 673c
000003d0: fa52 a2bd 24ef 25bd 389b 583d b30f 0ebe
000003e0: ff34 24bc a9c3 293d fc97 aabc e72d 61bd
000003f0: 0bb2 043e d654 8439 03c1 de3d 9692 88bd
0.025398513 -0.03409005 0.027817009 -0.0018840508 -0.12149225 -0.047744017 0.023410117 -0.05625168
-0.015303275 0.06649548 -0.0059322077 -0.062392373 0.0006010809 -0.089152716 -0.06692015 0.15763763
0.09322307 -0.13047378 -0.079589985 -0.06392241 0.005713568 -0.09072245 0.088599995 0.068268284
0.057363573 0.058329437 -0.0007424497 0.07986684 0.024738654 0.057998575 -0.05013785 -0.07071451
-0.033403553 -0.004278725 -0.08350244 -0.07917637 -0.0705428 -0.033469167 -0.06296955 0.19769292
-0.037741117 -0.039942425 0.020761602 0.023947379 -0.09323738 -0.05198347 0.11022896 0.03923303
0.016610647 -0.05511648 0.059016205 0.000481595 -0.0055786786 0.08117728 -0.076316565 0.15904392
-0.044897437 0.016308453 -0.034707263 0.062432084 -0.002976767 0.040857077 -0.06953024 -0.013086145
-0.07787463 0.07047094 0.032488354 0.013967268 0.03174976 -0.010890807 -0.03096824 0.006119635
-0.04279023 0.077694796 -0.0942794 0.008717087 -0.09208391 -0.12847796 -0.047832612 0.06762228
-0.0838365 -0.0048471717 -0.04150358 -0.097484685 -0.058166407 -0.015866827 -0.012975428 0.02447613
0.034944404 0.03371025 -0.012360567 0.029871939 -0.03193291 -0.024228733 0.008415651 0.04189062
0.0056575104 0.09665187 0.08747134 -0.06220805 -0.0647997 -0.012276639 -0.016788568 -0.04788481
-0.038485553 0.12990963 -0.07277967 -0.016703226 -0.06519493 0.028873015 -0.023760993 0.0837362
-0.03578121 -0.052715696 0.039718248 0.007598528 -0.007855738 -0.056607164 0.045811713 0.017378334
0.019922841 0.0781063 -0.053648572 0.0015899086 -0.1316566 0.009029231 0.027646054 0.033739824
-0.009489049 -0.08016879 -0.010459993 -0.11444323 0.019815747 -0.0943552 -0.059178494 -0.14948171
-0.12661643 0.06875321 0.020927671 -0.0063810446 0.034383696 -0.028474914 0.06556743 0.034514166
-0.023737088 0.028830472 -0.042822324 -0.066696934 -0.11637851 -0.06857659 0.023984648 0.0137694925
0.06549382 -0.06104757 0.014457442 -0.06699147 -0.08328913 -0.14932857 0.022393584 0.044005975
-0.05766705 -0.118540935 -0.049697265 0.079389594 0.09101426 0.022041135 -0.04821191 -0.008908239
0.105458915 0.062002443 -0.08418192 -0.052157678 0.046336073 0.073868744 -0.026191523 0.021733513
-0.029325813 -0.0068405946 -0.043890253 0.04538994 0.011914543 -0.097988084 -0.0684841 -0.027172768
-0.020668231 0.028423084 -0.021857703 0.06304445 0.008456243 -0.010649638 0.07628903 0.018922668
-0.04012827 0.034315996 0.1445362 -0.085813686 0.08431792 -0.0036125942 0.05167331 0.0065129115
0.03594885 -0.10891068 0.031027803 -0.016563619 -0.029084139 -0.0916854 0.006222828 0.031690627
-0.11714098 0.083586074 -0.015775584 -0.043117322 -0.06657516 -0.082189746 -0.02906064 -0.13556616
0.014871396 -0.037414823 0.065438345 0.0047881603 -0.086226396 0.05901227 0.02548307 0.01122102
-0.06559834 -0.0467411 -0.071268156 0.002990614 -0.05592041 0.02952497 0.019880876 0.056087177
-0.046340026 0.01842784 0.039634824 -0.034507267 -0.00014872139 -0.041670386 -0.026296603 0.007704156
-0.047417488 -0.015981598 0.0718262 0.014125446 -0.07925983 -0.040511265 0.052882403 -0.13873176
-0.010022401 0.04144636 -0.020824425 -0.054975417 0.12958543 0.0002524021 0.10876658 -0.06668584

network_body._body_endoder.seq_layers.2.bias f4 [256]
00000000: 5633 a3bc 9313 9e3c 470e 313d 59c2 5b3d
00000010: 3a30 cbbd 287b 08bd 8faa d1bc c751 88bd
00000020: cb55 3dbc 87ba 01be c9b4 0e3c 2843 c8bd
00000030: 22b5 8a3c f026 0fbc e652 d1bc d508 cfbb
00000040: 4070 fc3c 416d 873c 2905 3b3d 22c9 aebc
00000050: 7bf0 45bc afbb 293d c812 1cbc 642e 3a3c
00000060: c945 e03c 3df4 293c ee2c 8c3d 5582 513c
00000070: 60cf bf3d e97e cebc 01d8 033d 7b34 c63c
00000080: f723 30bc 3f43 6b3d d71a 193d e728 a53b
00000090: 9dae b63b af43 da3c e728 4ebd 1725 7ebd
000000a0: d173 593c d19c 9b3c daa9 833c abb1 e6bd
000000b0: 92e9 0f3d 6574 8e3c db50 2cbb b736 1f3d
000000c0: 7ecf 90bd 3a9e a5bb b9bf 51bd 82ae a73d
000000d0: dd93 b1bd 3788 c7bc 040b cfbd 25d1 113b
000000e0: 31ae e6bc 468f c2bd 961c 25bd ad54 c43c
000000f0: 4001 643d 197b 323c fd9e 3a3d df42 f6bc
00000100: b5d9 f2bc f68f 803d 66e9 2b3d 7201 dfbb
00000110: dace efbb b01a 91bb 4cf7 8ebc 7f7b 393d
00000120: 6d69 92bd b7a3 933c eda5 8f3d 10b0 e83c
00000130: 7619 bf3c 25ba c93b ad84 4fbd be26 e4bc
00000140: 6268 413d 2af6 813c c699 83bd e795 d5bc
00000150: 5f14 9ab9 6c57 133d 9036 cfbb eecc 853d
00000160: 35ef 81bc 32e4 b23d 203b dbbd 9c16 7b3c
00000170: 2957 a73c b5ad 9cbc 36d4 df3c f1d1 433b
00000180: 5b78 04bd d6aa 213d f061 313c fd69 053d
00000190: 6fbe e13c 1efe ca3c 933a 00bd f891 21bd
000001a0: 401e 9bbd 5f54 39bc 45c4 cdbc fc86 a73b
000001b0: 33e9 31bd 4aed 8bbb cdb2 e339 976c 533b
000001c0: ad3b b4bd 48c8 1e3d 1702 5abd 8182 083d
000001d0: 73b5 f53c fd2d 20bc c1fc 773b 52c6 8fbb
000001e0: c6d9 9e3d fbd0 9a3c 9653 24bd 6519 2c3d
000001f0: 8850 6fbc ec2d f9bc 9c75 e7bb 7095 633d
00000200: e604 95ba 521a 82bc 6291 0d3d 4af6 2f3d
00000210: ddbf d6bc 4db8 ca3b 871c c7bc 44e3 d23c
00000220: 250e 253b 0e1f 89bc 6ed4 c2bb b5ba 343d
00000230: 2ce8 2abc 4d40 e1bc c856 0cbb 73d4 a0ba
00000240: 2fba bf3d 862a 1bbd 2b7d 353d cda1 aebd
00000250: bece 61bc 8ba0 d5bd 095e 2fbd 00f0 423d
00000260: d39f a8bc b23f 82bd bbe0 94bd dfae ad3d
00000270: 25aa 98bd 4965 c33b d92d 903c c626 2dbd
00000280: b250 1bbd e086 383c c880 f63c d2e2 f63a
00000290: 549f 0c3b 7228 243d 0718 323d 523f 723c
000002a0: 41c9 0cbc caf6 96bc f7f5 903c 6cd7 323d
000002b0: f805 da3b 91a3 5a3d fdec 89bb 952a 133d
000002c0: 2f55 eb3b e6da d2bc ef80 123d b628 123c
000002d0: 5468 7b3d 52c5 633c 7c1b de3c 6589 3b3c
000002e0: f1b8 ec3a be1e bebd 1639 193d d78c 17bb
000002f0: caa0 37bc 5fd2 603d 551a 283c 8feb 803c
00000300: 286a 2e3d ffb4 423d 44fb 23bd 603e 9ebd
00000310: bd11 433c 8117 f33c a995 773c 7ab6 163b
00000320: e361 963d 20a9 113c 3e9d 5e3d 5b6e 7e3c
00000330: 533c 04bc 1d3d 90bc df7f b0bb 4156 1abd
00000340: c9da b0bc 2f22 fa3c 449f da3b 9d34 cabd
00000350: cd81 62bd da1f 703c 171c 06bc 026f d6bd
00000360: c14e 013d 6c4e e9bd 5af6 093c 3210 97bd
00000370: 303e 20bb 1993 533d 981d bfbc 656c df3c
00000380: d5eb 32bd b97c 06bd a140 03bd 5e3d 453d
00000390: 8a66 febc 3f2b aa3c 2adc 53bc 5961 cebd
000003a0: d63a 71bd 703a 1ebd bae2 9a3a 9abf 9abd
000003b0: 8d6c 063d e9b9 2a3d 6d81 4c3d 0b76 643d
000003c0: b56e dcbc 95cb 0cbc 8b8f de3c 5b09 573d
000003d0: 0e2d 253d 246f ca3c ea44 a9bc 6171 2a3c
000003e0: 42be 543d 0bcd fdbc 7952 3abd 1165 f63c
000003f0: bf36 a33c be6b 823c 2da6 7b3c 5688 c3bc
-0.01992194 0.019296443 0.043226507 0.05365214 -0.09921308 -0.033320576 -0.025594024 -0.06656223
-0.011556099 -0.12668811 0.008710095 -0.09778434 0.016932074 -0.008737311 -0.025552224 -0.0063181915
0.030815244 0.016531589 0.045659218 -0.021336142 -0.012081261 0.041438755 -0.009525962 0.011363599
0.027377026 0.010373172 0.06844507 0.012787421 0.093657255 -0.025207 0.03218842 0.024194947
-0.010750762 0.057437178 0.037379112 0.0050402763 0.0055750147 0.026643602 -0.050331976 -0.06204709
0.013272242 0.018995674 0.016072202 -0.11264356 0.03513486 0.017389486 -0.002629331 0.03887054
-0.07070826 -0.0050542625 -0.05120823 0.081875816 -0.08670781 -0.024356944 -0.10109523 0.0022249904
-0.028159233 -0.094999835 -0.040310465 0.023966158 0.055665255 0.010893607 0.04556178 -0.030061183
-0.029644826 0.06277458 0.041970633 -0.006805592 -0.00731836 -0.00442823 -0.017451905 0.04528379
-0.071490146 0.018022401 0.0701407 0.028404266 0.02332757 0.0061562234 -0.05066364 -0.027850505
0.047218688 0.01586445 -0.06425814 -0.026072456 -0.00029388347 0.035972044 -0.006323643 0.06533228
-0.015861133 0.08734931 -0.107046366 0.015325215 0.020427303 -0.019125799 0.02732287 0.0029879774
-0.032341342 0.039469562 0.010826573 0.03257178 0.027556626 0.024779376 -0.03130586 -0.039445847
-0.07574129 -0.01131162 -0.025118003 0.005112527 -0.043435287 -0.0042702304 0.0004343003 0.003226077
-0.08800445 0.03876522 -0.05322465 0.033327583 0.029993748 -0.009776589 0.0037839862 -0.0043876553
0.07756381 0.018898478 -0.040118776 0.042016406 -0.0146066025 -0.030417405 -0.0070635807 0.055562437
-0.0011369258 -0.015881691 0.034562476 0.04295949 -0.026214534 0.006186521 -0.024305595 0.025743134
0.0025185433 -0.01673844 -0.0059457337 0.04412337 -0.010431331 -0.027496481 -0.002141403 -0.0012270346
0.093616836 -0.03788235 0.044308823 -0.08526955 -0.013782201 -0.10431012 -0.04281429 0.047592163
-0.020584023 -0.06359805 -0.072694264 0.0848062 -0.074543275 0.005963002 0.017599987 -0.042273305
-0.037918754 0.011262625 0.030090705 0.0018835908 0.0021457272 0.040077634 0.043479946 0.014785605
-0.008592905 -0.018428225 0.01769541 0.043662474 0.0066535436 0.053378645 -0.0042091594 0.03592928
0.0071817855 -0.025739145 0.035767492 0.008920839 0.061378792 0.013902025 0.027112715 0.011446332
0.0018060488 -0.09283207 0.037407957 -0.0023124719 -0.011207769 0.054888126 0.010260184 0.015737323
0.042581707 0.047535893 -0.040034547 -0.07726741 0.011906085 0.029674293 0.015111365 0.0022996948
0.07342889 0.00889042 0.054349177 0.0155292405 -0.008071023 -0.017607266 -0.005386337 -0.037679914
-0.0215887 0.030533878 0.006671818 -0.098733164 -0.05529957 0.0146560315 -0.008185408 -0.10470392
0.031569246 -0.11391911 0.008420551 -0.07376136 -0.002445113 0.051653955 -0.023329541 0.027273366
-0.04368194 -0.03283379 -0.032044057 0.048154227 -0.031054754 0.020772574 -0.012930909 -0.10077161
-0.058894 -0.03862995 0.0011816837 -0.07556076 0.032818366 0.041681204 0.049928118 0.055776637
-0.026908258 -0.00859346 0.027168056 0.052499156 0.04032617 0.0247112 -0.020662744 0.010403008
0.051939256 -0.030981561 -0.04548881 0.03007749 0.019923566 0.015920516 0.015359444 -0.023868721

network_body._body_endoder.seq_layers.4.weight f4 [256, 256]
00000000: 8165 2a3d 8f5f 73bd fc95 5cbd 5fcf 02be
00000010: a1cc 3abd 91a7 433d 4ba3 8b3d d20d a73d
00000020: ed93 9bbd 1b00 88ba 7cc8 29bd 0566 873d
00000030: 98a6 ab39 c93f babc 0de5 8f3c b973 4d3b
00000040: d750 a4bd 33e4 1c3c 4fc4 b4bd 08c6 793c
00000050: 60d4 ea3d becf 213d 51e2 4ebd 0552 9abd
00000060: f862 02be 7bed 313a a9ff 3b3d 74f3 a23d
00000070: be86 2b3d 7c77 063d 5513 773d e7bd 073d
00000080: 957b c1bd 1153 06bd 7b57 6a3d dbcf 933d
00000090: 0182 89bd de41 3cbe 36b4 a4bd 550f 67bc
000000a0: d15c 2fbd b4e4 573d 402f 23bd ead5 d33d
000000b0: c582 87bb e030 91bb cd3f 3ebd c909 3bbd
000000c0: 4bb1 fc3b 2c56 ea3d fab2 c33d dc6f f6bc
000000d0: 5481 9f3d afb4 a3bd 7e20 013d f51e fabc
000000e0: e011 9e3d f1f2 7a3d 727f e43d 7b69 b0bd
000000f0: d80e 2e3c 0f96 c63d 843f 37bc 4d97 843b
00000100: 3bc4 f03b c26f 3dbd 149b 1c3c 454c c43d
00000110: 04f7 083d 891f eebd 5405 d9bc 4f86 103e
00000120: 833e 31bc 93d3 373e 5096 eabc c5d8 24bc
00000130: 5304 90bd 2d14 903d 0712 d3bc 006c c33c
00000140: 8bcd abbd f569 7abd 5d57 a43c 390b d139
00000150: 66d0 a33d f40b a73d 85de 56bd affe c3bc
00000160: 530e ae3c dd70 b93d 48fe ab3d 758c 71bd
00000170: 01a3 a5bc 84f0 37bd 7b06 3a3c 02cf 7bbd
00000180: 5807 013c 5260 3dbc a9f1 21bd b76c 293c
00000190: a10e 9f3b ce2a 17be 0f05 a03b 59e1 12bd
000001a0: 7a8a 363d 2e5e 24bd a636 bc3c 18f0 f1bd
000001b0: c8a2 5f3d 2f4a 9bbd 85de a5bd 2334 5f3d
000001c0: 0020 7b3d 2ce4 88bd e5e4 c13b aa1c a33d
000001d0: 4567 d63b 9add b43d 2457 21bd a8c5 e33c
000001e0: 8b75 1cbe 8fdd 863b a3cf 1d3c 4c09 6e3d
000001f0: 6c8e 933d 48ce c13c 7f99 24bd 4ef4 d8bd
00000200: ed13 5e3d 14bc f1bd ed19 26bd 2104 2bbd
00000210: 5e53 54bd 6745 823b 21f3 95bd cbe4 873d
00000220: c278 67ba 88f2 8abc 9725 be3d 50bf aebd
00000230: 2ed5 05be 0a21 bc3c a6af 0d3d 7c0e c13c
00000240: 3e90 babc 360d 6bbd 88a1 6bbd d095 823d
00000250: 5f3b a13b 08ac aebd b314 91bd ae55 c0bd
00000260: 51f5 f63c cddf 483d 50f7 a23d 9369 19be
00000270: cbec 153d 66ee 95bd cf55 edbc 23e6 abbd
00000280: e9e1 d7bb 6603 c4bd 6e1a 973c fbca dbbc
00000290: f8b8 633a 375e 10be bec9 97bd 0ef6 da3c
000002a0: fb2d 3d3d 00b5 393d ac6f 893d 7f89 57bc
000002b0: a024 003d 4c7f 83bd 9c2e e6bd 1591 22be
000002c0: 7bf9 aebc 2fb2 3cbc cd2f b93c 86ff 193d
000002d0: 11b5 6dbd 686b 553b d8d4 f1bc 1c69 abbd
000002e0: af77 5cbc 26a7 fd3d ba74 c13d 4831 7fbd
000002f0: c306 b0bb ebb9 afbd 9bdd 2f3d 0231 1e3d
00000300: dec9 bbbd 00ac b2b9 75f8 953d 1b9b d1bc
00000310: c2a2 23bd cdb6 10bd 6e19 0f3e 6e77 b9bc
00000320: 134b 6a3d 0281 273c fc20 9cbd 0eb8 b93a
00000330: 480a a2bc 0f01 f6bc eb45 73bd 6b4e 16bc
00000340: 9553 b7bd 58a2 52bd 84fa 39bd 5f78 fe3b
00000350: 0cda bb3d 5555 8b3c 8bcb 0cbd f958 383d
00000360: 4b99 b5bd 2f72 2fbd 4675 ff3d e610 fbbc
00000370: 573b 1f3e 0ecd b33a 7a4d 44bd 7cb5 423d
00000380: 0b94 b3bd bb63 8dbd 0156 1f3d dadc f63c
00000390: 11d9 e33c dcfa 0ebe 4f85 e63b 9010 113d
000003a0: 4754 d03d 60fe 1e3b 2c82 d4bb af98 0a3e
000003b0: a708 883d 7a55 32be cc38 b5bc 327e 69bd
000003c0: 7c7b 783c 1b6f 9c3c 25f6 a93d 34d7 ecbd
000003d0: 9030 06bd a121 39bd e526 50bc 061f 0c3d
000003e0: 7a26 31bd f54f d43b cb3b 7fbc f964 973a
000003f0: 4e36 5ebd 8905 e2bb 354d ac3d 5006 a23d
0.041600708 -0.059417304 -0.053853974 -0.12774418 -0.045605306 0.047767226 0.06818255 0.08156933
-0.07596574 -0.0010376008 -0.041450962 0.066112556 0.00032739784 -0.022735493 0.017565275 0.0031349494
-0.080232315 0.009575891 -0.088265054 0.015244968 0.114662886 0.03950476 -0.0505088 -0.07535175
-0.12733066 0.00067874015 0.045898113 0.07956591 0.041876547 0.032828793 0.06032117 0.03314009
-0.094473995 -0.032794062 0.057212334 0.0721738 -0.067142494 -0.18384501 -0.08042185 -0.014102777
-0.042813126 0.052708343 -0.039839983 0.10343535 -0.004135462 -0.004430875 -0.046447564 -0.04566363
0.0077115647 0.11442217 0.095556214 -0.030082636 0.07788339 -0.07993447 0.031525128 -0.03053234
0.07718253 0.061266843 0.11157121 -0.08613869 0.010623656 0.0969659 -0.011184577 0.004046357
0.0073476112 -0.04624916 0.009558458 0.0958486 0.033438697 -0.116271086 -0.026491798 0.14113735
-0.010818127 0.17951803 -0.028636128 -0.0100614475 -0.07032075 0.07035098 -0.025765432 0.02385521
-0.083888136 -0.061136205 0.02006119 0.00039871948 0.07998733 0.08156577 -0.052458305 -0.023925154
0.021247065 0.0905473 0.0839811 -0.05897184 -0.020219328 -0.044907108 0.011354084 -0.061476715
0.007875286 -0.011558609 -0.039537106 0.010340861 0.004854039 -0.14762422 0.0048834155 -0.03585944
0.044565655 -0.04012888 0.022975277 -0.118133724 0.0545986 -0.07582509 -0.08099083 0.05449308
0.061309814 -0.06684145 0.005917179 0.079644516 0.0065430724 0.0883133 -0.039389744 0.02780421
-0.15279214 0.0041157673 0.009632024 0.058114335 0.07204899 0.023657933 -0.040185448 -0.105934724
0.05421822 -0.11803451 -0.04055207 -0.041751985 -0.051837318 0.0039755586 -0.07321764 0.06635436
-0.0008829945 -0.016961351 0.092845134 -0.08532584 -0.13069603 0.022964973 0.03459134 0.023566477
-0.022773858 -0.057385646 -0.057527095 0.06376231 0.0049204077 -0.08528906 -0.07084026 -0.09391342
0.030146273 0.049041558 0.07957327 -0.1498168 0.036602776 -0.073208615 -0.02897158 -0.083935045
-0.00658821 -0.09570961 0.01844522 -0.026830187 0.0008686925 -0.1409844 -0.07411526 0.026728656
0.04618643 0.04533863 0.06710753 -0.01315534 0.03128493 -0.06420764 -0.11239359 -0.15875657
-0.021359196 -0.011517092 0.022605801 0.0375972 -0.058034007 0.003256524 -0.029520437 -0.083696574
-0.013456269 0.12385397 0.09446092 -0.062302858 -0.0053719 -0.08580383 0.04293595 0.038620956
-0.091693625 -0.00034078956 0.0732278 -0.025586655 -0.03995014 -0.035330582 0.13974544 -0.022639956
0.057200503 0.010223629 -0.07623479 0.0014169232 -0.019780293 -0.030029802 -0.05939285 -0.00917397
-0.08951489 -0.051424354 -0.045404926 0.007765814 0.091724485 0.017008463 -0.0343738 0.045006726
-0.08867129 -0.042833503 0.1247354 -0.030647706 0.1554998 0.0013717727 -0.04792545 0.04753636
-0.08768471 -0.06903788 0.03890038 0.030134607 0.027813466 -0.13962883 0.0070349346 0.035416186
0.10172325 0.0024260506 -0.0064852443 0.13534807 0.06642275 -0.17415419 -0.02212181 -0.057005115
0.01516616 0.019095948 0.082989015 -0.11564484 -0.032761157 -0.045198087 -0.012704586 0.034209274
-0.043249585 0.006479258 -0.015578221 0.0011550478 -0.054251008 -0.0068976325 0.084131636 0.0791136

network_body._body_endoder.seq_layers.4.bias f4 [256]
00000000: 5fe5 6bbd 421c ff3b c547 2d3d 6c4a 393d
00000010: 2f28 7ebd 63ec a5bc 7997 fd3c 9e10 d13b
00000020: 4b0e 273c d10b f93c f8cf 9abd 56e4 6e3c
00000030: 0da4 2a3d 02fe c93c 59da 60bd f92c 2c3d
00000040: 1189 e4bc dc99 79bd af7c 49bd ef50 90bd
00000050: e3ce 18bd 6cf8 223d 50fd f03c 93fe 3e3c
00000060: 611e 89bc b99b 50bc a497 91bc e0bc 00bd
00000070: 5788 66bd 29a5 53bd 0e3a 6a3d 05e9 d33c
00000080: 1b42 9a3c c9f4 433c 1b15 d7bb 1ef3 263c
00000090: d09c f63b df12 5d3d 6eec 4d3c b985 073d
000000a0: 474c 7bbc 34fa d9bc 5894 40bd 3478 66bb
000000b0: 332c 10bd 5b7f aebb 19d5 d03c 4c69 89bc
000000c0: 8ce1 6ebb 9d6d a43c 0806 3f3d 94df 483c
000000d0: a7d8 f3bc 9e8d 96bb d363 063d ec9b c63c
000000e0: 7e9d e8bc 679d 44bc 960b 453d 9057 88bd
000000f0: c879 1a3d 4058 343d 92c8 ccbc 9448 143d
00000100: 7b57 55bd b63a 6cbc 303a fcbc 0244 7ebc
00000110: 2d96 883d 76f8 adbc 1ce2 3fbb eb2d 1f3d
00000120: 7555 0838 9ff2 6ebd 2267 8f3d f7ff 5bbd
00000130: e631 4ebd 34fb 343d f650 103d f189 173d
00000140: dfec e3bb d649 d3bc 15fa d7bc d6e7 2ebc
00000150: 4700 25bc e2d1 10bd 2075 debc ffda 63bc
00000160: 26b6 e23c 806b 48bd e072 813d abe4 9a3a
00000170: 7634 52bc 7174 f53c b5dc a7bc a86c 54bd
00000180: f384 243b 2166 243d 6605 6b3b 841f 3a3d
00000190: 4b08 d33c 1c02 4c3d 055f 0c3d c45a efbc
000001a0: 44c5 8e3c a9e3 e63c 9b6d 2bbd 1930 62bc
000001b0: cca6 193d 7d6b db3c ef18 88bc ae0b 0abd
000001c0: fe3d 7fbd 06a6 683c 0126 733b 5f49 cebc
000001d0: 9797 143d 222e 05bc dded d53c 4700 8a3d
000001e0: 52f0 d3bc bb69 b33c 687d b43d 46d1 583c
000001f0: c64a 80ba dcfd 553c 8902 adbc 6af1 2c3d
00000200: 2102 803c 80e3 0fbd 4880 1cbd f724 4dba
00000210: 1ac4 3bbc 18f1 fa3c 5b7e 233d ada7 a73b
00000220: e141 b93c 26b9 b4ba 50b7 d03c f2a0 babc
00000230: 9cf2 563c 6f7b f63c 64a2 54bd acc8 0c3d
00000240: 9484 053b abd2 89bb 9b12 10bd 95b9 fa3c
00000250: ec71 edbc 96e7 7abc 359b 11bd 3c07 ca3c
00000260: 1e23 e4bc ec1d ed3b 7735 e0bc da4a a0bb
00000270: 2c73 583b d1b4 ea3c ac0b 693d df6d b73c
00000280: ac68 abbb 1dca 52bb 5189 77bc 5c8e 8bbc
00000290: 9903 533c 80ed b33b a287 e9bc dc7a eb3c
000002a0: c856 08bd b8c7 973c a3b3 f2bc 971c e3bb
000002b0: 7dad 2dbd 01e4 003d 9ba5 5f3c c468 55bd
000002c0: a77a 22bd a4d6 93bc 3e11 943c 1b61 8c3d
000002d0: d972 24bd df6c 133d 06bc 87bd 6265 cb3c
000002e0: b0e8 543c 4cc7 0f3d 2a2c 48bc efaa 81bc
000002f0: b94d 6bbd 2ea6 9b39 125f a2bb 2fe2 89bc
00000300: 7d54 a3bb b5fa 35bd a299 8b3c a8d5 c6bb
00000310: 985b 36b8 30ed e9bc bdd5 1e3d 4b52 233d
00000320: 9f76 38bc f1ca aebc 848a 30bd a9c4 953c
00000330: 64b2 cd3c b2ea b5ba 3591 a83c 623c ecbc
00000340: 5ac4 60bc e7b5 aebc a6a8 873c 0913 bdbb
00000350: 66ec 223c 7310 d2bc 2343 803d e2eb 2ebd
00000360: b3f7 923c 502a 913d 5271 9cbb f0f4 053d
00000370: 1f65 bebc f756 abbd 93c6 91bd a49e 1a3d
00000380: 16d9 603d dea7 89bc db77 0939 8d5f fcbc
00000390: 1971 523d e7d3 2c3d 6e7e 123d 0078 e43c
000003a0: 6bf8 99bc deb4 463d bbff 6d3a 4b81 003d
000003b0: 221d cd3c d9e8 05bd a6b2 00bd 082a 263d
000003c0: 49a5 c23a 3b36 8a3d 4da9 08bc 6842 4dbd
000003d0: fd87 8ebd 48c7 303d 93bc 35bd 06b9 a6bb
000003e0: 41da 153d 60eb a13d f5aa 4cbc 0f36 a03c
000003f0: 45bd 4d3d 86b6 c5bc 9c77 b0bc 253c 683c
-0.057591792 0.007785351 0.042304773 0.04523699 -0.06205004 -0.02025432 0.030956017 0.0063801548
0.010196279 0.030401142 -0.07559198 0.014580807 0.041660357 0.024657253 -0.054895733 0.042035077
-0.02789739 -0.060937747 -0.049191173 -0.07046687 -0.037306678 0.039787695 0.029417664 0.011657375
-0.016738119 -0.01273244 -0.017772503 -0.031430125 -0.056282368 -0.05167118 0.05718427 0.025867948
0.01883035 0.011960217 -0.0065637953 0.0101898 0.0075260177 0.053973075 0.012568576 0.033086512
-0.01533801 -0.026608564 -0.04701647 -0.0035166861 -0.0351984 -0.0053252405 0.025492238 -0.016773842
-0.0036450354 0.020071799 0.04663661 0.012260336 -0.029766394 -0.004594519 0.032810044 0.024244271
-0.02839541 -0.012000418 0.048106752 -0.06657326 0.037713796 0.044029474 -0.024997983 0.03620203
-0.05208538 -0.014418295 -0.030789465 -0.015519144 0.06669269 -0.02123664 -0.0029279059 0.03886215
3.2504515e-05 -0.05833685 0.07002093 -0.053710904 -0.050340556 0.04418488 0.03523346 0.036996786
-0.0069557275 -0.025792044 -0.026364366 -0.010675391 -0.010070867 -0.03535641 -0.027155459 -0.013907193
0.027674746 -0.048930645 0.06320739 0.0011817416 -0.0128298905 0.02996275 -0.020490984 -0.051861435
0.0025103658 0.04013646 0.0035861372 0.045440212 0.02576079 0.0498067 0.034270305 -0.029218085
0.017428048 0.028184729 -0.041852575 -0.013805413 0.037512586 0.026784653 -0.016613452 -0.033702545
-0.06231498 0.014199739 0.003710151 -0.02518147 0.03627738 -0.008128675 0.026114399 0.06738334
-0.02587143 0.021901002 0.08812982 0.013233488 -0.0009787909 0.013061013 -0.021119373 0.042222418
0.015626015 -0.03512907 -0.038208276 -0.00078256376 -0.0114603285 0.03063254 0.039915424 0.005116424
0.022614421 -0.0013788089 0.025478035 -0.022781823 0.013119366 0.030088155 -0.05191268 0.034371063
0.0020373212 -0.004206022 -0.035173994 0.03060607 -0.028984986 -0.015314003 -0.035548408 0.024661653
-0.027848776 0.007236233 -0.027369244 -0.0048917355 0.0033027632 0.028650673 0.056895897 0.022391258
-0.0052309837 -0.0032163926 -0.015108422 -0.017035656 0.012879276 0.0054909587 -0.028507058 0.028745107
-0.033285886 0.01852785 -0.029626673 -0.0069308984 -0.04240178 0.03146744 0.013650323 -0.052101865
-0.03966775 -0.018046685 0.018074628 0.06854459 -0.04014859 0.0359925 -0.066276595 0.024828617
0.01299493 0.035102174 -0.012217561 -0.015828578 -0.05744717 0.00029687717 -0.004955181 -0.016831486
-0.004984437 -0.044428546 0.017041031 -0.0060679503 -4.3477485e-05 -0.028555483 0.038778055 0.039873403
-0.01125875 -0.021337004 -0.04310085 0.018282251 0.025109477 -0.0013879149 0.020577053 -0.028837387
-0.013718689 -0.021326972 0.01655991 -0.0057700914 0.009944057 -0.02564261 0.06262805 -0.042705424
0.017940378 0.070881486 -0.004774251 0.032704294 -0.023241578 -0.083661966 -0.07117953 0.037748948
0.05489453 -0.016803678 0.00013109988 -0.03080728 0.05137739 0.042194273 0.035765104 0.027889252
-0.018795213 0.048512332 0.00090789393 0.031373303 0.025038306 -0.032692764 -0.031420372 0.040567428
0.0014850284 0.06748625 -0.008341146 -0.050112158 -0.069595315 0.0431588 -0.04436929 -0.0050879745
0.036585096 0.07906222 -0.012491931 0.019557027 0.05022933 -0.024134886 -0.02154141 0.014174496

action_model._continuous_distribution.log_sigma f4 [1, 3]
00000000: ebd9 32bd 06d9 bfbd 05bf 83bc
-0.043664854 -0.09367566 -0.016082296

action_model._continuous_distribution.mu.weight f4 [3, 256]
00000000: 566e 973b 5a69 c0bc 609e 0e3b 0cd8 f5bb
00000010: 072d d83b 19bf dd3b 941c 2e3c 1a2f 65bc
00000020: 4db8 a2bb b777 87bd 5b01 39bc 131f f53b
00000030: 599e 19bc 8d1f 37bd 50b9 003d ccac 82bb
00000040: 5cb4 a3bc e276 9f3c f0ed ce39 c1ed 8eba
00000050: 57e6 983c c774 81bc a23b 8c3b 5ac3 97bd
00000060: 8d0f c4ba 3bc3 d93c 201b c2bc b4ce cabb
00000070: 0232 2e3b e1ce aebb 2956 cabb 3d74 a9bc
00000080: 2bed e9bc e02e e03c 35d4 483c 2cb0 433b
00000090: 0caa 3cbc eeb3 883b e547 183d 0aa2 ecbb
000000a0: 41b7 073d 7b5a 37bc 9f6e 59bb be19 f8bc
000000b0: bec1 8d3a 65c3 9abc 3285 d53c 46b5 443c
000000c0: eeac 413c ae79 e7bc 2c99 24bc d3f5 39bd
000000d0: d5b2 e83c dd15 723c fcc3 8e3c 038f 10b9
000000e0: 23d5 163d c1b3 363c f33c c6bb 99ab ad3b
000000f0: 04c3 96bc 827f 28bd 94f3 63ba 5bad 083c
00000100: ae81 263a e41c 3fbd c466 18bb 8b3d d63b
00000110: 4260 bb3b a2e9 483c ecd7 59bc 46b3 8cbc
00000120: 757b 9c3b 13e0 403c 2885 a43c a16a ab3b
00000130: 5166 c2bb 85f0 033d cb1d 8e3c 5264 723c
00000140: a4b5 5ebd ba93 af3b d70e 7f3b 10c3 f03b
00000150: 07bc d1bc e5b0 0a3c 0f55 88bc e319 163d
00000160: 72c8 85bb 787a 653c 4f8a e139 1165 ebbb
00000170: 64d7 3ebb cc6c 01bc 4a64 9dbc ad10 b83b
00000180: 3436 a03c 3a29 573b 99a2 35bd a187 2a3b
00000190: dd1f 863d c1f5 a3bb 2919 833c 5fb7 933c
000001a0: 3ad1 b7bc 3091 b4bb babf 3dbc e83a 0b3c
000001b0: d1fe 1ebc cf15 0c3c 32b2 1339 2b3a 9f3c
000001c0: 5afa e63b c9c7 a2bc 9f17 15bc 49df 92bc
000001d0: d631 7e3c 515d 543c ce0a 1ebc ecdb 7fbc
000001e0: 6e86 183d fac0 983c 148c a0bc e50c 9abc
000001f0: f05b df3c 126e a7bc 2451 2d3c 4efa 4a3c
00000200: 3230 d1bc 219b c1bb adb8 793b 6557 f7bc
00000210: 4496 2abc fd37 2cbb b05f 95bb 2ec0 85bc
00000220: 6f77 0f3c 3b76 233d 963b f33c 599c 723c
00000230: 19a8 e3bc b7b9 013c b8a2 1f3b c4f3 fbbc
00000240: 6c97 2e3c cff5 6c3d 2a31 c9bc fa61 05bd
00000250: 2b43 343a 7231 e63b 961d bc3c 37f2 a7bc
00000260: 313a c2ba 82b0 a2bb eb5b fdbc 4bcb 4e3c
00000270: 52d7 693d 9780 353c 8579 863c 913c 42bc
00000280: 53bc 163a 68a4 b1bc 539b 893c f9cf aabb
00000290: b64c d43b d0e0 dbbc b38d 43bc 7cd1 4dbc
000002a0: b4d0 a23a eea1 2cbb 4c69 9b3b 12bb 3abc
000002b0: 6359 a7bc bd7e 9bba 5ffb ae3c 8a0a 0ebc
000002c0: 7ab1 1cbd 3a0c 2c3c 4745 87bc b5cd 603a
000002d0: 108d 123c f15e 15bd 4773 743c 3a98 d8bb
000002e0: c3b4 8eb9 00d7 34bc 4f55 24bc 4d2e 653a
000002f0: 1d63 68bc 7953 de39 2201 1f3c d9c4 5bbc
00000300: 671b e2bc 0c61 593c 4cfb 0d3c 5bb1 99bb
00000310: 31c9 493c b856 c5bb 6550 88bd 2afd 8b3c
00000320: edec 123c 0101 84bb 2c17 633c 2fb6 73bc
00000330: c589 c13b db8c 0e3c ef48 7fbb 0f08 22bc
00000340: 7b92 ce3b 1ee5 69bb cd24 203a dd61 143a
00000350: fd86 82bc 7e7d d53b 544a 1cbc 74b4 f1bb
00000360: 740a 9e3d f2d7 30ba 33a7 213c 0bd1 83bc
00000370: 5527 94bc d2d3 cb3b 6fde 943a c9a8 383c
00000380: 59ae 2abc e5c8 38bc 9cb8 1e3a 375c 403c
00000390: 5565 cd3c 1c34 bcbc 4c97 a4bc 6b91 313c
000003a0: df1e 023d f5f4 c2bc 7740 9f3c efea 523c
000003b0: 0c39 203d b69e 26bc 581e 0abd 340e a1b9
000003c0: f7bc a1bc f3ed eb3a 1937 de3c d871 f63b
000003d0: fb60 fe3b 609c 9b3c 487c 913c c388 483d
000003e0: e012 963c b081 3bbc dd9e 453c ff71 52bb
000003f0: b921 98bb 24b8 05bc 67e7 933c 6a7f febc
0.0046213074 -0.023487736 0.002176188 -0.0075025614 0.0065971646 0.0067671654 0.010626931 -0.013988281
-0.004965818 -0.06614631 -0.011291827 0.007480511 -0.009376132 -0.044707824 0.031426728 -0.003987884
-0.019983463 0.019465867 0.0003946866 -0.0010904596 0.018664522 -0.015802754 0.0042795697 -0.07410307
-0.0014958248 0.026582351 -0.023694575 -0.0061891917 0.00265801 -0.0053347205 -0.006174822 -0.02068531
-0.028555473 0.027366102 0.012257625 0.0029859645 -0.011515152 0.00417184 0.03717794 -0.007221465
0.03313375 -0.011191006 -0.0033177508 -0.030285712 0.0010815186 -0.018892 0.026064489 0.01200611
0.011821015 -0.028256264 -0.010046285 -0.045400452 0.028405586 0.01477572 0.017427437 -0.00013786186
0.036824357 0.011151255 -0.006049746 0.005299997 -0.018403538 -0.041137226 -0.0008695659 0.008342112
0.0006351721 -0.04665841 -0.0023254612 0.006538098 0.005718262 0.012262734 -0.013296109 -0.017175328
0.0047754594 0.011772173 0.020083025 0.005231217 -0.005932607 0.0322118 0.01734819 0.014794426
-0.054372445 0.0053581866 0.0038918757 0.007347472 -0.025602354 0.0084650265 -0.016642122 0.03664578
-0.004082733 0.01400625 0.00043018392 -0.007183679 -0.0029120082 -0.007899474 -0.01921286 0.0056172223
0.019557096 0.003283097 -0.04434452 0.0026020783 0.06549046 -0.0050036614 0.016003208 0.018031774
-0.022438634 -0.0055104718 -0.011581356 0.008497931 -0.009704308 0.008550121 0.00014085395 0.019436916
0.007048887 -0.019870656 -0.00909987 -0.017928736 0.0155148115 0.0129617015 -0.009646131 -0.015616398
0.037237577 0.018646706 -0.019598044 -0.018804977 0.027265519 -0.020438228 0.010578427 0.012388779
-0.025535677 -0.0059083854 0.003810446 -0.03019304 -0.010411803 -0.0026278489 -0.004558526 -0.01632699
0.0087565025 0.039907675 0.029691499 0.014807784 -0.027790116 0.007917813 0.0024358463 -0.030755885
0.010656219 0.05785161 -0.024559576 -0.03256414 0.0006876464 0.0070249373 0.022963326 -0.02050124
-0.0014818368 -0.004964889 -0.030927619 0.012621711 0.05709011 0.0110780215 0.016415367 -0.0118552605
0.00057501084 -0.02168484 0.016797697 -0.0052127806 0.006478871 -0.026840597 -0.011935639 -0.012562152
0.0012421818 -0.0026341635 0.004742777 -0.01139714 -0.020428365 -0.0011863332 0.021360097 -0.008669505
-0.038255192 0.010500962 -0.016512526 0.00085755746 0.008944765 -0.036467496 0.014920062 -0.0066099437
-0.0002721903 -0.011037588 -0.010030105 0.0008742556 -0.014183787 0.00042405332 0.00970486 -0.013413631
-0.027600957 0.013267767 0.008665871 -0.004690332 0.012316034 -0.0060223006 -0.06655959 0.017088491
0.00896762 -0.00402844 0.013860505 -0.014874979 0.005906316 0.008700575 -0.0038953384 -0.009889617
0.006304083 -0.0035689543 0.00061089994 0.0005660335 -0.015933508 0.006515204 -0.009539206 -0.007376248
0.077168375 -0.00067460455 0.009866524 -0.01609089 -0.018085161 0.0062203193 0.0011357794 0.01127071
-0.010417544 -0.011278366 0.00060547306 0.011740736 0.025072733 -0.022974066 -0.020091675 0.010837893
0.031767722 -0.023798445 0.019439919 0.012873395 0.039116904 -0.010169676 -0.033720344 -0.00030718895
-0.019743426 0.0017999992 0.027125882 0.0075208955 0.007763026 0.018995464 0.017759457 0.04895855
0.018319547 -0.011444494 0.012061802 -0.0032111404 -0.004642692 -0.008161578 0.018054677 -0.031066615

action_model._continuous_distribution.mu.bias f4 [3]
00000000: 6065 51ba d5f4 a8bd fb46 183c
-0.00079878233 -0.08249823 0.009294267
