results/Test2/SuperTank/SuperTank-104243.onnx (onnx, 79324 bytes, 9 tensors)

network_body._body_endoder.seq_layers.0.weight f4 [128, 6]
000000 1e 03 11 bf 8e a6 c1 be 13 cc 3c 3e 86 c5 40 be
       -0.5664538 -0.37822384 0.18437223 -0.18825349
000010 f7 bd fc 3b 57 64 45 bf c6 1a 1e be 1f 7a 25 38
       0.0077130753 -0.7710623 -0.15439901 3.94528e-05
000020 ba 26 43 3f 6d 03 1e bf 5e 44 29 bf 94 30 f2 3e
       0.7623097 -0.6172398 -0.66119945 0.47302687
000030 e0 32 43 3d 85 e8 8e be 0f 39 21 bc ae 1b 2b 3e
       0.04765594 -0.27911773 -0.009840264 0.16709778
000040 e6 05 89 3e d9 22 2e 3f 1d c7 d8 be 7c 18 9a be
       0.26762313 0.68021923 -0.4233941 -0.30096805
000050 9d 83 be 3d ce 3f 22 be 58 2d 50 bf 70 e2 9e 3e
       0.09302447 -0.15844652 -0.8131919 0.31032133
000060 09 0c 1c be 10 85 9e 3e fb 2d 3e bf 63 7a e4 be
       -0.15238966 0.30960894 -0.7428891 -0.44624624
000070 68 dc c4 bc bb da 2a be 38 8a 34 3e 7c c2 8c 3d
       -0.02403088 -0.16685002 0.17630851 0.068730325
000080 9f 16 b5 bd 36 fb 81 3d 8d 8c 12 bf 6a f7 16 3e
       -0.08842205 0.06346743 -0.57245713 0.14742818
000090 89 16 f7 be e9 02 06 bf ae f9 b6 bd 6f ff 13 3d
       -0.4825938 -0.5234819 -0.08934341 0.036132272
0000a0 38 d7 3c 3f 6e 0c 07 3e ce 21 2a 3f 19 fe 81 be
       0.737659 0.13188335 0.6645783 -0.25389174
0000b0 82 3b 19 bf d1 d5 b8 3e 57 ed 26 bf 9f 16 a5 3d
       -0.59856427 0.3610063 -0.652059 0.08060955
0000c0 96 3c a0 bf ce dd 2e 3e 8c 6e 6e 3e a7 b4 56 be
       -1.2518489 0.170768 0.23284358 -0.20967351
0000d0 f1 33 02 be 35 c5 a8 3e 19 77 6a 3e 38 13 f8 3e
       -0.12715127 0.32962957 0.22896995 0.48452163
0000e0 02 91 a1 3c f8 4c 27 bd 84 21 a0 3e f4 80 a7 be
       0.019722465 -0.040844887 0.3127557 -0.3271557
0000f0 41 c6 d5 3d 36 9f ad 3e a1 33 ec 3c f1 98 d9 bd
       0.104382046 0.3391053 0.028833212 -0.106248744
000100 8d 17 94 be 35 a1 77 bd ee cd b6 bc 4a 5d 16 be
       -0.28924218 -0.060456473 -0.022314992 -0.14684024
000110 fe e1 9b be 89 48 35 bf 4b 66 54 3e bc d5 ab 3e
       -0.30445856 -0.70813805 0.20742147 0.33561504
000120 8a 64 44 bd 47 8b 5e 3d 5c d7 e3 3d e6 b7 e1 3e
       -0.047947444 0.054332044 0.11125061 0.44085616
000130 c6 f1 9e bc 82 29 df 3e b5 a9 8e bf 9e ae cb be
       -0.019402396 0.43586355 -1.114554 -0.3978166
000140 c6 e4 43 bf be 2b 0a 3f 0b 24 c1 be b4 5e 1e 3e
       -0.76520956 0.53972995 -0.3772281 0.15465814
000150 bc 57 53 3e 87 1e 0b bf 90 51 1d bd bd 5c 8c 3e
       0.20638937 -0.54343456 -0.038407862 0.27414504
000160 f7 a3 82 be 20 89 b4 3c 9e c3 a2 be 1d 37 c2 3e
       -0.2551572 0.022038043 -0.3178987 0.37932673
000170 43 50 ed bc 24 12 5b be 4d 45 cd be 8e 6f 9d 3d
       -0.028968936 -0.21393639 -0.40091935 0.07687293
000180 c2 15 b8 be f4 f3 fc be f8 6d 9b 3e f1 8b a8 be
       -0.359541 -0.4940487 0.30357337 -0.32919267
000190 36 20 48 bd 8f c6 57 be 14 93 2e be 5e 41 e5 3d
       -0.048858844 -0.21071838 -0.17048293 0.111941084
0001a0 09 7e 69 3e 25 cf e9 3d 7a 4d 5f 3e eb 24 0d 3f
       0.22801985 0.11416463 0.21806899 0.5513446
0001b0 17 fc 30 be 39 4f 62 bd e2 32 68 3e f0 bb 13 3f
       -0.17283665 -0.055251334 0.2267566 0.57708645
0001c0 33 9a eb 3e a0 e5 7b 3f 21 c5 d1 3e 99 ad 96 3d
       0.46016082 0.98397255 0.4097071 0.0735733
0001d0 10 50 d4 be df ad 9c 3d c4 cb 08 3d 4a 2b 88 3e
       -0.41467333 0.07650351 0.03339745 0.26595527
0001e0 25 98 6c be e8 9f 90 be 78 13 c5 3e 52 c9 8e be
       -0.23104914 -0.28247 0.38491416 -0.2788797
0001f0 0c 81 5b be b7 c9 94 3e e0 19 d5 3d df 73 d8 3e
       -0.21435946 0.29060146 0.10405326 0.42275903
000200 03 d6 ad be e8 43 a4 be 54 c8 5c 3f 0d 0f 8d 3b
       -0.3395234 -0.32083058 0.86243176 0.0043047727
000210 bf b4 62 3e 23 8e 2f 3e 92 3e d3 3e e9 df 6c be
       0.22139262 0.17144065 0.41258675 -0.2313229
000220 76 de 58 3e 77 b6 c1 bc fd 4b 97 3e d2 b6 8b 3e
       0.21178612 -0.023646576 0.29550162 0.27287918
000230 f5 bb a3 3d 3e f9 11 bd 64 60 95 be cd c4 7f bf
       0.07994834 -0.035638086 -0.29175103 -0.9990967
000240 db ef 13 bf 45 58 89 bf b5 50 28 bf a2 12 7e be
       -0.57787865 -1.0730063 -0.6574815 -0.24811795
000250 e0 cf 72 3f 06 6a 0d 3f 09 2f 43 3f d4 55 4c bd
       0.9484844 0.55239904 0.76243645 -0.04988654
000260 71 bb 38 be a7 d1 f1 be eb 41 bc 3e ee 43 c9 be
       -0.18040253 -0.47230265 0.3676904 -0.3930964
000270 f1 e6 be 3e 5b 05 61 bd 92 9b 69 3e 1f ac 2b bf
       0.3728557 -0.054936748 0.22813252 -0.6705951
000280 86 85 57 be 8a f3 0f 3e 21 8d b6 bd 20 7a 60 be
       -0.21047029 0.14057747 -0.08913637 -0.21921587
000290 a0 68 f5 3e fd 4b 46 bf fe 0a f9 3e 3e e3 02 3d
       0.47931385 -0.774597 0.486412 0.031954996
0002a0 0b 28 c0 be e5 4c 1e 3e 84 17 53 be b8 19 45 3e
       -0.3753055 0.1545902 -0.20614439 0.19248092
0002b0 17 7f 68 be c0 7c b4 3d ba 77 28 be 76 f5 d4 3e
       -0.22704731 0.08812857 -0.16451922 0.41593522
0002c0 a5 8c e6 be d9 58 94 be d1 5c 9e 3d 47 93 fd bd
       -0.45029178 -0.28974035 0.07732547 -0.123816065
0002d0 06 50 d1 3d 8e cb 79 3c 45 76 1b bd 64 1d d4 bd
       0.102203414 0.015246285 -0.037954587 -0.10357168
0002e0 3d e8 26 bd 83 8c a5 3e e6 40 44 3e b8 d9 8e be
       -0.040748823 0.32333764 0.19165382 -0.2790048
0002f0 cd cf 18 bd 14 ee cc 3c 9d c2 c0 be b0 7f c4 3e
       -0.03730755 0.025015868 -0.37648478 0.38378668
000300 db 00 d7 3e 02 4b 7d 3e f6 67 58 be 4d 6a ab be
       0.4199284 0.24735644 -0.21133408 -0.3347954
000310 4e 98 3f 3d ed 07 e2 3e 9a c2 00 3e f1 4b fe be
       0.04677611 0.44146672 0.12574235 -0.49667314
000320 f4 4b 6b be 28 af 2d bd 6c 85 da 3b dd 10 29 3e
       -0.22978193 -0.04240337 0.006668737 0.16510339
000330 8b e2 e8 3e e9 a8 90 bb 64 db e0 be 77 fe f8 be
       0.4548534 -0.004414667 -0.43917382 -0.4863164
000340 d3 97 ff bd 67 59 7d 3e 7f 31 1d be ed 3e 86 3d
       -0.1248013 0.24741136 -0.15350913 0.06554971
000350 e4 52 88 3e a7 3d 0c 3f 36 be 0c be da d5 5a 3f
       0.2662574 0.54781574 -0.13744435 0.8548256
000360 59 78 a0 bd 2f 4a 18 be 6a 4b 35 be 0c b1 19 3f
       -0.078354545 -0.14872049 -0.1770455 0.6003578
000370 2b d2 87 3e 2e 62 5c be 87 94 c2 3e 65 99 ca be
       0.26527533 -0.21521828 0.38003942 -0.39570156
000380 2c 03 e1 be 97 6a cb 3e b3 be a9 bd ed d9 bb be
       -0.43947732 0.3972976 -0.08288326 -0.36689702
000390 6c 49 f4 be 7c 64 ca bd ed 1d 7f bd 9e 83 09 3f
       -0.47712266 -0.09882447 -0.0622844 0.53716457
0003a0 32 78 31 3f 73 27 d8 be 2e da a3 3d 7e ae b7 3e
       0.6932403 -0.42217597 0.08000599 0.35875314
0003b0 d4 89 46 3e 6b 7b 41 3f 5b c2 de 3d c3 c5 00 bf
       0.19388515 0.75578946 0.10876914 -0.5030176
0003c0 36 43 9d be 3c 4f 8b 3e 96 1c af be 51 84 37 bd
       -0.3071534 0.2720889 -0.34201497 -0.04480392
0003d0 71 6e 53 3f 95 5c 08 3e a3 a7 b9 bd c4 81 ca 3e
       0.82590395 0.13316567 -0.09065177 0.39552128
0003e0 8f 1f 46 be b4 d8 44 3e 79 82 96 3e 02 68 1e bc
       -0.19347976 0.1922329 0.29396418 -0.009668352
0003f0 87 75 04 3e c1 ce 31 3f 7f a8 dd 3e b8 47 f9 3e
       0.12935458 0.69456106 0.43292615 0.4868753

network_body._body_endoder.seq_layers.0.bias f4 [128]
000000 13 6f 90 3c 75 5e 0e bd 44 23 db bc c1 60 b7 bc
       0.01763109 -0.03475805 -0.026750214 -0.022385003
000010 b2 35 0f bb 89 70 f3 bc 4d 8a 17 bd 45 f7 c7 3c
       -0.0021852073 -0.029716747 -0.03699713 0.0244099
000020 80 ef a1 bc ba 40 bc bd ea 8f 2a 3b d4 b4 c0 3c
       -0.019767523 -0.09192033 0.002602572 0.023523726
000030 50 d8 b5 bd 0f 34 b5 3b 2a b6 b3 bc 4a fd cf 3c
       -0.08879149 0.0055298875 -0.021937449 0.025389332
000040 67 f7 a6 bb 64 00 62 bd af 71 9e bd 33 fe f9 3b
       -0.0050954106 -0.055176154 -0.07736527 0.00762918
000050 bd 7c 1d 3c 71 88 f1 bb 9f 99 72 bc 2e 81 f6 bc
       0.009612259 -0.0073710014 -0.014807134 -0.030090895
000060 ea a0 a7 bb 17 fc b3 3c f9 55 c1 3c 6e 1f d8 bc
       -0.005115618 0.021970792 0.023600565 -0.026382174
000070 0c 5d 83 bd 84 11 df bc f3 b0 56 bd b0 00 bb bd
       -0.06414232 -0.027230032 -0.052414846 -0.091309905
000080 45 03 8b 3b 12 af 31 bd f2 2d 19 3c 65 b8 6d bd
       0.004242333 -0.04337985 0.009349333 -0.05803718
000090 99 35 82 bd 77 8c d4 bb f4 cb 46 3b 18 50 07 bd
       -0.06357879 -0.0064864713 0.0030333968 -0.033035368
0000a0 ed 2f 22 bc bb 60 48 3c 57 d6 c7 bd 8f 5a 92 3c
       -0.009899122 0.012230094 -0.09757679 0.017865447
0000b0 0a 33 a7 bc 67 03 df 3c ca 20 4c bd 7a 8d 1d 3d
       -0.02041008 0.027223302 -0.049835958 0.038465
0000c0 7e 71 2f bd 29 8e e2 bd 5a c8 bd bd 65 ed 29 bb
       -0.042832844 -0.11062271 -0.0926673 -0.0025928852
0000d0 24 f0 9c bd 3a 3d 8c bb cc b8 a9 bd 93 c2 be bc
       -0.07662991 -0.0042797597 -0.082872 -0.02328614
0000e0 7b 99 77 bd e8 d5 71 bd be d2 4b bd e5 36 d8 3c
       -0.060449105 -0.059041888 -0.049761526 0.026393363
0000f0 24 5d 9a bb 35 78 77 3b 18 58 5c bd 0c 3e bb bb
       -0.0047108103 0.0037760858 -0.05379495 -0.0057141837
000100 57 2f 92 bd eb 25 d8 bb f1 80 a7 3b 6e 68 a5 3c
       -0.071379356 -0.006596317 0.0051118066 0.020191398
000110 fc c7 c7 bd 43 21 ab bd 9a 05 cf bc 43 02 19 3d
       -0.09754941 -0.083559535 -0.025271226 0.037355673
000120 28 f9 7b bd 8a 5c 02 bd 19 3b a2 3b 95 4b 47 3d
       -0.06151691 -0.031826533 0.0049508926 0.048656065
000130 41 06 0f bd 6c 50 4d 3d 29 0a 9f bd 8f 2f 03 3d
       -0.034918074 0.050125524 -0.0776561 0.032027777
000140 f3 25 d3 3c 30 83 72 bd 8d 81 34 bb e8 d3 80 bd
       0.025774932 -0.05920714 -0.0027543039 -0.06290418
000150 70 de 12 3d 8d 27 30 3b 03 fd 84 bd f6 e8 57 bd
       0.035856664 0.0026879043 -0.06493571 -0.052712403
000160 12 50 c0 3c db 75 6e bd 29 92 8b bd ca 48 ac bc
       0.02347568 -0.058217864 -0.06814987 -0.021030802
000170 0b a1 a8 3c 4e 1e 71 bd 17 3b 18 bd 8f e6 51 3c
       0.020584604 -0.05886679 -0.037165727 0.012811317
000180 a8 99 8f 3c 62 7e cb bd 68 a0 9a 3c cb 65 5e 3c
       0.017529324 -0.09936215 0.018875316 0.013574074
000190 e0 e3 16 3b 9c c3 0e be 2e 1f 07 3b 2f f9 18 3d
       0.0023024008 -0.13941807 0.002061795 0.037347015
0001a0 79 a0 b7 bc 6c 34 84 3d 91 be 7c bb 1e f5 08 bd
       -0.022415387 0.06455311 -0.0038565735 -0.033436887
0001b0 7f 90 71 3d d6 2e a6 bd fc ab 71 bc 7f 09 18 bd
       0.058975693 -0.08114402 -0.014750477 -0.03711843
0001c0 c7 39 95 bd 91 c3 44 bb e0 4d bf bd 03 4d 3c bd
       -0.07286411 -0.0030023793 -0.09341025 -0.04597188
0001d0 98 cd 4a bc d0 af 9a 3c d9 bf cf ba 24 c3 14 bd
       -0.012378119 0.018882662 -0.0015850022 -0.036318913
0001e0 ee 9e 88 3c 3d d3 d1 bc 46 96 8e bc 1a 56 39 bd
       0.016677346 -0.025613422 -0.01740564 -0.04524813
0001f0 d0 6c ca 3c 6c 9b 3e bd 77 a7 83 bd 1d fd 0c be
       0.024710089 -0.04653494 -0.06428426 -0.1376843

network_body._body_endoder.seq_layers.2.weight f4 [128, 128]
000000 e2 ea a4 bc 58 a8 06 be 37 88 f6 bd 75 94 04 bd
       -0.020131532 -0.13150156 -0.120377 -0.032368142
000010 06 99 1b be 8c d7 59 3b 44 47 da bd 23 0f 3d 3a
       -0.15195093 0.0033240048 -0.10658124 0.00072120334
000020 ff 67 9b ba 85 ff 98 bd 24 56 9b 3d ab 51 4f bd
       -0.0011856555 -0.074706115 0.075847894 -0.050614994
000030 99 04 1b bb b0 6d 2b bd 74 c2 4a bd f8 4a 23 bc
       -0.0023653863 -0.041852653 -0.04950185 -0.009966604
000040 63 6f b9 bd 57 67 e0 bd f6 ac 68 bd 8b a9 f2 bd
       -0.090544485 -0.109572105 -0.056805573 -0.11848744
000050 65 20 3e be e9 db c7 bd 61 7d 52 be b6 da 84 bd
       -0.18567045 -0.097587414 -0.20555641 -0.06487028
000060 2e 84 37 bd ef c5 3b be 1c 09 31 bd 24 c6 a9 bd
       -0.04480379 -0.18337224 -0.043221578 -0.082897455
000070 11 59 ed 3c 0e b0 91 bb dd e1 43 3e 2e 1c e7 bd
       0.028973134 -0.004446036 0.19129129 -0.11284672
000080 19 50 e7 bd 7b f0 a1 bb b3 55 54 be 58 d0 d1 bc
       -0.11294574 -0.0049419976 -0.20735817 -0.025612041
000090 34 e7 ce bc 91 60 d6 bd 10 76 83 bd fe ea 13 be
       -0.02525673 -0.10467637 -0.06419003 -0.14445111
0000a0 cd 34 0b be 4f 5a 15 3c ea 83 bc 3c 71 05 c8 bc
       -0.1359436 0.0091157695 0.02301212 -0.024416657
0000b0 9a 7a 85 3d 20 77 d1 3c 0d 20 29 3d ab 43 62 3d
       0.06517525 0.025569499 0.04129033 0.055240314
0000c0 b5 b4 68 3d 89 c5 9b 3d ad 95 48 3d 81 c0 56 bc
       0.05681296 0.07606036 0.048970867 -0.01310742
0000d0 fe 29 82 bd bf 03 91 3d a6 8f ae 3d 82 e3 c6 3d
       -0.063556656 0.07080793 0.085234925 0.097113624
0000e0 7f 69 31 bd 65 f7 17 be c8 92 66 3d ad 2a a1 bc
       -0.0433135 -0.14840467 0.056292325 -0.01967367
0000f0 38 06 ae 3d 25 ce 60 bd 02 ff d4 bd bb 63 f1 bd
       0.0849728 -0.054884095 -0.104002014 -0.117866
000100 04 38 5f bd de d3 4d 3d 60 95 4a 3d d3 3c 22 3e
       -0.05449678 0.05025088 0.04945886 0.15843515
000110 bb 76 84 bd 4f c7 21 bd fc c4 b4 3d 08 d6 0a 3e
       -0.064679585 -0.039496716 0.08826634 0.13558209
000120 86 c5 2d bd 44 d4 bf bd 3a 4d 0d 3e 4d b2 e4 bd
       -0.0424247 -0.09366658 0.13798991 -0.11166821
000130 7a b4 11 bd 1c 5d 11 be c2 0c 09 3b 48 cb 14 3d
       -0.035572506 -0.14195675 0.0020912145 0.036326677
000140 b3 5a 44 3d 2a 04 eb 3d 62 13 50 bd 8f 63 54 3d
       0.04793806 0.114754036 -0.050799735 0.05185276
000150 d4 92 8c bd fd f6 ba bd 7b 1a 88 bc db f4 7b be
       -0.06863943 -0.091291405 -0.01661419 -0.24605124
000160 fc 3c 6a 3b 22 1d cd 3d ba 75 89 3b 81 78 f8 3c
       0.0035741916 0.10015322 0.0041949423 0.030330898
000170 99 3b bd bd 02 14 a1 3d 76 df 31 bd c1 88 07 be
       -0.09239883 0.07865144 -0.043426 -0.13235761
000180 6b 11 bc 3c 5a 5c d6 bd 7c de 26 be 8d bb a0 3d
       0.022957524 -0.104668334 -0.16295809 0.078482725
000190 83 57 00 3d dc 50 81 bc 6a 45 52 bb e2 48 e6 3c
       0.031333458 -0.015785627 -0.003208483 0.028110925
0001a0 cf 74 96 3c 97 90 b6 3d 59 6b 0d 3c 00 91 21 bd
       0.018366246 0.08914297 0.008631551 -0.039444923
0001b0 1e e1 a5 b9 0f 4e d1 bd 13 46 a6 bc 72 7b a7 bd
       -0.00031638978 -0.102199666 -0.020297086 -0.08177842
0001c0 28 79 90 3c 9d 7c 45 bd ef d9 be 3d f0 42 96 3d
       0.017635897 -0.048214544 0.09318911 0.07336986
0001d0 32 15 b1 bd 3d 95 11 be e4 31 1f be 30 af 7b bc
       -0.08646621 -0.14217086 -0.15546376 -0.015361592
0001e0 17 0a f9 bd 1e 23 c0 3d 3d d0 c7 bd 6b c9 10 3c
       -0.121601276 0.09381698 -0.09756515 0.008837084
0001f0 06 2d 4f 3d 98 9a 04 3d ac d4 4a 3e 9a d8 04 3b
       0.050580047 0.032373995 0.1980769 0.0020270706
000200 2b de 5b bd df 89 88 bd 34 d0 e4 bd 03 e3 1d be
       -0.053678673 -0.06666922 -0.11172524 -0.1541863
000210 51 90 31 bd c2 43 57 3c 98 86 1e be 55 36 21 be
       -0.04335052 0.013138713 -0.15481031 -0.15743382
000220 90 1e 73 bc f2 48 e1 3b 11 a9 da 3d f2 55 26 3d
       -0.01483883 0.006875151 0.10676778 0.040609308
000230 25 b7 c3 3d ed d5 07 bd bd 49 05 3d 39 17 97 3c
       0.095564164 -0.033163 0.032541025 0.01844369
000240 26 dd 2a be 6e c1 97 bd a6 b6 af bc 22 c1 05 be
       -0.16685924 -0.07409941 -0.021449398 -0.13061956
000250 94 0d d8 3c 54 84 0b 3d 36 d4 40 3d 4b 28 58 3d
       0.026373662 0.034061745 0.04707738 0.0527728
000260 2c cb ec bc 81 7d 31 3e d7 39 82 3d 9c ba 82 3d
       -0.028905474 0.17333032 0.06358688 0.06383249
000270 f2 e8 0a 3e 4b 4b 7a bd de 88 db 3d 7e 69 fc bd
       0.13565424 -0.06110696 0.10719465 -0.123248085
000280 c3 fa d9 3c 2a 3c 2e bd d5 08 ae bd b2 85 00 be
       0.02660883 -0.042537846 -0.08497778 -0.12551
000290 03 bf d9 bd 2b 71 0c be 22 44 81 bc c2 2f ff bd
       -0.10632136 -0.13715045 -0.015779559 -0.12460281
0002a0 bd 9d c9 bd 83 18 85 bc 3b ec 1b 3d cb ef 06 bd
       -0.09844539 -0.01624704 0.038067084 -0.03294353
0002b0 75 41 47 bd b2 93 6f 3d 47 3d a3 bc 93 df 5f bc
       -0.04864641 0.058490463 -0.01992668 -0.013664144
0002c0 6a c6 b2 bc f0 ba ca 3d 86 29 ab 3d 6e 83 0f 3e
       -0.021823127 0.09898937 0.08357529 0.1401498
0002d0 99 4d 99 3d 12 27 f7 3c 1a 3f 9b 3c 4e 08 3a 3d
       0.07485504 0.030169997 0.018950988 0.045418076
0002e0 74 70 f4 bd c5 8d 9c bd 7a ab 4e 3d 57 ff 1b be
       -0.11935511 -0.07644228 0.0504565 -0.15234123
0002f0 bc b8 9a bc df 4c a9 bd 43 a4 a2 bd a6 c8 0e bd
       -0.018886916 -0.08266615 -0.07941487 -0.034859322
000300 fd 9d 8c bc 57 40 12 bd e3 7a c9 3d f8 9e 17 3e
       -0.017165178 -0.03570589 0.09837892 0.14806736
000310 c9 47 5c bd c5 4c 09 be 33 ed f3 bc 5c 39 b2 bd
       -0.053779397 -0.13408192 -0.029776191 -0.08702347
000320 c7 41 02 3e 3f 4e 2f bd 08 7b 48 be 69 66 95 bd
       0.12720405 -0.04279923 -0.19578183 -0.07294924
000330 2d da c8 bd c1 6c 8c bc 64 dc 69 3c f4 22 05 be
       -0.09807239 -0.017141702 0.014273737 -0.13001615
000340 ed a6 ea 3c bd b2 22 3d 61 b6 84 bc bf 61 0f 3e
       0.02864405 0.03972124 -0.016200246 0.14002131
000350 de 6f f5 bd a1 35 6c bd b3 5e c8 bc 30 66 a6 3d
       -0.119842276 -0.057668332 -0.024459219 0.081249595
000360 13 36 81 bd 3d 25 f2 3d bf db 5c 3d e9 66 18 3e
       -0.06309142 0.11823509 0.053920504 0.14883007
000370 f2 65 86 3d 3c 27 00 be 19 70 6e 3d 93 49 64 3c
       0.06562413 -0.12514967 0.058212373 0.013933557
000380 4b 68 2f bd 48 19 aa bd 10 96 c3 ba 5c c3 d0 3c
       -0.04282407 -0.08305603 -0.0014922041 0.02548378
000390 ac 4e da bc 8c 54 97 bc e0 ad 18 bd c9 e2 8e 3c
       -0.026648842 -0.018472932 -0.037275195 0.017442124
0003a0 6f ff 6b 3d 0f d1 98 bd 73 c5 7e bd ba 6b fd bd
       0.057616647 -0.0746175 -0.06220002 -0.12374063
0003b0 11 d6 2b 3d e0 69 0f 3d ad 42 c6 bc 01 02 18 3d
       0.041952197 0.03501308 -0.024201715 0.037111286
0003c0 f8 3b 04 3d 05 e3 7a bd d6 6a b2 bd d7 99 9d bc
       0.032283753 -0.06125166 -0.087117836 -0.019238396
0003d0 25 2c 72 bd 6b d2 28 3d 22 12 35 3d ed 92 89 3d
       -0.05912413 0.041216295 0.044206746 0.06717477
0003e0 fc bf ea 3c 64 cf 0b be f6 a4 a1 bd 36 1f 20 bc
       0.028655998 -0.13653332 -0.07892792 -0.009773066
0003f0 e9 63 a4 bd d7 68 0d bd bb 80 ad 3c b0 24 54 bd
       -0.08026869 -0.03452381 0.021179548 -0.0517928

network_body._body_endoder.seq_layers.2.bias f4 [128]
000000 b5 83 83 bd 9c 9b 2e bd be ba 87 3a 60 04 30 3c
       -0.064216055 -0.04262887 0.0010355336 0.010743231
000010 64 4a 09 3c 0c a8 87 3c 00 f9 d0 bc c4 32 03 bc
       0.0083795525 0.016559623 -0.025509357 -0.008007709
000020 46 cc 8f bd f4 73 e4 3c 08 44 f5 bd 1d bc 58 bd
       -0.07021384 0.027887322 -0.119758666 -0.052913774
000030 6d 97 00 3d 70 18 b4 bd 55 8f 11 be 7e 02 76 bd
       0.03139441 -0.087937236 -0.14214833 -0.06006097
000040 b1 aa cd bc b9 cb d6 3c df bf fc bd b7 fb cd bd
       -0.025105806 0.02622019 -0.12341284 -0.100577764
000050 f0 1d 64 bc 4c 58 17 bd 2a c2 48 bb 42 f9 86 3c
       -0.013923153 -0.03694944 -0.003063331 0.016476277
000060 d0 9c 02 bd eb da 00 bd 38 59 ea bd e3 67 a0 bc
       -0.03188783 -0.031458776 -0.114427984 -0.019580787
000070 40 08 8a bc 7d a6 a3 bd 42 df 10 be cb b0 ac bd
       -0.016849637 -0.079907395 -0.14147666 -0.08432158
000080 c9 4b bf bd 51 ef 51 bd b8 5b dd bd 6d 84 0e be
       -0.09340627 -0.05125362 -0.108085096 -0.13917704
000090 cd 1e 9a bd 9c 8f 23 bd bf 61 61 bd fa af 9c bc
       -0.07525406 -0.03993188 -0.05502486 -0.01912688
0000a0 0c 5d 13 be 8b ab 8d bb 47 fb 20 bd cd 97 93 bd
       -0.14390963 -0.004323428 -0.039302137 -0.07206688
0000b0 7f fb 0c 3d ec a4 4d bb 3d 1f 1e 3d a0 38 7b 3c
       0.034419533 -0.0031378819 0.03860401 0.015333325
0000c0 5e d6 53 bd 6b f9 b7 bd dc 83 0e be 01 b6 fe 39
       -0.05171811 -0.089831196 -0.13917488 0.0004858226
0000d0 ba bc b4 bd 85 6d cd bd c4 b2 d8 bd 7f 30 73 bd
       -0.08825059 -0.10030655 -0.10580972 -0.05937242
0000e0 20 db 9a bd 8e 6f 45 bc 27 15 9a 3d 8f 37 8f bc
       -0.07561326 -0.0120505225 0.07523566 -0.017482547
0000f0 5f bf 0a bb 28 08 f0 bd ca 5d 84 3c 29 3f a3 3d
       -0.0021171195 -0.11720306 0.016158003 0.07971031
000100 92 d9 c0 bd 59 e5 dc bd b7 ab b5 3c 84 5c 9f bd
       -0.09416498 -0.10785932 0.022176607 -0.07781318
000110 39 de 5d 3c 95 5b d2 3c ce 1a e1 bd 43 d6 6b 3d
       0.013541752 0.025678435 -0.10991441 0.057577383
000120 02 e4 07 be 79 c4 6d bc df ab a3 bd c4 10 9c 3c
       -0.13270572 -0.014512175 -0.07991766 0.019050963
000130 9e 95 e5 bd 0d 6c fd 3c f8 f2 aa bd 59 46 96 3c
       -0.11210178 0.030935312 -0.08347124 0.018344091
000140 e7 0f c7 bc 8f 07 dc bd 48 fd 5d bd f7 1c 2c 3d
       -0.024299575 -0.10743629 -0.054196626 0.04201981
000150 98 56 24 bd 46 e6 08 be a9 c4 31 3c f4 af 3b 3d
       -0.040121645 -0.13369092 0.01085011 0.0458221
000160 de 59 65 bc aa b3 46 bd ab dc 83 3c b3 f8 cd 3c
       -0.013998477 -0.048511185 0.016096434 0.025143003
000170 f8 3f 5b 3b 71 bc 81 bd d0 c1 00 3d a5 5f 6b 3c
       0.0033454876 -0.063347705 0.031434834 0.014366065
000180 28 d0 f8 3c 00 30 0e be 2a 03 85 bd 07 c8 b7 bc
       0.030372694 -0.13885498 -0.06494744 -0.022434248
000190 4e ef cf bc cd ec ca bd 6e d5 bf 3b 07 09 da bd
       -0.025382664 -0.099084474 0.0058543 -0.10646253
0001a0 2e e7 8b bd 74 43 00 bd 74 50 96 bc 19 c4 85 bd
       -0.068312034 -0.03131433 -0.01834891 -0.06531543
0001b0 9c dd 9e bd 13 1a 25 bb 78 c9 05 3d 10 0b 93 3d
       -0.077571124 -0.0025192543 0.03266284 0.071798444
0001c0 12 3f 0c be 9b b5 8a bd 05 d5 8b bd f9 81 80 3d
       -0.13695934 -0.0677292 -0.068277396 0.0627479
0001d0 4f f7 eb bd 70 5d 1c bd d7 c0 f2 bc 1c 49 93 bb
       -0.1152178 -0.038175046 -0.029632969 -0.0044947993
0001e0 40 1e 08 be d3 85 3c bc 8a d4 ba bc a6 12 9f bc
       -0.1329279 -0.011506516 -0.022806425 -0.019418072
0001f0 a4 26 06 be 18 71 e2 bc a9 cb 81 bd 95 78 f9 3c
       -0.13100678 -0.027641818 -0.06337673 0.030453006

action_model._continuous_distribution.log_sigma f4 [1, 3]
000000 9d bc 65 be 22 ab 72 be d4 89 f4 bd
       -0.22435232 -0.23698094 -0.11940351

action_model._continuous_distribution.mu.weight f4 [3, 128]
000000 74 09 87 3b 47 52 93 3c d8 c4 a8 3c 6a eb ec 3c
       0.004121 0.017983569 0.020601675 0.028920848
000010 bc 2c 0a 3d 40 d4 9d 3c 85 35 6b 3c 7c 07 f4 3b
       0.03373407 0.019266248 0.014356022 0.0074471813
000020 f9 26 98 3c 81 7f ee 3c 97 90 db bc 9d 12 c9 bc
       0.018573271 0.029113533 -0.026802344 -0.024545008
000030 8b 25 b1 bb ad 38 ab bc 7c 3a 62 bb 80 5d 67 3c
       -0.005406087 -0.020901049 -0.0034519723 0.014121413
000040 44 7a 19 3d 6e 5c bb 3c f2 bc fd bc ee 6a 09 bd
       0.037470117 0.022871222 -0.030973885 -0.03354924
000050 10 af 14 3d a3 10 19 3c 36 18 12 3d c9 53 2d 3b
       0.036299765 0.009342345 0.03566762 0.0026447645
000060 4c f6 ca 3c 6a 2d 20 3c 54 f9 a1 bc 3c 7c f4 bc
       0.024775647 0.009776453 -0.01977221 -0.029844396
000070 d4 01 69 3c 00 dc a2 3c 0c b8 2f bd 0b 4a 00 3c
       0.014221627 0.019880295 -0.04290013 0.007830153
000080 d3 d4 bd ba a8 9e 03 3c 72 ca d5 bc 9c 6a b9 bc
       -0.0014482982 0.008033432 -0.02609751 -0.022633843
000090 d8 af 2e bc 71 24 00 3d 78 dc d6 3b 01 85 5b 3c
       -0.010662042 0.031284753 0.0065570436 0.01339841
0000a0 f9 db 50 bc 29 a3 fd bb f7 24 06 bd 02 df 91 3b
       -0.012747758 -0.0077403975 -0.032750096 0.0044516334
0000b0 a7 e0 24 3d 94 8b aa ba 2a 2f 43 3c cb 12 a2 3c
       0.040253308 -0.0013011568 0.0119131 0.019784352
0000c0 3b 32 91 3c e6 11 3c bd 83 9b ae bd 51 43 0d 3c
       0.017724147 -0.045915507 -0.08525755 0.0086220065
0000d0 7b 7c 9a 3b fc b1 f1 bc 28 98 d7 bc 8b f0 cd bb
       0.0047145463 -0.029503815 -0.026317671 -0.0062847785
0000e0 20 a0 ee bc d4 d0 28 bc d0 ad 28 3d 76 cf 09 3c
       -0.029129088 -0.010303695 0.041181386 0.008411279
0000f0 c7 db bd 3c 92 cb e7 bc dd 8e b3 3c d4 e4 34 3d
       0.023176087 -0.028295312 0.021918708 0.04416354
000100 bb 78 1b bc 4c 58 99 bc 7f 21 21 3b 57 4e 37 3c
       -0.009489234 -0.018718861 0.0024586616 0.011188111
000110 86 ee 06 3d 45 a8 22 3b 0d 5d 9b bc ab 38 12 3c
       0.032942317 0.0024819535 -0.018965269 0.0089246435
000120 63 dd 85 bc 89 f7 80 3c 78 98 f4 3b 79 95 97 3c
       -0.016340917 0.015743034 0.0074644648 0.018503891
000130 ff 19 59 3a 65 e6 b2 3c 74 94 46 3a 1f b7 bc 3c
       0.0008281767 0.021838376 0.0007575222 0.023036538
000140 0a 8c ab 3b a4 f4 19 bc ba 10 a1 bb c7 d1 29 3d
       0.0052352 -0.009396706 -0.004915324 0.041459825
000150 84 e4 f2 bc a0 96 7d bc 4b 28 3e 3c d5 23 b3 3b
       -0.02964998 -0.015477806 0.011606286 0.005466918
000160 3f 84 af bc ae 24 97 bc eb 1c 29 3d 55 bb 9e 3c
       -0.021425365 -0.018450107 0.041287344 0.019376436
000170 46 9a 1e 3c 12 20 1b 3c ba 97 c6 3c 8a 4b 27 3c
       0.009680336 0.009468095 0.02424227 0.010210881
000180 7a 41 03 3d 82 14 84 bc bd 8f cd bb 86 9e 39 3c
       0.032044865 -0.01612306 -0.0062732385 0.011329299
000190 94 e6 fa bb 9c d1 40 3c 49 52 5c 3c a0 78 69 bb
       -0.0076568816 0.011768725 0.013447353 -0.0035624877
0001a0 e8 fe 80 3c 9b f9 35 3c 84 12 cf 3c 24 a2 63 3c
       0.015746549 0.011106874 0.025277384 0.013893638
0001b0 93 54 6b bc ad 7c ed 3c 80 22 f6 3b 5e ad d8 bb
       -0.014363426 0.028990114 0.007511437 -0.006612464
0001c0 42 4c 8d bc dc d4 d4 ba e3 32 e7 bb 26 40 9a bb
       -0.017248277 -0.0016237753 -0.0070556267 -0.004707354
0001d0 23 8a 58 bc 88 8a 96 bc 3d be 4d bc 73 00 d6 3c
       -0.013216528 -0.018376604 -0.012557563 0.026123261
0001e0 c5 7c 1b bd cb bb ea bc 7a cf f4 bb 53 ce 9e 3b
       -0.037960786 -0.028654 -0.007471022 0.004846373
0001f0 11 34 9c bc c1 43 5f bb 6f 25 c7 3b dc f1 6f 3c
       -0.019067796 -0.0034067484 0.0060774605 0.014645066
000200 b1 7a 81 3a cd 39 cb 3b eb 5b c9 bb 0c 46 21 3c
       0.0009878484 0.0062019587 -0.0061449907 0.009843361
000210 46 22 21 bb 3f ac 09 3d f0 71 2f bb f5 48 f9 3c
       -0.002458708 0.033611532 -0.0026770793 0.030430296
000220 a7 57 0f b7 d4 9d c8 3a 63 52 09 bd 92 c4 4b bc
       -8.543872e-06 0.0015305826 -0.033525836 -0.012437003
000230 93 d1 14 bc 4e 16 91 bc c9 06 96 bc c1 bd 93 bb
       -0.0090831695 -0.017710831 -0.018313782 -0.0045087044
000240 b6 ef d1 3a 91 cc 14 bb 0b 8c 4e bd 1b 8e ad bc
       0.0016016874 -0.002270494 -0.050426524 -0.021185925
000250 3f f0 7b 3b f9 82 dc 3b a9 ed ab bc ce a7 43 bb
       0.0038442758 0.0067294803 -0.020987349 -0.0029854658
000260 98 bc ea bc 95 78 0d 3a fb 93 c5 bc bf b8 02 3d
       -0.028654382 0.0005396691 -0.024118414 0.03191447
000270 39 79 9c 3b e0 98 03 bd f1 1a 8b bd b4 02 22 bb
       0.004775193 -0.032128215 -0.06792248 -0.002472085
000280 42 6f b0 3b 26 2a a5 bb 73 3a b3 bc 5e 52 2e 3b
       0.0053843567 -0.005040425 -0.021878457 0.0026599388
000290 2b 4e 83 bc 8f 5b 20 bd 44 56 d1 ba a1 44 2d 3c
       -0.016028484 -0.039149817 -0.0015971144 0.010575444
0002a0 42 95 33 bd 6b fb fc 3b e9 ea 9f 3c 5b 3b 88 3b
       -0.043843515 0.007720401 0.019521194 0.0041574663
0002b0 47 7d 8f bb 10 2c 12 bc 52 d0 ad 3c a2 d9 bc ba
       -0.004378948 -0.008921638 0.021217499 -0.0014408121
0002c0 c7 d5 49 bb 23 fc 00 bd a6 69 7c bd 0b e6 23 bc
       -0.0030797587 -0.031490456 -0.06162419 -0.010003577
0002d0 8e 71 92 3b 7c 7d 98 bd 87 e0 16 bd 7b ca 11 bd
       0.004469103 -0.07445809 -0.03683522 -0.03559349
0002e0 97 8b c1 bb 0b d6 0b 3c fe 73 a3 3d 20 fe a1 3b
       -0.005906533 0.008534919 0.07981108 0.004943624
0002f0 43 49 28 ba 26 eb c2 bc 9e 6e a0 bb d6 4f 01 3c
       -0.0006419608 -0.023793768 -0.004895999 0.0078925695
000300 ea 6b 36 bd 93 a7 35 bc 29 57 79 3d 93 d0 84 3c
       -0.04453651 -0.011087316 0.060874138 0.016212737
000310 06 9c 72 3c 8e 62 21 bc b7 60 0e bd b0 7e 6e 3c
       0.014807707 -0.009850157 -0.034760203 0.014556572
000320 19 7e 87 bc cf 0f f2 3b dd cf 21 bc 1e 01 88 3b
       -0.01653962 0.0073871384 -0.009876219 0.004150524
000330 8c de 5d 3b c4 31 1d 3c 5f 0d 4d 3c 55 ec 75 3c
       0.0033854572 0.009594385 0.012515395 0.015009959
000340 28 c5 81 3a 63 1b 78 bc 0d 34 2c 3b af 52 24 3c
       0.0009900676 -0.015143248 0.0026276142 0.010029479
000350 d8 f4 b6 ba 85 bd 93 bc cb 27 de 3b e6 af 87 3c
       -0.0013958467 -0.018034706 0.006779646 0.016563367
000360 6f c7 61 bb ae 41 1f bc 1b fb 5a 3c d4 3e 08 bc
       -0.0034451147 -0.009720249 0.013365532 -0.008315761
000370 e0 82 04 bb cf 77 51 ba 64 b2 0a 3c f0 45 ae ba
       -0.002021961 -0.000799057 0.008465383 -0.001329599
000380 fe fe 75 3b 11 eb f2 bc 56 9b fd ba a4 d2 0d 3c
       0.003753602 -0.029653104 -0.0019348662 0.008656178
000390 36 51 09 3d 90 bf b0 3b dd e5 09 3b cb 9a b0 bc
       0.033524714 0.00539393 0.002104155 -0.021558186
0003a0 cd 7e be ba 5e 31 49 bb b5 39 32 3c e5 49 ca 3b
       -0.0014533639 -0.003069959 0.010878016 0.0061733597
0003b0 63 c7 32 3c 5f 15 76 3c ec 9f 4e 3c 0b 5e 81 3d
       0.010911795 0.015019744 0.0126113705 0.063167654
0003c0 4b b1 87 bc 75 b2 bc bc 36 8b cf bb fa 90 2b 3d
       -0.016564032 -0.023034314 -0.006333734 0.041886307
0003d0 6c 0d 11 bc 15 e9 f5 3c 3b 19 1a 3b 7b 64 9c 3b
       -0.008853298 0.030018369 0.0023513574 0.0047727204
0003e0 22 d7 83 bd e9 1f 8a bb a4 3a 8f bb fd e4 69 ba
       -0.06437518 -0.00421523 -0.004371004 -0.00089223665
0003f0 7b 2a 98 bb 35 17 cf 3c aa e5 68 bc 07 77 0e bb
       -0.004643736 0.02527962 -0.014214912 -0.0021738426

action_model._continuous_distribution.mu.bias f4 [3]
000000 3d 00 37 3d 51 98 a7 3d e3 e7 5b bd
       0.04467796 0.08183349 -0.05368794

action_model._discrete_distribution.branches.0.weight f4 [2, 128]
000000 2b 65 ad 3a 0b de b4 3c 5a ab 09 bd ee 1a 0d bd
       0.0013229003 0.022078535 -0.03361068 -0.03444951
000010 61 a8 a8 3c 80 18 ad bc 0a 9a 51 3c 44 ab b3 3c
       0.020588102 -0.021129847 0.012793073 0.021932252
000020 86 d4 25 3d 56 83 a6 3c 2f bf ae 3b 1b 2a 6e 3d
       0.04048588 0.020326298 0.0053328495 0.058145624
000030 23 1a 49 bd b1 97 74 3b a8 e6 cd bc fc ed d9 bc
       -0.04909719 0.003732186 -0.0251344 -0.026602738
000040 0e 2d 28 bd 1b 7e ef 3d 58 33 d4 bc 89 c6 ed b9
       -0.041058592 0.116939746 -0.025903389 -0.00045352083
000050 61 d4 ef 3c 69 93 86 bd 1c 63 c5 3d 97 0c a8 bb
       0.029276075 -0.06571085 0.09638044 -0.005128454
000060 90 05 74 3d 23 6b c8 bc fa 81 d6 ba 3e 0d 98 3c
       0.059575617 -0.02446515 -0.001636564 0.018561002
000070 56 9c c7 bc 11 95 00 bd 5d 48 a3 bc a2 83 5b 3c
       -0.024366539 -0.03139216 -0.019931966 0.013398083
000080 5b 17 d7 3c 14 9c b8 bb eb 08 ee 3b 96 9a 0d bd
       0.026256254 -0.0056338403 0.0072642467 -0.034571253
000090 6b ed 5d 3d f0 08 85 bd be 82 cd 3c a4 81 a2 bc
       0.054181498 -0.06495845 0.025086757 -0.019837208
0000a0 d9 76 20 bc 97 64 8f bd 2d 53 b3 bc 48 a8 49 3c
       -0.0097939605 -0.07001608 -0.021890247 0.012308188
0000b0 4b 3f 0f 3c 0e 34 b2 3c 9e db 80 3b 71 6c b8 3d
       0.008743118 0.021753337 0.0039324304 0.090050586
0000c0 b7 f2 c7 3b 0d 9e 2e bd 16 12 6a bd 87 9d 42 3c
       0.006101932 -0.042631198 -0.057146154 0.011878378
0000d0 3b fd 86 3c 34 3a 19 bd 1e 50 0c bd 17 1a 21 bd
       0.016478172 -0.037409022 -0.034256093 -0.03933152
0000e0 e1 32 14 bd 38 52 ce 3d 40 08 67 bd fb 05 d1 3c
       -0.036181334 0.10074276 -0.056404352 0.025515547
0000f0 f3 cd bf 3b 6c f4 3f bd 1e 8c d5 3d c7 39 ff 3d
       0.0058534085 -0.04686396 0.10427116 0.12462192
000100 be 24 97 bc de 99 2f bc ff 56 06 bd 72 7d 92 3b
       -0.018450137 -0.010717837 -0.03279781 0.0044705207
000110 bd 1b 7f 3c 98 5f 23 bc d6 af 4b bb 60 04 88 bc
       0.015570578 -0.009971522 -0.0031080148 -0.016603649
000120 b9 5c 7b bc ac 28 f9 ba 87 73 2a 3c ba 6e a0 3a
       -0.015341931 -0.0019009314 0.01040352 0.001224003
000130 a9 3c 36 bc 5a b6 67 bc 2d e8 93 3a 6d dd 72 3b
       -0.011122861 -0.014142597 0.0011284404 0.003705825
000140 e7 83 af 3d 73 34 8e 3c ce 1a 1b 3c ce 18 17 3d
       0.0857008 0.017358994 0.00946684 0.03688889
000150 89 cb 97 bc 33 79 1c ba ce ec 2a bc fc d8 88 3c
       -0.01852967 -0.0005968988 -0.010432435 0.016705029
000160 76 c9 17 bd 75 c5 1d bc 0d ab 94 bc 0f 07 06 3d
       -0.037057362 -0.009629597 -0.01814797 0.032721575
000170 ae b6 9e 3c b0 ef 89 bc 1d 19 3e 3b ed 7b a1 3d
       0.019374218 -0.016837925 0.0029006668 0.07884965
000180 fa 3b d4 3d 32 17 ae 3b 2f 3d 54 3b e1 58 3d 3c
       0.10363002 0.0053128237 0.00323851 0.011556835
000190 8c 02 56 bd 13 ef b4 bc e6 bd d5 3b 50 c6 63 bd
       -0.052248523 -0.022086656 0.006522882 -0.055609047
0001a0 d6 c6 dc bc 57 42 34 3a 67 18 a0 3c 15 9b b8 bd
       -0.026950281 0.00068763405 0.019542886 -0.090139546
0001b0 7e 69 9c bc 9f a1 83 bc 43 5e 9b bc ba 24 f1 3b
       -0.019093271 -0.016068278 -0.018965846 0.0073591145
0001c0 56 73 91 3c 93 3b 48 bc 05 f3 af 3d 6f 17 e3 3b
       0.017755192 -0.012221235 0.08591274 0.0069302837
0001d0 b8 9f e7 3c 1b 17 c9 3b 1d bf d8 ba 6e 8c b2 bc
       0.028274402 0.0061367876 -0.0016536448 -0.021795478
0001e0 60 92 ed bc f3 2f bd 3c aa 7e 98 3d b5 56 b9 3c
       -0.029000461 0.023094153 0.07446034 0.022624353
0001f0 c4 8b a8 3a 91 92 b4 3a d1 29 9a 3c 19 f7 a5 3d
       0.0012859036 0.001377659 0.018818768 0.08103771
000200 17 f0 28 bb c0 c2 b6 bb b9 a9 2b 3d 34 63 37 3d
       -0.002577787 -0.005577415 0.041909907 0.04477234
000210 b6 3c bc bc 3d 85 ad 3c a8 99 8a 3b a7 d3 14 bd
       -0.022978168 0.021181697 0.004229743 -0.03633466
000220 c5 86 74 bd 6b 3c 7b bb a8 4c 01 bc d3 11 86 bd
       -0.05969884 -0.0038335572 -0.007891811 -0.065463684
000230 8a a0 99 3d 19 4c 8c 3c 86 27 32 3c 1f 5a a2 3c
       0.075013235 0.01712613 0.010873681 0.019818364
000240 bb 39 66 3d 66 25 d8 bd ea 5b a6 3c c1 aa 0a 3b
       0.0562074 -0.10554008 0.0203075 0.0021158906
000250 8d 45 54 bc cd 74 9a 3d ae 42 ce bd 63 04 93 bc
       -0.012956035 0.07541809 -0.10071312 -0.017946428
000260 fe 34 94 bd 52 aa 02 3d a9 a1 da bb dd 53 c8 ba
       -0.0723667 0.03190071 -0.0066721034 -0.0015283782
000270 23 41 54 3c 2d 8c 81 3c 63 05 37 3c 60 a0 1d bc
       0.012954983 0.015813911 0.011170718 -0.009620756
000280 ca 54 71 bc 90 96 57 bc 5f fa 30 bc b8 aa 7f 3c
       -0.014729688 -0.0131584555 -0.010801881 0.015604667
000290 f0 d7 52 bd 1b 3d 8b 3d 87 3b 6b b9 2c 50 16 bb
       -0.051475465 0.06798764 -0.00022433522 -0.002293597
0002a0 8e 36 14 3d 02 22 76 3d 28 94 ce 3c 22 1a 92 bc
       0.03618484 0.060091026 0.02521713 -0.017834727
0002b0 3d 57 2c 3b c9 0b 22 3b 7d 5a dc bb 36 4f f1 bd
       0.0026297115 0.0024726263 -0.006724654 -0.117826864
0002c0 a2 86 92 3b d5 c1 b9 3c b2 49 8a 3d 52 e7 a2 bc
       0.004471616 0.022675434 0.067523375 -0.019885693
0002d0 2d b8 8c bc 59 01 09 3c 03 bd 24 3d 29 b9 f8 3c
       -0.017177666 0.008362138 0.040219318 0.030361729
0002e0 74 32 01 3d 3d 41 ca bd 5e 32 3f 3d 69 14 05 bd
       0.031542256 -0.098757245 0.046678893 -0.032490168
0002f0 3f 71 dd bc a8 8e 1b 3d f0 27 e2 bd 06 82 d0 bd
       -0.027031539 0.037977844 -0.11042774 -0.1018105
000300 4a fd 16 3d f2 38 25 bb 99 36 2a 3d 9e 38 79 bc
       0.03686265 -0.0025210944 0.041555975 -0.0152112525
000310 63 33 c8 bc 7a dd 8b 3b 29 d8 ed 3a 48 7a 05 bc
       -0.024438566 0.0042683454 0.0018146086 -0.00814683
000320 c1 33 e8 3c d2 a8 c4 bc 00 39 07 bb e3 80 14 3c
       0.02834499 -0.024006281 -0.002063334 0.009063932
000330 44 d0 85 3c 9d b9 af 3c 07 a1 ed ba 53 22 1f 3c
       0.01633466 0.021450812 -0.0018129655 0.009712773
000340 2f 1f af bd 2e 66 ea bc ba 64 84 bc 89 4b c6 bc
       -0.0855087 -0.028613176 -0.016161311 -0.02420594
000350 39 fe 09 3d e0 5f 90 bc 50 4b 87 bb 6a 35 33 bc
       0.03368971 -0.017623842 -0.004128851 -0.010938028
000360 7e 79 59 3d 29 bb b9 bc d0 ae 1c bc 7c 14 03 bd
       0.05309438 -0.022672253 -0.009563163 -0.032001957
000370 29 ea 3f bb 2d 9c 59 3c 60 4d 35 bc d8 61 94 bd
       -0.0029283857 0.013281864 -0.011065811 -0.07245225
000380 f8 0d b2 bd b8 d6 ba bb 57 73 2b bc ea 98 6b bc
       -0.086940706 -0.005701866 -0.010464511 -0.014379719
000390 ee 6e 4c 3d f2 b5 4f 3c 55 e6 60 bb 89 dd 47 3d
       0.04991048 0.0126776565 -0.0034316976 0.048795257
0003a0 5c 19 bb 3b cf 2b 66 bc 85 84 c3 bc b9 a4 81 3d
       0.00570981 -0.014048531 -0.023866901 0.063302465
0003b0 2d ff aa 3c 5f a7 e8 3c 77 d8 05 3c a4 49 58 bc
       0.02087363 0.028400121 0.008169285 -0.013201151
0003c0 30 14 90 3a 0a 8d ad 3b 43 50 7e bd eb 6f eb bb
       0.0010992344 0.005296354 -0.062088262 -0.0071849725
0003d0 c4 35 8a bc 66 31 55 bc bd 0d 72 b9 c9 d9 30 3c
       -0.01687134 -0.013012266 -0.00023084036 0.0107941115
0003e0 bb 15 bb 3c a8 25 85 bc e3 eb 4e bd 5f 1a bd bc
       0.02283751 -0.016253307 -0.050517928 -0.023083864
0003f0 85 58 d4 bc ef db af 3b 71 8f 38 bc 39 ed af bd
       -0.025921116 0.0053667943 -0.011264668 -0.085901685

action_model._discrete_distribution.branches.0.bias f4 [2]
000000 d6 90 79 3d d5 90 79 bd
       0.060929142 -0.06092914
