results/TestSAC/SuperTank/SuperTank-1000.onnx (onnx, 548215 bytes, 14 tensors)

network_body.observation_encoder.processors.0.normalizer.running_mean f4 [6]
000000 8f f5 1d c0 d8 bd 3f 3e 18 77 8b bf 52 72 19 3f
       -2.4681127 0.18724763 -1.089572 0.59940064
000010 11 0e 61 3e 60 48 9d bf
       0.21978022 -1.2287712

network_body._body_endoder.seq_layers.0.weight f4 [256, 6]
000000 32 04 31 bd 6a b5 d1 3e f0 95 48 3e a3 98 1a be
       -0.04321689 0.4095872 0.19588447 -0.15097289
000010 42 38 22 bd 28 8c 84 be e9 29 ab bd c5 f2 78 be
       -0.039604433 -0.2588818 -0.08357603 -0.24311359
000020 18 f1 32 3e 61 50 41 bd 69 96 02 bf 49 7b ea bd
       0.17474782 -0.047195796 -0.5101076 -0.11449296
000030 c4 13 25 bf ac 8d be be 8d bc 14 3d f6 00 41 3e
       -0.64483285 -0.37217462 0.03631263 0.18848023
000040 2e 4c d7 3e 92 85 8b 3e 70 e6 85 3f bd eb 96 be
       0.42050308 0.27250344 1.0460949 -0.2947673
000050 4d a0 02 be 4e 02 07 bd 27 f6 aa 3e a7 e1 54 be
       -0.12756462 -0.032961182 0.33390924 -0.20789205
000060 f7 b2 99 3e 8d 4d 28 bf 70 b0 8a 3d 73 4e 80 be
       0.30019352 -0.65743333 0.06771934 -0.25059852
000070 3d cb 63 bf 1d ba 14 be 69 8c a5 be d3 8d 4b bf
       -0.8898199 -0.14524122 -0.32333687 -0.7951328
000080 81 b3 57 be 59 e3 51 3e 69 6d 5e be f6 36 41 bf
       -0.21064569 0.20496882 -0.21721424 -0.7547449
000090 d9 50 67 be f2 f3 cb 3e f4 86 33 3e 5b 7f 8e be
       -0.22589435 0.39834553 0.1753195 -0.2783154
0000a0 5a b2 71 be 5f 42 8d 3e 10 56 8e 3e 11 13 75 3d
       -0.23603192 0.275897 0.27800035 0.059832636
0000b0 be 61 07 3f 75 b5 41 3f d2 61 74 3e 7b 8d 05 bf
       0.5288352 0.75667506 0.2386544 -0.5216901
0000c0 be d9 92 3d 9e 4d 92 3d 71 73 ef bd 20 e1 0b be
       0.07170437 0.071437106 -0.116919406 -0.13660097
0000d0 ee c2 b9 bc 41 0e 40 3d 60 c4 0f bf e1 e6 00 bf
       -0.022675958 0.046888594 -0.5615902 -0.50352293
0000e0 68 50 7a be a7 58 22 3f d5 a9 ac 3c ad da 22 be
       -0.24444735 0.6341652 0.021077076 -0.1590373
0000f0 91 20 49 3d 4d b7 b3 3d ba ec 26 be 6e 25 e1 be
       0.049103323 0.08775196 -0.16301242 -0.4397387
000100 e3 7d 8a bf 34 64 68 be 10 76 a5 bd b6 26 97 3e
       -1.0819668 -0.22694474 -0.08079159 0.29521722
000110 51 da 2d 3f 48 7a 17 bf b0 18 85 3e e6 09 0e 3f
       0.6791125 -0.5917096 0.25995398 0.55483854
000120 7a ce 15 3f f1 e2 93 be 4a 79 0f 3f 3b e3 bf 3d
       0.58518183 -0.2888408 0.5604445 0.09369513
000130 8a e7 0b be 4b a8 49 bf 4d 40 44 3f a6 47 7e 3f
       -0.13662544 -0.7877242 0.76660615 0.99328077
000140 a8 48 77 3f 64 db 00 bd d6 17 a4 3e 8b e2 7b 3e
       0.9659524 -0.031459227 0.32049435 0.24598138
000150 7c f5 e2 3d 64 5b a5 be d4 51 30 3e 23 a6 92 bd
       0.11081979 -0.32296288 0.17218715 -0.07160594
000160 a6 03 2d 3f 87 c3 ea 3e 38 11 13 3f 57 ea 0d 3e
       0.6758369 0.458523 0.5744815 0.13858925
000170 a2 e6 42 be 78 f0 69 3f 30 fe 9a 3d 45 00 07 bd
       -0.19033292 0.9138255 0.07568014 -0.03295924
000180 ac 9c fc 3e cd 36 63 be 77 45 e7 be e0 55 e1 3e
       0.4933828 -0.22188874 -0.45170185 0.4401083
000190 fe fc 12 3c b1 6c bf bc 30 f4 86 be b2 a6 f9 be
       0.008971451 -0.023367258 -0.26358175 -0.4875999
0001a0 e0 87 f0 3d 91 be d4 be 7a c4 71 bd 29 33 59 3e
       0.11744666 -0.4155164 -0.059025265 0.21210922
0001b0 2b 87 be bd 12 2b 0d 3f 1b 73 32 be a4 22 b1 be
       -0.09303125 0.55143845 -0.17426722 -0.3459674
0001c0 31 8c 10 3f 34 7b 94 3b 15 b4 0f be 74 2e df bd
       0.56463915 0.0045312885 -0.1403354 -0.10897532
0001d0 fa f4 5e 3f e8 ff d1 be 38 43 1a bd 63 d8 8a 3e
       0.87092555 -0.41015553 -0.03766176 0.27118215
0001e0 fe b8 89 3d bb 50 fe bd e3 24 f2 3d 76 09 31 3f
       0.067247376 -0.12417742 0.11823442 0.6915506
0001f0 08 ee 44 3f e4 12 26 3f 6a f9 16 3d a6 11 2c be
       0.76925707 0.64872575 0.036858954 -0.16803607
000200 c4 2e 2e 3e 6c 29 25 bf 02 35 b1 3e af fd 21 bf
       0.17010027 -0.6451633 0.34610754 -0.63277715
000210 7d b8 41 3f 5b 6a 8e 3f 32 a1 96 3e 73 e2 34 3f
       0.7567213 1.1126207 0.29419857 0.70658034
000220 c5 15 4b bf 00 98 62 be 9b cb e6 be 56 76 54 3d
       -0.7933009 -0.22128296 -0.45077214 0.051870666
000230 8f 59 ad be 23 7b c8 3f c6 a8 b3 3d 62 6f 2e 3e
       -0.3385739 1.5662578 0.08772425 0.17034677
000240 cd 4b bc 3e 3d 7d b1 be c0 67 87 3d a7 5b 37 bd
       0.3677658 -0.34665862 0.066115856 -0.04476514
000250 c6 e0 f0 3e b2 6b 07 bf 46 08 a5 3e eb 91 db 3e
       0.4704649 -0.52898705 0.32232875 0.42884764
000260 47 15 57 bf 20 f6 e2 3e 35 8a 85 3f 23 f0 9d 3e
       -0.8401684 0.44328403 1.0432802 0.30847272
000270 bf 1a f2 3c 44 0e 4a 3e 2f 40 84 be 87 63 2b be
       0.02955377 0.19732004 -0.25830218 -0.16737185
000280 03 c8 33 3e 75 9b 91 3f a0 df 68 3f 0b 80 e4 be
       0.17556767 1.1375567 0.90966225 -0.4462894
000290 f2 43 bf be 62 17 a8 be 84 a2 af be eb c0 b2 bc
       -0.37356526 -0.3283034 -0.34303677 -0.021820506
0002a0 50 81 d6 3e 30 0e 8d be ea 51 b8 be c5 f1 2f bf
       0.41895533 -0.27549887 -0.35999995 -0.68728286
0002b0 9e 2d fd be 1a e6 2a 3f c1 df 79 3d 3d da 2c be
       -0.49448866 0.6675736 0.061004404 -0.16880126
0002c0 cb 39 5a bf db 42 e3 be a1 68 32 3d 2c 39 48 bf
       -0.85244435 -0.44386944 0.043556813 -0.7821224
0002d0 84 b3 8a 3e 39 cf 5f be 11 47 0e bf 21 59 81 bd
       0.27090085 -0.21856393 -0.5557719 -0.06315828
0002e0 c7 f9 4a bf 01 8f e9 3d 51 e9 98 3e cd 91 2a bf
       -0.7928738 0.11404229 0.29865506 -0.66628724
0002f0 f9 e8 bd bd 6f aa 14 3f 97 9e 23 3d 7d 61 1d bf
       -0.09272952 0.5807256 0.039946165 -0.6147688
000300 55 f3 f9 3e 18 a8 96 3d 9f af 3b 3f 2f 01 8d be
       0.4881846 0.0735628 0.7331485 -0.27539966
000310 eb 5b d3 3e 68 35 a6 be 0d 90 43 3c fa a1 9f 3d
       0.41281065 -0.3246262 0.0119362 0.077945665
000320 cc f2 f4 be f8 38 a5 3e f2 6a 2d bd d3 f0 45 be
       -0.4784149 0.32270026 -0.04233832 -0.19330148
000330 e4 19 73 bf 25 7a 90 3c 38 d1 ea be 89 3c d6 3e
       -0.9496138 0.017636368 -0.45862746 0.4184306
000340 53 c1 61 3e 0e 8a db ba 96 1a 97 3b 45 f4 26 bf
       0.22046404 -0.0016749518 0.0046113236 -0.65216476
000350 18 d8 23 3b 93 e8 dc 3e fb c9 04 3e 43 23 bf be
       0.0025000628 0.4314619 0.12967674 -0.3733159
000360 59 fd e6 3e 8e aa 11 bf 2f 02 1c 3f 3f 81 5b 3f
       0.45115164 -0.5690087 0.6094083 0.8574409
000370 22 57 84 bd b5 4f cc 3c 1b 71 12 3f bc 83 2e 3f
       -0.06461932 0.024940351 0.57203835 0.6816976
000380 43 4f 0a bf 3b 95 55 3e 39 47 42 3e d5 e8 23 3d
       -0.54027194 0.20857708 0.18972482 0.040016968
000390 99 d2 39 be a6 d9 cb bd 98 e9 ba be 8b 64 a1 3f
       -0.18146743 -0.099536225 -0.36506343 1.2608808
0003a0 40 9b 67 3d 4f e1 f6 3e 8c e9 cd bc a0 9a dc bd
       0.056544542 0.48218772 -0.025135778 -0.1077168
0003b0 51 d4 c0 3d 09 5f e8 3e 78 31 27 3e f8 c6 3a bd
       0.09415496 0.45385006 0.16327465 -0.045599908
0003c0 23 11 8d 3e cd 6e 3b bf d8 8a 47 be 19 6c d0 3e
       0.27552137 -0.73215944 -0.19486558 0.40707472
0003d0 8b e3 19 3d ee 83 02 bf af 91 92 3e e3 01 9f 3d
       0.037570518 -0.5098256 0.28626773 0.07764032
0003e0 e5 6c 9f 3e db 74 f9 3e a5 07 3d 3d 1a 9e 4a be
       0.31137767 0.48721966 0.04614987 -0.19786873
0003f0 7f 8e d3 3e 31 33 ff 3d eb fe 7d bf 06 72 4c 3e
       0.41319653 0.12460936 -0.992171 0.19965371

network_body._body_endoder.seq_layers.0.bias f4 [256]
000000 14 e5 a5 bd 7c 60 99 3d 65 66 a2 3d 84 e9 59 3d
       -0.08100334 0.07489106 0.079296865 0.053201213
000010 47 10 86 3d 9f b8 d2 3d 59 b4 a7 bd 72 fa 97 3c
       0.065460734 0.1028912 -0.081886955 0.018552039
000020 f3 0a 37 bd 07 2f a6 3d a7 1f b4 bd 1c 5a fb bc
       -0.044688176 0.081144385 -0.087951 -0.030682616
000030 fc 31 5c 3d 0e b4 5a bc b1 03 a7 3d e2 a8 cd 3c
       0.053758606 -0.013348592 0.08155001 0.025104944
000040 9a 54 a6 3d 11 a9 a8 3d 6e 0e 18 3b 0c 98 17 bb
       0.08121605 0.08235372 0.002320196 -0.0023131398
000050 80 3d 96 3d 35 de c6 3d 8c ec 94 3c 6b 92 22 3e
       0.07335949 0.097103514 0.0181792 0.15876167
000060 c4 65 96 3d c4 87 9b 3b d4 b3 83 bd da 9a 64 3c
       0.07343629 0.004746409 -0.06430784 0.013952935
000070 bd 2c 82 bd 69 8d d5 3c 44 13 f7 b9 e9 7d a6 3d
       -0.063561894 0.026068406 -0.00047125865 0.08129484
000080 76 3f 0b 3d 26 8e 5d 3d c3 1c 03 3e 3f 78 d1 3d
       0.033996068 0.05409064 0.1280394 0.10228013
000090 2c 9e 79 3d 6e bd 9e bb 46 ac e9 3d a3 9d 97 3d
       0.06094186 -0.004844359 0.11409812 0.07403114
0000a0 f8 d6 a4 3d 00 ca 19 bd 8e 96 1f 3d 24 44 04 3d
       0.080488145 -0.037546158 0.03896194 0.032291546
0000b0 e5 52 4c bc 48 be 51 bb 36 cd 07 3a 42 de 71 3d
       -0.0124709355 -0.0032004286 0.000518042 0.059049852
0000c0 8b 16 44 3d f0 1e a0 3d 08 7a 32 3c ca 25 79 3c
       0.04787306 0.07818401 0.010893352 0.0152067635
0000d0 e1 93 a1 3d ec 70 79 bc 68 10 66 bd 70 da b3 3d
       0.07889534 -0.015224677 -0.05616799 0.08781898
0000e0 9c 9e 58 3c 91 e5 86 3c 76 cb ea 3d bb 20 0c bd
       0.013221409 0.016466888 0.11464588 -0.0342109
0000f0 d3 13 e1 3c 26 78 73 bb 15 45 c8 3d 6d ca bc 3d
       0.027475273 -0.0037150471 0.09778801 0.09218297
000100 90 95 88 bc 0c 5e d0 3d 44 04 ab 3b d4 f7 72 bd
       -0.01667288 0.10174188 0.0052190144 -0.05931838
000110 77 ba a7 3c 29 c3 a6 3c 18 8b d9 ba 20 b9 cf 3d
       0.020474656 0.020356731 -0.0016597239 0.10142732
000120 ef de c4 3c 35 30 12 3e 72 59 13 3e 10 51 80 bb
       0.024032084 0.14276202 0.1438959 -0.0039159134
000130 5b 76 fb bc 65 23 2b bc 55 f2 c9 3d 3c 1d ce 3d
       -0.030696085 -0.01044545 0.09860674 0.1006417
000140 e1 b7 b5 3c 1d dd d7 3b 75 24 c1 3d 92 fb a4 3c
       0.022182407 0.006587638 0.09430782 0.02013949
000150 71 a1 e6 3d 19 e3 b9 bd a5 3f bf 3d a2 99 1f bd
       0.11261261 -0.090765186 0.09338311 -0.038964875
000160 87 f5 84 3c cc fa 5e 3d f1 6c 2e 3e e3 4a 22 bd
       0.016230358 0.054438397 0.17033745 -0.0396222
000170 d2 1c 9b 3d 02 6f 7c 3d 72 11 a8 3d 70 84 ca 3d
       0.075738564 0.061629303 0.082064524 0.09888542
000180 fc 50 cc 3d 8f a9 98 3d c4 92 38 bd 90 3d 90 bc
       0.09976384 0.07454216 -0.04506184 -0.01760748
000190 9f b6 b6 39 5b d9 99 bd 34 f1 5e bc f4 08 09 3d
       0.00034849808 -0.075121604 -0.013607312 0.033455804
0001a0 8e 00 be 3d 2f 06 8c 3c 89 9a 16 bc 08 c1 aa 3d
       0.092774495 0.017092792 -0.0091921175 0.08337599
0001b0 b5 ed b5 bc 1a 7b 22 3d 4a d1 31 3e 95 a6 1b 3e
       -0.022208074 0.03966818 0.17364994 0.15200265
0001c0 3d 1f cf 3d 06 a4 e6 3d 10 6f b3 3d 69 d1 7e bd
       0.1011338 0.11261754 0.08761418 -0.062211428
0001d0 56 06 9f 3d fb fa b6 bd fb ce 9c 3b e8 14 d2 bd
       0.0776488 -0.089345895 0.004785416 -0.10257894
0001e0 95 61 7b bd 6e 83 d0 3d 48 32 be 3d 66 f9 9c 3d
       -0.06137236 0.10181318 0.09286934 0.076647565
0001f0 9f 59 eb 3d 32 8b a0 3d 69 4f 6d bd 06 c0 be 3d
       0.11491703 0.078390494 -0.05793706 0.09313969
000200 d4 d0 f6 3d 30 d1 68 3c 77 59 45 3d 6f 54 80 bd
       0.120515496 0.01421003 0.048181023 -0.062661044
000210 fb 67 a9 3d 64 9a f7 3c de 36 4a bd 4a da 30 bd
       0.08271786 0.030224986 -0.04936873 -0.043176927
000220 f5 02 e3 3d ba 9e d9 3d 3a c1 0d 3d c6 e7 89 3d
       0.110845484 0.10625978 0.034608103 0.067336604
000230 1b a8 26 3c 27 d8 74 bd 4d 83 07 bc 74 39 9a bc
       0.010171915 -0.05977645 -0.008271051 -0.018826224
000240 a7 8e 08 bd ed 71 b0 bd a4 b1 e1 3d bd 45 8b 3d
       -0.03333917 -0.086154796 0.110202104 0.06800411
000250 fd ac d3 3d 0c 2d d0 3c 83 eb a0 3d 20 d7 db 3d
       0.10335729 0.025412105 0.0785742 0.10734391
000260 a0 b1 b0 3d 7b 5d a3 3d 7b 74 5c bd 08 16 86 bd
       0.08627629 0.07976814 -0.053822022 -0.06547171
000270 df fd 2a 3c 54 7c a0 ba 77 98 84 3d df 9c 11 3e
       0.010436504 -0.0012244084 0.06474393 0.14219998
000280 9b 94 77 ba 98 68 4f 3d b1 4a 6d 3d 0d 1d 69 bd
       -0.0009444446 0.050636858 0.05793256 -0.05691247
000290 51 cd af bc 86 ae 93 3d 5b 83 f6 bd 12 b6 ba 3d
       -0.021460207 0.07211022 -0.12036773 0.091167584
0002a0 fb ee 7b 3d 8e cf 85 3d ab 77 84 3d 8b a8 df bd
       0.061507206 0.065337285 0.06468137 -0.10920819
0002b0 34 9e 95 bd d6 58 06 bd e0 c4 81 3d 46 55 40 3d
       -0.073055655 -0.032799564 0.06336379 0.046956323
0002c0 02 f6 8b 3b 35 b0 47 3d 21 af 79 bc eb c5 a1 3d
       0.00427127 0.04875203 -0.015239508 0.07899078
0002d0 52 d1 e5 3d eb 37 8d 3d eb 83 b3 3d 5e 68 c0 bd
       0.11221565 0.06895431 0.08765396 -0.093949065
0002e0 fb d5 e5 39 5c 21 68 bc 6a 51 a2 3d 5e 20 cd 3c
       0.00043837712 -0.01416811 0.07925685 0.025039848
0002f0 54 ea 89 3b 13 ad 9c 3c 9e a0 a6 bc 97 43 b2 3d
       0.0042088423 0.019125497 -0.02034026 0.08704298
000300 b8 44 9f bb 5e 05 3b bd ae 99 9f 3c 72 2d 9d 3d
       -0.004860487 -0.045659415 0.01948246 0.07674684
000310 84 39 50 bc 1e 50 13 bb a3 f7 fa bc 81 1c 82 3d
       -0.012709025 -0.0022478173 -0.03063566 0.06353093
000320 7b 4d a5 3d 12 8f 5b 3d 9a de 08 3e 0f a2 d2 3d
       0.08071419 0.05360324 0.13366166 0.102848165
000330 1d 27 79 bd ff aa 87 3d bd 6a a5 3d 8c b4 d1 3d
       -0.060828317 0.06624412 0.08076999 0.10239515
000340 cf f5 a1 3c c7 74 7d 3b 09 28 d5 bc ef 9e 4f bd
       0.019770531 0.003867434 -0.026020067 -0.05068868
000350 3c 66 63 3d 1d 1e 28 3c 9c 48 d8 3d 63 6d 94 bd
       0.05551742 0.010261086 0.10560724 -0.07247426
000360 96 e7 88 bc d1 59 02 3d c0 78 ed 3d 3a d9 b9 3d
       -0.016711991 0.031823937 0.11595297 0.09074636
000370 e4 7a 68 3d ad 94 8a 3c eb 59 b1 3d 57 ae 9d bd
       0.056757823 0.016916597 0.086597286 -0.07699268
000380 ef e5 b1 bd a4 14 d6 3d 6b a9 07 3c 90 8b 42 bd
       -0.086864345 0.10453156 0.0082801385 -0.04749638
000390 87 3f 03 bd b4 dd ab 3d d0 28 b7 3d 2e fe f8 3d
       -0.032043006 0.08391896 0.08943331 0.12157856
0003a0 1a cd ed 3d 13 f0 be 3d 8c 20 a7 3d 89 c9 d1 bd
       0.11611386 0.09323134 0.08160505 -0.10243518
0003b0 0b 82 82 3c 27 50 a9 3d 4a 1f cc 3d 47 dd 03 3c
       0.01593115 0.08267241 0.099669054 0.008048362
0003c0 18 64 e2 bd 9d 91 b0 3d 2e 71 11 3e f2 91 30 3c
       -0.110542476 0.086215235 0.14203331 0.010776984
0003d0 67 64 24 3c 2f 04 0b 3c 60 cf 89 3b a6 59 15 3c
       0.010033703 0.008484884 0.004205629 0.009115612
0003e0 c0 9a 4a 3c 11 7e a8 3d 47 e9 c7 bc 7a ad f6 3c
       0.012365997 0.0822717 -0.024403227 0.030112017
0003f0 fc 01 e4 3c 84 67 de bc 56 21 b1 3d 3e 3a 8f 3d
       0.027832977 -0.02714897 0.086489365 0.06993531

network_body._body_endoder.seq_layers.2.weight f4 [256, 256]
000000 d3 47 28 3d f8 7e 8e bd b4 5a ca 3c 35 8c 60 3c
       0.041084122 -0.06957811 0.024701454 0.013705303
000010 b3 32 90 bc 96 49 89 bd bf 5e a5 3c f9 a8 b0 3d
       -0.0176023 -0.067034885 0.02018678 0.08625979
000020 2a f1 5e 3d 00 6f b8 3d e0 a4 bd 3d bc a3 95 bc
       0.05442921 0.090055466 0.09259963 -0.018266551
000030 d9 c6 30 bd 66 df 15 bd 2b e8 ba 3b 3e 42 4f 3d
       -0.043158386 -0.036590002 0.005703946 0.050600283
000040 51 25 a5 3d 44 9e 07 be 62 99 de 3d a2 e1 13 bd
       0.08063758 -0.13243967 0.10869099 -0.036103852
000050 6c 2a ad bb ae 06 98 bd 4b 60 35 3d 30 63 02 be
       -0.005284598 -0.07423149 0.044281285 -0.1273315
000060 fa 54 ff 3d c1 ef 5d 3d 06 fd ef 3d d7 0b 9f 3d
       0.1246738 0.054183725 0.11718182 0.0776593
000070 b2 af 24 bd 6f 77 90 bb 35 d5 f1 3d c4 5b 99 bd
       -0.04020662 -0.004408769 0.11808244 -0.07488206
000080 ee af 3f bd e5 a5 3e 3d f8 98 a1 bc 93 63 39 bd
       -0.04679864 0.046544928 -0.019726261 -0.045260977
000090 16 32 e8 3d 83 38 ac 3c 3b f0 de 3d ee c7 b8 bc
       0.11337678 0.02102304 0.10885664 -0.022556271
0000a0 31 5d aa bc d7 96 07 3e d5 c9 cb ba 6a f5 39 3d
       -0.02079639 0.13241135 -0.0015547822 0.04540006
0000b0 33 6a 5c bd af 8c 9c bd 52 4c 09 bd 0b e8 51 bd
       -0.053812217 -0.07644021 -0.03352005 -0.051246684
0000c0 ca ef 9e bd ab 78 9e 3c 27 62 dd bc 51 af 0a bd
       -0.0776058 0.019344648 -0.027024342 -0.0338586
0000d0 1d 4e f8 3c 48 7a 6c 3d 5a 09 a6 3c 41 97 84 bd
       0.030310685 0.057733804 0.020268131 -0.06474162
0000e0 34 24 db 3c d4 e1 1f be 70 8a 5a bc f9 d3 54 3d
       0.026750661 -0.1561349 -0.01333867 0.051959965
0000f0 f4 eb a5 3c 14 8a 6c 3c c9 94 74 bd 65 98 6f 3c
       0.020254113 0.014437217 -0.059712205 0.014623736
000100 50 a8 ce 3d 55 49 e1 bc 68 eb 6a bd ff ee 3e bd
       0.10090697 -0.027500788 -0.057353407 -0.046614643
000110 86 b2 13 3e d9 b3 17 bd 90 58 aa bd c8 f0 a0 3a
       0.1442357 -0.03703675 -0.08317673 0.001227879
000120 bd a1 bc bd 9b 5d 83 3d 48 61 cc bc 08 84 d6 bd
       -0.09210537 0.06414338 -0.024948731 -0.10474402
000130 9a c9 e4 bd 6a c6 07 3d a5 8f 7e 3c 95 0b 19 3d
       -0.11171265 0.033148207 0.015537177 0.03736456
000140 90 cd e2 bd 72 88 74 bd 52 39 96 bd ad 07 89 3b
       -0.11074364 -0.059700437 -0.07335152 0.004181823
000150 00 de 46 bd 79 52 16 3e b1 90 9e bc 50 ee 05 3d
       -0.04855156 0.14679898 -0.019356104 0.032697976
000160 0f c3 0f be df 24 3a bd 9b de 8d 3c a5 c1 fc 3c
       -0.14039253 -0.04544532 0.01731806 0.030854056
000170 fc 98 8a bd d0 f1 6e 3d 47 dd 46 3d 2b 0e ca 3c
       -0.06767461 0.05833608 0.04855087 0.024664959
000180 d6 5d 2c bd 1f 56 8d bc 7c 4f 37 3d bd c9 2f bc
       -0.042081676 -0.01725298 0.044753537 -0.0107292505
000190 a9 8f a4 bc d7 52 d5 3d 1d e9 41 3d 78 6e 04 bd
       -0.020088034 0.10416191 0.047341455 -0.032331914
0001a0 4e e0 af bd d7 ac 88 bd dd a7 8b 3b 35 73 85 bc
       -0.085877046 -0.066735916 0.004261954 -0.016290287
0001b0 b1 3f ae 3d dd 1c fc bd 5c 99 45 bd 05 79 4b bd
       0.08508242 -0.12310193 -0.048241958 -0.04967596
0001c0 0f 2b c8 3d ea 22 05 3d 0c 84 11 3d 61 e2 1a 3e
       0.09773838 0.032504 0.03552632 0.15125419
0001d0 84 32 f0 3d 9b 6b d8 3d ff 5f 63 bd e6 94 6c bd
       0.11728385 0.10567399 -0.05551147 -0.057759188
0001e0 c5 bb 9d 3d ee 2f 1e bb b7 9e 23 be 0d a4 20 3d
       0.0770183 -0.0024137455 -0.15978514 0.03921895
0001f0 34 32 19 bd ca 16 aa bd 84 91 ee 3d f9 d4 1e 3c
       -0.037401393 -0.08305128 0.11648849 0.009694331
000200 7f 90 e2 bd 5c 4c 36 be 0e 65 0b 3d 70 3e dc 3d
       -0.11062717 -0.17802566 0.03403192 0.107540965
000210 06 31 99 3d 4b b4 65 bd 63 84 3b 3c a3 1e 00 3c
       0.074800536 -0.056080144 0.011445138 0.007819804
000220 1d 57 f9 3c 06 80 75 bd 3e f3 7c 3d 06 1f ed bd
       0.030437047 -0.059936546 0.06175541 -0.11578183
000230 72 f4 88 bd e1 1c 05 3d 5e e7 6a 3d 43 cc f6 3b
       -0.06687249 0.032498244 0.057349555 0.007531674
000240 9b 2d 88 bc f6 93 5f 3d 2b 48 24 3d 5d 3d f7 bc
       -0.016623309 0.054584466 0.040107887 -0.030180627
000250 ef 49 10 be d4 9a af bd 19 db 0b 3d 59 12 d2 bd
       -0.14090703 -0.08574453 0.034144495 -0.10257406
000260 3f 13 16 bd 77 2c 26 3d 78 42 89 3d df df ad 3d
       -0.03663945 0.04056975 0.06702131 0.08489966
000270 9d d1 a5 3d 20 af 4b 3c c7 bb 76 be 9d e7 09 3e
       0.08096621 0.01243189 -0.24095069 0.1346726
000280 ec 6b 54 bd 0d 98 98 bb 04 54 41 be 82 b0 1e 3e
       -0.051860735 -0.0046567977 -0.18879706 0.1549702
000290 e1 59 d7 bc cf 25 ee bb ad b6 54 bd f8 f9 eb bd
       -0.026287975 -0.0072676907 -0.051932026 -0.11522287
0002a0 1e 52 43 be ae 14 01 3d 9d d2 0a 3d 65 3b 7c 3c
       -0.19074294 0.031513862 0.033892263 0.01539502
0002b0 84 fa 45 3d dd 27 53 3c 46 33 bb bd 95 a9 ec bd
       0.048334613 0.012887922 -0.09140639 -0.11555783
0002c0 48 09 25 3d 55 56 0d bd 9d af 28 bc 93 01 d8 3c
       0.040292054 -0.03450616 -0.010295776 0.026367938
0002d0 1e 00 ed bd d8 48 91 bd a7 43 36 be bc 8f 20 3e
       -0.11572288 -0.07093972 -0.17799245 0.1567983
0002e0 aa d7 c4 bc 24 d4 e8 3c e2 50 83 bc 16 a7 18 3e
       -0.024028618 0.028421469 -0.016029779 0.14907488
0002f0 ea ef 63 3d 0d 4f 70 bc dc 71 94 bd 99 8e 54 3d
       0.05564872 -0.014667285 -0.072482795 0.051893804
000300 66 b7 06 3d f3 9e a0 3d f8 d6 fc 3c 64 5e 4e bd
       0.032889746 0.07842817 0.030864224 -0.050382987
000310 cf ef 11 3d 76 d7 0d bd 22 c2 8a bd 0b 1d f3 3b
       0.03562909 -0.034629308 -0.06775309 0.0074192337
000320 46 3c 80 bd 97 64 a5 3c 5b f1 4e 3d 2a ec c9 3d
       -0.06261496 0.020189567 0.050523143 0.09859498
000330 00 52 9e 3d 45 62 9e 3b 45 4a b3 bc f7 b4 93 bd
       0.07730484 0.004833492 -0.021886 -0.07212251
000340 55 85 55 bd 39 23 26 3d b4 07 f2 3b a5 28 26 3b
       -0.05212911 0.040560935 0.007386172 0.0025353816
000350 b9 fa a7 3a b5 b6 12 3e ac 0f 4d 3b 69 ee 21 bd
       0.001281581 0.1432751 0.0031289859 -0.039534006
000360 15 3c bc 3d 59 40 83 3d ad 36 7b 3d 21 0e c4 bd
       0.09191147 0.06408758 0.06133144 -0.095730074
000370 d2 4a 87 bc 89 db 7c bc 71 2c 49 3d 9a f3 b9 3d
       -0.01651517 -0.015433201 0.04911465 0.090796664
000380 fe ed df 3c 7f e3 97 b9 25 5c a4 3d 09 3c a4 bb
       0.027335163 -0.00028970462 0.08025388 -0.0050120396
000390 c3 33 a6 3d fa 82 7a bc 11 49 83 bd d0 dd 3c bd
       0.081153415 -0.015290016 -0.06410421 -0.046109974
0003a0 3d 88 3f 3c 81 41 cb bd ee 43 81 bd c7 7f 68 3d
       0.011690197 -0.09924603 -0.06311785 0.056762483
0003b0 0a ae 38 bd 20 ba 14 bb b6 56 ce bc 4d e4 52 3d
       -0.04508785 -0.0022693947 -0.025187831 0.051487256
0003c0 14 8e 79 3d f3 e9 a6 bd f1 29 91 bd 9d bb d7 3b
       0.060926512 -0.08150091 -0.07088078 0.0065836445
0003d0 7d f1 6e bd 79 0c 10 bd 79 32 0a bd 8f dc 26 bd
       -0.05833577 -0.035168145 -0.03373954 -0.040737685
0003e0 6c c9 c7 3d 44 c1 e4 bd e7 5b 7f bb b8 54 36 3e
       0.09755215 -0.11169675 -0.003896469 0.17805755
0003f0 dc ea 76 3d 7f 53 ec bd 37 85 07 3c 99 51 dd 3c
       0.060282573 -0.11539363 0.008271507 0.027016448

network_body._body_endoder.seq_layers.2.bias f4 [256]
000000 c7 28 86 bd 24 5a cd 3c c6 88 7d 3d 4c 1c b6 bd
       -0.065507464 0.025067396 0.061898015 -0.08892116
000010 9d 5e e6 bc 21 50 06 3d d0 e3 dc bd af 93 13 3d
       -0.028121287 0.03279126 -0.10785639 0.036029514
000020 37 fe dc bd ff 04 93 bd d6 eb e8 bc 54 f6 26 3d
       -0.10790675 -0.07178687 -0.028432768 0.04076226
000030 a6 5a c3 3c d7 da 56 3d bb 9d 23 3d 7e e0 d4 bd
       0.023846935 0.052454796 0.039945345 -0.10394381
000040 8f 4b a9 bd e6 b5 7a 3d 3e f2 0a 3d e1 3d 0f be
       -0.08266365 0.061208628 0.033922426 -0.13988449
000050 5f 59 34 3d 7e 8f 0c 3d 8c 81 96 3d 77 70 21 3d
       0.044030543 0.034316532 0.07348928 0.039413895
000060 1d 3f e1 bd ac 8f 9c 3c f4 65 80 3c 3e 74 9b bd
       -0.10998366 0.019111477 0.015673615 -0.07590531
000070 52 74 c4 bd d9 86 c5 bd f7 e4 81 3d 50 72 87 bd
       -0.09592499 -0.09644861 0.063425 -0.066136
000080 ef 28 21 3c 26 bd 20 bd d6 1a 65 3d d7 9a ab 3b
       0.0098364195 -0.039242886 0.055933796 0.005236964
000090 0e 6e 6e 3d 5f e7 dc 3c 3c 8f d2 bd 9d 3c 93 3c
       0.058210425 0.026965795 -0.10281226 0.017973239
0000a0 a8 b7 f4 bd ae 91 ed bd 21 f0 8a 3d 9b 30 88 3d
       -0.11949092 -0.11600052 0.06784082 0.06649896
0000b0 2b 2c d7 3c 92 a2 b7 3d 8b c6 b2 3d fb af f7 3d
       0.026266178 0.08966555 0.08729275 0.120941125
0000c0 c1 9e 83 3a c2 06 82 3c 4d c6 0a 3d 19 c2 e9 3c
       0.0010041819 0.015872363 0.03388052 0.028534936
0000d0 55 8d 28 3d ba 0e b1 bd 43 de 91 bd 2c 19 31 3d
       0.04115041 -0.08645387 -0.07122471 0.043236896
0000e0 54 00 1f 3c be 02 19 3d 7b 99 b7 bd 82 0d 08 3d
       0.009704668 0.03735613 -0.08964821 0.033216007
0000f0 6c 87 8f 3d f1 f2 f1 3c 25 7a cc bd 11 88 e9 bd
       0.070082515 0.029534789 -0.09984235 -0.11402906
000100 6d 9d a7 bd 54 37 43 3d 70 9d 45 bc 62 f7 5d 3c
       -0.081843235 0.047660187 -0.012061462 0.01354775
000110 27 91 ef 3c 12 34 c2 bc b1 0c a3 3a c8 16 94 bd
       0.029244019 -0.02370647 0.0012439695 -0.07230908
000120 35 fb 7a 3c 63 5d 9b 3d b2 94 c4 3c c3 91 b8 3c
       0.0153186815 0.075861715 0.023996685 0.022530442
000130 eb ce a1 3c 05 be cf 3d 86 fa a9 3d 3a 26 ba 3a
       0.019751986 0.10143665 0.08299737 0.0014202066
000140 61 a2 45 bc db 1d 10 3d ac 2f d6 3b bf 4f 83 3d
       -0.01206264 0.035184722 0.0065364446 0.06411695
000150 79 ec a2 3d 29 14 9e 3c 96 e5 ec 3c 06 24 4a 3d
       0.0795526 0.019296722 0.028918069 0.04935076
000160 a7 2d 00 be c7 f0 9d bd 79 69 7d bc 4b d7 42 3d
       -0.12517415 -0.0771194 -0.015467041 0.0475686
000170 73 b5 63 3d 12 1f a5 bb 14 9f 9e 3d c7 53 91 3d
       0.055592965 -0.0050391043 0.077451855 0.070960574
000180 69 49 c5 3d 2e c0 3f 3d da da 81 3d fc 48 21 3d
       0.096331425 0.046814136 0.06340571 0.039376244
000190 da 03 1b be 7a 88 01 be a4 55 5f 3c ad 25 48 3d
       -0.15138188 -0.12649718 0.013631258 0.048864055
0001a0 55 41 cc bd b4 03 b6 bd 31 74 60 3d 14 1d 15 3b
       -0.099733986 -0.08887425 0.05479831 0.0022752928
0001b0 e3 34 7e 3d 72 40 93 3d 84 4c 05 bd b4 c7 0b bd
       0.062062155 0.07190026 -0.032543674 -0.034126
0001c0 78 6a 3a 3d a1 3b 30 3c c4 16 7f 3d 3d c4 2f 3c
       0.045511693 0.010756404 0.06227757 0.010727939
0001d0 78 76 2e 3c 3c f0 6c bd b8 08 c7 bd 1f bb c0 3d
       0.010648362 -0.057846293 -0.0971846 0.094106905
0001e0 16 ea be bd 7e 48 18 3d 28 89 78 3d 56 f1 cd 3b
       -0.09321992 0.03717851 0.060677677 0.006284873
0001f0 19 79 8d 3d 95 f8 ed bc 29 06 48 3d 78 2a 8c bb
       0.06907863 -0.029049197 0.048834 -0.0042775236
000200 7e 0e 30 3d e0 a5 47 3d 1b d9 a0 3d ff 42 94 bd
       0.04298257 0.048742175 0.078539096 -0.07239341
000210 d5 77 3d 3d 4e 46 de bd d7 0e bd bd f4 6c 67 3d
       0.04625686 -0.10853253 -0.09231346 0.05650039
000220 b2 db 7d 3b 7e 06 b1 bc 90 16 4b 3c 6c 31 9c 3c
       0.0038735685 -0.021609541 0.012395516 0.019066535
000230 8a 88 1b 3d a3 2b 62 3d 09 11 5f bc ea f1 7f 3d
       0.03797201 0.055217396 -0.013614901 0.062486567
000240 55 89 9b bd e6 07 e4 3d 78 d0 7f 3d cd d6 76 3c
       -0.075945534 0.11134319 0.06245467 0.015065861
000250 f4 88 2f 3c 91 63 e7 bc 36 e8 b0 3d 3b d5 46 3c
       0.0107138045 -0.02824572 0.08638041 0.012135799
000260 ba be 65 3d 09 6f 03 bd 7c 5d d6 3b d1 df d3 bd
       0.056090094 -0.032088313 0.006541906 -0.10345424
000270 44 29 05 3e a2 7f ab 3c 7a fc e3 bd d2 e0 81 bb
       0.13004023 0.020934884 -0.111321405 -0.0039635682
000280 dd c7 10 3d c8 e1 0f 3d 95 52 2f 3c c2 ab af 3b
       0.035346854 0.03512743 0.010700841 0.0053610513
000290 92 d3 41 3d 6d 2a c2 bb 54 58 25 3d 5d 33 bb 3d
       0.04732091 -0.0059254677 0.04036744 0.09140656
0002a0 cf 53 21 3c 4f 1c 9f 3d 18 eb d1 3c 87 c2 72 bd
       0.009846642 0.07769071 0.025624797 -0.059267547
0002b0 00 61 5b 3c 61 c9 95 3d 27 eb ff 3c 68 32 ab bc
       0.013389826 0.073138006 0.031240059 -0.020898059
0002c0 a6 d4 02 3d 7d dd 00 3d 26 5f 06 bb 0f 7a 3d 3d
       0.03194108 0.031461228 -0.002050349 0.046258982
0002d0 f9 57 59 3d fe a3 08 3d 00 87 93 3d 0a e0 a3 3c
       0.053062413 0.03335952 0.072034836 0.020004291
0002e0 e1 bc 4d 3c c3 8a 8f 3d 02 41 e9 bd a0 d1 f8 3c
       0.012557239 0.070088886 -0.113893524 0.030373394
0002f0 70 d7 98 3d 14 70 3e 3d 7e ff 76 3c 79 b1 b1 bd
       0.074629664 0.046493605 0.0150755625 -0.08676428
000300 d1 65 82 3c 9f 11 45 bd 7d e6 a8 bd c7 0c cd bd
       0.01591769 -0.048112508 -0.08247087 -0.10012203
000310 ef a6 9e bb b4 bf 30 3d 11 f7 0d bd 45 7c 0b 3d
       -0.0048416774 0.043151572 -0.03465945 0.03405406
000320 e7 61 0b 3d 0d 6e a4 3c 0d b8 21 3c 65 d5 a2 bd
       0.034028914 0.020072008 0.009870541 -0.07950858
000330 e6 be 99 3c 8f 25 8f 3d e9 3f 2b 3d 07 84 60 bd
       0.018767785 0.069895856 0.041808996 -0.05481341
000340 82 58 40 3d d9 82 24 bd 2f f1 ff ba ce e5 ae 3b
       0.046959408 -0.04016385 -0.0019526834 0.0053374534
000350 27 0e 7d 3d 63 5f 80 3d f3 74 b7 bc 1b cd 82 3d
       0.061781075 0.062681936 -0.022394633 0.06386777
000360 ea e6 71 bb 44 b1 98 3c 1f 33 59 3d c2 cf a0 3c
       -0.0036911317 0.018639214 0.05302727 0.019630317
000370 e4 eb a2 3c e0 51 f5 3c 04 b1 7d 3d 59 f8 30 bd
       0.019887872 0.029946268 0.061936393 -0.043205593
000380 79 d5 a3 3b 20 06 39 bd f1 cd 3b bd 60 a4 a3 3d
       0.004999813 -0.045171857 -0.045850698 0.079903364
000390 0a 71 a8 3c 38 05 97 3c 8a f4 80 3d a0 74 2e 3c
       0.020561714 0.018435106 0.06296642 0.010647923
0003a0 03 d8 5d 3d 72 00 52 bc 38 2d a0 38 5e 63 eb bd
       0.054161083 -0.012817489 7.637817e-05 -0.11493562
0003b0 2e 2e bd 3d 10 e1 7c bd 92 cd 5a 3c c8 3f 78 3c
       0.09237324 -0.061738074 0.013354676 0.015151925
0003c0 7e b0 8c bd cf 8f c3 bb bc 07 af 3c c9 93 22 3d
       -0.06869601 -0.005968071 0.021365993 0.03969172
0003d0 9b 23 ae 3d a1 da 1a bd e7 20 5a bd 0c 59 b2 3d
       0.08502885 -0.037806157 -0.053254034 0.087083906
0003e0 62 9c c3 3c 23 ad 4d bc 97 26 31 3d 54 43 90 bc
       0.02387828 -0.012553486 0.043249693 -0.01761023
0003f0 58 eb 36 3d 33 37 80 3d b8 67 19 3d b8 54 ce 3b
       0.044658035 0.062605284 0.03745243 0.0062967204

network_body._body_endoder.seq_layers.4.weight f4 [256, 256]
000000 63 47 5a 3d 43 fd 9f bd ee 4c c6 3b e4 af aa 3c
       0.053290736 -0.07811978 0.006051651 0.020835824
000010 11 b0 c1 3c dd d9 ee bb 24 dd 3c bc 71 8c 0e 3d
       0.023643525 -0.007289155 -0.011527333 0.034801904
000020 d6 7c a9 3d fc 39 58 3d d8 f1 74 3c 08 d9 f8 bd
       0.08275764 0.052789673 0.014950238 -0.121507704
000030 ca b2 8b 3c da e3 ac 3d cd e1 97 3d d9 d1 3c 3d
       0.017053027 0.08441897 0.07416115 0.046098564
000040 48 75 64 bc 52 1f eb 3b cb cd d9 3d e0 bb 63 bc
       -0.013943978 0.0071753645 0.10634955 -0.013899773
000050 83 e7 29 bd 27 25 cd bc e2 17 8b bd 11 d9 12 be
       -0.041480552 -0.02504213 -0.06791665 -0.14340617
000060 a9 9e c2 bd 84 c1 36 bd 0d 9d c4 bd 27 fb b6 3d
       -0.09502918 -0.044618145 -0.096002676 0.08934622
000070 07 2e 32 3d 7e dd 23 3d 65 46 30 bc 86 36 96 3c
       0.043500926 0.040006153 -0.010758971 0.018336546
000080 1f d7 e2 3d 16 19 f9 bc 06 d9 ae 39 37 3e d2 3d
       0.11076187 -0.03040747 0.0003334956 0.10265773
000090 78 b3 7d bd 5f 3e 73 3c c1 16 89 3c dc 82 0b 3e
       -0.061938733 0.014846413 0.016734483 0.13624138
0000a0 a1 3e 2f b9 f0 ad c5 bc 82 b0 66 bc 39 4a 52 bd
       -0.00016712632 -0.024130791 -0.014080169 -0.051340315
0000b0 26 23 12 3d 02 86 63 3c a4 b2 ab bd 18 ec d3 bd
       0.03567805 0.01388693 -0.08383682 -0.10347766
0000c0 1e 50 7e 3b a0 29 67 3a 79 a4 a7 bd 62 56 0a 3d
       0.0038805078 0.00088181533 -0.081856675 0.033773787
0000d0 46 97 3e bd 4c bd a3 bc 08 fb c8 3d aa 4b c4 3b
       -0.046530984 -0.019987725 0.098135054 0.005990465
0000e0 51 3f 24 bd 44 79 9b 3c 21 93 21 3e d2 f1 31 3d
       -0.040099446 0.018978722 0.15778781 0.04344351
0000f0 e7 1e 59 bd 27 50 90 3c 30 6f 29 3c 02 02 bd 3d
       -0.053007986 0.017616345 0.010341451 0.092288986
000100 3e 34 aa bc 6b ff 52 bd ec 97 92 bd b5 80 bb 3d
       -0.020776864 -0.051513117 -0.07157883 0.09155408
000110 8f bc d4 bb b5 af a7 bd 8e 8d 84 bc 2f fb d0 3d
       -0.0064922045 -0.0818781 -0.01618078 0.102041595
000120 bc ca 88 3d 6c 50 15 3e 2d 6c fb bd 0f 2c 44 bd
       0.066792935 0.1458146 -0.12276492 -0.04789358
000130 88 64 89 3c b7 70 20 bc ff 4d 9c 3d 19 39 5e 3d
       0.01677157 -0.009792498 0.07632064 0.05425367
000140 a0 d3 ad bd 7f c9 ad bd 6b 51 8a bd cb ed a3 3d
       -0.0848763 -0.08485698 -0.067538105 0.0800434
000150 23 f2 0b be d2 59 73 bd ae 7c 52 bc 81 42 84 bd
       -0.13666587 -0.05941183 -0.012847109 -0.06457997
000160 7d c1 6f bc 74 47 d5 3c ec de 18 bb 71 c3 c7 bd
       -0.014633534 0.026035048 -0.0023326231 -0.09754074
000170 09 47 8f 3d 44 4a 9d bd 75 9e 6a 3b 2f 4b c1 bd
       0.06995971 -0.07680181 0.0035800014 -0.09438168
000180 db 28 96 bd 0f 45 98 bc fc b4 9a 3c 96 58 0e 3e
       -0.07332011 -0.018587617 0.018885128 0.1390098
000190 1e d5 05 3d c5 e0 a9 3d 6c 66 8b bd 5e 68 5d 3d
       0.032673948 0.082948245 -0.06806645 0.05405461
0001a0 2f 93 0f 3e 04 d0 49 3d b0 16 73 bd f0 d4 af bd
       0.1402099 0.049270645 -0.05934781 -0.085855365
0001b0 91 9f ac bc 1c 85 39 be a4 05 99 3d 11 77 3a 3e
       -0.021072181 -0.18117183 0.07471779 0.18209483
0001c0 b2 1c cb 3d b1 d0 80 bd bd 2d bc 3a 53 d0 84 3d
       0.099175826 -0.06289805 0.0014356893 0.06485047
0001d0 7c f5 0c 3e 3f 6a d8 3d ac c0 86 3d 18 11 89 bc
       0.1376552 0.1056714 0.06579718 -0.016731784
0001e0 8e 98 e7 3d 35 98 aa bd 97 84 54 bd 99 6c 8f bd
       0.11308394 -0.083298124 -0.05188426 -0.07003135
0001f0 f1 4e 27 3d 5d a2 c1 3c 23 19 7b 3c 8e 00 ce ba
       0.04084677 0.023636991 0.015325817 -0.0015716718
000200 a4 c4 f7 bc 7c b1 f4 bd 17 33 67 bd 3c 22 5c ba
       -0.030245133 -0.11947915 -0.056445207 -0.00083974353
000210 7b fe 1e 3e 53 18 87 3c 22 21 bb 3d fc 10 a0 bd
       0.15526764 0.01649109 0.09137179 -0.078157395
000220 46 cc b1 3d ff c5 13 3e 5e 7e a5 3b 60 62 1a 3d
       0.0868154 0.14430998 0.0050504645 0.037691474
000230 f5 e9 73 3d f7 0a 86 bd a0 79 93 3d 7b df 7f bd
       0.05954929 -0.0654506 0.072009325 -0.062468987
000240 4e 6f 89 3d ea b9 69 3d 82 5f 34 3d 4b f1 0b 3e
       0.06710683 0.057062067 0.044036396 0.13666265
000250 bd d8 53 3d e9 a0 2b 3e af fd aa 3d ed 8a 73 3c
       0.05172037 0.16760601 0.083491676 0.014864665
000260 3f 99 f5 bc 6c 61 4b 3d 9d 69 3f 3b 65 d5 c6 3d
       -0.0299803 0.049653456 0.0029207238 0.097086705
000270 50 5b 02 be 64 ec 48 bd ea fd 9d 3d 9a 1e 56 3d
       -0.12730145 -0.049053565 0.07714446 0.052275278
000280 37 a1 79 bd 96 d3 02 bc 51 4e 1b 3c ab 28 ef bd
       -0.060944762 -0.007985016 0.009479121 -0.11677679
000290 1c ad d3 bb 44 2c b4 3d cc af 09 3e c1 60 aa bc
       -0.006459845 0.087975055 0.13445967 -0.020798089
0002a0 72 05 d4 3d cb b1 bf 3b f4 3f 86 3d be f9 d4 3c
       0.10352601 0.005850052 0.06555167 0.025997993
0002b0 5d 62 cf bd 4b 1b f6 3c a4 18 6d 3c 4d 51 f5 3d
       -0.10126183 0.030042311 0.014471207 0.119783975
0002c0 3c c7 a3 bd 85 27 a7 bc b5 51 d5 bc 41 52 4f be
       -0.07996985 -0.020404587 -0.026039938 -0.20246221
0002d0 5a 26 fd 3d e6 4e 15 bc 41 da aa bd a4 61 d0 3d
       0.123608306 -0.009113049 -0.0834241 0.101748735
0002e0 61 3e 3e bd 03 1f 9f 3b 53 cf aa 3d a9 d4 6a bd
       -0.046446208 0.004855992 0.08340325 -0.057331715
0002f0 2c e3 37 3d 6b c2 c2 bd 66 26 90 3c 60 0d c6 3d
       0.044894382 -0.095097385 0.017596435 0.0967052
000300 68 42 b9 3b 3f 85 b7 3d 88 90 53 3d f7 cd 98 bc
       0.005653668 0.089609616 0.051651508 -0.0186529
000310 18 0e 92 bb c2 6f 57 3d 85 a5 e1 3c 8a 96 32 bd
       -0.0044572465 0.052596815 0.027544746 -0.043600596
000320 1b 8d e4 3d c8 be d8 3d 3f 8e a5 bd 38 e5 44 bc
       0.11159726 0.10583264 -0.08083772 -0.012017541
000330 96 90 23 3d 95 9a d5 3c 38 3b c6 3c 16 57 a3 3d
       0.03993281 0.026074687 0.02419816 0.07975595
000340 c9 0b e3 bc d0 2f b1 3b c2 31 3b 3d 94 68 48 bd
       -0.02771558 0.005407311 0.04570175 -0.04892786
000350 b5 f9 36 bb df 62 a0 3d 61 ab 85 3d 7a 0a a6 bb
       -0.0027919833 0.07831358 0.065268286 -0.005067167
000360 27 88 4b 3c 1c 4b af 3c ad 2c 7a 3d 0f 53 f0 3d
       0.012422598 0.02139812 0.061077762 0.11734592
000370 0c 06 5a 3d 2b 05 3c 3c fc a7 5f 3d b7 67 1f 3d
       0.053228423 0.0114758415 0.05460356 0.03891727
000380 60 f7 bd bc ff 61 93 3d 2d 6b 9b bd 44 0b c6 3b
       -0.023189247 0.07196426 -0.075888015 0.0060438234
000390 9a d9 c4 bd 8d a8 0f 3c 2a d4 d7 3c cc 6d 83 bb
       -0.09611817 0.008768213 0.026346285 -0.0040108915
0003a0 47 1a 8a bd fc 69 7a 3d de e2 01 3d 59 a9 2e 3e
       -0.06743293 0.06113623 0.031710498 0.17056789
0003b0 9d 71 81 3d 2e 43 ed 3c 82 e5 ab ba 95 55 cf 3b
       0.06320498 0.028962698 -0.0013114663 0.006327341
0003c0 bd 88 87 bd 44 00 c2 3d a2 05 05 be 40 5d 99 bc
       -0.06617878 0.09472707 -0.1299043 -0.018721223
0003d0 28 f6 c4 bd fe 74 11 3d df f1 40 3d 42 02 cf 3c
       -0.09617263 0.035511963 0.047105666 0.025269631
0003e0 f0 81 ec 3d b2 e0 d1 3d 66 6a 5a bc 94 18 7f 3d
       0.11548221 0.10247935 -0.013331031 0.0622793
0003f0 10 c1 8d 3d 34 81 48 bc 70 f3 83 ba c4 bc d2 bd
       0.069215894 -0.012237836 -0.0010067057 -0.102899104

network_body._body_endoder.seq_layers.4.bias f4 [256]
000000 46 74 a6 bd a9 2d 0b 3d 49 ed fb 3c 6d b9 82 3d
       -0.08127646 0.03397909 0.030752795 0.063830234
000010 0f 89 10 3d 9d af 82 3c fd 5a db b8 cf 3f 3c 3d
       0.03528696 0.01595288 -0.00010459682 0.04595929
000020 c5 74 dd bd 20 e3 8a bd f3 31 78 3d 27 d7 a4 3d
       -0.10813288 -0.06781602 0.06059451 0.080488496
000030 8a ea 5d 3d a8 ad 8e 3d 12 36 11 3d 26 d2 55 3d
       0.054178752 0.06966716 0.035451956 0.052202366
000040 1f 52 8b 3d 7e c6 4c 3d e9 a2 bb 3d 92 73 49 3c
       0.06802773 0.049993984 0.09161932 0.0122956205
000050 28 60 27 3d e5 ef 39 bd fe 8f 98 bc 62 0d 4a 3d
       0.040863186 -0.045394797 -0.018623348 0.04932917
000060 a4 b8 20 bd 62 3c 8f bd 50 0b bd 3a 00 46 0f 3d
       -0.039238587 -0.06993939 0.0014422927 0.034978867
000070 84 2f e2 bc 2b 59 89 bd 41 63 30 3c ae 6a 46 3d
       -0.027610548 -0.067064606 0.0107658515 0.04844158
000080 38 76 a8 bc e8 61 09 bd 29 93 01 3c 99 6e b0 3c
       -0.020564184 -0.033540636 0.007908621 0.021537112
000090 e8 f6 10 bd d4 82 af 3d ce e4 83 3d fc a0 87 3d
       -0.03539172 0.08569875 0.064401254 0.06622502
0000a0 a7 26 41 3d fc c8 3f 3c 9b 46 24 bd 8b d4 8c 3d
       0.047156002 0.011705633 -0.040106397 0.06876477
0000b0 b1 14 27 bc 01 94 dd bc 3f d0 40 3d 25 75 8a bd
       -0.010197804 -0.027048113 0.0470736 -0.06760625
0000c0 b2 18 d7 3c 2f ed 55 3d 25 06 42 3d c8 74 16 3d
       0.026256893 0.05222815 0.04736914 0.036732465
0000d0 6b 0c 64 3d 5c 45 3d 3d ba 90 04 bc ea ac 85 3d
       0.055675905 0.046208724 -0.008091146 0.06527121
0000e0 46 b0 08 3d 46 4d f5 3c 88 a0 86 3d f3 80 09 bc
       0.033371232 0.029944073 0.06573588 -0.00839256
0000f0 b0 28 cf 3c ef 6d 7f 3d 2b 3c a1 bd 84 dd a4 3d
       0.025287956 0.0623607 -0.07872804 0.08050063
000100 b3 67 b8 3d 90 3d 45 3b 68 32 ed 3b b8 e7 cc ba
       0.09004154 0.0030096509 0.007238675 -0.0015633022
000110 45 62 50 3d 32 48 77 3d 10 88 12 3d b5 59 0f 3d
       0.050874967 0.060371585 0.03577429 0.03499766
000120 f4 87 3c 3d 27 d8 c3 3b 61 8d 8d 3d 8c 80 dc 3c
       0.046028093 0.005976695 0.069117315 0.026916765
000130 24 96 c0 bd 92 f5 19 3d bf ba 53 bd 14 13 d1 bb
       -0.09403637 0.03758771 -0.051691767 -0.006380448
000140 e7 f1 ed bc 60 30 70 bb 17 0e 40 3d 71 b2 9a 3d
       -0.029046012 -0.0036649927 0.046888437 0.07553566
000150 ba 93 94 bd 69 8d a7 bd 3d 1b 31 3d 97 d2 4d bd
       -0.07254739 -0.08181269 0.043238867 -0.050249662
000160 8a 55 97 bc c1 22 9a 3d cd 45 37 3d 0c 74 6b 3d
       -0.018473405 0.0752616 0.0447443 0.057483718
000170 c3 ba 15 3b 2a 3c 4a bd 81 d8 10 3d 02 1a a3 bb
       0.0022846914 -0.049373783 0.035362724 -0.0049774656
000180 34 13 45 3d 42 05 80 3d 20 a9 73 3d c6 15 66 3d
       0.048114017 0.06251003 0.059487462 0.05617311
000190 4b 12 47 3c af bd d5 3c 0b 59 da 3c 7e b1 25 3d
       0.0121503575 0.026091425 0.026653787 0.040452473
0001a0 d4 0c 8a bd 86 9d f5 3c 10 6a 53 3c 19 b6 c7 3c
       -0.06740728 0.02998234 0.012903705 0.024378823
0001b0 2f 33 ba bb 09 da a4 3c ef c7 91 3c a1 f4 a5 bd
       -0.005682371 0.020123499 0.017795531 -0.081033
0001c0 cb 31 a1 3b 6a 2e 20 3b 1d 7a ce 3c ce 2e e5 3c
       0.004919266 0.0024441727 0.025204713 0.02797642
0001d0 53 f7 92 3c 4c e4 86 bd e2 2d 95 3d 81 d6 bf 3d
       0.017940199 -0.06586513 0.07284142 0.09367085
0001e0 a8 6e e2 bc 56 9b 88 3d df 22 ac 3d ee 43 aa bd
       -0.027640656 0.06670253 0.08405089 -0.08313738
0001f0 29 0d d6 ba 82 b3 2b 3d 28 b7 c8 bd d1 73 73 bc
       -0.0016330826 0.04191924 -0.09800559 -0.014859156
000200 92 a3 5c 3d f9 cc 12 bd 59 09 85 bd 5f 4c 30 bc
       0.05386693 -0.03584001 -0.064959235 -0.010760396
000210 3f d6 7c bc 66 1f 86 3d ca 69 80 3d 74 90 7f 3c
       -0.01543194 0.065489575 0.06270178 0.015598405
000220 00 49 d0 3d 4f 23 60 3d 96 87 06 3d b8 d6 27 3d
       0.10170174 0.054721173 0.03284415 0.040976256
000230 14 75 86 3d 7a cd 6f bd 7f 42 a4 3d 2d 1f e0 bc
       0.065653 -0.058545567 0.080204956 -0.027358616
000240 30 b1 f0 3c f2 8e cc 3a e5 43 14 bd b7 34 65 3d
       0.029381365 0.0015606566 -0.03619756 0.055958476
000250 ff 6d 97 bd a9 0f aa bd f1 e6 92 3a d1 9b 4a bd
       -0.07394027 -0.08303768 0.0011207742 -0.049465004
000260 c1 b2 40 3d 31 f0 9d bb 13 15 10 bd b9 2d 00 3d
       0.047045473 -0.004819893 -0.035176348 0.031293605
000270 3c 8c b4 bd 97 e3 f3 3c 99 ee 18 3c 79 55 a9 bd
       -0.0881581 0.02977161 0.00933423 -0.08268256
000280 91 d9 cc 3c 82 a2 88 3d 80 52 60 bb 2d 38 7c bd
       0.025006087 0.06671621 -0.0034228861 -0.06157701
000290 85 a4 b3 3c f1 62 83 3c 9c 22 17 3d 95 bb ad 3d
       0.021929035 0.01603839 0.03689824 0.08483044
0002a0 9a d7 8e 3d 57 84 76 3d 79 33 ac bd 11 0c 9d 3d
       0.069747165 0.060184803 -0.08408255 0.07668317
0002b0 91 e4 0a 3d c1 73 07 3e 75 7c 20 bc af e2 28 3c
       0.033909384 0.1322775 -0.009795298 0.010307952
0002c0 66 6e 8d 3c ca f8 67 3d f0 47 26 3d 64 8b 41 3d
       0.017264556 0.056633748 0.04059595 0.047252074
0002d0 df 78 21 bc b4 5e 7a 3d 9d 6d ac 3d 25 7a ce bd
       -0.009855478 0.061125472 0.084193446 -0.10081891
0002e0 22 6c 3d bd 34 0f 12 bd 97 93 59 3d b2 ac 8b bd
       -0.0462457 -0.03565903 0.05311927 -0.068200484
0002f0 7e 45 29 3d 0d 2a 98 3d 3e 2e af 3b 72 eb 82 3d
       0.04132604 0.074298956 0.0053460887 0.06392564
000300 af 16 86 3d 6d d3 c6 bc f6 d2 80 3d 80 5c a8 3d
       0.06547295 -0.024270738 0.062902376 0.08220768
000310 5d 21 b5 3d f1 bd 6d bd 1a 5b a2 bd f3 2f 17 3d
       0.08844254 -0.05804247 -0.079275325 0.036910962
000320 dc a0 4e 3d d0 28 fd 3c fe 7a e4 bc ba ed fd 3c
       0.050446376 0.03090325 -0.027890678 0.030997146
000330 9b 53 61 3d d1 80 c3 3c 7e e1 24 3d 51 ed 79 bd
       0.055011373 0.023865135 0.04025411 -0.06101734
000340 95 3e 3c 3d 6c 2d d2 3b 6e 95 35 3d 47 c9 47 bd
       0.04595812 0.006414106 0.04433196 -0.048775937
000350 90 09 86 3d 8c ab c5 3d 9c 89 49 3c 65 53 be bd
       0.06544793 0.096518606 0.012300875 -0.0929325
000360 2c cd 13 bd 85 83 15 3c 7e 27 1e 3d 8d 77 93 bd
       -0.03608434 0.009125595 0.03861188 -0.07200537
000370 03 73 c1 3d 02 c2 c5 3b 3c 01 25 bd 82 22 0b bc
       0.09445765 0.0060350904 -0.04028438 -0.008492114
000380 c4 e7 1b 3d ce 3e 6a 3d 9c 95 42 bc 57 1d b1 3c
       0.038062826 0.0571888 -0.01187649 0.021620436
000390 37 61 42 bc 57 ad b6 3c 85 5a 6d 3c a0 41 5a 39
       -0.011863998 0.022299452 0.014486914 0.00020814547
0003a0 da d3 74 bd ff a6 85 bc 3f ca 66 3d 1a 1a 0e 39
       -0.05977235 -0.016314982 0.05634522 0.00013551899
0003b0 f4 72 49 bc 67 e0 5d ba 91 d7 57 3d be 84 1c 3d
       -0.012295473 -0.00084639195 0.052695815 0.03821253
0003c0 c8 36 9b bd a9 78 8c 3c f6 21 da 3c b7 56 b4 bc
       -0.07578808 0.017147379 0.026627522 -0.022014005
0003d0 04 a2 81 3c eb 14 88 3c bd 3f 15 3d 26 1a 94 3d
       0.015824325 0.016611537 0.03643774 0.0723155
0003e0 15 83 1d bd 26 02 80 bd da 90 ec bb d2 1d 95 3d
       -0.038455088 -0.0625041 -0.007219416 0.072810784
0003f0 44 71 1f bd 57 e4 13 bc f0 4d 1c bd 78 a2 45 bc
       -0.038926378 -0.009026608 -0.038160264 -0.012062661

action_model._continuous_distribution.mu.weight f4 [2, 256]
000000 3a 0f ab bc f8 23 95 3b 95 87 38 bb 93 5a 46 bb
       -0.020881284 0.004551407 -0.0028156985 -0.0030266389
000010 83 eb c9 bb fd 89 9f 3d 61 89 12 3d fe 8a 5c 3c
       -0.0061621084 0.07789991 0.035775546 0.013460873
000020 77 50 9f 3b de cc c0 3d 64 4f fe bc 34 fd 3a bd
       0.004861887 0.09414075 -0.031043716 -0.04565163
000030 3a 08 c8 bc 5d 94 a9 3a a2 6b 22 bd a2 0b a5 bc
       -0.024417985 0.0012937892 -0.039653428 -0.020147149
000040 f8 f0 94 3c 26 01 95 bc 32 28 58 3c f2 df 0d bd
       0.01818131 -0.018189024 0.013193177 -0.0346374
000050 e6 46 d8 bc ef f9 e1 3c 10 d2 ea bc a9 3f 5f bd
       -0.026400995 0.027584998 -0.028664619 -0.05450407
000060 a1 73 e6 3c a9 79 81 bc 56 65 44 3c 05 7b 07 3d
       0.028131308 -0.015805082 0.011987051 0.033076305
000070 b9 b9 73 3d 5f 4e 0b bd d9 9e 0d 3d cd d7 04 bc
       0.05950329 -0.034010287 0.034575317 -0.008108092
000080 4b c8 54 3c 7d ca 9b 3b ea 56 81 bc f5 0b 56 3c
       0.012987207 0.004754363 -0.015788514 0.013064374
000090 89 9d 03 3d c7 1e 72 bc da 44 28 3e 58 95 f8 bc
       0.03213266 -0.014777846 0.16432515 -0.03034465
0000a0 07 79 5c bd 4c e9 90 3c f8 4d cd bb c4 cd 6d bd
       -0.05382636 0.01768937 -0.006265398 -0.05805756
0000b0 5c 37 79 3c df ec 15 3d b7 08 bd bb 83 4f 6a bc
       0.015210953 0.03660285 -0.005768861 -0.014301184
0000c0 3e f9 0c 3c ff 9d c3 3a 69 af b2 bc 91 05 09 3d
       0.008604346 0.0014924406 -0.021812158 0.033452574
0000d0 e0 da d1 bd 0b 42 f7 bc be 71 bc 3b 7a 4d 8d 3c
       -0.10246825 -0.030182859 0.005750864 0.017248858
0000e0 a6 93 05 bd 64 22 60 3d 4c d4 8d bc 51 56 0e bd
       -0.03261151 0.054720297 -0.017313145 -0.034750286
0000f0 90 fa 49 3c de 4f 2c bd b2 30 25 3d f9 2c 27 bb
       0.012327805 -0.042068355 0.040329643 -0.0025508984
000100 d1 60 fe ba f9 be bf 3b f5 b7 c5 3c ea 31 b1 3d
       -0.0019407516 0.005851623 0.02413557 0.086520985
000110 13 5f 09 bd 42 55 60 bc 5c 75 96 ba 3a 61 3a bc
       -0.033537935 -0.013692202 -0.0011479068 -0.01137572
000120 14 57 65 bc a2 b9 2e bc f5 10 5f bc 48 5e 8c 3d
       -0.013997812 -0.0106643755 -0.013614883 0.0685392
000130 d4 a0 2e bb 5c 68 47 bd ba fd cf 3d 24 58 40 3d
       -0.0026646154 -0.04868351 0.101558164 0.046959057
000140 c7 f0 b8 bc 26 2d 34 3d 9e 34 48 bc ce ff 15 bd
       -0.02257575 0.04398837 -0.012219576 -0.036620907
000150 f6 9d a9 3d 8c f1 24 3b cf c1 e8 bc 2e c3 8e 3c
       0.08282082 0.0025168387 -0.028412728 0.017427053
000160 4c 4c 3b bc 15 38 85 bc d6 5d bf bc 4f 76 38 3d
       -0.011431765 -0.016262094 -0.023360174 0.045034703
000170 ac 8c 7e 3c 50 4a 04 bd 02 b9 42 3d 18 c8 ca bb
       0.0155364685 -0.032297432 0.04753972 -0.006188404
000180 72 99 48 bb 30 f5 71 bc 5f fa fb 3c 98 9e d7 bc
       -0.0030609039 -0.01476793 0.030759035 -0.02632074
000190 48 d1 10 3d 4f 3c 85 bc b9 b1 9e 3c d4 f5 7c bc
       0.035355836 -0.016264109 0.019371854 -0.015439469
0001a0 6d c9 85 3c 34 84 84 bc b6 b9 82 3c 57 71 89 3c
       0.016331399 -0.01617632 0.015957695 0.016777677
0001b0 ab 6c bd 3c e8 f0 a6 3c 87 df f0 3c e4 d2 24 bd
       0.023123106 0.020378545 0.029403461 -0.040240183
0001c0 bf 75 00 3d 38 13 85 bc 96 7c e2 3c ab fe 99 bd
       0.03136229 -0.016244516 0.027647298 -0.07519277
0001d0 6b 23 f1 3c e1 84 19 bd df 19 bf bc 11 34 af bc
       0.029435834 -0.03748024 -0.023327766 -0.021387132
0001e0 a4 78 96 3c 7c b3 63 bd 5e 7c 0f 3b 29 ca 66 bb
       0.018368073 -0.05559109 0.0021894197 -0.0035215712
0001f0 50 a3 ee 38 eb e1 84 3b 9a 8e d7 bc 1f 91 dd 3b
       0.00011379144 0.004055252 -0.026313115 0.0067616845
000200 ae a7 e3 bb 75 e5 b8 ba fc db 24 bd c4 33 42 bc
       -0.006947479 -0.001410647 -0.040248856 -0.011853162
000210 74 2b 0e bd 9c 79 48 bb d2 b2 dc bb 3c 7f 67 bd
       -0.03470941 -0.0030590063 -0.006735184 -0.056517825
000220 46 b5 c7 3c 04 c4 00 3b 0a 48 40 3d df 0b 86 bc
       0.02437843 0.0019648084 0.0469437 -0.016363082
000230 d9 e6 47 bd 76 42 53 3c 96 f5 29 3e a1 03 59 3b
       -0.048804138 0.0128942635 0.1659759 0.0033113735
000240 25 ca db 3c 06 f7 07 3d 65 b4 12 3d 3a eb 20 bd
       0.026829788 0.033194564 0.03581657 -0.03928683
000250 da 7f b0 3a fe 92 91 bc f2 8c 08 3d af 71 a3 bc
       0.0013465837 -0.017770287 0.03333754 -0.01995167
000260 25 31 da bc c2 f0 2b bd dc 52 54 3c 9b b6 9b 3c
       -0.026634762 -0.04197765 0.012959208 0.019007972
000270 0b 72 43 bc b1 22 5e ba 81 d3 6f bb 79 b4 84 bd
       -0.011929045 -0.00084737974 -0.0036594572 -0.06479735
000280 5b 9b 60 3c e7 05 9d ba 3a 83 fc bc b3 c3 d5 3c
       0.013708915 -0.0011979908 -0.030824292 0.026094293
000290 ed f9 f1 3c 47 1a ec bb 18 a7 15 bd a0 0a 6d bc
       0.02953812 -0.007205281 -0.036536306 -0.014467865
0002a0 2f 91 35 bc 1c 97 74 bc 7e c1 7a 3d 16 a7 ad 3b
       -0.011081978 -0.014928605 0.061219685 0.005299459
0002b0 5d 75 3b 3d cc c0 20 bc c9 d6 2a 3d 9d 93 62 bd
       0.045766223 -0.009811591 0.04170874 -0.055316556
0002c0 4b fc 05 bd aa e3 fb bb 1c 86 a3 3d 35 af 6a 3b
       -0.03271131 -0.007687052 0.07984564 0.0035809998
0002d0 50 8f a8 3c 20 86 65 bd c9 ab f7 bc 8d 46 b5 bd
       0.02057615 -0.056036115 -0.03023328 -0.08851347
0002e0 59 98 0a 3d 28 1f 0b 3d 8a 64 91 bb 48 b0 0d 3d
       0.033836696 0.03396526 -0.004437034 0.034591943
0002f0 19 be 8e 3a 4c a8 a2 bc 31 9c 33 bd 94 f5 49 bd
       0.0010890394 -0.01985564 -0.043850128 -0.049306467
000300 e4 63 99 bc 3b 84 84 3c df 1a 3b 3d 85 5c 30 3d
       -0.01872439 0.016176334 0.045679923 0.043056984
000310 e1 0c 3d bd 5e b6 68 3a 0b 44 90 bc e7 b6 c6 3c
       -0.04615486 0.00088772725 -0.01761057 0.024257137
000320 e2 d8 03 bd 23 cc fe 3b 4e 6d 33 3d 3e 7f 30 3d
       -0.032189257 0.0077758 0.043805413 0.043090098
000330 51 99 cc bb 28 73 97 3c e3 26 9f bc 8b 6c 9b bb
       -0.0062438627 0.018487528 -0.019427722 -0.004743164
000340 4c 01 1a bd 82 06 bc bc 0a 2a 11 3d cf 73 00 3c
       -0.037598893 -0.022952322 0.035440482 0.007840111
000350 00 a0 ef 3b 87 43 08 bc 31 52 d9 3c ca 0b 43 bc
       0.0073127747 -0.008316881 0.02652845 -0.011904666
000360 1c 24 31 bc 23 46 36 3b 56 7b 23 bc 1e 90 00 bd
       -0.010811832 0.00278128 -0.009978136 -0.03138744
000370 12 a0 5d bc 48 4e cc 3a 6b e4 b9 3a 12 b2 53 3d
       -0.013526933 0.0015587294 0.0014182454 0.051683493
000380 56 10 74 3b ec f5 c2 bd 46 71 67 bc e0 88 82 bd
       0.0037241182 -0.09519562 -0.014126128 -0.06373763
000390 d0 36 8d 3d c1 25 21 bc 23 94 bf 3c 1c 1c a3 3a
       0.0689522 -0.009835661 0.023386067 0.001244429
0003a0 b9 df 50 3c db 57 83 bb 38 d5 1b bc 11 d8 a7 3d
       0.012748652 -0.004008276 -0.0095112845 0.08195508
0003b0 05 b1 b4 3c c7 1a 59 bd b5 43 d9 39 bc f8 a6 3c
       0.022057066 -0.053004052 0.0004143991 0.020382278
0003c0 3e 76 f9 bc 66 96 37 3d da 61 94 bd 3b e2 13 bd
       -0.03045189 0.044821166 -0.07245226 -0.036104422
0003d0 7a be 72 3c 08 10 18 bd d4 f0 9e bc 50 bf 99 bb
       0.014815921 -0.037124664 -0.019401945 -0.0046919957
0003e0 07 b8 dd 3b 26 29 e5 3c 44 8d f7 3b 23 53 17 bd
       0.0067663225 0.027973723 0.007554682 -0.03694452
0003f0 56 fb 6b bd 4d 0b 5b bb 54 b6 fb 3c f8 04 4c bd
       -0.05761274 -0.0033423484 0.03072659 -0.049809426

action_model._continuous_distribution.mu.bias f4 [2]
000000 2d f2 8b bc 22 6c df bc
       -0.017083252 -0.027273241
