results/TestSAC/SuperTank/SuperTank-1200.onnx (onnx, 80330 bytes, 12 tensors)

network_body.observation_encoder.processors.0.normalizer.running_mean f4 [6]
0	0xc018009d	-2.3750374
1	0x3e463dbd	0.19359489
2	0xbf9db7f7	-1.2321767
3	0x3f1978dd	0.5995005
4	0x3e6117a9	0.21981682
5	0xbf9d4f15	-1.2289759

network_body._body_endoder.seq_layers.0.weight f4 [128, 6]
0	0x3e9c7f6e	0.3056597
1	0xbe1026bf	-0.1407728
2	0x3e866257	0.26246902
3	0xbec60b9f	-0.3868074
4	0x3e96bac7	0.29439375
5	0x3e323e27	0.17406522
6	0x3e33ee70	0.17571425
7	0xbe0871fd	-0.13324733
8	0x3cbef15c	0.023308448
9	0x3e592abf	0.21207713
10	0x3d25b7ef	0.040458616
11	0xbf781989	-0.96913964
12	0xbeabb8db	-0.3353947
13	0xbf046198	-0.51711416
14	0xbf43728f	-0.7634668
15	0xbeb76bb3	-0.35824355
16	0x3dad5e2f	0.0846523
17	0x3ea85677	0.32878467
18	0xbaca1f68	-0.0015420737
19	0xbeb74b6f	-0.3579974
20	0x3f047bc5	0.5175136
21	0x3e5928bd	0.21206947
22	0xbe431e5e	-0.19054553
23	0x3e30bb53	0.17258959
24	0xbe2f7b91	-0.1713698
25	0xbe5eec88	-0.21769917
26	0xbb88a035	-0.004169489
27	0x3e48096c	0.19534844
28	0x3f463ea0	0.7743931
29	0x3ed6e2ce	0.41969913
30	0xbf00ac79	-0.5026317
31	0xbe762964	-0.24039227
32	0xbe80c4ce	-0.2515015
33	0x3df8628f	0.121281736
34	0xbea7f55e	-0.32804388
35	0xbf6f262e	-0.9341763
36	0xbedca921	-0.43097785
37	0xbf113ba8	-0.56731653
38	0x3d908e9a	0.07058449
39	0x3e87d0f9	0.2652662
40	0x3ef1fdf7	0.47264072
41	0xbf1894d1	-0.59602076
42	0xbe270b72	-0.1631296
43	0xbef06343	-0.4695073
44	0x3ea3d37b	0.31997284
45	0x3e3ca7c5	0.18423374
46	0x3e901f07	0.28148672
47	0x3eaf90f5	0.3429028
48	0xbf367ae8	-0.7128129
49	0x3e5f129c	0.21784443
50	0xbe1d9f69	-0.15392841
51	0x3f2e1180	0.6799545
52	0xbe07f276	-0.13276085
53	0x3ebaa620	0.36454868
54	0xbed005ce	-0.4062943
55	0xbe34cd47	-0.17656432
56	0x3e7a327b	0.2443332
57	0xbd263059	-0.04057345
58	0xbf4aa758	-0.79161596
59	0x3f00ff78	0.50389814
60	0xbec67837	-0.38763592
61	0xbdf47ef9	-0.119382806
62	0x3f35515d	0.70827276
63	0xbe52f4a1	-0.20601131
64	0x3dfe8d3a	0.124292806
65	0xbe2f0518	-0.17091787
66	0xbe3b7c03	-0.18309025
67	0xbf127e03	-0.5722353
68	0x3dd5a1a0	0.10431218
69	0x3f2aef70	0.667716
70	0x3e2dd51a	0.16975823
71	0xbe894e44	-0.26817524
72	0x3ccb9f64	0.024856277
73	0xbe41a64d	-0.18911095
74	0x3efe4092	0.49658638
75	0x3f6e67b9	0.9312702
76	0xbead75d3	-0.33878955
77	0xbef43439	-0.47696093
78	0xbe8593ab	-0.26089224
79	0xbd8e5e2d	-0.06951556
80	0x3e386bb9	0.18009843
81	0xbf10e039	-0.56592137
82	0x3e067b58	0.1313299
83	0x3f15160b	0.5823676
84	0xbdee0977	-0.11622899
85	0xbd03b802	-0.032157905
86	0x3eb225fc	0.34794605
87	0xbeba302c	-0.36364877
88	0x3e99bc3e	0.3002643
89	0xbe9756e6	-0.29558486
90	0xbbd4e0a7	-0.006496507
91	0x3de2a9da	0.11067553
92	0xbd947817	-0.07249468
93	0x3e322915	0.17398484
94	0xbe9e3a6b	-0.30903944
95	0x3e1f6baa	0.15568414
96	0xbee578f5	-0.44818845
97	0x3f28759f	0.65804476
98	0x3d677940	0.056512117
99	0x3efabb8d	0.48971215
100	0x3f56bb94	0.8387997
101	0xbe0dda2b	-0.13852756
102	0xbef14438	-0.4712236
103	0x3f449e54	0.7680409
104	0xbeca08cd	-0.3945984
105	0x3f87fa0c	1.0623183
106	0x3f1fdf0e	0.6244973
107	0x3e54fcf6	0.20799622
108	0x3f35a6e5	0.70957786
109	0x3d1575d4	0.036489323
110	0xbebd4529	-0.36966828
111	0x3e422b51	0.18961836
112	0x3f4bafc6	0.79565084
113	0x3e73d938	0.23813331
114	0x3e27274d	0.16323586
115	0x3ef0ca71	0.4702945
116	0x3f11574a	0.5677382
117	0x3d86811b	0.06567594
118	0x3d579114	0.05262859
119	0xbec5f524	-0.3866359
120	0x3eb5f929	0.35541657
121	0x3dae0cb5	0.084985174
122	0xbf3e75da	-0.7439858
123	0xbd8b2e9f	-0.06796002
124	0x3dbbcde6	0.091701314
125	0x3ed50ba9	0.41610458
126	0x3e2cee86	0.16887864
127	0xbed19309	-0.4093249
128	0x3c6ee757	0.014581523
129	0x3f6e459e	0.9307498
130	0xbf25348d	-0.6453331
131	0xbe40e097	-0.18835674
132	0xbe5071ec	-0.20355958
133	0x3f4432e2	0.7664014
134	0xbf0160c5	-0.50538284
135	0xbd3642f0	-0.04449743
136	0xbeace57f	-0.33768842
137	0x3e93353f	0.2875156
138	0x3f10e44c	0.56598353
139	0xbe86e40f	-0.2634587
140	0xbf063109	-0.5241857
141	0xbf1b1623	-0.6058065
142	0xbe2fc0ae	-0.17163345
143	0xbe99029e	-0.2988481
144	0xbeb735d3	-0.35783252
145	0x3eeb9275	0.46010175
146	0xbc5211ed	-0.012821657
147	0xbdf75746	-0.12077193
148	0x3f0cd3ef	0.55010885
149	0xbdcd48ff	-0.100236885
150	0x3f194c8c	0.59882426
151	0x3f107856	0.5643362
152	0x3d06d1c4	0.03291489
153	0x3f2b27af	0.6685743
154	0xbce5f503	-0.028070932
155	0x3e634ebc	0.22198004
156	0x3e8a92be	0.2706508
157	0x3e4551b8	0.19269454
158	0x3f321844	0.69568276
159	0x3af20c73	0.0018466845
160	0x3d07b381	0.033130173
161	0xbeb3be9e	-0.35106367
162	0x3e634cd0	0.2219727
163	0x3efd4598	0.49467158
164	0x3f802d21	1.0013772
165	0x3e497450	0.19673276
166	0xbf0a21a9	-0.5395761
167	0x3e0c3bf3	0.13694744
168	0xbe802112	-0.2502523
169	0xbed72be1	-0.42025664
170	0xbf5907d7	-0.8477759
171	0x3f66ce69	0.90158707
172	0xbec5b85d	-0.3861722
173	0xbdff71ac	-0.12472853
174	0x3f3d6446	0.7398113
175	0x3e88ef4d	0.26745072
176	0xbe3a39f4	-0.1818617
177	0xbc84087e	-0.01611733
178	0x3da78931	0.08180464
179	0x3eea3976	0.45746964
180	0xbe40a475	-0.18812735
181	0x3f0f72b3	0.5603439
182	0xbd193d38	-0.0374119
183	0xbceeee5a	-0.02916639
184	0xbd834ed4	-0.0641152
185	0x3ec2d612	0.38053948
186	0x3e0dfabe	0.13865182
187	0x3f1d87fc	0.6153562
188	0x3f4405f4	0.76571584
189	0xbf3ea949	-0.7447706
190	0xbe968fcf	-0.29406592
191	0x3d53b578	0.051686734
192	0xbe75b929	-0.23996414
193	0x3ea15f4a	0.31518012
194	0xbd0b6919	-0.034035776
195	0x3cc27ee8	0.023742154
196	0x3f1d3d9f	0.6142215
197	0x3f04acd0	0.5182619
198	0x3d644637	0.055731025
199	0xbe18053c	-0.14845747
200	0xbef59fdc	-0.47973526
201	0xbf56f1b0	-0.83962536
202	0xbeac551a	-0.33658677
203	0xbd5df83e	-0.05419182
204	0xbde6acdb	-0.11263438
205	0xbec8f78d	-0.39251366
206	0x3f064b71	0.52458864
207	0xbe2f0a59	-0.17093791
208	0xbe381c1c	-0.17979473
209	0x3e5efd14	0.21776229
210	0x3ee4e0f7	0.44702885
211	0xbece904d	-0.40344468
212	0x3f1f8c74	0.6232369
213	0xbd6b074c	-0.057380006
214	0x3f0e1b3e	0.5551032
215	0x3efeb177	0.4974477
216	0xbe8fc150	-0.28077173
217	0xbec41145	-0.38294426
218	0x3dff37b9	0.124618
219	0x3ef41472	0.4767185
220	0x3f4dc5cb	0.80379933
221	0xbe9e2419	-0.30886915
222	0xbf791fce	-0.97314155
223	0xbf32f3f3	-0.69903487
224	0xbe5ecf14	-0.21758682
225	0xbd2ae871	-0.04172558
226	0x3e6359ca	0.2220222
227	0xbda87d57	-0.08227032
228	0xbef1f069	-0.4725373
229	0xbe224434	-0.1584633
230	0xbf3b0f34	-0.73070073
231	0x3ed32929	0.4124234
232	0xbdf62ee2	-0.12020661
233	0x3e6ea585	0.23305328
234	0x3dc539b8	0.096301496
235	0x3dd11a3f	0.10210084
236	0xbf923321	-1.1421853
237	0x3e84a035	0.25903478
238	0x3e8988dd	0.2686223
239	0x3e68601d	0.22692914
240	0x3f2af0ab	0.6677348
241	0x3e7dd590	0.24788499
242	0x3eee85d2	0.46586472
243	0xbe633750	-0.22189069
244	0xbf2f530f	-0.6848611
245	0x3f2171e7	0.63064426
246	0xbcb9d4f0	-0.022684544
247	0x3f379842	0.717167
248	0x3f3b4d49	0.731648
249	0xbe5711da	-0.21002904
250	0x3e92b4d7	0.28653595
251	0x3f0d6687	0.5523457
252	0x3e010e5e	0.12603137
253	0xbe8c7647	-0.27433988
254	0xbedbe706	-0.42949694
255	0xbee2eee8	-0.44322896

network_body._body_endoder.seq_layers.0.bias f4 [128]
0	0x3e1958d9	0.14975299
1	0x3e1fc2fa	0.15601721
2	0x3dffc4cb	0.12488707
3	0xbd843131	-0.06454695
4	0xbdd68376	-0.10474293
5	0x3de54d36	0.111963674
6	0x3de619fd	0.112354256
7	0x3debb178	0.11508459
8	0xbe1b1a02	-0.1514664
9	0xbdecca1f	-0.11561989
10	0xbc9d432d	-0.019197071
11	0x3dea559d	0.11442111
12	0x3d8fe23c	0.07025573
13	0xbe0407a6	-0.12893543
14	0xbdf478b8	-0.11937088
15	0xbe02bb07	-0.12766658
16	0xbd40a490	-0.04703194
17	0xbc3e4b7d	-0.0116146775
18	0x3e0794ce	0.13240358
19	0x3daed85e	0.085373625
20	0x3df580e3	0.11987474
21	0x3df6f2c3	0.12058022
22	0x3d2f3538	0.042775363
23	0x3e0e0472	0.13868883
24	0xbd000206	-0.03125193
25	0x3dff320c	0.124607176
26	0x3deda625	0.11603955
27	0x3df4a16e	0.11944853
28	0x3de5011f	0.111818545
29	0x3de10795	0.10987774
30	0xbddeda0a	-0.108814314
31	0x3e05bb80	0.13059807
32	0xbe045090	-0.12921357
33	0xbdb0f792	-0.0864097
34	0x3db4cdd0	0.08828318
35	0x3e127939	0.14304055
36	0x3d2973ce	0.041370206
37	0x3e0d5fa2	0.13806012
38	0x3dbf2fe1	0.09335304
39	0x3c055185	0.008137112
40	0x3ded7580	0.11594677
41	0x3cff879a	0.03119259
42	0x3e0f6b16	0.14005694
43	0x3dd28e49	0.10281045
44	0x3dcca324	0.09992054
45	0x3e0c7015	0.13714631
46	0xbdc6b38c	-0.097022146
47	0x3e07c538	0.13258827
48	0x3da0b1d2	0.078464165
49	0x3ddfa601	0.109203346
50	0x3db9fdff	0.09081649
51	0x3d88699b	0.06660768
52	0xbde8e909	-0.11372573
53	0xbd174bc5	-0.036937494
54	0xbdc1072f	-0.09425198
55	0x3d709d90	0.058744013
56	0x3e16048d	0.14650173
57	0x3dbd8acd	0.0925499
58	0xbd44bffb	-0.04803465
59	0x3defec3c	0.1171498
60	0x3deed1de	0.11661123
61	0x3dbefdb3	0.09325733
62	0xbe031e03	-0.12804417
63	0xbdc277c3	-0.09495499
64	0x3e0574d0	0.13032842
65	0x3df0e45b	0.11762305
66	0xbd2e5efb	-0.04257105
67	0x3d8adb72	0.06780137
68	0xbe019a34	-0.1265648
69	0xbd6efb67	-0.058345225
70	0x3ddf73c5	0.10910753
71	0x3dd3fa06	0.103504226
72	0xbd85d277	-0.065342836
73	0x3de79a5c	0.113087386
74	0x3d0682c6	0.03283956
75	0x3e240db1	0.16020848
76	0xbdef89e4	-0.116962224
77	0x3c0da260	0.00864467
78	0xbdbc7c8e	-0.092034444
79	0xbcf457cd	-0.029827023
80	0xbcaa61e3	-0.02079863
81	0x3e10085f	0.14065693
82	0xbe0eb651	-0.13936736
83	0xbd00e534	-0.031468585
84	0x3dedccdc	0.116113394
85	0x3dccad7c	0.09994027
86	0x3d9a5a99	0.075368114
87	0xbd5a5bf0	-0.053310335
88	0x3dd2f26a	0.10300143
89	0x39463306	0.00018901759
90	0xbdecb150	-0.11557257
91	0xbd212181	-0.039338592
92	0x3e23153f	0.15926073
93	0xbe2d43b9	-0.16920365
94	0x3ddb95ad	0.10721908
95	0xbd1a5b1c	-0.037684545
96	0x3e0b08d3	0.13577585
97	0xbda5c9bf	-0.08095121
98	0xbcdb47e0	-0.026767671
99	0x3dd8a01e	0.10577415
100	0x3e12b09e	0.14325187
101	0x3e190ac1	0.14945509
102	0x3d9ddb81	0.07707883
103	0x3c122df7	0.008922092
104	0x3e06678e	0.1312544
105	0xbdbb06be	-0.09132145
106	0xbdfe7fad	-0.12426696
107	0xbc8543ea	-0.016267736
108	0x3e214fe0	0.15753126
109	0xbde54547	-0.11194854
110	0x3de7d950	0.11320746
111	0x3df712e4	0.1206415
112	0x3e0992e3	0.13434939
113	0x3dcd4e62	0.10024716
114	0xbd9998cb	-0.07499846
115	0xbc9b65de	-0.018969472
116	0x3dfe4368	0.124152005
117	0x3dfc1ad8	0.123098075
118	0x3d9f6bfa	0.07784267
119	0x3dee2728	0.11628562
120	0x3dba0de4	0.09084681
121	0xbcf3cf58	-0.029761955
122	0x3d392aad	0.045206714
123	0x3d6f3ac4	0.058405653
124	0xbdf8ec39	-0.12154431
125	0x3d935d8c	0.07195577
126	0x3d7601ad	0.060060192
127	0xbd9f6c64	-0.07784346

network_body._body_endoder.seq_layers.2.weight f4 [128, 128]
0	0xbe8db9a7	-0.27680704
1	0xbd84f7e6	-0.064925954
2	0x3bbcf5b4	0.005766595
3	0x3c96b37f	0.018396137
4	0xbd066488	-0.032810718
5	0xbe6006b5	-0.21877559
6	0x3c1ce503	0.009576085
7	0xbe18a525	-0.14906748
8	0xbc1348ed	-0.008989555
9	0xbd7b0353	-0.061282467
10	0x3d1d7495	0.03844126
11	0xbd33c0b1	-0.043884937
12	0xbe2b79e5	-0.16745718
13	0x3d5c63f8	0.053806275
14	0xbdd1e9ba	-0.10249658
15	0x3e0b8c7a	0.13627806
16	0xbe3925fb	-0.18080895
17	0x3c90e409	0.01768686
18	0xbe592c01	-0.21208192
19	0xbe972280	-0.2951851
20	0xbd88e132	-0.066835776
21	0x3d795c2b	0.060878914
22	0x3e20769c	0.15670246
23	0x3d738113	0.059449267
24	0xbd2172fe	-0.039416306
25	0xbdd76a15	-0.105182804
26	0xbdbdb1f6	-0.09262459
27	0xbd9db904	-0.077013046
28	0xbcea8222	-0.028626505
29	0xbe19ae81	-0.15007974
30	0xbd85b077	-0.065277986
31	0xbe41ff82	-0.18945125
32	0x3c67e36e	0.014153345
33	0x3d80849e	0.06275295
34	0xbe30fd70	-0.17284179
35	0x3d7d582f	0.061851677
36	0xbe292e84	-0.1652165
37	0xbdce1da9	-0.10064251
38	0xbc9d6099	-0.0192111
39	0x3d407c0e	0.046993308
40	0xbe11ead3	-0.14249735
41	0xbdb14d38	-0.086573064
42	0x37da1960	2.5999441e-05
43	0xbdf5c52f	-0.120005004
44	0xbe3f3020	-0.18670702
45	0xbdf58915	-0.11989037
46	0xbd9442fb	-0.07239338
47	0xbd73ecee	-0.059552126
48	0xbdcd5621	-0.100261934
49	0x3b1887a4	0.0023274207
50	0xbdc87c0f	-0.09789287
51	0xbe3cd61f	-0.18441056
52	0xbe85dff4	-0.26147425
53	0x3bd11432	0.0063805813
54	0xbcbb6b9b	-0.022878459
55	0xbe32fa23	-0.17478232
56	0xbc88ef98	-0.01671581
57	0x3c29c93f	0.010362922
58	0x3ac61bf0	0.0015114527
59	0x3d913cb0	0.07091653
60	0xbe1ce4e5	-0.15321691
61	0xbe14b8f9	-0.14523686
62	0x3dc32413	0.09528365
63	0x3ca066b4	0.019580223
64	0xbe044316	-0.12916216
65	0x3ded3a03	0.115833305
66	0xbe1c7913	-0.15280561
67	0x3c2c4b6c	0.010516029
68	0xbd14f645	-0.036367673
69	0x3e077260	0.13227224
70	0xbd0e4450	-0.034733117
71	0x3cce9ffc	0.02522277
72	0xbd5ed147	-0.0543988
73	0x3df11aa4	0.117726594
74	0x3e2beb52	0.16788986
75	0xbad19e92	-0.0015992692
76	0x3dd4101e	0.103546366
77	0x3d7d2bd4	0.061809376
78	0x3ddd4c92	0.1080562
79	0x3dba1f47	0.09087997
80	0xbe770043	-0.24121194
81	0xbe5583a7	-0.20851003
82	0x3cf33993	0.02969054
83	0x3e12c4c2	0.1433287
84	0xbd6b2e33	-0.057417106
85	0xbdf76dcd	-0.1208149
86	0xbdf2fafe	-0.11864279
87	0xbdb8a152	-0.090151444
88	0xbe9db62f	-0.30803058
89	0x3c4c1447	0.012456006
90	0xbd66c0ae	-0.056336097
91	0xbd4c84ca	-0.049931325
92	0xbda2f855	-0.07957522
93	0xbe58a2c5	-0.21155842
94	0x3d003d5b	0.031308513
95	0x3cecf3d4	0.02892486
96	0x3c8e01fe	0.017334934
97	0xbc088721	-0.0083329985
98	0xbd5017eb	-0.05080406
99	0x3db485ee	0.088146076
100	0xbe050952	-0.12991837
101	0xbd683669	-0.056692515
102	0x3d0c095a	0.034188606
103	0x3de4d5dd	0.11173604
104	0x3d56ae8e	0.052412562
105	0x3d8ede19	0.069759555
106	0xbd2e09e5	-0.042489905
107	0x3e06d99a	0.13168946
108	0xbe24cc02	-0.16093448
109	0xbd03b4a6	-0.0321547
110	0xbda030e9	-0.07821829
111	0xbe0cac8d	-0.13737698
112	0xbe3a1bd6	-0.18174681
113	0xbd709577	-0.05873629
114	0x3baa383c	0.005194692
115	0xbd526233	-0.05136318
116	0xbe2ad3d6	-0.16682371
117	0xbda1585a	-0.0787818
118	0xbabb4ef6	-0.00142905
119	0xbcd08995	-0.02545623
120	0x3e454db9	0.1926793
121	0x3e1d82aa	0.15381876
122	0xbd9825b4	-0.07429066
123	0xbcffbbf3	-0.03121755
124	0x3dd57e5e	0.10424493
125	0xbe18b6f7	-0.14913546
126	0xbe233024	-0.15936333
127	0xbe471dfb	-0.1944503
128	0x3e428476	0.18995842
129	0x3df77a27	0.120838456
130	0xbdd37ad9	-0.10326166
131	0x3e0e1696	0.13875803
132	0xbe7d93cd	-0.24763413
133	0x3d280c33	0.04102726
134	0xbd0e6f5e	-0.034774177
135	0x3d773516	0.06035336
136	0x3af5ea5e	0.0018761863
137	0xbdd0a9c9	-0.10188634
138	0x3c0cc6a2	0.00859228
139	0x3c64ea3b	0.0139718605
140	0xbd8f9287	-0.0701037
141	0xbd8e699d	-0.06953738
142	0xbe2bd632	-0.16780928
143	0xbe3a75d3	-0.18209009
144	0xbdb7549f	-0.08951687
145	0xbe16fb13	-0.14744215
146	0x3df282d4	0.1184136
147	0xbe5d3ac4	-0.21604449
148	0xbe6e5b5d	-0.2327704
149	0x3cc3e7bb	0.023914209
150	0xbd98144c	-0.07425746
151	0xbd5e63cf	-0.054294404
152	0xbe199e39	-0.15001763
153	0x3d3458e7	0.044030096
154	0xbd8f9834	-0.07011452
155	0xbcd8aaf9	-0.026448714
156	0xbe07adbf	-0.13249873
157	0x3d84b734	0.06480256
158	0xbd860fb2	-0.065459624
159	0xbe0e5c2b	-0.13902347
160	0xbdcb7a4e	-0.09935437
161	0xbd93f182	-0.07223798
162	0xbd76514d	-0.06013613
163	0x3e9ab15d	0.30213442
164	0xbc022e64	-0.007945631
165	0xbe1d0389	-0.1533338
166	0x3cb0e330	0.021592706
167	0xbddfe029	-0.10931427
168	0x3e1c4dd7	0.15264069
169	0xbd236376	-0.039889775
170	0x3e63d1b3	0.22247963
171	0x3d81e6fd	0.06342886
172	0xbd8232f9	-0.063573785
173	0x3dea25fe	0.11433028
174	0xbd06128d	-0.032732535
175	0x3d96d8dd	0.07365582
176	0xbe45b5bc	-0.19307607
177	0xbd6dc75b	-0.05805145
178	0x3dd04e23	0.101711534
179	0xbe0d4e2d	-0.13799353
180	0x3d8bcdc0	0.06826353
181	0x3e317676	0.17330346
182	0xbe2bfcdc	-0.16795677
183	0xbd2d036e	-0.0422396
184	0x3dc4035b	0.095709525
185	0x3d05d04e	0.032669358
186	0xbe33ace6	-0.17546424
187	0xbcd3fe67	-0.025878144
188	0x3e51fd1b	0.20506708
189	0x3cb7747d	0.022394413
190	0xbe035fa5	-0.12829454
191	0xbda95150	-0.08267462
192	0x3ddc7fbb	0.1076655
193	0xbcae4c4c	-0.021276616
194	0xbe6cceaf	-0.23125719
195	0xbc4e1177	-0.012577406
196	0xbdb9dea1	-0.09075666
197	0x3e5ac5fc	0.21364588
198	0x3d65bad6	0.056086384
199	0xbda8581a	-0.08219929
200	0xbe18bff7	-0.14916979
201	0xbc22f38d	-0.009945762
202	0x3d3f783a	0.046745516
203	0x3e0765d5	0.1322244
204	0xbe37795f	-0.17917393
205	0xbe5c179d	-0.21493383
206	0xbd4d7803	-0.05016328
207	0xbe20639f	-0.15663002
208	0xbdfe982e	-0.1243137
209	0x3cbc1a98	0.0229619
210	0xbe41b62b	-0.18917148
211	0xbe8da717	-0.27666542
212	0x3cfbbb55	0.030728975
213	0x3ba63c4a	0.005073105
214	0x3da8c2f7	0.082403116
215	0xbe1cb74d	-0.15304299
216	0x3e3a7f0f	0.18212532
217	0xbe6693ca	-0.22517315
218	0xbe075750	-0.13216901
219	0x3dac5512	0.084146634
220	0x3e0d41e6	0.1379467
221	0xbbe1f026	-0.006895083
222	0xbd972526	-0.073801324
223	0xbd14e24f	-0.036348637
224	0x3dc7b9ba	0.097522214
225	0xbdfc5cc3	-0.123223804
226	0x3d0e83f0	0.034793794
227	0xbe3978d3	-0.18112497
228	0x3db12f07	0.08651548
229	0x3e1552f3	0.14582424
230	0xbdadd17e	-0.08487223
231	0xbdc17574	-0.094462305
232	0x3d249267	0.040178683
233	0xbdba4913	-0.09095969
234	0xbd6b5626	-0.057455204
235	0x3dae8cb4	0.08522931
236	0x3e4db6c3	0.2008925
237	0xbe09f679	-0.13472928
238	0xbdd95ed5	-0.10613791
239	0x3df796ab	0.120892845
240	0xbdd4af49	-0.103849955
241	0xbddca2ff	-0.107732765
242	0xbe91d649	-0.284838
243	0xbe8cc0e7	-0.27490923
244	0x3cdd6426	0.027025294
245	0x3e5ca329	0.21546616
246	0x3d090726	0.033454083
247	0x3dfcbbc6	0.123405024
248	0xbddc3140	-0.10751581
249	0xbe7e0a50	-0.24808621
250	0x3cff75a6	0.031184029
251	0xbe76418b	-0.2404844
252	0xbdc08018	-0.09399432
253	0xbc367e65	-0.011138533
254	0x3cc8615f	0.024460493
255	0xbdbab0c5	-0.09115747

network_body._body_endoder.seq_layers.2.bias f4 [128]
0	0xbde5f8fb	-0.1122913
1	0x3cde7326	0.027154516
2	0x3da06028	0.0783084
3	0x3d94c176	0.07263462
4	0x3dadd59e	0.0848801
5	0x3dcdb73e	0.10044716
6	0xbd8b7bd4	-0.06810728
7	0xbc3c87d7	-0.011506996
8	0x3d7a7ba5	0.061153073
9	0xbce2d512	-0.02768949
10	0xbda6e7dc	-0.081496924
11	0x3da697bf	0.08134412
12	0xbdc54fd7	-0.09634369
13	0x3e0e901b	0.1392216
14	0xbd447fe1	-0.047973517
15	0xbdf479e6	-0.11937313
16	0x3d99d10d	0.075105764
17	0x3e238e86	0.15972337
18	0x3d90b7aa	0.07066281
19	0xbbfe8fce	-0.0077686077
20	0x3d9b80dc	0.07592937
21	0xbd07df7f	-0.033172127
22	0x3db68d40	0.0891366
23	0xbba025ba	-0.00488731
24	0x3d4a75f3	0.04942889
25	0x3dbf56cc	0.09342727
26	0xbb61ca05	-0.0034452688
27	0x3d9d8dfa	0.076930955
28	0x3d64e0ee	0.055878572
29	0x3d594e58	0.05305323
30	0x3c85b7a5	0.01632292
31	0x3d7de636	0.061987124
32	0xbd143669	-0.036184702
33	0x3e41d63e	0.18929383
34	0x3d9ba7ab	0.076003395
35	0x3c6cdfb6	0.014457634
36	0x3d401ea9	0.04690424
37	0x3d2b9e12	0.041898794
38	0x3d3435c4	0.043996587
39	0x3d21f7e2	0.03954304
40	0x3da1345d	0.07871316
41	0x3d819ea6	0.06329088
42	0x3dab2a19	0.08357639
43	0x3db24639	0.087048
44	0x3d3ff4cc	0.046864316
45	0x3d96bc63	0.07360151
46	0x3e3923af	0.18080018
47	0x3deba943	0.115068935
48	0x3e0649ee	0.1311414
49	0x3d72c650	0.059271157
50	0x3db69834	0.08915749
51	0x3de50716	0.11182992
52	0x3dcc1432	0.099647895
53	0xbd1070f2	-0.035263963
54	0xbc130b32	-0.008974837
55	0xbd372266	-0.04471054
56	0x3d7600f7	0.060059514
57	0x3c57a1a3	0.013161096
58	0x3df01156	0.117220566
59	0xbdcbecc3	-0.09957268
60	0xbdab8731	-0.08375395
61	0x3cab65b1	0.020922514
62	0x3db4cde2	0.088283315
63	0x3d1d7508	0.038441688
64	0xbda23d4f	-0.0792185
65	0x3d78eee8	0.060774714
66	0x3d6bf678	0.057608098
67	0xbdc75a7b	-0.09734055
68	0xbdd3ca2c	-0.103412956
69	0x3ce137db	0.027492454
70	0x3d5ac2a4	0.05340828
71	0xbab2d6d3	-0.0013644345
72	0x3df6b5bc	0.12046382
73	0x3dbae31b	0.09125348
74	0xbc3093d8	-0.010777436
75	0x3c0130a8	0.007885136
76	0xbd9b451c	-0.07581541
77	0xbcafb123	-0.02144677
78	0x3d543dd7	0.051816788
79	0xbdd3dc18	-0.10344714
80	0xbd9613f1	-0.07328022
81	0x3d802e72	0.06258859
82	0x3cc9b567	0.024622632
83	0x3d8104fb	0.06299778
84	0xbdb96fb0	-0.09054506
85	0x3d7f31a8	0.062303215
86	0x3da51071	0.080597766
87	0x3cbb4e51	0.022864493
88	0x3d95d152	0.07315315
89	0x3d66d4f2	0.056355424
90	0x3d04ae54	0.032392815
91	0x3beada71	0.0071671535
92	0x3c8966af	0.016772596
93	0x3d1ab4a9	0.037769947
94	0x3e40e2d3	0.18836527
95	0xbde7d31c	-0.11319563
96	0xbda07dcf	-0.07836496
97	0x3c9bc9fa	0.019017208
98	0x3d99a2f6	0.075017855
99	0xba95d99d	-0.0011432652
100	0x3d74e129	0.059785042
101	0x3d48b57c	0.049001202
102	0x3d0e31f9	0.034715626
103	0x3da35c8e	0.07976638
104	0x3d2ede9a	0.04269276
105	0x3e15949e	0.14607474
106	0x3dafad88	0.0857802
107	0x3d7b72b1	0.061388675
108	0x3d38e199	0.04513702
109	0xbdb50945	-0.08839659
110	0x3d4df2ad	0.05028026
111	0x3d5e9aea	0.054346956
112	0x3dcf5af9	0.101247735
113	0x3dc30fc2	0.0952449
114	0x3dc5aa8f	0.09651672
115	0x3e09569a	0.13411942
116	0x3dbde051	0.092713006
117	0xbd173c37	-0.03692266
118	0x3dfe1321	0.12405992
119	0x3d5c2cb3	0.053753566
120	0xbd14a9cb	-0.03629474
121	0xbdf2be37	-0.11852687
122	0x3d9e204b	0.07721003
123	0x3d5082dc	0.050906047
124	0x3d96ed2f	0.07369458
125	0x3d78c67f	0.060736176
126	0xbdccfece	-0.10009538
127	0x3d1d2e7e	0.038374417

action_model._continuous_distribution.mu.weight f4 [2, 128]
0	0x3c94c776	0.018161517
1	0xbd7c16fb	-0.061545353
2	0xbcfb5097	-0.030678077
3	0xbd26c3a6	-0.04071393
4	0x3b766b3b	0.0037600535
5	0x3d9effac	0.07763609
6	0x3d2aa71d	0.041663278
7	0xbd2c4d06	-0.042065643
8	0xbc18047e	-0.009278415
9	0x3c0c7c83	0.008574608
10	0x3d8b1d17	0.06792658
11	0x3c0928b0	0.008371517
12	0x3cc8926c	0.024483882
13	0x3dce8e41	0.100857265
14	0x3e1411ae	0.1445987
15	0x3d455c5e	0.04818379
16	0x3d9b790d	0.07591448
17	0x3a9e5e2c	0.0012082509
18	0x3c1e57f8	0.009664528
19	0xbe1f178d	-0.15536328
20	0xbc60321c	-0.013683822
21	0xbd8966c6	-0.067090556
22	0xbd00763b	-0.031362753
23	0x3e3cfc57	0.18455635
24	0xbd815804	-0.06315616
25	0x3d00bdc7	0.031430986
26	0xbe1a6559	-0.15077724
27	0xba547342	-0.0008104333
28	0x3d50496a	0.050851263
29	0xbd200f94	-0.039077356
30	0xbe68ed01	-0.2274666
31	0xbd2ca53b	-0.042149764
32	0x3d5132ee	0.05107396
33	0x3d8882e5	0.06665591
34	0xbd977161	-0.07394672
35	0xbd42ab6a	-0.047526754
36	0xbd979375	-0.07401172
37	0xbd625f4e	-0.05526667
38	0x3c5a230b	0.013314019
39	0xbd00666f	-0.03134769
40	0xbc90529e	-0.01761752
41	0xbd1b1364	-0.03786029
42	0x3ae105ad	0.0017167829
43	0x3d684962	0.05671061
44	0xbc8d3525	-0.017237255
45	0xbe048bf5	-0.12944014
46	0x3d1f4e17	0.03889283
47	0x3e2706b7	0.16311155
48	0xbcac14c0	-0.021005988
49	0x3bbb26bb	0.005711404
50	0xbc072df4	-0.008250702
51	0x3d3023b2	0.04300279
52	0x3d41880d	0.04724889
53	0x3cb95fb9	0.022628652
54	0xbd73a1c2	-0.059480436
55	0x3d6ef628	0.05834022
56	0xbc1ea726	-0.009683406
57	0x3de8ae6a	0.11361392
58	0x3cf15015	0.029457131
59	0x3c7ad4a2	0.015309485
60	0x3dbe2dec	0.09286103
61	0xbc7003ac	-0.014649313
62	0x3ca2900e	0.019844081
63	0xbd186489	-0.037205253
64	0x3d4e23e0	0.05032718
65	0xbd298575	-0.04138704
66	0xbd93eea9	-0.07223255
67	0xbc9e72db	-0.019341877
68	0x3da7bf2b	0.08190759
69	0x38802654	6.110655e-05
70	0xbd87067a	-0.06593032
71	0xbde33bc2	-0.11095382
72	0x3db5166b	0.088421665
73	0x3d5a407f	0.053284165
74	0x3d85d069	0.06533892
75	0x3c0c4eb8	0.00856369
76	0x3d576949	0.052590642
77	0x3bec5110	0.007211812
78	0xbda0c99e	-0.078509554
79	0x3b960372	0.0045780474
80	0x3d854f08	0.06509215
81	0x3ca183d3	0.019716179
82	0xbdb5de0e	-0.08880244
83	0x3c82d7ef	0.015972106
84	0x3d6b9995	0.057519514
85	0xbc9c406f	-0.019073693
86	0xbdbf48c4	-0.09340051
87	0x3c0069a2	0.007837685
88	0x3baf2c92	0.0053458894
89	0xbd98343d	-0.07431839
90	0xbd6fc824	-0.05854048
91	0xbdfbfd0a	-0.12304123
92	0xbdc67097	-0.096894436
93	0xbcfd45e4	-0.030917116
94	0x3db6a852	0.08918823
95	0x3c2bbf4d	0.010482621
96	0x3dfad202	0.12247087
97	0xbd45d838	-0.048301905
98	0xbcffa2ca	-0.031205554
99	0xbdb2f858	-0.08738774
100	0xbd5fabc0	-0.054607153
101	0x3c6c0f8b	0.014408003
102	0x3d87e4d7	0.066354446
103	0xbd2e2c51	-0.042522732
104	0xbd9f7a50	-0.07787001
105	0x3b2300b3	0.0024872243
106	0xbc5d42e5	-0.013504718
107	0xbdf4c238	-0.11951107
108	0xbd56b76c	-0.05242102
109	0xbdae751e	-0.08518432
110	0x3d64154c	0.055684373
111	0x3d21b6b0	0.039480865
112	0x3cf82222	0.030289713
113	0x3d43c65d	0.047796596
114	0xbcbb140a	-0.022836704
115	0x389314c4	7.013374e-05
116	0x3c0ff00f	0.008785262
117	0x3b3aed8e	0.0028522941
118	0x3c85db0d	0.016339803
119	0xbd187570	-0.037221372
120	0x3cb4e855	0.02208344
121	0x3cc7a384	0.024369963
122	0xbcb3dd56	-0.021956127
123	0xbdd204cf	-0.102548234
124	0x3d523d6d	0.05132811
125	0x3d36db39	0.04464266
126	0x3cdac50f	0.026705293
127	0xbd6689c5	-0.05628373
128	0xbd8b87ff	-0.068130486
129	0xbdef27e2	-0.11677529
130	0x3d67323a	0.056444384
131	0x3bba1041	0.005678207
132	0x3cf798b0	0.030224174
133	0x3d0e0981	0.034677032
134	0xbd82d795	-0.06388775
135	0x3c7d830c	0.015473139
136	0x3d48afc5	0.048995752
137	0xbd9209ef	-0.07130801
138	0xbd91d283	-0.0712023
139	0x3c1be0b1	0.00951402
140	0xbd24306c	-0.04008524
141	0xbcff7cee	-0.0311875
142	0xbda0a1ac	-0.078433365
143	0xbc120418	-0.008912109
144	0xbd829e2d	-0.06377826
145	0xbcc9066a	-0.024539191
146	0x3dd1f5d8	0.10251969
147	0xbe3239f8	-0.17404926
148	0x3cdbb810	0.026821166
149	0x3cc5dd04	0.02415324
150	0xb9f598e3	-0.0004684395
151	0xbdfcb7b7	-0.12339728
152	0x3d45745f	0.048206683
153	0x3a8983c0	0.0010491535
154	0xbe4b780d	-0.19870014
155	0x3d1a3ae6	0.037653826
156	0x3cd2bbc4	0.0257243
157	0x3d529eab	0.05142085
158	0x3b897d6c	0.0041958597
159	0x3d14816d	0.036256243
160	0xbdc257f8	-0.09489435
161	0xbdb8bc59	-0.090202995
162	0x3d4b8253	0.049684834
163	0x3ba076c3	0.00489697
164	0xbb6c63a3	-0.003607013
165	0x3d882833	0.066482924
166	0xbd741d7c	-0.05959843
167	0x3d063a65	0.032770533
168	0x3ceb67d1	0.028736027
169	0x3d2564bd	0.040379275
170	0x3c6423ef	0.013924583
171	0x3cbebf54	0.023284592
172	0x3d8ae503	0.06781962
173	0x3d414b1a	0.047190763
174	0xbc8a1f7d	-0.016860718
175	0xbe10eaf0	-0.14152122
176	0xbd8ca9ab	-0.06868299
177	0x3c9549a3	0.01822359
178	0xbbdf1a69	-0.0068085683
179	0x3afb588f	0.0019176173
180	0x3d38d945	0.04512908
181	0xbdb777e1	-0.08958412
182	0xbe366fe1	-0.17816116
183	0xbdd6974f	-0.104780786
184	0x3d318a42	0.043344744
185	0xbd59a33e	-0.053134196
186	0x3c8f7785	0.017513046
187	0xbd25c5c0	-0.040471792
188	0xbd0d4260	-0.03448713
189	0xbd620d74	-0.05518861
190	0x3c62163c	0.013799246
191	0x3dbff279	0.0937242
192	0xbd835ed8	-0.064145744
193	0x3c6f6f19	0.01461389
194	0x3d1ecc7e	0.038769238
195	0xbcea5a37	-0.02860747
196	0x3c2063f3	0.009789455
197	0x3d2f418b	0.042787116
198	0x3da038b4	0.07823315
199	0xbe2e7f65	-0.17040785
200	0xbcad9a04	-0.021191604
201	0xbb2d3d19	-0.0026434122
202	0x3c35707b	0.011074181
203	0x3c8ba8cf	0.017048268
204	0xbddd94df	-0.108194105
205	0xbda343b8	-0.07971901
206	0x3d9ff329	0.07810051
207	0xbccd3343	-0.025048858
208	0xbd8dc3f4	-0.06922141
209	0x3d110570	0.035405576
210	0x3ce0b844	0.027431615
211	0x3cef26de	0.029193338
212	0xbce88085	-0.028381595
213	0x3cf97daa	0.03045543
214	0xbc9ea38f	-0.0193651
215	0x3c3cb06b	0.011516671
216	0x3bf61f24	0.0075110365
217	0x3d085a77	0.0332894
218	0x3d74830c	0.05969529
219	0x3c6a848b	0.014313827
220	0xbe2bb4a5	-0.16768129
221	0x3de15729	0.110029526
222	0xbda1c6bf	-0.07899236
223	0xbd174acd	-0.03693657
224	0xbdb91979	-0.09038062
225	0x3d3a92c8	0.045550138
226	0x3c8aef80	0.016959906
227	0xbe2bd5a8	-0.16780722
228	0x3caac5c9	0.020846264
229	0x3cca16d2	0.024669085
230	0xbd093b7a	-0.033503987
231	0x3d3cabc0	0.04606223
232	0x3d963b74	0.073355585
233	0x3b80f113	0.0039349883
234	0x3aac7592	0.0013157597
235	0xbb2fe0fc	-0.0026836982
236	0x3d386d6e	0.045026235
237	0xbd2d8d48	-0.042371064
238	0xbde88465	-0.11353377
239	0xbc8cb68f	-0.017176894
240	0xbb897b14	-0.0041955803
241	0xbb1e7705	-0.0024179828
242	0x3c8ab74e	0.01693311
243	0xbd133c9b	-0.03594647
244	0x3cd5def1	0.026107283
245	0xbe08e520	-0.13368654
246	0xbd4b9462	-0.049702056
247	0x3d81bd85	0.06334976
248	0xbdefc772	-0.11707963
249	0xbbdd1b32	-0.0067476267
250	0x3d1869b2	0.037210174
251	0x3e0b216b	0.13586967
252	0x3d297e86	0.041380428
253	0x3cf1ad6a	0.029501636
254	0xbb8447fd	-0.004036902
255	0x3d6f191c	0.058373556

action_model._continuous_distribution.mu.bias f4 [2]
0	0xbbf07c7c	-0.0073390584
1	0x3d11bf8a	0.035583057

action_model._continuous_distribution.log_sigma.weight f4 [2, 128]
0	0x3db45296	0.088048145
1	0x3cd07bff	0.025449751
2	0xbc26ec87	-0.010188228
3	0x3cf8e9dc	0.03038495
4	0xbd4d17bf	-0.050071474
5	0x3ca52f6e	0.020164218
6	0x3be3a9cb	0.006947731
7	0x3bda691f	0.0066653634
8	0xbd4bb29f	-0.049730893
9	0xbd1cc1a5	-0.03827061
10	0x3de3d9cc	0.11125526
11	0x3c8eecc4	0.017446883
12	0x3ca47e52	0.020079765
13	0xbc3c3f19	-0.011489653
14	0x3d7d5906	0.061852477
15	0x3d038f13	0.032118868
16	0x3a88fda5	0.0010451569
17	0xbd8e7eba	-0.06957765
18	0x3af1ac22	0.001843814
19	0xbd266847	-0.04062679
20	0x3c05015f	0.008118003
21	0xbb9b0934	-0.0047313217
22	0xbcbb4114	-0.02285818
23	0x3d84e767	0.06489449
24	0xbc45a1e2	-0.012062522
25	0x3a2658ad	0.0006345611
26	0x3c1cf7ff	0.009580611
27	0xbceb97c9	-0.0287589
28	0xbbdab6ed	-0.0066746385
29	0xbb4432d6	-0.0029937527
30	0x3bc400b2	0.005981528
31	0xbbddf1d0	-0.006773211
32	0x3c8a3d08	0.016874805
33	0xbd0d1bf7	-0.034450497
34	0xbc603714	-0.013685007
35	0x3b81b187	0.0039579305
36	0x3c9513bd	0.018197889
37	0xbc3d0ede	-0.011539189
38	0xbb5fd8c2	-0.0034156297
39	0xbb0e65e8	-0.0021728221
40	0xbc1ca527	-0.00956086
41	0xbd398c3f	-0.045299765
42	0x3d0b0a47	0.033945348
43	0xbcaaba0c	-0.020840667
44	0x3cf1f343	0.029534942
45	0xbd375fbf	-0.044769045
46	0xbb6dcb42	-0.0036284481
47	0xbd063795	-0.03276785
48	0xbcc15e3b	-0.023604503
49	0x3d0c0465	0.03418388
50	0x3b925d69	0.0044667018
51	0xbcd60e62	-0.026129905
52	0xbcb2515f	-0.021767316
53	0x3bf5a9c6	0.007497045
54	0x3d2c8083	0.042114746
55	0x3d4558dd	0.04818045
56	0xbc2318bd	-0.009954629
57	0x3d0ae52c	0.03390996
58	0x3b9a44ae	0.0047078943
59	0x3add8da0	0.001690317
60	0xbc9f6174	-0.019455649
61	0x3c3a7baf	0.0113820275
62	0x3bdd7c4f	0.0067592035
63	0xbd17ef61	-0.037093524
64	0x3daee05a	0.085388854
65	0xbcb1c411	-0.021699937
66	0xbc95d5c5	-0.01829041
67	0x3db987ee	0.0905913
68	0xbc5473c5	-0.012967055
69	0x3d0e378d	0.034720946
70	0xbc91627b	-0.017747154
71	0xbc88aecf	-0.016684918
72	0x3cd66496	0.02617101
73	0x3d402699	0.04691181
74	0x3c1170ea	0.0088770185
75	0x3d34a85f	0.044105884
76	0x3d6f09b1	0.05835885
77	0x3d060566	0.032719992
78	0x3bb8cfa3	0.0056399866
79	0x3dc64845	0.09681753
80	0x3e0e8953	0.13919573
81	0xbc095820	-0.008382827
82	0x3cbda211	0.023148568
83	0xbc3bbce1	-0.011458606
84	0x3e02f9f8	0.12790668
85	0x3c158519	0.009125971
86	0x3d03833a	0.03210757
87	0xbc617de3	-0.013762924
88	0xbca73a89	-0.020413654
89	0xbb2acf06	-0.0026063337
90	0xbcb63cc4	-0.022245772
91	0xbbaf1eb6	-0.005344237
92	0xbd14b282	-0.03630305
93	0x3c0bd00f	0.008533492
94	0xbcee7230	-0.029107183
95	0x3db4c915	0.08827416
96	0xbc0c28d0	-0.008554652
97	0xbcc9d0d6	-0.024635714
98	0xbc05a555	-0.008157094
99	0xbc89bcf6	-0.016813736
100	0x3bcb43cc	0.0062031504
101	0x3c94a16e	0.018143382
102	0x3c1e34b4	0.00965612
103	0x3c8ff423	0.017572468
104	0x3d1835e7	0.03716078
105	0xbcfd16a7	-0.03089459
106	0xbcbdc899	-0.023166941
107	0x3c8df285	0.017327556
108	0x3c838342	0.0160538
109	0x3d9506c7	0.07276683
110	0xbd3df1bd	-0.046373118
111	0x3c4f8a0b	0.012667189
112	0xbcf3c5e6	-0.029757451
113	0xbd3d6edf	-0.046248313
114	0x3c63fc2f	0.013915106
115	0xbd4b8289	-0.049685035
116	0xbae46661	-0.0017425531
117	0x3c43b057	0.011943898
118	0xbcc35065	-0.023842046
119	0xbc4f79fe	-0.012663363
120	0xbb82372e	-0.003973863
121	0x3d808650	0.06275618
122	0x3c639ce3	0.013892385
123	0xbce11ad1	-0.027478607
124	0xbcfa998e	-0.030590799
125	0xbc665b74	-0.01405989
126	0x3d4721a8	0.04861608
127	0xbcf8e7de	-0.030384
128	0x3d75b432	0.0599863
129	0x3c8a9ec5	0.01692141
130	0xbd093958	-0.033501953
131	0xbc4ba86a	-0.01243029
132	0xbd3e2bad	-0.04642837
133	0x3d296750	0.041358292
134	0x3c11005b	0.008850182
135	0x3d22923f	0.039690252
136	0xbcb62199	-0.022232817
137	0x3d1342dd	0.035952438
138	0x3e066334	0.1312378
139	0xbc758970	-0.014986381
140	0x3d42370b	0.047415774
141	0xbcad9cb6	-0.02119289
142	0x3d9ea1d7	0.07745712
143	0x3d1f35b4	0.038869575
144	0xb8eb28bc	-0.000112132606
145	0xbd16e25f	-0.036836978
146	0xbcdfbb7f	-0.027311085
147	0x3c27e8f1	0.010248409
148	0xbb8c0fb9	-0.004274335
149	0x3bc484ba	0.0059972676
150	0xbca3e5e6	-0.020007085
151	0x3dc4f7a9	0.0961755
152	0xbb268f92	-0.0025415164
153	0xbbb67b80	-0.0055689216
154	0x3c5e8839	0.013582283
155	0x3c620461	0.013794989
156	0x3a81651e	0.0009872054
157	0xb7bb2b44	-2.2312284e-05
158	0xbcbc4e29	-0.022986488
159	0xbc1b3168	-0.009472229
160	0x3d182085	0.037140388
161	0xbcf683c3	-0.030092126
162	0xbcf8a5ac	-0.030352436
163	0x3c6eb22d	0.014568848
164	0xbc49b335	-0.012310793
165	0xbb835b54	-0.00400869
166	0x3cbc7b7a	0.023008097
167	0x3b8272ff	0.0039809938
168	0xbcf49fc8	-0.029861346
169	0xbd0aa5a6	-0.03384938
170	0xbcb31a12	-0.021863017
171	0xbd2c34c6	-0.042042516
172	0xbc0591da	-0.0081524495
173	0xbcb26d92	-0.021780763
174	0x3c272301	0.010201217
175	0x3c7f48dd	0.015581337
176	0xbd08ba92	-0.033381052
177	0x3cca2be8	0.02467914
178	0xbcb67ac9	-0.022275345
179	0xbcf01e45	-0.029311309
180	0x3c96c279	0.018403279
181	0x3d375c87	0.044765975
182	0xbba93370	-0.0051636025
183	0x3becb977	0.0072242576
184	0x3b36fa96	0.0027920357
185	0xbccdc07e	-0.025116201
186	0xbd0f48a9	-0.034981403
187	0x3cd5c61c	0.026095442
188	0x3c001a9a	0.007818842
189	0xbb6b04aa	-0.0035860934
190	0xbd51dd59	-0.051236484
191	0x3a2346ba	0.00062284956
192	0x3dd55183	0.10415938
193	0x3c28f068	0.010311224
194	0xbd22aa27	-0.03971305
195	0x3dc5dc55	0.096611656
196	0xbcfe0ad1	-0.031011017
197	0xbbc0ee55	-0.0058877864
198	0xbd11a774	-0.035560086
199	0xbbd9bbc1	-0.0066446965
200	0x3b7c8a18	0.0038534459
201	0xbb8658d5	-0.004099945
202	0x3d454f01	0.048171047
203	0x3c5c0df8	0.013431065
204	0x3d380745	0.044928808
205	0x3d1f276b	0.03885595
206	0x3bfe96be	0.0077694347
207	0x3dac6cb3	0.0841917
208	0x3dfc890c	0.12330827
209	0xbbb3bace	-0.0054849153
210	0xbc9b254d	-0.018938685
211	0xbbd0f0a8	-0.0063763447
212	0x3ddb4675	0.10706798
213	0xbc979d3c	-0.018507592
214	0x3bb552d3	0.005533555
215	0x3c7b18e0	0.015325755
216	0xbc878329	-0.016542034
217	0xbd0c3475	-0.034229714
218	0xba586f50	-0.0008256333
219	0xbb6f5136	-0.0036516911
220	0xbc91018e	-0.017700937
221	0x3b95c8a3	0.004571037
222	0x3c8443ac	0.01614555
223	0x3db29a00	0.087207794
224	0x3c5bebb2	0.013422893
225	0xbb94fa02	-0.004546405
226	0xbca03a2c	-0.019558989
227	0xba798f77	-0.0009519974
228	0x3b07636a	0.002065862
229	0x3d133b55	0.035945255
230	0x3d83c2a5	0.0643361
231	0xbd16c2fb	-0.03680704
232	0x3c385237	0.01125007
233	0xbbef5969	-0.0073043597
234	0xbc5e64a5	-0.0135738
235	0xbbb32178	-0.0054666363
236	0xbb0d266c	-0.0021537794
237	0x3d0d5bd5	0.034511406
238	0x3d2897c7	0.04116037
239	0x3cee105b	0.029060533
240	0xbc9255b6	-0.017863136
241	0xbcd1c85e	-0.025608238
242	0xb805a9a7	-3.1867672e-05
243	0xbbf5cf4f	-0.0075015198
244	0xba969eef	-0.0011491458
245	0x38bc3dd0	8.976052e-05
246	0x3c827630	0.015925497
247	0xbcee396e	-0.029080119
248	0x3d5095e8	0.05092421
249	0x3dc2734f	0.094946496
250	0x3b87abbb	0.004140345
251	0xbd2fb9a1	-0.04290164
252	0xbc59482f	-0.013261839
253	0xbd0e8126	-0.034791134
254	0x3cd22fe2	0.025657598
255	0xbbd42f52	-0.0064753676

action_model._continuous_distribution.log_sigma.bias f4 [2]
0	0xbdb7c1f2	-0.08972539
1	0xbdd0abbb	-0.10189005

action_model._discrete_distribution.branches.0.weight f4 [2, 128]
0	0x3c67148c	0.01410402
1	0x3d0ec8b7	0.034859385
2	0x3e074cd3	0.132129
3	0x3d95f179	0.07321448
4	0x3dc78238	0.09741634
5	0x3d3452ec	0.044024393
6	0xbaddc758	-0.0016920371
7	0xbd9b245c	-0.075752944
8	0x3dcf8933	0.101335905
9	0x3cc6b17e	0.024254557
10	0xbd703c1f	-0.058651086
11	0x3da0152a	0.07816537
12	0xbe1a1221	-0.15045978
13	0x3dd48dbe	0.10378598
14	0xbc854c89	-0.016271846
15	0xbe2a6791	-0.1664107
16	0x3d979862	0.074021116
17	0x3e034fcb	0.12823407
18	0x3e092a8a	0.13395134
19	0x3cd0e7b8	0.025501117
20	0x3dd1c1a7	0.102420144
21	0xbe22c2af	-0.15894578
22	0x3db99d12	0.09063162
23	0xbd18586e	-0.037193708
24	0x3da46835	0.080276884
25	0x3db52445	0.088448085
26	0x3d1b500b	0.03791813
27	0x3db8ee67	0.09029847
28	0xbcbf5c8f	-0.023359565
29	0x3db51649	0.08842141
30	0x3dbba37d	0.09162042
31	0xbd45404a	-0.048157014
32	0x3d6d4625	0.057928223
33	0x3e1db5dd	0.15401407
34	0xbd84ebee	-0.064903125
35	0xbd808e8c	-0.06277189
36	0xbd82eac5	-0.06392435
37	0x3d6df5ca	0.05809573
38	0xbd50e6cc	-0.051001355
39	0x3c8e7726	0.017390799
40	0x3d5c32f7	0.05375954
41	0x3d8ca06e	0.06866537
42	0x3da7ab48	0.08186966
43	0x3c8efe00	0.017455101
44	0x3db2fdb0	0.08739793
45	0xbd8ea5b1	-0.06965197
46	0x3e04703b	0.12933438
47	0x3c48bb62	0.012251707
48	0x3dde59ab	0.108569466
49	0xbc8d8a72	-0.01727793
50	0x3d94cf71	0.07266129
51	0x3da8fade	0.08250974
52	0x3de6adf1	0.112636454
53	0x3d66cd23	0.056347977
54	0x3d2730b0	0.040817916
55	0x3d42af03	0.047530185
56	0x3cada5af	0.021197168
57	0x3cb91c2b	0.02259644
58	0x3ddff57e	0.10935496
59	0xbe35b477	-0.17744623
60	0xbe2aceac	-0.16680402
61	0x3da7d02b	0.08194002
62	0x3d3f4bb1	0.046703044
63	0x3d599dac	0.053128883
64	0xbdbaadd3	-0.091151856
65	0x3d8c71b4	0.06857625
66	0x3cbe501d	0.02323156
67	0xbdee543c	-0.1163716
68	0xbe1a371e	-0.15060088
69	0x3d9be7ba	0.07612558
70	0x3d99c7a9	0.07508785
71	0x3d22b9e6	0.039728068
72	0x3daf1163	0.08548238
73	0x3daf0e01	0.08547593
74	0x3d2e76e4	0.04259385
75	0xbdde88b3	-0.10865917
76	0x3d38541b	0.045002084
77	0x3d06ee67	0.032942202
78	0xbdaa8b28	-0.08327323
79	0xbe0014f5	-0.12507994
80	0xbdb12f8c	-0.08651647
81	0xbb868708	-0.0041054524
82	0xbd12144c	-0.035663888
83	0x3db66438	0.08905834
84	0xbde4ac60	-0.111656904
85	0xbbad8a92	-0.00529606
86	0x3e235400	0.15950012
87	0xbd2cb29e	-0.04216253
88	0x3d822907	0.063554816
89	0xbd51180f	-0.051048335
90	0xbdb9e793	-0.090773724
91	0xbd07383b	-0.03301261
92	0x3caff308	0.021478191
93	0x3d9fe3f0	0.078071475
94	0x3dfb193e	0.12260674
95	0x3bf0a1cc	0.0073435064
96	0x3b118c6f	0.002220895
97	0xbddf0380	-0.108893394
98	0x3dc8d70f	0.09806644
99	0xba5b2f6e	-0.00083612546
100	0xbd1da56e	-0.038487844
101	0x3d415005	0.047195453
102	0x3d96c8fe	0.07362555
103	0x3e2585cb	0.16164319
104	0xbbd2e78f	-0.0064362953
105	0x3e3d932f	0.18513177
106	0x3d879a77	0.06621259
107	0x3e0fd06a	0.14044347
108	0x3d809216	0.06277864
109	0xbd5fe276	-0.05465933
110	0x3c07e603	0.008294585
111	0x3d659bf7	0.056056943
112	0x3dbdd54c	0.09269199
113	0x3da8f8c6	0.08250575
114	0x3e391a04	0.1807633
115	0x3df3ffc6	0.11914019
116	0x3de0ee7d	0.10982988
117	0xbd5a8900	-0.05335331
118	0x3dbd4ec4	0.09243539
119	0x3d9d76a6	0.07688646
120	0xbd25d068	-0.040481955
121	0xbdf6777f	-0.12034511
122	0x3dc51463	0.09623029
123	0xbdf4a0be	-0.11944722
124	0x3ce3bda9	0.027800398
125	0xbd140011	-0.036132876
126	0xbe2a251c	-0.16615719
127	0x3da98b0a	0.08278473
128	0xbcc6f134	-0.024284936
129	0xbd29bd5b	-0.04144035
130	0xbdf41b45	-0.11919264
131	0xbd9d75d4	-0.076884896
132	0xbdc3b359	-0.09555692
133	0xbd171cb0	-0.036892593
134	0x3ca8adee	0.020590749
135	0x3d7da7ec	0.06192772
136	0xbdb64d40	-0.08901453
137	0xbceb195a	-0.028698612
138	0x3d749be8	0.059718996
139	0xbd87ec01	-0.06636811
140	0x3e08e5cf	0.13368915
141	0xbddbec30	-0.107384086
142	0x3b94132b	0.0045188866
143	0x3e14a9f4	0.14517957
144	0xbd49d79a	-0.04927788
145	0xbe0086d6	-0.12551436
146	0xbe0d3319	-0.13789023
147	0xbc1951e3	-0.009357902
148	0xbdce07fd	-0.100601174
149	0x3e1be0f9	0.15222539
150	0xbdcbb44f	-0.099465005
151	0x3d18a963	0.037270915
152	0xbd77b16c	-0.060471937
153	0xbda14eb7	-0.07876342
154	0xbd5c6fcf	-0.053817566
155	0xbdb0e5f5	-0.08637611
156	0x3d185717	0.03719243
157	0xbdd23ac9	-0.10265119
158	0xbdfe1c50	-0.12407744
159	0x3d81478a	0.06312473
160	0xbd7ebc90	-0.062191546
161	0xbe111da1	-0.14171459
162	0x3d6f89b1	0.058480922
163	0x3d3b65cc	0.045751378
164	0x3d8b9ed8	0.068174064
165	0xbd979ba6	-0.074027345
166	0x3d6c3399	0.057666395
167	0xbcd95c4f	-0.026533274
168	0xbd855814	-0.0651094
169	0xbd852fd6	-0.065032646
170	0xbdaf4a09	-0.08559043
171	0xbcadfc8d	-0.02123859
172	0xbdb5e390	-0.08881295
173	0x3d56c9ea	0.052438654
174	0xbe0b5224	-0.13605553
175	0xbc49130f	-0.01227261
176	0xbdfe5f08	-0.124204695
177	0x3d0475e9	0.03233901
178	0xbd91f45e	-0.071266875
179	0xbd64783d	-0.05577873
180	0xbdc23e63	-0.094845556
181	0xbd816286	-0.0631762
182	0xbd48a092	-0.048981257
183	0xbd16fa3b	-0.036859732
184	0xbc8fab27	-0.017537666
185	0xbbe5d4c0	-0.007013887
186	0xbde3199d	-0.1108887
187	0x3e32a888	0.17447102
188	0x3e2f3178	0.17108715
189	0xbd961115	-0.07327477
190	0xbd18c9d7	-0.037301864
191	0xbd833e65	-0.06408385
192	0x3dc89666	0.09794311
193	0xbd85dd21	-0.065363176
194	0xbd00f752	-0.031485863
195	0x3dd5e4c2	0.10444023
196	0x3e244c48	0.16044724
197	0xbda686de	-0.081311926
198	0xbdc15716	-0.094404384
199	0xbd3d8c97	-0.046276655
200	0xbd98d480	-0.07462406
201	0xbdd1ef65	-0.10250739
202	0xbce614ad	-0.02808603
203	0x3dcb1131	0.099153884
204	0xbd167f0c	-0.036742255
205	0xbd51feef	-0.051268514
206	0x3d90311a	0.070406154
207	0x3e03a926	0.12857494
208	0x3db9a597	0.09064787
209	0x3c3222b0	0.010872528
210	0x3d171ea9	0.036894474
211	0xbd9c075e	-0.07618593
212	0x3def7db3	0.11693897
213	0xbbba03f2	-0.00567674
214	0xbe246b41	-0.16056539
215	0x3d446ff8	0.047958344
216	0xbda3acec	-0.079919666
217	0x3cf77e19	0.030211495
218	0x3da55508	0.08072859
219	0x3d4b566b	0.04964296
220	0xbcbd0a77	-0.02307628
221	0xbd597795	-0.053092558
222	0xbe0601d5	-0.13086636
223	0x3bc9467a	0.0061424347
224	0xbc641f46	-0.013923472
225	0x3dcfaa5d	0.10139916
226	0xbd9fb744	-0.07798627
227	0xbc7a026b	-0.015259366
228	0x3d258568	0.04041043
229	0xbd32607b	-0.043549042
230	0xbd8004f6	-0.06250946
231	0xbe07266e	-0.13198254
232	0x3bee245e	0.007267519
233	0xbe398739	-0.1811799
234	0xbda66887	-0.08125406
235	0xbe1294aa	-0.14314523
236	0xbd8e8e8e	-0.06960784
237	0x3d2e362f	0.042532142
238	0x3c5f6cd3	0.013636786
239	0xbd57aaed	-0.052653242
240	0xbdafe989	-0.08589465
241	0xbd98b392	-0.07456125
242	0xbe41b391	-0.18916155
243	0xbe069583	-0.13142972
244	0xbdd8f0e6	-0.10592823
245	0x3d9bee95	0.07613865
246	0xbd998d77	-0.074976854
247	0xbd872c73	-0.06600275
248	0x3d2c37e6	0.042045496
249	0x3e03c459	0.1286787
250	0xbdbbfde3	-0.091792844
251	0x3dc7e148	0.09759766
252	0xbc6ed4a5	-0.014577066
253	0x3d0e229f	0.034700986
254	0x3e379488	0.17927754
255	0xbd8dda6f	-0.069264285

action_model._discrete_distribution.branches.0.bias f4 [2]
0	0x3d4e62b7	0.05038711
1	0xbd4e62c8	-0.050387174

onnx::Div_65 f4 [6]
0	0x3ef9c1f3	0.48780784
1	0x3d5eb774	0.054374173
2	0x3ec237f3	0.3793331
3	0x3d09d1b7	0.033647265
4	0x3cf2084d	0.029544974
5	0x3d3b5040	0.04573083
