results/TestCurriculum4/SuperTank/SuperTank-25152.pt (torch, 451555 bytes, 50 tensors)

network_body.observation_encoder.processors.0.normalizer.running_mean f4 [6]
0	0xc0095c97	-2.1462762
1	0x3e30f37c	0.17280382
2	0xbf8422ac	-1.0323081
3	0x3f199889	0.59998375
4	0x3e614663	0.21999507
5	0xbf9d6f90	-1.2299671

network_body.observation_encoder.processors.0.normalizer.running_variance f4 [6]
0	0x457801cc	3968.1123
1	0x4458452c	865.0808
2	0x472717f4	42775.953
3	0x3fae1406	1.3599861
4	0x3f8631c0	1.0483932
5	0x4020d2b9	2.5128615

network_body.processors.0.normalizer.running_mean f4 [6]
0	0xc0095c97	-2.1462762
1	0x3e30f37c	0.17280382
2	0xbf8422ac	-1.0323081
3	0x3f199889	0.59998375
4	0x3e614663	0.21999507
5	0xbf9d6f90	-1.2299671

network_body.processors.0.normalizer.running_variance f4 [6]
0	0x457801cc	3968.1123
1	0x4458452c	865.0808
2	0x472717f4	42775.953
3	0x3fae1406	1.3599861
4	0x3f8631c0	1.0483932
5	0x4020d2b9	2.5128615

network_body._body_endoder.seq_layers.0.weight f4 [128, 6]
0	0x3e05515c	0.13019317
1	0xbe909bb9	-0.28243807
2	0x3f51d1a0	0.8196049
3	0x3e908ebf	0.28233907
4	0xbe8d650d	-0.27616158
5	0xbf0b0063	-0.54297465
6	0xbe15f205	-0.14643104
7	0x3e99574f	0.29949424
8	0xbdc64c01	-0.09682465
9	0xbea0886f	-0.3135409
10	0x3e07a1c3	0.13245301
11	0xbe59dab7	-0.2127484
12	0xbe501142	-0.20319083
13	0x3de3502d	0.11099277
14	0xbdc3305c	-0.09530708
15	0xbf59f989	-0.85146385
16	0xbf0a226f	-0.5395879
17	0x3f25930d	0.64677507
18	0x3f125028	0.5715356
19	0xbf33b715	-0.70201236
20	0xbf324434	-0.6963532
21	0x3e5ca7f0	0.21548438
22	0x3ec77dbc	0.38963115
23	0xbbaf82d9	-0.0053561744
24	0xbf019d2f	-0.5063047
25	0x3df27f73	0.11840715
26	0xbf30ca3f	-0.69058603
27	0x3efa2c2c	0.48861825
28	0x3e2e5e6f	0.17028211
29	0x3e1eecca	0.15520015
30	0x3f1379fe	0.5760802
31	0x3e9a87d0	0.30181742
32	0xbed137dd	-0.40862933
33	0x3efe8316	0.49709386
34	0xbe50207e	-0.20324895
35	0xbf042d9f	-0.5163211
36	0x3ede6d4b	0.4344276
37	0x3d7a742c	0.061145946
38	0xbe30412c	-0.17212361
39	0x3f3808bd	0.71888334
40	0xbed0a458	-0.40750384
41	0x3e105470	0.1409471
42	0xbd91833e	-0.071051106
43	0xbe911a5b	-0.2834042
44	0x3e8dcc0d	0.2769474
45	0x3eec2308	0.46120477
46	0xbc8a0665	-0.016848752
47	0x3ece1933	0.402536
48	0xbdf85394	-0.12125316
49	0xbe56c310	-0.20972848
50	0x3c448ae8	0.011996008
51	0x3f5d8640	0.86532974
52	0x3f06dd22	0.5268117
53	0xbf0e91fa	-0.5569149
54	0x3edfb8be	0.43695635
55	0x3f22a546	0.6353344
56	0x3ec567e6	0.3855583
57	0xbf06900f	-0.52563566
58	0x3e859ee8	0.26097798
59	0x3e4233ba	0.18965045
60	0x3eb97f8f	0.36230132
61	0x3eb1aaa4	0.347005
62	0x3d789302	0.060687073
63	0xbd67fc00	-0.05663681
64	0xbeb3f994	-0.3515135
65	0xbe8fcfe2	-0.2808829
66	0xbe9006bc	-0.28130138
67	0xbe0a7ea9	-0.1352488
68	0xbecb32e2	-0.39687258
69	0xbd0db64d	-0.034597684
70	0xbf336cc5	-0.70087844
71	0xbee0bf20	-0.43895817
72	0xbef22476	-0.47293442
73	0x3f1b02e3	0.6055128
74	0xbf47a700	-0.77989197
75	0x3eb93d5b	0.36179623
76	0x3edd3b5c	0.4320935
77	0x3e6c7e21	0.2309499
78	0x3f2a5211	0.66531473
79	0xbdd55eda	-0.10418482
80	0xbea1efa2	-0.31628138
81	0x3e8f1fc5	0.27953926
82	0xbeff26d5	-0.49834314
83	0xbe7fe1b7	-0.24988447
84	0x3f42f24d	0.7615097
85	0xbea4e1c4	-0.32203496
86	0xbe16f773	-0.14742832
87	0xbde5ab3f	-0.11214303
88	0x3ec58c9d	0.38583842
89	0xbe84b194	-0.2591673
90	0x3d4f161d	0.0505582
91	0x3e68bd0c	0.22728366
92	0xbd8789d1	-0.06618083
93	0xbdf43d4e	-0.119257554
94	0xbf4af864	-0.79285264
95	0x3eab6905	0.3347856
96	0xbe6d5067	-0.23175202
97	0x3ee355a2	0.4440127
98	0xbe13cfb0	-0.14434695
99	0xbd45ba8f	-0.04827362
100	0xbe107a03	-0.14109044
101	0x3e7ed217	0.2488483
102	0x3f01112e	0.5041684
103	0xbec88117	-0.39160988
104	0x3eafd62e	0.34343094
105	0xbe92839c	-0.28616035
106	0x3d43ff2c	0.047850773
107	0xbeb738da	-0.35785562
108	0xbea4a212	-0.321549
109	0x3f047914	0.5174725
110	0xbf282309	-0.6567846
111	0xbe897bc9	-0.26852253
112	0x3efbb401	0.4916077
113	0x3e8d4a95	0.27595964
114	0xbf47deb9	-0.7807422
115	0xbec81de3	-0.39085302
116	0xbe754825	-0.23953302
117	0x3e25f202	0.162056
118	0x3e395da4	0.18102127
119	0x3e170576	0.14748177
120	0xbf170c96	-0.5900358
121	0x3eb20159	0.34766653
122	0xbccba74a	-0.024860043
123	0xbe445843	-0.19174294
124	0xbea66e40	-0.3250599
125	0xbf42080f	-0.75793546
126	0x3d4509fa	0.048105218
127	0xbe543a7e	-0.20725438
128	0xbf06af22	-0.5261098
129	0xbe9ea47a	-0.3098486
130	0x3cf46e81	0.029837849
131	0x3f31e06e	0.6948308
132	0xbf551b3f	-0.832447
133	0x3e3e6065	0.18591459
134	0x3ec64a3d	0.38728514
135	0x3eacdf23	0.3376399
136	0xbe0b8b08	-0.13627255
137	0xbd93c89c	-0.072159976
138	0xbdb194b2	-0.086709395
139	0xbdcb2edc	-0.09921047
140	0xbf13a44a	-0.5767256
141	0x3ea12c99	0.31479338
142	0xbe8089ae	-0.2510504
143	0xbf4ae5c5	-0.7925685
144	0x3f2eba7f	0.6825332
145	0x3f15a0d6	0.5844854
146	0xbeaa00f4	-0.33203852
147	0xbe103f85	-0.14086731
148	0x3ee230aa	0.44177753
149	0x3f379822	0.7171651
150	0xbd4c0734	-0.049811557
151	0xbd907c32	-0.070549384
152	0xbe562188	-0.20911229
153	0xbe4b2f04	-0.19842154
154	0xbe0f62c1	-0.14002515
155	0x3f1d08d5	0.613416
156	0xbee89ac0	-0.45430565
157	0x3e99d019	0.30041578
158	0xbe10fbe7	-0.14158593
159	0x3ea04f07	0.31310293
160	0x3d6edd2e	0.058316402
161	0x3e386682	0.18007854
162	0xbf91b6b0	-1.1383877
163	0xbecff893	-0.40619335
164	0x3eda6742	0.42656904
165	0x3e12ee44	0.14348704
166	0xbdca2dc2	-0.09872009
167	0xbda69022	-0.0813296
168	0xbd06119d	-0.03273164
169	0x3f147961	0.5799771
170	0x3d136015	0.035980303
171	0x3f825155	1.018107
172	0x3c5b4087	0.013382084
173	0xbd728a8b	-0.059214156
174	0xbec16905	-0.37775436
175	0xba449b9d	-0.0007499995
176	0x3e0e4fb2	0.13897589
177	0xbe6775a1	-0.22603466
178	0x3e6ae063	0.22937159
179	0xbf046555	-0.5171712
180	0x3e211d84	0.15733916
181	0x3f2ca0e1	0.6743298
182	0xbe4f435d	-0.20240541
183	0xbf5f6760	-0.8726711
184	0x3eb66343	0.35622606
185	0x3e05fbcd	0.13084336
186	0xbd66b3e0	-0.056323886
187	0xbe01db71	-0.12681367
188	0xbe8cca4a	-0.27498084
189	0x3f22d8d4	0.63612103
190	0xbc6dfd96	-0.014525792
191	0x3eb1564a	0.34636146
192	0xbedc9f57	-0.43090317
193	0xbf509732	-0.81480706
194	0xbdee56dd	-0.116376616
195	0xbccf71b8	-0.02532278
196	0xbe6877c4	-0.22701937
197	0xbeb4c4d4	-0.35306418
198	0xbf184424	-0.59478974
199	0xbc02e790	-0.007989779
200	0x3c10b8ca	0.00883312
201	0x3d1f539f	0.038898107
202	0x3f27004a	0.65234816
203	0xbf3755ed	-0.7161549
204	0xbeba5fa5	-0.36401096
205	0x3e330eda	0.17486134
206	0xbf08222b	-0.53177136
207	0x3ee64db4	0.44981158
208	0x3deaacfa	0.11458774
209	0x3e4b3456	0.19844183
210	0x3e4756d8	0.19466722
211	0xbf154868	-0.5831361
212	0xbeef6d43	-0.46763048
213	0xbe7a29fd	-0.2443008
214	0xbdd04c37	-0.10170787
215	0x3eb0db6a	0.345424
216	0x3eb205d5	0.34770074
217	0xbf855e40	-1.0419388
218	0x3eb1da42	0.3473683
219	0xbddfb74c	-0.10923633
220	0x3f8036ce	1.0016725
221	0xbd1a8c7b	-0.03773163
222	0x3f1e884d	0.6192673
223	0x3ebebb8a	0.37252456
224	0xbf021e68	-0.50827646
225	0xbe38c268	-0.1804291
226	0xbe21be64	-0.15795285
227	0xbdb15903	-0.08659556
228	0x3ef7f23a	0.48426992
229	0x3ce79b88	0.028272405
230	0x3e81532a	0.25258762
231	0x3c139a54	0.009008963
232	0x3e8c6ea5	0.27428165
233	0x3f034757	0.5128073
234	0xbf002ca3	-0.5006811
235	0xbeb7ac08	-0.35873437
236	0x3f16abdf	0.58856004
237	0xbb51355c	-0.0031922674
238	0x3e3e16fa	0.18563452
239	0xbeb3b4e5	-0.3509895
240	0xbd66912f	-0.0562908
241	0xbf28e201	-0.65969855
242	0x3e95c974	0.2925526
243	0x3dcfcd4e	0.10146581
244	0x3ea63362	0.32461077
245	0x3e78b407	0.24287425
246	0xbf08b3f1	-0.5339957
247	0xbc68a510	-0.01419951
248	0xbe65092f	-0.22366785
249	0x3ef4237b	0.4768332
250	0xbe6adcfc	-0.22935861
251	0xbeea8511	-0.45804647
252	0xbf82cae8	-1.0218172
253	0x3ebbaa8f	0.36653563
254	0x3d21a5f7	0.039464917
255	0x3eb47075	0.35242048

network_body._body_endoder.seq_layers.0.bias f4 [128]
0	0x3e2249cd	0.15848465
1	0xbe1d2471	-0.15345933
2	0xbe5985bc	-0.21242422
3	0x3e45d527	0.19319592
4	0x3dc8aa3c	0.09798095
5	0xbc772426	-0.015084302
6	0xbdc4de3e	-0.09612702
7	0x3e15aec0	0.14617443
8	0x3da68a4a	0.08131845
9	0xbdefd9d1	-0.11711467
10	0xbe640844	-0.22268778
11	0x3d0a6c9b	0.03379498
12	0x3cd679cf	0.02618113
13	0x3c760acb	0.015017222
14	0x3c2b4033	0.010452318
15	0xbe541e17	-0.20714603
16	0xbdc124b6	-0.0943083
17	0x3d937e69	0.07201845
18	0x3d905ec0	0.07049322
19	0x3d302d07	0.04301169
20	0xbd7b8732	-0.06140823
21	0x3d1c55ec	0.03816788
22	0x3d959a85	0.07304863
23	0xba80792a	-0.0009801735
24	0xbe064881	-0.13113596
25	0x3d9dafe1	0.07699562
26	0xbd8d5d09	-0.06902511
27	0x3d449db2	0.048001952
28	0xbdb722cc	-0.08942184
29	0x3ce85190	0.028359205
30	0xbda055a6	-0.07828836
31	0x3d499c40	0.049221277
32	0x3d8c5ec7	0.06854015
33	0x3d340223	0.04394735
34	0x3cd2e8c0	0.02574575
35	0x3d4524b8	0.04813072
36	0x3e199fcb	0.15002362
37	0xbd9cb248	-0.07651192
38	0xbd7ffb7e	-0.0624957
39	0x3db691d3	0.089145325
40	0x3e1dd69d	0.154139
41	0x3d8325b1	0.064036734
42	0x3d3eae14	0.046552733
43	0x3dbd412f	0.092409484
44	0x3d103c79	0.03521392
45	0x3da16c14	0.078819424
46	0x3bfb8d2d	0.0076767416
47	0xbd8c489d	-0.068497874
48	0xbda6421e	-0.081180796
49	0x3e2c4ee1	0.16826965
50	0x3db783a3	0.089606546
51	0x3e133e6b	0.1437928
52	0x3da65281	0.08121205
53	0x3e2986f2	0.16555384
54	0x3e18f335	0.14936526
55	0x3cdff281	0.027337315
56	0x3d8f10af	0.06985604
57	0x3e15a701	0.14614488
58	0x3d575a10	0.052576125
59	0xbdca0c00	-0.0986557
60	0xbd94268e	-0.07233916
61	0xbea3de51	-0.3200555
62	0x3dd87fa0	0.105712175
63	0x3dcd0a53	0.10011735
64	0xbd85c17c	-0.06531045
65	0xbd72db37	-0.05929109
66	0xbb94d42f	-0.004541896
67	0x3c91c2e7	0.017793132
68	0x3c8cda00	0.017193794
69	0xbe0b2382	-0.13587764
70	0x3d01a0d5	0.031647522
71	0xbd457aa9	-0.04821268
72	0x3c308c03	0.010775569
73	0x3c45a5a6	0.012063419
74	0x3da0b56d	0.07847104
75	0xbdb405a3	-0.087901376
76	0xbcebf738	-0.028804407
77	0x3d8ac71d	0.06776259
78	0xbdc6b168	-0.09701806
79	0xbdc2e5f9	-0.0951652
80	0x3d878fea	0.06619246
81	0x3e3bd69e	0.18343589
82	0x3cc253b0	0.023721546
83	0x3d5785ef	0.052617963
84	0xbe2e035a	-0.16993466
85	0x3d1c0c87	0.038097885
86	0xbe5602e8	-0.20899546
87	0x3dd72392	0.105048314
88	0xbd36e50f	-0.04465204
89	0x3d5228d3	0.051308464
90	0x3d58c43a	0.05292151
91	0xbce1cbe9	-0.027563052
92	0x3e28ae23	0.16472678
93	0xbdb9276d	-0.09040723
94	0x3e38c314	0.18043166
95	0x3d5f6675	0.05454107
96	0x3d5606c9	0.052252565
97	0x3d03c9dd	0.032174934
98	0x3d0a188c	0.033714816
99	0x3db1bc02	0.08678438
100	0xbe0f1da9	-0.13976158
101	0xbe10dec8	-0.14147484
102	0x3dd9ca2b	0.106342636
103	0xbdf90b63	-0.12160375
104	0xbc53ce2d	-0.012927574
105	0x3df343d7	0.11878174
106	0x3ccc16b1	0.024913164
107	0x3c26d8a2	0.010183485
108	0x3da5272a	0.080641106
109	0xbc320387	-0.010865099
110	0xbe431199	-0.19049682
111	0xbc08ed19	-0.00835731
112	0xbe1dbfc6	-0.15405187
113	0xbe4c1660	-0.1993041
114	0xbe008a2e	-0.12552711
115	0xbd842215	-0.06451813
116	0x3d5eefe3	0.054427993
117	0xbd51df06	-0.051238082
118	0x3d7d1cd5	0.061795074
119	0xbc218119	-0.009857439
120	0xbd93d51c	-0.07218382
121	0x3d1ee0b3	0.03878851
122	0xbd961c7f	-0.07329654
123	0xbdabe46f	-0.083931796
124	0xbd1ad903	-0.037804615
125	0xbd364e16	-0.044508062
126	0xbdc18536	-0.09449236
127	0x3e015c38	0.12632835

network_body._body_endoder.seq_layers.2.weight f4 [128, 128]
0	0xbdbcdcb0	-0.0922178
1	0x3da2981b	0.07939168
2	0x3b3bef17	0.0028676444
3	0xbe194800	-0.14968872
4	0xbd9be4e1	-0.076120146
5	0xbc96221d	-0.018326813
6	0x3d8f59f9	0.06999583
7	0x3d46168b	0.048361342
8	0x3cad6aec	0.021169148
9	0xbac010d8	-0.0014653457
10	0x3ccdc511	0.025118383
11	0xbd435503	-0.047688495
12	0x3deaece9	0.11470968
13	0xbd205f1d	-0.039153207
14	0x3d128279	0.03576896
15	0xbdf1a7ba	-0.117995694
16	0xbe890ab0	-0.26765966
17	0x3b4797e1	0.0030455517
18	0xbbcb86fc	-0.0062111598
19	0xbccd4ad2	-0.025060091
20	0xbd19ea7e	-0.037577145
21	0xbdb0c5d5	-0.086314835
22	0x3dba0650	0.09083235
23	0x3db15d54	0.08660379
24	0x3e53a0af	0.20666765
25	0x3d1c32f6	0.038134538
26	0x3db23237	0.08700984
27	0x3d608fee	0.054824762
28	0xbdafb141	-0.085787304
29	0xbddc903b	-0.10769697
30	0xbd5e6b27	-0.054301407
31	0xbe385e26	-0.18004665
32	0x3e11bfa0	0.14233255
33	0xbcd9fb27	-0.026609017
34	0xbd10d211	-0.035356585
35	0xbcc71f1f	-0.024306832
36	0xbd5ca361	-0.053866748
37	0xbd6065fd	-0.054784764
38	0xbd9e16e2	-0.07719208
39	0xbc68c276	-0.014206519
40	0x3deb1ec1	0.11480475
41	0x3d7fe038	0.06246969
42	0xbda1769f	-0.07883953
43	0xbe52bfe9	-0.2058102
44	0xbd1e9253	-0.038713764
45	0xbe55527c	-0.20832247
46	0xbe35e4dd	-0.17763086
47	0x3dbb434e	0.09143697
48	0xbd9538cf	-0.07286226
49	0xbda6769c	-0.08128092
50	0xbc9d7fd6	-0.019225996
51	0x3dfe4950	0.12416327
52	0x3db7a866	0.08967666
53	0x3d7e0a49	0.062021527
54	0x3e41fcda	0.18944111
55	0xbc86ff35	-0.016479114
56	0xbc0fd94b	-0.008779834
57	0xbda1f3ee	-0.07907854
58	0xbd204b3f	-0.03913426
59	0x3dc4c0ed	0.0960711
60	0x3d281b8a	0.04104189
61	0xbdf3bbe7	-0.11901074
62	0xbd138048	-0.03601101
63	0xbdbdcc64	-0.092675
64	0xbd3fc1d0	-0.046815693
65	0x3d8c3b4b	0.06847247
66	0x3d04af2f	0.03239363
67	0x3d2369e4	0.039895907
68	0x3d911df4	0.07085791
69	0xbe091315	-0.13386185
70	0x3e755483	0.2395802
71	0xbe429a1a	-0.19004098
72	0xbdb34506	-0.087533996
73	0x3c8ef1e4	0.017449327
74	0x3d2ae60e	0.041723303
75	0xbcfdfc31	-0.031004043
76	0xbd088ce3	-0.033337485
77	0xbd01e440	-0.031711817
78	0xbc9d7c3b	-0.019224277
79	0xbd9a9e7b	-0.07549759
80	0x3d8635e8	0.065532506
81	0x3e4ed058	0.20196664
82	0xbdf0d018	-0.11758441
83	0xbd469abc	-0.04848741
84	0x3e0a6b21	0.13517429
85	0x3dee196c	0.116259426
86	0x3d678b70	0.056529462
87	0xbbc5cb2c	-0.006036183
88	0xbbf1624b	-0.0073664538
89	0x3e2de0ec	0.16980332
90	0xbc232343	-0.0099571375
91	0x3de1935d	0.110144354
92	0xbdc82ff7	-0.097747736
93	0x3d6d31b3	0.057908725
94	0x3d9e9559	0.077433296
95	0x3d066383	0.032809746
96	0xbe91bcc7	-0.28464338
97	0xbe2283b9	-0.1587056
98	0x3ce1eac4	0.027577765
99	0xbd00361b	-0.0313016
100	0xbca00533	-0.01953373
101	0x3d6ae0ce	0.057343297
102	0x3da1731d	0.07883284
103	0xbc875fbb	-0.01652514
104	0x3c7b7579	0.015347832
105	0xbbdcb12a	-0.006734987
106	0xbda50a6d	-0.08058629
107	0xbd6e463e	-0.058172457
108	0xbd81fa3e	-0.06346558
109	0xbdeace98	-0.11465186
110	0x3d7d75bf	0.06187987
111	0xbd85c42a	-0.06531556
112	0xbd8e5264	-0.069493085
113	0xbcc19eb9	-0.023635255
114	0xbcd37fcc	-0.025817774
115	0x3d6bae58	0.057539314
116	0x3c67b552	0.014142351
117	0x3dfb2157	0.122622184
118	0x3d947dd1	0.0725056
119	0xbdb5e590	-0.08881676
120	0xbdf2e222	-0.11859538
121	0x3dcaac2d	0.09896121
122	0xbe0b6a36	-0.13614735
123	0xbdff7da4	-0.12475136
124	0xbd48404a	-0.048889436
125	0x3e199e43	0.15001778
126	0x3cabcba4	0.020971127
127	0x3e41509e	0.1887841
128	0xbdbdfbec	-0.09276566
129	0xbe28bef3	-0.16479091
130	0xbc66af6f	-0.014079913
131	0x3bb9c072	0.005668693
132	0xbe58ffe3	-0.21191363
133	0x3e26f0be	0.16302773
134	0x3dae74d1	0.08518375
135	0xbd83f46a	-0.06443103
136	0x3dc0d908	0.094163954
137	0x3dfa5963	0.122240804
138	0xba645fd6	-0.00087117904
139	0xbe409430	-0.18806529
140	0x3aa330b1	0.0012450424
141	0xbc25df76	-0.010124078
142	0x3c570ef3	0.013126123
143	0x3dbc4942	0.0919366
144	0x3b0db495	0.0021622528
145	0xbdca0e62	-0.098660246
146	0xbe002476	-0.12513909
147	0xbdb40a3c	-0.087910146
148	0xbd3d266e	-0.046179228
149	0xbc772d5a	-0.015086496
150	0xbe34aa2b	-0.17643039
151	0xbdfc474c	-0.12318286
152	0xbc7a7041	-0.0152855525
153	0xbe9d7aa2	-0.30757624
154	0xbcc033e1	-0.023462238
155	0xbc8ff7f8	-0.017574295
156	0xbde21a6d	-0.110401966
157	0xbda6d2ef	-0.08145701
158	0xbd8b3692	-0.06797518
159	0x3e12c6f1	0.14333703
160	0x3dc2dcfc	0.09514806
161	0xbe3eef7a	-0.1864604
162	0xbe0ac8bc	-0.13553137
163	0xbe258ba5	-0.16166551
164	0x3dd9b2c3	0.10629799
165	0xbd231868	-0.039818197
166	0x3cdc352e	0.026880827
167	0xbdb8ae5f	-0.09017634
168	0x3d89fa6c	0.06737217
169	0xbe744fb8	-0.23858535
170	0xbde606b4	-0.11231747
171	0xbc843898	-0.016140267
172	0xbd1e315b	-0.038621288
173	0xbd0d41b2	-0.03448648
174	0x3e0b5dcc	0.1361
175	0x3cfd50ea	0.030922372
176	0xbdb21996	-0.086962864
177	0x3a340b28	0.00068681175
178	0x3dd3442f	0.10315739
179	0xbdc06220	-0.09393716
180	0xbdb92e08	-0.09041983
181	0xbda4d480	-0.08048344
182	0xbd23cd30	-0.039990604
183	0xbcc26b09	-0.023732679
184	0x3d1599e5	0.03652372
185	0xbe1cfd11	-0.15330912
186	0xbe044e3f	-0.12920474
187	0xbe1a70f8	-0.15082157
188	0x3c662964	0.014047954
189	0xbe027800	-0.12741089
190	0xbd9a920c	-0.075473875
191	0x3c9dc951	0.019261034
192	0x3d2a7ee6	0.041624926
193	0xbe1493f6	-0.14509568
194	0x3d94efae	0.07272278
195	0xbd14e696	-0.036352716
196	0x3d551102	0.052018173
197	0x3e0f4cc3	0.13994126
198	0x3d893364	0.06699255
199	0xbbae163a	-0.005312708
200	0xbd3942f0	-0.045229852
201	0xbdc7c563	-0.097544454
202	0xbe212118	-0.1573528
203	0x3dcc1ad4	0.099660546
204	0xbd1c53f7	-0.038166013
205	0x3e0d60c9	0.13806452
206	0x3d682103	0.056672107
207	0x3dd391c1	0.10330535
208	0x3d1c9334	0.03822632
209	0x3dea9659	0.11454458
210	0x3c3531a5	0.011059199
211	0x3dc7207e	0.09722994
212	0xbd9cc9e7	-0.07655697
213	0xbe406b6a	-0.18790975
214	0xbccb2cac	-0.024801575
215	0xbd88470d	-0.06654177
216	0xbe414783	-0.18874936
217	0xbd4e2274	-0.050325826
218	0x3d442bb1	0.04789323
219	0x3e339f03	0.17541127
220	0x3e2ba714	0.16762954
221	0x3a9822a2	0.0011607001
222	0xbc5477f1	-0.012968049
223	0x3d93e6c4	0.072217494
224	0xbd89c09d	-0.06726191
225	0x3d7ff18f	0.062486228
226	0xbd56210d	-0.052277613
227	0x3db5c75a	0.08875914
228	0xbde250ad	-0.11050544
229	0x3b075074	0.002064732
230	0x3d43da2d	0.04781549
231	0x3d6ce43d	0.057834852
232	0xbd2e60e9	-0.04257289
233	0x3e14efd1	0.14544608
234	0xbc2a7828	-0.010404624
235	0x3da27d12	0.079340115
236	0x3d125bb8	0.035732
237	0xbd40eb1e	-0.047099225
238	0xbe0bcb25	-0.13651712
239	0x3c0398e8	0.008032061
240	0x3d7e7f75	0.06213327
241	0xbd0589c9	-0.032602105
242	0xbda49b4e	-0.080374345
243	0x3ccf6ced	0.025320495
244	0xbda71bf4	-0.081596285
245	0x3d575584	0.05257179
246	0x3e0447cb	0.12918012
247	0x3d846150	0.064638734
248	0xbe2c286c	-0.16812295
249	0xbcadab28	-0.021199778
250	0xbd16fcf1	-0.036862317
251	0x3cc830d2	0.024437342
252	0x3e2043ae	0.15650818
253	0x3dfa11fd	0.12210462
254	0xbe24a781	-0.16079523
255	0xbd842880	-0.06453037

network_body._body_endoder.seq_layers.2.bias f4 [128]
0	0x3daa8b08	0.08327299
1	0xbd1111e0	-0.035417438
2	0x3df26e28	0.11837417
3	0xbcdc21c4	-0.02687157
4	0xbe1d56af	-0.15365098
5	0x3d6e3de0	0.058164477
6	0xbd57b3b9	-0.05266163
7	0x3d14ae65	0.036299128
8	0xbd920068	-0.07128984
9	0xbcb8afd9	-0.022544788
10	0xbdc1e8ba	-0.09468217
11	0xbc85181f	-0.016246853
12	0x3d837f9a	0.064208224
13	0x3d47eb06	0.04880812
14	0x3df66f62	0.12032963
15	0x3d4080a9	0.0469977
16	0x3d9b3249	0.075779505
17	0xbc809634	-0.015696622
18	0x3d0ed820	0.03487408
19	0x3e920d34	0.28525698
20	0x3dad0439	0.08448071
21	0xbe4a4eb6	-0.19756588
22	0x3e94990e	0.2902302
23	0x3d38c5f3	0.045110654
24	0x3d2f5227	0.042802956
25	0xbe0d4f0a	-0.13799682
26	0xbe835429	-0.25650147
27	0x3d944f3a	0.07241674
28	0x3e3a94f6	0.18220887
29	0xbd2a1184	-0.04152061
30	0x3d8d4fa3	0.06899955
31	0x3e48811a	0.19580498
32	0x3c097907	0.008390672
33	0x3e46cbe1	0.19413711
34	0x3c97956e	0.01850387
35	0x3d228c98	0.039684862
36	0x3d320834	0.043464854
37	0xbe25e1d8	-0.16199434
38	0xbe5321f3	-0.2061842
39	0xbde31092	-0.11087145
40	0x3e5d0c71	0.21586777
41	0x3d785d8f	0.0606361
42	0x3c1c1bbc	0.009528097
43	0x3e931ed4	0.28734457
44	0x3dca8421	0.09888483
45	0x3c034ceb	0.008013944
46	0x3c04291f	0.008066445
47	0xbd80d01c	-0.06289694
48	0x3da87f7f	0.08227443
49	0x3d168b8f	0.036754187
50	0x3d9acdae	0.075587615
51	0x3b556141	0.0032559189
52	0x3bb96c0a	0.005658631
53	0x3da3d28a	0.079991415
54	0x3dd5d310	0.104406476
55	0x3e84d98c	0.25947225
56	0x3dc5a759	0.0965106
57	0xbe48d3b1	-0.19612004
58	0x3d8a99ed	0.0676764
59	0x3bf11807	0.0073576006
60	0x3e217d10	0.15770364
61	0x3db7f01c	0.08981344
62	0x3e35015a	0.17676297
63	0x3d07d132	0.03315849
64	0xbd56764f	-0.05235892
65	0xbe37933f	-0.17927264
66	0x3c205de5	0.009788011
67	0x3df67003	0.12033083
68	0x3c381bee	0.011237128
69	0xbe16285e	-0.14663836
70	0xbe5b8e15	-0.21440919
71	0x3d88f634	0.066875845
72	0x3d83838f	0.06421577
73	0x3daea20e	0.08527003
74	0x3b9938d2	0.004675963
75	0x3cf325a9	0.029681044
76	0x3d762a1b	0.06009875
77	0x3cf92faa	0.030418236
78	0x3e8307b5	0.25591817
79	0x3d26c296	0.040712915
80	0x3d5918ca	0.053002156
81	0xbe27420b	-0.16333787
82	0x3e843b8c	0.2582668
83	0x3cc89456	0.024484795
84	0xbd98e487	-0.07465463
85	0x3e3338de	0.17502162
86	0xbe399595	-0.18123467
87	0x3c5c329c	0.013439801
88	0xbc4d0c0a	-0.012515077
89	0x3cd748f6	0.026279908
90	0x3d02cd02	0.031933792
91	0x3d500498	0.05078563
92	0x3c3de90b	0.011591206
93	0x3d2a02a2	0.041506417
94	0xbd97d63d	-0.074139096
95	0x3d939e82	0.07207967
96	0xbdb1b56f	-0.08677184
97	0x3e2a8d6c	0.1665551
98	0x3d81ceb5	0.06338254
99	0x3e8723d4	0.26394522
100	0x3e221486	0.15828142
101	0x3e91db5e	0.28487676
102	0xbe58c0ca	-0.21167293
103	0x3d73b17b	0.05949543
104	0xbcb8e0b2	-0.02256808
105	0xbe53c265	-0.20679624
106	0x3c0ba63e	0.008523522
107	0x3e889787	0.26678106
108	0x3bdf0f61	0.006807253
109	0x3e15b1a1	0.14618541
110	0x3e196129	0.1497847
111	0x3cc5a49e	0.024126347
112	0x3cd24c37	0.025671108
113	0x3dff2869	0.124588795
114	0xbbf67910	-0.007521756
115	0x3e021a7f	0.1270542
116	0xbd5e0851	-0.05420715
117	0xbdb0ae98	-0.08627051
118	0x3d0fc224	0.035097256
119	0xbe12b6d8	-0.14327562
120	0xbe8815de	-0.26579183
121	0xbe58614e	-0.21130869
122	0xbcee9450	-0.029123455
123	0x3d053542	0.032521494
124	0x3d3e22b4	0.046419814
125	0x3e198139	0.14990701
126	0x3d40c33f	0.0470612
127	0x3cf80043	0.030273562

action_model._continuous_distribution.log_sigma f4 [1, 2]
0	0xbdf7a7dc	-0.120925635
1	0xbe3595fb	-0.17732994

action_model._continuous_distribution.mu.weight f4 [2, 128]
0	0x3cecfea2	0.028930012
1	0xbb9e3bbc	-0.0048288982
2	0x3bf26d0e	0.0073982542
3	0xbd145565	-0.03621425
4	0xbd0f88fa	-0.03504274
5	0x3d8b69bf	0.06807279
6	0xbc00e17c	-0.00786626
7	0x3d21f189	0.039536987
8	0xbcc875d5	-0.02447025
9	0xbbb6d661	-0.005579755
10	0xbd0d5e23	-0.034513604
11	0x3cb192de	0.021676477
12	0xbd384c80	-0.04499483
13	0x3d6d289c	0.057900056
14	0x3cd74429	0.026277618
15	0x3cd83cd5	0.026396194
16	0x3c4bde93	0.012443203
17	0x3c4e059c	0.01257458
18	0x3cf810ed	0.030281508
19	0xba619e6c	-0.00086066755
20	0x3ce82b7d	0.02834105
21	0x3bdf99ff	0.0068237777
22	0xbb77b2cf	-0.0037795787
23	0x3c2cf45e	0.010556309
24	0xbd6b05fd	-0.057378758
25	0xbcb1e4ee	-0.021715607
26	0xbad87cb4	-0.0016516657
27	0xbd3dd1e7	-0.046342757
28	0xbb6650b9	-0.003514333
29	0xbc89a3f5	-0.016801814
30	0x3d4ba09a	0.04971371
31	0x3aecdf13	0.0018071852
32	0x3cd2fd25	0.025755474
33	0x3920357f	0.00015278718
34	0x3d31f5d0	0.043447316
35	0x3c4a3d09	0.0123436535
36	0x3d4a6b14	0.049418524
37	0xbce1ac05	-0.027547846
38	0xbcfbc355	-0.03073279
39	0xbc9b5bb5	-0.018964628
40	0xbc28671f	-0.010278492
41	0xbcb2843e	-0.021791574
42	0x3d0a7706	0.033804916
43	0x3c32e6f3	0.01091932
44	0x3ca9bce8	0.02071996
45	0xbb412c1a	-0.002947575
46	0x3c5d5ade	0.013510434
47	0xbcd86f65	-0.026420305
48	0xbc463c86	-0.012099391
49	0x3a37d094	0.00070119766
50	0x3cdbd3f4	0.026834466
51	0xbd269253	-0.04066689
52	0xbc9ef8d8	-0.019405767
53	0x3bca762f	0.0061786394
54	0x3c847a61	0.016171636
55	0x3c738130	0.014862344
56	0x3d1892f0	0.037249506
57	0xbd21b1cb	-0.039476197
58	0x3d5d6b22	0.054057248
59	0xbd733ea9	-0.05938593
60	0x3c9febe9	0.01952167
61	0x3c0a20a2	0.008430632
62	0x3b9fabe2	0.004872785
63	0xbd05e8a9	-0.032692585
64	0x3c16a0fa	0.009193653
65	0xbd1a899a	-0.037728883
66	0xbcf53cd6	-0.029936235
67	0xbc9e2d01	-0.019308569
68	0x3d40141c	0.046894178
69	0x3b137eec	0.0022506071
70	0xbca6aa52	-0.020344887
71	0xbccad0b1	-0.024757715
72	0xbc6097f0	-0.0137081
73	0x3cb8281e	0.022480067
74	0xbd546c10	-0.05186087
75	0x3d04d34c	0.03242807
76	0x3d47983f	0.048729178
77	0x3d0a595c	0.033776626
78	0xbc9c6663	-0.01909179
79	0x3d43df7e	0.04782056
80	0xbd64cfe4	-0.055862322
81	0xbc88ce2c	-0.016699873
82	0x3aae380e	0.0013291852
83	0x3d34b6eb	0.044119757
84	0xbc0affa7	-0.008483804
85	0x3b750dc6	0.0037392243
86	0x3b81629f	0.003948524
87	0xbd8f21ef	-0.06988894
88	0xbd074e58	-0.0330337
89	0xbd468152	-0.048463173
90	0x3d17ffb9	0.03710911
91	0xbcf019c3	-0.02930916
92	0x3d72c610	0.05927092
93	0xbd545312	-0.051837035
94	0xbd0e2a95	-0.03470858
95	0x3c5cab13	0.013468522
96	0x3c61d146	0.013782805
97	0xbc85dcbd	-0.016340608
98	0xbd0fe25d	-0.035127986
99	0x3a3a0b54	0.0007097025
100	0xbc63e06d	-0.013908488
101	0xbaba9b91	-0.0014237036
102	0x3c447a49	0.011992046
103	0x3c976961	0.018482866
104	0xbc93c998	-0.018040463
105	0xbc391e4b	-0.011298726
106	0x3c6c7a11	0.0144334
107	0xbb870208	-0.004120115
108	0xbcdc7109	-0.026909368
109	0xbbaf3220	-0.0053465515
110	0xbc3bb0c1	-0.011455716
111	0x3d3ee06b	0.04660074
112	0x3d049228	0.032365948
113	0x3d0635bd	0.032766093
114	0xbc749af3	-0.014929521
115	0xbcc87976	-0.02447198
116	0xbd135144	-0.035966173
117	0xbc589178	-0.013218276
118	0xbd265522	-0.040608533
119	0xbd12aa7b	-0.035807114
120	0x3a0e261c	0.0005422549
121	0xbca74be0	-0.020421922
122	0xbd181f0b	-0.03713898
123	0xbcf74910	-0.030186206
124	0x3d937d71	0.072016604
125	0x3c91793b	0.017758003
126	0xbd28ca10	-0.041208327
127	0xbd5aea05	-0.053445835
128	0xbaab4558	-0.0013066931
129	0x3a886b01	0.0010407866
130	0x3c2b81d4	0.010467965
131	0xbc340a3e	-0.01098877
132	0xbb0cbf9b	-0.002147651
133	0x3c678493	0.014130729
134	0x3d262d98	0.040570825
135	0x3a8bb3e9	0.0010658476
136	0x3d7131db	0.058885437
137	0x3c9c9ed5	0.019118706
138	0x3baab084	0.0052090306
139	0x3d2b07e1	0.04175556
140	0xbcaaba8e	-0.02084091
141	0x3ca3fdfc	0.02001857
142	0x3c4da9c9	0.012552687
143	0x3c3f6833	0.011682558
144	0x3d07e673	0.033178758
145	0x39679603	0.0002208576
146	0x3bed14df	0.007235154
147	0xbb8fbb50	-0.004386343
148	0x3b14f0a0	0.0022726431
149	0x3cbb3499	0.022852229
150	0x3c19f18d	0.009395969
151	0x3d1d9017	0.038467493
152	0xbbf86c2f	-0.007581256
153	0x3cc0def0	0.023543805
154	0xbd3dd60f	-0.04634672
155	0xbc479d1c	-0.012183454
156	0x3ad552d6	0.0016275297
157	0x3d54872f	0.051886734
158	0xbb5cc2a3	-0.0033685348
159	0xbaa9549e	-0.0012918895
160	0x39e98247	0.00044538287
161	0x3b708318	0.0036699232
162	0xbb18778e	-0.002326462
163	0xba0e6c47	-0.00054330047
164	0x3bcf69f9	0.0063297716
165	0xbd5c60b1	-0.05380315
166	0x3c7478e2	0.014921399
167	0xbd09a28e	-0.03360229
168	0x3be68992	0.0070354426
169	0x3c01d9df	0.00792548
170	0xbbbd53f4	-0.0057778303
171	0xbadde038	-0.0016927784
172	0xba7f60b4	-0.0009741888
173	0x3d307a14	0.043085173
174	0xbc253da5	-0.010085498
175	0x3d2741c3	0.0408342
176	0xbbb3b40e	-0.0054841107
177	0x3c10064f	0.008790567
178	0x3a550eca	0.0008127509
179	0x3d3bbd99	0.04583511
180	0x3d22e083	0.039764892
181	0x3b639ef9	0.0034732206
182	0x39b02dd9	0.00033603495
183	0x3c10aab5	0.008829762
184	0x3b7276e8	0.0036997143
185	0xbc391ca4	-0.011298332
186	0x3bad9bb4	0.0052981023
187	0xbc1690e2	-0.009189816
188	0x3c195cba	0.009360487
189	0x3bfeff78	0.007781919
190	0xbc16d254	-0.00920542
191	0xbce7347b	-0.028223267
192	0x3a5cd1e2	0.0008423609
193	0x3b76e04e	0.0037670317
194	0x3c9121a4	0.017716236
195	0xbc373a0e	-0.011183275
196	0xbc0fcf7d	-0.008777496
197	0x3b7aeee9	0.0038289374
198	0xbc8f1e5f	-0.017470537
199	0xbb046122	-0.0020199497
200	0xb501bcbb	-4.8330884e-07
201	0x3b7ceea1	0.0038594382
202	0xbbb97e7d	-0.0056608305
203	0x3caeb0ab	0.021324476
204	0x3a262f81	0.0006339476
205	0x3d13f108	0.036118537
206	0xbba1203e	-0.0049171736
207	0xbbfbd955	-0.00768582
208	0xbd2c1364	-0.04201068
209	0xbbd39fb0	-0.006458245
210	0xbb527113	-0.0032110855
211	0x3b576986	0.0032869293
212	0x3b83174c	0.00400058
213	0x3bc5f0bd	0.006040661
214	0x3a1a43d0	0.00058847386
215	0xbcb2e094	-0.021835603
216	0xbd1f320e	-0.038866095
217	0xbb9d1bd8	-0.004794579
218	0xbb505956	-0.003179153
219	0xbc318d74	-0.010836948
220	0xbc4cced5	-0.0125004845
221	0xbb34a4a7	-0.002756396
222	0xbb5d5e8d	-0.003377828
223	0x3b6f7386	0.0036537363
224	0x3d370f3c	0.044692263
225	0xbc0309a9	-0.007997909
226	0xbc233060	-0.009960264
227	0xbb4769f4	-0.0030428143
228	0xbc52cd0e	-0.012866272
229	0xbbc70596	-0.006073664
230	0xbc8cdcac	-0.017195068
231	0xbaa509a5	-0.0012591375
232	0xbbe1dceb	-0.0068927906
233	0xbd06a426	-0.032871388
234	0x3ca42d21	0.02004105
235	0x3c6d4952	0.014482813
236	0xbcfdb1c1	-0.030968549
237	0xbace3891	-0.0015733411
238	0xbd0030e7	-0.031296637
239	0x3b05e97e	0.0020433362
240	0x3b99bf38	0.0046919845
241	0x3cd85656	0.026408356
242	0x3d5c9851	0.053856198
243	0xbc9138d2	-0.01772729
244	0x3d6ac6ed	0.057318617
245	0x3c4e63a3	0.012596997
246	0xbb9c24f8	-0.004765149
247	0xbca312b0	-0.019906372
248	0xbd1972ec	-0.037463114
249	0x3ccebeb8	0.025237426
250	0x3b559938	0.0032592546
251	0x3cfc034b	0.030763289
252	0x3ca6ac0f	0.020345716
253	0x3c4bf643	0.01244885
254	0xbbf845d6	-0.0075766845
255	0xbceef512	-0.029169593

action_model._continuous_distribution.mu.bias f4 [2]
0	0xbb313887	-0.002704175
1	0x3cfc6a68	0.030812457

action_model._discrete_distribution.branches.0.weight f4 [2, 128]
0	0x3d3bc335	0.04584046
1	0xbd343fb9	-0.044006083
2	0x3d341911	0.043969218
3	0x3b84e33e	0.0040554097
4	0xbe16f02e	-0.14740059
5	0x3d4cc6cc	0.049994275
6	0xbd098809	-0.033577
7	0x3cf42670	0.029803485
8	0xbd1bf2f8	-0.03807351
9	0xbd18f7d6	-0.03734573
10	0xbddc72ff	-0.10764121
11	0xbbfe7d24	-0.007766383
12	0x3c6d4d2e	0.014483733
13	0x3d2feba4	0.042949334
14	0x3dc2e3c7	0.09516101
15	0x3d4eccb5	0.050488193
16	0x3c874a84	0.016515024
17	0x3a8e22b5	0.0010844084
18	0x3d8cc5f7	0.06873696
19	0x3e2a9353	0.16657762
20	0x3d55f45a	0.052234985
21	0xbddc2400	-0.10749054
22	0x3e7623d7	0.2403711
23	0x3c2c4ddf	0.010516613
24	0xbc47693f	-0.012171089
25	0xbdb484bc	-0.088143796
26	0xbe8cdb2a	-0.2751096
27	0x3d0811a5	0.033219952
28	0x3ddf0ae1	0.10890747
29	0xbd40c0d7	-0.047058906
30	0x3ce84b13	0.02835611
31	0x3de82b8d	0.11336432
32	0x3c421a1c	0.011847045
33	0x3dc27ace	0.094960794
34	0x3c27716e	0.010219915
35	0x3cac89c4	0.021061786
36	0x3cc924c3	0.024553662
37	0xbe55e448	-0.20887864
38	0xbe189418	-0.14900243
39	0xbe1cc3d3	-0.15309076
40	0x3e2221a6	0.15833148
41	0x3b1edbc8	0.0024239887
42	0x3c97a788	0.018512502
43	0x3e3e3774	0.18575841
44	0x3dcd58be	0.10026692
45	0xbc8a7ded	-0.01690575
46	0xb884732a	-6.3157015e-05
47	0xbd35d8e6	-0.044396304
48	0xbc44a833	-0.012002992
49	0xb8a8d178	-8.049881e-05
50	0x3d202da5	0.03910603
51	0xbcaa481c	-0.020786338
52	0xbba37977	-0.004988845
53	0x3d185bdc	0.03719698
54	0x3e18c3c0	0.14918423
55	0x3e34fe65	0.17675169
56	0x3d36feb6	0.044676505
57	0xbe3c5ee1	-0.18395568
58	0x3d727262	0.059191115
59	0xbc35f9de	-0.011106936
60	0x3ddd4660	0.108044386
61	0x3d18b505	0.03728201
62	0x3ddf8b90	0.10915291
63	0x3c1f98f4	0.009741057
64	0xbc7f196e	-0.015570028
65	0xbe2f54f6	-0.17122254
66	0xbbc24430	-0.0059285387
67	0x3d5c7798	0.05382499
68	0x3cfbc031	0.030731292
69	0xbdadf245	-0.08493475
70	0xbe5d8fe4	-0.21636921
71	0x3c8ace19	0.016943978
72	0x3c706191	0.014671699
73	0x3e1e5fc0	0.15466213
74	0xbccb8dcc	-0.024847887
75	0x3cda9561	0.026682558
76	0x3d4f69b6	0.050637923
77	0x3cad7953	0.021176016
78	0x3e4a5ed8	0.19762743
79	0x3d3c9a9d	0.04604589
80	0x3c8128b9	0.015766488
81	0xbe0e4173	-0.13892154
82	0x3de46e73	0.11153879
83	0x3ceaf8e0	0.028683126
84	0xbc85fc33	-0.01635561
85	0x3e0d1cbc	0.13780493
86	0xbd5e1dd4	-0.054227665
87	0xbaa9001a	-0.0012893707
88	0xbcfad6be	-0.030619975
89	0xbc89566f	-0.016764848
90	0x3cc01f00	0.023452282
91	0x3c453995	0.012037654
92	0x3bf4ca47	0.0074704024
93	0xbc29332a	-0.01032714
94	0xbdce95aa	-0.1008714
95	0x3cd1cc31	0.025610061
96	0xbd24a27d	-0.040194023
97	0x3d88f174	0.066866785
98	0x3be2a96c	0.0069171693
99	0x3e032df7	0.12810503
100	0x3d43c1c0	0.047792196
101	0x3e08698e	0.13321516
102	0xbe1fe01d	-0.15612836
103	0x3dbd4bea	0.09242995
104	0xbcaa11b5	-0.020760396
105	0xbe8428c8	-0.25812364
106	0x3c82eef8	0.01598309
107	0x3e5061af	0.20349763
108	0xbd6e076a	-0.05811254
109	0x3d60a658	0.054846138
110	0x3dcc9d57	0.09990948
111	0x3c2a77a3	0.0104045
112	0x3cbc2a11	0.022969278
113	0x3defff5f	0.1171863
114	0xbc4b42f5	-0.0124061005
115	0x3d42feae	0.047606163
116	0xbd2c0b4f	-0.042002972
117	0xbd3a56e7	-0.045493033
118	0xbc9d95ee	-0.019236531
119	0xbe37936e	-0.17927334
120	0xbe88facf	-0.26753852
121	0xbe28d01d	-0.16485639
122	0xbc57c683	-0.0131698875
123	0xbbad0616	-0.0052802665
124	0x3d6012fc	0.054705605
125	0x3e03b720	0.12862825
126	0x3baa8ba2	0.005204634
127	0x3c4cb2a8	0.012493767
128	0xbd94e7e8	-0.07270795
129	0x3d5891bd	0.05287336
130	0xbd593d91	-0.05303723
131	0x3cb92edb	0.02260535
132	0x3e25d4e7	0.16194497
133	0xbd6298f6	-0.055321656
134	0x3cb4d067	0.02207203
135	0xbc9c614b	-0.019089362
136	0x3d27c52d	0.040959526
137	0x3d05f723	0.03270639
138	0x3dbfbc21	0.093620546
139	0x3c9d0b8b	0.019170543
140	0xbc11982a	-0.008886376
141	0xbd5da894	-0.054115847
142	0xbdb64e23	-0.08901622
143	0xbdba15ba	-0.09086175
144	0xbd1a7871	-0.037712518
145	0x3b559284	0.003258855
146	0xbdaf876f	-0.08570754
147	0xbe36026f	-0.17774366
148	0xbd792a2e	-0.06083124
149	0x3e00e440	0.1258707
150	0xbe7b5cc0	-0.245471
151	0xbc43c2ec	-0.011948328
152	0x3b8f7a7e	0.004378616
153	0x3d95a041	0.07305957
154	0x3e903f47	0.28173277
155	0xbd2404fc	-0.040043816
156	0xbe01cec0	-0.12676525
157	0x3ca0044b	0.019533297
158	0xbd3ed77c	-0.04659222
159	0xbdc62647	-0.096752696
160	0xbc046055	-0.008079608
161	0xbdbb257d	-0.0913801
162	0x3ba6c57d	0.0050894604
163	0xbc2ed12b	-0.010669987
164	0xbcf1b48c	-0.029505037
165	0x3e5ef7c7	0.21774207
166	0x3e1c6975	0.15274604
167	0x3e2885dd	0.16457315
168	0xbe27dc40	-0.16392612
169	0xbc2ee8cc	-0.01067562
170	0xbc9bc2e6	-0.019013833
171	0xbe4437d5	-0.19161923
172	0xbda1c37a	-0.07898612
173	0x3c90de38	0.017684087
174	0xbcb3dea7	-0.021956755
175	0x3d3e8ca5	0.046520848
176	0x3b3ae4d3	0.0028517738
177	0xbc488686	-0.012239104
178	0xbd8d3cbf	-0.06896352
179	0x3cd8f059	0.026481794
180	0x3a44e32d	0.00075106585
181	0xbcbe1584	-0.023203619
182	0xbe17464b	-0.14772908
183	0xbe283f9b	-0.16430514
184	0xbd2ca56c	-0.042149946
185	0x3e4db8ae	0.20089981
186	0xbd811d1a	-0.06304379
187	0x3cf52046	0.029922616
188	0xbde73b2c	-0.11290583
189	0xbd1483db	-0.03625856
190	0xbdd58641	-0.104259975
191	0xbbf34a70	-0.007424645
192	0x3b755dfe	0.0037440057
193	0x3e30492c	0.17215413
194	0x3b4fa27d	0.0031682544
195	0xbd68fc5e	-0.0568813
196	0xbce1a548	-0.027544633
197	0x3d8ffe80	0.07030964
198	0x3e6a7988	0.22897923
199	0xbb6ad432	-0.0035832045
200	0xbc830474	-0.015993334
201	0xbe05dc14	-0.13072234
202	0x3cbb2893	0.022846496
203	0xbcca6bc8	-0.024709597
204	0xbd45b1dc	-0.048265323
205	0xbc99bdbe	-0.018767234
206	0xbe4d912d	-0.20074911
207	0xbc108f56	-0.008823236
208	0xbcca608f	-0.024704246
209	0x3e29f9a5	0.16599138
210	0xbdf65560	-0.12028003
211	0xbd3c7b90	-0.046016276
212	0x3c62ed10	0.013850465
213	0xbe043d97	-0.1291412
214	0x3d8011d8	0.062534034
215	0x3b8591b9	0.0040762094
216	0x3d4190fc	0.04725741
217	0x3cbefa5b	0.023312738
218	0xbc900037	-0.017578227
219	0xbccb0e7e	-0.024787184
220	0xbc9aee3f	-0.018912433
221	0x3c686500	0.0141842365
222	0x3ddd3965	0.10801963
223	0xbcdb768b	-0.026789924
224	0x3d0ab0e8	0.033860117
225	0xbd590e94	-0.05299242
226	0xbca4927f	-0.020089386
227	0xbde8d012	-0.11367811
228	0xbd6eb7f8	-0.058280915
229	0xbe0e4362	-0.13892892
230	0x3e24b412	0.16084316
231	0xbdd2a2f2	-0.102849856
232	0x3c9711d9	0.018441128
233	0x3e82746d	0.2547945
234	0x3c8dee8e	0.017325666
235	0xbe3fa9ee	-0.18717167
236	0x3d825205	0.063633
237	0xbd8084d6	-0.062753364
238	0xbdd85e8d	-0.10564909
239	0xbc58be69	-0.013228991
240	0xbc387b97	-0.011259935
241	0xbe037a88	-0.1283971
242	0x3c82e6ef	0.015979258
243	0xbd8764a0	-0.066109896
244	0x3cb6f9c4	0.022335894
245	0x3d8ebd30	0.069696784
246	0x39b4b6b4	0.000344684
247	0x3e53912e	0.2066085
248	0x3e82844e	0.25491565
249	0x3e0d0fb1	0.13775517
250	0x3d118ad0	0.035532773
251	0x3b8bc59c	0.0042655
252	0xbcd4d502	-0.025980476
253	0xbe16f01d	-0.14740033
254	0xba239aac	-0.00062410044
255	0xbbd0f42f	-0.006376765

action_model._discrete_distribution.branches.0.bias f4 [2]
0	0x3e783702	0.24239734
1	0xbe7836fd	-0.24239726

exp_avg f4 [128, 6]
0	0x355eec3e	8.304522e-07
1	0xb59f8ff4	-1.1888319e-06
2	0xb5c59781	-1.4721737e-06
3	0x33664be8	5.3620084e-08
4	0x329f02e4	1.851135e-08
5	0xb3ab48b5	-7.976033e-08
6	0xb682b941	-3.8958683e-06
7	0x375a8a4b	1.3026011e-05
8	0x36768aa9	3.6737567e-06
9	0xb47595e0	-2.2871927e-07
10	0xb3a99155	-7.8961115e-08
11	0x34b6a7be	3.402219e-07
12	0xb5deb7bb	-1.6593762e-06
13	0x376ca5b5	1.4105278e-05
14	0x365a08a4	3.248956e-06
15	0xb437b3d9	-1.7108631e-07
16	0xb37dae02	-5.9064412e-08
17	0x3488a12b	2.544924e-07
18	0xb66e66cd	-3.5524602e-06
19	0xb787b0cb	-1.617558e-05
20	0xb74cd6c3	-1.2209351e-05
21	0x35355548	6.7551855e-07
22	0x347a6856	2.3321022e-07
23	0xb586de03	-1.0048392e-06
24	0xb6af0236	-5.215664e-06
25	0xb88309fa	-6.248425e-05
26	0xb7fbbc94	-3.0009345e-05
27	0x3616121c	2.2362283e-06
28	0x354f3c97	7.720168e-07
29	0xb65f3b47	-3.3264093e-06
30	0x360a8dec	2.0646212e-06
31	0x376ef74e	1.4243486e-05
32	0x366c3abe	3.5200933e-06
33	0xb44e274a	-1.9199538e-07
34	0xb38e5761	-6.6282844e-08
35	0x349953d3	2.855946e-07
36	0x3681a2ae	3.863438e-06
37	0x377bccaf	1.5008422e-05
38	0x3749e9b3	1.2034946e-05
39	0xb552ec70	-7.857516e-07
40	0xb491a28b	-2.712662e-07
41	0x359ce012	1.1688119e-06
42	0x359c3cd1	1.1640606e-06
43	0xb70292f6	-7.782821e-06
44	0xb6ec395d	-7.040026e-06
45	0x34e17f23	4.200202e-07
46	0x341bb273	1.450042e-07
47	0xb527b6cc	-6.247835e-07
48	0x366b4c78	3.506224e-06
49	0xb79d5069	-1.8753302e-05
50	0xb74ff3b8	-1.2394907e-05
51	0x355ae686	8.1546784e-07
52	0x34972482	2.8152505e-07
53	0xb5a2cee0	-1.2130149e-06
54	0x348fd555	2.6791045e-07
55	0x36e5c09c	6.8471545e-06
56	0x367d5f87	3.7755542e-06
57	0xb4a1b555	-3.0120523e-07
58	0xb3df4eb2	-1.0398561e-07
59	0x34f08ae9	4.4804554e-07
60	0xb580e851	-9.604356e-07
61	0x3712a8c9	8.7415765e-06
62	0x364d773c	3.0616784e-06
63	0xb428c3d1	-1.5717457e-07
64	0xb3690d4c	-5.4261633e-08
65	0x347b0a10	2.3379857e-07
66	0xb6b6994f	-5.44187e-06
67	0xb80ccfb1	-3.357203e-05
68	0xb7a6e85a	-1.989694e-05
69	0x35c15a55	1.4405911e-06
70	0x350580c8	4.973376e-07
71	0xb60fce98	-2.1428914e-06
72	0xb6ca4029	-6.0275383e-06
73	0xb7907044	-1.7218415e-05
74	0xb68c02a4	-4.1726325e-06
75	0x34b86097	3.434295e-07
76	0x33fe9c88	1.18562696e-07
77	0xb50921a5	-5.1085436e-07
78	0x36904337	4.2993593e-06
79	0x371cc28d	9.343622e-06
80	0x36c3bce7	5.833444e-06
81	0xb4f0f59d	-4.488219e-07
82	0xb4265fa2	-1.5494746e-07
83	0x353336ec	6.676262e-07
84	0x3707a013	8.083897e-06
85	0x37e4fc84	2.7297305e-05
86	0x3781187a	1.5389396e-05
87	0xb596ac44	-1.1226007e-06
88	0xb4d01173	-3.8755715e-07
89	0x35e02091	1.6698779e-06
90	0xb61364e9	-2.1963444e-06
91	0x37c95bab	2.4003753e-05
92	0x3718a089	9.0972835e-06
93	0xb51d92c9	-5.870066e-07
94	0xb45998e1	-2.0265317e-07
95	0x356a6443	8.7317693e-07
96	0xb725d7c8	-9.885007e-06
97	0x372773b3	9.980914e-06
98	0x3699825d	4.5749316e-06
99	0xb4af74d3	-3.268129e-07
100	0xb3f24ae6	-1.1282627e-07
101	0x35027f1c	4.861374e-07
102	0x3692e404	4.3776836e-06
103	0x37ead7a5	2.7995391e-05
104	0x378167a8	1.5426267e-05
105	0xb59158a4	-1.082914e-06
106	0xb4c8b65d	-3.738559e-07
107	0x35d83427	1.6108432e-06
108	0xb711ff14	-8.7020635e-06
109	0xb7caccb5	-2.41756e-05
110	0xb725ea8c	-9.889376e-06
111	0x35408cc6	7.1730426e-07
112	0x3484f2da	2.4763614e-07
113	0xb58f35b6	-1.0669962e-06
114	0x371106e1	8.644275e-06
115	0xb8044975	-3.1539665e-05
116	0xb7c52f63	-2.3506296e-05
117	0x35ed92ca	1.7700597e-06
118	0x35240923	6.1108057e-07
119	0xb630b23a	-2.6329785e-06
120	0xb6b0917a	-5.2621444e-06
121	0xb6ecb64e	-7.054571e-06
122	0xb4ab9630	-3.1960508e-07
123	0x33b94d03	8.628742e-08
124	0x32ffe2fb	2.9789126e-08
125	0xb409d177	-1.2835322e-07
126	0xb61a085e	-2.2952659e-06
127	0xb7aea5f7	-2.08197e-05
128	0xb76d8735	-1.4157781e-05
129	0x35874f15	1.00813e-06
130	0x34bada04	3.4803827e-07
131	0xb5c945f4	-1.4996026e-06
132	0x36870ea3	4.0250175e-06
133	0xb7e9553d	-2.7815457e-05
134	0xb6ed6d5b	-7.075881e-06
135	0x3509b98b	5.130648e-07
136	0x343e300b	1.7712607e-07
137	0xb54cdddd	-7.6318776e-07
138	0xb6da1ce6	-6.5002705e-06
139	0xb7cb84ec	-2.4261382e-05
140	0xb796bf3a	-1.797044e-05
141	0x35a811b4	1.2522128e-06
142	0x34e81754	4.323034e-07
143	0xb5fa0115	-1.8626766e-06
144	0xb68c3a03	-4.1790786e-06
145	0x37594237	1.2949625e-05
146	0x35e89daf	1.7331239e-06
147	0xb40dd074	-1.3207483e-07
148	0xb343d5c3	-4.559639e-08
149	0x3452f338	1.9646257e-07
150	0xb5e2aaa2	-1.6887973e-06
151	0xb7ce2953	-2.4576357e-05
152	0xb7852729	-1.587307e-05
153	0x358cc35e	1.0487672e-06
154	0x34c2622d	3.6206748e-07
155	0xb5d162e1	-1.5600491e-06
156	0xb6bbeb12	-5.6004e-06
157	0xb6e93b0c	-6.950815e-06
158	0xb688ead0	-4.0804516e-06
159	0x34bf14a3	3.5591538e-07
160	0x3403ef26	1.2287327e-07
161	0xb50e1df6	-5.294272e-07
162	0x3752fa87	1.2575306e-05
163	0xb7cf231c	-2.4692672e-05
164	0xb79cc7cd	-1.8689689e-05
165	0x35b1789c	1.322263e-06
166	0x34f5130f	4.5648673e-07
167	0xb603feaf	-1.9668767e-06
168	0xb72d7d9a	-1.0340847e-05
169	0x34169275	1.402312e-07
170	0x359990dd	1.1441549e-06
171	0xb43413c6	-1.6771e-07
172	0xb378ac6b	-5.7898813e-08
173	0x3485eee5	2.4947e-07
174	0xb4ffd27a	-4.7650593e-07
175	0xb7896d0f	-1.6382457e-05
176	0xb70e4cad	-8.481712e-06
177	0x352416cc	6.1127935e-07
178	0x34629842	2.1103281e-07
179	0xb5741577	-9.092832e-07
180	0xb71d5f41	-9.380107e-06
181	0x36defb09	6.64534e-06
182	0x35acd939	1.2878219e-06
183	0xb440875d	-1.7930638e-07
184	0xb384ef19	-6.1902206e-08
185	0x348f31ad	2.667197e-07
186	0xb64193aa	-2.8845193e-06
187	0xb7b787bc	-2.1878506e-05
188	0xb7918069	-1.7345143e-05
189	0x35a1905b	1.2037448e-06
190	0x34df1b9b	4.1557072e-07
191	0xb5f053df	-1.7905803e-06
192	0x3716c7aa	8.987185e-06
193	0xb82f88e5	-4.1850744e-05
194	0xb7ce0ff7	-2.4564548e-05
195	0x35e2d79f	1.6901066e-06
196	0x351ca053	5.834783e-07
197	0xb628b70a	-2.5140494e-06
198	0x364ea50e	3.0792467e-06
199	0xb7e22f66	-2.6963371e-05
200	0xb7b63e9a	-2.1725242e-05
201	0x35d03c19	1.5514698e-06
202	0x350fc747	5.356164e-07
203	0xb61ae01a	-2.3078233e-06
204	0xb682f545	-3.902855e-06
205	0xb802833a	-3.111663e-05
206	0xb75210b7	-1.2520867e-05
207	0x3573c30d	9.080839e-07
208	0x34a84f08	3.134994e-07
209	0xb5b54c8f	-1.3507832e-06
210	0xb719c3f9	-9.165139e-06
211	0xb7a7f374	-2.0021318e-05
212	0xb7617ed1	-1.3440572e-05
213	0x3552737d	7.8399154e-07
214	0x34914f09	2.706586e-07
215	0xb59c861b	-1.1661936e-06
216	0xb70ad9fd	-8.276195e-06
217	0x36eb7c85	7.0180417e-06
218	0x34815991	2.409329e-07
219	0xb4a1378f	-3.002901e-07
220	0xb3dea0f8	-1.03669606e-07
221	0x34efcfc8	4.46684e-07
222	0xb6d21d5e	-6.2619065e-06
223	0x36e8921a	6.9311473e-06
224	0xb5a1db0e	-1.2059188e-06
225	0x33f0fb68	1.12216014e-07
226	0x332663a5	3.8740513e-08
227	0xb4333b43	-1.6692233e-07
228	0x36b72bfc	5.4589455e-06
229	0x37a2f40e	1.9425552e-05
230	0x37551206	1.2699986e-05
231	0xb55778b3	-8.026938e-07
232	0xb494c66b	-2.7711516e-07
233	0x35a041ff	1.1940136e-06
234	0x365e5477	3.3129743e-06
235	0xb771d75d	-1.4414863e-05
236	0xb7388924	-1.0999185e-05
237	0x3541ff29	7.226941e-07
238	0x3485f294	2.494968e-07
239	0xb590492c	-1.0750132e-06
240	0x3625bb26	2.469585e-06
241	0xb6ba51bb	-5.5527466e-06
242	0xb6a810ef	-5.0087615e-06
243	0x34879331	2.5252805e-07
244	0x33bb381d	8.718073e-08
245	0xb4c9ab42	-3.7563774e-07
246	0x352be21a	6.4031485e-07
247	0xb821c5bb	-3.8569542e-05
248	0xb7ec01b3	-2.8134184e-05
249	0x360ac425	2.0677774e-06
250	0x353fa03a	7.1386205e-07
251	0xb64e6a7b	-3.0758372e-06
252	0x36dfaf93	6.6663574e-06
253	0xb794d086	-1.7740076e-05
254	0xb6ceab8d	-6.1592496e-06
255	0x3502e695	4.8764315e-07

exp_avg_sq f4 [128, 6]
0	0x31178ab4	2.2052236e-09
1	0x30e7f79a	1.6877835e-09
2	0x31215502	2.3476905e-09
3	0x2b13ceef	5.251207e-13
4	0x298cee91	6.2586336e-14
5	0x2ba386c3	1.161925e-12
6	0x3216e62d	8.783485e-09
7	0x32d5eed8	2.4905077e-08
8	0x3174b669	3.5610361e-09
9	0x2c384621	2.6186902e-12
10	0x2aafb383	3.1210806e-13
11	0x2ccbdeb5	5.7943325e-12
12	0x31ef489e	6.964071e-09
13	0x3324f7b4	3.840951e-08
14	0x3118b569	2.222203e-09
15	0x2c1b3e15	2.2061287e-12
16	0x2a940543	2.6293732e-13
17	0x2cabc04a	4.8814607e-12
18	0x31ad1646	5.037495e-09
19	0x3268f7c8	1.3560516e-08
20	0x31ed325c	6.903333e-09
21	0x2d37a891	1.0439775e-11
22	0x2baf1d4c	1.2442629e-12
23	0x2dcb306e	2.3099935e-11
24	0x3386acb9	6.271279e-08
25	0x343526fb	1.687112e-07
26	0x33857bd1	6.215817e-08
27	0x2ee80303	1.05506735e-10
28	0x2d5d37da	1.2574797e-11
29	0x2f805783	2.3345245e-10
30	0x330dcdf6	3.301644e-08
31	0x32e66871	2.6823018e-08
32	0x32038456	7.655293e-09
33	0x2ca682d1	4.7325273e-12
34	0x2b1ec3e0	5.640471e-13
35	0x2d3837d0	1.0471582e-11
36	0x332b6492	3.990551e-08
37	0x336b1f6b	5.4743776e-08
38	0x32920967	1.7000913e-08
39	0x2d9e5803	1.8001605e-11
40	0x2c16fa36	2.1455177e-12
41	0x2e2f2e91	3.9831752e-11
42	0x328789e8	1.5778781e-08
43	0x323d5bd7	1.102213e-08
44	0x329f2974	1.8528887e-08
45	0x2cec5ae1	6.717613e-12
46	0x2b615c12	8.006383e-13
47	0x2d82be98	1.486393e-11
48	0x32a32e1f	1.8996671e-08
49	0x32b36ac6	2.0886898e-08
50	0x32a54452	1.9239597e-08
51	0x2d928678	1.6657994e-11
52	0x2c0bb574	1.9853815e-12
53	0x2e221b64	3.6858863e-11
54	0x31bb8457	5.4574616e-09
55	0x33135de2	3.431149e-08
56	0x3174abbf	3.56043e-09
57	0x2c5a3b75	3.1012669e-12
58	0x2ad0145c	3.696235e-13
59	0x2cf1705f	6.8621077e-12
60	0x31cd9a43	5.9838228e-09
61	0x3299bbfa	1.7897026e-08
62	0x310746f7	1.9685424e-09
63	0x2baaa22c	1.2124238e-12
64	0x2a22b1f8	1.4450236e-13
65	0x2c3cc750	2.6827048e-12
66	0x331e25bc	3.682156e-08
67	0x3378cdac	5.7929057e-08
68	0x32fa44b2	2.913507e-08
69	0x2e4ab153	4.6086978e-11
70	0x2cc14361	5.4928705e-12
71	0x2ee03f44	1.0197579e-10
72	0x32727361	1.4112488e-08
73	0x338c7792	6.541008e-08
74	0x319caf36	4.5601167e-09
75	0x2c746950	3.4732946e-12
76	0x2ae90a8d	4.1396435e-13
77	0x2d073368	7.685276e-12
78	0x32e33d1c	2.6454067e-08
79	0x3294c81e	1.732047e-08
80	0x32221feb	9.436898e-09
81	0x2d38adc2	1.0497771e-11
82	0x2bb0165d	1.2511759e-12
83	0x2dcc5158	2.3228239e-11
84	0x3328b28b	3.9277932e-08
85	0x3341e830	4.5147488e-08
86	0x32d20ab1	2.445208e-08
87	0x2e1400db	3.3652064e-11
88	0x2c8d1e2f	4.010812e-12
89	0x2ea3bdf5	7.446125e-11
90	0x32814616	1.5049448e-08
91	0x338c6ed4	6.5394175e-08
92	0x32338f05	1.045169e-08
93	0x2d33e3ab	1.0225524e-11
94	0x2bab855b	1.2187294e-12
95	0x2dc704cd	2.2625813e-11
96	0x32b1bcd9	2.069139e-08
97	0x33333916	4.1728605e-08
98	0x32001dec	7.457384e-09
99	0x2cba2084	5.290048e-12
100	0x2b3177ca	6.3049273e-13
101	0x2d4deb6e	1.1705177e-11
102	0x32b6d417	2.1284036e-08
103	0x33076da4	3.1531854e-08
104	0x32d547de	2.4829145e-08
105	0x2df9ae99	2.838556e-11
106	0x2c6e111a	3.3831327e-12
107	0x2e8a1de7	6.280825e-11
108	0x3225fd8c	9.661914e-09
109	0x335d0935	5.1463946e-08
110	0x31d88e3b	6.302597e-09
111	0x2d2623e4	9.443977e-12
112	0x2b9e6944	1.1255792e-12
113	0x2db7cec9	2.0896522e-11
114	0x33d1bc28	9.766546e-08
115	0x33b2e657	8.3306695e-08
116	0x33a3e45a	7.631816e-08
117	0x2ea6855f	7.5724975e-11
118	0x2d1ec62e	9.025265e-12
119	0x2f383a9b	1.6755523e-10
120	0x323843e8	1.072565e-08
121	0x333b97e2	4.3677467e-08
122	0x3189e6ea	4.0134767e-09
123	0x2be25436	1.6081639e-12
124	0x2a57ccc7	1.9166882e-13
125	0x2c7a65a2	3.5583554e-12
126	0x329f8150	1.856884e-08
127	0x330962f6	3.1987803e-08
128	0x32906b66	1.6812645e-08
129	0x2de6c544	2.6235576e-11
130	0x2c5c08f4	3.126885e-12
131	0x2e7f4fb2	5.805107e-11
132	0x32b9950b	2.1604611e-08
133	0x3300dd0c	3.0003363e-08
134	0x333860f0	4.2929003e-08
135	0x2d454b3e	1.1214861e-11
136	0x2bbc1d95	1.3366414e-12
137	0x2dda4639	2.4814916e-11
138	0x32ed0572	2.7592908e-08
139	0x335d83c2	5.1575405e-08
140	0x32c2ec9d	2.2692172e-08
141	0x2e20a04c	3.652216e-11
142	0x2c992753	4.3528874e-12
143	0x2eb1b516	8.0811954e-11
144	0x31b15b27	5.161741e-09
145	0x32ebc6fc	2.7448088e-08
146	0x314a1610	2.940741e-09
147	0x2c06d05e	1.9158212e-12
148	0x2a808ad1	2.283369e-13
149	0x2c952667	4.2390982e-12
150	0x32c1ebaa	2.2575325e-08
151	0x330e2ea0	3.3104357e-08
152	0x32986d6a	1.7744885e-08
153	0x2de9e02d	2.6588587e-11
154	0x2c5efeec	3.1689608e-12
155	0x2e815f8f	5.8832154e-11
156	0x31b05040	5.1313975e-09
157	0x3303dc54	3.07012e-08
158	0x3199989f	4.470237e-09
159	0x2c93fede	4.2062872e-12
160	0x2b0d1c57	5.013259e-13
161	0x2d23bbc7	9.307172e-12
162	0x33de6213	1.035552e-07
163	0x33781e8f	5.7769793e-08
164	0x33c333a5	9.089789e-08
165	0x2e5bb2be	4.995359e-11
166	0x2cd17a52	5.9537176e-12
167	0x2ef30fac	1.10531445e-10
168	0x32823c5d	1.5161442e-08
169	0x33dd56bc	1.0306891e-07
170	0x3203f7b7	7.681527e-09
171	0x2c87c1ec	3.8584604e-12
172	0x2b017114	4.5986934e-13
173	0x2d16318b	8.537514e-12
174	0x32dc28d6	2.562994e-08
175	0x32c03bbb	2.2378904e-08
176	0x32dec638	2.5934341e-08
177	0x2d72ad12	1.3794537e-11
178	0x2be762f4	1.6441002e-12
179	0x2e063dba	3.0522897e-11
180	0x32617a57	1.3124541e-08
181	0x33a9f2b6	7.9138246e-08
182	0x31c2224e	5.650043e-09
183	0x2c78bdcc	3.5348278e-12
184	0x2aed2b8d	4.2129877e-13
185	0x2d0998bf	7.821465e-12
186	0x32fd1fde	2.9467568e-08
187	0x3339937b	4.3207802e-08
188	0x32beb342	2.2200428e-08
189	0x2e1ba358	3.5387998e-11
190	0x2c9465d4	4.217718e-12
191	0x2eac3059	7.830243e-11
192	0x33adeb8a	8.0987846e-08
193	0x3397a4ae	7.0614405e-08
194	0x3392e5a2	6.840425e-08
195	0x2e90c983	6.5841575e-11
196	0x2d0a0d24	7.84731e-12
197	0x2f202f0a	1.4568627e-10
198	0x34119cae	1.3561177e-07
199	0x33b8c371	8.603718e-08
200	0x33fbbb6e	1.17221916e-07
201	0x2e8988c2	6.254332e-11
202	0x2d0322c7	7.45421e-12
203	0x2f1828e2	1.3838844e-10
204	0x32980f95	1.7702215e-08
205	0x338a16e1	6.4302874e-08
206	0x3258b7b5	1.2614625e-08
207	0x2db131be	2.014466e-11
208	0x2c28f36f	2.4009369e-12
209	0x2e440988	4.4573706e-11
210	0x32e98162	2.7183606e-08
211	0x329b0cec	1.8050251e-08
212	0x3236433d	1.06090825e-08
213	0x2d7b8ab9	1.4298501e-11
214	0x2befd6ff	1.7041645e-12
215	0x2e0b254c	3.1638067e-11
216	0x32257c20	9.632487e-09
217	0x3294c512	1.7319085e-08
218	0x323da16b	1.103795e-08
219	0x2d643370	1.2971721e-11
220	0x2bd995d3	1.5460362e-12
221	0x2dfc77d6	2.8702301e-11
222	0x31a9f594	4.9464663e-09
223	0x32caae20	2.3595078e-08
224	0x311e9d37	2.3081392e-09
225	0x2b932a8c	1.0456787e-12
226	0x2a0c51da	1.2462896e-13
227	0x2c22d0f1	2.313757e-12
228	0x3281a51e	1.5092663e-08
229	0x331545dd	3.4755306e-08
230	0x32974bd9	1.7613205e-08
231	0x2d8fa084	1.6328501e-11
232	0x2c08f1fc	1.946109e-12
233	0x2e1ee680	3.6129766e-11
234	0x32eb613d	2.740182e-08
235	0x32a0eef6	1.8735118e-08
236	0x3323537f	3.8027334e-08
237	0x2d6efc4d	1.3584756e-11
238	0x2be3de12	1.6190957e-12
239	0x2e04332c	3.0058775e-11
240	0x32078da5	7.8902405e-09
241	0x320d4475	8.2228455e-09
242	0x31fa7ecf	7.290374e-09
243	0x2ca0e3ef	4.5727792e-12
244	0x2b1967f3	5.450078e-13
245	0x2d31fff2	1.0118116e-11
246	0x342f8f0b	1.6350184e-07
247	0x341dfa6b	1.4712866e-07
248	0x33e73cbd	1.0767824e-07
249	0x2eeea4a9	1.08522365e-10
250	0x2d638a7b	1.2934205e-11
251	0x2f840298	2.4012503e-10
252	0x327053f3	1.39889265e-08
253	0x335601c3	4.982736e-08
254	0x32d27d47	2.4504187e-08
255	0x2d33975e	1.0208582e-11
